AirQualityApp/AirQualityApp.Android/Assets/AthensLong.tflite (tflite, 810852 bytes, 24 tensors)

std.constant3 f4 [128, 128]
000000 b1 ad 5c bd 53 c8 ab bd 1a fb 0e bd 46 e6 9f bd
       -0.053876583 -0.08387818 -0.034907438 -0.07807593
000010 e0 8d b6 3c f4 c1 ac bc 71 78 7b 3c a1 ee 14 bd
       0.022284448 -0.021088578 0.01534854 -0.036360387
000020 24 c4 3d 3d f5 bb e7 3c 29 bf 31 3d b1 67 66 bd
       0.046329632 0.028287867 0.043395195 -0.05625123
000030 b8 cb 0a bc 9e 8e 9f bd 88 d4 8f 3a b0 51 ed bd
       -0.008471422 -0.07790874 0.0010973373 -0.11587846
000040 f4 90 b5 bc e6 5c ba 3c 99 be 2d 3d ba 95 50 3c
       -0.022163846 0.022749376 0.042418096 0.01273101
000050 ba 40 24 3d ec 30 eb bb 28 71 f9 3b 64 ae 48 3d
       0.04010079 -0.007177463 0.007612366 0.048994437
000060 2a c9 1f bd 16 ce 3b 3c 10 77 4a bd df 20 e6 3c
       -0.039010204 0.011462709 -0.049429953 0.028091846
000070 70 31 7d 3c ba 25 89 bd e5 bf 4e 3d f2 10 70 3b
       0.015453681 -0.06696649 0.050475974 0.0036631194
000080 f0 e4 29 bb ab 64 fd 3c 66 50 08 bd 6d 71 11 3d
       -0.002592381 0.030931791 -0.0332798 0.035508562
000090 42 3a 7a 3c 98 6e d7 bc c0 ed 9c b9 8a 8e bc 3c
       0.015272679 -0.026297852 -0.00029931776 0.023017187
0000a0 c0 24 ee bc c2 d3 e0 bb bf 2d 05 3d 00 80 90 37
       -0.029070258 -0.006861181 0.03251433 1.7225742e-05
0000b0 ca c5 8c bc 09 f4 ad 3c 72 90 4c bd e0 15 2e bd
       -0.017184157 0.02123453 -0.04994244 -0.04250133
0000c0 1e 81 45 bc 8a de 1f 3d e4 41 6c 3d 4b d9 6b 3c
       -0.01205471 0.03903059 0.057680026 0.014395068
0000d0 46 2e 86 3d c3 ff dd 3c 50 e8 3f 3d c2 9f f5 3d
       0.06551795 0.027099496 0.04685241 0.11993362
0000e0 45 27 ba 3c 4f 55 08 bc de 3a 10 3d 68 15 ba 3d
       0.022723803 -0.00832112 0.03521239 0.09086114
0000f0 fa 6e de 3c fe b9 f8 3c c7 78 19 3d e1 3f 4c 3b
       0.027152527 0.030362125 0.037468698 0.0031166004
000100 39 15 66 3d ea e3 9c 3d 03 2f 84 3d bf c6 a7 bd
       0.056172583 0.07660659 0.06454279 -0.08192205
000110 4e d0 81 bb c4 e0 35 bd 1c 47 da 3a d9 52 92 bd
       -0.0039615994 -0.044403806 0.0016653272 -0.07144708
000120 47 25 85 bd 4a ce 44 3d b5 69 a9 3d 5c 21 2a 3d
       -0.06501251 0.048048295 0.08272115 0.04153572
000130 18 3e 57 3d e6 3e 5f bc 04 1d 12 bd 22 81 19 bd
       0.05254945 -0.013625836 -0.035672203 -0.037476666
000140 2b 22 89 bd aa c0 a8 bc 8e d5 a2 3d a9 17 b9 bd
       -0.0669597 -0.020599682 0.079508886 -0.09037716
000150 50 d0 a8 ba 91 f7 18 bd 3d 45 4a 3d 3a ae 1c 3d
       -0.0012879465 -0.037345473 0.049382437 0.038252093
000160 4c 0d 2a bb 80 40 74 3d ce 3d 80 3d 53 cc d9 3c
       -0.0025947867 0.059631824 0.06261788 0.026586687
000170 44 f8 59 bd cf 40 81 bc ba 96 80 3b ae 8f 28 bd
       -0.05321528 -0.015777973 0.003924218 -0.04115265
000180 1f 0c 47 3d 8c 26 9a 3d ac 11 90 bb 3c 18 7d bd
       0.048595544 0.075268835 -0.004396638 -0.06179069
000190 c0 3e 5a bd 1f ab 55 3c 46 e4 03 3d 98 6a 09 bb
       -0.0532825 0.013041287 0.03220012 -0.0020968076
0001a0 6b 68 35 3d 7f aa 64 3d 99 25 4b 3c 54 6c 9c 3d
       0.044289034 0.05582666 0.012399101 0.076378495
0001b0 be dd 50 bd fe 42 c8 bc a4 50 21 3c 38 6b 58 bd
       -0.05099272 -0.024446007 0.009845886 -0.052836627
0001c0 7c cd 01 bd 8b ba a5 bc be 11 97 bd f4 12 a2 3b
       -0.031690106 -0.020230552 -0.07376431 0.004946107
0001d0 45 09 86 bd 78 6c d2 bc b9 ea 18 bd 4d ef 58 bd
       -0.06544737 -0.025686488 -0.037333224 -0.05296259
0001e0 ea e1 28 bc 87 1c 9d 3c b0 42 20 bd 84 8e fb bc
       -0.010307768 0.019178642 -0.0391261 -0.030707605
0001f0 f3 4e 4a 3c 9e a5 a4 bc 62 73 50 3d 2d 6d 1c 3b
       0.0123479245 -0.020098504 0.050891288 0.0023868785
000200 01 8b 92 bd 20 03 81 bd 84 16 d9 3b 3a 9e b2 3b
       -0.07155419 -0.06299424 0.0066249985 0.005450991
000210 36 cb 04 3c 6c 1d 37 3c fe 3c 37 3c 45 a1 70 bd
       0.00810509 0.011176448 0.011183975 -0.05874755
000220 0b 8d 4f bd 21 a0 ac 3b 1d 74 07 bd 6c 6f 34 3d
       -0.05067162 0.0052681123 -0.03306972 0.044051573
000230 5a 27 d9 3c ce 91 ba bc b6 e5 45 bd d0 05 01 bd
       0.026508022 -0.022774603 -0.048314773 -0.031499684
000240 35 6e 1e bd c4 fe be bc d8 41 38 bb af 7c a5 3c
       -0.03867932 -0.023314841 -0.0028115418 0.020201055
000250 93 67 9e 3d 85 29 5d bd a0 21 52 3b d7 ea 72 3d
       0.07734599 -0.053994674 0.00320635 0.059305992
000260 b3 2c ab bc 1e 6e 0d bd 8a 24 34 bc 0b 67 4c bd
       -0.020895338 -0.034528844 -0.01099504 -0.049902957
000270 a5 36 a5 bc 98 a7 b6 bd 20 dc 28 3d 45 08 88 bc
       -0.020167658 -0.08918685 0.041225553 -0.016605506
000280 6f df 20 3d 6b ea 24 3c a3 e8 fb bc aa d7 86 bd
       0.039275583 0.010065655 -0.030750578 -0.065841034
000290 66 de c7 3d d2 fd a9 3d 65 02 a1 3c ec e6 3b bd
       0.09759216 0.083003655 0.019654462 -0.04587452
0002a0 a4 e0 22 bb 84 93 40 bb 16 ea ae 3c 5e 35 da bb
       -0.0024853135 -0.0029384801 0.021351855 -0.006659194
0002b0 ee de ab 3d d1 67 e1 3c d0 9f a3 3d d8 a1 a1 ba
       0.0839213 0.027515324 0.07989466 -0.0012331558
0002c0 2f 58 43 3d 30 a7 11 bd 04 c4 66 3b 57 44 ad bd
       0.04769152 -0.035559833 0.003521205 -0.084603004
0002d0 e0 38 84 3c 12 d2 31 3d 1a fa 6f 3c 47 f7 8c 3d
       0.016140401 0.04341323 0.014647031 0.06883102
0002e0 20 6a 8c 3d f9 b2 80 3d 20 38 f6 3a aa 1d 3a bc
       0.06856179 0.06284136 0.0018785037 -0.0113596115
0002f0 94 91 33 3c a3 6a 26 bd 16 19 f4 3b d4 9e a5 bc
       0.0109600015 -0.04062904 0.0074492795 -0.020217337
000300 7d 8c 40 bd 2a 73 55 bb e4 d4 17 bb 72 5b 29 3c
       -0.04700898 -0.0032569864 -0.0023167664 0.010336744
000310 b0 c7 a5 bd 59 18 85 bd 93 e3 40 3d 9e 55 be bc
       -0.08094728 -0.064987846 0.04709203 -0.023234185
000320 5f 1c ac 3d 9a ea 8c bd 9e c7 38 3c 7e 27 85 bd
       0.08403849 -0.06880684 0.011278061 -0.06501673
000330 9c 7b 15 bc 6c a8 e3 ba 2e 10 51 3d 80 58 25 3b
       -0.009123709 -0.0017368919 0.05104082 0.0025229752
000340 dc e4 aa 3c 07 70 f2 3b 6e b7 a1 3b d6 97 48 bb
       0.020861082 0.0073986086 0.0049351966 -0.003060808
000350 f6 72 8a bd 92 29 8d 3d 94 b0 d2 3b 96 e6 76 3c
       -0.06760208 0.068926945 0.006429741 0.015069624
000360 81 99 a1 3c 10 8a 72 3c 60 16 0b bb 41 9f 93 3c
       0.019726517 0.0148034245 -0.0021223053 0.018020274
000370 3c 72 0e be 0d 8f 6a 3d 82 4f 8f bd 1c 00 c3 3b
       -0.13910764 0.05726533 -0.06997587 0.005950941
000380 d1 74 e7 3c 85 09 22 3c 4c ae 54 bc 9a 7d 46 3d
       0.028253945 0.009889965 -0.012981009 0.048459627
000390 be b4 ab bc 9d 2c 68 3d f4 9c 63 bb 80 f8 5f bd
       -0.020960208 0.05668317 -0.0034731003 -0.054680347
0003a0 56 12 17 3c 9e c0 a8 bb 0b c1 9e 3c 2c 50 91 bd
       0.00922068 -0.005149915 0.01937916 -0.0709537
0003b0 95 7b 07 3d 6e d5 25 3d 43 68 bc bc ff b2 8b 3c
       0.03307684 0.040486746 -0.022998935 0.017053125
0003c0 78 c2 1f bd be 57 5b 3d d3 d4 50 3d 42 72 4b 3d
       -0.03900382 0.053550474 0.050984215 0.04966951
0003d0 44 3b 64 3b 02 1a 2c 3d 25 b0 2c bd 0a a4 37 3c
       0.0034825364 0.04201699 -0.042160172 0.011208544
0003e0 5c ed ec 3b 72 d7 02 3c 90 de 8b 3c 9f 74 9a 3d
       0.007230444 0.0079859365 0.0170739 0.07541775
0003f0 ac 8b 3b bb a3 da fb 3c 91 6b 2f 3d bc 89 fd bc
       -0.0028617186 0.030743903 0.042827193 -0.030949466

std.constant4 f4 [128, 128]
000000 61 07 da bc 4b 1e a5 3d a8 10 31 3d 33 76 cb 3c
       -0.026614847 0.080624186 0.043228775 0.024836635
000010 8b 8d 38 bd 7c d6 b9 3c 6c 5f 3d 3c d5 c8 65 3d
       -0.04505686 0.022685282 0.011558395 0.05609973
000020 ca 1b e2 bc 88 47 05 bc a8 d3 3c 3d 90 9f 6b ba
       -0.027601141 -0.00813473 0.04610029 -0.0008988315
000030 45 f9 b9 bd 73 7c 1a bd 6c ea e6 bb 92 bd 49 3d
       -0.090807475 -0.03771634 -0.0070469882 0.049253054
000040 5e 91 94 bd 38 06 9b 3d 0b be 5d bd 34 bb 85 bb
       -0.07254289 0.075695455 -0.054136317 -0.0040811542
000050 3f c3 55 3d 22 6d 8a 3d c9 43 0c bd 0a 0e 28 bd
       0.052188154 0.06759097 -0.034244332 -0.041029014
000060 9d b7 7e 3d 09 8b b4 3c 9d 83 05 bd 00 05 9b 3d
       0.062186826 0.022038953 -0.03259622 0.07569313
000070 b1 b2 0b bd fc 08 3f bc b2 3a 11 3d 89 4e d9 bc
       -0.03410596 -0.011659857 0.035456367 -0.026526706
000080 11 93 fb bc a6 66 8c bd 1d d3 da 3b d6 bd e9 bb
       -0.030709775 -0.06855516 0.0066779987 -0.007133226
000090 4a cc ac 3d 02 75 37 bc 4b d1 12 bd c0 93 45 3d
       0.084374025 -0.01119733 -0.03584413 0.04823661
0000a0 d4 38 a2 3d bc 25 c9 bc 43 df ee bc c6 9d 58 3d
       0.07920995 -0.024554126 -0.029159194 0.05288484
0000b0 26 c4 8f bc 5b 5c 3d 3d ce d8 75 3c 09 b3 27 3c
       -0.017549586 0.046230655 0.015005304 0.010235556
0000c0 6b bd 81 bc 0f ba f2 3c 74 59 e2 3c c8 cc e2 bc
       -0.015837392 0.029629735 0.027630545 -0.027685538
0000d0 17 56 bd 3d 8e fa 16 bd d8 73 07 bc 32 96 5e 3d
       0.09244936 -0.03686004 -0.008267365 0.054342456
0000e0 18 62 e8 bc 4b 8b cd 3c 9c a5 e6 bb cc ba ae bc
       -0.028367087 0.025090834 -0.007038785 -0.021329306
0000f0 16 d6 33 bb 0d 15 b2 3c ee c7 3e 3d 40 83 2f bd
       -0.0027440838 0.021738553 0.046577387 -0.04284978
000100 b8 ae 34 3d 53 d6 16 3d 92 83 ff bc 1a 9b 49 3c
       0.044111937 0.03682549 -0.031190667 0.0123050455
000110 e0 bb ac bd b8 f0 82 bb dc 55 6e bd 0e a2 55 3d
       -0.08434272 -0.003995981 -0.05818735 0.0521565
000120 37 01 90 3c 68 59 2e 3c 2c 5e 77 3b 80 31 36 ba
       0.017578704 0.010641433 0.003774534 -0.0006950125
000130 20 14 f4 3d 69 d2 96 3c ff 04 18 3d 99 66 66 3c
       0.11917901 0.018410878 0.03711414 0.014062547
000140 f3 fa 8a 3d 68 69 56 bd 76 1b 85 bd da 39 d4 3d
       0.06786146 -0.052346617 -0.064993784 0.10362597
000150 33 c1 03 3d c0 30 d3 3a cc ce 4d bd 3f 29 af bc
       0.03216667 0.0016112551 -0.050246045 -0.021381972
000160 00 84 7e 39 56 ac bb bc 22 fa 35 bd e3 32 0e bd
       0.00024272501 -0.022909325 -0.044428 -0.034716498
000170 53 9e b6 3c 60 2d 43 3d 6e 1d f4 3c a3 f6 a6 3b
       0.022292292 0.047650695 0.02979919 0.0050953194
000180 bc e0 cd 3c 08 b2 a0 3c 2e e7 4b bc 5e f1 8d bb
       0.025131576 0.019616142 -0.012445254 -0.0043317517
000190 cc 4c df 3b 08 c6 51 bd 54 fe 1f bd 14 60 2b bc
       0.006814575 -0.051214248 -0.039060906 -0.0104599185
0001a0 cf c6 f4 bc 6e d5 1e 3d 96 2b 73 3c 2a c0 6c bd
       -0.029879956 0.03877776 0.014841935 -0.05780045
0001b0 46 37 92 bd e8 0a b0 bd c8 6d 51 3d d1 ee fc bc
       -0.07139449 -0.0859583 0.051130086 -0.030875595
0001c0 62 97 ba bc 51 d6 9b 3d b9 04 ff bc f4 33 ee 3b
       -0.022777263 0.07609237 -0.031130182 0.007269377
0001d0 4c f7 b4 bb 9a ad a2 bd 18 9b e6 bc 21 98 99 3c
       -0.005522644 -0.07943268 -0.028150126 0.018749299
0001e0 f4 69 f1 3c 84 ac 8c bd 14 e6 2b 3c 80 0c 8a bc
       0.029469468 -0.06868842 0.010491867 -0.016851664
0001f0 a0 a5 27 bc 1a 5e 5e bd 48 6d 74 3c fa 6c d8 3c
       -0.010232359 -0.05428896 0.014918633 0.026419152
000200 31 7c 80 39 89 c0 57 bd e6 a2 ec bc 16 99 2f 3d
       0.00024506592 -0.05267385 -0.02888627 0.042870604
000210 5d f6 eb bc e1 5b 16 3d fc 01 ce 3c c9 cb 16 3d
       -0.028803999 0.036708716 0.02514743 0.03681544
000220 52 ba 70 bc 74 a9 1c bb 06 5a cf ba cb 25 2a 3d
       -0.01469286 -0.0023904713 -0.0015819676 0.04153995
000230 ad e2 a4 3c 2a cb 37 3b 47 8d 74 3d 2c 31 ad bb
       0.020127619 0.002804468 0.059705045 -0.0052854028
000240 df ea 63 bc 32 eb 5c bd d2 34 52 3c b0 90 75 bb
       -0.013910978 -0.053935237 0.012829976 -0.0037470274
000250 71 80 3e 3d 8f 49 1c 3d 7c 6b 89 3d 80 85 f3 3c
       0.04650921 0.03815609 0.06709954 0.029726744
000260 01 f2 62 bd 8f 12 27 bc 7f 45 61 3c 40 6f 7d b9
       -0.055406574 -0.010197296 0.013749479 -0.00024169404
000270 b1 ab c3 bd e4 bd 8e bb 4e 58 09 bd 48 f4 0e bd
       -0.09554232 -0.004356133 -0.03353148 -0.034900934
000280 a2 50 99 3c dd 03 af bc f4 d4 d9 3c 4f e4 a0 bc
       0.018715207 -0.021364147 0.026590802 -0.019640116
000290 58 24 37 3b 0b cc ae bd dd 6b 08 bd d4 cb c1 ba
       0.0027945247 -0.08535012 -0.03330599 -0.0014785477
0002a0 a4 b4 9d bb 09 c2 42 3c 26 f0 b8 bd ae 79 8e bd
       -0.004812794 0.011887082 -0.0903018 -0.06956802
0002b0 b6 f0 34 3d 4b ce 6b 3c d1 98 46 bc e1 58 b5 bd
       0.044174872 0.014392446 -0.012121395 -0.08854843
0002c0 14 e1 64 bd 23 26 3a 3c 60 cd d7 bc 1f 5a 87 3d
       -0.055878714 0.011361632 -0.026343048 0.06608986
0002d0 de eb d1 bb b2 77 95 bd 92 7c a4 3a 15 7f d9 bc
       -0.0064062914 -0.07298221 0.0012549332 -0.026549855
0002e0 46 a8 1a bd 3c 8f 6b bc bb fe 05 3d 88 28 45 bd
       -0.037758134 -0.014377411 0.032713633 -0.048134357
0002f0 8a 7e 5a 3d f3 87 5c 3c b0 dd 93 b9 75 8a 72 3b
       0.053343333 0.013460147 -0.00028203195 0.0037008796
000300 32 31 7b bd 8e f6 8a bd 18 e0 ab 3c 39 fa e7 3c
       -0.061326213 -0.06785308 0.02098088 0.028317558
000310 0d 73 0b bc db 4e 01 3d 37 b1 ad 3d b1 22 05 bd
       -0.008511317 0.031569343 0.08481067 -0.032503787
000320 f6 c0 55 3d ae 74 cc 3d ca aa f2 3b 51 da 3a 3d
       0.052185975 0.099831924 0.0074056135 0.04561836
000330 a8 55 b9 bd 44 a7 10 bd 07 d3 c6 3c 7f 14 00 bd
       -0.09049541 -0.035315767 0.024270548 -0.031269547
000340 fa 2c a1 bc 27 cd 6f 3c a0 8e ec bc 05 00 7b bc
       -0.019674767 0.0146363145 -0.028876603 -0.015319829
000350 e0 f5 76 bb 48 a7 95 3d 36 2f 71 3c 4d 95 aa 3c
       -0.0037683174 0.07307297 0.014720729 0.020823145
000360 fe 36 38 bc 20 4f 31 bd 4c 44 99 3c 54 71 f3 3c
       -0.01124358 -0.04328835 0.018709324 0.029717125
000370 5e b7 bc 3c f2 0f 2c bd 92 c8 52 3d 2f 35 7f 3c
       0.023036655 -0.042007394 0.05146081 0.015576645
000380 c6 dd 14 bd b2 52 50 3c 1c 54 b1 3c e0 0d 99 3b
       -0.036344312 0.012715029 0.021646552 0.0046708435
000390 bb 76 e6 bc 28 87 b2 bc 3d 9e 89 3c 9d b7 83 3b
       -0.028132787 -0.021792963 0.016799087 0.004019691
0003a0 74 76 86 3d c8 97 b4 bc b5 f3 92 3d f4 3e 3c bd
       0.06565562 -0.022045031 0.0717539 -0.045958474
0003b0 7a 8c 73 3d f0 95 ae 3b f9 18 1f bc 8e 17 41 bc
       0.05946014 0.0053279325 -0.009710544 -0.011785401
0003c0 84 e4 6e 3d c7 8a cc 3c ab ff 81 bd 2d 6e de bc
       0.0583234 0.024968518 -0.06347593 -0.027152145
0003d0 ce 41 cf bc e4 85 56 3d 88 be fb ba 05 15 b5 bd
       -0.025299933 0.05237378 -0.0019206563 -0.088419
0003e0 f0 3d fb bc 34 4b 76 3d 66 08 55 bd 3b 0b 50 bd
       -0.030669183 0.060130313 -0.052009962 -0.05079196
0003f0 68 0d 1d 3d d9 43 07 be 74 3c c6 3b f6 9d 19 bc
       0.038342863 -0.13209476 0.006049687 -0.00937604

std.constant5 f4 [128, 128]
000000 51 97 8b 3c bf 7d 1a 3d d0 bf 6e bd 00 4d 6d 3d
       0.017039927 0.037717577 -0.058288395 0.05793476
000010 69 30 1e 3d 38 cb a4 bc 16 3a 09 3b 78 b5 32 bd
       0.038620386 -0.020116434 0.0020939163 -0.043630093
000020 7b cf a5 bd 4a 8f 4c bb 7b cc 2d bd db 78 84 3c
       -0.080962144 -0.0031213337 -0.042431336 0.01617091
000030 06 32 19 3d 70 75 42 3b 20 ac c8 3c a5 dd b0 bc
       0.03740122 0.002967205 0.024496138 -0.021590063
000040 fe d7 01 3d cb 23 64 bc aa 62 16 ba 52 b6 0b bc
       0.031700127 -0.013924549 -0.0005736748 -0.008527355
000050 90 30 ab bc ea 9a ed bc 88 6f 25 3c 4a 7f d2 bc
       -0.02089718 -0.029004533 0.010097392 -0.025695462
000060 fe e6 ef 3c 32 d2 77 3b 1a ba 35 3b 2b 8c 3e bc
       0.02928495 0.0037814495 0.0027729333 -0.011630098
000070 9a 06 81 3d 66 00 5b 3d ce 05 38 bd 50 b8 81 bd
       0.06300087 0.053467177 -0.04492741 -0.06333983
000080 14 f2 32 3c 38 5b 42 3d e0 cb 58 3c 06 ad 53 bb
       0.010921974 0.047450274 0.013232201 -0.0032299175
000090 d6 9f 72 3c bd 58 0b bd c9 4c e2 3d 40 2d 07 bd
       0.014808616 -0.034020174 0.11049802 -0.03300214
0000a0 cd e8 a0 3c aa cb 9d bb 30 3b 0c 3d 46 d7 8f bc
       0.019642258 -0.0048155384 0.034236133 -0.017558705
0000b0 32 c5 ea bc b0 28 09 ba e3 89 15 3d fb db 9f 3c
       -0.028658483 -0.0005232198 0.036508452 0.019514075
0000c0 a0 fd cb bc ec 49 33 3d 7e e2 e0 bc 70 4f 23 3d
       -0.024901211 0.04377167 -0.02745175 0.03987068
0000d0 0a 92 61 bd 9a a8 7f bc bd 7f 30 3d 7b 2b 52 3d
       -0.055070914 -0.015604163 0.04309057 0.051310997
0000e0 8a de 60 3d 54 a8 05 3d b8 65 5b 3b dd e2 4a bd
       0.05489973 0.032631233 0.0033477377 -0.04953276
0000f0 1e d9 68 bd 50 47 c5 bc 56 81 8e bc 45 48 be 3d
       -0.056847684 -0.024081856 -0.017395657 0.09291128
000100 5e b9 42 bd 59 5c 0d be 16 cc 1e bd 51 ac 2d 3d
       -0.04754006 -0.13804759 -0.03876885 0.04240066
000110 bf 11 eb 3c 5b 8c 04 3d 34 4d b0 bd c0 5d c6 b9
       0.028694985 0.032360416 -0.08608475 -0.00037835352
000120 30 7e 63 bc 18 00 6b 3b c1 36 80 3d f0 03 e3 3b
       -0.013885066 0.003585821 0.062604435 0.0069279596
000130 b9 e1 80 bd 46 73 a4 bc a6 d5 d8 bc 39 45 1d 3d
       -0.06293053 -0.020074498 -0.026469063 0.038396094
000140 a9 d2 19 bd c8 2f fc bc 04 7f a3 bd f1 4f 11 bd
       -0.037554417 -0.030784503 -0.07983211 -0.03547663
000150 2e 92 93 3d 49 dd 9d 3c 8e 1d 11 bd 65 1b 42 bc
       0.07205616 0.019270556 -0.035428576 -0.011847352
000160 20 32 e3 3c 66 85 bd bb ba f5 cb bc e5 fa ca bc
       0.027733862 -0.0057837246 -0.024897445 -0.024777839
000170 34 9b b2 3c f2 8e 14 3d 2f 6e 1d 3d 0e 06 12 3c
       0.021802522 0.036269136 0.038435157 0.008912576
000180 7a 39 14 3d 59 f0 dc bc 48 fe e9 3c be 6c a5 3b
       0.036187626 -0.026970075 0.028563634 0.0050483635
000190 43 c8 a1 3c 29 0f 24 3b 5c 0a 58 bc 04 b5 95 3d
       0.019748813 0.002503345 -0.013186064 0.073099166
0001a0 be de 49 3d ca 50 83 3d 0c 8a 47 3d 09 63 ed 3b
       0.04928469 0.06411894 0.048715636 0.007244472
0001b0 30 8f cc ba ea 86 23 3d e4 f5 d7 3c ff c3 fd 3c
       -0.0015606638 0.039923586 0.026362367 0.030977247
0001c0 3e a9 b3 bd 4c f5 13 bc e0 80 32 3d e2 d7 d4 3c
       -0.08772515 -0.009030651 0.043579936 0.025981847
0001d0 1a 24 86 3b 24 3a fe 3b ed 7b 34 bd 26 07 d4 3c
       0.004093659 0.0077583957 -0.044063497 0.025882315
0001e0 d6 4d 56 3d 47 5d 29 bc 57 ec 16 3d f7 8f 8c 3d
       0.052320324 -0.01033718 0.036846485 0.068633966
0001f0 df c1 01 3d 2f 02 b9 bb a2 37 80 bc 23 87 34 3d
       0.03167903 -0.0056460123 -0.015651528 0.04407419
000200 3c 57 8c bc ad 5d a2 3c 1e 80 c3 3b 98 f3 db 3d
       -0.01713144 0.019820059 0.0059662005 0.10739821
000210 f5 b1 9d 3c 65 65 87 bd a1 c1 7d bd f0 cc 03 bd
       0.019249896 -0.06611136 -0.061952237 -0.032177866
000220 61 90 a7 3d ae 32 d7 3c 76 eb 56 bc 82 46 ab 3c
       0.08181835 0.026269283 -0.013117662 0.020907644
000230 a1 da 08 3d 89 2e 69 3d 91 10 7e bd 78 5e d0 3b
       0.033411626 0.056929145 -0.062027518 0.006358918
000240 ca 9c f3 3b b4 c7 3a bc 17 94 dd bd 60 9a b9 39
       0.007434462 -0.011400152 -0.108192615 0.00035400968
000250 50 02 5c 3c c8 8a 78 bb 58 ad f9 bc 9c cd 5c bd
       0.013428286 -0.0037924517 -0.030478165 -0.053907022
000260 2f 44 0d 3d be 67 c8 bc 57 d1 eb 3c d4 8d 55 3c
       0.034488853 -0.02446353 0.028786344 0.013034303
000270 68 67 3a ba d1 17 3c bd 1c 70 b5 bc 78 b7 0d bd
       -0.00071107456 -0.04592115 -0.022148184 -0.034598798
000280 27 fb 8e bc e5 59 29 bc 84 1e 5a 3c 99 24 64 3c
       -0.017453743 -0.010336374 0.01331294 0.013924741
000290 ae 35 a3 bc ce e3 04 3d 1a ee 5e bd ac 47 88 bd
       -0.019923057 0.032443814 -0.05442629 -0.06654295
0002a0 5f fe a7 bd 52 54 93 3d 9a 82 c4 bc d4 cc 96 3d
       -0.08202814 0.07193817 -0.023988057 0.073632866
0002b0 5c d3 81 3d 34 02 44 bc d9 8a 43 bb 5a 84 21 bd
       0.06339142 -0.011963416 -0.0029837398 -0.03943286
0002c0 6a 69 9c 3b b9 6e 9b bd 9e de 21 3d 3c 62 36 3d
       0.0047733085 -0.07589478 0.039518945 0.044527277
0002d0 45 21 01 3d 97 6e aa 3c 8a 9a d2 3c fc 5b d3 bc
       0.03152587 0.020804686 0.025708456 -0.025800698
0002e0 c6 1e 90 3d f2 5e cf 3c 30 58 9d ba 21 03 cb 3c
       0.070371196 0.025313828 -0.0012004431 0.024781765
0002f0 4f af 3b 3d 08 06 0c bd 56 d1 71 bc 68 ad 7b 3d
       0.045821484 -0.03418544 -0.014759382 0.06144467
000300 d2 59 a6 bc 7c 4f e9 3c 46 44 3c 3c c6 f9 4a 3d
       -0.020306502 0.028480284 0.011490887 0.04955461
000310 a2 64 e0 3c c8 a5 a9 3c ea ec 90 bb a2 0f 8b bd
       0.027391735 0.020708933 -0.0044227736 -0.06790091
000320 26 d3 7a 3d f6 87 44 bc e6 40 c2 3c 33 d2 65 bc
       0.061236523 -0.011995306 0.023712587 -0.014027166
000330 fc 56 ce bc 10 a7 92 bd dd e4 2f 3c 48 53 08 3a
       -0.025187962 -0.07160771 0.010735718 0.0005200398
000340 2f d1 d0 bc 0e f8 e3 bc 7b fd 85 3c 9a 1f 02 3d
       -0.025490372 -0.027828243 0.01635622 0.03176842
000350 84 10 88 3d 58 14 b6 bd 5c fb b1 bb 3e b4 bf 3d
       0.06643775 -0.08890599 -0.0054315757 0.0936055
000360 10 cb 52 bd e5 a6 1c 3d c4 4c 56 3d 27 9c d4 bd
       -0.051463187 0.0382451 0.052319303 -0.10381346
000370 0c fa 0b 3c 9b 19 ed bc 70 c5 aa 3c 9c ad 86 3c
       0.008543503 -0.028942874 0.020846099 0.016440205
000380 07 c4 9f bc cb 30 06 be 50 bc c7 ba f4 e2 0c 3d
       -0.019502653 -0.1310455 -0.0015238617 0.034396127
000390 27 c5 8f bd 96 03 10 3d c6 d1 37 3c 37 5a 9b 3c
       -0.07020026 0.03515967 0.0112194475 0.018963916
0003a0 c6 eb d0 bc 44 86 90 3d 34 41 8c 3c 66 cc 49 3d
       -0.02550305 0.07056859 0.017120935 0.049267195
0003b0 76 2c 03 bd fa 07 45 bc fe db f9 bc e2 3a 33 ba
       -0.032024823 -0.012025828 -0.030500408 -0.00068370823
0003c0 9d 90 86 bc ae 21 ce bb fc ee be 3c ae 70 3f bd
       -0.016426379 -0.006290636 0.023307316 -0.04673832
0003d0 86 0e 74 bc b7 6f 63 bd 89 e3 ab bd e6 6f 3e bd
       -0.014896041 -0.05552646 -0.08393008 -0.046493433
0003e0 bb 1c 34 bc fd ea 84 bc ba d2 19 bd f4 5e 65 3d
       -0.010993178 -0.016225332 -0.03755448 0.055998757
0003f0 a5 4f 45 bc 2a e2 fa bc 8a 86 0d bd 6a ec dc 3c
       -0.0120429145 -0.030625422 -0.034552135 0.0269682

std.constant6 f4 [128, 128]
000000 00 6f 9d 3d 32 f9 ad bc 15 20 74 3d b8 16 82 3c
       0.07687187 -0.02123699 0.05960091 0.015879974
000010 8e 01 9f 3d c0 7b 93 3d 05 46 1d 3d 70 20 bf bb
       0.077639684 0.07201338 0.038396854 -0.0058327243
000020 00 89 ee bc 00 b3 71 bb e7 27 1e bd 40 2a e9 bc
       -0.029118061 -0.0036880374 -0.038612273 -0.02846253
000030 0d 0b 94 3c 22 3b 3d bd 9c b7 73 bc 53 fc a2 bc
       0.018071676 -0.04619897 -0.014875319 -0.019895708
000040 e4 cd 25 3d e3 e7 a0 bd 65 ec 76 bd 4a 6d af bc
       0.040479556 -0.07856729 -0.060284037 -0.021414418
000050 b3 64 be 3c be 2f 8a 3c 79 25 b2 3c 21 ee 96 3d
       0.023241377 0.016868468 0.021746384 0.07369638
000060 70 bb c2 3b 28 0a d2 bb a0 39 5b 3c 78 37 1f 3d
       0.0059427544 -0.006409902 0.013380438 0.03887126
000070 e6 11 bd 3c 20 06 6c 3c e6 9e 92 3c 60 55 c6 bd
       0.023079824 0.014405757 0.017898034 -0.09684253
000080 c5 a5 7f bd 08 cd 8b bc a0 0e 92 bd c7 cd a4 3d
       -0.06241395 -0.01706554 -0.07131696 0.080470614
000090 2c 54 a2 bd 8b 68 77 bd 0d a7 5f bc c6 8a ef 3d
       -0.07926211 -0.060402434 -0.013650668 0.11696391
0000a0 54 95 2c 3d ad 14 82 bc 90 fe d6 bb 96 d9 1d bd
       0.042134598 -0.015879 -0.006561108 -0.038537584
0000b0 1e c0 1b bd 54 ba b2 3c 9d bb 85 3c 6e ac 0d bc
       -0.038025014 0.021817364 0.016324813 -0.0086470675
0000c0 e1 9c 85 3b b1 b6 d7 bc 68 a7 8e 3c 7a a5 06 3c
       0.0040775393 -0.026332231 0.01741381 0.008218164
0000d0 06 d1 88 3c 04 c8 86 bc b3 81 90 bd 52 c6 a0 bc
       0.016701233 -0.016452797 -0.07055988 -0.019625816
0000e0 81 3c 32 3c 50 b9 7a 3d b4 33 3d bb 3a 7e fe bb
       0.010878683 0.061211884 -0.0028869929 -0.007766512
0000f0 80 45 c4 b8 40 25 14 3d 9f 8a 20 3d f8 1e a3 3c
       -9.358954e-05 0.036168337 0.0391947 0.019912228
000100 c4 0b 94 3c d8 d4 51 3d 10 c0 33 bc bb 6b 82 3d
       0.018072017 0.051228374 -0.010971084 0.06368204
000110 9b b4 c5 bc 78 e3 65 bb 8b 96 43 bc d0 5c a1 bc
       -0.024133971 -0.003507821 -0.011937748 -0.019697577
000120 02 8d 36 3d e4 14 a3 bc 14 32 d7 bc 66 1c c2 3d
       0.04456807 -0.019907422 -0.026268996 0.09478073
000130 16 d2 9b bc 5a ee 58 3c e7 f0 b8 3b ac d8 0a bd
       -0.019021075 0.013240421 0.005643952 -0.03389804
000140 ee 11 c8 bc 7c 79 fa ba b4 3b a0 bc 60 6b 1c bc
       -0.024422612 -0.0019109691 -0.019559719 -0.009547085
000150 43 6d fc 3c 40 ad 54 bd 79 d4 4f 3d 7f 06 31 bd
       0.030813819 -0.051923037 0.05073974 -0.043219086
000160 7a 41 26 be db ba 71 bc 84 cb 5b bc b8 c8 3f 3d
       -0.16235915 -0.0147540225 -0.013415221 0.04682228
000170 a0 36 43 bd 47 b6 8c 3d a7 7e db bc 40 1b bd 3c
       -0.047659516 0.06870704 -0.026793791 0.023084283
000180 22 2d f7 bd e6 ee cc 3d 7e e3 2d bc 5e d1 66 3d
       -0.12069155 0.10006504 -0.01061332 0.05635201
000190 82 d4 a4 3d 98 b9 2f 3b bb c9 0b bd 70 16 41 3d
       0.08048345 0.0026813503 -0.034127932 0.04714054
0001a0 78 8a bf bc a7 84 6d 3d fd 3a af bd bb 89 3f 3d
       -0.023381457 0.057987835 -0.08556173 0.04676221
0001b0 ab a1 76 bd 3a 36 d0 bc 36 be 52 bb aa d5 1f 3d
       -0.060212772 -0.025416482 -0.0032156832 0.039022125
0001c0 d7 f9 07 3c 4e b4 82 bc 78 96 cf 3c 06 08 8a bc
       0.008299313 -0.015955117 0.025340304 -0.016849529
0001d0 c1 78 d9 3d 76 43 39 bd 59 c5 08 3d af cf 06 3d
       0.10618735 -0.04523035 0.03339133 0.032912906
0001e0 46 c8 c4 3c 28 78 e9 3c 4f ba c1 3c e9 24 46 bd
       0.024021279 0.028499678 0.02364841 -0.048375044
0001f0 7d b0 23 3d 80 66 1b 39 3e 9d 0a 3d e2 78 18 bc
       0.039963234 0.00014820136 0.033841364 -0.009306164
000200 0c 47 96 bd 80 f2 76 3d c2 74 89 3d 31 28 22 bc
       -0.0733777 0.06028986 0.06711723 -0.009897278
000210 ed 36 f2 3c 53 a1 14 bc 98 8f 51 3d bf 44 c1 3a
       0.029567206 -0.009071666 0.051162332 0.0014745219
000220 48 cd 57 3b 15 c6 93 bd cf 13 20 bb 49 7f e0 bb
       0.0032928754 -0.072155155 -0.002442587 -0.006851111
000230 1a e9 84 3c df 06 50 bc 28 84 54 3d c1 f2 56 bd
       0.016224433 -0.012696951 0.051883847 -0.052477602
000240 be 46 46 3d 5f 7c b6 bd 10 fc a4 bd cb 34 44 bc
       0.04840731 -0.08910441 -0.080558896 -0.011975477
000250 6a 13 23 bc ab 7c f3 bb 03 5b c7 3c be cd fb bc
       -0.009953359 -0.007430633 0.02433539 -0.030737754
000260 6a b0 70 b9 e3 0f 2b bc c9 29 61 bd 4c 8c 81 bd
       -0.00022953903 -0.010440799 -0.05497149 -0.06325588
000270 62 6a d3 3c ff 33 7a bd f4 6c a3 bc 8a 5b 9c bb
       0.025807563 -0.061084744 -0.019949414 -0.0047716545
000280 82 10 01 3e 71 be d9 bd f9 d1 3e 3d 47 c4 26 bd
       0.12603953 -0.10632027 0.046586964 -0.04071453
000290 66 35 38 bd 3b c3 88 3d ce d3 67 bd 00 52 c1 3d
       -0.0449728 0.06677862 -0.056598477 0.094394684
0002a0 68 e7 54 bd 7e 0d 75 3c 33 3a 8a 3d a8 4c 74 3c
       -0.0519785 0.01495683 0.06749382 0.014910854
0002b0 eb 84 e7 bc a8 b2 7a bd d2 f1 fc bc 33 ff be 3c
       -0.028261622 -0.061205536 -0.030877028 0.023315048
0002c0 fd 2c a5 bd 19 ec a8 bc 44 ba 17 bd 1a 8a 43 bc
       -0.080652215 -0.020620393 -0.03704287 -0.011934781
0002d0 62 0d b7 3c 4e e0 a5 bd 0f a1 a0 bb 20 eb 35 3d
       0.022345249 -0.08099423 -0.004902012 0.044413686
0002e0 c6 59 4d 3d 76 39 94 bc ab 13 9b bd b9 16 d1 bc
       0.050134443 -0.018093806 -0.07572111 -0.02552353
0002f0 c5 08 20 3c 99 aa 0c 3d 22 b9 a9 3c 9c c7 52 bc
       0.009767716 0.034342382 0.020718161 -0.012864973
000300 b8 b7 18 bd 08 61 5b bd 2a 38 4a bc 09 d4 47 3d
       -0.037284583 -0.053559333 -0.012342492 0.048786197
000310 26 0a 81 bd 1a 6b 2b 3c cf 8d f1 3b 44 c8 ca 3b
       -0.06300764 0.010462547 0.007371641 0.0061884243
000320 a5 18 0c bd ca e5 0e 3c 6c 16 20 bc b6 7c ba bc
       -0.03420319 0.008721778 -0.009770971 -0.022764545
000330 fe 1c 80 bd e6 0c ff bc f6 f8 e8 bc ac 16 73 bc
       -0.0625553 -0.03113408 -0.028439026 -0.014836948
000340 4c 3d 04 3c c7 cf 0e bc 61 2d b7 3d 12 87 c0 bb
       0.008071255 -0.00871653 0.08944202 -0.0058754766
000350 99 93 ca 3d 9c 03 9a 3b 6a 35 3c bd 25 77 75 bc
       0.09891433 0.0047001373 -0.045949377 -0.01498202
000360 d8 25 63 bd 88 24 15 3d 40 6b d9 bc 91 0f a4 3d
       -0.055456012 0.036411792 -0.026540399 0.080107816
000370 9b 3f e0 bc b7 ec b2 bc f5 e0 1e bd 32 2d e9 bb
       -0.02737408 -0.02184139 -0.038788754 -0.0071159834
000380 f4 85 24 3c c1 2f 57 bd ae 15 11 3c 4e 2c 18 bc
       0.010041703 -0.052535776 0.0088552665 -0.009287907
000390 d8 46 35 3a 9b 05 31 bd f7 f8 95 3c 2e 3e 3d 3d
       0.00069151586 -0.043218236 0.018307192 0.046201877
0003a0 3f 1f 4d bd e0 4f 6d bd 96 90 ca 3c e8 53 f4 bc
       -0.050078627 -0.057937503 0.024727147 -0.029825166
0003b0 d1 29 19 bd d6 b2 63 bc 8a 77 d7 bc 8e 3e 8e bc
       -0.037393395 -0.013897618 -0.026302118 -0.017363813
0003c0 6e f5 88 bd 81 5e 8d 3c ab 88 95 3b d2 22 04 3d
       -0.06687437 0.017256977 0.004563411 0.03225977
0003d0 6b a6 20 bd 6c b8 5d 3c be 79 a9 bd 4f 6b e2 bc
       -0.03922121 0.013532739 -0.082751736 -0.02763906
0003e0 35 47 ec bd eb 6c 53 bd e4 0e 63 3c 0c 66 25 3d
       -0.11537019 -0.051617544 0.013858531 0.040380523
0003f0 30 e9 33 b9 c4 55 f0 bc aa 37 bc bc f8 ba 01 bc
       -0.0001715764 -0.029337771 -0.022975761 -0.007918112

std.constant7 f4 [128]
000000 2f d4 6b 3b 28 ec 01 3c 8e 71 8c bb f4 ba 79 bb
       0.0035984626 0.007929839 -0.0042859977 -0.0038105818
000010 df 2c 2f 3c 62 f1 d1 39 ed 82 7c 39 c0 66 d1 3c
       0.01069185 0.0004004343 0.00024081366 0.02556169
000020 76 a6 15 3d 82 c0 0d bb 06 8f 11 3d 1e 8b d8 bb
       0.036535703 -0.0021629636 0.03553679 -0.006608381
000030 5e c0 ee bb 35 26 95 3b aa 16 97 3c 74 7f 04 bc
       -0.0072861155 0.004551674 0.018443424 -0.008087028
000040 73 e4 ba 3c 6f c8 64 3c b3 2e e8 3c 5a 6d fc 3d
       0.022814011 0.013963803 0.02834258 0.12325545
000050 a3 2b cd 3b 82 08 91 bb 4d 94 48 3d bf b9 ed 3c
       0.0062613054 -0.004426063 0.048969556 0.029019235
000060 78 10 c8 3b 78 8d 24 3a 25 38 15 3d 31 21 b0 bb
       0.006105479 0.0006277184 0.036430497 -0.0053750505
000070 e6 07 22 3c 02 a2 cb 3c 8f c3 8e 3c 0a 29 00 bb
       0.009889578 0.024857525 0.017427234 -0.0019555711
000080 95 f7 67 bb b4 e1 cb bb 3b 8b 0a 3c 78 41 cb 3c
       -0.0035395373 -0.0062219743 0.008456047 0.024811491
000090 da 94 4e 3d 10 39 ad 3c 1c 2a f7 bb 30 29 9b 3c
       0.050434925 0.021145374 -0.0075428616 0.018940538
0000a0 64 9b 43 3c 4d 20 aa bb c0 6f 40 bb 90 bf 1c bb
       0.0119389035 -0.005191839 -0.0029363483 -0.002391789
0000b0 5c c9 9e bb ab 84 fe ba 0d 74 21 3c 41 09 3e 3c
       -0.0048457813 -0.00194182 0.009854329 0.011598886
0000c0 ae 01 5e 3d 98 95 da 3b 54 63 93 3c 8b f7 14 3d
       0.05420082 0.006670665 0.0179917 0.036368888
0000d0 e4 51 9d 3c ca 2a a3 3a e1 4a 3f bc e1 9a b8 3c
       0.019204088 0.0012448665 -0.011675567 0.02253479
0000e0 19 98 58 3b a1 d6 31 3c e8 34 39 3d 1c d0 b9 bb
       0.0033049642 0.010854394 0.04521647 -0.0056705605
0000f0 66 66 a4 ba 1e 0a 03 3c 29 43 91 bb 5c 42 c9 3c
       -0.0012542724 0.007998018 -0.004433055 0.024567775
000100 7f 6e 52 3c 69 db 3b 3c 08 5b 88 ba ae 2f b2 bb
       0.012843727 0.011465886 -0.0010403106 -0.005437813
000110 b0 d7 93 3b ec d1 b6 bb 0b 7a d5 3c 2f a6 d2 3b
       0.004511796 -0.005579224 0.026059171 0.006428502
000120 5e 37 ef 3b 44 62 16 3c 44 07 e2 3b 60 fa 1a 3a
       0.0073003015 0.009178702 0.006897839 0.00059119426
000130 21 1c 0a 3c bd 8f 91 3c af a1 e1 3c bb 5d da 3c
       0.008429558 0.017768735 0.027542917 0.026656022
000140 da 71 49 3c 0a 81 77 bc 47 c2 77 3c cb f0 71 3d
       0.012295211 -0.015106449 0.015122003 0.05906753
000150 df 8f c4 bb 2c 45 3d 3c e3 0b 4b bc 4b a0 9d 3c
       -0.005998596 0.011552136 -0.012392971 0.019241473
000160 81 15 4e ba b0 5a fb bb 2e a8 38 3c fe 42 9c 3c
       -0.00078614807 -0.007670723 0.011270566 0.019074913
000170 6d 43 c2 bb 30 93 f3 3c 57 97 33 3c b9 36 c9 bb
       -0.005928448 0.02973327 0.010961375 -0.0061405567
000180 8b c7 f6 3c a2 fe 97 bb 54 50 a4 3c e4 80 38 3c
       0.030124446 -0.004638509 0.020057835 0.011261199
000190 a5 37 05 3d 0c 70 9a 3a 02 95 1a bc 8a 6c fc 3a
       0.03252377 0.001178266 -0.00943494 0.0019258421
0001a0 19 c1 3e 3c 88 75 9a bb 78 4d c8 3c 80 30 0e 3d
       0.011642718 -0.004713718 0.024451002 0.034714222
0001b0 3b 02 37 3c 21 0c de 3c 9c 10 71 bc 0b a4 9a bb
       0.011169965 0.027105393 -0.014713433 -0.0047192625
0001c0 67 ba d0 bb 41 e8 0d 3d db 33 68 bc 01 e3 5e bb
       -0.006369877 0.034645323 -0.01417252 -0.0034009817
0001d0 f9 5a cc 3b 29 d0 51 3c 5c ba 4a ba 02 ce 6e 3c
       0.0062364307 0.012805977 -0.0007733458 0.014575483
0001e0 17 a4 3f 3c 67 df 46 3c b1 24 84 3c da b7 bb 3c
       0.011696837 0.012138224 0.016130777 0.022914816
0001f0 3f a4 d2 3b 12 4c 95 3c 3f d1 e6 ba 4c 83 4d 3d
       0.006428271 0.01822475 -0.0017609968 0.050174043

std.constant8 f4 [128]
000000 b0 89 fb 3b c3 58 9a bb 22 af 9a bc 50 0b 0b bc
       0.0076763257 -0.0047102883 -0.018882338 -0.008486584
000010 de 2e 27 3c 2a 9c 15 bc 06 5b 12 3b 81 e0 27 3c
       0.010204045 -0.009131471 0.0022332086 0.010246397
000020 60 2a 84 bc 92 c9 30 bb 94 c3 8c 3c 00 48 39 3c
       -0.016133487 -0.0026975614 0.017183103 0.01130867
000030 28 92 bb 3b 24 1c ef 3b 00 37 c3 bb 0c 33 f5 39
       0.0057242103 0.007297056 -0.0059574842 0.00046768074
000040 79 51 7b 3b d7 ce d6 3b 7c ca 72 bc 22 a2 6b bc
       0.0038348122 0.006555419 -0.014818784 -0.014381917
000050 6b f5 df 3b e9 c7 0f bc c8 a6 91 bc c7 8c 27 bc
       0.006834676 -0.00877569 -0.017779723 -0.010226435
000060 7a d8 22 3c 39 0d 87 3c 6a 2c 8f 39 67 80 96 b9
       0.009939307 0.016485797 0.00027308177 -0.00028705897
000070 ed 28 0d bc 22 ec 1a bc 30 12 10 bc 65 d7 26 bc
       -0.0086157145 -0.0094557125 -0.008793399 -0.01018319
000080 0e cb 7c 3c 10 81 56 3b b5 ea 02 bc 9a 93 33 3b
       0.015429271 0.0032730736 -0.007990529 0.002740121
000090 0e 00 9c bc 1e 20 d9 bb 8b 6f 47 3b b6 28 73 3c
       -0.019042995 -0.006626143 0.0030431475 0.014841249
0000a0 9b a1 31 bc 00 49 11 3c 00 f1 16 3c 08 13 e9 3a
       -0.010841752 0.008867502 0.009212732 0.0017782161
0000b0 43 9f 9c bc 4d c2 0c bc d6 53 dd 3b 84 97 81 3b
       -0.01911891 -0.008591247 0.006754379 0.0039548296
0000c0 ee 2b ab bc d9 d2 e1 bb 69 0a 83 bb 82 4c a1 bb
       -0.02089497 -0.00689159 -0.0039990437 -0.0049224505
0000d0 2f 43 04 3c 95 81 0c 3c c2 b8 5f bc 49 1c 93 bb
       0.008072658 0.008575817 -0.01365489 -0.004489456
0000e0 bc 4a 17 bc 37 10 27 3c c9 58 aa bb 72 67 3b bc
       -0.009234127 0.010196737 -0.0051985723 -0.0114382375
0000f0 e3 3a 23 3b 7d f5 b0 3a 07 5c 5e bb 0b d9 69 bc
       0.0024906925 0.0013500896 -0.0033929364 -0.0142729385
000100 fc d6 fb bb 5b f8 1a bc cb a5 23 bc aa cf 1c 3c
       -0.0076855402 -0.009458627 -0.009988259 0.009570995
000110 bc 9e b9 3b 79 15 0b 3c c8 99 8b bb 9a 02 f3 3b
       0.0056646746 0.008489006 -0.0042602755 0.0074160816
000120 15 81 05 3c e8 1c 4c 3a d1 45 06 bc fa 33 01 bc
       0.008148451 0.000778629 -0.0081953565 -0.007885927
000130 20 21 f4 3b 69 31 35 3c 08 1c eb 3b 13 03 29 bc
       0.007450238 0.011059144 0.0071749724 -0.010315674
000140 41 aa 4a 3c f8 cb dd 3b 26 59 14 bc 92 a3 9b 3c
       0.012369693 0.0067686997 -0.009054458 0.018998895
000150 6f 72 73 3a 65 91 10 3c ba dc 73 3c 22 02 20 bc
       0.0009286766 0.008823727 0.014884168 -0.0097661335
000160 b5 26 e9 bb 4a 4f 36 bc 0d 91 14 bc 3a 9c 0b 3c
       -0.00711521 -0.011127302 -0.009067786 0.008521134
000170 7c be 4a bc 77 6f 27 bc c6 de ff bb 8c 1c b9 bb
       -0.012374517 -0.010219446 -0.007808539 -0.005649155
000180 c3 12 77 bc d2 9d 11 3c 0a 3e 1c 3c 7e d8 26 3c
       -0.015080157 0.008887725 0.009536276 0.010183452
000190 c5 0e f8 3b 61 76 48 3c 45 e1 d2 3b f4 ad 31 3c
       0.00757012 0.012235255 0.0064355456 0.010844696
0001a0 69 54 0f bc d0 df 47 3c 2b f6 aa bb 15 21 2c bc
       -0.008748152 0.012199357 -0.005217334 -0.010505934
0001b0 ab ef da 3b d1 ea 2b 3c 32 ad 8a 3c a6 37 e2 3b
       0.0066814027 0.010492996 0.01692829 0.0069036065
0001c0 aa cd 62 3c 3b 74 64 3c 0c 0b ff 3b 8d cd 2f 3c
       0.013842979 0.013943727 0.0077832993 0.0107301595
0001d0 94 0e 1e 3b d0 17 fe 3b 5c f7 27 3c 3e 77 21 3c
       0.0024117576 0.0077543035 0.010251846 0.00985509
0001e0 79 e5 91 bb 99 d6 cf bb e7 67 b7 3b 8b d6 02 bc
       -0.004452404 -0.0063427207 0.005597103 -0.007985721
0001f0 9a b2 76 bb 40 a8 9d 3b 0a 57 0b 3c 59 93 8a bc
       -0.0037643076 0.0048113167 0.008504638 -0.016915964

std.constant9 f4 [128]
000000 00 00 80 3f 00 00 80 3f 00 00 80 3f 00 00 80 3f
       1.0 1.0 1.0 1.0
000010 00 00 80 3f 00 00 80 3f 00 00 80 3f 00 00 80 3f
       1.0 1.0 1.0 1.0
000020 00 00 80 3f 00 00 80 3f 00 00 80 3f 00 00 80 3f
       1.0 1.0 1.0 1.0
000030 00 00 80 3f 00 00 80 3f 00 00 80 3f 00 00 80 3f
       1.0 1.0 1.0 1.0
000040 00 00 80 3f 00 00 80 3f 00 00 80 3f 00 00 80 3f
       1.0 1.0 1.0 1.0
000050 00 00 80 3f 00 00 80 3f 00 00 80 3f 00 00 80 3f
       1.0 1.0 1.0 1.0
000060 00 00 80 3f 00 00 80 3f 00 00 80 3f 00 00 80 3f
       1.0 1.0 1.0 1.0
000070 00 00 80 3f 00 00 80 3f 00 00 80 3f 00 00 80 3f
       1.0 1.0 1.0 1.0
000080 00 00 80 3f 00 00 80 3f 00 00 80 3f 00 00 80 3f
       1.0 1.0 1.0 1.0
000090 00 00 80 3f 00 00 80 3f 00 00 80 3f 00 00 80 3f
       1.0 1.0 1.0 1.0
0000a0 00 00 80 3f 00 00 80 3f 00 00 80 3f 00 00 80 3f
       1.0 1.0 1.0 1.0
0000b0 00 00 80 3f 00 00 80 3f 00 00 80 3f 00 00 80 3f
       1.0 1.0 1.0 1.0
0000c0 00 00 80 3f 00 00 80 3f 00 00 80 3f 00 00 80 3f
       1.0 1.0 1.0 1.0
0000d0 00 00 80 3f 00 00 80 3f 00 00 80 3f 00 00 80 3f
       1.0 1.0 1.0 1.0
0000e0 00 00 80 3f 00 00 80 3f 00 00 80 3f 00 00 80 3f
       1.0 1.0 1.0 1.0
0000f0 00 00 80 3f 00 00 80 3f 00 00 80 3f 00 00 80 3f
       1.0 1.0 1.0 1.0
000100 00 00 80 3f 00 00 80 3f 00 00 80 3f 00 00 80 3f
       1.0 1.0 1.0 1.0
000110 00 00 80 3f 00 00 80 3f 00 00 80 3f 00 00 80 3f
       1.0 1.0 1.0 1.0
000120 00 00 80 3f 00 00 80 3f 00 00 80 3f 00 00 80 3f
       1.0 1.0 1.0 1.0
000130 00 00 80 3f 00 00 80 3f 00 00 80 3f 00 00 80 3f
       1.0 1.0 1.0 1.0
000140 00 00 80 3f 00 00 80 3f 00 00 80 3f 00 00 80 3f
       1.0 1.0 1.0 1.0
000150 00 00 80 3f 00 00 80 3f 00 00 80 3f 00 00 80 3f
       1.0 1.0 1.0 1.0
000160 00 00 80 3f 00 00 80 3f 00 00 80 3f 00 00 80 3f
       1.0 1.0 1.0 1.0
000170 00 00 80 3f 00 00 80 3f 00 00 80 3f 00 00 80 3f
       1.0 1.0 1.0 1.0
000180 00 00 80 3f 00 00 80 3f 00 00 80 3f 00 00 80 3f
       1.0 1.0 1.0 1.0
000190 00 00 80 3f 00 00 80 3f 00 00 80 3f 00 00 80 3f
       1.0 1.0 1.0 1.0
0001a0 00 00 80 3f 00 00 80 3f 00 00 80 3f 00 00 80 3f
       1.0 1.0 1.0 1.0
0001b0 00 00 80 3f 00 00 80 3f 00 00 80 3f 00 00 80 3f
       1.0 1.0 1.0 1.0
0001c0 00 00 80 3f 00 00 80 3f 00 00 80 3f 00 00 80 3f
       1.0 1.0 1.0 1.0
0001d0 00 00 80 3f 00 00 80 3f 00 00 80 3f 00 00 80 3f
       1.0 1.0 1.0 1.0
0001e0 00 00 80 3f 00 00 80 3f 00 00 80 3f 00 00 80 3f
       1.0 1.0 1.0 1.0
0001f0 00 00 80 3f 00 00 80 3f 00 00 80 3f 00 00 80 3f
       1.0 1.0 1.0 1.0

std.constant10 f4 [128]
000000 43 96 6e 3b 5c ff 02 3c d4 3d 89 bb f2 2a 87 bb
       0.003640548 0.007995453 -0.0041882787 -0.0041249925
000010 7e 64 30 3c 82 80 26 3a 45 2b 98 39 6c cd d0 3c
       0.010766147 0.00063515466 0.00029023938 0.025488578
000020 3f 8c 13 3d 85 42 0b bb 9f 63 10 3d 07 d1 d9 bb
       0.03602242 -0.0021249366 0.035251256 -0.0066472325
000030 5e ed ee bb fa 8d 95 3b 4f 81 95 3c 19 f4 06 bc
       -0.00729148 0.004564044 0.018250136 -0.008236908
000040 da 75 ba 3c df 5c 6b 3c 65 7c ea 3c a7 5b fc 3d
       0.022761274 0.014365404 0.028623769 0.12322169
000050 a2 c5 c5 3b da 6d 8f bb 1a 8a 47 3d e4 1d eb 3c
       0.0060355226 -0.004377109 0.04871569 0.028700776
000060 6f 20 bc 3b 1f 83 bc 39 a3 91 0c 3d 0c 0b ae bb
       0.005741171 0.00035955847 0.034318577 -0.0053113755
000070 f5 4d 1f 3c c4 19 c8 3c b2 98 8f 3c f4 bc e5 ba
       0.009723176 0.024426349 0.017528865 -0.0017527626
000080 e6 f2 61 bb 83 49 cd bb 07 51 0e 3c 4f 69 ca 3c
       -0.0034477054 -0.006264867 0.008686311 0.024708418
000090 ad 57 4f 3d 9d 8c aa 3c 8a f1 f7 bb ac 51 9b 3c
       0.050620724 0.020819003 -0.0075666355 0.018959843
0000a0 16 b8 42 3c e9 62 a5 bb 37 b7 36 bb a9 37 1f bb
       0.01188471 -0.0050471914 -0.00278802 -0.002429465
0000b0 18 55 9d bb 67 19 01 bb 21 40 25 3c 83 5c 3b 3c
       -0.0048014037 -0.001969898 0.01008609 0.011435631
0000c0 f5 32 5e 3d fa d5 d6 3b 39 97 90 3c 7b f5 12 3d
       0.054247815 0.0065562697 0.017650234 0.03587864
0000d0 ff 15 9d 3c e0 0a b4 3a 65 2d 3f bc fd c9 bc 3c
       0.019175528 0.0013736151 -0.011668538 0.023045534
0000e0 a0 66 76 3b 4b 7e 2c 3c 0e 15 3a 3d 58 bd b9 bb
       0.003759779 0.010528157 0.045430236 -0.0056683235
0000f0 14 25 cd ba 01 6a ef 3b 91 37 91 bb 70 45 ca 3c
       -0.0015651309 0.007306338 -0.004431673 0.024691314
000100 81 f0 52 3c 6d f1 39 3c 5c 3e 9e ba 85 da af bb
       0.012874723 0.011349064 -0.0012073028 -0.0053666257
000110 af 54 9e 3b 05 a0 b6 bb c3 63 d0 3c 13 b4 ce 3b
       0.0048318724 -0.005573275 0.025438195 0.0063080876
000120 49 1c ef 3b 88 9f 19 3c 7b 00 e4 3b b5 13 15 3a
       0.007297073 0.009376414 0.006958065 0.00056868355
000130 08 b6 0c 3c f5 c6 91 3c fb ee df 3c 72 c2 dc 3c
       0.0085883215 0.017795065 0.027335634 0.026948188
000140 74 5f 4a 3c 5b 9e 77 bc 9a d8 6e 3c ae a6 73 3d
       0.012351859 -0.0151134385 0.014578009 0.05948513
000150 88 cf c5 bb f3 39 3c 3c 87 e0 4b bc 91 1b 9f 3c
       -0.0060367025 0.011488426 -0.012443668 0.019422324
000160 c9 72 59 ba 56 e5 fd bb de f6 32 3c ba e8 99 3c
       -0.00082949974 -0.0077482862 0.010923116 0.01878773
000170 78 0e c4 bb 9a 0e f4 3c 9c 13 30 3c f8 19 c6 bb
       -0.00598317 0.029792119 0.010746863 -0.006045576
000180 2f c2 f7 3c fe 43 9c bb 79 50 a5 3c d7 df 32 3c
       0.030243961 -0.0047688475 0.020179974 0.010917625
000190 e7 42 06 3d 36 3f 97 3a 7a 25 1a bc a5 49 00 3b
       0.032778647 0.0011539224 -0.009408349 0.0019575146
0001a0 5c ad 3e 3c be a3 97 bb b9 71 c5 3c b4 63 0f 3d
       0.011638012 -0.004627674 0.024102079 0.035007194
0001b0 93 e9 30 3c 39 2a e0 3c b7 01 71 bc 33 0a 99 bb
       0.010797876 0.027363883 -0.0147098815 -0.0046704053
0001c0 09 99 d1 bb a3 38 0d 3d e2 ab 68 bc a3 42 69 bb
       -0.006396417 0.03447784 -0.014201136 -0.0035592697
0001d0 9d 16 c8 3b f3 56 4d 3c 54 7f 05 ba cf be 72 3c
       0.0061062113 0.012532937 -0.0005092521 0.014816
0001e0 c9 68 3d 3c 0f df 4c 3c 49 e7 81 3c 52 05 b9 3c
       0.011560627 0.012504353 0.015857356 0.022585545
0001f0 82 03 d3 3b 2e 6e 95 3c ce b4 e9 ba e2 49 4b 3d
       0.006439627 0.018241014 -0.0017830373 0.049631007

std.constant11 f4 [128, 7]
000000 da f5 b3 bd 4f 74 62 bb c7 8a 30 bd c8 72 3d bb
       -0.08787127 -0.0034554189 -0.0431011 -0.0028907526
000010 2c 18 3d bd dd 32 30 3d 95 2c 4b 3d da 7c d7 39
       -0.04616563 0.043017257 0.049603064 0.00041101017
000020 bc f2 a1 bd fa 4b d2 bd 1f 9e 7d 3d 6f 80 47 3d
       -0.07907626 -0.10268398 0.061918374 0.04870647
000030 6c 89 a0 3d eb 45 70 bd ba 11 a7 bd 78 75 54 bd
       0.07838711 -0.05866043 -0.08157678 -0.05186984
000040 a1 67 b1 bd 8f 66 fe bc a9 fe a8 bd 72 24 7d 3d
       -0.08662344 -0.031054763 -0.082516976 0.061802335
000050 71 da de bd 49 71 96 3c 60 32 83 bb 2d 80 0d bd
       -0.10881508 0.018364565 -0.004003808 -0.034546066
000060 dd 53 0f 3d bf 78 b3 bd fa 79 56 3d 8f ea b1 bd
       0.034992088 -0.08763265 0.05236242 -0.086873166
000070 1d 74 c9 3a 30 4a fd bc 83 a4 2d 3b a7 33 3e bd
       0.0015369687 -0.030919164 0.0026495762 -0.04643598
000080 a9 ef bf 3d 9a a7 4d bd f0 8c 5a bc ea bd 20 bc
       0.093718834 -0.050208665 -0.013339266 -0.009810904
000090 02 bc bd 3d cc 0d c9 3d 83 7d e3 bd 8f b6 cb 3d
       0.09264375 0.09817085 -0.11107924 0.0994693
0000a0 a3 26 51 bc c4 49 f5 3d ac 25 9d bd 06 c4 0b bd
       -0.012765559 0.1197696 -0.07673201 -0.03412249
0000b0 12 60 b3 bd 37 0b a0 bd 5a ea b6 3c 9e bd da 3d
       -0.08758558 -0.07814639 0.022328544 0.10680698
0000c0 da f6 bf bc 9d b3 a3 bd 17 e9 1f bd e9 d1 d5 bc
       -0.023433138 -0.07993243 -0.03904065 -0.02610107
0000d0 ef 61 60 bc 7d 3c a8 3d c4 26 55 3d 95 b1 d0 3d
       -0.013695224 0.08214662 0.052038923 0.10190121
0000e0 b7 16 aa 3d 2b ae 79 bd cc 7d 7a 3c 2f 18 96 bd
       0.08305114 -0.060957115 0.015288781 -0.073288314
0000f0 db 86 f7 bc 0d 04 5d bd 6d d9 43 bc eb 40 01 3d
       -0.030215671 -0.05395894 -0.011953694 0.03155605
000100 86 73 44 bc 33 30 4a 3c 14 98 2e 3d 77 46 62 3d
       -0.011990434 0.012340593 0.0426255 0.05524298
000110 7b 58 18 3d 0b 82 0b bd 3d 7c b4 3d 2b fe fe 3b
       0.037193757 -0.034059566 0.08812759 0.007781764
000120 ab 85 f5 bc e6 b7 04 bd 7b b8 7f bd f3 f5 82 3d
       -0.029970964 -0.03240194 -0.062431794 0.06394567
000130 f9 2c 01 bd 91 77 8e 3d 2c 88 d4 bd cc 82 f7 bc
       -0.03153703 0.06956399 -0.10377535 -0.030213736
000140 e5 4f 77 bb b9 a5 a7 bd 19 44 2d bd 84 76 c0 3d
       -0.003773683 -0.08185906 -0.04230127 0.09397605
000150 13 15 c1 3d b0 a8 5d 3d 25 22 96 bd fa cf 7a 3d
       0.09427848 0.05411595 -0.07330731 0.0612335
000160 02 2f a5 bd b3 3a d1 3b 6e 1e 50 bd 3c a2 97 bc
       -0.08065607 0.0063851713 -0.05081027 -0.018509977
000170 3d 98 52 3b 2e 26 51 3d 81 c2 ad bd 6f 22 dd 3d
       0.0032134198 0.0510618 -0.08484364 0.10797583
000180 8b 76 0c 3d af 2b 48 3c 5d 09 86 3d 85 9a 7b 3d
       0.03429274 0.012217446 0.06544755 0.06142666
000190 67 2c df bc 8e bf 90 3d 19 6d c6 bc a0 e0 8e bd
       -0.027242852 0.07067786 -0.024221944 -0.069764376
0001a0 89 bf eb 3c c4 9d ae 3d b4 bc ac 3d 3b a8 0a 3d
       0.028777855 0.08526185 0.0843443 0.033851843
0001b0 ae 04 ac bd 86 bc 92 bc cd 8b 81 bd 16 c2 8d 3d
       -0.0839933 -0.01791216 -0.06325493 0.069217846
0001c0 3a 9a e0 3d 65 8d 8e 3d 09 d9 ce 3d 67 90 c6 3c
       0.109669164 0.069605626 0.1009999 0.024238778
0001d0 26 4b cd 3c e7 cc 03 3d d5 de c1 3d 9b 71 d2 bd
       0.025060248 0.032177832 0.0946633 -0.10275575
0001e0 ce b6 65 3d 6b df 09 3d e5 8b 60 3d a5 f9 99 3d
       0.05608254 0.033660334 0.054820914 0.07518319
0001f0 33 e1 e1 3d 2e 0e 9b 3d 0b 39 41 bd 9a 07 07 bd
       0.110292815 0.07571064 -0.04717354 -0.032966234
000200 db 04 b8 3d 30 b3 99 3d 20 92 4e b8 80 ce cf bc
       0.08985301 0.075048804 -4.9250317e-05 -0.025367022
000210 a0 fc 5b 3d 38 84 32 bd ec 20 bf 3d de 6f 36 3d
       0.05370772 -0.043583125 0.09332451 0.04454028
000220 ee bd c5 bb 78 c0 0d 3e 27 33 39 bc 89 df a5 3c
       -0.0060346043 0.13842952 -0.0113037 0.020248191
000230 99 45 d8 3d 99 95 df bd ee b7 7c 3d fc bb 9a 3c
       0.1056015 -0.10917205 0.061698847 0.018888466
000240 9e c6 b1 3d d4 dc 5a 3d f6 50 0b bd a7 43 75 3d
       0.08680461 0.053433254 -0.034012757 0.05987897
000250 82 95 a7 bd 4f 1f 57 bd ab f6 61 bc 7a 0a c0 3d
       -0.08182813 -0.052520093 -0.01379172 0.09376998
000260 93 36 81 3d c6 4a 15 bd 1b 21 61 3d 55 81 eb bc
       0.06309237 -0.036448263 0.054963212 -0.028748194
000270 f1 e9 5d 3d 93 f4 5f bd f8 1e a3 3d 40 f7 0b bd
       0.054178182 -0.054676604 0.07964891 -0.034171343
000280 c7 d1 15 3d 34 70 ba 3d 7e 40 3d ba 59 8f eb 3c
       0.036577012 0.09103432 -0.0007219388 0.028754877
000290 87 b9 0d 3c 4c 30 9e bc 33 e5 8a bc a4 0d 70 3c
       0.00865019 -0.01931014 -0.016954994 0.01465169
0002a0 77 fd a8 bd 2b 03 9a 3d 85 30 d2 3d 9e b5 31 bd
       -0.082514696 0.075201355 0.102631606 -0.043386094
0002b0 4a 18 07 3c a1 f0 99 3d 0b b9 e3 bc a4 27 64 bd
       0.008245537 0.075165994 -0.027798196 -0.055701867
0002c0 a4 9d d4 bd 71 a1 57 3d b1 5e f9 bb 31 17 ae bd
       -0.1038163 0.052644197 -0.007610165 -0.08500517
0002d0 86 32 c0 3d 56 c1 c3 3d b1 f3 b6 3d e5 9a 98 3d
       0.093846366 0.0955836 0.08933199 0.07451419
0002e0 ae dd 88 3d fe e4 9d 3c 39 e7 e6 bb 62 68 84 bd
       0.06682907 0.019274231 -0.007046607 -0.06465222
0002f0 1d ca 7a bd 97 44 d6 3d 6f b0 69 bd 10 bd 55 bd
       -0.061227906 0.10462301 -0.057053026 -0.052182257
000300 ac ce 7e 3d 45 95 f8 bb 92 e2 58 bd ea 71 b8 3d
       0.062208816 -0.0075861537 -0.05295045 0.090061024
000310 ff 04 88 3c ca 27 84 3d 64 50 c8 bc e9 7a b3 bd
       0.016603945 0.06452902 -0.024452396 -0.087636776
000320 b3 e6 81 3d c7 20 8b bc 40 59 e4 bc b4 9c 96 3c
       0.063428305 -0.016983403 -0.027874589 0.018385269
000330 e3 e7 94 bd 7c fe 5b 3d 4f d2 ac ba 66 ed a5 3d
       -0.072707914 0.053709492 -0.0013185235 0.08101921
000340 3f 3d da bb d9 19 45 bd 44 78 ed 3d ba 15 86 bd
       -0.006660133 -0.048120353 0.115952045 -0.06547113
000350 e5 35 0f 3d 55 97 b7 3d 3d a0 a5 3d 36 ac 35 3d
       0.034963507 0.08964411 0.08087204 0.044353686
000360 09 40 41 3d f3 f8 c7 3c 49 fe 44 bd 12 2d f6 bc
       0.04718021 0.0244107 -0.048094068 -0.030050788
000370 61 7b 2a bd 74 ba bb bd f2 3e 13 bd b7 06 e7 3d
       -0.04162157 -0.091664225 -0.0359487 0.11280578
000380 60 fc ac bd da 85 d9 3c bc 85 dd 3d ed 1b 1f bd
       -0.08446574 0.026553083 0.108165234 -0.03884499
000390 d2 bb d7 bd d3 69 83 bd 9e 2d a2 3d 13 7b ab 3d
       -0.10533871 -0.06416669 0.07918857 0.08373084
0003a0 0b f8 9d 3d a6 b1 d5 3c 74 bf 9c bd 33 75 c8 3c
       0.07713326 0.026085686 -0.07653704 0.024469947
0003b0 4e 6a 9f 3c b7 d6 4e 3d 00 3e ae bd ff dd 46 3d
       0.01945987 0.050497737 -0.08507919 0.048551556
0003c0 8b 15 ea 3b 8b ed 12 bb ac f9 0b 3c e4 2b 64 3d
       0.0071436814 -0.0022419419 0.008543413 0.05570592
0003d0 80 72 a8 3d 80 aa 51 3d 00 94 d5 3d 6a 58 e7 3c
       0.08224964 0.051187992 0.104286194 0.028240401
0003e0 8e 3b b4 bb 60 a4 8a 3d bc d1 13 bd 84 6a 76 bc
       -0.0055002635 0.06769633 -0.03608869 -0.015040044
0003f0 a1 be 2f bd 2d 6a 3e 3d f6 4b 34 3d 94 c8 04 3b
       -0.042906407 0.046487976 0.044017754 0.0020261155
