AirQualityApp/AirQualityApp.Android/Assets/AthensShort.tflite (tflite, 814948 bytes, 24 tensors)

std.constant3 f4 [128, 128]
00000000: 40e3 4a3d be25 19bd ff42 bebc 933c 233d
00000010: 6b94 5ebc fec9 97bd 27fe 6f3d 4e06 5bbc
00000020: 1f2f db3b dc5a 40bb eb0b a8bc 201a 9d39
00000030: 0768 773d c6d9 2bbd e880 56bc d535 883d
00000040: 24af 72bd a674 b3bc 786b 523c 8067 46bd
00000050: e242 bd3c 8a2d 293c 73ce 1d3c c91f 1a3d
00000060: edff 1c3d 9091 193c ce9f 203d 4362 6ebd
00000070: 8a9e 2bbd a9ec 09bd 6208 8bbc 5705 b33c
00000080: d982 bcbd 9953 53bd 34aa b7bc 41a4 85bc
00000090: e2b5 38bd ced9 92bd 7cdf 78bd 3438 8ebd
000000a0: 25a5 c63c d0ec 9c3b d636 8fbb 8243 1a3c
000000b0: bb24 c93c 184a 61bb 26f2 4b3c 3691 45bd
000000c0: 62b7 08bd fbaa 003d d2dc 173c 25b1 3abc
000000d0: 5f14 dbbd b920 98bc a876 52bd 34a8 4fbd
000000e0: 4f22 82bd b53e 323c 8620 3e3c 5c3c c13d
000000f0: ae0c c13c 29d7 373d e237 50bc ae8d e5bd
00000100: 5df7 a4bc c249 013d 5135 283d 64bc 6f3d
00000110: b07c d03c 4989 bbbc 332d 3c3d a78c 8a3d
00000120: f1ec d73c 858e 39bd 5a5d 43bd 07ad 96bc
00000130: be58 e73b 6e7c d5bc e4e1 de3c 3aaa d1bc
00000140: 2228 c73c 3397 3d3d 2264 96bd cc7b a53d
00000150: 00bc 2dbd 33a4 ff3c 3057 08bc 138a b5bd
00000160: 4621 23bd d26c 4f3b 3c4c 21bd d4ca be3b
00000170: 7c62 0f3c ff08 9d3d 2b6c c43d 8f80 6dbd
00000180: 56c5 ba3d e64a a9bd 6024 c6bc 00a3 aebc
00000190: b4d0 803d 5111 323d 5c44 c23c 0a79 b8bc
000001a0: ece4 bf3b 144f bcbd 242d de3c af08 03bd
000001b0: 5e49 b03c 5207 4ebc 50ac a3bc b8e1 853b
000001c0: d66b b0bd 69f8 423d ea15 443c dc4e 89bd
000001d0: 220f d83c d1ef 8b3d 741c e23d 14a3 89bd
000001e0: a27e d63d 98a7 0dbc 0002 db3c 203e e8bc
000001f0: 4bd9 b53d c18b 583c dcbf 203b da4b 463d
00000200: 8ff6 c9bc 34ef 903c 6cb3 82bd 8649 793d
00000210: 54d4 053c 8ab6 72bb f19d af3c c5da c8bd
00000220: 7f13 12bd f976 6e3d 54d0 e2ba 6199 fe3c
00000230: 30e3 2c3b 0a25 9fbc 817a aa3d 68ec 903a
00000240: 9130 9c3d 809c 663d 5c1a b53d a2ee 03bd
00000250: 6b48 b6bc 8681 483d 76e5 5e3d d490 b03c
00000260: 4c59 86bc f900 64bd 9216 b3bc 226f 84bd
00000270: 0887 aa3b 8818 b7bb 8341 d1bc 884c 9cbb
00000280: 2065 f43a 7143 4cbd c7f1 6cbb e2e5 fcbc
00000290: 7085 cb3a ffd2 babc 9930 fcbb fb17 25bd
000002a0: 121a 09bd f027 a73a f880 043c 780d 3f3c
000002b0: 9437 373c 124d 62bc 4e75 52bd a6fd 823d
000002c0: 7a12 48bc 8809 c5ba 20ee 883c cd4b 91bc
000002d0: 6a1c babb 3031 fe3a 73b4 c13c ef84 68bd
000002e0: dfe0 60bc 6ef6 093d aeac 26bc 0c65 aa3c
000002f0: a4ca 7abd 4434 b83c c6a5 1abd 80c2 38bd
00000300: 8d37 7fbd 30f3 3c3b 1b5a 95bd fcdc f33b
00000310: 93ce f13d 113e 453d c2b0 1c3d cfbd b5bd
00000320: a2eb a7bd 6b06 e13d df43 a2bc 2bc7 893c
00000330: 4bca 843d f216 6f3d 1eb4 043d 4781 6ebc
00000340: 6e3f 9ebd 7573 203d 5c89 903d f453 51bd
00000350: 3244 9d3c 46d5 423c 8cd0 5d3c c479 6f3d
00000360: d322 9f3c 9d73 b9bd 12ef 563d 90ea 35ba
00000370: ca05 4ebd ae5a 48bd be72 b2bc 82f5 0f3c
00000380: 28ce 8dbd fea1 4b3d 43a7 bf3b d55f 71bd
00000390: 2896 093d be45 58bd 681d ee3b f340 eb3c
000003a0: 5cab 9bbc 7a76 ad3d 4fe8 823c 9eb3 00be
000003b0: c887 713d 19d3 7d3b a2d7 1cbc 00f1 09bc
000003c0: b4b7 d93c bc6d b0bb 5c0e ccbc 79f6 363c
000003d0: 8d1f 653d d633 133b d01d 433d 2000 5b3c
000003e0: c4f2 62bc 2174 97bd e362 d93c 6059 113d
000003f0: 0fbd 80bd c7d9 8a3d e396 febd 2730 b53d
0.04953313 -0.03738951 -0.023225306 0.03985269 -0.01358519 -0.07411574 0.058591988 -0.013368202
0.006688967 -0.0029351031 -0.020513495 0.00029964838 0.060401943 -0.04195573 -0.013092257 0.06650893
-0.05924906 -0.021906208 0.012843005 -0.04843855 0.023103181 0.010325799 0.009631741 0.03762797
0.038330007 0.009373084 0.0392149 -0.05819918 -0.04189924 -0.033672962 -0.01697177 0.021853132
-0.09204645 -0.051593397 -0.022420026 -0.016313674 -0.045095332 -0.07170449 -0.060760006 -0.06944314
0.024248669 0.0047889724 -0.0043705506 0.009415509 0.024553647 -0.0034376439 0.012447869 -0.048234187
-0.033378012 0.03141306 0.009268956 -0.011394774 -0.10697245 -0.01857029 -0.05138269 -0.05069752
-0.063542 0.010879208 0.011604434 0.09435341 0.023565616 0.044882927 -0.012708636 -0.11208664
-0.020137483 0.03156448 0.04106647 0.058529273 0.02545008 -0.022892611 0.045941543 0.067651086
0.0263581 -0.045301933 -0.04769645 -0.018393053 0.0070601394 -0.02606031 0.027207322 -0.025593866
0.024311129 0.046286773 -0.073433176 0.08080253 -0.04241562 0.031206226 -0.008321568 -0.08864226
-0.039826654 0.0031650555 -0.039379343 0.005822519 0.008751508 0.076677315 0.09590944 -0.05798393
0.0911967 -0.08266239 -0.024187267 -0.021317959 0.06289807 0.043473545 0.023714237 -0.022518653
0.005856147 -0.091947705 0.027121134 -0.031990703 0.02151936 -0.0125749875 -0.019979626 0.0040857457
-0.08614318 0.047600184 0.011968115 -0.06704494 0.026374403 0.06832851 0.11040583 -0.06720558
0.10473372 -0.0086459145 0.026734352 -0.028349936 0.08879336 0.013216914 0.002452842 0.04841218
-0.024653701 0.017692186 -0.06381878 0.060861133 0.008168299 -0.0037035071 0.021437617 -0.09807352
-0.035663124 0.05821893 -0.0017304518 0.031078996 0.0026380531 -0.019426841 0.08324147 0.0011056783
0.07626451 0.056301594 0.08842918 -0.03221 -0.022251328 0.04895165 0.05441805 0.021553434
-0.016400002 -0.05566499 -0.021861348 -0.064665094 0.0052040853 -0.005587641 -0.025543934 -0.0047698654
0.001864586 -0.049869005 -0.0036154853 -0.030871335 0.0015527438 -0.022805689 -0.007696223 -0.040306073
-0.03347213 0.0012752991 0.008087389 0.011660926 0.011182684 -0.01381232 -0.0513814 0.06396036
-0.012211436 -0.0015032748 0.01671511 -0.01773634 -0.0056796568 0.0019393321 0.023645615 -0.0567674
-0.013725488 0.03368228 -0.010173006 0.020800136 -0.06122841 0.02248586 -0.03775575 -0.045107365
-0.062308837 0.0028831474 -0.07292577 0.007442115 0.11806979 0.048154894 0.038254507 -0.08874094
-0.0819924 0.10987552 -0.019807754 0.016818604 0.06483897 0.05837149 0.032398336 -0.014557189
-0.07726942 0.03917261 0.07057449 -0.051105455 0.019197557 0.011891669 0.013538491 0.058465734
0.019425785 -0.090552546 0.05247409 -0.00069395546 -0.05029849 -0.048914604 -0.021783229 0.008786561
-0.06924087 0.049715035 0.0058487966 -0.058929283 0.033590466 -0.052800886 0.007266689 0.028717494
-0.019002609 0.08469863 0.015979914 -0.12568519 0.05896738 0.003873056 -0.009572895 -0.008419275
0.026576854 -0.005384175 -0.02490919 0.011167162 0.055938292 0.0022461317 0.047635853 0.013366729
-0.013851825 -0.07395197 0.02653641 0.035485625 -0.0628606 0.06779819 -0.12431123 0.08847075

std.constant4 f4 [128, 128]
00000000: a5c4 003c 3562 b03d f66d e0bb 0774 dd3c
00000010: 47b7 fe3b 5deb 913d 9ed2 58bb a58d 073d
00000020: f772 eebc fdd5 d43d 2673 8c3d 12d3 c43c
00000030: 0e1c 53bb d97c 1e3c e837 92bc 5806 79bc
00000040: 9290 02bc 3fc3 8a3d b25e 8bbc d7c7 68bd
00000050: 0acd 5b3d 9c6d 6cbc 160f e1bc 61f9 b8bc
00000060: 429d 84bb 01bf bc3d 8ac4 19bc 86ae 633d
00000070: 20d7 2abd f364 47bd ccbc 02bd 78d8 fdbc
00000080: f689 b83c b712 393d d0ce 4c3c d6be 9dbc
00000090: 7e3d f3bc ae46 63bd 947e 06bd 841e babc
000000a0: b1f4 37bd 5ccf b7bb 6f3a c73c 609d 5d3d
000000b0: 33c7 e2bc 04f1 663c ba04 bebc 50c9 92bd
000000c0: ba8b 883b 7db4 76ba 5ac3 93bb bcc3 603d
000000d0: 510d b63c d2a8 0b3d 6568 13bd 0db0 8e3d
000000e0: 52dc 45bc 0e66 103d 6229 20bd d27e 0dbd
000000f0: 90bc bdbd 644d 17bd fca5 db3c feb3 233d
00000100: efe6 d93c 2722 c03d efd9 eb3a 3880 a6ba
00000110: f25f 383c 77d6 19bd fce7 0ebe 4a68 273c
00000120: 4c3f 8c3c 6d4f b23b a419 68bd 3c33 4e3d
00000130: 0afe 25bd 39b7 02be d435 dabd 0007 83ba
00000140: 6c0a da3c c4b6 c2bc 7ead 233d 3f63 88bd
00000150: aca5 cc3d 9843 9f3a 60f1 b538 ee47 543c
00000160: 2228 58bd 58ec 663d b8ed 013d 0258 093b
00000170: d007 abba 2787 31bc 70c2 983c 852a 9c3c
00000180: 8cc7 d83b 00f3 ba3a eef6 303d 0f94 313d
00000190: b42f 553c 3cc2 80bb f0df 003d 9ca0 803c
000001a0: 42e2 0a3d ed39 813c 33af 8bbd fc6c e13c
000001b0: f8a7 983a 56be babc 027d 0d3d e617 8fbd
000001c0: 15de 10bd c6bc 933d 88b1 16bd 92ba 453d
000001d0: 4af4 a23c d0bd 773c c0a0 8abd 11d0 223b
000001e0: 912e 5abd 5667 463d f139 f5bc e063 083a
000001f0: 922b 353c 3258 0b3b 37bf c73d c73b aa3c
00000200: be24 143c 9042 80bd 5ed1 64bd f6fa 9ebc
00000210: 8e67 383d 8edf 453d 0535 d4bd 2312 52bd
00000220: f46b 5e3b 3d65 0b3d 3200 33bc 3490 853b
00000230: 703f 09bc 0af9 8cbc 6c02 b23c 98cd 67bd
00000240: 53cc 343d 75d4 383c 0670 2ebb 0296 ce3c
00000250: b376 7cbd a67f 823d 08d5 61bd 2a9a 10bd
00000260: d7c3 cc3b 73db f63b 4388 bb3c ad87 0a3c
00000270: 742f 97bc 2b08 9e3c a8d1 973c 998a 873b
00000280: ae8d 553c 3bcf 8d3d f79d b4bc 0d58 8bbc
00000290: cc56 dd3d 139c aa3c 7074 b0bd 1b4a 193c
000002a0: 7e8e b23c 1538 c33b a482 223d d289 cabc
000002b0: 416e 003d 4643 5c3d c51b 683d f630 f0bb
000002c0: 805a bebd e5da e1bd 3f20 99bc 5fd1 c23c
000002d0: 8766 f33c 12db fdbc a0cd c43b 8130 aebc
000002e0: 5e1b febb ec6d 5ebb abfb 19bd 13c3 91bc
000002f0: 1459 af3c 2b95 5abd f46e c53c a1bf e13c
00000300: d2ea 5ebd e61a 533c 08b1 5ebd 901f 243d
00000310: 8c59 8e3d ac9b 81bc 5abe 953c fc88 a0bb
00000320: 7cd1 92bc 701c 613d b01e feb9 4a7b c23c
00000330: 88aa 8dbb 06a4 15bd eb83 053d 8268 bebd
00000340: 64f4 853a 1083 01bd 917e 263c 2617 aebc
00000350: 4a4d a5bb 70af 66bc 5473 e5bc 9f42 453d
00000360: d0bb 4a3b 83fd 1abd 31e9 2bbd 9b86 4a3d
00000370: 2a0a 2bbc bdff 57bc 48bc 0d3d 10f9 a0bd
00000380: a544 3cbd 57eb 59bc 9b0e 1ebd 0674 93bc
00000390: f4ba 113d f100 193d a807 ba3d 4c5f ab3c
000003a0: a0ec 73bc aeb1 e03c 119e 56bd d77e 29bd
000003b0: 1705 20bd c851 dd3c 3ba2 0c3d d9ee 0bbc
000003c0: e704 3bbd c019 2dbd 8629 033e 5444 063d
000003d0: 15d8 92bc d275 9cbc 822c 1c3d 58c3 86bc
000003e0: 103c 93bc 0060 2e3d 0831 b3bd 71ba 06be
000003f0: d208 c6bb ac88 86bd c39a 753c 4e0b 863c
0.007859384 0.086124815 -0.006849046 0.027032865 0.007773313 0.0712497 -0.0033084522 0.033094067
-0.029107554 0.103923775 0.068579 0.024026427 -0.0032212767 0.009673321 -0.017848924 -0.015199266
-0.007969039 0.067755215 -0.017012928 -0.056831207 0.053662337 -0.01443043 -0.027473014 -0.02257985
-0.004047067 0.092161186 -0.0093852375 0.05558636 -0.041709065 -0.048680257 -0.031918332 -0.03098701
0.022526722 0.045183863 0.01250048 -0.019256037 -0.029692408 -0.055487327 -0.032835558 -0.02271963
-0.04491109 -0.005609436 0.024319855 0.054105163 -0.027682876 0.014095549 -0.023195613 -0.071673036
0.0041670473 -0.000941105 -0.0045093717 0.054874167 0.022223147 0.034096546 -0.03598823 0.06967173
-0.012076454 0.035253577 -0.039101966 -0.034544773 -0.09264481 -0.03693904 0.026812546 0.039966576
0.026599376 0.09381514 0.0017994026 -0.0012703007 0.011253344 -0.037558045 -0.13955683 0.010217736
0.017120026 0.005441597 -0.056665078 0.05034183 -0.040525474 -0.12765206 -0.10654798 -0.0009996593
0.026616298 -0.02376879 0.039960377 -0.06659555 0.09992537 0.0012150882 8.675712e-05 0.0129566025
-0.05277265 0.05637774 0.031720847 0.0020956998 -0.0013048593 -0.0108354455 0.018647403 0.019063244
0.0066155847 0.0014263093 0.04320424 0.04335409 0.013011862 -0.0039294045 0.031463563 0.015701585
0.033907183 0.015774691 -0.06820526 0.027517788 0.0011646738 -0.022795837 0.034543045 -0.0698698
-0.035368044 0.0721374 -0.0367904 0.04827363 0.019891877 0.015120938 -0.06768942 0.0024843256
-0.053267065 0.048438393 -0.029934855 0.0005202871 0.011057751 0.0021262285 0.09753268 0.020780457
0.009041963 -0.06262696 -0.05586373 -0.019406777 0.045020632 0.0483089 -0.10361675 -0.051286828
0.0033938857 0.034032095 -0.01092534 0.0040760282 -0.008376941 -0.017208595 0.02172967 -0.056592554
0.04414017 0.011281122 -0.0026617064 0.025218014 -0.061636638 0.06372003 -0.055134803 -0.035303272
0.006248932 0.0075334846 0.022892123 0.008455199 -0.018455245 0.019291004 0.01853259 0.004136395
0.013034267 0.06924292 -0.02204798 -0.01700976 0.10807571 0.020826375 -0.08615959 0.009356047
0.021796461 0.0059576132 0.03967537 -0.024723921 0.031355146 0.053775094 0.056667108 -0.0073300553
-0.09294605 -0.11028079 -0.018692134 0.023781477 0.029711975 -0.03098825 0.0060059577 -0.021263363
-0.0077547273 -0.003394003 -0.037593525 -0.017793214 0.02140478 -0.053364914 0.024100758 0.027557196
-0.05442316 0.012884831 -0.05436805 0.040069163 0.069506735 -0.0158213 0.018279243 -0.0048991423
-0.017922156 0.05495876 -0.0004846952 0.02374043 -0.0043233074 -0.036533378 0.03259651 -0.09297277
0.0010219929 -0.03161913 0.010162012 -0.021251272 -0.005044614 -0.0140799135 -0.028009094 0.048159238
0.00309347 -0.037839424 -0.041970436 0.049444776 -0.010439435 -0.013183531 0.034603387 -0.07860005
-0.045963902 -0.013300738 -0.038588148 -0.01799966 0.035578683 0.037354413 0.090834916 0.020919465
-0.014887959 0.027428474 -0.052396838 -0.04138073 -0.039067354 0.027016535 0.034334403 -0.008540832
-0.045658972 -0.042260885 0.12808809 0.032780007 -0.017925302 -0.01909915 0.038128383 -0.016450569
-0.017972976 0.04257202 -0.08749586 -0.13157059 -0.006043532 -0.06569037 0.014990511 0.016362812

std.constant5 f4 [128, 128]
00000000: 8ff6 e5bc f0a2 b5bc d59d 753d 4a5c ed3c
00000010: b24d 183d be8b 703d 12e7 d63c 4c77 2dbc
00000020: 9d96 edbc a041 c83c ae3a 22bc 775c 3e3d
00000030: 55eb d2bd 6181 573d 8e72 d2bd c7b2 263d
00000040: de83 623d 952d 48bd b09b 51bc d6dd d8bb
00000050: 470f 3e3d 22e4 9b3c c8dc 833c 287f 3b3b
00000060: 02b2 24bc 2fcc bcbb b90a 243d 0fa2 1c3d
00000070: 120d 1abc 0c14 2bbd 3f84 8e3c aea1 c6bd
00000080: f83f 693b 8131 92bd 7728 2d3d 00d2 67bc
00000090: 6347 643d 3c48 94bb 948e 9cbb 8a2a f5bc
000000a0: 9057 713d d5b2 453c 8eec 1bbd 98ea eb3c
000000b0: 3c52 1a3b f20d 713c c2f9 de3d 8074 c13c
000000c0: 9567 c33d 89e2 a7bd 1caf d1bc 37f0 24bd
000000d0: 3af3 79bd cfa9 9bbc 11c3 8bbd 677c e2bc
000000e0: 264d 41bd bd4e 583d 9a7f 3fbd afbf 20bd
000000f0: 3585 01bd 8048 b7bb 1ebc 5dbd 1af6 d33c
00000100: 7bbb ac3c aae2 293d 7094 c03b ef75 303d
00000110: b638 743d 9e6f 28bc 87b5 ad3c 490f 7a3c
00000120: 5886 583d be02 46bd 6281 0d3d 4e8a 8a3c
00000130: 8716 383d 0628 94bc e41d 87bd bfe0 a9bc
00000140: 3435 62bd a8cf 1c3d 34ba 53bd 4435 08bd
00000150: f60d 223d 6407 bb3b 464d 193d 6cb3 45bb
00000160: 585d babc e49b e0bd 4684 573d ee3a 663d
00000170: 80c9 f6bc 32ea 8bbc 2a44 2fbc f847 153b
00000180: c78c 2c3c eb50 a33c 54c6 a5bc 00ff 38ba
00000190: a254 f0bc a479 5f3c 4a37 9abc e324 a2bd
000001a0: 20c7 4b3d 1f28 aebd c61f ec3c 061f 063c
000001b0: 04a8 18bd 2184 143d 1829 8f3c 805b af3c
000001c0: fb6a fa3c 7914 6bbd 486b e83c 43a3 b23c
000001d0: da88 bb3c 2826 1c3c 301b c5bc 2cf5 34bd
000001e0: 7616 3fbc beff 06bd 0e0f 12bd 885c 6f3d
000001f0: 8958 f0bc 80d1 f93a 6be4 1d3c f6a3 cb3d
00000200: 769e 81bc 7685 d9bc c2bd b3bc 340b 4bbd
00000210: 3dbb 063d 7d66 f23b e7a9 e63c 2b3c e3bb
00000220: 0f4d ecbd cd07 87bb 0bf0 303c 02d2 52bd
00000230: 0a07 103d d38e 103d f82d aabd 62ad a03b
00000240: de75 b0bc 261b 02bd 65dd 163d d84d fd3a
00000250: 6dc9 18bd a6f9 863d bf19 08bd 8a9d ae3c
00000260: 69fa f0bc a1fb 083d 531f bf3c c32e 213c
00000270: 65ef 143d 780b 9f3c 342d 6abd 9503 82bd
00000280: a899 453d 3aea c73b 7a9a c3bc 2c73 a1bc
00000290: 3b97 62bc 19e0 c1bc cdbb 94bd 89aa 09bd
000002a0: 8d28 99bc b027 dcba b212 ba3b f6c7 3e3c
000002b0: 444f 223d 987e bf3c 5c94 483d 22bb 1a3d
000002c0: 76e4 4cbd 2eeb f73b dfd2 45bd ff34 eb3d
000002d0: 5894 1fbd d646 3bbc 460a 0dbd 0434 bebc
000002e0: 8f4a 2c3d 76a3 1bbd 9680 07bc 088a 42bb
000002f0: 67fd e2bc 517c 223d 3aa6 553d 3205 4e3c
00000300: b579 9fbd 6ef3 633d 61ba 873c f1b7 113c
00000310: 51b4 193d 5246 4b3d 98af 6e3b a4b6 3dbd
00000320: b909 bf3c 32f8 39bd a03b 4f3d 2f6d 3cbd
00000330: 163f 003e d1a1 a93c 26ab c0bc e721 13bd
00000340: 4a50 833d a08c 263b 3101 c43b 2c1d 0f3d
00000350: d880 4abd 03f9 8d3d d8b8 5fbd d6ab 27bd
00000360: 9069 84bd 2258 b0bc 88ad c83c 3027 b7bc
00000370: c49a 8ebc 8adc 743d 722f 82bd 5432 49bd
00000380: 3a05 8e3d 6ce5 a6bb 5fa3 5abd 821b e23c
00000390: aa25 43bd e4ba 0cbd c16e 0abd de6d 7fbc
000003a0: f0db 0cbd d384 b83c d227 e53b 95f1 74bc
000003b0: 382b 633c 4d28 1c3d a9f2 123c 1445 8bbb
000003c0: b2a2 bfbc 6e8b f03c 0208 92bc 28c7 babc
000003d0: b0fc 19bc 761d 893d 360b 913c 1af8 4e3c
000003e0: 2028 b1b9 3cff 5a3d 3893 a6bd b245 533d
000003f0: f6b8 193d e2e2 7ebd c35d 913d 0ddd 173d
-0.02807167 -0.022172421 0.059964973 0.02897467 0.03718347 0.05872702 0.02623323 -0.010587525
-0.029002482 0.024445355 -0.009901686 0.0464749 -0.10298792 0.05261362 -0.10275756 0.04069784
0.05530154 -0.048871595 -0.012793466 -0.006618242 0.04640129 0.01902968 0.016096488 0.0028609727
-0.010052206 -0.0057616453 0.04004929 0.03824049 -0.00940253 -0.041767165 0.017397044 -0.09698807
0.0035591107 -0.07138348 0.04227492 -0.014149189 0.055732142 -0.0045252126 -0.004777739 -0.02992751
0.058921397 0.012066563 -0.038067393 0.028798386 0.002354755 0.0147127975 0.10887481 0.023615122
0.09541241 -0.08197505 -0.025596194 -0.04026815 -0.061022975 -0.01900187 -0.06824315 -0.02764721
-0.047192715 0.052809466 -0.04675255 -0.039245304 -0.031621177 -0.0055933595 -0.05413448 0.025874186
0.021085491 0.04147593 0.00587707 0.04308122 0.059624396 -0.010280518 0.021204723 0.015262433
0.052862495 -0.04834246 0.034547217 0.016911652 0.04494336 -0.01808549 -0.06597498 -0.02073705
-0.05522652 0.038283974 -0.05169125 -0.033253923 0.039564095 0.005707668 0.03742721 -0.0030166758
-0.022749588 -0.10967234 0.05261638 0.056208543 -0.03012538 -0.017079446 -0.010697404 0.0022778492
0.010531611 0.019936046 -0.020236172 -0.0007057041 -0.029337231 0.013639841 -0.018825192 -0.07917192
0.049750447 -0.08503746 0.028823745 0.0081861075 -0.037269607 0.03625882 0.01747565 0.021405935
0.03056859 -0.05739257 0.028371468 0.021806365 0.022892404 0.0095305815 -0.024060816 -0.044179127
-0.01166307 -0.03295874 -0.03565889 0.058437854 -0.029339092 0.0019059628 0.009636979 0.099433824
-0.01582263 -0.026552897 -0.02194107 -0.04957123 0.032893408 0.0073974715 0.028157188 -0.006934663
-0.11538135 -0.004120803 0.010799418 -0.05146981 0.035162963 0.035292458 -0.08309549 0.0049034813
-0.021540578 -0.031764172 0.036832232 0.0019325567 -0.03730147 0.065905854 -0.03322768 0.021315355
-0.02941628 0.033443097 0.023330366 0.009837809 0.036361117 0.019414648 -0.057172015 -0.063483395
0.04824224 0.00610092 -0.023877371 -0.019708239 -0.0138300015 -0.023666428 -0.07262383 -0.0336099
-0.018696094 -0.0016796496 0.005678498 0.011644354 0.039626375 0.023375794 0.04896961 0.03777612
-0.050022565 0.0075658774 -0.048296805 0.114847176 -0.03895983 -0.011430463 -0.034433626 -0.023218162
0.042063292 -0.037997685 -0.008270403 -0.0029684324 -0.027708722 0.03966934 0.05216048 0.012574481
-0.07786886 0.055652075 0.016568365 0.008893953 0.03752548 0.04962761 0.003642058 -0.046316758
0.023320066 -0.045402713 0.050593972 -0.046002563 0.12524065 0.020707043 -0.02351911 -0.035921004
0.06411798 0.002541341 0.0059815873 0.03493993 -0.04943928 0.06932261 -0.05461964 -0.04093536
-0.06465447 -0.0215264 0.024496809 -0.022357553 -0.017407782 0.059780635 -0.06356706 -0.049120262
0.06934591 -0.005093267 -0.05337846 0.027601007 -0.04764334 -0.03435792 -0.03379703 -0.015590159
-0.034389436 0.022524273 0.0069932723 -0.014950176 0.013865285 0.03812437 0.0089689875 -0.004250178
-0.023393009 0.02936336 -0.017826084 -0.022800043 -0.009398624 0.06695072 0.017705541 0.012632394
-0.00033789966 0.053466067 -0.081335485 0.05158014 0.037529908 -0.06222809 0.07097962 0.037076045

std.constant6 f4 [128, 128]
00000000: 00f2 fe3c 4027 593d b8d4 7f3d 10b5 f93b
00000010: 6a7f 65bd 8069 96b9 35eb 673d 067e c5bd
00000020: 63ea 07bd 7c29 403c da05 2dbd d2a1 403c
00000030: c458 5bbd 46bc e33c 90b7 e63c f183 35bd
00000040: 8036 f5bb 0778 3c3d 00aa 19bb 5a1c 18bd
00000050: be48 84bc b8b2 86bc 76e1 04bd d4ac 803c
00000060: f506 1ebd 9ac8 19bd 5667 b43d 572a 2ebd
00000070: aabe 32be 6e44 94bc 30b7 6abd f89e 023c
00000080: 1936 d43c af26 a8bc 96dc c23b 37d4 69bd
00000090: a226 36bd 3a01 533d 003d 7d39 c2b9 c93c
000000a0: b885 4cbc c2d0 783d 3f57 06bd 9a33 df3b
000000b0: 365d 32bd fdc8 21bd 226a 0c3d b236 fdbc
000000c0: 1b9a fabc a3ec 1c3d 78f0 19bb 18eb 68bd
000000d0: a0e5 0cba ec4b 0f3d 90e5 a9bb 19aa 2e3c
000000e0: 82a0 82bc 6fcd ad3c b440 e53d 8308 283d
000000f0: abae 58bc 1aab 4cbd 3281 453d a8a9 a0bb
00000100: de78 323d d450 bbbc 77b7 603d 5684 63bd
00000110: 5e12 3a3d 3b52 dcbc 1218 ffbc af9b 0abd
00000120: 61d3 7fbd 63bc 193b 4a67 103d f7a1 93bc
00000130: 4822 043d a9d3 973c c0aa 213c 5f9a 83bd
00000140: c2bf b93c 7885 5abd 08c7 5c3c 4187 a9bc
00000150: 9240 46bd e22b 933b 43a4 38bd 1a24 53bc
00000160: e05a 103d 8ce9 933d 8e8e a9bd 4073 753a
00000170: 0257 03bd 2ece c03c 483f 5b3d a16b cb3d
00000180: d188 1abc 30b1 20bb 3263 533c 9aa9 abbc
00000190: 639c 44bc 3b08 703d 98aa d93c 3ebd 2d3d
000001a0: 607b 863a 0e06 34bd 81da 123d 27a2 48bd
000001b0: 9ec3 663d fde1 17bd fa4f e13c 6cb8 c5bb
000001c0: 4fc3 9f3b 86c8 4dbd ad47 ed3c 66e8 963d
000001d0: 1c36 a8bd de75 1a3d a0c3 cbbb ba68 743c
000001e0: b88d 083d e234 a13d f7cf 933c c0ba c73a
000001f0: a62f 1bbc 2e53 2abd aac8 d93d 3d36 d23c
00000200: 75d2 93bc 8084 16bc 5c36 993d a1a3 9cbd
00000210: c26b 6dbd 77eb dbbc bc74 e0bc 8107 a13c
00000220: 4d84 603c afa9 913b d05b 123d 6161 09bd
00000230: 09c2 c2bd 4436 363c b94a 2ebd d75a a93d
00000240: 05cc b6ba 9240 3f3d 5b6e 903c 8b8f 0c3b
00000250: 0dbf debc f780 b6bc e85e 893c e7cb d93c
00000260: 9ae5 5fbc a0d2 d93b 674a 7b3c fba4 bcbc
00000270: abea 1b3c c772 2ebd a066 29bc 322f de3b
00000280: 1a3f eb3c f9f5 00bd 5af3 b7bc bab6 b3bc
00000290: c991 c63c d376 9cbc 5fa8 63bd 5cac 25bb
000002a0: bd5f 11bc 6784 833d bcfc 0ebd 10e1 0dbd
000002b0: 6161 82bd 14e4 9d3c 9df4 e33c 51ee 39bd
000002c0: 396b a53d de15 9e3a 4084 55bd 146a af3d
000002d0: a1f1 b33d 4349 963b 2e97 683c e610 95bd
000002e0: d386 3abd 03c4 a93d 031f 29bc 46ce 8c3c
000002f0: 87d3 ec3c 0442 61bd c9ad 06bd e0bb 8ebc
00000300: 4059 bfbc 0ce7 a1bd f349 d03c 9a64 cfbb
00000310: 6456 393b 9029 2abc b1cc 293d 3682 ee3c
00000320: 0b3d 89bd 0d81 c1bb 2109 24bd 0fca 15bb
00000330: b638 a7bd 01dd cd3c 9faf 8e3d c68d 5c3c
00000340: 25f7 17bd d9b4 353c 047c 88bc 7bcf c7bc
00000350: 570e efbc 6bb9 5bbd 2c6d a7bd 6b37 883d
00000360: c0f9 b5bc 71e8 05bd 2f83 d1bc c7b8 8b3d
00000370: 9da5 953c 670f dd3c ef4b 75bd 0829 cbbd
00000380: 0d87 8f3c cba3 7bba b5ef 973d 6b34 9d3c
00000390: 5ede 323d 1c65 193d 7ec7 833d 27e8 823d
000003a0: ba74 ddbc 0720 793d ae65 bfbc 2fbe fabc
000003b0: f291 80bb d29b 903c 1f20 9d3c f889 913c
000003c0: df9f 04bd b206 bebc 086e 36bb f991 bfbd
000003d0: 0034 46bc ad11 2d3d cacf 7ebd 7650 a03d
000003e0: dd32 7abc 3c33 dbbb ddf9 8a3b 569d 90bc
000003f0: 7e40 833c 5cc4 11bd d7f0 acbc c9a3 c93c
0.031121254 0.053015947 0.062458724 0.0076204613 -0.056029715 -0.00028688833 0.056620795 -0.09643178
-0.033182513 0.011728641 -0.04224191 0.011757331 -0.05355145 0.027799737 0.028163701 -0.044315282
-0.0074833035 0.046012904 -0.0023447275 -0.037136413 -0.016147967 -0.016442642 -0.03244158 0.01570741
-0.038580853 -0.037544824 0.08808772 -0.042520847 -0.17455545 -0.018099036 -0.057303607 0.007972471
0.025904702 -0.020526258 0.005946706 -0.05708715 -0.044470437 0.05151484 0.00024150684 0.024624709
-0.012483053 0.060745962 -0.032798048 0.0068115713 -0.043545924 -0.039498318 0.034280904 -0.03090987
-0.030591061 0.03831161 -0.0023489278 -0.056864828 -0.0005374793 0.034984514 -0.0051848367 0.010660672
-0.015945677 0.021216122 0.11193982 0.041023742 -0.013225238 -0.049967863 0.048218913 -0.004903037
0.0435723 -0.02286569 0.054862466 -0.055546127 0.045427673 -0.02689468 -0.031139407 -0.033839878
-0.062457446 0.0023458235 0.035254754 -0.018021567 0.032259256 0.018533545 0.00986737 -0.06425928
0.022674445 -0.053349942 0.013475187 -0.020694377 -0.048401423 0.004491315 -0.045078527 -0.012887025
0.035242915 0.0722228 -0.08279143 0.0009363182 -0.0320654 0.023535814 0.053527147 0.09932638
-0.009432034 -0.0024519674 0.012902068 -0.020954896 -0.012000176 0.0586016 0.026570603 0.042416804
0.0010260157 -0.043951087 0.035852913 -0.048982766 0.0563389 -0.037080754 0.027503956 -0.0060339477
0.0048755775 -0.050240062 0.028964842 0.07368545 -0.082134455 0.037710063 -0.0062183887 0.014917547
0.03333828 0.07871415 0.018043501 0.0015238151 -0.0094718095 -0.041583233 0.10633977 0.025660628
-0.01804469 -0.009186864 0.07481071 -0.07648397 -0.057964094 -0.026845677 -0.027399413 0.019656898
0.013703418 0.0044452767 0.03573209 -0.033540133 -0.095096655 0.011121336 -0.04255173 0.082692795
-0.0013946301 0.04669244 0.017630747 0.0021447863 -0.02719071 -0.022278292 0.016768888 0.026586486
-0.013665581 0.006647423 0.015337563 -0.023027888 0.009516398 -0.04258993 -0.010339409 0.0067805285
0.028716613 -0.031484578 -0.022454906 -0.021937717 0.024239438 -0.019099629 -0.055580493 -0.0025279736
-0.008872923 0.06421738 -0.034908995 -0.034638464 -0.0636623 0.019273795 0.027826602 -0.04539329
0.08077092 0.001206096 -0.052128077 0.08565155 0.087863214 0.00458637 0.0141962 -0.07278614
-0.045538735 0.082893394 -0.010322335 0.017188203 0.028909458 -0.054994598 -0.03288058 -0.01742357
-0.023357987 -0.07905397 0.025425887 -0.0063291313 0.0028280253 -0.010385886 0.041454975 0.029114824
-0.06701096 -0.0059052766 -0.04004777 -0.0022856032 -0.08165114 0.025129797 0.06967091 0.013461536
-0.03710093 0.011090481 -0.016660698 -0.024390927 -0.029181642 -0.053643625 -0.0817512 0.06651195
-0.022213817 -0.032692377 -0.025575249 0.06822353 0.018267447 0.026984883 -0.05988687 -0.099199355
0.017520452 -0.0009599297 0.07418767 0.019190034 0.043669097 0.03744994 0.064345345 0.06391936
-0.027033199 0.06082156 -0.023363914 -0.030608265 -0.003923648 0.017652426 0.019180356 0.017765984
-0.032379027 -0.023196552 -0.002783658 -0.09354014 -0.012097359 0.042253185 -0.06220988 0.07827847
-0.015270916 -0.006689457 0.004241212 -0.017653149 0.016021963 -0.035587654 -0.021110935 0.024614232

std.constant7 f4 [128]
00000000: 18c2 023d eae6 4cbb 7266 c3b9 0906 4e3c
00000010: be80 0dbc e86f 833c 8188 bc3a 0f92 a93b
00000020: 0dd8 023c 155f 2bbc 0a2d 4f3a 4b25 3e3b
00000030: 84d7 933b a3bd 4b3b 711b 173b 89e7 59bc
00000040: fbcc 033c 9273 59bc fc77 b43b b74f 30bc
00000050: 057b febb 359c 033b 0e66 023b 271b af3c
00000060: d60d 863a bbb0 4fbc eb18 143b e295 43bb
00000070: b8e1 363b b4dd f0bb 2a72 d23a cc10 26bc
00000080: 0773 2fbc 42a7 7db9 59e9 783b 1cab 293c
00000090: 320c 043b b079 29bc ce2c 30ba b43e 443c
000000a0: f8a9 da3b 73a4 e93b 8143 55bc b334 26bc
000000b0: fa14 3d3b 8472 39ba 5475 34b9 69f1 033b
000000c0: da9f 09bc 97b5 813c c6ee f13b 16ac 3fbc
000000d0: 796c 1e3a 5b39 6a3b c35a d23b 333d 33bc
000000e0: 0664 043c 5a03 8ebb 28a4 263a d6c7 e5ba
000000f0: 64ca 1ebc b239 043c 2035 abbb f582 05bb
00000100: 7711 f2bb 6d81 1cbc 5ae7 4cbc 9888 14bc
00000110: de01 fdba a5f4 8a3a 2df1 86bb 5aa2 b13a
00000120: 10fd 0b3a 6d40 0b3a a665 e2bb 7dcf 673b
00000130: f91f 1fbc 092c 5dbc b9f5 9fbb 2125 d3bb
00000140: 1f89 e9bb 70e8 eaba 19e5 0cbc d1cc 853a
00000150: f8fe 553a 4a8b 633a 4c38 38bc 2f78 a6b9
00000160: 4630 f03c a4a8 3a3c fa5b 873d 302a 3b3b
00000170: 2f49 64bb bd2d 5b3b 69a5 c7b9 fa14 a03a
00000180: ebb4 0dbc 7e07 e83b b206 e63b d06f 5a3b
00000190: 82b7 233a b94a bebb 39bb 66bc 7d77 52bc
000001a0: 9f85 89bb f365 193c 2c0d f6bb d965 67bc
000001b0: 71a7 0b3d e034 abbb 2bdf 26bc 85a2 e23b
000001c0: 38b2 82ba 57ae a2bb 74db ec3b 5516 793c
000001d0: 11cb 81bc 2d24 0a3a 3ae7 1dbc 0fa3 8f3b
000001e0: 587f 033b 96bb 41bb b06d 2bbc 83d4 0b3c
000001f0: aa15 d63a b1ef 383a b6bc 8d39 fa87 933b
0.031923383 -0.0031265565 -0.00037269626 0.012574681 -0.008636652 0.016044572 0.0014383943 0.0051748822
0.007986081 -0.010459681 0.00079031347 0.0029013928 0.0045117754 0.0031088374 0.0023057128 -0.013299831
0.008044477 -0.013272183 0.0055074673 -0.010761193 -0.00776613 0.002008212 0.0019897255 0.021375252
0.0010227512 -0.012676413 0.002259786 -0.0029843976 0.0027905535 -0.007350648 0.0016055752 -0.010135841
-0.010708577 -0.00024190269 0.0037980883 0.010355737 0.002014887 -0.010343954 -0.00067205436 0.01197784
0.006673094 0.0071301996 -0.0130165825 -0.0101444 0.0028851614 -0.0007074254 -0.00017209846 0.0020132905
-0.008399928 0.01583366 0.0073832003 -0.011698743 0.00060433854 0.0035739753 0.006419511 -0.010939884
0.008080488 -0.0043338956 0.00063568586 -0.0017530869 -0.009691808 0.008070396 -0.005224839 -0.0020372246
-0.007387336 -0.009552342 -0.01250633 -0.00906577 -0.0019302925 0.0010601474 -0.004118106 0.0013552413
0.00053401385 0.00053120294 -0.00690909 0.0035371475 -0.009712213 -0.013499268 -0.0048815873 -0.006443635
-0.007126942 -0.0017922055 -0.008599543 0.0010208135 0.00081632985 0.00086801185 -0.011243891 -0.0003175153
0.029319894 0.011392746 0.0660934 0.0028559081 -0.003483366 0.003344401 -0.00038079478 0.0012213283
-0.008649091 0.0070809713 0.007019841 0.0033330806 0.00062453013 -0.0058072475 -0.014082723 -0.012845871
-0.004196837 0.0093626855 -0.0075088944 -0.0141234035 0.03409523 -0.005224809 -0.010185043 0.0069163465
-0.0009971326 -0.0049646306 0.0072283093 0.015203078 -0.0158439 0.0005269673 -0.009637648 0.004383452
0.0020064916 -0.0029561273 -0.010463163 0.008534553 0.0016333361 0.000705476 0.00027034216 0.0045022937

std.constant8 f4 [128]
00000000: 4f4e 773c 3050 a3bb 46d6 733b 7f1d 063b
00000010: 361d 68bc b9e3 923a 28a9 d9b9 011d fdba
00000020: c701 833c fe3a 533c d243 fdb9 9042 ccba
00000030: 39fb 0a3c 7c58 87ba 4951 833b 1c8a 753c
00000040: 2749 0f3b 8072 833c 4959 5abb 9409 08bc
00000050: 02bc 4ebc 0519 3d3c ff12 903b a300 39bb
00000060: f733 7e3b b544 64bc 914b 08bb 7237 3b3c
00000070: f837 84bb e626 e53a 8bfd 973b f01a 463c
00000080: b148 71bc 03da 4d39 90c5 0fbc a277 dfba
00000090: 832c be39 35f6 443c 55ef 01ba f67e 7f3b
000000a0: 74bf 4fbb 2882 623c 8bd6 e3bb 1c10 563c
000000b0: 0827 643b ba31 6b3c db86 883a eaff 5e3a
000000c0: 9d22 283c d7b7 033c 95d9 48bb 2a3f 4b3c
000000d0: d9bc a53b ae36 453a dba3 a33a 722b 423c
000000e0: bbd5 703b 6f53 3a3c ac28 4439 c1f5 fab9
000000f0: bbad 54bc e85b ed39 7569 3739 d074 633a
00000100: 4142 b4bb 216f 2ebc 1252 5ebc 6882 85bc
00000110: 1cd9 1bbb f972 9e3a 3c6c a4b8 829d 08ba
00000120: b5e5 f739 56e9 663b 8f7b c33b cc19 c6ba
00000130: f220 95bb 4a4b 303c 0fc9 053c e0ee eab9
00000140: 24e9 48bb a9ee fbba 2ccb 393c 072a caba
00000150: e4bf 4db9 a5bf 0abb 4a8e 40bc 0571 303b
00000160: 028b 0abc c76a 9aba 057c 68bc 95b4 71bb
00000170: be3e fa3b e804 0fba 9a66 7bba a3e5 a03a
00000180: 550e c03b b52d a33a 7aa2 21bb aef5 36bb
00000190: c7ee c5ba d1c3 84bb 338f 63bc 8b7e 553c
000001a0: 6a56 7c3b 5ea3 1dbc 36b0 0bbc 01a9 82bc
000001b0: d37c 3bbc 70d2 5dbb 0c7d 4c3c f51a ffba
000001c0: 9e7b a8bb 575c 50bc 4cf5 693b ba97 32bb
000001d0: eb95 823c 5168 8639 9b0e 2cbc 8f35 753b
000001e0: 1cf8 87bc bae7 133a e14d 193c b76a 293b
000001f0: ed2b 473b c521 293b c20e 1fbb c07e bbba
0.015094354 -0.0049839243 0.0037206574 0.0020464358 -0.014167121 0.0011206783 -0.00041515497 -0.0019311012
0.015992058 0.012892483 -0.0004830645 -0.0015583802 0.008482748 -0.0010326053 0.0040074927 0.014986541
0.002186367 0.016045809 -0.0033317378 -0.008303065 -0.012618067 0.01154161 0.0043967958 -0.002822914
0.0038788298 -0.013932397 -0.0020796994 0.011426793 -0.0040349923 0.0017482906 0.004638379 0.012091383
-0.014726804 0.00019631539 -0.00877513 -0.0017049203 0.00036272788 0.012021591 -0.0004956623 0.0038985587
-0.0031699808 0.013824977 -0.0069530657 0.013065364 0.0034813304 0.014355117 0.0010416167 0.0008506762
0.010262159 0.008039436 -0.0030647267 0.012405196 0.005057913 0.00075231015 0.0012484746 0.0118511785
0.0036748487 0.011372431 0.00018707168 -0.00047866817 -0.012980874 0.00045272638 0.00017491526 0.0008676769
-0.005501062 -0.010646612 -0.013569372 -0.016297534 -0.002378053 0.0012088708 -7.8402896e-05 -0.0005211459
0.00047282656 0.0035234294 0.005965657 -0.0015113889 -0.0045510465 0.010760138 0.008165612 -0.00044809934
-0.003065654 -0.0019220907 0.011339944 -0.0015423902 -0.00019621808 -0.0021171358 -0.011752674 0.0026922834
-0.008455994 -0.001178109 -0.014189725 -0.0036881317 0.007636874 -0.0005455748 -0.0009590179 0.0012275468
0.0058610835 0.0012449535 -0.0024663494 -0.0027917433 -0.0015101068 -0.0040516634 -0.013889122 0.0130306585
0.0038503655 -0.009621469 -0.008525899 -0.015949728 -0.011443335 -0.0033847354 0.012480985 -0.001946299
-0.0051416894 -0.012717328 0.0035699187 -0.002725108 0.015940627 0.00025636193 -0.010501529 0.0037415957
-0.0165978 0.0005642135 0.009356947 0.002585096 0.0030391172 0.0025807482 -0.002427027 -0.0014304742

std.constant9 f4 [128]
00000000: 0000 803f 0000 803f 0000 803f 0000 803f
00000010: 0000 803f 0000 803f 0000 803f 0000 803f
00000020: 0000 803f 0000 803f 0000 803f 0000 803f
00000030: 0000 803f 0000 803f 0000 803f 0000 803f
00000040: 0000 803f 0000 803f 0000 803f 0000 803f
00000050: 0000 803f 0000 803f 0000 803f 0000 803f
00000060: 0000 803f 0000 803f 0000 803f 0000 803f
00000070: 0000 803f 0000 803f 0000 803f 0000 803f
00000080: 0000 803f 0000 803f 0000 803f 0000 803f
00000090: 0000 803f 0000 803f 0000 803f 0000 803f
000000a0: 0000 803f 0000 803f 0000 803f 0000 803f
000000b0: 0000 803f 0000 803f 0000 803f 0000 803f
000000c0: 0000 803f 0000 803f 0000 803f 0000 803f
000000d0: 0000 803f 0000 803f 0000 803f 0000 803f
000000e0: 0000 803f 0000 803f 0000 803f 0000 803f
000000f0: 0000 803f 0000 803f 0000 803f 0000 803f
00000100: 0000 803f 0000 803f 0000 803f 0000 803f
00000110: 0000 803f 0000 803f 0000 803f 0000 803f
00000120: 0000 803f 0000 803f 0000 803f 0000 803f
00000130: 0000 803f 0000 803f 0000 803f 0000 803f
00000140: 0000 803f 0000 803f 0000 803f 0000 803f
00000150: 0000 803f 0000 803f 0000 803f 0000 803f
00000160: 0000 803f 0000 803f 0000 803f 0000 803f
00000170: 0000 803f 0000 803f 0000 803f 0000 803f
00000180: 0000 803f 0000 803f 0000 803f 0000 803f
00000190: 0000 803f 0000 803f 0000 803f 0000 803f
000001a0: 0000 803f 0000 803f 0000 803f 0000 803f
000001b0: 0000 803f 0000 803f 0000 803f 0000 803f
000001c0: 0000 803f 0000 803f 0000 803f 0000 803f
000001d0: 0000 803f 0000 803f 0000 803f 0000 803f
000001e0: 0000 803f 0000 803f 0000 803f 0000 803f
000001f0: 0000 803f 0000 803f 0000 803f 0000 803f
1.0 1.0 1.0 1.0 1.0 1.0 1.0 1.0
1.0 1.0 1.0 1.0 1.0 1.0 1.0 1.0
1.0 1.0 1.0 1.0 1.0 1.0 1.0 1.0
1.0 1.0 1.0 1.0 1.0 1.0 1.0 1.0
1.0 1.0 1.0 1.0 1.0 1.0 1.0 1.0
1.0 1.0 1.0 1.0 1.0 1.0 1.0 1.0
1.0 1.0 1.0 1.0 1.0 1.0 1.0 1.0
1.0 1.0 1.0 1.0 1.0 1.0 1.0 1.0
1.0 1.0 1.0 1.0 1.0 1.0 1.0 1.0
1.0 1.0 1.0 1.0 1.0 1.0 1.0 1.0
1.0 1.0 1.0 1.0 1.0 1.0 1.0 1.0
1.0 1.0 1.0 1.0 1.0 1.0 1.0 1.0
1.0 1.0 1.0 1.0 1.0 1.0 1.0 1.0
1.0 1.0 1.0 1.0 1.0 1.0 1.0 1.0
1.0 1.0 1.0 1.0 1.0 1.0 1.0 1.0
1.0 1.0 1.0 1.0 1.0 1.0 1.0 1.0

std.constant10 f4 [128]
00000000: 04d6 013d 8811 46bb 6c69 b039 e879 4f3c
00000010: d5a1 0dbc 0072 7a3c 8904 b93a 2a74 913b
00000020: c6de 033c 5d78 2dbc ac1e 673a 49e0 393b
00000030: cfcf 4f3b 8fff 613b 2e7f d43a 6858 5abc
00000040: dfb3 fa3b 3250 5cbc 002d b53b fb9a 2bbc
00000050: 44f3 febb b0b0 053b 6c23 0b3b 7b66 b43c
00000060: dcfd 6e3a 8e74 51bc b2c2 123b 231c 3fbb
00000070: fd3b 453b c07c f0bb ff75 ba3a 62ba 27bc
00000080: 8476 33bc 9e62 f7b9 d60a 693b fd4a 283c
00000090: b5f9 c33a 033d 29bc 7bfa e8b8 63e5 403c
000000a0: 5b39 d13b aa37 033c f17c 56bc dbfc 26bc
000000b0: 8800 4b3b b2ea 06ba f338 2239 ae33 cb3a
000000c0: 8036 0abc 8cd5 583c 3c54 ef3b 176b 39bc
000000d0: ef01 073a ad5b 6b3b 8480 c63b b718 33bc
000000e0: 28b7 003c 362f 8abb febf d539 7dc7 b8ba
000000f0: 6b50 20bc 4bef 003c b05b afbb 1a02 15bb
00000100: 668b f0bb 0974 1cbc de1b 4cbc 9dd2 18bc
00000110: ffc2 01bb bb8f a93a 0a9c 86bb d723 b33a
00000120: 9e5b 4e3a eced 163a 2b95 e0bb 9004 5d3b
00000130: 8889 1cbc 2ad1 5fbc f849 9dbb 61f2 d1bb
00000140: a6da e6bb 8d8c d6ba 0290 0bbc c157 653a
00000150: d087 063a 2321 c93a 4ede 37bc da4d 6cb9
00000160: 37d6 ed3c 65dd 393c 679d 8b3d 6c57 543b
00000170: 4141 54bb 0172 4f3b 8337 82b9 90a1 573a
00000180: 91f6 0bbc 0e9f fb3b 6e7f d23b a396 323b
00000190: d824 2239 21ec c5bb b4da 66bc e011 53bc
000001a0: ba5b 8bbb e2a6 053c f71b ffbb 4339 6cbc
000001b0: d5d7 0a3d 513d acbb 6216 27bc d62e e13b
000001c0: 12ed 88ba e2f7 a5bb ea85 fb3b 1b9d 793c
000001d0: bc17 83bc eb09 b139 35c8 1dbc d2bb 8c3b
000001e0: ae21 1d3b 265d 3dbb aba8 2abc ecb0 113c
000001f0: fb29 a23a 24ba 2b3a 58ee be39 efe3 9f3b
0.03169824 -0.0030222852 0.0003364788 0.012663342 -0.008644541 0.015285969 0.0014115731 0.0044388967
0.008048719 -0.010587779 0.0008816521 0.0028362444 0.0031709557 0.00344846 0.0016212219 -0.013326742
0.007650837 -0.013446854 0.005529046 -0.010473962 -0.0077804644 0.0020399503 0.002123083 0.022021523
0.00091168075 -0.012784136 0.002239388 -0.0029161058 0.003009557 -0.00733909 0.0014225839 -0.010237308
-0.010953549 -0.00047184987 0.0035559437 0.010271785 0.0014951738 -0.010329488 -0.00011109278 0.01177344
0.006385011 0.008008877 -0.013091312 -0.010192121 0.0030975658 -0.00051466667 0.00015470739 0.0015503073
-0.008435845 0.013234507 0.0073037427 -0.011317036 0.00051501294 0.0035912797 0.0060578007 -0.010931185
0.007856168 -0.0042170538 0.0004076957 -0.0014097538 -0.009784798 0.007869552 -0.005351506 -0.0022736848
-0.0073408363 -0.009549149 -0.012457816 -0.009327558 -0.0019800065 0.0012936512 -0.004107957 0.0013667297
0.00078719284 0.0005757499 -0.0068537197 0.0033724643 -0.009554274 -0.013660708 -0.0048000775 -0.0064070676
-0.007045108 -0.0016368792 -0.008518221 0.0008748733 0.0005131932 0.0015344959 -0.011222435 -0.00022535716
0.02903281 0.0113442885 0.068171315 0.003240074 -0.0032387527 0.0031653645 -0.00024836892 0.0008225674
-0.008542673 0.007678873 0.006423882 0.002725043 0.0001546325 -0.0060401116 -0.014090229 -0.01288268
-0.004252878 0.008157464 -0.007785316 -0.014417949 0.03389724 -0.005256333 -0.010198208 0.0068720384
-0.0010446629 -0.0050649503 0.007675876 0.015235211 -0.016002528 0.0003376746 -0.009630253 0.004294851
0.0023976373 -0.0028894632 -0.01041619 0.008892279 0.001237213 0.00065508694 0.00036417204 0.0048794667

std.constant11 f4 [128, 9]
00000000: bc71 be3d 9958 aa3c 999b 5fbd 68f7 d93d
00000010: e083 e4bc baa1 db3d 1f9c d03d ff60 043d
00000020: 00ed ae3c 2285 ddbc 8858 46bd 99a7 493d
00000030: 2d5a 913d ed84 ba3d 65ef 3d3d 9e2f 28bc
00000040: 8aeb 81bd 1404 9d3c 5920 c83d 7f1a a5bd
00000050: d40a 1e3d f19d e1bb c5a9 5c3d 2ddd 1cba
00000060: 9380 943d 6bf1 293d 534a 34bd adae e33d
00000070: d463 083d 0d3f e83d 994c 1b3d 16b2 4fbd
00000080: 1826 62bd 70d4 50bd 272b 653d ba34 edbc
00000090: a31e bbbd 06c6 bbbc 336b c0bc b099 acbd
000000a0: 4952 1e3d e65c 10bd 2ae1 eb3c 0ce3 863c
000000b0: 0997 adbd 6607 1ebc c072 15bd 8601 8cbd
000000c0: fd3b 9c3d 16ee 653c 587c 6fbb ba5c 95bd
000000d0: 28cc 3cbd 1664 033c 74a7 b43d 877f 9cbd
000000e0: 77f5 d7bb 1e5a 4abd 01ff b6bc 9ce4 bb3b
000000f0: ebb7 11bd f618 cb3d 230c 0abe 0338 9cbd
00000100: 4056 c03d dd11 07bd f656 2f3d 6f16 883c
00000110: a97b 8f3d fac1 b2bd 7192 963d af01 9e3d
00000120: 6c50 69bd 1d09 fa3c fa13 133d a4c9 e63d
00000130: ba72 88bc eceb e53d deae 913d 882b 8c3d
00000140: f50d dfbc df61 96bd e778 083c ec98 84bd
00000150: 7038 87bc c61e 74bd a489 343b 5d51 703d
00000160: 60c5 44bd 4ff6 ecbc d30d 4b3d dcb5 87bd
00000170: 118b d7bc 8999 40bd 8286 5abd 2597 da3d
00000180: 9d52 ab3d ff3f a53d 8361 efbc f0d8 403d
00000190: e826 93bd 01e4 cebc b867 9dbd 9a74 08be
000001a0: fede 993c 1e46 9dbd 4f47 62bd 35ec 94bd
000001b0: 83bb 3f3d aeae c03d b37d 5d3d 3426 573d
000001c0: f520 90bc 6a48 2abd 256c 813c 2d45 b0bd
000001d0: e719 a0bd 059e 48ba 5951 843d cea0 973d
000001e0: 0ed1 dd3d 6977 f8bd fe26 c0bd e8b6 c8bb
000001f0: 7925 bc3c 02cf 82bd 0859 2b3d ac16 bebd
00000200: ae75 563d 8100 59bd 9ccc 663d bad2 9dbd
00000210: 1684 09bd e500 91bd 2207 03be 138d b83d
00000220: eba8 903b 0265 99bc fa33 be3d 79e5 323d
00000230: 8391 8b3d 8dda 9d3d b61d 5fbd 7290 8b3d
00000240: b12d 05bc 26b5 063d d59b 643d 733b e73d
00000250: 72cf 78bd 8c76 b93d ee10 38bd 511b 95bd
00000260: 3afd 243c a30d d5bd c3b7 a03d be7e 9cbd
00000270: 0655 ecbd e5d6 ebbd b8aa 96bd 4360 63bd
00000280: b2c7 29bd c9a4 92bd 5270 b03d 5a01 bb3d
00000290: 5729 50bd 2785 b7bd 577b 87bd f8dd 4abd
000002a0: 274b c43d 270a 773d 68bb c5bd 7e92 a03c
000002b0: 7ddc 473d 0ca5 cbbb a7e2 c7bd e596 92bd
000002c0: c64a 46bd a4b5 8b3d 941b 5d3d ca5a ab3d
000002d0: eca3 e6bc d614 bd3d 9923 dabd 57bb 563d
000002e0: 02b8 75bd f3de 863d 4022 e4bd 5377 aebc
000002f0: c9bd cbbd ed62 913d 74be dfbd a871 c1bd
00000300: 837a d1bd ca36 d23d 7a23 9e3d a288 dabd
00000310: b734 c2bc 7f23 6ebd 80c9 a73c 477e f2bc
00000320: 1f77 b03d 1194 1abc 8523 463d 5d16 6d3d
00000330: 45dc 3c3d acad 463d 0816 5b3c 8dd2 47bc
00000340: 836e a6bc 342a b2bd f27e 38bd ef18 953c
00000350: 4d40 a93d 8cf1 f4bc 3197 813d 252a b2bc
00000360: cf54 57bc 50db abbd 1ba5 ccbd 411b c33b
00000370: 2a67 8b3d 5ab9 593d 9872 b43c 0b91 80bd
00000380: 5a7b 923d dbd5 4d3d 452f b63d da25 bfbd
00000390: 08c5 b1bd 66cf ac3c 02d8 ae3d 82fd 233b
000003a0: d736 82bc 9437 09bc d687 963d ed4a b53d
000003b0: 7f32 543d 4780 5a3d 7280 5b3c 36c3 b9bd
000003c0: 2c95 28bd 5999 9d3c 51f7 6b3d 8c48 eb3d
000003d0: 79ee 363d 43bd d33c 4943 963c 0dbe 883c
000003e0: ccd4 8abc a27e 763c ae44 5e3b fdce 833d
000003f0: 4316 b13d f77a d1bd 86d4 38bd e520 143d
0.09299037 0.0207942 -0.05459175 0.10642892 -0.027894914 0.10724206 0.10186028 0.032319065
0.021353245 -0.027041022 -0.048424274 0.0492321 0.07097278 0.09107385 0.046370883 -0.010265259
-0.06343754 0.019166984 0.09771795 -0.08061694 0.038584545 -0.006885283 0.053872842 -0.00059838855
0.07251086 0.04149 -0.044016194 0.11117301 0.03329833 0.11340151 0.037914846 -0.050706945
-0.05521211 -0.050983846 0.055949356 -0.028955806 -0.09136703 -0.022921573 -0.023488617 -0.08427751
0.038652692 -0.035244845 0.02879389 0.016465686 -0.08476073 -0.009645319 -0.036486387 -0.06836228
0.07628629 0.014033815 -0.003654262 -0.07293077 -0.046093136 0.008019468 0.08821002 -0.076415114
-0.006590541 -0.04940235 -0.022338392 0.0057340395 -0.03557579 0.0991687 -0.13481192 -0.07627871
0.09391451 -0.03297602 0.04280754 0.01661226 0.07006008 -0.08728404 0.0735215 0.07715165
-0.056961462 0.030521924 0.035907723 0.11268929 -0.016656268 0.11226639 0.071134314 0.068442404
-0.027228335 -0.07342886 0.008329607 -0.0647448 -0.016506404 -0.05959966 0.002754786 0.058671344
-0.048039794 -0.028926043 0.04957373 -0.06626484 -0.02631143 -0.047021423 -0.053350933 0.1067336
0.083653666 0.08068847 -0.029221302 0.047081888 -0.07185155 -0.025255205 -0.076857984 -0.1332573
0.018783089 -0.076793894 -0.055243786 -0.072716154 0.046809684 0.094083175 0.054074954 0.052526668
-0.01759384 -0.041572966 0.015798638 -0.08606944 -0.078174405 -0.0007652941 0.06460828 0.07403718
0.1083089 -0.12132151 -0.09382437 -0.0061253197 0.022967087 -0.0638714 0.041832954 -0.09281668
0.05235832 -0.052978996 0.056347474 -0.077062085 -0.033573233 -0.07080249 -0.1279569 0.09011283
0.004414668 -0.018724922 0.092872575 0.043675873 0.068148635 0.07707701 -0.054471694 0.0681466
-0.008128569 0.0328876 0.055812676 0.11290636 -0.06074471 0.09055814 -0.04493802 -0.07280601
0.01007014 -0.104029916 0.0784755 -0.07641362 -0.115396544 -0.11515597 -0.07356781 -0.055511724
-0.04145021 -0.071603365 0.086151734 0.09131117 -0.050820675 -0.08960944 -0.06615322 -0.049528092
0.09584647 0.060312416 -0.096548855 0.019601103 0.04879426 -0.0062147435 -0.097600274 -0.07157687
-0.048411153 0.068217546 0.05398138 0.08366926 -0.028154336 0.0923249 -0.10651321 0.052424755
-0.059989937 0.06585493 -0.11139345 -0.021297133 -0.09948308 0.07098947 -0.10924998 -0.09445506
-0.102284454 0.102643564 0.0772161 -0.10670592 -0.023706777 -0.05813932 0.020481825 -0.02960123
0.086164705 -0.009434716 0.048373718 0.057882655 0.046108503 0.04850547 0.013371952 -0.012196195
-0.020316368 -0.08699456 -0.04504294 0.018200366 0.082642175 -0.029900335 0.063276656 -0.021748612
-0.013142779 -0.0839144 -0.09992429 0.0059541767 0.06806786 0.05315528 0.022027299 -0.06277665
0.07152434 0.050252777 0.08895735 -0.093333915 -0.08680159 0.021094989 0.08537294 0.0025022929
-0.01589529 -0.008375067 0.073501274 0.088521816 0.05180597 0.05334499 0.013397323 -0.09070437
-0.041157886 0.01923816 0.057608906 0.114884466 0.04466102 0.025847083 0.018342631 0.016692186
-0.016947173 0.01504484 0.0033915448 0.06435964 0.08646824 -0.10228532 -0.045124553 0.036164183

std.constant12 f4 [128, 9]
00000000: e761 f9bc e678 db3d a71f 74bd 3ab7 db3c
00000010: 1efe cd3d 88e0 adbd 20d8 d63c 1cef efbc
00000020: 60db 223e 471b 6abb 4bd9 95bd 203f 09bd
00000030: f298 93bd e307 eabd f871 443c a720 b83d
00000040: 366c 883d 2e93 173d 526a 96bd a28b 9bbd
00000050: 3db8 de3d b133 df3d d50d 07be 885d 6d3c
00000060: faf2 78bd afbc 94bc 17a9 583d 66e5 b23c
00000070: 87cb 63bd d065 c03d 839e 963d 1f93 febd
00000080: 260d 4dbd 7455 8d3d 7869 35bd 4840 09be
00000090: 89f8 47bc 57ae 673d 58e8 663d e95f d0bd
000000a0: 6f58 c2bd 40cd c03c 05ee c93c 2092 33bc
000000b0: 41d7 493c 0ff3 f03d ca4f 9c3d bf85 d43d
000000c0: 0bb0 00bd f391 d1bd 2b4c 883c c2b9 0dbd
000000d0: 0360 70bd 5cd6 15be 82f4 e33a bc0f 4abd
000000e0: 9dc8 96bd b4f2 9fbc a30f b13c cab3 bcbd
000000f0: e92b b1bd 8a45 2a3d 9d6c ff3c 4e2c a5bb
00000100: c8af 753d 4b02 56bc 6f92 9cbd a75f 1a3e
00000110: 59a5 54bd f10a ae3c 0713 6ebd b7ba 083d
00000120: e9a7 a1bd 1c01 e13d 7219 68bd ddc7 c93c
00000130: 39ec f13c 4776 86bc cc38 8fbd 0791 81bd
00000140: 8533 343e 250d 963d 8142 db3d 968d 7dbd
00000150: 8182 adbd 0caa 4d3d f150 bfbd 1455 99bd
00000160: b714 e63c feac 0cbd bf94 b2bd 6680 62bd
00000170: e150 953d 3078 f33c 18bd fb3c 1fdb 92bd
00000180: a3f3 f03c 3a38 10bd 5cbe c73d c2a0 733d
00000190: bfac 89bd 425d cabd d825 e4ba 19c2 123e
000001a0: ccfa 54bd 1fa5 a8bd 7377 0b3d 3265 4f3d
000001b0: 327a e5bd 55e6 5fba b4cf 163d 1d39 7dbc
000001c0: 97ba 123d 6eb3 d8bc c46c 673d f242 12bc
000001d0: f178 183e b432 f4bd ae3a 77bd d239 b7bd
000001e0: 668d 95bd 9305 f23d 001c 7d3d 69d3 63bd
000001f0: 6bbf 59bd f1d3 33bd 28f6 eebb 5e10 b33d
00000200: eae9 6e3c 6403 bb3d a612 e0bc eaa1 b6bd
00000210: a995 863d 04af 893d 371d f0bd 66fd ac3d
00000220: bfb2 a73d d2ce b8bd 68c2 51bc fb92 2dbd
00000230: e5b9 efbc 81f5 e23d cc92 a7bd 2734 0c3d
00000240: 955d 473d b0e6 50bd d3b1 cf3d 032f 323c
00000250: 8313 273d 6406 b03d cb60 d4bb 9cb4 d43c
00000260: f955 08be 680f 75bd 27be 57bd 708f 653d
00000270: 819c 6ebd 5f0f 833d 3111 3a3b 005e 2ebd
00000280: a31e a3bc 3c93 c63d 0dc3 603d cde0 993d
00000290: 8079 89bd febb a2bd dc2b bd3d 19f0 48bd
000002a0: 1e64 c3bd abd5 afbc 0cb8 4c3d 9c42 b73d
000002b0: 48d8 84bc f39d c2bd 048c 623d 5beb 203c
000002c0: 6a75 79bb 74fc ba3d 3862 60bd d8df 80bd
000002d0: 3f3c 5b3d aea5 22bd b26f 49b8 4b0a c8bc
000002e0: bd50 64bc c06e 913c ebbd 663c 3158 a83d
000002f0: e750 9ebd 1445 d5bb 370d d43d 6205 99bd
00000300: 402a b7bd 3977 6e3d d3cc bc3c f00a acbd
00000310: 5aad df3d d582 803d 17bf a2bc 9ac6 cb3d
00000320: e793 5f3d 2edd 4a3d 1b86 dbbc 2676 33bd
00000330: 66c0 bfbc 8b43 cd3d ce2f db3b d4c6 efbd
00000340: 4271 d93c ad17 80bd 3e05 103d 184a 3d3d
00000350: 95b1 f33c 6d51 103d afbc 86bd 0bc9 fd3d
00000360: ed83 82bd 3a83 993c 7c48 d23d ba4e a53d
00000370: 205b 2a3d 8189 113c 2df0 bebd 410d ab3d
00000380: 4f5d 573d 63a8 05bd 5475 6a3d f7a5 bb3d
00000390: f158 d53b f228 febd 3f1e 84bd 78e0 393d
000003a0: 4b54 bf3c 17b4 7d3c fde3 a9bd c108 01bd
000003b0: b3bc 593d 5f48 8bbd 1770 303d 17de cebd
000003c0: 0a76 5e3d 0807 1f3c 0cf2 783d 17a9 e23c
000003d0: d79b c53c 5fac 27bc d436 e03d 07f4 e6bc
000003e0: ba1c d1bc b181 71bd 2226 92bd 38db da3d
000003f0: 9c83 6bbd 0ad2 923b 7e15 093d 6d42 8bbd
-0.030442191 0.10716419 -0.0596005 0.026820768 0.10058235 -0.084900916 0.026226103 -0.02928882
0.15903997 -0.0035721825 -0.07316836 -0.033507466 -0.072069064 -0.114272855 0.011990063 0.08990603
0.066612646 0.037005596 -0.07344498 -0.07594992 0.108749844 0.10898531 -0.1318887 0.014487632
-0.060778596 -0.018156378 0.05289563 0.021837901 -0.05561402 0.09394419 0.073544525 -0.12430405
-0.050061367 0.069010645 -0.044290036 -0.13403428 -0.0122052515 0.056562748 0.056373924 -0.101745434
-0.094895236 0.02353537 0.02464963 -0.010960132 0.012319387 0.1176511 0.07632406 0.103770725
-0.031417888 -0.10232916 0.016637882 -0.03460098 -0.058685314 -0.14632553 0.0017391595 -0.04933141
-0.07362483 -0.01952491 0.021613901 -0.092139795 -0.08650953 0.041570224 0.03117972 -0.005040682
0.05998209 -0.01306207 -0.076451175 0.15075551 -0.0519155 0.021245452 -0.058123615 0.03338119
-0.078933544 0.1098654 -0.05666489 0.024631435 0.029531585 -0.01641382 -0.06993255 -0.0632649
0.17597778 0.07326726 0.10706044 -0.061902605 -0.08472157 0.050210997 -0.0934161 -0.074869305
0.02808605 -0.034344666 -0.08719777 -0.05529823 0.07290817 0.029720396 0.030729815 -0.071707
0.02941305 -0.03520987 0.09753105 0.059479482 -0.06722402 -0.09881069 -0.0017406298 0.14331855
-0.05199699 -0.08234619 0.034049463 0.050633617 -0.112049475 -0.0008541097 0.036819175 -0.015455511
0.035822477 -0.026452746 0.05650021 -0.008927094 0.14889885 -0.11923733 -0.060358696 -0.08946575
-0.0730236 0.118174694 0.06179428 -0.05562154 -0.053161066 -0.043903295 -0.0072925277 0.08743356
0.014582137 0.09131506 -0.027352642 -0.089176014 0.06571514 0.06722835 -0.11724322 0.084467694
0.0818839 -0.09023823 -0.012802698 -0.0423765 -0.029263446 0.110819824 -0.08182296 0.034229424
0.04867323 -0.05100125 0.10141339 0.010875466 0.040790092 0.08594969 -0.006481265 0.025965028
-0.13314046 -0.059829146 -0.052671578 0.056044996 -0.058254723 0.06399416 0.0028391595 -0.042570114
-0.01991207 0.096960515 0.054873515 0.075135805 -0.067126274 -0.07946013 0.09236881 -0.0490571
-0.0954058 -0.02146419 0.04998021 0.089482516 -0.016216412 -0.09502783 0.05530931 0.009821738
-0.003806437 0.09130183 -0.05478117 -0.06292695 0.053524252 -0.039708786 -4.802616e-05 -0.02441897
-0.013935265 0.017753005 0.014083366 0.08219946 -0.07730275 -0.006508479 0.10354083 -0.0747173
-0.089436054 0.05821917 0.023046887 -0.08400524 0.10921736 0.06274954 -0.01986651 0.099499896
0.05458441 0.04952734 -0.026797345 -0.043813847 -0.023407172 0.100226484 0.0066890484 -0.11707845
0.026543263 -0.06254516 0.03516125 0.04621324 0.029747764 0.035233904 -0.06578957 0.123918615
-0.06372819 0.018739332 0.102677315 0.080716565 0.04159081 0.008882881 -0.09323154 0.08352137
0.05257922 -0.03263129 0.0572408 0.09162515 0.006510847 -0.124101534 -0.064510815 0.045380086
0.023355624 0.015484831 -0.082954384 -0.03150249 0.053158473 -0.06800913 0.043075647 -0.10100954
0.05431179 0.009706266 0.06077771 0.027668519 0.024122162 -0.010233968 0.10947958 -0.028192533
-0.025526393 -0.058961574 -0.071361795 0.10686344 -0.05749856 0.004480605 0.033467762 -0.06799779
