AirQualityApp/AirQualityApp.Android/Assets/BerlinLong.tflite (tflite, 810852 bytes, 24 tensors)

std.constant3 f4 [128, 128]
0.057886206 -0.041471817 -0.016666707 -0.01911696 -0.0075990865 0.028688595 -0.042034373 -0.03956522
-0.05067703 0.0886917 0.0329869 0.031414345 0.007577982 -0.054268308 -0.07826932 0.06985798
-0.09249326 -0.047980092 0.0038984104 -0.0042056898 -0.0601736 0.02776634 -0.052303422 0.0057037957
-0.04901088 0.01225233 0.037509 -0.0020841742 -0.06901704 -0.031390324 0.0043881517 -0.0015844249
0.04204683 0.012273481 0.0055709905 -0.061929636 0.06460384 0.04149591 0.030176075 0.11898827
0.038118713 0.0415538 0.026996924 -0.030427974 0.010963627 0.044133894 -0.07863223 -0.017845394
-0.1010203 0.062802315 0.021362623 0.02323842 -0.028117295 -0.017468777 -0.05227172 0.0005239025
-0.031710718 0.060179576 0.0055740923 0.050560243 0.013649512 0.011236195 -0.02426046 -0.014489431
-0.006320553 -0.04939405 0.05093314 -0.013338842 0.021294579 0.07852016 -0.07605048 0.008343021
-0.02679431 -0.021297384 0.019175066 0.004665311 -0.059637215 0.02744792 -0.010680499 -0.06879647
0.019064596 -0.03379571 0.017908812 0.05376167 -0.07638731 -0.04511766 -0.08237308 0.003309765
-0.041055866 -0.047106735 -0.0058709886 0.029761398 0.039810024 -0.046762194 0.025486529 0.009809939
0.016239924 0.036951803 -0.034742 -0.01092843 -0.01946561 0.00578505 0.028854674 -0.047959305
-0.05129266 -0.014223308 0.010010636 0.03946609 -0.022411201 -0.01841161 0.0036744913 -0.10141371
-0.0055078235 -0.11475391 0.044721883 -0.034455553 -0.023778902 -0.03576077 0.076050445 -7.989444e-05
0.013972225 0.08393219 0.04487037 -0.112842724 0.030377243 -0.014170274 -0.023293108 0.03988093
-0.030198004 0.003927909 -0.031324293 0.026127504 0.062282253 -0.0072179865 0.041021008 0.04043079
0.025214072 0.010822767 -0.04193932 0.061640196 0.029179126 0.020452922 0.004896707 0.08358884
0.0892024 0.026906313 0.03760053 -0.0054431483 -0.025984153 -0.018785909 0.038837396 -0.05229511
0.05235224 0.01628043 0.03899236 0.0804838 -0.028912026 -0.037458405 0.04382077 0.018310573
-0.051349517 0.034989174 0.06655446 -0.032381665 -0.01968509 -0.0759494 0.049717393 0.07582469
-0.04406049 -0.024896532 0.03571924 0.025174674 -0.0026498719 -0.019466858 -0.044967897 0.010288052
-0.07517781 -0.059270576 -0.07382515 -0.009934859 -0.058169886 -0.016639046 0.13347225 0.055680756
0.0912967 0.004889047 -0.00045323418 0.013205325 0.09178989 0.009976405 -0.054171253 -0.019061439
-0.018762063 0.01322747 0.03601283 -0.0992488 0.023733346 -0.023577563 -0.063911185 0.016195212
0.02268589 -0.019521413 -0.008331837 -0.007811986 0.029892836 -0.039491273 -0.023535898 0.030300265
0.0577276 -0.0048256875 0.030172484 0.061489895 0.050350945 -0.020295054 -0.0534741 0.009027463
0.049854737 -0.015734717 0.07640976 -0.009480943 0.012757159 0.11190733 -0.02266864 -0.03524429
-0.051138386 -0.05602718 0.04712816 0.0095710065 -0.08800443 0.05062915 0.011149188 0.07917175
0.034141187 -0.032118093 0.0468431 0.0033390662 0.047846496 -0.009679913 0.05734725 0.02582049
0.028789645 0.0694456 -0.053856384 -0.053829297 -0.025463989 0.04255797 0.075225845 -0.0080280285
0.0240658 0.015305208 -0.03541813 -0.0052196486 0.044137627 0.10234855 0.036677085 -0.052325655
00000000: 161a 6d3d 5ade 29bd 9e88 88bc 2c9b 9cbc
00000010: c201 f9bb 5804 eb3c 3c2c 2cbd 240f 22bd
00000020: b892 4fbd fea3 b53d 461d 073d 54ac 003d
00000030: b850 f83b 7248 5ebd aa4b a0bd b311 8f3d
00000040: 1b6d bdbd c686 44bd 797c 7f3b e2cf 89bb
00000050: 9878 76bd 3c76 e33c 1d3c 56bd e8e6 ba3b
00000060: a2bf 48bd ffbd 483c 0aa3 193d a496 08bb
00000070: ce58 8dbd 2493 00bd 7cca 8f3b 7aac cfba
00000080: 4c39 2c3d b616 493c db8c b63b eea9 7dbd
00000090: 054f 843d 9ef7 293d d133 f73c 1fb0 f33d
000000a0: 5e22 1c3d 5134 2a3d a728 dd3c 1644 f9bc
000000b0: c9a0 333c bec5 343d ef09 a1bd 8130 92bc
000000c0: bbe3 cebd 809e 803d ab00 af3c 805e be3c
000000d0: 3e56 e6bc ae1a 8fbc df1a 56bd 8056 093a
000000e0: 19e3 01bd dc7e 763d e0a6 b63b 4218 4f3d
000000f0: 34a2 5f3c 0518 383c dfbd c6bc 1465 6dbc
00000100: a41c cfbb 6a51 4abd 459f 503d 298b 5abc
00000110: f871 ae3c 2dcf a03d 5bc0 9bbd 2bb1 083c
00000120: be7f dbbc da77 aebc 0715 9d3c 77df 983b
00000130: 2746 74bd 76da e03c 42fd 2ebc 2ae5 8cbd
00000140: 5b2d 9c3c 5f6d 0abd 80b5 923c 3235 5c3d
00000150: f370 9cbd 4ccd 38bd 38b3 a8bd a4e8 583b
00000160: 322a 28bd fef2 40bd 6c61 c0bb 2dce f33c
00000170: d60f 233d b789 3fbd 20c9 d03c deb9 203c
00000180: 9709 853c c65a 173d a14d 0ebd 280d 33bc
00000190: 5876 9fbc 8490 bd3b a360 ec3c fa70 44bd
000001a0: 4118 52bd e108 69bc a703 243c 32a7 213d
000001b0: b297 b7bc f2d3 96bc bccf 703b feb1 cfbd
000001c0: f97a b4bb 1904 ebbd 4b2e 373d 4421 0dbd
000001d0: f9cb c2bc e379 12bd 56c0 9b3d 008d a7b8
000001e0: c2eb 643c a4e4 ab3d fec9 373d 161a e7bd
000001f0: b2d9 f83c 702a 68bc 30d1 bebc 305a 233d
00000200: ce61 f7bc b0b5 803b e74d 00bd 5909 d63c
00000210: ad1b 7f3d dc84 ecbb a505 283d c29a 253d
00000220: be8d ce3c fa51 313c 90c8 2bbd 6e7a 7c3d
00000230: 1009 ef3c e38c a73c 8e74 a03b a030 ab3d
00000240: bfaf b63d a16a dc3c 0303 1a3d 705c b2bb
00000250: b8dc d4bc e8e4 99bc f613 1f3d 6633 56bd
00000260: 4d6f 563d 895e 853c 74b6 1f3d b1d4 a43d
00000270: ead8 ecbc fc6d 19bd 687d 333d 0e00 963c
00000280: df53 52bd cf50 0f3d b44d 883d a3a2 04bd
00000290: a042 a1bc 5c8b 9bbd 77a4 4b3d fa49 9b3d
000002a0: c678 34bd d0f3 cbbc 564e 123d 1e3b ce3c
000002b0: 79a9 2dbb f678 9fbc 4230 38bd 388f 283c
000002c0: d3f6 99bd b4c5 72bd a431 97bd d2c5 22bc
000002d0: 8c43 6ebd 9c4e 88bc f3ac 083e 8111 643d
000002e0: c4f9 ba3d 4c34 a03b 10a0 edb9 265b 583c
000002f0: 56fc bb3d 1374 233c ade2 5dbd bc26 9cbc
00000300: e6b2 99bc 08b8 583c 3082 133d f442 cbbd
00000310: 6f6c c23c bc25 c1bc dee3 82bd d2ab 843c
00000320: c2d7 b93c 5feb 9fbc 4282 08bc b0fb ffbb
00000330: d2e1 f43c 9ac1 21bd 5bce c0bc 4338 f83c
00000340: c773 6c3d cd20 9ebb 492c f73c d4dc 7b3d
00000350: cb3c 4e3d d041 a6bc a807 5bbd ede7 133c
00000360: 7b34 4c3d 18e6 80bc b87c 9c3d f555 1bbc
00000370: 6703 513c ac2f e53d 95b3 b9bc 515c 10bd
00000380: 7c76 51bd c27c 65bd 7509 413d b6cf 1c3c
00000390: ab3b b4bd 8360 4f3d 15ab 363c cc24 a23d
000003a0: a1d7 0b3d 438e 03bd 8dde 3f3d 3cd4 5a3b
000003b0: b0fa 433d 7f98 1ebc f3e4 6a3d 7e85 d33c
000003c0: 43d8 eb3c 7f39 8e3d 8398 5cbd 1c7c 5cbd
000003d0: db99 d0bc 4451 2e3d 0210 9a3d fe87 03bc
000003e0: a425 c53c b2c2 7a3c 9a12 11bd 9609 abbb
000003f0: a8c9 343d 1e9c d13d b63a 163d 6d53 56bd

std.constant4 f4 [128, 128]
-0.025152426 -0.0005130505 -0.05043925 0.002756764 -0.02064923 0.012863321 -0.026971307 0.08898521
-0.02914265 0.07056845 -0.019628752 0.06175895 -0.012068175 -0.01768541 0.092892356 -0.048602823
-0.02047408 -0.052871436 0.033013538 -0.04764596 -0.0063726287 -0.083612144 0.051487193 0.0325703
-0.0087907 -0.056327 0.007472773 -0.05831085 -0.046019297 0.027858656 -0.026042689 0.015382767
-0.0026404 0.105370134 -0.14495727 0.0044263117 0.05233221 -0.025863715 -0.021046445 -0.022730105
0.0028839316 0.004566806 -0.007694868 -0.026259227 -0.02630546 -0.0065594055 -0.05230599 0.024489589
-0.020073831 -0.093777664 0.053573605 0.024749821 0.008782076 0.026090667 -0.011241871 -0.009558616
0.042293873 0.12299483 -0.01788706 -0.01578976 -0.057481676 -0.0049548624 0.008039028 0.019169921
-0.046731077 -0.018352265 0.012869937 -0.027269768 -0.024304172 -0.028637208 -0.001330818 -0.0073953075
0.011296727 -0.06265024 -0.031301 0.036808155 0.067386754 0.0019596326 -0.02582662 0.032233562
0.026448876 0.011327211 0.025867201 -0.016834319 -0.008338321 -0.055658 0.031019641 0.03295477
0.110698976 0.0043709045 -0.045506805 0.11834406 0.014418898 -0.0029251762 0.0014026836 0.0050275456
0.0076816343 0.025748104 0.015695179 -0.080170974 0.02994 -0.06490971 0.020468026 0.034495864
-0.006080942 0.102928355 0.0123340245 -0.05241277 -0.023882566 0.005758973 -0.04843307 -0.036599383
0.02320908 -0.0031808817 0.027833499 0.048585005 0.052362833 0.009153041 0.0043176766 -0.020184036
-0.031738237 -0.018333396 -0.03058437 -0.028908633 -0.056722537 -0.0086548235 0.0026877974 0.07041747
0.011655116 -0.083808616 0.005487333 0.017312787 0.016182922 -0.04245395 0.046913046 -0.032787587
0.0037068077 -0.024934804 -0.017116904 0.0407513 0.040656883 -0.025342362 0.0110413525 0.034610726
0.03815107 -0.039124753 -0.077735774 -0.08643739 -0.07232134 -0.061593335 -0.02857536 0.0119674085
0.04524035 0.04890769 -0.023817789 0.033029594 -0.0075373286 0.0409954 -0.08860977 -0.011967974
-0.045062765 0.009601185 -0.10625505 -0.03285285 0.03687518 0.05826692 0.010535022 0.023663266
0.0553204 -0.0011360096 -0.028314222 -0.021123169 0.06492515 -0.07726875 0.038828604 -0.018175546
-0.074899495 0.018099025 0.022540169 0.023760786 0.029176872 -0.09054493 -0.06184984 -0.010678023
0.047813393 0.0037921201 -0.003502869 0.03688451 0.07101433 -0.0062605534 -0.023014516 0.018637609
-0.045103658 -0.011141991 0.06966792 0.01832934 0.017186128 0.020288697 -0.033985443 -0.056054745
-0.0257155 -0.03530342 -0.09306366 0.018482188 -0.048417203 -0.06338693 -0.006393373 -0.008170089
0.008860137 0.0073896414 -0.089060806 0.04433586 -0.051788397 -0.061274923 -0.0105442535 0.023856219
0.027758598 0.008923797 -0.0077719074 0.032215916 -0.07857013 -0.038600083 0.041880265 0.026474107
-0.017396437 0.028817251 -0.023254309 -0.029608747 -0.032703847 0.042675573 -0.027328622 -0.05088915
-0.0045335637 0.040513925 0.00054136384 0.04827749 -0.0060412395 -0.008586619 0.022167532 0.008310427
0.038051106 0.046501808 0.040026743 -0.05204027 0.00803707 0.055308063 0.06501017 0.020031407
-0.035968564 -0.049906146 -0.07568828 -0.07515695 -0.0071113436 -0.024525769 -0.006929881 -0.013507606
00000000: 760c cebc 3c7e 06ba 6399 4ebd d3aa 343b
00000010: 9328 a9bc aec0 523c eef2 dcbc e13d b63d
00000020: 91bc eebc 3186 903d 7acc a0bc f4f6 7c3d
00000030: 98b9 45bc fee0 90bc 593e be3d c113 47bd
00000040: 42b9 a7bc b88f 58bd 3439 073d 6928 43bd
00000050: 7cd1 d0bb d83c abbd 3ce4 523d 6f68 053d
00000060: de06 10bc 24b7 66bd 2ade f43b 5cd7 6ebd
00000070: bb7e 3cbd d637 e43c 7a57 d5bc 0008 7c3c
00000080: 900a 2dbb 4ccc d73d ae6f 14be 980a 913b
00000090: 4d5a 563d 24e0 d3bc 9869 acbc 7c34 babc
000000a0: 5800 3d3b 25a5 953b 3b25 fcbb 971d d7bc
000000b0: 8c7e d7bc 48f0 d6bb ce3e 56bd 649e c83c
000000c0: e071 a4bc 810e c0bd ff6f 5b3d 23c0 ca3c
000000d0: b2e2 0f3c 18bc d53c d32f 38bc be9b 1cbc
000000e0: 573c 2d3d b7e4 fb3d e287 92bc 8759 81bc
000000f0: e871 6bbd 665c a2bb 21b6 033c 3d0a 9d3c
00000100: 1669 3fbd 7d57 96bc 6edc 523c d964 dfbc
00000110: 8b19 c7bc 9498 eabc d86e aeba 5654 f2bb
00000120: e815 393c c54e 80bd 7a35 00bd 26c4 163d
00000130: 1102 8a3d 2e6d 003b 5992 d3bc 5707 043d
00000140: 50ab d83c c495 393c 74e7 d33c 20e8 89bc
00000150: 749d 08bc a5f9 63bd e71c fe3c 95fb 063d
00000160: 25b6 e23d ce39 8f3b 5865 3abd 5f5e f23d
00000170: 3e3d 6c3c 50b4 3fbb 40da b73a 1cbe a43b
00000180: 38b6 fb3b b0ed d23c 2d93 803c ae30 a4bd
00000190: bb44 f53c 62ef 84bd 90ac a73c 894b 0d3d
000001a0: a442 c7bb 1acc d23d a614 4a3c c6ae 56bd
000001b0: 5fa5 c3bc c4b5 bc3b c161 46bd 3ce9 15bd
000001c0: f820 be3c 5776 50bb 1403 e43c 1201 473d
000001d0: 697a 563d a3f6 153c 4c7b 8d3b fe58 a5bc
000001e0: f4ff 01bd eb2f 96bc 138c fabc ccd1 ecbc
000001f0: e455 68bd f6cc 0dbc c225 303b 0937 903d
00000200: 1af5 3e3c daa3 abbd 16cf b33b 8cd3 8d3c
00000210: 0c92 843c 31e4 2dbd e527 403d 474c 06bd
00000220: eaed 723b 1344 ccbc c038 8cbc d6ea 263d
00000230: d587 263d c99a cfbc cae6 343c fac3 0d3d
00000240: 4c44 1c3d 4741 20bd ef33 9fbd 1606 b1bd
00000250: 361d 94bd 4b49 7cbd e016 eabc f312 443c
00000260: f24d 393d 6e53 483d 861d c3bc 0a4a 073d
00000270: b2fb f6bb cbea 273d 0a79 b5bd 5215 44bc
00000280: bc93 38bd 4a4e 1d3c 3f9c d9bd b690 06bd
00000290: 6e0a 173d 4ba9 6e3d 169b 2c3c 77d9 c13c
000002a0: a597 623d 28e6 94ba 3af3 e7bc 7f0a adbc
000002b0: 7af7 843d 143f 9ebd be0a 1f3d e2e4 94bc
000002c0: e864 99bd 6844 943c 29a6 b83c fba5 c23c
000002d0: 5604 ef3c 9f6f b9bd 4256 7dbd e0f2 2ebc
000002e0: fad7 433d 3885 783b 6490 65bb 3614 173d
000002f0: f66f 913d 5425 cdbb f088 bcbc e6ad 983c
00000300: 9dbe 38bd e68c 36bc 0eae 8e3d 6927 963c
00000310: ecc9 8c3c 7b34 a63c 5234 0bbd a999 65bd
00000320: 50a9 d2bc 529a 10bd 2998 bebd f567 973c
00000330: 1e51 46bd 02d1 81bd 807f d1bb d6db 05bc
00000340: 1c2a 113c ce24 f23b 8365 b6bd 8599 353d
00000350: 1220 54bd 6afb 7abd cec1 2cbc 1e6e c33c
00000360: 0066 e33c 1e35 123c 7cab febb d6f4 033d
00000370: 60e9 a0bd 1f1b 1ebd a48a 2b3d 3ae0 d83c
00000380: f982 8ebc 2812 ec3c d27f bebc 0b8e f2bc
00000390: 78f4 05bd 95cc 2e3d 46e0 dfbc 2471 50bd
000003a0: 4a8e 94bb eef1 253d 50ea 0d3a 9ebe 453d
000003b0: 97f5 c5bb e4ae 0cbc af98 b53c 7528 083c
000003c0: 7adb 1b3d ae78 3e3d 15f3 233d 2e28 55bd
000003d0: eaad 033c b58a 623d 0d24 853d e818 a43c
000003e0: c653 13bd 636a 4cbd 7502 9bbd e3eb 99bd
000003f0: 4606 e9bb 44ea c8bc 0e14 e3bb 024f 5dbc

std.constant5 f4 [128, 128]
0.025210308 -0.018539725 0.0017679108 -0.016020712 0.013078268 -0.03539476 -0.02689464 0.04317631
-0.059952542 -0.03429228 -0.058291547 -0.03004447 0.027189674 0.05567083 0.02366642 0.047672696
0.04796193 -0.05444377 0.041705344 0.033054344 0.03983262 0.03889596 -0.059722558 0.050716445
0.0034111072 0.073541805 0.030306485 0.008571134 0.09115334 0.106772184 -0.02210111 -0.016767692
-0.028044729 0.015347781 0.054981004 0.03191267 0.043174595 0.006022214 0.014384062 -0.029334532
-0.013986897 -0.07834733 -0.06304005 -0.023550244 0.103022866 -0.05144113 -0.10014558 0.06598816
-0.030530391 0.060964543 -0.015885534 0.061624207 0.06408731 0.02204532 -0.053696472 0.06501057
0.033766497 0.032429323 0.02984541 -0.115233116 -0.048826866 0.039139763 -0.00030457228 -0.0083799455
-0.023813259 0.05907178 -0.09192697 -0.004386912 -0.061079063 -0.020402428 -0.007441502 -0.04187358
-0.014165636 -0.0011805017 -0.043201353 -0.027403962 0.020747583 0.10118207 0.048561074 -0.019730324
0.05492718 0.008436337 0.06047616 -0.06543992 0.07816282 -0.057381008 -0.07757798 0.02158796
-0.036451608 -0.01669952 -0.009711255 0.04128182 0.12538624 -0.012636245 0.032997787 0.05569325
-0.001046278 0.025014836 -0.0024514073 0.028423674 -0.0127679175 -0.07399038 -0.0533981 -0.01969086
-0.055408724 -0.07370296 -0.031337935 -0.054862965 -0.06692445 0.011594754 -0.02717036 0.040174574
-0.010014328 -0.03372837 -0.025898427 -0.040172204 0.033455808 -0.013491804 -0.01716052 0.012804778
0.0143006295 -0.061992534 0.05880509 -0.069643386 -0.043153364 -0.00697364 0.058838777 -0.019564468
-0.049268052 0.06857289 -0.004281709 0.031993903 0.023362912 -0.038380835 -0.007085248 0.04051524
0.011807561 -0.05538203 0.054265443 0.06500705 -0.013015976 0.027956124 -0.015429285 -0.032400407
0.024063885 0.03365671 0.01683595 0.032892074 0.01481672 -0.0024899147 0.003915556 -0.04711797
0.012606735 0.01479258 -0.02781573 -0.037390172 0.021535862 0.00058788573 -0.0052242503 0.04935232
-0.04853274 -0.040178508 -0.026513722 -0.09481524 -0.068345055 0.023790082 -0.02328425 0.020308327
-0.000667884 0.021413565 0.056592856 -0.071798414 0.04858375 -0.020472825 -0.033009708 0.028337173
-0.053487353 0.0481376 -0.03873691 -0.032493014 0.05501362 -0.04470535 0.018063273 0.046807922
0.032359216 0.034436606 -0.019883113 0.014730258 0.059920803 0.05424805 -0.015340791 -0.051723704
0.0002622269 -0.01968973 -0.03400881 -0.07988122 -0.040700447 -0.023966027 0.0003596777 0.05512766
-0.0086210845 -0.05998946 0.04558421 -0.047004692 -0.010042838 0.015406584 0.04495945 -0.06620431
-0.04773835 -0.032800276 0.02013769 0.08938067 0.04065539 -0.01152777 0.092451446 -0.0383348
0.027438313 -0.04417698 0.020192266 -0.0535151 0.024105763 -0.010959584 -0.032736637 -0.0791666
-0.038546395 0.01055766 0.03307527 -0.007471703 0.0071507413 -0.06657684 0.030550096 0.025150523
0.020816794 0.011607502 0.020060752 0.03106337 0.020127725 0.050319247 0.017854057 -0.02422787
0.005076471 0.027116444 -0.05082104 0.03619568 -0.021110082 -0.056344293 -0.014050385 -0.04662852
0.029748159 0.038709406 0.04069408 -0.029931946 -0.04689999 -0.076967 -0.058479816 0.025084443
00000000: d985 ce3c 9fe0 97bc 3eb9 e73a de3d 83bc
00000010: 3b46 563c 19fa 10bd 2652 dcbc a4d9 303d
00000020: cc90 75bd 1076 0cbd 1ec3 6ebd d21f f6bc
00000030: e1bc de3c 1907 643d 14e0 c13c 7244 433d
00000040: bb73 443d 6e00 5fbd 39d3 2a3d fe63 073d
00000050: 8827 233d 5f51 1f3d a49f 74bd 0cbc 4f3d
00000060: e28c 5f3b 169d 963d 4e45 f83c f16d 0c3c
00000070: 9aae ba3d 60ab da3d 630d b5bc 665c 89bc
00000080: 0fbe e5bc 4275 7b3c c333 613d dcb6 023d
00000090: d8d7 303d fe55 c53b 21ab 6b3c f94e f0bc
000000a0: 4c29 65bc 9174 a0bd 241b 81bd 71ec c0bc
000000b0: a7fd d23d efb3 52bd 2019 cdbd cd24 873d
000000c0: df1a fabc f5b5 793d 6122 82bc aa69 7c3d
000000d0: 3540 833d 6398 b43c d5f0 5bbd 4324 853d
000000e0: bd4e 0a3d 9cd4 043d 5c7e f43c 57ff ebbd
000000f0: aefe 47bd 0451 203d 00af 9fb9 0a4c 09bc
00000100: 0614 c3bc 40f5 713d 3544 bcbd 16c0 8fbb
00000110: 0a2e 7abd fe22 a7bc d8d7 f3bb a283 2bbd
00000120: fc16 68bc 10bb 9aba e7f3 30bd 467e e0bc
00000130: d6f6 a93c 8c38 cf3d fae7 463d 7da1 a1bc
00000140: 53fb 603d 9038 0a3c dab5 773d 5d05 86bd
00000150: d413 a03d 5908 6bbd 34e1 9ebd 3cd9 b03c
00000160: 484e 15bd 6fcd 88bc f51b 1fbc 2017 293d
00000170: 4065 003e 4108 4fbc b028 073d 9b1e 643d
00000180: 4423 89ba eaeb cc3c caa7 20bb c4d8 e83c
00000190: 8730 51bc 4588 97bd f7b7 5abd ba4e a1bc
000001a0: 42f4 62bd 94f1 96bd 355c 00bd fdb7 60bd
000001b0: b00f 89bd ecf7 3d3c 6094 debc 188e 243d
000001c0: 2313 24bc c226 0abd f028 d4bc 9c8b 24bd
000001d0: f508 093d ba0c 5dbc 3894 8cbc 22cb 513c
000001e0: 304d 6a3c e2eb 7dbd 9bdd 703d 31a1 8ebd
000001f0: 95c1 30bd 2283 e4bb ee00 713d aa45 a0bc
00000200: 4ccd 49bd f16f 8c3d 944d 8cbb 0a0c 033d
00000210: 9463 bf3c 3935 1dbd 5e2b e8bb 4ff3 253d
00000220: 8074 413c 44d8 62bd 7145 5e3d 6b22 853d
00000230: f640 55bc 3e04 e53c 1dcb 7cbc 4ab6 04bd
00000240: a021 c53c 9edb 093d 8ceb 893c d7b9 063d
00000250: d4c1 723c d62d 23bb 104e 803b c6fe 40bd
00000260: 7b8c 4e3c 945c 723c d0dd e3bc 7026 19bd
00000270: fa6b b03c 581c 1a3a 3030 abbb a925 4a3d
00000280: 44ca 46bd 3892 24bd 4e33 d9bc 7e2e c2bd
00000290: 7ef8 8bbd 6be3 c23c 9dbe bebc a65d a63c
000002a0: f014 2fba 806b af3c e9cd 673d 0c0b 93bd
000002b0: c1ff 463d a0b6 a7bc 3035 07bd 5c23 e83c
000002c0: 8e15 5bbd ef2b 453d 98aa 1ebd 6517 05bd
000002d0: f655 613d f51c 37bd 6ef9 933c aab9 3f3d
000002e0: 198b 043d 660d 0d3d e9e1 a2bc 2e57 713c
000002f0: 846f 753d 3433 5e3d f157 7bbc 3cdc 53bd
00000300: 807b 8939 5b4c a1bc d24c 0bbd c498 a3bd
00000310: 83b5 26bd 6754 c4bc 2093 bc39 8bcd 613d
00000320: 733f 0dbc 82b7 75bd 82b6 3a3d fe87 40bd
00000330: b78a 24bc e66b 7c3c 6627 383d 2096 87bd
00000340: 4a89 43bd 9559 06bd ccf7 a43c 360d b73d
00000350: 4486 263d f9de 3cbc 2f57 bd3d f404 1dbd
00000360: 50c6 e03c ecf2 34bd 406a a53c a632 5bbd
00000370: 7379 c53c d48f 33bc da16 06bd 1922 a2bd
00000380: d3e2 1dbd 09fa 2c3c ef79 073d 30d5 f4bb
00000390: c450 ea3b 7059 88bd 3244 fa3c 7808 ce3c
000003a0: fb87 aa3c 642d 3e3c 7256 a43c 9c78 fe3c
000003b0: e6e2 a43c 8e1b 4e3d ac42 923c 8779 c6bc
000003c0: 8658 a63b 4e23 de3c b929 50bd ec41 143d
000003d0: 0def acbc 46c9 66bd 9633 66bc 8cfd 3ebd
000003e0: 69b2 f33c c18d 1e3d d6ae 263d d733 f5bc
000003f0: 341a 40bd e0a0 9dbd 8888 6fbd e47d cd3c

std.constant6 f4 [128, 128]
0.012735963 0.0024114996 0.015066776 -0.07760592 -0.1004051 0.016375057 0.010560274 0.042760216
-0.041852005 0.07422504 -0.0035992637 0.02794835 0.021454345 0.0084051825 -0.029785585 0.02219348
0.020527534 0.041814417 0.027031392 -0.008947017 -0.009878444 0.13072664 0.011326125 -0.05109034
-0.057049543 -0.009575019 0.02880995 -0.028360464 -0.040232897 0.004040367 0.030465916 -0.02477587
-0.017239843 0.05442997 0.060304686 -0.033371627 0.032457117 -0.019488951 0.0003512397 -0.06423904
-0.00062509626 0.055459 0.033122424 -0.061310153 -0.012410447 0.0939421 0.019232849 -0.017801657
0.030583993 -0.0052962825 0.018420778 0.010480101 -0.008025408 -0.01777905 0.09512806 -0.037957318
-0.042998306 -0.050771296 0.047067184 -0.0033427253 0.03159491 -0.019310886 -0.028599055 -0.006044171
-0.050755784 0.04506234 -0.031024592 0.022042444 -0.012849957 0.018872749 -0.060759515 -0.0508218
-0.044233155 0.04557927 0.046960168 0.007008382 -0.001250464 0.0738628 -0.022216607 0.051225703
0.0960454 -0.0270029 0.05411327 0.046144594 0.05744637 -0.024360776 -0.017804258 -0.007618066
0.059557952 -0.04237303 0.02117045 0.045273356 -0.043492094 0.004154334 -0.06971878 0.034783244
-0.013798816 0.057107817 0.032298904 0.0052594813 -0.04497231 0.011412583 -0.06372678 0.014045971
-0.015760092 -0.031576764 0.013727397 -0.024349676 -0.06112896 0.04429974 0.03917432 -0.06100348
0.038534015 0.024427626 -0.048000198 -0.08712026 0.042119365 -0.006563007 -0.03531202 0.044012602
-0.009101339 -0.009715285 -0.038588062 -0.0035112184 0.016635865 -0.058617845 -0.038561944 -0.01314375
-0.057755016 -0.0053395033 0.044071473 0.02596083 0.028213747 -0.038658068 -0.020315614 -0.011072273
-0.0011206327 -0.042126384 0.069882676 -0.025572894 0.030255841 -0.03151802 -0.029576639 0.024412224
-0.012848297 0.0045024008 -0.06006189 0.016358735 -0.05843331 0.06472838 -0.057254992 -0.02714733
0.037004717 -0.009711351 -0.03448551 -0.018184554 -0.0038054015 0.006111063 0.0034769597 0.070315935
-0.028896809 0.044805087 -0.014433206 -0.003415423 0.064011484 -0.07836723 0.04546838 -0.041262507
0.035767827 0.007748224 -0.14391707 -0.07933284 -0.03717455 0.01928321 -0.07055052 -0.006588028
0.02245278 -0.033120442 -0.00480163 0.07089969 0.04700493 0.022272075 -0.08236807 -0.03726036
-0.014104234 -0.017709373 -0.015095483 0.0063561243 0.053394083 -0.033558935 0.027989378 0.032058123
-0.051302094 -0.014584536 0.0072154757 0.041147187 0.08526273 0.018918924 0.007986417 -0.038294245
-0.031368054 0.007801101 0.015324257 -0.028215162 -0.02198239 0.0775428 0.017341146 0.06815998
-0.08214049 0.0007984688 -0.009153267 -0.0057124635 0.029238138 0.046953887 -0.015155423 0.02942363
-0.02109096 0.027813295 -0.04647408 0.02953581 0.01319795 -0.056516785 0.025713388 -0.095562525
0.017701762 -0.007354671 -0.08045213 0.03377647 -0.04108868 -0.059678502 0.040921133 -0.018110834
0.030599961 0.046207316 -0.06795007 0.043413736 -0.06266986 0.03950186 -0.04776693 0.0045786896
0.024099339 0.002734145 -0.019431293 0.031292535 -0.03602714 -0.008924503 0.073669486 0.03664281
-0.06317589 0.034273773 -0.03197105 -0.04441068 0.014093798 -0.050209623 0.011017652 -0.04519886
00000000: 80aa 503c 400a 1e3b a4da 763c daef 9ebd
00000010: 30a1 cdbd fc24 863c 0005 2d3c 5625 2f3d
00000020: 026d 2bbd 4c03 983d a0e1 6bbb f0f3 e43c
00000030: 06c1 af3c e4b5 093c e600 f4bc 1acf b53c
00000040: 5c29 a83c 9845 2b3d f070 dd3c 8296 12bc
00000050: 32d9 21bc 34dd 053e 3691 393c 1b44 51bd
00000060: c8ac 69bd 8ae0 1cbc d802 ec3c 3454 e8bc
00000070: 40cb 24bd 0e65 843b a893 f93c c4f6 cabc
00000080: 923a 8dbc f6f1 5e3d 0c02 773d b0b0 08bd
00000090: c1f1 043d 4ba7 9fbc 9826 b839 c28f 83bd
000000a0: 80dd 23ba fa28 633d 61ab 073d 5b20 7bbd
000000b0: 3055 4bbc b764 c03d 358e 9d3c c8d4 91bc
000000c0: 488b fa3c 708c adbb 2ce7 963c bbb4 2b3c
000000d0: 007d 03bc 5fa5 91bc 80d2 c23d 2279 1bbd
000000e0: fe1e 30bd 90f5 4fbd 85c9 403d a011 5bbb
000000f0: aa69 013d dd31 9ebc 9148 eabc 2e0e c6bb
00000100: 4ce5 4fbd 4a93 383d 4927 febc 5b92 b43c
00000110: a088 52bc 069b 9a3c f8de 78bd 852a 50bd
00000120: d32d 35bd 54b1 3a3d 4e59 403d 92a6 e53b
00000130: 9ce6 a3ba 6145 973d 9aff b5bc 0bd2 513d
00000140: 73b3 c43d 3035 ddbc e0a5 5d3d 1d02 3d3d
00000150: e34c 6b3d 4090 c7bc 3cda 91bc f8a0 f9bb
00000160: 0af3 733d 588f 2dbd a76d ad3c 8e70 393d
00000170: c424 32bd 1421 883b b8c8 8ebd e078 0e3d
00000180: 6e14 62bc e3e9 693d db4b 043d ba57 ac3b
00000190: e334 38bd d8fb 3a3c 3083 82bd 1321 663c
000001a0: 4f1b 81bc a356 01bd e0e8 603c f978 c7bc
000001b0: 5c62 7abd a573 353d 4075 203d c9de 79bd
000001c0: d8d5 1d3d 721c c83c db9b 44bd 1b6c b2bd
000001d0: 5b85 2c3d 7e0e d7bb 56a3 10bd 8f46 343d
000001e0: c81d 15bc dc2c 1fbc 840e 1ebd 781c 66bb
000001f0: f047 883c 4419 70bd 21f3 1dbd e258 57bc
00000200: 8690 6cbd 00f7 aebb 4a84 343d ceab d43c
00000210: 8420 e73c ec57 1ebd ee6c a6bc 7b68 35bc
00000220: 32e2 92ba b78c 2cbd a61e 8f3d 3f7e d1bc
00000230: 19db f73c 0a19 01bd b54a f2bc 25fc c73c
00000240: aa81 52bc e088 933b 7503 76bd c102 863c
00000250: c457 6fbd 5090 843d 3684 6abd 1464 debc
00000260: 4292 173d 5c1c 1fbc ae40 0dbd c6f7 94bc
00000270: 0b64 79bb 503f c83b b4dd 633b cd01 903d
00000280: 00b9 ecbc 8a85 373d 4179 6cbc 4ad5 5fbb
00000290: 7418 833d 007f a0bd 0d3d 3a3d e002 29bd
000002a0: 4981 123d d0e4 fd3b ff5e 13be 4279 a2bd
000002b0: 5744 18bd d3f7 9d3c cb7c 90bd 62e0 d7bb
000002c0: e4ee b73c 4da9 07bd fe56 9dbb db33 913d
000002d0: 3e88 403d ed73 b63c 97b0 a8bd 529e 18bd
000002e0: 7215 67bc 3f13 91bc 0b53 77bc 0947 d03b
000002f0: c1b3 5a3d 1875 09bd fb49 e53c 614f 033d
00000300: 2522 52bd faf3 6ebc cc6f ec3b f489 283d
00000310: 3a9e ae3d dcfb 9a3c 76d9 023c 6dda 1cbd
00000320: ca7b 00bd 61a0 ff3b 9812 7b3c 7c23 e7bc
00000330: 6a14 b4bc c2ce 9e3d 050f 8e3c 7697 8b3d
00000340: 4639 a8bd 5650 513a 96f7 15bc 9e2f bbbb
00000350: d284 ef3c b852 403d 744e 78bc d309 f13c
00000360: f3c6 acbc b5d8 e33c 9b5b 3ebd 15f5 f13c
00000370: 373c 583c 257e 67bd e2a4 d23c 49b6 c3bd
00000380: 4903 913c 74ff f0bb 16c4 a4bd 3259 0a3d
00000390: 9b4c 28bd 7271 74bd eb9c 273d 2c5d 94bc
000003a0: c5ac fa3c e243 3d3d 6829 8bbd 9ad2 313d
000003b0: 0e59 80bd b4cc 213d 42a7 43bd d508 963b
000003c0: fa6b c53c 572f 333b 602e 9fbc 9a2c 003d
000003d0: 3291 13bd 1438 12bc 07e0 963d c516 163d
000003e0: 5c62 81bd a862 0c3d 13f4 02bd f9e7 35bd
000003f0: ace9 663c 9ba8 4dbd 6283 343c 7122 39bd

std.constant7 f4 [128]
0.039492756 0.10831427 0.04841166 -0.008403676 -0.0036406196 0.0052985 0.05483687 0.014361235
-0.008804351 0.06739604 0.07179143 -0.00393884 -0.006382104 0.041686352 0.04822807 0.042020373
-0.00042418955 0.083283186 -0.0020121508 0.0636302 -0.0042841965 0.009981399 0.0953665 0.002230481
0.037387718 0.10445316 0.022078358 0.056643218 0.13625449 0.02657232 0.012887967 -0.012735866
0.09587997 0.0038253579 0.093886845 0.006650094 0.06551968 0.010130722 0.039221097 0.07193324
0.014398005 -0.0008876203 -0.0064104726 0.010578581 0.023935005 -0.0010373344 0.09035565 -0.0029668699
0.037512064 0.0010397597 0.07672638 -0.005749833 0.061697066 -0.007597673 0.06585076 -0.0008050988
-0.00489809 0.09535367 0.12501359 -0.006666964 0.01899774 0.03737511 0.111159794 0.0025781242
0.122686885 0.06869875 -0.011368991 0.01068945 0.05895185 -0.010036223 0.0119703375 0.019219896
0.03339402 0.031050391 0.092416964 -0.0010574732 0.034740284 0.043542713 0.019525632 0.0015233313
0.06221583 0.0019908196 0.073929474 0.02452791 0.018860135 0.015685426 0.007500686 0.029886162
0.07989609 0.029977513 0.123219155 0.043488257 0.047960233 0.076958336 0.01588143 0.0038454628
0.028703798 0.04393814 0.038297147 0.0022732338 -0.0003650116 -2.3698714e-05 0.047614917 0.12081197
0.07951143 0.009521636 0.10076659 0.024887161 0.05440199 0.030125072 0.042005166 -7.495833e-05
0.012745955 0.039348964 0.0681249 0.085544206 0.043668557 0.0087240655 0.020470941 0.08378685
0.10554095 0.041405976 -0.007011589 0.11109765 0.01979747 0.08704518 0.002798577 0.10108408
00000000: 28c3 213d dfd3 dd3d 4e4b 463d 92af 09bc
00000010: 7697 6ebb 0a9f ad3b a09c 603d 634b 6b3c
00000020: 2040 10bc ef06 8a3d 6307 933d 6211 81bb
00000030: f820 d1bb 4fbf 2a3d cc8a 453d 8e1d 2c3d
00000040: c265 deb9 6090 aa3d 4ade 03bb 8d50 823d
00000050: 7262 8cbb 0689 233c 834f c33d 432d 123b
00000060: dd23 193d 8aeb d53d acdd b43c b802 683d
00000070: 4c86 0b3e 32ae d93c 0d28 533c 18aa 50bc
00000080: b85c c43d dbb2 7a3b bf47 c03d 08e9 d93b
00000090: 2f2f 863d 54fb 253c 4da6 203d bc51 933d
000000a0: 9ce5 6b3c 31af 68ba f10e d2bb c951 2d3c
000000b0: 5813 c43c 2bf7 87ba 620c b93d d16f 42bb
000000c0: 40a6 193d 8c48 883a b822 9d3d 1869 bcbb
000000d0: 10b6 7c3d e7f5 f8bb c3dc 863d 440d 53ba
000000e0: 2880 a0bb c948 c33d 9003 003e 8c76 dabb
000000f0: 26a1 9b3c a516 193d bfa7 e33d bff5 283b
00000100: 4343 fb3d eeb1 8c3d 0145 3abc ce22 2f3c
00000110: 7f77 713d f86e 24bc 3c1f 443c 0b73 9d3c
00000120: 2bc8 083d 645d fe3c 1b45 bd3d ea9a 8aba
00000130: d44b 0e3d d859 323d 38f4 9f3c 84aa c73a
00000140: 07d6 7e3d 6978 023b 5668 973d c1ee c83c
00000150: 9280 9a3c b97e 803c 51c8 f53b d3d3 f43c
00000160: 90a0 a33d 6793 f53c 535a fc3d be20 323d
00000170: f371 443d 559c 9d3d c619 823c 2904 7c3b
00000180: 3a24 eb3c 7bf8 333d 78dd 1c3d 89fa 143b
00000190: 075f bfb9 9acc c6b7 dc07 433d 446c f73d
000001a0: e3d6 a23d a300 1c3c b75e ce3d 29e0 cb3c
000001b0: 9fd4 5e3d dbc8 f63c 9c0d 2c3d f232 9db8
000001c0: 69d4 503c 612c 213d 1185 8b3d cd31 af3d
000001d0: cddd 323d 62ef 0e3c adb2 a73c 7198 ab3d
000001e0: db25 d83d 5099 293d 79c1 e5bb 2a87 e33d
000001f0: 4e2e a23c be44 b23d 5568 373b 2c05 cf3d

std.constant8 f4 [128]
0.003778326 -0.004535785 -0.0014667558 0.017400121 -0.012652848 -0.004096433 0.023884784 -0.010155607
-0.0070059453 0.00101057 0.024524271 2.4792218e-05 0.0011958623 0.0005524558 0.01852578 0.00401121
0.0006424602 -0.011588617 0.0007589017 -0.009149921 -0.021223878 0.0038261123 0.0017625502 -0.00442787
-0.0044173263 -0.016659046 0.017828396 0.00071281195 0.022270638 0.0043160096 0.0007076767 -0.011068798
-0.019380374 0.010590689 0.0031828189 0.012189458 -0.018602293 0.004416834 0.0033620526 -0.0053190207
-0.00502759 0.00027090573 0.007372743 0.0054571247 0.016997464 -0.0033740355 -0.013699378 0.0013023606
0.0018796915 0.004961623 0.0019099821 -0.010915721 0.0093489215 -0.0014957747 0.0071566873 0.0107419295
-0.0051476173 -0.024838906 0.009210374 5.2532607e-05 -0.014981217 0.0071469885 -0.025293685 -0.0015330357
-0.02038062 -0.00016256934 -0.014870304 0.0033900684 -0.023287557 0.020305064 -0.021346511 0.0009676514
0.0041258307 -0.001989918 0.0031435504 -0.01759054 -0.008008772 0.01779283 -0.0008276499 0.0028557153
-0.0004786101 0.0008560745 -9.05944e-05 -0.0050361534 -0.016608762 -0.003706715 0.0046065906 -0.018962374
-0.0067416076 -0.00020116482 -0.016473548 -0.0029953097 0.0021737828 0.0020329037 0.022173092 -0.012453375
-0.0033236924 -0.0031569907 -0.004023399 0.0043668915 0.017210504 -8.116759e-05 -0.0018775206 0.020673124
0.0028228639 -0.005374583 -0.02700343 0.0054834224 0.024792532 -0.00022940472 0.001244848 -0.0028143022
0.0016523481 0.0041865446 -0.0032607536 -0.024299666 0.0115455 0.010177442 -0.0016148932 -0.024076512
0.01644574 -0.0033595318 -0.005697925 0.025054306 -0.0017333531 0.008239755 -0.003967194 0.024927132
00000000: cb9d 773b eca0 94bb 2840 c0ba b38a 8e3c
00000010: e44d 4fbc 5f3b 86bb 06aa c33c b463 26bc
00000020: 2192 e5bb 1a75 843a 20e7 c83c e2f8 cf37
00000030: 7bbe 9c3a aed2 103a 60c3 973c 7870 833b
00000040: c66a 283a 2fde 3dbc 08f1 463a 8de9 15bc
00000050: b3dd adbc 83bf 7a3b 5f05 e73a aa17 91bb
00000060: 38bf 90bb 8d78 88bc db0c 923c 00dc 3a3a
00000070: ea70 b63c 506d 8d3b 6183 393a e759 35bc
00000080: 97c3 9ebc 9284 2d3c d796 503b 4bb6 473c
00000090: d663 98bc 17bb 903b e255 5c3b 2e4b aebb
000000a0: 7bbe a4bb 5a08 8e39 0d97 f13b aed1 b23b
000000b0: 443e 8b3c ec1e 5dbb 5b73 60bc f8b3 aa3a
000000c0: fb5f f63a 1c95 a23b 5d58 fa3a dad7 32bc
000000d0: 382c 193c df0d c4ba a582 ea3b ebfe 2f3c
000000e0: 58ad a8bb f67a cbbc 1ce7 163c 7556 5c38
000000f0: c773 75bc 4931 ea3b b434 cfbc 24f0 c8ba
00000100: 42f5 a6bc 6077 2ab9 93a2 73bc e92b 5e3b
00000110: 8cc5 bebc ce56 a63c e1de aebc fca9 7d3a
00000120: fa31 873b 4969 02bb 0604 4e3b 091a 90bc
00000130: 3937 03bc 45c2 913c a5f6 58ba f426 3b3b
00000140: f6ed fab9 306a 603a 80fd bdb8 5106 a5bb
00000150: 190f 88bc 5cec 72bb e2f2 963b fb56 9bbc
00000160: b4e8 dcbb c5ef 52b9 89f3 86bc f54c 44bb
00000170: 0676 0e3b 773a 053b 58a4 b53c 3e09 4cbc
00000180: 4ed2 59bb 84e5 4ebb b8d6 83bb 2418 8f3b
00000190: 0bfd 8c3c 8538 aab8 2317 f6ba af5a a93c
000001a0: ccff 383b 451d b0bb 4c36 ddbc 48ae b33b
000001b0: b519 cb3c 5c8c 70b9 2b2a a33a 2870 38bb
000001c0: 9a93 d83a 482f 893b 5eb2 55bb 1810 c7bc
000001d0: 5629 3d3c 49bf 263c d3aa d3ba 1b3c c5bc
000001e0: 37b9 863c 972b 5cbb a9b5 babb b03e cd3c
000001f0: ae31 e3ba 0a00 073c 3cff 81bb fc33 cc3c

std.constant9 f4 [128]
1.0 1.0 1.0 1.0 1.0 1.0 1.0 1.0
1.0 1.0 1.0 1.0 1.0 1.0 1.0 1.0
1.0 1.0 1.0 1.0 1.0 1.0 1.0 1.0
1.0 1.0 1.0 1.0 1.0 1.0 1.0 1.0
1.0 1.0 1.0 1.0 1.0 1.0 1.0 1.0
1.0 1.0 1.0 1.0 1.0 1.0 1.0 1.0
1.0 1.0 1.0 1.0 1.0 1.0 1.0 1.0
1.0 1.0 1.0 1.0 1.0 1.0 1.0 1.0
1.0 1.0 1.0 1.0 1.0 1.0 1.0 1.0
1.0 1.0 1.0 1.0 1.0 1.0 1.0 1.0
1.0 1.0 1.0 1.0 1.0 1.0 1.0 1.0
1.0 1.0 1.0 1.0 1.0 1.0 1.0 1.0
1.0 1.0 1.0 1.0 1.0 1.0 1.0 1.0
1.0 1.0 1.0 1.0 1.0 1.0 1.0 1.0
1.0 1.0 1.0 1.0 1.0 1.0 1.0 1.0
1.0 1.0 1.0 1.0 1.0 1.0 1.0 1.0
00000000: 0000 803f 0000 803f 0000 803f 0000 803f
00000010: 0000 803f 0000 803f 0000 803f 0000 803f
00000020: 0000 803f 0000 803f 0000 803f 0000 803f
00000030: 0000 803f 0000 803f 0000 803f 0000 803f
00000040: 0000 803f 0000 803f 0000 803f 0000 803f
00000050: 0000 803f 0000 803f 0000 803f 0000 803f
00000060: 0000 803f 0000 803f 0000 803f 0000 803f
00000070: 0000 803f 0000 803f 0000 803f 0000 803f
00000080: 0000 803f 0000 803f 0000 803f 0000 803f
00000090: 0000 803f 0000 803f 0000 803f 0000 803f
000000a0: 0000 803f 0000 803f 0000 803f 0000 803f
000000b0: 0000 803f 0000 803f 0000 803f 0000 803f
000000c0: 0000 803f 0000 803f 0000 803f 0000 803f
000000d0: 0000 803f 0000 803f 0000 803f 0000 803f
000000e0: 0000 803f 0000 803f 0000 803f 0000 803f
000000f0: 0000 803f 0000 803f 0000 803f 0000 803f
00000100: 0000 803f 0000 803f 0000 803f 0000 803f
00000110: 0000 803f 0000 803f 0000 803f 0000 803f
00000120: 0000 803f 0000 803f 0000 803f 0000 803f
00000130: 0000 803f 0000 803f 0000 803f 0000 803f
00000140: 0000 803f 0000 803f 0000 803f 0000 803f
00000150: 0000 803f 0000 803f 0000 803f 0000 803f
00000160: 0000 803f 0000 803f 0000 803f 0000 803f
00000170: 0000 803f 0000 803f 0000 803f 0000 803f
00000180: 0000 803f 0000 803f 0000 803f 0000 803f
00000190: 0000 803f 0000 803f 0000 803f 0000 803f
000001a0: 0000 803f 0000 803f 0000 803f 0000 803f
000001b0: 0000 803f 0000 803f 0000 803f 0000 803f
000001c0: 0000 803f 0000 803f 0000 803f 0000 803f
000001d0: 0000 803f 0000 803f 0000 803f 0000 803f
000001e0: 0000 803f 0000 803f 0000 803f 0000 803f
000001f0: 0000 803f 0000 803f 0000 803f 0000 803f

std.constant10 f4 [128]
0.03798216 0.10793869 0.0481586 -0.008319547 -0.0035705664 0.0055282065 0.05495397 0.014428049
-0.008773728 0.06787671 0.07185991 -0.0037904421 -0.0061908346 0.042026896 0.047844604 0.04313876
-0.0005332093 0.08290043 -0.0023425044 0.06484128 -0.0040187137 0.009698242 0.09504388 0.0021972717
0.036975224 0.10453932 0.021458143 0.056274123 0.13626872 0.027172854 0.013379698 -0.013176769
0.09504874 0.003891419 0.094539285 0.006500871 0.06546236 0.010137287 0.038986716 0.071305595
0.015348861 -0.0012054475 -0.006483977 0.011143668 0.024363285 -0.00070847577 0.08957598 -0.0028585014
0.03752922 0.00068098056 0.07602594 -0.005852676 0.062029917 -0.007457972 0.06591881 -0.0011383207
-0.004628679 0.09602659 0.12516926 -0.007095184 0.018936632 0.03724134 0.11087309 0.0028421315
0.12232176 0.06849189 -0.011294634 0.010486501 0.05936956 -0.010043963 0.011782711 0.019045288
0.0334208 0.030284671 0.09202016 -0.001159946 0.034103315 0.04402225 0.01938511 0.001758131
0.06202952 0.0015177245 0.074466534 0.02378608 0.018588332 0.014906229 0.0072374595 0.030086014
0.08064813 0.030191304 0.12297634 0.043630365 0.048054874 0.07712007 0.015534185 0.0035721639
0.029432274 0.043927033 0.038841724 0.001915693 -0.00029634338 -0.00032520047 0.047377456 0.12107225
0.08033852 0.00914266 0.10064755 0.025389275 0.05456727 0.03141887 0.04268398 -2.1617714e-05
0.01259754 0.03925662 0.06746949 0.08543255 0.04349226 0.008911944 0.019578867 0.08398094
0.10556436 0.04047348 -0.007147063 0.11101879 0.01959387 0.086707234 0.00262951 0.10142779
00000000: 2e93 1b3d f60e dd3d f441 453d b64e 08bc
00000010: 2a00 6abb f525 b53b 6a17 613d a063 6c3c
00000020: afbf 0fbc f202 8b3d 4a2b 933d 1169 78bb
00000030: 7cdc cabb 6524 2c3d b4f8 433d 45b2 303d
00000040: 12c7 0bba b3c7 a93d b484 19bb 81cb 843d
00000050: 6aaf 83bb 60e5 1e3c 5ea6 c23d 1a00 103b
00000060: 5573 173d b618 d63d fdc8 af3c b27f 663d
00000070: 078a 0b3e 9b99 de3c 8536 5b3c 60e3 57bc
00000080: eaa8 c23d 2d07 7f3b d09d c13d 4205 d53b
00000090: 2111 863d dd16 263c 89b0 1f3d ab08 923d
000000a0: ca79 7b3c 1b00 9eba 8b77 d4bb ee93 363c
000000b0: 8395 c73c 01b9 39ba 9d73 b73d b255 3bbb
000000c0: 3db8 193d d583 323a 7db3 9b3d cec7 bfbb
000000d0: 1513 7e3d 0162 f4bb 7100 873d b433 95ba
000000e0: 2cac 97bb 97a9 c43d 5f2c 003e b87e e8bb
000000f0: ff20 9b3c 608a 183d 6e11 e33d 0e43 3a3b
00000100: d583 fa3d 7a45 8c3d 210d 39bc 93cf 2b3c
00000110: 7f2d 733d 6f8f 24bc 460c 413c dd04 9c3c
00000120: 40e4 083d 8f17 f83c 1175 bc3d 5409 98ba
00000130: ebaf 0b3d ad50 343d 86cd 9e3c 1671 e63a
00000140: aa12 7e3d 62ee c63a e981 983d 06db c23c
00000150: 8f46 983c 4239 743c 3628 ed3b f276 f63c
00000160: d92a a53d c153 f73c 05db fb3d c1b5 323d
00000170: 30d5 443d 21f1 9d3d 1883 7e3c f71a 6a3b
00000180: f41b f13c d5ec 333d 8018 1f3d fe17 fb3a
00000190: 895e 9bb9 ab7f aab9 dd0e 423d baf4 f73d
000001a0: 8688 a43d 18cb 153c 4d20 ce3d 2bfd cf3c
000001b0: ee81 5f3d 13b1 003d 66d5 2e3d b057 b5b7
000001c0: ea65 4e3c 8dcb 203d 722d 8a3d 43f7 ae3d
000001d0: f124 323d 6703 123c dc63 a03c 33fe ab3d
000001e0: 2132 d83d 85c7 253d e931 eabb d25d e33d
000001f0: 5383 a03c 9093 b13d db53 2c3b 60b9 cf3d

std.constant11 f4 [128, 7]
-0.016695518 0.10667462 0.027920814 0.0047471332 -0.058246423 -0.037499346 -0.021313006 0.11209016
0.08578767 0.08618497 0.06150357 -0.012698371 0.07171717 0.029952899 -0.003975488 0.014738796
0.11876607 0.06834514 0.014955284 0.04867571 0.05384802 0.041609734 -0.023128988 -0.09273934
0.03551835 0.06433561 -0.08634648 -0.11156032 -0.045431692 0.056287624 -0.0003753556 0.029289095
0.075204685 0.095200606 0.041458122 0.06425756 0.093802534 -0.04633335 -0.05628764 0.090917744
0.05279612 0.12814206 0.015608817 -0.032769464 -0.047421843 0.09544531 0.039969265 0.06517194
-0.018055879 -0.038822282 0.09985499 -0.0035897123 0.059569955 0.08169645 0.11639602 0.060713876
-0.0711895 -0.039241433 -0.061784696 -0.0037832079 0.028423477 0.016457655 -0.034033295 0.060584802
-0.023089988 -0.08138255 0.05983121 0.047001258 0.009165094 0.13355385 0.036482845 0.004051128
0.0010867739 0.085010104 0.08618838 0.023008049 0.056806643 -0.09506029 0.039646614 -0.05373633
-0.037298504 0.0659101 0.046749406 0.0023279078 -0.02586408 0.035343885 0.035444338 -0.018174686
0.037328605 0.088622265 -0.025584308 0.09853841 -0.046839535 -0.03410323 0.07856252 0.03338044
-0.0072344416 0.16709179 -0.00926012 -0.06610059 0.106692545 -0.045904096 0.026142426 0.11372941
0.012804159 -0.02759369 -0.07640869 0.026437558 -0.012289164 0.10389728 0.119240716 0.17975488
-0.07080994 0.013539246 0.0016605475 -0.0161405 0.07853672 0.066782884 -0.034885403 0.036871474
0.05535154 -0.068255186 0.0880506 0.018287206 0.15932414 -0.019362127 -0.08520079 0.083372235
0.054030295 0.08425948 -0.0055720727 -0.04531118 -0.035184033 0.085782796 0.0066558816 0.07355607
0.112434216 0.059057698 0.106632166 0.16371164 -0.05898107 -0.07713327 -0.012155953 -0.008265478
0.041274186 -0.025213087 0.04531104 -0.06077253 -0.06794448 -0.08625479 -0.030698257 0.092809044
-0.026379824 -0.010689901 0.08544057 0.11784208 -0.07167533 0.05603918 0.10575044 0.006490587
0.11800462 -0.07727597 -0.014131278 0.011970951 -0.0874352 -0.07924601 0.088882565 0.052326027
-0.07620803 0.09888953 -0.06423513 -0.09557345 0.095866814 0.10921326 -0.013230038 0.0046040285
0.07045431 -0.025310729 0.108507544 0.14884809 0.08491105 0.03053602 -0.050817568 0.017501336
0.10881208 0.09368164 -0.08002846 -0.0065290453 0.039854825 -0.010699051 0.10581479 0.058774028
-0.033998255 0.024226671 -0.060244262 -0.015506824 0.032447137 -0.0112971915 0.12622264 0.14504135
0.13276689 0.11779772 -0.041162636 -0.04930496 0.043063004 0.062394418 -0.09805653 -0.018603725
0.061313443 0.08445311 -0.06411005 -0.021738803 -0.06699623 -0.08443576 0.07134657 0.090998285
0.09551943 0.104468286 -0.0771088 0.082645185 -0.037173115 -0.07983483 0.049338434 -0.03634732
-0.020798698 0.047753457 0.07307953 -0.07841503 -0.0006378223 0.013997018 0.1288757 -0.088901676
-0.037477367 -0.008743928 0.0037381693 -0.03923393 -0.07380576 0.022048943 -0.031193594 -0.07163163
-0.048573952 -0.021476205 0.033239927 0.08111594 0.1448033 0.008823071 -0.058799647 -0.020086346
0.07491317 0.014695325 -0.08467946 -0.005242971 0.0651901 -0.017782161 -0.0778862 -0.025483623
00000000: 0ac5 88bc 3978 da3d 31ba e43c d78d 9b3b
00000010: cd93 6ebd ea98 19bd 9d98 aebc 878f e53d
00000020: 72b1 af3d bf81 b03d 2beb 7b3d d40c 50bc
00000030: 74e0 923d c85f f53c cf44 82bb fe7a 713c
00000040: a03b f33d 89f8 8b3d 0207 753c 2e60 473d
00000050: be8f 5c3d f86e 2a3d 0179 bdbc 20ee bdbd
00000060: b07b 113d 63c2 833d 6cd6 b0bd bd79 e4bd
00000070: 9516 3abd da8d 663d 60cb c4b9 afef ef3c
00000080: ea04 9a3d 89f8 c23d fecf 293d 7899 833d
00000090: 8b1b c03d 0ac8 3dbd de8d 66bd 1533 ba3d
000000a0: bf40 583d ac37 033e 20bc 7f3c 4639 06bd
000000b0: 683d 42bd d578 c33d d0b6 233d de78 853d
000000c0: ece9 93bc 1d04 1fbd c680 cc3d 6141 6bbb
000000d0: a0ff 733d 7850 a73d 0961 ee3d 1daf 783d
000000e0: cdcb 91bd a0bb 20bd f311 7dbd b2ef 77bb
000000f0: 5ad8 e83c 34d2 863c 7f66 0bbd c527 783d
00000100: 3727 bdbc e5ab a6bd 9211 753d 6484 403d
00000110: 3129 163c 57c2 083e 096f 153d 53bf 843b
00000120: 1572 8e3a c719 ae3d 8983 b03d 607b bc3c
00000130: 15ae 683d f8ae c2bd 7d64 223d a01a 5cbd
00000140: 51c6 18bd e0fb 863d 4e7c 3f3d d08f 183b
00000150: e8e0 d3bc c0c4 103d 152e 113d 14e3 94bc
00000160: e1e5 183d 977f b53d 2f96 d1bc 82ce c93d
00000170: d0da 3fbd d4af 0bbd 63e5 a03d eeb9 083d
00000180: e50e edbb 1c1a 2b3e c2b7 17bc bf5f 87bd
00000190: 9f81 da3d ef05 3cbd a428 d63c f7ea e83d
000001a0: 89c8 513c 2a0c e2bc 297c 9cbd 9493 d83c
000001b0: 7d58 49bc 19c8 d43d 7a34 f43d aa11 383e
000001c0: cd04 91bd b7d3 5d3c baa6 d93a 1539 84bc
000001d0: dcd7 a03d 77c5 883d ffe3 0ebd 8b06 173d
000001e0: 4cb8 623d 60c9 8bbd df53 b43d 0dcf 953c
000001f0: de25 233e 539d 9ebc c07d aebd 10bf aa3d
00000200: df4e 5d3d 3c90 ac3d ef95 b6bb 3798 39bd
00000210: 221d 10bd e4ae af3d 9519 da3b 91a4 963d
00000220: e943 e63d 7ce6 713d f761 da3d 06a4 273e
00000230: 2296 71bd 0cf8 9dbd c329 47bc ed6b 07bc
00000240: 1f0f 293d ad8b cebc 1298 393d 9eec 78bd
00000250: 7a26 8bbd 5aa6 b0bd e97a fbbc ab12 be3d
00000260: 801a d8bc b224 2fbc 77fb ae3d 3057 f13d
00000270: 84ca 92bd 5789 653d b093 d83d fdae d43b
00000280: 68ac f13d dd42 9ebd e086 67bc cf21 443c
00000290: 3a11 b3bd bb4b a2bd 1008 b63d d153 563d
000002a0: f512 9cbd 9886 ca3d b58d 83bd 03bc c3bd
000002b0: d255 c43d 34ab df3d cdc2 58bc 64dd 963b
000002c0: 594a 903d 7258 cfbc 3439 de3d a26b 183e
000002d0: d8e5 ad3d ad26 fa3c 1526 50bd f65e 8f3c
000002e0: ded8 de3d 29dc bf3d f6e5 a3bd 9af1 d5bb
000002f0: d03e 233d 134b 2fbc 6db5 d83d 09bd 703d
00000300: c141 0bbd 0377 c63c b0c2 76bd 5510 7ebc
00000310: 4ae7 043d db17 39bc 8240 013e b885 143e
00000320: 0bf4 073e ee3f f13d 279a 28bd fff3 49bd
00000330: d562 303d 4a91 7f3d ddd1 c8bd d766 98bc
00000340: ce23 7b3d c1f5 ac3d 214c 83bd 9315 b2bc
00000350: 5235 89bd a8ec acbd 271e 923d 4f5d ba3d
00000360: b19f c33d 78f3 d53d 38eb 9dbd e141 a93d
00000370: d642 18bd 7180 a3bd 1917 4a3d ede0 14bd
00000380: 0862 aabc 2199 433d b8aa 953d 0f98 a0bd
00000390: 8833 27ba c053 653c fef7 033e 1512 b6bd
000003a0: de81 19bd b142 0fbc 13fc 743b c2b3 20bd
000003b0: 7927 97bd fc9f b43c b589 ffbc 9bb3 92bd
000003c0: 7bf5 46bd deee afbc 9726 083d 1d20 a63d
000003d0: 5147 143e a48e 103c e6d7 70bd 1f8c a4bc
000003e0: 136c 993d a9c4 703c 6d6c adbd 3acd abbb
000003f0: 6382 853d e5ab 91bc cd82 9fbd 08c3 d0bc

std.constant12 f4 [128, 7]
0.115396805 0.0034249988 -0.08690374 -0.045887046 0.030929452 -0.03335404 0.12076259 0.07638651
-0.022105137 -0.059048474 0.069998264 -0.011343875 0.1035598 -0.20035611 -0.074268274 -0.012748037
-0.057418134 0.04444077 -0.004962105 -0.013797069 -0.19019873 0.0398835 -0.07186678 0.09155812
-0.07668352 0.099688835 -0.08688874 -0.033125285 -0.036822032 -0.021639334 0.08370678 -0.009475802
-0.096797995 0.07274174 0.028403573 -0.104770266 0.009889672 0.040042095 0.055112425 -0.05567659
-0.106400385 -0.04462498 -0.09902524 0.07839974 -0.027832067 0.015705444 0.011162999 -0.017853508
-0.12890379 -0.1021932 -0.08612955 -0.06417311 0.07911494 0.053304166 -0.047413807 0.12121118
0.009183034 -0.04291222 -0.08203525 -0.030762969 0.061339665 -0.018286321 0.028948054 -0.0107230665
-0.080663234 0.09919821 0.035615694 -0.053090755 0.029267935 0.21492532 -0.07545679 -0.08443245
-0.027308863 0.010813249 0.0036030512 0.069127016 -0.17178634 0.07980419 0.061366178 -0.08104861
0.024846023 0.085032 0.079804845 0.024110697 -0.06445009 -0.055714913 -0.08828906 -0.0867164
-0.024928523 -0.0753782 0.0068336013 -0.105112135 0.08194907 0.059762582 0.06443023 0.011526162
-0.089933135 -0.12024835 -0.04438109 -0.0055283825 -0.099437736 0.09308003 0.003525565 0.08106256
-0.10132124 0.094436355 -0.08714096 -0.0012125471 0.0519917 -0.0053902147 0.0069283484 0.14516889
-0.03979728 -0.011090313 0.017003277 0.013866882 0.10119433 0.10456507 0.055798307 0.042479884
0.079946585 -0.0323115 0.012465838 0.0033835208 -0.07434716 0.22268403 0.034298375 -0.0808216
0.032103356 0.08723423 -0.0021859915 0.121726826 0.03138646 0.041604333 0.036666084 -0.009949504
0.052175786 0.11457901 -0.062772416 -0.15276447 -0.02323076 -0.040402897 0.011576823 0.08152406
0.008105338 0.04026332 0.05689282 0.0682595 -0.08663889 0.08026257 0.07567693 0.016032865
-0.054849196 0.07617988 -0.064668894 0.03802949 -0.057125274 0.009591857 0.017074998 -0.06174689
0.22058335 -0.05608204 -0.10513819 -0.10820962 -0.014821353 -0.048816226 -0.11757434 -0.009748857
-0.041252732 -0.009438923 -0.015785256 -0.054640513 0.0043295426 0.095915005 -0.13887133 -0.042810246
0.07675381 0.07914618 -0.09885311 -0.021776523 -0.01327952 0.17987098 -0.03941426 0.0041701803
-0.098928116 0.008428503 0.058398664 0.042448305 -0.06667661 0.10814298 -0.04848773 -0.00042059863
0.010837256 -0.085595824 0.0061360183 0.14517668 -0.043640863 -0.06266908 0.10431104 0.055868104
0.013429058 0.05516574 -0.21352656 0.11634919 0.027162168 0.07802265 0.029170832 0.06574912
-0.061196417 0.15142004 -0.023467414 -0.0024597307 0.0074116136 -0.09765478 -0.08860563 -0.11889252
-0.119194716 0.062436115 0.08413526 0.08571353 0.008310977 -0.1038679 -0.062755555 -0.05671386
0.057535425 0.057478625 -0.11309803 -0.022926155 0.038849372 -0.08062455 0.16687521 0.05722778
-0.08071903 -0.07044659 0.049003717 0.052383143 0.05292846 -0.04172221 0.06889368 -0.065049775
0.09771675 0.04922177 -0.042758975 0.0126397265 -0.23414397 -0.0990551 0.09007247 -0.06659286
-0.091662794 0.048041724 0.0064310296 -0.05969623 0.1146812 0.0401275 0.097499214 -0.11928708
00000000: 2955 ec3d f275 603b 97fa b1bd 0ef4 3bbd
00000010: c35f fd3c 3f9e 08bd 6052 f73d 8870 9c3d
00000020: d515 b5bc d0dc 71bd 405b 8f3d a9db 39bc
00000030: 2917 d43d 272a 4dbe f719 98bd 25dd 50bc
00000040: 472f 6bbd 8607 363d 2799 a2bb 1a0d 62bc
00000050: 75c3 42be e25c 233d e42e 93bd d382 bb3d
00000060: 400c 9dbd a929 cc3d b9f2 b1bd 61ae 07bd
00000070: b3d2 16bd f944 b1bc 766e ab3d 6540 1bbc
00000080: 073e c6bd 9ff9 943d 9cae e83c cb91 d6bd
00000090: 4a08 223c 2e03 243d 91bd 613d 230d 64bd
000000a0: 72e8 d9bd afc8 36bd bfcd cabd 0b90 a03d
000000b0: 1300 e4bc b4a8 803c 03e5 363c 8541 92bc
000000c0: 5bff 03be ab4a d1bd b164 b0bd 316d 83bd
000000d0: 0307 a23d 7855 5a3d fb34 42bd 913d f83d
000000e0: 7074 163c b9c4 2fbd 1902 a8bd 9f02 fcbc
000000f0: 4d3f 7b3d 32cd 95bc 7824 ed3c cdaf 2fbc
00000100: c432 a5bd 6e28 cb3d c3e1 113d b175 59bd
00000110: 4fc3 ef3c 6215 5c3e 1789 9abd ecea acbd
00000120: d6b6 dfbc 0e2a 313c 2b21 6c3b 7792 8d3d
00000130: c2e8 2fbe 6170 a33d 1a5b 7b3d d0fc a5bd
00000140: e389 cb3c 4225 ae3d b970 a33d cc83 c53c
00000150: 69fe 83bd 5235 64bd e5d0 b4bd 5e98 b1bd
00000160: e736 ccbc e35f 9abd 67ec df3b 0845 d7bd
00000170: ead4 a73d 9cc9 743d fff3 833d 3ad8 3c3c
00000180: dd2e b8bd c444 f6bd f2c8 35bd 6f27 b5bb
00000190: 03a6 cbbd bea0 be3d 2a0d 673b 2104 a63d
000001a0: 8381 cfbd d967 c13d f676 b2bd 54ee 9eba
000001b0: 40f5 543d 66a0 b0bb 3307 e33b 27a7 143e
000001c0: 7902 23bd 25b4 35bc 754a 8b3c eb31 633c
000001d0: f93e cf3d 3626 d63d c48c 643d 63ff 2d3d
000001e0: 09bb a33d 1059 04bd 843d 4c3c 0fbe 5d3b
000001f0: 5343 98bd 4807 643e 747c 0c3d cc85 a5bd
00000200: cf7e 033d dca7 b23d da42 0fbb ea4b f93d
00000210: 178f 003d 4e69 2a3d 2d2f 163d 3f03 23bc
00000220: 47b6 553d 66a8 ea3d d38e 80bd 4a6e 1cbe
00000230: 6f4e bebc 827d 25bd b7ac 3d3c 16f6 a63d
00000240: 40cc 043c 27eb 243d 7208 693d a3cb 8b3d
00000250: bb6f b1bd b460 a43d 82fc 9a3d 5b57 833c
00000260: 8da9 60bd 3204 9c3d 2071 84bd cfc4 1b3d
00000270: 31fc 69bd 2a27 1d3c dee0 8b3c 4fea 7cbd
00000280: 9ae0 613e 48b6 65bd b152 d7bd 019d ddbd
00000290: 43d5 72bc 86f3 47bd d1ca f0bd abb9 1fbc
000002a0: a0f8 28bd b6a5 1abc 1550 81bc bbce 5fbd
000002b0: d6de 8d3b 166f c43d 4934 0ebe cc59 2fbd
000002c0: 1a31 9d3d 6417 a23d 8073 cabd ae64 b2bc
000002d0: 5892 59bc 1930 383e d970 21bd 02a6 883b
000002e0: d39a cabd b417 0a3c 7033 6f3d 46de 2d3d
000002f0: bf8d 88bd 117a dd3d 129b 46bd cb83 dcb9
00000300: bf8e 313c dd4c afbd a710 c93b 32a9 143e
00000310: c3c0 32bd a658 80bd 07a1 d53d f4d5 643d
00000320: 8d05 5c3c 79f5 613d b5a6 5abe 7c48 ee3d
00000330: 3283 de3c 57ca 9f3d abf7 ee3c 7aa7 863d
00000340: 18a9 7abd db0d 1b3e bc3e c0bc 6f33 21bb
00000350: 1fdd f23b 3bff c7bd de76 b5bd ec7d f3bd
00000360: 5c1c f4bd 03bd 7f3d 1b4f ac3d 938a af3d
00000370: c42a 083c b2b8 d4bd fc85 80bd cb4c 68bd
00000380: 44aa 6b3d b56e 6b3d f19f e7bd a2cf bbbc
00000390: 8520 1f3d 7c1e a5bd 56e1 2a3e ad67 6a3d
000003a0: 0550 a5bd 4d46 90bd 1fb8 483d b58f 563d
000003b0: 83cb 583d e8e4 2abd 2118 8d3d d138 85bd
000003c0: b81f c83d c49c 493d 0924 2fbd db16 4f3c
000003d0: 70c3 6fbe 66dd cabd ea77 b83d d661 88bd
000003e0: b4b9 bbbd 66c7 443d 63bb d23b 0984 74bd
000003f0: fadd ea3d bc5c 243d abad c73d c94c f4bd
