AirQualityApp/AirQualityApp.Android/Assets/BerlinShort.tflite (tflite, 814948 bytes, 24 tensors)

std.constant3 f4 [128, 128]
000000 6d a3 ce bc 03 e0 03 bb 19 bc 31 3c 0e 51 9c bd
       -0.025224412 -0.0020122535 0.010848069 -0.076326475
000010 3e 7e 9b bc 3a 55 1a 3d 31 bf 36 3c 1e c1 80 3d
       -0.018981095 0.037678935 0.011153982 0.06286834
000020 f2 ff d3 3d b9 05 ad 3d c0 1f 98 bc 4d 49 f5 bc
       0.10351552 0.08448357 -0.018569827 -0.02994218
000030 82 f2 86 3d 5c 43 ec 3c b6 e4 db 3b d9 76 c7 bc
       0.065892234 0.028840713 0.006710614 -0.024348663
000040 87 e5 ea bb c8 d4 2e 3d 39 9f cf bc 7c 8f a8 bc
       -0.007168475 0.042683393 -0.025344478 -0.020576231
000050 11 07 ed bc 4a d8 5e bd 15 8b 6b 3d 51 84 b2 bd
       -0.028934034 -0.054405488 0.057505686 -0.087166436
000060 a8 95 28 bb 0e 7f be 3c 88 ff 79 3d 4a 3d 69 bd
       -0.0025723968 0.023253944 0.06103471 -0.056943215
000070 89 91 bf 3b 4a 59 a3 3c 7a da b9 3c 2b 9c 61 3c
       0.0058462066 0.019940037 0.022687186 0.0137701435
000080 4a 5b d1 ba a8 e1 41 ba 7a f4 f8 bc 50 46 84 bd
       -0.0015972641 -0.0007395991 -0.030390013 -0.064587235
000090 70 69 ad bc 43 f0 cb bc c8 29 38 bd fa 08 f7 bc
       -0.02116844 -0.02489484 -0.04496172 -0.030155648
0000a0 55 af d7 3c 01 2b 79 3d 11 02 c9 bc 9c e1 0e bd
       0.026328722 0.060832027 -0.024537118 -0.034883127
0000b0 9a 53 3a 3c 16 9d 4a bd 74 c8 2e ba 74 20 03 3b
       0.011372471 -0.049466215 -0.0006667443 0.0020008357
0000c0 c8 11 d5 3c f2 28 51 bd d0 5c 51 3b f0 f4 a3 bd
       0.026009455 -0.05106444 0.003194619 -0.080057025
0000d0 06 d7 e4 3c 44 9f d3 3c 7b 50 c0 bc f6 4b 36 3d
       0.027934562 0.02583278 -0.023475876 0.044506036
0000e0 76 31 1c bd bd 7e 1a bb 40 3e b5 3c 7e 54 b2 3c
       -0.038133107 -0.0023574077 0.02212441 0.021768805
0000f0 4c 85 ea 3c 47 41 69 3d 3d ca 03 3d 9e b1 49 bd
       0.028628014 0.05694702 0.03217529 -0.049241655
000100 27 bd 7a 3d 62 a5 89 3d cc 5e 91 3b 96 be 4a bc
       0.061215546 0.067209974 0.0044363495 -0.012374541
000110 af 78 12 bd 99 d7 c2 bc 7c 54 af bc cd bf 29 3d
       -0.035759624 -0.023784446 -0.02140259 0.04144268
000120 42 27 13 bc fd 59 2e bc 26 6d 65 3d d1 a7 6b 3d
       -0.008981528 -0.010641572 0.056012295 0.05753309
000130 75 c4 36 bd 8f fa e6 3c ec e1 7e bc 07 ac a3 bd
       -0.04462095 0.028195648 -0.015556794 -0.07991796
000140 ed 7b 74 bd 64 74 1d bd 26 29 3f bc 42 74 cc bc
       -0.059688497 -0.038441077 -0.011667525 -0.02495778
000150 a4 38 a0 3d 28 6f 9d 3d e4 e9 57 bc ce c5 15 3d
       0.07823303 0.07687217 -0.013178322 0.036565594
000160 cb 8a 58 3c 2e 99 76 3d 1f 4c e0 bc 61 a2 a4 3d
       0.013216685 0.060204677 -0.027380047 0.08038784
000170 6d 5a 33 3d 90 2e 49 3d 6e bb 2a 3d e3 3b b5 bc
       0.04378741 0.04911667 0.041682653 -0.022123283
000180 47 0c 1b 3d 4e 5a 76 3c bc 3d 0c bb 07 59 8d bc
       0.037853505 0.015036179 -0.0021399101 -0.017254366
000190 e3 07 d9 bc b2 1b b0 bc eb 57 81 bd bf 76 a0 3d
       -0.026493018 -0.021497581 -0.06315597 0.07835149
0001a0 b9 6d a5 bc 5d 9c 26 bd a4 85 21 3d 3c f1 fe bc
       -0.020193921 -0.040676463 0.03943409 -0.031120889
0001b0 7a d7 ee 3a 72 74 87 bd 10 e6 58 bb 30 d6 33 3d
       0.0018222176 -0.06614007 -0.0033096112 0.043905437
0001c0 78 21 6d 3d 15 d4 1e bc 22 4b f4 3d d1 c2 16 3d
       0.057893246 -0.009694119 0.11928393 0.036806885
0001d0 65 ee 13 bd bc 4c 9a bb 56 99 c9 3b 08 db 98 3b
       -0.036116023 -0.0047088545 0.0061523123 0.0046647824
0001e0 e2 a1 d9 3b 47 e0 e3 3b c3 6f 2f 3d 0f 50 12 3d
       0.0066416124 0.006954226 0.042831194 0.03572088
0001f0 76 cc 71 bc ec 2d f4 3b bc 19 61 3d 0e 39 f2 3b
       -0.01475822 0.0074517634 0.054956183 0.0073920554
000200 37 c3 9a 3d 2e 77 d5 3b a8 0d a1 3b d2 2d ff bc
       0.075567655 0.0065144515 0.004914958 -0.031149779
000210 b8 cf b6 3c 6d f6 21 3d 66 30 06 3d 0d 7b fb bc
       0.022315845 0.03954165 0.032761 -0.030698324
000220 02 a9 0a 3c ef 5a 74 bd 06 9b 08 bc e4 30 5f bc
       0.008463146 -0.059657034 -0.008337742 -0.013622496
000230 8c 91 18 bd ee a7 7a 3d d3 50 ad 3d 14 61 3c bd
       -0.03724818 0.061195306 0.084626816 -0.04599102
000240 44 41 c8 bb f4 e3 19 bd 16 af 3c 3c 58 53 8c 3b
       -0.006111296 -0.03757091 0.011516353 0.0042823963
000250 65 bf 4d bc e1 17 12 bd ef b7 52 3d d9 45 b4 bc
       -0.012557839 -0.035667304 0.051444944 -0.022005962
000260 2d 6f 0e bd fc 8c 09 bb ce b6 ba bd c2 7c e9 3c
       -0.034773994 -0.0020988574 -0.091168985 0.028501872
000270 c5 ba 41 3d a7 d9 82 bd 3b c4 6f 3c c0 ff 85 3c
       0.047297258 -0.0638917 0.014634187 0.016357303
000280 ca 32 19 bd cc cd 8d bc 53 7e 91 3d f5 49 6b bd
       -0.03740195 -0.017310046 0.071041726 -0.057443578
000290 49 d8 1d 3d d0 82 30 3a 1b 7f 44 3c 7f a9 0d 3c
       0.038536344 0.000673336 0.011993195 0.008646368
0002a0 da fc 50 3b e2 49 de 3b ea 9e 46 bb 80 7a 39 bd
       0.0031888993 0.00678371 -0.0030307123 -0.04528284
0002b0 90 35 ee 3c 5c 0e ab bd 5c 7c a9 bd 9d 79 15 bd
       0.029078275 -0.08352348 -0.08275673 -0.036492933
0002c0 6e 22 27 3b 56 37 21 bd 31 90 d0 3c 8c 4e cc bb
       0.00255027 -0.039359413 0.02545938 -0.0062349495
0002d0 00 91 3c 3a 74 81 82 bd cb c9 83 bd 3d 14 47 3c
       0.00071932375 -0.063723475 -0.06434973 0.012150821
0002e0 e6 3b b6 bc 24 e3 af bd d9 43 cd bd f6 a4 24 bd
       -0.022245359 -0.085882455 -0.100227065 -0.04019638
0002f0 01 f0 27 3d 16 ab 08 3c ef 1f e2 bc 33 ec 7f 3c
       0.04100037 0.008341571 -0.027603118 0.015620279
000300 bb 5b a8 bc 0c fa 85 3c e0 50 91 bc 5e 54 aa bb
       -0.020551553 0.016354583 -0.01773876 -0.0051980456
000310 17 8b 2b bd b5 4f 96 3c b8 0c 83 bb 08 9e 62 3c
       -0.041880693 0.018348554 -0.003999319 0.013831623
000320 ec 5b cf 3b c1 ae 8d 3c 13 b2 b7 bc ee 2e 7d bd
       0.0063280966 0.017295243 -0.02242378 -0.061812334
000330 42 09 57 bd 6c 9f 25 bc 31 99 46 3d 07 21 71 bd
       -0.052499063 -0.01010881 0.04848594 -0.058869388
000340 cb 70 a7 3c 31 ab 30 bd 3a a7 ba bd d3 62 98 3c
       0.020439526 -0.04313201 -0.09113927 0.01860181
000350 f8 8f 03 3b 84 90 c5 bc 16 20 88 3d e0 25 15 3d
       0.0020074826 -0.024116762 0.06646745 0.036413074
000360 14 28 19 3d 2b 86 19 bd 54 93 f2 bc be 67 64 bc
       0.037391737 -0.03748147 -0.029611267 -0.01394075
000370 00 91 66 38 58 cb 5c 3b d8 d9 23 3d 63 31 a1 bd
       5.4971315e-05 0.0033690538 0.040002674 -0.07870748
000380 e7 94 8b 3d c4 24 5a 3b 50 ec 71 39 eb 9e 00 bd
       0.0681551 0.0033286074 0.00023071584 -0.031401556
000390 24 55 c8 bc 46 06 37 3d 0a 5d c2 bb 07 3f c9 3d
       -0.02445466 0.044683717 -0.0059315013 0.09826475
0003a0 76 61 03 3d b3 80 4f 3d f1 a4 09 bd 6f c6 4b bd
       0.032075368 0.050659847 -0.033604566 -0.049749788
0003b0 43 91 f8 3c 18 ec 82 3d 3c b6 01 bb e5 61 99 3d
       0.030342704 0.063926876 -0.0019792458 0.07489375
0003c0 44 d5 ed 3c 29 18 3b bd 49 d7 5a bd a6 54 22 3c
       0.029032357 -0.045677338 -0.05342797 0.009907877
0003d0 55 e7 3f 3c 15 c0 49 3d f2 67 cc bc f9 95 10 3d
       0.011712869 0.04925545 -0.024951909 0.035299275
0003e0 ca 25 d8 bc f6 a6 77 bc bc ef 99 3b 0c 41 72 bc
       -0.026385207 -0.01511549 0.004697768 -0.014786016
0003f0 4d cd 85 bd d6 2d bf 3c 5f d8 55 3d 97 3f 52 3d
       -0.06533299 0.023337286 0.0522083 0.051330175

std.constant4 f4 [128, 128]
000000 a7 be ba bc 14 29 48 bd 4a 39 75 3d 92 d1 90 bb
       -0.022795988 -0.0488673 0.05986909 -0.004419514
000010 92 07 c5 bb e6 d7 82 3b f8 5d 3b bd df 54 66 3c
       -0.0060128653 0.0039930223 -0.045743912 0.014058321
000020 a8 60 98 bb 38 eb a0 bc 08 05 01 bd c5 49 29 bc
       -0.004650194 -0.019643411 -0.03149894 -0.010332529
000030 77 b7 14 bc c2 3f 2a bd 4b cc 08 bd 6f e9 65 3d
       -0.009076945 -0.04156471 -0.033397954 0.056130823
000040 7e fc 1d bc df 0c 8f 3d 8a cf 78 3c 38 66 f3 3c
       -0.009642718 0.06984877 0.0151862 0.029711828
000050 8a 02 ab bd fb 7b 95 3d 19 ac de 3b f8 c0 1f 3d
       -0.08350094 0.07299038 0.006795418 0.03900239
000060 62 6d 51 3c 97 84 5b bd 38 09 0c bc 9b 9b 8e bd
       0.012782427 -0.053593244 -0.00854712 -0.06963273
000070 c4 15 29 3d 4c be 90 bc 7c c4 83 3d 2f 2c 8b bc
       0.041280523 -0.017668866 0.06433961 -0.016988842
000080 1e fc 8e bb 2e be 58 bd fc f1 07 bd 74 61 af bd
       -0.004363551 -0.052915744 -0.03318976 -0.085635096
000090 10 56 f3 bc ec 93 8c 3b 9a 86 1a 3d 4c 89 0b 3d
       -0.029704124 0.0042900946 0.037726022 0.034066483
0000a0 3c 93 b9 3c ea f2 6a 3d 22 ef cb bc b8 86 33 3c
       0.022653215 0.057360567 -0.0248943 0.010957412
0000b0 e1 2b 62 3d a8 35 43 3a c0 96 94 3d 7e a8 fa bb
       0.055217627 0.0007446655 0.07255316 -0.0076494804
0000c0 53 b3 87 bd 40 49 b6 bd c2 35 1d 3c ca 1e 8c bb
       -0.06626 -0.0890069 0.009595336 -0.0042761313
0000d0 38 02 83 3d 7c 93 7f bb e2 2a 8f 3d 1b 3f b7 bc
       0.063969076 -0.003899782 0.06990601 -0.022368958
0000e0 ac 83 90 bc 09 43 04 bc 1b cd a6 3d 90 89 80 bd
       -0.017640911 -0.008072623 0.081445895 -0.06276238
0000f0 de 8f ae 3c 64 80 ce bb 2b e4 bf 3d 9e 3b 15 bd
       0.021308836 -0.0063019264 0.093696915 -0.03643381
000100 50 54 6a 3d a3 7d 2b bc 4c c7 5b 3d 8c 82 b6 3d
       0.057209313 -0.010466966 0.05365686 0.089116186
000110 9b 72 32 bd c2 e4 e5 3b 37 cd 04 3d 96 9e 20 3d
       -0.043566328 0.0070157954 0.03242227 0.03921374
000120 ac d3 b8 bc 6e aa 5b 3d 16 b3 47 bd 94 f5 93 bd
       -0.02256187 0.05362933 -0.048754774 -0.07224575
000130 92 32 8d 3d a9 25 7a bd 33 60 90 3d 39 44 1f bd
       0.06894411 -0.06107107 0.070495985 -0.03888342
000140 62 1d 6d bd 2e d7 7d bd 31 3f 27 bd 3c 13 b4 3d
       -0.05788935 -0.06197279 -0.04083175 0.08792731
000150 82 c9 ef 3c 62 41 87 3c 15 25 2c 3c 3f 98 93 bc
       0.029270891 0.01651067 0.010506888 -0.018016933
000160 e0 38 31 3d 97 b0 f4 bc 6d 81 53 3d 98 bb 94 bd
       0.04326713 -0.02986936 0.051637102 -0.07262343
000170 8d 3e c8 3d 2e 0a 25 3c cf c6 89 3d 02 39 bb 3c
       0.097775556 0.010073228 0.06727373 0.022854332
000180 0b a7 35 bd 36 db 52 bd 68 43 1e 3d 53 c5 81 3d
       -0.044348758 -0.051478587 0.038638502 0.06336465
000190 f8 04 42 bd 95 d6 6d bd 3d a7 9d bc b0 da 19 bb
       -0.04736802 -0.05806597 -0.019244784 -0.0023476295
0001a0 e7 e1 66 3c e7 59 01 3d 87 46 90 3d 70 bb 49 bd
       0.014091945 0.03157988 0.07044702 -0.04925102
0001b0 70 77 60 3d b0 f6 37 3d 06 ed c1 3c e7 5a 43 3d
       0.054801404 0.044912994 0.023672592 0.047694113
0001c0 c6 9c 52 bd 38 a6 97 3c 12 d3 21 3b 70 f0 d3 bd
       -0.051419042 0.018511876 0.0024692458 -0.10348594
0001d0 9c 39 96 bc 8a f4 5c bb a8 4d 74 bd eb 92 63 bc
       -0.018338017 -0.0033715093 -0.05964437 -0.013890008
0001e0 a6 70 13 bd f4 21 5c bc e2 5f 33 3d f2 03 e3 3c
       -0.0359961 -0.013435829 0.043792613 0.027711842
0001f0 b8 5c 70 3c aa 9e 32 bc 0b 2e d9 bc 1f 1e b7 3d
       0.014670543 -0.010902086 -0.026511213 0.08941292
000200 29 60 ab bc 48 67 50 3d a7 41 d0 bc a1 fb 08 bd
       -0.020919876 0.050879747 -0.02542193 -0.033443097
000210 40 33 fd 3a 6b d4 64 bc 77 bb be bb 89 23 20 bd
       0.0019317642 -0.01396666 -0.0058206874 -0.03909639
000220 ae c3 13 3d 84 48 17 3d e5 46 94 bd d6 70 bf bc
       0.036075287 0.03693439 -0.072400846 -0.023369234
000230 5e 4d 16 3d f9 c9 8c bd 5d 75 5d bc 54 88 a9 3c
       0.036694877 -0.06874461 -0.013516751 0.02069489
000240 e2 82 19 bc c8 39 e0 3c 1a b3 a1 bc 92 d1 0a bc
       -0.009369584 0.027371302 -0.019738723 -0.008472817
000250 fb 6e e6 3c 1b f7 01 bd 4d 46 09 3d c4 86 8e 3c
       0.028129091 -0.0317298 0.03351431 0.017398246
000260 00 85 ee 3c d0 db 85 bd 98 f7 26 3c d0 08 09 3b
       0.029116154 -0.065360665 0.010190867 0.0020909794
000270 40 ca 33 3b b4 f1 97 bc 00 b0 a5 ba 1f c2 86 bc
       0.0027433783 -0.01854787 -0.0012640953 -0.016449986
000280 36 fa c1 3c 0f 7b 39 bd 16 fa 52 3d 49 46 ce bd
       0.02367888 -0.045283373 0.05150803 -0.100719996
000290 a9 cd 0e bd c1 ca fa bb b8 bd 2c 3c f0 22 0f 3d
       -0.0348641 -0.0076535647 0.010543279 0.03494543
0002a0 aa d2 5a bc 1d 2c 49 3d 1b 6e f6 bc 5a 77 ad 3d
       -0.01335589 0.049114335 -0.0300818 0.0847003
0002b0 c4 7e 65 bd 53 9a 69 bc 50 e1 d7 bc 5e 97 60 bd
       -0.056029096 -0.014257985 -0.026352555 -0.054831855
0002c0 4e c0 ec 3c 82 fe 3f bd 21 77 08 3d aa 0d f2 3a
       0.028900292 -0.046873577 0.033316735 0.0018467207
0002d0 2d 47 51 bc ce c6 85 bd e1 2c 54 bd 84 2d 67 bb
       -0.012773317 -0.065320596 -0.051800612 -0.0035274932
0002e0 57 b9 ce bd a1 1c 09 3d 6c 4e b1 bc 6a d6 2d 3c
       -0.100939445 0.03347457 -0.02164384 0.010610202
0002f0 10 a1 02 bd 56 d9 6a bd 11 da 1a bd f9 13 36 3c
       -0.031891882 -0.057336174 -0.03780562 0.01111316
000300 1e d5 f0 3b d0 86 42 3d 66 5c 95 3d c2 50 8e 3c
       0.0073496243 0.04749185 0.07293014 0.017372493
000310 e7 35 65 3d 2e ae 2d bd 2d b2 fd 3d 89 49 80 3c
       0.05595961 -0.04240244 0.123875 0.015660064
000320 62 fd 3d bd 95 48 0c 3d 2a 63 28 bd c5 9f 63 3d
       -0.046384223 0.034248907 -0.041110195 0.05557229
000330 f5 76 6f bd b6 67 2a bd 53 ea 93 bc 5e 84 61 3d
       -0.058463056 -0.041602813 -0.01805607 0.055057876
000340 74 c1 8a bd 37 1b 46 3d d4 9b 1e 3d c4 7d 8b 3d
       -0.067751795 0.048365798 0.038722828 0.06811097
000350 99 1d 61 bc fa da 22 3d 73 1a aa bd 7e cd 4a 3c
       -0.013739967 0.039759614 -0.08305826 0.012378095
000360 6e bc 87 bc 0e 9d d9 bc d9 3a d0 3c cc 6f 78 3c
       -0.016569342 -0.026564147 0.025418686 0.015163373
000370 cc b5 eb 3b 23 74 aa bd 77 98 4f 3d da 9c 05 3c
       0.0071933027 -0.083229326 0.05068251 0.008155072
000380 d5 7d 40 3d 86 15 71 3d 32 18 04 bc 3a 81 a1 3d
       0.046995003 0.058858417 -0.008062409 0.07885976
000390 4c 31 33 3d 2e 78 7c 3b 79 88 0d 3d 03 29 61 3d
       0.043748185 0.003852378 0.03455398 0.054970752
0003a0 be 0d 0b bd 6b d0 87 3d 44 bc 57 3c ca 58 5c bc
       -0.033948652 0.066315494 0.013167445 -0.013448903
0003b0 88 18 26 bd a0 c5 66 bc c0 cb 72 bb b1 ba 8a bc
       -0.04055074 -0.014085203 -0.0037047714 -0.016934725
0003c0 8c d8 99 bd 63 99 a5 3c fe e5 96 bc 53 e8 2e 3d
       -0.07512006 0.020214742 -0.018420216 0.04270203
0003d0 9a 69 d5 bc a7 fa 01 bc de 65 29 3d 3c ab 1f 3d
       -0.026051331 -0.007933295 0.041356914 0.03898166
0003e0 fb 88 21 bd 31 f3 82 bd ca c2 e9 3b 8a 0d 79 3d
       -0.039437275 -0.06394041 0.0071338164 0.060803927
0003f0 01 b5 0b 3d ce 7e df bc a0 53 d5 bc 08 fc b4 bd
       0.034108166 -0.027282145 -0.026040852 -0.08837134

std.constant5 f4 [128, 128]
000000 81 a6 7b 3c 02 0a 8c bd a5 b1 87 bd ac dd aa bc
       0.015359522 -0.06837846 -0.0662568 -0.020857655
000010 62 a0 12 bd 32 e2 83 3d fe bf 98 bd f9 9d 4c 3d
       -0.035797484 0.06439628 -0.074584946 0.049955342
000020 8c 22 6b bd 51 00 c3 bd 1a d5 94 3c 3a 76 99 3d
       -0.057405993 -0.09521545 0.018168021 0.07493253
000030 a6 ea 05 bd 81 00 6a bc 36 f1 94 3c 18 36 d4 bc
       -0.03269448 -0.014282347 0.018181425 -0.0259047
000040 a2 c8 21 bd 94 2a cf 3b ca 62 37 bb 82 91 40 bc
       -0.03949798 0.0063222144 -0.0027982467 -0.011753442
000050 5a ec 27 bd 57 72 92 bd f2 7d f5 3c 3a d0 90 bc
       -0.040996887 -0.07150715 0.029967282 -0.017677415
000060 f2 98 a9 bd e6 31 59 3d 3e fe 9f 3d a1 4b 1e 3d
       -0.08281125 0.053026102 0.07812165 0.038646344
000070 74 22 b2 3d 0c e4 2c bd b5 b1 a5 3d 80 f7 4c 3d
       0.08697978 -0.04220967 0.080905356 0.050040722
000080 82 75 22 bc a2 70 f1 3c 80 95 46 ba ff ca de 3c
       -0.009915711 0.029472653 -0.0007575378 0.027196405
000090 af 79 3f 3d ca ae ca bc 78 0c 13 3d d1 a4 ac 3c
       0.046746906 -0.024741549 0.035900563 0.021074684
0000a0 b1 a8 61 bd e5 69 84 3c fe 56 e6 3b a4 8e b7 bd
       -0.055092517 0.016163776 0.0070294132 -0.089627534
0000b0 5e 24 84 3c 9f 49 22 3d 78 84 4f bc 93 4e 41 3c
       0.016130622 0.03962099 -0.01266586 0.011798519
0000c0 3c 0f 0a 3d bb 4f 67 bd 8c 04 e7 bb 63 1a 01 3d
       0.033705935 -0.05647252 -0.0070501026 0.031519305
0000d0 3e 34 c0 bc 40 94 47 38 30 3e 21 3d cb 7a 36 bd
       -0.023462411 4.7583366e-05 0.039365947 -0.0445507
0000e0 d8 fb 04 bd fd 4d a0 bd 43 a2 0c 3d 7e 55 f9 3c
       -0.03246674 -0.07827375 0.034334432 0.030436274
0000f0 fe b7 09 bd 50 68 ca 3b ce 59 d0 bc 0a 28 10 bd
       -0.033622734 0.006176986 -0.025433447 -0.035194434
000100 75 6a c7 3d bc d7 5e bc e2 96 05 3d ee 91 8e 3d
       0.09737102 -0.01360124 0.032614596 0.06961428
000110 ed f7 94 bc b2 a3 dc bc 7e 85 7f bc 26 80 48 bd
       -0.018184626 -0.026933525 -0.015595792 -0.048950337
000120 8c cc 2b bc 1a 1c 02 bd de 4c 4e 3c eb a4 9b bd
       -0.0104857795 -0.03176508 0.012591569 -0.07599815
000130 be 4a 0e bd 90 3d 15 3d f2 e1 cb 3c d3 36 f1 bb
       -0.03473925 0.036435664 0.024888013 -0.007361272
000140 8a 94 2c 3d 14 ad 86 3b a8 64 fb bc f8 e2 60 3d
       0.042133845 0.004109988 -0.030687645 0.054903954
000150 90 62 36 bd 08 0f 13 bd 93 b9 37 bd 9a 18 71 3c
       -0.04452759 -0.035903007 -0.04485471 0.014715338
000160 9e 67 5b bd 3d 86 fa bc ac 4d 88 3c a2 84 3f 3d
       -0.053565614 -0.030581588 0.0166386 0.046757348
000170 e5 17 67 3d 01 14 50 3c dc 00 0f bc 95 b0 13 bd
       0.056419272 0.012700082 -0.008728232 -0.036057074
000180 f8 2a b2 bc 9a db 84 bc cf f1 0a 3d fe 52 ec 3b
       -0.021749005 -0.016217995 0.033922013 0.007212042
000190 54 9a 03 3c e4 df 69 bc 70 24 02 be 20 04 6b bd
       0.0080324 -0.014274571 -0.12709212 -0.05737698
0001a0 b8 e2 8a 3d f8 33 df 3d 76 97 c7 3c f2 c2 8f 3d
       0.067815244 0.10898584 0.024364214 0.07019605
0001b0 0d e1 1f 3d f6 23 7a bd c4 21 53 3c bd 83 e1 3c
       0.039032985 -0.06106945 0.012886468 0.027528638
0001c0 d2 02 74 bd 0c 8a 1f bd 6f f5 2b bc a5 67 68 bd
       -0.059573002 -0.03895001 -0.010495528 -0.056739468
0001d0 8d 13 8f 3c ac b1 21 bd be 93 80 bc 28 fc 41 3d
       0.017465377 -0.03947608 -0.015695449 0.047359616
0001e0 b8 21 5f 3c f0 6c 6f bc bb ee a7 bb b7 16 94 3d
       0.013618879 -0.014613375 -0.0051248944 0.07230895
0001f0 dc 91 a4 bb c6 bd 11 3c e9 ab 32 3d b2 63 8d 3c
       -0.0050222706 0.008895343 0.043620978 0.017259452
000200 2f 97 9b bc ae 1f 4d bd c7 31 da bc 32 80 99 3c
       -0.018992988 -0.05007904 -0.026635064 0.018737886
000210 2a 59 f3 bc a1 74 a4 3c ff 12 fc bc 64 f4 6b bd
       -0.029705603 0.020075144 -0.030770777 -0.057606116
000220 48 53 22 3d 21 fa c8 3c dd 87 29 3d 69 58 29 3b
       0.039630204 0.024533333 0.041389335 0.002584005
000230 0e 34 6b bd 5c 0e ba 3d 1f f2 af bd bb ea f9 3b
       -0.05742269 0.0908477 -0.08591103 0.007626859
000240 e1 a6 9f 3d 3a a4 37 bd 6c 7d 5d bd fe b9 db bb
       0.077955015 -0.044834353 -0.05407469 -0.0067055216
000250 92 81 9f bc 62 59 e8 bc 72 2d d0 bc 07 5d 9a bc
       -0.019470964 -0.028362934 -0.025412295 -0.018843187
000260 66 2d 87 3c eb ef df bb 3b 57 e5 3c d4 d6 50 bc
       0.01650114 -0.0068340204 0.027995696 -0.0127465315
000270 7e 4a 41 3c 3c d4 43 bd cf 9e ba 3c e8 a3 84 bb
       0.0117975455 -0.047809824 0.022780804 -0.0040478595
000280 67 4a b7 bd 92 59 36 3d 9d 9f c4 3d 34 39 5e 3d
       -0.08949738 0.044519015 0.09600756 0.054253772
000290 9b ac 65 3d d5 67 6e bc d6 ac a6 bd 15 3a 5a 3d
       0.056072813 -0.014551123 -0.081384346 0.053278048
0002a0 2b c4 18 bd 6c 34 83 3d da c9 92 bc 10 c2 98 bd
       -0.037296455 0.06406483 -0.017918516 -0.074588895
0002b0 75 32 bd bc 0d bd 02 bd 61 e9 a5 bd 3e 4b a9 3a
       -0.023095349 -0.031918574 -0.08101154 0.0012916101
0002c0 ec 2e 41 3d 6c 9a 9b 3c 95 ae 03 bd cb 8d c5 3c
       0.04716389 0.018994533 -0.032148916 0.024115464
0002d0 3a ac e8 3c e3 33 1a 3c 77 74 10 bd e0 b4 5a bd
       0.028402437 0.009411785 -0.03526732 -0.053395152
0002e0 da c4 88 3b 37 7f 31 bd bf 52 62 bd e8 b4 e4 3c
       0.004173857 -0.043334212 -0.055254694 0.027918294
0002f0 c7 c3 f7 3d 08 cd 8f 3d 88 a4 de 3b a7 8d 02 bd
       0.120978884 0.070215285 0.006794516 -0.03187337
000300 65 6c d6 3d 4e fd 6e 3d d8 1e 0b 3d 16 4e 27 3c
       0.10469893 0.05834704 0.03396496 0.010211488
000310 62 bc 03 3c f1 1c 76 bd d8 9d 99 bd 40 fc 0f 39
       0.008040519 -0.060086194 -0.075008094 0.00013731513
000320 83 72 1f bd 88 a6 d3 bc 20 db 90 bc 66 3e 4d 3c
       -0.038927566 -0.025836244 -0.017682612 0.012527084
000330 fe 53 83 bd 55 14 9d bd 9c 6a 28 bb e0 40 8d bd
       -0.064125046 -0.07669894 -0.002569831 -0.068971395
000340 b1 94 8a bd 48 08 34 bc 9e 36 81 3b c8 ea 97 bb
       -0.06766642 -0.0109883025 0.0039432785 -0.0046361424
000350 00 3c 1c 3b 3f f3 33 3d 8e f4 44 3d 53 5d da bc
       0.0023839474 0.04393315 0.048084788 -0.026655829
000360 27 31 85 bc 8b 59 b8 bc a3 75 f5 3c fd a4 e7 bc
       -0.01625879 -0.022503635 0.02996332 -0.028276915
000370 00 09 83 3d 1b c0 77 bd bd 71 94 3d c1 2b 4a bd
       0.06398201 -0.06048594 0.07248256 -0.049358133
000380 40 5e e2 3c 20 3c 07 bd 1e ce 07 bc 8a e3 ff 3c
       0.027632833 -0.033016324 -0.008288888 0.031236429
000390 0f 26 cc bb 01 9e 10 bd 4d ea 0d bc 08 8c cb 3c
       -0.006230123 -0.035306934 -0.008661819 0.024847046
0003a0 3e b8 09 bd 90 0c 92 bd f4 38 41 bd e4 50 a0 3d
       -0.033622973 -0.07131302 -0.047173455 0.07827929
0003b0 00 82 47 bd 14 fd c0 3c a9 dd 46 3d a9 4b 9e bd
       -0.048707962 0.023558177 0.048551235 -0.07729275
0003c0 c9 4d 1a 3d 60 40 67 ba 57 81 77 bd 48 23 95 3d
       0.037671838 -0.00088215433 -0.060426082 0.0728212
0003d0 ed 78 eb bb 12 e3 79 3b 13 1a 84 3d af f0 ae bc
       -0.0071860463 0.003812973 0.06450286 -0.021355001
0003e0 00 ad b4 b9 b6 83 26 3d e8 26 cf bc 10 bb 88 bd
       -0.0003446117 0.040652953 -0.025287107 -0.06676304
0003f0 c0 d8 f1 bc 8a 79 97 3b 84 f8 ba 3c 1f e1 e8 3c
       -0.0295223 0.004622643 0.02282358 0.028427659

std.constant6 f4 [128, 128]
000000 40 6f 9b 3d 5c a9 65 3c cc 00 51 bd 70 bb 1b 3c
       0.07589579 0.014017429 -0.05102615 0.009505138
000010 00 80 21 36 b8 fc 68 3c d8 0e 6e bd a1 98 29 3d
       2.4065375e-06 0.014220409 -0.058119625 0.041405324
000020 b3 89 3f bd 3b c3 05 bd 15 cb 0e 3d ee a2 32 bd
       -0.04676218 -0.03265689 0.034861643 -0.043612413
000030 1e 3c 2b bc 60 ce 98 bb 9c c7 c6 bc 54 60 3f bc
       -0.010451345 -0.0046632737 -0.024265103 -0.011680681
000040 64 10 5f 3d e1 b6 06 be 79 04 0b bd 11 4a 36 3d
       0.05445899 -0.131557 -0.033939812 0.04450423
000050 26 f8 89 bd 88 83 e9 3c 18 d8 d8 3b ca 12 38 3d
       -0.06736784 0.028505102 0.0066175573 0.044939794
000060 16 50 91 3d bc 68 09 3c 94 bc 3f 3d 97 22 15 bd
       0.07095353 0.008386787 0.0468107 -0.03640994
000070 cd b3 2e 3d 4e 89 84 3c e2 ae cc bc 6e 7d b6 bd
       0.04265194 0.016178753 -0.024985734 -0.089106426
000080 33 d3 98 3d bc 28 dd 3c 05 87 0e bb 97 09 84 3d
       0.07462158 0.026996963 -0.0021747958 0.064471416
000090 d9 1b c2 bc bc d6 01 bd 72 70 ab 3c 15 d7 af bc
       -0.02369492 -0.031698927 0.020927642 -0.021464864
0000a0 b0 22 cc bb 68 d3 ce bc dc 3b 54 bb 71 eb 04 bd
       -0.006229721 -0.02524729 -0.0032384312 -0.032451097
0000b0 db da 8c bd 6f 94 62 3c a4 b9 a8 3c 70 b1 bb ba
       -0.06877681 0.013829335 0.020596333 -0.0014319848
0000c0 8e f9 fc bc d2 31 5a 3d 1a 9f 10 bd 5c c8 0e bd
       -0.030880716 0.05327017 -0.03530798 -0.034859046
0000d0 fc e6 b0 3a 48 40 6b 3d 80 39 d4 bc d0 6b 43 ba
       0.0013496573 0.05743435 -0.025906324 -0.0007454725
0000e0 f4 df 4f 3c 15 e9 80 3c f7 c7 0b bd 2a 3f 4f bd
       0.012687672 0.015736142 -0.03412625 -0.050597347
0000f0 68 c8 3b bd 01 e9 e8 3c c3 11 53 bd ee 80 85 3b
       -0.04584542 0.028431417 -0.05153061 0.0040742075
000100 b4 a2 1a bd 5e 59 8b 3c 42 4a 86 bd d5 87 63 3d
       -0.037752822 0.017010387 -0.06557132 0.05554946
000110 f9 03 8e bd ba b0 fb 3c b0 b2 09 3d bc 7d f5 3c
       -0.069343515 0.030723918 0.033617675 0.029967181
000120 09 51 6c 3d c3 8c b0 3c 68 e6 a4 3c 5d 42 68 bc
       0.05769447 0.021551495 0.020129398 -0.0141759785
000130 56 bd 27 3c 34 06 f5 3d 7a a3 86 bc 5a 39 89 3d
       0.010238012 0.11964074 -0.016435374 0.06700392
000140 d2 ba 17 3d 58 ad a8 3d ca 13 29 bc af cb 2c 3d
       0.0370434 0.08236188 -0.0103196595 0.042186435
000150 30 fa d9 bc 88 73 3a 3d 14 ca 6c 3c fa dc 4b bd
       -0.026608557 0.045520335 0.014452476 -0.049771287
000160 4c 60 9e bc 22 47 ff 3d a8 2f ec 3c dd ca b8 3b
       -0.019333027 0.124647394 0.028831318 0.0056394176
000170 17 f3 cc 3c d6 25 9a 3c 3c fe 81 3c 4c 9b dc 3c
       0.025018258 0.01881687 0.015868299 0.02692952
000180 66 f8 0b bd af ca 1a 3d 49 9a 9c bd 32 2e 08 3d
       -0.034172438 0.03779095 -0.07646615 0.03324718
000190 c3 d2 f4 bd 34 31 9f bc 90 28 9f 3b 44 2b 5e bc
       -0.11954262 -0.019432642 0.0048571303 -0.01356012
0001a0 6d f3 93 bd 1e 82 c0 bd 74 c1 f2 3c 62 9a 54 3d
       -0.07224164 -0.09399818 0.029633261 0.051905043
0001b0 2b 4e 7b 3d 46 04 6f 3c 63 06 b0 3d 71 2f 91 bd
       0.061353844 0.014588421 0.08594968 -0.07089127
0001c0 30 8b ff bc 00 a1 d1 bc cf 98 42 3d 08 0c 5a bd
       -0.0311943 -0.025589466 0.04750901 -0.05323413
0001d0 36 4f a1 3d 54 22 36 3d b6 38 58 bc 72 ef 6b bd
       0.078764364 0.04446633 -0.013197115 -0.0576014
0001e0 67 1a 09 bd 87 c2 0e 3d e0 9f 6c ba b6 69 50 3d
       -0.033472445 0.034853484 -0.0009026509 0.050882064
0001f0 4a 17 dd 3c 34 fa ab bb e9 bb 43 bc 2c 7f 10 bd
       0.026988644 -0.0052483324 -0.011946657 -0.03527753
000200 6b bb 38 3d a0 a6 4c bd 2e 09 38 bd 8f 6d 46 bd
       0.04510061 -0.049963593 -0.04493063 -0.048444327
000210 e2 02 3c bd 64 48 5f 3d b8 22 92 bd 29 77 56 3d
       -0.045901187 0.054512396 -0.07135528 0.052359734
000220 5f 32 84 3d 6a 5e 00 bd da f5 87 bd 78 92 c7 bc
       0.0645492 -0.03134004 -0.06638689 -0.024361834
000230 46 e4 4d bc 18 01 1f 3d 77 a4 6f bd f6 74 2b 3d
       -0.012566632 0.038819402 -0.058506455 0.04185959
000240 2e 6f 7b 3d 64 c1 bf 3c b3 14 02 bd 93 fb ee bc
       0.061385326 0.023407646 -0.03175802 -0.029172694
000250 b6 72 2f 3c 00 62 03 bd a9 5f 46 3c 22 f9 13 3c
       0.010708502 -0.032075882 0.012107768 0.009031566
000260 03 2f 39 bc f6 bb 5c bd 72 b7 27 bd 43 39 32 bc
       -0.011302712 -0.05389019 -0.04094643 -0.01087791
000270 c0 da 93 bd c5 05 9b 3c 42 67 05 3a 83 ca 26 3c
       -0.072194576 0.01892365 0.0005088934 0.0101801185
000280 ef fc 29 3c da 71 5b 3d c7 84 cc bb 6c d9 e9 3a
       0.0103752455 0.053575374 -0.006241414 0.0017841286
000290 e8 6e 33 3d d3 ca 38 3d d0 61 1c 3d 5f d0 f1 bb
       0.04380694 0.045115303 0.03817922 -0.007379576
0002a0 dc 7c 02 3e 02 33 60 3d 71 c3 77 3b a7 f4 88 3c
       0.12742943 0.054736145 0.00378057 0.016718222
0002b0 9c e9 bc 3d 2a 49 62 bd 88 85 12 3d 85 d6 b4 3b
       0.09224245 -0.055245556 0.035771877 0.005518737
0002c0 91 44 8c bc db 65 45 3c 21 d6 89 bd e2 75 c3 3b
       -0.017122539 0.01204821 -0.06730295 0.0059649805
0002d0 da 8e 46 bb fc 0f 8d 3c cc b5 6f bc bc a9 14 bd
       -0.0030297549 0.017219536 -0.014630746 -0.036294684
0002e0 43 33 10 3d 6a c1 32 bb a4 72 4a bc d4 ec 61 bd
       0.035205137 -0.0027275928 -0.012356434 -0.055157498
0002f0 98 73 de 3c b7 6b 70 bc 25 c8 33 bd 0f 96 7f bd
       0.027154729 -0.014674119 -0.043892045 -0.062398966
000300 21 6b 6e 3d 7d 24 79 bc ec 2f a0 bc 21 20 98 3d
       0.058207635 -0.015206453 -0.0195541 0.07428003
000310 ae 25 a4 3b 6a d4 74 bd 40 22 4c bd 53 24 67 bc
       0.0050093746 -0.059772886 -0.04983735 -0.014107781
000320 6b 4e e0 bc ac 1e 0a bd 7b 67 c1 3c 01 71 ca bc
       -0.027381143 -0.033720657 0.023608914 -0.024712088
000330 9a 5d 64 bd d0 1d 9a bd 80 bb 38 3d 9e b9 cc bc
       -0.055753328 -0.075252175 0.04510069 -0.024990853
000340 ec 23 80 bc 52 d3 94 3c 3d e8 4d bd ac 25 31 3d
       -0.015642129 0.018167172 -0.050270308 0.043248817
000350 33 64 6c bd 84 0d 33 3d a9 02 31 3d 04 00 48 3c
       -0.057712745 0.04371406 0.043215428 0.012207035
000360 4c 94 95 bd 22 d5 8a bc 8d dd e8 bc 93 d3 8c bd
       -0.07303676 -0.016947333 -0.028425956 -0.06876292
000370 72 de 54 bc ab eb 0d bb 85 53 09 bd e3 a0 c9 bb
       -0.012992488 -0.0021655362 -0.033526916 -0.0061532124
000380 d0 56 f6 3c 32 7a 02 bd 10 d1 3f 3d ac bd 5d bd
       0.030070692 -0.031854816 0.046830237 -0.054135963
000390 02 f0 aa bd 1d cf ac bc a3 20 34 bd 64 87 de 3c
       -0.08346559 -0.021094853 -0.043976437 0.027164169
0003a0 95 c5 3b bd 16 9f 98 bc a6 7d 53 bc 26 28 3d 3c
       -0.045842726 -0.018630546 -0.012908375 0.011545217
0003b0 29 ed 11 bd 23 f9 b6 3d 51 8f be 3c 82 ac 4f 3d
       -0.035626564 0.08934238 0.023261698 0.050701626
0003c0 18 90 d8 3c 9a 44 f3 3c 5c 39 b1 bb 45 bd fc 3c
       0.026435897 0.029695798 -0.005408449 0.03085197
0003d0 89 ac 4b 3d 0e e1 71 3b 5a 4b 98 bd a4 fd 88 bc
       0.04972509 0.0036907825 -0.07436247 -0.016722508
0003e0 2c 79 38 3d 46 5d 78 3c bf 95 19 3d 1d 26 96 bd
       0.045037434 0.015158957 0.037496325 -0.07331488
0003f0 f0 e1 5e 3d 26 f0 68 bd 6b 9a 8d bc da 95 08 bd
       0.05441469 -0.05686965 -0.017285546 -0.033346035

std.constant7 f4 [128]
000000 96 a3 c8 3c 75 93 e2 3c 48 49 86 3d a3 28 3d bb
       0.024492066 0.027658204 0.06556946 -0.0028863333
000010 64 32 17 3b c9 af 3f 3d d6 c3 bd bb ef bc 64 3c
       0.0023070807 0.0467985 -0.0057911677 0.013961061
000020 9a 79 87 bb 71 0f 27 3b 63 35 24 3c 85 a3 21 3c
       -0.004134369 0.0025491382 0.010022494 0.009865646
000030 2a b4 7a 3d f3 be a8 3c 1a 20 96 3c 7b e2 50 bc
       0.061206974 0.020598864 0.018325854 -0.01274931
000040 06 85 70 3b 4c 5d 18 3e 32 af 21 3b a4 cf 27 3c
       0.0036700382 0.1487934 0.0024671075 0.0102423765
000050 aa 07 13 3d da 1a 12 3a b3 5b ac 3c 69 82 6d 3d
       0.03589598 0.0005573459 0.02103982 0.057985697
000060 de 74 20 39 f4 cb 25 bc 54 34 02 3d 15 eb 41 bc
       0.00015302325 -0.010119427 0.031788185 -0.011835833
000070 d6 9d 63 bb f3 aa 2e 3c 2c 1d 86 3c d1 ca 0e 3c
       -0.0034731529 0.010660875 0.016371332 0.008715347
000080 94 1e 15 3d cf e0 96 bb f7 ee 88 3d 50 e6 25 3e
       0.036406115 -0.004604436 0.06686204 0.16201138
000090 58 92 2e 3b 16 3c 03 bc df 3d b0 ba 40 ea 68 bc
       0.002663752 -0.008009931 -0.0013446173 -0.014216006
0000a0 bb 88 de 3d 85 23 1b 3e aa dd 90 bb 5c 5a ff bb
       0.10865923 0.15150268 -0.0044209557 -0.007792754
0000b0 ce b6 83 3d 89 f7 14 bb 6e c8 54 3d 2a c4 74 3c
       0.064313516 -0.002273055 0.051948957 0.014939347
0000c0 37 1e e5 39 09 81 4f 3b 7f 67 ec ba 6d fd a8 3a
       0.00043700796 0.0031662604 -0.0018036215 0.001289291
0000d0 76 ff 3e ba 02 02 e3 3b fc 56 82 3c 3d 42 b3 3c
       -0.00072859915 0.0069277296 0.015910618 0.02188217
0000e0 6e 23 e3 bb 90 a7 de bb 21 63 cd 3c de 47 34 3c
       -0.006931714 -0.0067948774 0.025071682 0.011003463
0000f0 5e cf 83 3d f4 74 fd 3a ae 5e 60 bc c9 e9 c4 3c
       0.064360365 0.0019337223 -0.013694448 0.024037259
000100 47 8c 93 bc 53 84 07 3e d4 d8 37 bc d6 af a0 3c
       -0.018011225 0.13234071 -0.011221129 0.019615095
000110 85 3d 41 3d 76 54 42 3d e0 3b 2c bc 8a 0a 40 bb
       0.04717781 0.04744383 -0.010512322 -0.0029303157
000120 15 86 00 3d b2 e4 d9 bb a5 bb f0 ba 6a 64 e9 37
       0.03137787 -0.006649577 -0.0018366469 2.7822523e-05
000130 7c da f3 3d 73 e5 04 3c 35 31 d1 bb 8d c2 7d 3b
       0.11906907 0.008111346 -0.0063840398 0.0038720698
000140 e4 99 2b 3b 08 24 e3 3d 09 16 40 3b 28 70 22 bc
       0.0026184255 0.11090857 0.002931001 -0.009914435
000150 a2 e6 db ba 18 fc 7f bb 07 be 13 3e ab 95 39 3b
       -0.0016777108 -0.0039060172 0.14427958 0.0028317969
000160 82 1e c6 bb ee 29 7e ba af a5 3c 3b d5 7f b0 3c
       -0.0060461173 -0.0009695579 0.0028785279 0.02154533
000170 a4 d5 c2 3d cc 1a fc 3c a9 ab ae 3b 59 4b 98 3b
       0.09513405 0.030774496 0.005330522 0.004647654
000180 d7 64 27 3d 57 8a 43 bc e7 74 ad 3c ea 5a 2e 3d
       0.040867653 -0.011934838 0.021173907 0.04256717
000190 07 4f df 3d 14 14 a5 3c 40 59 a2 bb ba 18 89 3d
       0.10903745 0.020151176 -0.004954487 0.06694169
0001a0 82 97 da 3b 9a 04 05 ba 43 35 ee 3c dc 39 ac 3b
       0.006670893 -0.0005074233 0.029078132 0.005255921
0001b0 fb ba 32 3b e4 f0 25 bc 40 8a 92 3b a2 a2 28 3d
       0.0027272094 -0.010128234 0.004472047 0.041170724
0001c0 30 6a 0a 3a 73 3b 40 ba 48 98 68 3c 10 a0 14 bc
       0.00052801054 -0.00073330774 0.014196463 -0.009071365
0001d0 19 6a 8d 3b da 0d 4a bb ea 19 bf 3d 6e 69 0e 3e
       0.0043156263 -0.003083101 0.093311146 0.13907406
0001e0 33 f1 1d bc 1d ca 26 bc d7 f7 57 3b 26 ac eb bb
       -0.009640026 -0.0101800235 0.003295412 -0.0071921526
0001f0 ef 56 3c 3c 8c 77 2a bc 1e 46 0c 3e 96 37 a5 bb
       0.011495336 -0.010404479 0.13698623 -0.0050420268

std.constant8 f4 [128]
000000 75 9e 6a bc a8 8c 4a 3b c5 aa a4 3b 96 44 3c 3b
       -0.014320006 0.0030906592 0.00502524 0.0028727404
000010 0a 6c a5 3a 56 4c b4 bb 3c 47 46 3b f6 af f2 ba
       0.0012620699 -0.005502264 0.0030254861 -0.0018515575
000020 fb 03 46 bb 88 62 77 3b 3e 91 2d bb 47 92 a7 bb
       -0.0030214775 0.0037747938 -0.0026484276 -0.005113873
000030 5b 8f fd 3b f3 1c 70 3c d6 c9 a0 bb 63 a1 60 3c
       0.0077380366 0.0146553395 -0.004906873 0.013710353
000040 55 38 d7 bb 1c e6 17 3c 85 a8 4b bc f9 ec ce 3a
       -0.0065679946 0.009271171 -0.012430315 0.0015787176
000050 5c eb 8f 39 d4 c5 5d bc ac e1 eb ba 30 b2 35 bc
       0.00027450442 -0.013535935 -0.0017996333 -0.0110898465
000060 19 f7 76 3c f3 3a 07 bc 72 55 46 3b 29 ad be bb
       0.015073561 -0.008253801 0.0030263332 -0.005818982
000070 14 e6 3b bb 61 ef 36 bc 8b 0c 18 3c 81 62 36 3b
       -0.0028671073 -0.011165471 0.009280334 0.002782971
000080 59 ff 8e bb 66 55 44 bb dc e5 3b 3b b5 52 90 39
       -0.004363936 -0.0029958128 0.0028670942 0.00027527442
000090 a5 ac 07 3c d4 ff f5 ba 55 a6 63 3a ac 73 86 bc
       0.008280908 -0.0018768259 0.0008684148 -0.016412579
0000a0 c0 f8 c9 3b 5a 58 bc ba 0d 32 58 3b 61 ca be 3b
       0.0061636865 -0.0014369593 0.0032988817 0.0058224653
0000b0 60 b3 b5 3b 47 bf 8a bb c4 f3 1a 3b 38 08 1c 3b
       0.005545065 -0.004234228 0.002364383 0.002380861
0000c0 e8 79 ae bb fc 6f 98 bb 84 b8 93 3b 24 c7 d4 39
       -0.005324591 -0.0046520215 0.00450808 0.00040584162
0000d0 2a 7e 7e bc 90 34 37 3b 6e 80 f6 bb 0c 8c 41 b9
       -0.01553301 0.0027954914 -0.007522634 -0.00018458086
0000e0 5f 9d 76 bb c4 5b 66 3a 0c da 8f 3a 9b a5 86 bb
       -0.0037630422 0.0008787478 0.0010975017 -0.004109097
0000f0 5c c7 4f 3a 5f a4 62 3b 21 3f 74 bc a0 7f 65 bc
       0.000792613 0.0034582836 -0.014907629 -0.014007479
000100 40 dd 8f bc ab 7e 60 ba 6e 86 b3 3b 92 f3 40 bb
       -0.017561555 -0.0008563797 0.0054786718 -0.0029442054
000110 7a b3 9a ba 18 33 d9 3b 8a 85 5e 3c a9 6d 9d bb
       -0.0011802756 0.0066284053 0.013581643 -0.0048043323
000120 7e f2 ab bb 24 4c dd bb dc c0 8a 3a cf 54 30 3c
       -0.005247413 -0.0067534614 0.0010586041 0.010762407
000130 c7 2e 92 3b 8e a9 73 bb b6 ba f3 3b dc e8 2f 3b
       0.0044611427 -0.003717992 0.007438029 0.0026841676
000140 29 db 8c bb 4b 1c ec bb 89 8d 42 3b cd de 5f 3c
       -0.004298587 -0.007205521 0.0029686412 0.01366396
000150 fc c2 89 3b 5b 79 3d 3b 75 14 fe bb 82 74 93 3b
       0.004204152 0.0028911445 -0.0077539035 0.004499973
000160 07 74 83 ba 1c c4 a6 3a 94 d9 44 3c 41 42 ea 3a
       -0.0010029086 0.001272324 0.012014765 0.0017872528
000170 07 bb 9a 3b 24 fa 4c 3c 48 13 05 3b 4e 48 3e 3b
       0.0047220024 0.01251081 0.0020305682 0.0029034796
000180 2e 62 37 bc 2a b4 93 bb cf 45 e2 bb 45 1b 8f 3b
       -0.011192841 -0.004507561 -0.0069052945 0.0043672645
000190 e7 b4 db 3b 50 3c 43 3c a2 73 03 3c 9b 44 dc 3b
       0.006704915 0.011916235 0.0080231745 0.0067220456
0001a0 4c 4a 89 3b 0d c3 4b 3b 3d 35 77 bb da 50 8a 3b
       0.004189765 0.00310916 -0.0037720941 0.004221064
0001b0 90 1b 4c bc f8 2a 0e 3c 41 c0 3d 3b 46 af be ba
       -0.012457743 0.008677237 0.0028953704 -0.0014548085
0001c0 e2 5d 2a bb 29 96 1d 3b b6 2d 48 3c 25 62 51 bc
       -0.00259959 0.0024045801 0.01221793 -0.012779747
0001d0 8a 48 a6 3a 3f 5a a8 37 9a 04 9b bb 6c 41 91 bb
       0.0012686413 2.0069185e-05 -0.004730773 -0.0044328477
0001e0 73 53 29 3c 90 ee 3b 3c 54 1c 79 bb 7e d7 5a bc
       0.010334837 0.011470452 -0.003801127 -0.013357041
0001f0 a3 3e 53 3a 46 91 56 3c c1 c0 2f bc ac d1 f4 3a
       0.0008058345 0.013096159 -0.010727108 0.001867821

std.constant9 f4 [128]
000000 00 00 80 3f 00 00 80 3f 00 00 80 3f 00 00 80 3f
       1.0 1.0 1.0 1.0
000010 00 00 80 3f 00 00 80 3f 00 00 80 3f 00 00 80 3f
       1.0 1.0 1.0 1.0
000020 00 00 80 3f 00 00 80 3f 00 00 80 3f 00 00 80 3f
       1.0 1.0 1.0 1.0
000030 00 00 80 3f 00 00 80 3f 00 00 80 3f 00 00 80 3f
       1.0 1.0 1.0 1.0
000040 00 00 80 3f 00 00 80 3f 00 00 80 3f 00 00 80 3f
       1.0 1.0 1.0 1.0
000050 00 00 80 3f 00 00 80 3f 00 00 80 3f 00 00 80 3f
       1.0 1.0 1.0 1.0
000060 00 00 80 3f 00 00 80 3f 00 00 80 3f 00 00 80 3f
       1.0 1.0 1.0 1.0
000070 00 00 80 3f 00 00 80 3f 00 00 80 3f 00 00 80 3f
       1.0 1.0 1.0 1.0
000080 00 00 80 3f 00 00 80 3f 00 00 80 3f 00 00 80 3f
       1.0 1.0 1.0 1.0
000090 00 00 80 3f 00 00 80 3f 00 00 80 3f 00 00 80 3f
       1.0 1.0 1.0 1.0
0000a0 00 00 80 3f 00 00 80 3f 00 00 80 3f 00 00 80 3f
       1.0 1.0 1.0 1.0
0000b0 00 00 80 3f 00 00 80 3f 00 00 80 3f 00 00 80 3f
       1.0 1.0 1.0 1.0
0000c0 00 00 80 3f 00 00 80 3f 00 00 80 3f 00 00 80 3f
       1.0 1.0 1.0 1.0
0000d0 00 00 80 3f 00 00 80 3f 00 00 80 3f 00 00 80 3f
       1.0 1.0 1.0 1.0
0000e0 00 00 80 3f 00 00 80 3f 00 00 80 3f 00 00 80 3f
       1.0 1.0 1.0 1.0
0000f0 00 00 80 3f 00 00 80 3f 00 00 80 3f 00 00 80 3f
       1.0 1.0 1.0 1.0
000100 00 00 80 3f 00 00 80 3f 00 00 80 3f 00 00 80 3f
       1.0 1.0 1.0 1.0
000110 00 00 80 3f 00 00 80 3f 00 00 80 3f 00 00 80 3f
       1.0 1.0 1.0 1.0
000120 00 00 80 3f 00 00 80 3f 00 00 80 3f 00 00 80 3f
       1.0 1.0 1.0 1.0
000130 00 00 80 3f 00 00 80 3f 00 00 80 3f 00 00 80 3f
       1.0 1.0 1.0 1.0
000140 00 00 80 3f 00 00 80 3f 00 00 80 3f 00 00 80 3f
       1.0 1.0 1.0 1.0
000150 00 00 80 3f 00 00 80 3f 00 00 80 3f 00 00 80 3f
       1.0 1.0 1.0 1.0
000160 00 00 80 3f 00 00 80 3f 00 00 80 3f 00 00 80 3f
       1.0 1.0 1.0 1.0
000170 00 00 80 3f 00 00 80 3f 00 00 80 3f 00 00 80 3f
       1.0 1.0 1.0 1.0
000180 00 00 80 3f 00 00 80 3f 00 00 80 3f 00 00 80 3f
       1.0 1.0 1.0 1.0
000190 00 00 80 3f 00 00 80 3f 00 00 80 3f 00 00 80 3f
       1.0 1.0 1.0 1.0
0001a0 00 00 80 3f 00 00 80 3f 00 00 80 3f 00 00 80 3f
       1.0 1.0 1.0 1.0
0001b0 00 00 80 3f 00 00 80 3f 00 00 80 3f 00 00 80 3f
       1.0 1.0 1.0 1.0
0001c0 00 00 80 3f 00 00 80 3f 00 00 80 3f 00 00 80 3f
       1.0 1.0 1.0 1.0
0001d0 00 00 80 3f 00 00 80 3f 00 00 80 3f 00 00 80 3f
       1.0 1.0 1.0 1.0
0001e0 00 00 80 3f 00 00 80 3f 00 00 80 3f 00 00 80 3f
       1.0 1.0 1.0 1.0
0001f0 00 00 80 3f 00 00 80 3f 00 00 80 3f 00 00 80 3f
       1.0 1.0 1.0 1.0

std.constant10 f4 [128]
000000 ff 82 cf 3c 4b 67 e0 3c 4d f6 86 3d a7 f2 04 bb
       0.025331018 0.027393004 0.06589947 -0.0020286234
000010 c1 ff fb 3a 6b 16 3e 3d c7 c2 b8 bb db c7 5f 3c
       0.0019226001 0.0464081 -0.0056384536 0.013658489
000020 97 ba 79 bb 06 53 0a 3b 22 95 1c 3c f2 59 28 3c
       -0.00381056 0.0021106615 0.00955704 0.010275351
000030 d6 b3 80 3d 49 c6 ae 3c 0b c7 9a 3c 05 3a 50 bc
       0.06284301 0.021334784 0.01889374 -0.012709145
000040 9a a7 86 3b f8 a3 1a 3e 92 00 1b 3b 34 61 22 3c
       0.004109335 0.15101612 0.0023651463 0.00991087
000050 8f 71 12 3d 91 cc 00 3a f2 a9 a6 3c eb 80 6f 3d
       0.03575283 0.0004913295 0.020344708 0.058472555
000060 fc d8 32 39 f6 57 25 bc a4 b0 03 3d b3 79 45 bc
       0.00017056236 -0.010091772 0.03215088 -0.012052941
000070 82 f1 4f bb 44 76 2c 3c 15 f9 8a 3c 22 1d 16 3c
       -0.0031729643 0.010526244 0.016964475 0.009162219
000080 8d ef 11 3d d6 80 9a bb 69 d9 86 3d 52 01 26 3e
       0.035628844 -0.0047150655 0.065844364 0.16211441
000090 65 38 39 3b 4c 01 03 bc e9 a4 2a ba d6 5c 6c bc
       0.0028262374 -0.007995915 -0.0006509559 -0.014426431
0000a0 5c 0d e2 3d 6b d8 1c 3e 4d c2 98 bb 45 39 f4 bb
       0.11037704 0.15316932 -0.0046618343 -0.007453116
0000b0 b8 ea 80 3d 2c c0 d2 ba 67 ca 51 3d c9 3b 77 3c
       0.06294769 -0.0016079 0.051218417 0.0150899375
0000c0 a9 fd a5 39 01 fa fd 3a 65 6c a4 ba ec b4 96 3a
       0.00031660244 0.0019376875 -0.0012544511 0.0011498011
0000d0 40 73 4a ba b2 72 d1 3b 16 bb 72 3c f7 c8 ae 3c
       -0.0007722862 0.0063918466 0.014815113 0.021336062
0000e0 cf c5 eb bb 07 63 bf bb c2 91 bb 3c 13 ef 31 3c
       -0.0071952115 -0.0058406624 0.022896651 0.010860222
0000f0 48 13 86 3d 20 70 f0 3a 1d 67 5f bc 14 c8 c2 3c
       0.06546646 0.0018343963 -0.013635424 0.023777045
000100 ac a5 93 bc f7 2f 08 3e a0 89 3c bc 77 ba 99 3c
       -0.018023334 0.13299547 -0.011507422 0.018765671
000110 72 e9 43 3d d9 4a 3f 3d fd f3 34 bc b7 a9 3c bb
       0.047830053 0.04670224 -0.011044499 -0.0028787681
000120 c6 24 05 3d 95 25 e8 bb ef c5 06 bb 31 c8 6b 37
       0.032505773 -0.0070845583 -0.0020564755 1.4053702e-05
000130 5b 3f f0 3d 12 96 13 3c a2 76 b8 bb b2 2e 64 3b
       0.11730834 0.0090079475 -0.0056293765 0.0034817872
000140 78 3d 26 3b 9a db e1 3d 84 4b 10 3b c6 a1 29 bc
       0.0025366228 0.11028214 0.0022017667 -0.010353511
000150 24 99 29 bb ef b4 b6 bb e8 38 13 3e 34 1c 1a 3b
       -0.0025878632 -0.005575768 0.14377177 0.0023515346
000160 85 d6 ba bb eb c9 91 ba 34 6c 1b 3b b0 d6 b2 3c
       -0.0057018423 -0.0011122798 0.0023715617 0.021830887
000170 7b bf c5 3d 24 8b fe 3c 8b 16 c3 3b ac 3e 76 3b
       0.096556626 0.031072207 0.005953615 0.0037573976
000180 16 17 28 3d 55 7f 4b bc 75 c2 a4 3c 1c bb 31 3d
       0.04103764 -0.012420495 0.020112256 0.043391332
000190 a6 02 de 3d 97 d6 a4 3c 85 f1 aa bb 2c 34 8e 3d
       0.10840349 0.020121856 -0.0052167797 0.06943545
0001a0 d5 ce a9 3b 9e 0b cf ba fc fd f1 3c d3 30 b9 3b
       0.005182127 -0.0015796309 0.029540055 0.0056515723
0001b0 d6 6a 39 3b a9 9b 26 bc fa 88 97 3b 3b f2 2c 3d
       0.002829244 -0.010168948 0.004624483 0.042223196
0001c0 b6 49 9f 39 25 1d 4d 39 24 2f 69 3c d9 1c 11 bc
       0.00030381762 0.0001956118 0.014232431 -0.0088569755
0001d0 7f 4d a7 3b a0 2b 67 bb f4 9b bd 3d 03 52 0d 3e
       0.005105674 -0.0035273805 0.09258261 0.13800816
0001e0 02 cb 20 bc f8 a0 29 bc 4c be 2e 3b 6c 1c e2 bb
       -0.009814026 -0.010353319 0.0026663719 -0.006900361
0001f0 2d a4 35 3c 47 b6 2c bc 21 01 0c 3e 61 58 ae bb
       0.011086506 -0.010541505 0.13672306 -0.005320594

std.constant11 f4 [128, 9]
000000 35 86 14 bd bc 21 10 3e 2a d6 a0 bd e2 c4 66 3b
       -0.036260802 0.14075369 -0.078533486 0.0035212566
000010 e7 09 90 3a 84 5f a9 3d df 51 de 3b f6 07 c7 bd
       0.0010989279 0.08270171 0.006784662 -0.09718315
000020 2e 30 12 3b b1 1a 9a 3c 46 51 59 bd 50 1d a7 3c
       0.002230655 0.018811556 -0.053056024 0.02039972
000030 e9 22 8f 3d fc a7 f6 3c da 43 ad 3a e8 79 91 bd
       0.069890805 0.030109398 0.0013219074 -0.0710333
000040 25 1a e0 3d 02 a8 a1 bc ac 67 37 3e 86 dd 1f bc
       0.10942487 -0.019733433 0.17910641 -0.009757405
000050 e0 d2 3d 3d 48 89 3e 3d d1 aa 9e 3d e6 a3 1b 3d
       0.046343684 0.04651764 0.077474244 0.037998103
000060 f2 12 8c 3d 14 c8 c2 3d ac 82 a7 bd 1d a1 20 3e
       0.06839551 0.09510818 -0.081792206 0.1568646
000070 2e 91 f3 bc 61 9e de 3d 5f 76 75 bd 4c b6 b0 3b
       -0.029732313 0.10870052 -0.05992734 0.005392825
000080 39 43 96 3d 3a ca 6f bd 47 15 a9 3c 38 df ee bd
       0.073370405 -0.058542468 0.020640029 -0.11663669
000090 90 3c 97 3c 2e 06 dd 3c da 05 c6 3d 89 dc 6a 3d
       0.018461496 0.026980486 0.09669085 0.057339225
0000a0 26 da 77 bd b9 97 94 3d 97 2e 27 3d c7 60 24 3d
       -0.060510777 0.07255501 0.040815916 0.040131357
0000b0 a2 e1 8d bd d0 7b 70 3d 08 3e f7 3b b1 d1 f2 3d
       -0.06927802 0.058711827 0.0075452365 0.11856402
0000c0 4e ae fc 3c d9 35 c9 bb 08 6a d4 3c 32 32 8a 3d
       0.030844834 -0.0061404523 0.025929466 0.06747855
0000d0 c2 1a ab 3d 2c fb f3 bd 9d c8 f3 3d c0 c2 27 3d
       0.08354713 -0.119131416 0.11903498 0.040957212
0000e0 0e d4 23 3d 1c b0 ee bb a2 0a e6 bd 84 cd 11 bd
       0.039997153 -0.0072841775 -0.11232497 -0.035596386
0000f0 c3 52 2a bd ba 08 80 3c 42 0e 11 3d 52 aa 2a 3d
       -0.041582834 0.015629161 0.035413988 0.041666336
000100 2a 29 10 bd b8 26 ea 3d cf bb 6b 3c 10 3c 5e 3d
       -0.035195507 0.11433166 0.014388039 0.0542565
000110 b8 11 23 3d 81 01 85 bd 7b 9d 9e bd 2a 6a f3 bd
       0.03981182 -0.064944275 -0.07744881 -0.118854836
000120 b6 bf 55 bc f1 04 ba bd b0 71 96 3d 06 d7 d8 bd
       -0.013046196 -0.09082974 0.07345903 -0.105878875
000130 82 65 ae bd 12 a4 70 3d d7 e2 d1 bd 9a a8 c1 bd
       -0.08515455 0.05875022 -0.102483444 -0.09455986
000140 81 f7 d2 3c a4 8a f4 3c 4e 8c f4 3c 62 11 94 3d
       0.025752785 0.029851265 0.029852059 0.07229878
000150 84 78 c2 bd 10 a4 00 bd b2 c6 ba 3d 11 bf 7f 3d
       -0.09495643 -0.031406462 0.091199294 0.062438074
000160 d7 2f bd bd 4c e0 4f 3d a6 41 39 3c c0 bf 5e bd
       -0.0923764 0.050751016 0.011307156 -0.054382086
000170 92 1f 69 bd dc 69 60 3d c3 ea fb bd 61 a6 17 bd
       -0.056914873 0.054788455 -0.123006366 -0.037023906
000180 6b cd 3e bd 4e fa cd 3d 7a 47 c7 bd 0a 8e 0e 3e
       -0.04658262 0.100575075 -0.0973043 0.13921371
000190 da c4 41 bc 07 63 81 3d cb 40 90 bd 27 a8 c4 3c
       -0.011826718 0.06317716 -0.07043608 0.024005963
0001a0 1f 8f 73 3d b2 28 ec 3c 08 d5 4e bd f2 fd 41 bd
       0.059462663 0.028827999 -0.05049613 -0.04736132
0001b0 55 cf 45 3d 1e 9e 91 3d 0b 87 24 3e 8a 8f 94 bd
       0.04829343 0.071102366 0.1606714 -0.072539404
0001c0 35 e3 ac 3b dc 96 3d bd 59 a6 f3 3d 8d 04 9a bd
       0.0052761086 -0.04628645 0.11896963 -0.07520399
0001d0 19 05 f0 bc b0 a8 f4 3d 3e 07 95 3d 83 e0 4b 3d
       -0.029299306 0.11946237 0.07276772 0.049774658
0001e0 96 0b 1e 3d 7c 87 ef 3c 2e 5b bc bd d9 28 b8 3d
       0.038585268 0.029239409 -0.09197079 0.08992166
0001f0 b6 f1 02 bd a3 1b 09 bd 67 c0 40 3e 28 b5 bd 3d
       -0.031968795 -0.033473622 0.18823396 0.092630684
000200 48 a5 64 3d ae bf 6a 3c 76 52 ff 3c f1 f7 03 bd
       0.055821687 0.014327927 0.03116725 -0.032218877
000210 77 6e 92 bd c6 04 7b 3d 02 d9 02 be 8d 34 b0 3b
       -0.07149976 0.06128385 -0.12778094 0.0053773583
000220 07 b3 8c 3b d9 d7 c6 bc ae 51 e8 bc a3 d4 a5 bb
       0.0042938027 -0.024272846 -0.02835926 -0.0050607487
000230 c6 d6 b5 3d 7d 53 39 3d cd 0b 3c bd fa 1c be bc
       0.088788554 0.045245636 -0.04590969 -0.023207176
000240 03 08 9b bd a7 3c ac 3c bf cc b4 3d 71 8a 83 ba
       -0.075698875 0.021025015 0.08828115 -0.0010035766
000250 99 15 8a bd c2 35 12 3b ca 9f c5 3d 24 db c9 bd
       -0.06742401 0.0022309874 0.09649618 -0.09856251
000260 69 41 ac bd 46 26 07 3d 66 c5 4d 3e 96 be d2 3d
       -0.084109135 0.032995485 0.20094833 0.10290258
000270 81 f1 1a 3e 8a 39 31 3e a7 aa 5c 3e 43 8e 74 3e
       0.15131189 0.17307106 0.21549474 0.23882394
000280 43 e1 5b 3e 98 7e 93 bb 28 ab ac bc b4 31 c2 bd
       0.2147265 -0.004501175 -0.021077707 -0.09482136
000290 f0 c2 d3 3d 4e ea 45 bd 0b f3 c1 bb 41 eb a4 3c
       0.10339916 -0.048319153 -0.0059188656 0.020131709
0002a0 08 5a f1 bc d5 9c 85 3b e6 fc a3 3d 31 f8 23 3d
       -0.029461876 0.0040775337 0.08007221 0.040031616
0002b0 c4 64 b9 3d 90 58 92 3b bc 49 84 bd fb b7 5f 3c
       0.09052423 0.004466124 -0.06459376 0.013654704
0002c0 2f 52 21 bb c7 e9 fb 3c f2 d5 c8 3d a1 8d b3 bd
       -0.0024615636 0.030751122 0.09806432 -0.08767248
0002d0 19 32 12 3e 0c 25 78 3d 06 5d 63 bd 60 49 59 bd
       0.14276923 0.060582206 -0.055508636 -0.05304849
0002e0 96 09 f0 3c d6 6b 37 3d d9 f7 11 bd c1 72 d8 3b
       0.029301446 0.044780575 -0.035636757 0.0066054766
0002f0 c5 88 8f 3d 90 69 cc 3d 9f 2e 7a 3d b6 e7 6e 3d
       0.070085086 0.09981072 0.061079618 0.058326446
000300 be 49 72 bd 76 6f ab bd 75 c9 5d bb e0 b7 4b 3c
       -0.059152357 -0.08370869 -0.0033842002 0.012433976
000310 27 7d 70 bd 09 20 90 3d 87 cd 06 3c 7e c5 d3 3d
       -0.058713105 0.0703736 0.0082277125 0.10340403
000320 4b bc b7 3d 3b 57 00 3d 17 fd 79 bd 9d e7 5f bc
       0.08971461 0.03133319 -0.06103238 -0.013666061
000330 49 b0 35 3d ff fe d2 bc 26 51 d9 bd 15 d6 20 3e
       0.04435757 -0.025756357 -0.10611181 0.15706666
000340 af d4 02 bd 4b d1 d5 3d 24 e6 9c 3d 6d e7 25 3d
       -0.031941112 0.1044031 0.07661083 0.040503908
000350 52 37 18 bd a6 e6 eb bc 6d 7e 03 3e 5b b9 f1 3c
       -0.037162133 -0.028796505 0.12841196 0.02950733
000360 81 bf c2 3c 31 41 18 bd 72 2a a7 3b d2 5b 0e bd
       0.023772957 -0.037171546 0.0051014954 -0.034755535
000370 79 43 63 bd bf de 80 bb 4e d0 92 bd a0 2d d7 bc
       -0.05548427 -0.0039328034 -0.07168637 -0.026266873
000380 d8 12 7d 3c 2a f3 44 3c 24 23 b3 3d 5c 8d 8d 3c
       0.015446387 0.012020865 0.08746937 0.01727932
000390 24 d9 06 3d 59 53 3f bd 7c 95 49 bc d0 8c 88 bd
       0.032921925 -0.046710346 -0.012303706 -0.06667483
0003a0 4c f1 fc bc 87 0b 7e bc 99 55 2a 3e e9 33 cd bc
       -0.030876778 -0.015505678 0.16634215 -0.025049167
0003b0 ad cb 41 bc 3c 4f 8c 3d 4d bb fb bd a5 a9 23 bd
       -0.011828345 0.0685105 -0.12291584 -0.039956708
0003c0 58 39 34 3d 75 ca 4e 3d f2 c4 be 3c 49 a1 c5 3c
       0.044 0.050486047 0.02328727 0.024124758
0003d0 2c 3a 8f bd 4e 74 f8 3b 6b 50 f5 3c de b1 69 bd
       -0.06993517 0.007582224 0.029945573 -0.057054393
0003e0 23 62 87 bd f7 e2 9e 3d ae bc 94 3d bf 03 c5 3d
       -0.06610515 0.07758134 0.0726255 0.09619855
0003f0 d9 d6 fe 3c 20 36 94 bd 96 55 dc bc f4 b9 f9 bc
       0.031108307 -0.07236886 -0.02689628 -0.030484177
