AirQualityApp/AirQualityApp.Android/Assets/CopenhagenLong.tflite (tflite, 810852 bytes, 24 tensors)

std.constant3 f4 [128, 128]
0	0xbd274c66	-0.040844344
1	0xbc4b8eca	-0.01242418
2	0x3d3bb1d0	0.045823872
3	0xbcda5895	-0.026653567
4	0xbd611e62	-0.054960616
5	0x3c3603ce	0.011109306
6	0x3d425c5e	0.04745137
7	0xbd0efc77	-0.034908738
8	0xbc9516ef	-0.018199412
9	0xbcbcaf37	-0.023032768
10	0x3d07c10e	0.033143096
11	0x3d0b9ade	0.03408324
12	0x3dcd7672	0.10032357
13	0xbd174f86	-0.036941074
14	0x3c36563d	0.011128959
15	0x3ce6b828	0.028163984
16	0x3c5d7a37	0.013517908
17	0xbcea6ffc	-0.028617851
18	0x3d4d8798	0.05017814
19	0xbcbd09ed	-0.023076022
20	0xbc2912ce	-0.010319425
21	0xbc4d6fae	-0.012538834
22	0x3b54ad9a	0.0032452107
23	0xbc3553f9	-0.011067384
24	0xbd2910e9	-0.041275892
25	0x3d4907aa	0.049079575
26	0x3d886d52	0.06661476
27	0x3d3892bf	0.045061823
28	0xbbcc7eb4	-0.00624069
29	0x3d8d388f	0.06895553
30	0xbc6e65e4	-0.01455066
31	0x3c8aed98	0.016958997
32	0xbcdf9074	-0.02729056
33	0x3afe2c63	0.001939189
34	0x3cdbaa18	0.026814505
35	0xbd9bc3dc	-0.076057166
36	0xbb976636	-0.004620339
37	0x3d688499	0.05676708
38	0x3db151fa	0.08658214
39	0x3da95e45	0.082699336
40	0xbd8fb855	-0.070175804
41	0xbd53609d	-0.05160581
42	0xbc0c7012	-0.0085716415
43	0xbcb89a17	-0.022534413
44	0x3bbe7600	0.0058124065
45	0x3c2c1adc	0.010504451
46	0xbda78b59	-0.08180875
47	0xbb0139ec	-0.0019718362
48	0xbc1e14c0	-0.009648502
49	0xbbd5ee28	-0.0065286346
50	0x3d259f4d	0.040435124
51	0xbd4fff62	-0.05078066
52	0x3dbdff72	0.09277238
53	0xbc9b38fa	-0.018948067
54	0xbce6b42a	-0.02816208
55	0x3d726dff	0.05918693
56	0x3cedacd6	0.029013079
57	0xbc8bc0ed	-0.017059768
58	0xbd9f9af5	-0.077932276
59	0x3cb8bff4	0.022552468
60	0x3d61ffe3	0.055175673
61	0x3b6668a0	0.0035157576
62	0x3c9714ab	0.018442472
63	0xbdccb3a9	-0.09995205
64	0x3c8ba62e	0.017047014
65	0x3d6b2376	0.057406865
66	0x3da75b69	0.08171732
67	0xbcb16acc	-0.02165737
68	0xbd5ea8bd	-0.05436014
69	0xbc11c5f1	-0.008897291
70	0x3c9e6704	0.019336231
71	0x3d0146ff	0.031561848
72	0x3db398fb	0.08769413
73	0xbc9452a8	-0.01810582
74	0xbd1b67f1	-0.037940923
75	0x3a9247f0	0.0011160355
76	0xbd5aa06e	-0.053375654
77	0xbd36e64c	-0.044653222
78	0xbcdbcd87	-0.026831402
79	0xbc9f2997	-0.019429011
80	0xbd69df99	-0.057098005
81	0xbcfbef18	-0.030753657
82	0x3d6b495c	0.057443008
83	0xbd61e0e8	-0.055146128
84	0xbd6cda2d	-0.057825256
85	0x3d270481	0.04077578
86	0xbdabc2b5	-0.08386747
87	0xbbecae9e	-0.0072229644
88	0xbbf779ba	-0.0075523527
89	0x3dd57933	0.104235075
90	0xbb002e98	-0.0019559022
91	0xbd3b9a6e	-0.045801573
92	0xbd94f5bc	-0.072734326
93	0xbce37654	-0.027766384
94	0xbdb092d0	-0.08621752
95	0xbc325466	-0.01088438
96	0x3dbf4aa0	0.093404055
97	0x3a66ed70	0.00088091847
98	0xbda1be8e	-0.078976735
99	0x3cd76181	0.02629161
100	0x3c5e580b	0.013570796
101	0xbcab02c4	-0.020875342
102	0x3d0d3375	0.0344729
103	0xbc41dfd6	-0.011833152
104	0xbd6530d3	-0.055954766
105	0xbc9238ab	-0.017849287
106	0xbcbf7add	-0.023374015
107	0xbd923779	-0.07139487
108	0x3bce7bba	0.0063013704
109	0xbcf142b9	-0.029450761
110	0x3cf24901	0.029575827
111	0xbc3530e0	-0.011059016
112	0x3d1107f2	0.035407968
113	0x3c27e8bd	0.01024836
114	0xbd20b028	-0.039230496
115	0xbbd6ab9f	-0.0065512205
116	0xbd89c666	-0.067272946
117	0xba63b8c8	-0.00086868973
118	0xbd1adecc	-0.037810132
119	0x3c9f2f9e	0.019431885
120	0xbd43932c	-0.047747776
121	0x3b69cf9f	0.003567673
122	0xbcd21bda	-0.025648046
123	0xbd9fb78f	-0.07798683
124	0x3d8f5fb3	0.07000675
125	0xbce2cda7	-0.027685953
126	0xbc91c315	-0.017793218
127	0xbddc68be	-0.107621655
128	0xbc9b4cc2	-0.0189575
129	0x3d898c61	0.06716228
130	0x3d03a4a9	0.032139454
131	0xbd963cd8	-0.07335824
132	0x3d13c2e8	0.03607455
133	0x3d9055c1	0.07047606
134	0x3de5b6de	0.1121652
135	0x3d1a3979	0.037652466
136	0x3d5d3c31	0.05401248
137	0xbc8ad479	-0.016947018
138	0x3d0dcac8	0.034617215
139	0xbc9a27e9	-0.018817859
140	0xbd17c06d	-0.037048746
141	0x3c9a75ff	0.018855093
142	0x3ca42808	0.02003862
143	0xbd2d55a5	-0.042318005
144	0x3db79a76	0.08965008
145	0xbd20e1a1	-0.039277676
146	0xbc36a48e	-0.011147631
147	0xbc6b8d03	-0.0143768815
148	0x3d8335c4	0.06406739
149	0x3cf695bc	0.030100696
150	0xbc048b5a	-0.008089865
151	0x3c97d347	0.018533362
152	0x3c2e55fb	0.0106406165
153	0x3caee279	0.021348225
154	0x3d7e5b2a	0.06209866
155	0x3c344329	0.01100234
156	0xbb959158	-0.0045644455
157	0x3c32261f	0.010873347
158	0x3d2d34c4	0.04228665
159	0xbd14473b	-0.036200743
160	0x3dcdbe11	0.10046018
161	0xbce4e2e2	-0.027940217
162	0xbd24cbdf	-0.04023349
163	0x3cff3b60	0.031156242
164	0xbc00786e	-0.007841213
165	0xbd1afd1c	-0.03783904
166	0xbca2f4e6	-0.019892167
167	0x3c632c86	0.013865596
168	0xbc3233f7	-0.010876647
169	0x3daaf15c	0.08346817
170	0x3d82c486	0.0638514
171	0x3bfc3d30	0.007697724
172	0x3cf1ae48	0.02950205
173	0xbd482340	-0.048861742
174	0x3d896a75	0.06709758
175	0x3b3fa2ba	0.002924128
176	0x3cec3ca6	0.028837513
177	0xbd019844	-0.031639352
178	0x3d84d966	0.06486778
179	0xbce0b1fb	-0.027428618
180	0x3d078b4f	0.03309184
181	0x3af6c7d2	0.0018827862
182	0x3cb6be06	0.022307407
183	0xbca4b68f	-0.020106582
184	0x3d52c053	0.051452946
185	0x3d932fac	0.07186827
186	0xbd107948	-0.035271913
187	0x3d578ac1	0.05262256
188	0x3a45d5a0	0.0007546786
189	0xbd76c362	-0.060244925
190	0xbc7e8171	-0.015533791
191	0xbda7ef48	-0.08199936
192	0xbda067c0	-0.07832289
193	0xbd8c4feb	-0.06851181
194	0xbc6e0e54	-0.014529783
195	0x3c73143d	0.014836368
196	0x3c9532ef	0.018212764
197	0xbcfbe5b2	-0.030749176
198	0x3db4788e	0.088120565
199	0x3d1bf73f	0.03807759
200	0x3d5bc160	0.053651214
201	0x3db4fd8f	0.08837425
202	0xbc335d5e	-0.010947553
203	0x3ce4ee42	0.027945641
204	0xbb18cc5d	-0.002331517
205	0x3ccf537a	0.02530836
206	0x3dee73fa	0.116432145
207	0x3d3ac468	0.045597464
208	0xbbe946d6	-0.00711904
209	0x3d1fef62	0.039046653
210	0x3d0b5a31	0.03402156
211	0xbd1eac65	-0.038738627
212	0xbbc8df2e	-0.0061301207
213	0x3c108d20	0.008822709
214	0xbdf123cc	-0.11774406
215	0x3ccd50e0	0.025062978
216	0xbc7bb04b	-0.015361856
217	0xbc0b1d92	-0.008490937
218	0x3ce305f1	0.027712794
219	0x3d1a15d9	0.03761849
220	0x3ccde171	0.025131913
221	0xbcc2df8a	-0.023788232
222	0x3d20f232	0.039293475
223	0x3c0d6f37	0.008632473
224	0x3aa857e0	0.0012843572
225	0xbc6e5eb7	-0.014548949
226	0xbc94f304	-0.018182285
227	0x3d0c7193	0.034288
228	0xbcd5aa28	-0.026082113
229	0xbd90db8c	-0.07073125
230	0x3c8a40bc	0.01687657
231	0x3d0b1a4b	0.03396062
232	0x3cbd9ad1	0.023145111
233	0xbd7e7c87	-0.062130477
234	0x3b5c6535	0.003362966
235	0xbce7c053	-0.02828995
236	0x3c8dc882	0.017307524
237	0xbb8cda9e	-0.004298522
238	0x3b5a25ab	0.0033286612
239	0xbcea8e2a	-0.028632242
240	0xbd37824f	-0.044802006
241	0x3d00b03e	0.031418078
242	0x3c244237	0.0100255525
243	0xbd29127b	-0.04127739
244	0xbdb92ae3	-0.09041383
245	0xbd3f65bd	-0.046727885
246	0xbb8d32cc	-0.004309034
247	0xbd3f601d	-0.04672252
248	0x3c1bfff3	0.009521472
249	0xbcc9ac45	-0.024618277
250	0x3d759eaa	0.059965767
251	0xbcab87d3	-0.02093879
252	0xbd0026a9	-0.03128687
253	0xbd68eec6	-0.056868337
254	0xbcf2283c	-0.0295602
255	0x3d2a5001	0.041580204

std.constant4 f4 [128, 128]
0	0xbca9d402	-0.020730976
1	0xbc616cee	-0.013758881
2	0x3c0392c6	0.008030599
3	0xbd0a52ca	-0.03377036
4	0xbc17fdcd	-0.009276819
5	0x3bc190a0	0.005907133
6	0x3d346473	0.04404111
7	0x3be385f6	0.0069434596
8	0x3db2d78d	0.08732519
9	0xbdbb0a19	-0.09132785
10	0xbc1b4d9e	-0.009478955
11	0x3c991163	0.018685048
12	0xbd2663b3	-0.040622424
13	0x3c81dd96	0.01585273
14	0x3cc461c8	0.023972407
15	0x3ccf0a98	0.025273606
16	0xbd9d5606	-0.07682423
17	0x3d6e9b84	0.05825378
18	0xbbb9ebb4	-0.00567385
19	0x3d7d079b	0.06177483
20	0x3d914ec9	0.07095105
21	0x3ce6dcad	0.028181398
22	0xbd3adf70	-0.045623243
23	0xbd0d35fb	-0.034475308
24	0xbb5dd074	-0.0033846172
25	0xbb2114e4	-0.0024579102
26	0x3d082647	0.03323963
27	0xbb224708	-0.0024761576
28	0x3c91da8e	0.01780441
29	0x3c2fd3a9	0.010731616
30	0xbc317485	-0.010831003
31	0x3d37d975	0.044885118
32	0xbd0c0c3c	-0.034191355
33	0x3d94aaf3	0.072591685
34	0xbc9613d0	-0.018319994
35	0x3d00a0d0	0.031403363
36	0xbd149936	-0.036278926
37	0xbd5b6f2e	-0.053572826
38	0xbd04835e	-0.032351844
39	0x3b9c56ec	0.004771104
40	0x3b16343a	0.0022919313
41	0x3d609fca	0.054839887
42	0x3d0d2924	0.034463063
43	0xbd439ad7	-0.04775509
44	0xbca39686	-0.019969236
45	0x3db1bc4b	0.08678492
46	0x3cd94650	0.026522785
47	0x3d60f544	0.054921404
48	0x3d1e3829	0.038627777
49	0x3c8c981d	0.017162377
50	0x3a191330	0.0005839346
51	0xbc6578e4	-0.014005873
52	0x3c882c8a	0.0166228
53	0x3de787b8	0.11305183
54	0x3a446c60	0.0007492956
55	0x3b6d2038	0.0036182534
56	0xbcfb0346	-0.03064121
57	0x3d6755ce	0.056478314
58	0xbd272aee	-0.040812425
59	0x3c9e7d8e	0.019346979
60	0x3c808374	0.015687682
61	0x3cbc8013	0.02301029
62	0xbcdd387b	-0.027004471
63	0xbc573bec	-0.013136845
64	0x3d06e49d	0.032932866
65	0xbd5a9ab4	-0.053370193
66	0x3d6c8bb8	0.057750434
67	0x3da6978e	0.081343755
68	0xbd446932	-0.047951885
69	0xbcd4c174	-0.025971152
70	0xbb5eead4	-0.003401448
71	0xbd1153a4	-0.035480157
72	0x3d573530	0.052540958
73	0xbd89cade	-0.06728147
74	0xbcde9343	-0.02716983
75	0x3d9dfa53	0.07713761
76	0x38ec8200	0.00011277571
77	0x3cea224c	0.028580807
78	0x3d173d5c	0.03692375
79	0xbd911430	-0.070839286
80	0x3d4dda33	0.05025692
81	0x3dcc76d7	0.099836044
82	0x3d97f27b	0.07419296
83	0x3ba9f97e	0.0051872125
84	0x3b60025d	0.0034181096
85	0xbd22fba4	-0.039790764
86	0x3cc3d043	0.023903018
87	0x3cf61c71	0.030042859
88	0xbdb0edbe	-0.08639096
89	0x3b80f9dc	0.0039360356
90	0xbd4d7d63	-0.050168406
91	0xbd3102b0	-0.043215454
92	0xbc1e3cfd	-0.009658095
93	0xbd74e610	-0.059789717
94	0x3d2eaa20	0.042642713
95	0xbd548e25	-0.051893372
96	0x3d2d63f0	0.042331636
97	0x3d3bf23c	0.04588531
98	0xbc4a8d28	-0.012362756
99	0xbd77894a	-0.060433663
100	0x3ada6030	0.0016660746
101	0x3d5d3e04	0.05401422
102	0x3d3cd09a	0.046097375
103	0xbd28df4d	-0.04122858
104	0x3b7da894	0.0038705217
105	0x3d93ab15	0.07210366
106	0x3cc42d46	0.02394737
107	0xbd900f7a	-0.07034202
108	0xbc77ee14	-0.015132446
109	0xbd88841d	-0.066658236
110	0x3c0a3827	0.008436239
111	0x3d440ab6	0.047861777
112	0x3d2d5e62	0.04232634
113	0xbd152435	-0.036411483
114	0xbd17df86	-0.037078403
115	0x3db49c4b	0.08818873
116	0x3c9a03d3	0.018800652
117	0xbd2dee6e	-0.042463712
118	0x3ce21644	0.027598508
119	0x3d366c26	0.044536732
120	0xbd150dec	-0.03639023
121	0x3cc76f3a	0.02434503
122	0xbc8d9638	-0.017283544
123	0x3d74b8d2	0.05974657
124	0xbc4c030b	-0.012451897
125	0xbb68be72	-0.0035513905
126	0xbc7a41b8	-0.015274458
127	0x3d03b88a	0.032158412
128	0xbc3bccee	-0.011462433
129	0xbc7ce570	-0.015435562
130	0x3c3dd027	0.011585272
131	0xbd09d328	-0.03364864
132	0xbd0823c8	-0.03323725
133	0xbc88f3c3	-0.016717797
134	0x3cd4404d	0.025909567
135	0x3c7247b4	0.014787603
136	0xba45793c	-0.0007533019
137	0x3c1f8320	0.0097358525
138	0xbda8defd	-0.08245657
139	0x3dce05ed	0.10059724
140	0xbb3f7d1e	-0.0029218863
141	0xbcaf82ae	-0.021424618
142	0x3d31f951	0.043450657
143	0xbd057cfa	-0.03258989
144	0x3d808948	0.06276184
145	0x3d161bd4	0.036647633
146	0xbd4a5592	-0.049398012
147	0x3c7580d3	0.014984327
148	0x3dbfe0f2	0.09369077
149	0x3dc1390b	0.09434708
150	0x3d4c38ce	0.04985886
151	0xbd62d5d6	-0.05537971
152	0xbd3d056f	-0.04614776
153	0x3c3695fc	0.0111441575
154	0xbcb9df31	-0.022689434
155	0x3c2f366b	0.010694127
156	0xbc8c0aed	-0.017095054
157	0xbd0cd88d	-0.034386206
158	0x3c814da2	0.015784089
159	0x3a9843d0	0.0011616889
160	0x3d5cc4f7	0.053898778
161	0xbd740007	-0.05957034
162	0x3cab0dfc	0.020880692
163	0xbd121e85	-0.035673637
164	0x3c292e31	0.010325954
165	0x3b23bdc4	0.0024984935
166	0x3c3c4631	0.011491344
167	0x3c2117af	0.009832307
168	0xbc691cb2	-0.014228033
169	0x3c1abeb8	0.009444885
170	0xbd9e8b39	-0.07741398
171	0x3da25d54	0.07927957
172	0x3d7d2f09	0.061812434
173	0xbc0b6ee6	-0.008510327
174	0x3d389401	0.045063023
175	0x3db861f8	0.09003061
176	0x3d1ff470	0.039051473
177	0x3d825ef6	0.063657686
178	0x3ac20f6d	0.0014805623
179	0xbd2ea74e	-0.042640023
180	0x3d00d028	0.031448513
181	0x3daef9da	0.08543749
182	0xbd397d44	-0.04528548
183	0x3d83f8b9	0.064439245
184	0x39109b60	0.00013790792
185	0x3ce0b765	0.0274312
186	0xbdf82322	-0.12116076
187	0x3d623528	0.055226475
188	0xbc6fbd91	-0.0146325985
189	0xbc961694	-0.018321313
190	0xbd3cd2fe	-0.046099655
191	0xbdc28603	-0.09498217
192	0xbb926f16	-0.004468809
193	0x3bbe8a0a	0.0058147954
194	0x3c2d47f2	0.010576235
195	0xbcfa6da8	-0.030569866
196	0xbc47e6b4	-0.012201
197	0xbd18a587	-0.037267234
198	0x3d3a8f33	0.04554672
199	0xbd48de44	-0.049040094
200	0x3d0daa8e	0.03458648
201	0x3aa6039c	0.0012665871
202	0x3d54ac86	0.051922344
203	0x3b424218	0.0029641446
204	0x3d14bbac	0.03631179
205	0x3d2fce55	0.042921383
206	0x3d646819	0.055763338
207	0xbca111c9	-0.019661801
208	0x3b0bda0c	0.0021339683
209	0xbd89cfaa	-0.06729062
210	0x3d3b40df	0.045716163
211	0x3d030af3	0.031992864
212	0x3c6ce3a2	0.014458569
213	0x3d1235ce	0.035695843
214	0xbdaff023	-0.08590724
215	0x3dc21e24	0.09478405
216	0x3d093f4f	0.03350764
217	0xbd1ffe74	-0.039061025
218	0x3c773cf2	0.015090214
219	0xbda00838	-0.078140676
220	0x3cae79d4	0.021298327
221	0x3dd87614	0.105693966
222	0xbdbadddf	-0.0912435
223	0x3d62a33c	0.055331454
224	0x3d37f8df	0.044915076
225	0x3ad20738	0.001602388
226	0x3da44f9c	0.08022997
227	0xbce843f8	-0.028352723
228	0x3d74df37	0.059783187
229	0x3ce67153	0.02813021
230	0xb69e5600	-4.7187787e-06
231	0x3d831982	0.064013496
232	0xbc997c13	-0.018735921
233	0xbc3275ef	-0.010892375
234	0xbd1567aa	-0.036475815
235	0xbb14cd10	-0.0022705235
236	0x3d6ff726	0.05858531
237	0x3d39bf1d	0.045348275
238	0x3d865a85	0.06560234
239	0xbce998fe	-0.028515335
240	0x3d59949b	0.053120237
241	0xbd17db96	-0.037074648
242	0xbc99636c	-0.018724166
243	0xbbc8660c	-0.0061156806
244	0xbdd69782	-0.104781166
245	0xbc07a247	-0.008278436
246	0xbc8997cf	-0.01679602
247	0x3a5b7a40	0.00083724037
248	0xbd25d892	-0.04048974
249	0xbd1f21ce	-0.038850598
250	0xbc7c137c	-0.015385505
251	0xbc2ecaa4	-0.0106684305
252	0x3cbf5c1e	0.023359355
253	0x3ce678ca	0.028133769
254	0x3bfc5eb8	0.007701721
255	0xbc93e5d3	-0.018053925

std.constant5 f4 [128, 128]
0	0x3c83d7ab	0.01609405
1	0x3d00bc4f	0.031429585
2	0xbdb41c48	-0.08794457
3	0xbd244fdf	-0.040115234
4	0xbc8ff5c6	-0.017573249
5	0xbb982c74	-0.004643971
6	0x3c6260f0	0.013817057
7	0x3cd89264	0.026436992
8	0xbc1f44aa	-0.009720961
9	0x3cc40cf0	0.02393195
10	0x3c88fd23	0.016722267
11	0x3d586073	0.052826356
12	0xbbbc942c	-0.005754968
13	0x3cb1f4e8	0.021723226
14	0x3cfc075b	0.030765226
15	0xbc42acab	-0.011881988
16	0x3c0e405a	0.008682335
17	0x3ae96a56	0.001780818
18	0xbb0defa6	-0.0021657734
19	0xbd7d4a00	-0.06183815
20	0xbd0ade20	-0.03390324
21	0x3ca49150	0.020088822
22	0x3b4ac414	0.0030939626
23	0xbcbb7ea9	-0.022887545
24	0xbc92f1b4	-0.017937519
25	0x3bb788d3	0.0056010275
26	0x3d0c2ea0	0.034224153
27	0xbd1da126	-0.03848376
28	0xbd15c8f4	-0.036568597
29	0xbc38b2bb	-0.011273081
30	0x3cd74cca	0.026281733
31	0x3d5c2238	0.05374357
32	0xbd160f0b	-0.03663544
33	0xbcbb1326	-0.02283628
34	0x3c4d72a6	0.012539541
35	0xbd09d7d8	-0.03365311
36	0xbd16422d	-0.036684204
37	0xbd6ae209	-0.05734447
38	0x3c947258	0.01812093
39	0x3d6592cd	0.056048203
40	0x3e01d22f	0.12677835
41	0x3c2ff8ae	0.010740442
42	0xbbf8f980	-0.007598102
43	0x3b95d6ba	0.0045727165
44	0x3cb7adb1	0.02242169
45	0x3ab004be	0.0013429148
46	0x3d3cfe71	0.04614109
47	0x3c42e18f	0.011894598
48	0xbc595e6e	-0.013267143
49	0x3d7c51fc	0.061601624
50	0xbd935364	-0.0719364
51	0xbda7c98d	-0.0819274
52	0x3d372e82	0.044722088
53	0xbc089aa7	-0.008337653
54	0xbd189f1f	-0.037261125
55	0x3b2aebf8	0.002608059
56	0xbd5c9225	-0.05385031
57	0x3d86361d	0.0655329
58	0xbd94d406	-0.07267003
59	0x3aa2e990	0.0012429226
60	0xbd3681f7	-0.044557538
61	0x3cbc35f3	0.022974944
62	0xbc61f1ab	-0.013790528
63	0xb7e26a00	-2.699066e-05
64	0xbcf0e8bb	-0.02940785
65	0xbc0b6928	-0.008508958
66	0xbc938191	-0.018006118
67	0xbcdc0959	-0.026859926
68	0x3bc4c79a	0.0060052397
69	0x3d01c484	0.031681553
70	0x3d463ac8	0.048395902
71	0xbc2178e6	-0.009855485
72	0xbdad0411	-0.08448041
73	0xbc55a81f	-0.0130405715
74	0x3c67ffe2	0.014160128
75	0x3d5e8102	0.05432225
76	0x3cb06eb7	0.021537168
77	0xbca7c960	-0.020481765
78	0x3cd69006	0.026191723
79	0xbc5877f3	-0.013212192
80	0xbd0fd251	-0.035112683
81	0x3d95f89d	0.0732281
82	0x3b2eef40	0.0026692897
83	0xbd21aefd	-0.039473522
84	0x3d28fc81	0.04125643
85	0x3d9574cc	0.07297668
86	0xbd0515c6	-0.032491468
87	0xbcdd41c8	-0.027008906
88	0x3b88f862	0.00418
89	0x3d071b80	0.03298521
90	0xbd087c4d	-0.033321667
91	0x3da4efe0	0.08053565
92	0x3b9cef24	0.00478925
93	0xbc94135c	-0.018075638
94	0xbb1bb95a	-0.0023761601
95	0xbd00ad80	-0.031415462
96	0x3d03f7c8	0.032218724
97	0x3b883eb4	0.0041578654
98	0xbbb3928c	-0.0054801162
99	0xbc292a64	-0.010325048
100	0x3cd0574c	0.025432251
101	0x3c0a09a7	0.008425153
102	0x3d957598	0.0729782
103	0x3d720102	0.059082992
104	0xbbe0b79b	-0.006857825
105	0xbd791038	-0.060806483
106	0x3d85a331	0.06525267
107	0x3cbac01e	0.022796687
108	0x3a6b6300	0.0008979291
109	0xbd794ad8	-0.060862392
110	0xbda4108a	-0.08010967
111	0x3dd298c9	0.10283048
112	0x3d0712b5	0.032976825
113	0x3d693861	0.056938533
114	0x3d2208bd	0.039559115
115	0x3d84ff6d	0.06494031
116	0x3d22a5b7	0.03970882
117	0xbd6bd924	-0.05758013
118	0xbd569321	-0.052386407
119	0xbc95f53e	-0.018305417
120	0x3d9a8703	0.07545283
121	0xbacabaee	-0.0015467086
122	0x3bd31bc0	0.006442517
123	0x3d8c0f88	0.068389
124	0xbdcdc07d	-0.1004648
125	0xbd59542e	-0.053058796
126	0x3c66d825	0.014089619
127	0xbd948af1	-0.072530635
128	0xbcd70a28	-0.02624996
129	0x3c7fb992	0.015608208
130	0xbb2062ab	-0.0024472873
131	0xbcb9cee0	-0.022681653
132	0xbccf01b1	-0.025269361
133	0x3c0dc1cf	0.008652165
134	0x3bb8a405	0.005634787
135	0xbbeaaa40	-0.0071614087
136	0x3cd4bbca	0.025968451
137	0x3bed447a	0.007240829
138	0xbdbeec5d	-0.093224265
139	0xbc7926fd	-0.015207049
140	0xbdbf7b01	-0.09349633
141	0x3ce595e3	0.028025573
142	0x3c8ab269	0.016930776
143	0x3dbc55f4	0.09196082
144	0x3d8beb98	0.06832045
145	0xbd24deff	-0.04025173
146	0x3afd545c	0.0019327509
147	0x3c834afc	0.016026966
148	0x3ca3ff9f	0.02001935
149	0xbc864ad6	-0.016393106
150	0xbc735a4e	-0.014853073
151	0x3c4cd0ae	0.012500925
152	0xbc021829	-0.007940331
153	0x3dea8bd9	0.11452455
154	0x3d586665	0.052832026
155	0xbce4cb6c	-0.02792903
156	0x3d0a224d	0.033724118
157	0xbc6deadd	-0.014521328
158	0xbc907e78	-0.01763843
159	0xbd03f095	-0.03221186
160	0x3d5e04e0	0.054203868
161	0x3cf72be5	0.030172298
162	0x3cad40a2	0.021148983
163	0x3da50d75	0.08059207
164	0x3cc12cd5	0.023580948
165	0x3d19be5c	0.037535056
166	0x3ba8dc7a	0.005153236
167	0xbd08e886	-0.033424877
168	0xbc9ed5ec	-0.019389115
169	0xbc2255f0	-0.009908184
170	0xbd910dc1	-0.070827015
171	0x3c13124d	0.008976531
172	0xbc645051	-0.013935165
173	0xbc0c7818	-0.008573554
174	0xbdd0f76a	-0.102034405
175	0xbc45289a	-0.012033606
176	0x3d91d2d6	0.07120292
177	0x3c3dc5cf	0.011582806
178	0x3cde57bf	0.02714145
179	0xbd97172e	-0.07377468
180	0xbc4a197e	-0.012335179
181	0xbce54482	-0.027986769
182	0xbcefa35c	-0.0292527
183	0x3c52cd06	0.012866264
184	0xbd97c7d8	-0.07411164
185	0xbbe20a3e	-0.0068981936
186	0xbd0310ee	-0.031998567
187	0xbc8b56b7	-0.017009122
188	0xba91cc40	-0.0011123493
189	0x3b253cfe	0.0025213356
190	0xbd2982d6	-0.04138454
191	0xbc270229	-0.010193386
192	0xbcfd1e67	-0.030898286
193	0xbcae8e2e	-0.021308031
194	0xbdbb5888	-0.09147745
195	0xb721d580	-9.646057e-06
196	0xbcc6d542	-0.024271611
197	0x3cc847c8	0.02444829
198	0xbd94906c	-0.07254109
199	0xbd0d62e5	-0.03451814
200	0xbd3cd22a	-0.046098866
201	0xbce16d64	-0.027517982
202	0x3dfa95f6	0.12235634
203	0xbcba5cda	-0.022749353
204	0x3c3660e9	0.011131504
205	0xbce3532a	-0.027749617
206	0xbcd9b374	-0.026574828
207	0x3bc49df0	0.006000273
208	0x3bbb4e20	0.0057161003
209	0xbb5d41c4	-0.0033761123
210	0xbd10616a	-0.03524915
211	0x3c385176	0.011249891
212	0xbc649e79	-0.013953798
213	0xbd340c1d	-0.043956865
214	0xbb31c534	-0.00271256
215	0xbd43602a	-0.04769913
216	0xbcf9e6ba	-0.030505527
217	0x3cab6867	0.020923806
218	0xbda9aedc	-0.08285305
219	0x3caff05e	0.02147692
220	0xbd41f49e	-0.047352426
221	0xbb183b66	-0.0023228764
222	0x3c71dc88	0.014762051
223	0x3bbebd64	0.005820917
224	0x3de908b8	0.11378616
225	0xbc9ce19c	-0.019150548
226	0x3d93bd94	0.072138935
227	0x3d8745d8	0.066051185
228	0x3d20bac1	0.039240602
229	0x3c74ebf4	0.014948834
230	0x3c41dff6	0.011833182
231	0xbd02a4b6	-0.03189536
232	0x3d9774f4	0.07395354
233	0xbd5660b9	-0.052338336
234	0xbd2ee844	-0.042701975
235	0xbcd68135	-0.026184658
236	0x3ba9bb84	0.0051798243
237	0xbd1a999b	-0.037744146
238	0xbdb590a3	-0.08865478
239	0x3c02d27e	0.007984756
240	0xbd2c1c4e	-0.04201918
241	0x3a9572bb	0.001140199
242	0xbd03c44b	-0.03216962
243	0x3d9845c5	0.074351825
244	0x3c02653a	0.007958705
245	0xbc71f3ce	-0.0147676
246	0xbd4ec581	-0.050481323
247	0xbbf1f7d5	-0.00738428
248	0x3ccc72b0	0.024957031
249	0xbca954b0	-0.020670265
250	0x3d6f1884	0.05837299
251	0xbca95ee3	-0.020675128
252	0xbca2e0a7	-0.019882513
253	0x3ca53857	0.020168466
254	0x3c5b3868	0.0133801475
255	0x3d7e705a	0.062118866

std.constant6 f4 [128, 128]
0	0x3d1263e0	0.03573978
1	0x3d3624f3	0.04446883
2	0x3cb052fc	0.021523945
3	0xbd2eebe5	-0.042705435
4	0xbd5723fd	-0.052524555
5	0x3c604a76	0.013689628
6	0x3bf0d7e2	0.007349954
7	0x3d8a9c56	0.067681
8	0xbd8f28b6	-0.06990187
9	0x3d7c5370	0.06160301
10	0x3d892fce	0.06698571
11	0x3d829814	0.06376663
12	0x3d3e725c	0.04649578
13	0xbb1be5ec	-0.0023788167
14	0xbceeaaa4	-0.029134102
15	0x3d21fc0c	0.03954701
16	0x3d2b72b5	0.04185744
17	0x3da195c3	0.07889893
18	0x3d1d7f53	0.038451504
19	0x3b3fa960	0.0029245242
20	0x38d4ea00	0.00010152534
21	0xbca493d2	-0.020090017
22	0xbca92be4	-0.020650811
23	0xbdb8cd45	-0.09023527
24	0x3ceee471	0.029161664
25	0x3c2bf368	0.010495044
26	0xbc8189cf	-0.015812783
27	0xbcc4b9a4	-0.024014302
28	0xbb45eaf0	-0.0030199848
29	0x3d8faa93	0.07014956
30	0x3c40bebc	0.011764225
31	0x3ce012d2	0.027352724
32	0x3d21831c	0.039431676
33	0xbcd2d20f	-0.02573493
34	0xbd23d685	-0.039999504
35	0xbbdfb0e6	-0.006826508
36	0x3d55aa35	0.052164275
37	0xbd2706bc	-0.040777907
38	0x3d09ef1d	0.0336753
39	0xbde52bcc	-0.11189994
40	0x3c101ac8	0.008795448
41	0x3ca41a1e	0.020031985
42	0xbda3f1ac	-0.080050796
43	0x3cac400d	0.021026636
44	0xbc022c90	-0.007945195
45	0x3d4da8c8	0.05020979
46	0x3cdfdcda	0.02732699
47	0x3ae97fc8	0.0017814571
48	0x3d9c837e	0.07642268
49	0xbce7af09	-0.028281705
50	0x3d8de743	0.06928875
51	0x3c4db41f	0.012555151
52	0x3c86acfe	0.016439911
53	0x3c65d718	0.014028333
54	0x3c373f02	0.011184456
55	0x3cc6d497	0.024271293
56	0x3d5acd8c	0.05341868
57	0x3c9da0f3	0.019241786
58	0x3c703350	0.014660671
59	0x3ce6b5d3	0.028162872
60	0x3cbe2694	0.023211755
61	0x3d8de325	0.0692809
62	0x3d14a4e5	0.03629007
63	0xbd747bcf	-0.059688386
64	0xbdb523e1	-0.08844734
65	0x3c3eb932	0.011640834
66	0xbc328c93	-0.010897773
67	0xbcc31232	-0.023812387
68	0xbbb7174c	-0.005587494
69	0xbd708f04	-0.05873014
70	0x3c83405c	0.0160219
71	0xbd3acea4	-0.045607224
72	0x3ba31026	0.0049762903
73	0x3d4c224a	0.049837388
74	0xbcfbffd2	-0.030761633
75	0x3ccd4c3e	0.02506077
76	0xbd44bf2f	-0.04803389
77	0x3bd50518	0.0065008514
78	0x3d8d3b2e	0.06896053
79	0x3d003a62	0.03130568
80	0x3c95e89b	0.018299391
81	0xbd639290	-0.055559695
82	0xbd57a29c	-0.05264531
83	0xbc1e634e	-0.009667231
84	0xbb80a07f	-0.0039253826
85	0x3cecae20	0.028891623
86	0xbace2dc8	-0.0015730197
87	0x3d6769b9	0.05649731
88	0xbd4619d0	-0.04836446
89	0xbd81b209	-0.06332786
90	0xbd8fc7fa	-0.070205644
91	0x3c459ac4	0.012060825
92	0xbd11e5c4	-0.035619512
93	0x3d09479b	0.033515554
94	0x3e109243	0.14118294
95	0x3b9e9dbf	0.004840582
96	0xbd64419e	-0.05572664
97	0xbcf89689	-0.030345218
98	0x3de9599d	0.113940455
99	0x3d020728	0.031745106
100	0x3dbcd407	0.092201285
101	0xba7bfbe0	-0.00096124224
102	0xbc30106c	-0.010746103
103	0x3ba64de2	0.0050752023
104	0xbb45e7d0	-0.0030197985
105	0x3de1eae7	0.11031132
106	0x3db3bd3a	0.087763265
107	0xbc838db8	-0.016058788
108	0xbc699f56	-0.01425918
109	0x3d114587	0.035466697
110	0xbc119905	-0.00888658
111	0x3d90c817	0.07069414
112	0x3cbf699d	0.02336579
113	0x3cc99a53	0.02460972
114	0xbc90fb5a	-0.017697979
115	0x3d279c65	0.040920634
116	0x3d605265	0.054766078
117	0x3d65ceb1	0.05610532
118	0x3c3a4c40	0.0113707185
119	0x3d39ad8c	0.045331523
120	0x3b6c7328	0.003607938
121	0x3cfe29fe	0.031025883
122	0xbd8b646f	-0.068062656
123	0xbb698bd3	-0.003563632
124	0x3d9b3fa4	0.07580498
125	0x3c137004	0.008998875
126	0xbc3cd9e4	-0.011526559
127	0xbce5b7e1	-0.028041782
128	0xbdcfedbd	-0.10152767
129	0xbc9da0c0	-0.01924169
130	0xbca66ad8	-0.020314619
131	0xbc56bbb6	-0.013106277
132	0xbda149d6	-0.07875411
133	0xbdae0a62	-0.08498074
134	0xbc87adb3	-0.016562318
135	0xbd67fdb4	-0.056638435
136	0xbc9af5a6	-0.018915962
137	0x3cbd7500	0.023127079
138	0xbc556e89	-0.013026842
139	0x3de8096c	0.11329922
140	0x3d627269	0.05528489
141	0x3c1cdc0d	0.009573949
142	0x3cdb8e0b	0.02680113
143	0xbc9e6af7	-0.019338114
144	0xbb2d22b2	-0.0026418385
145	0x3ceb0bc4	0.028692134
146	0xbd819922	-0.06328036
147	0x3cd7639f	0.02629262
148	0x3d740144	0.05957152
149	0xbdca6f15	-0.098844685
150	0xbb20e4ea	-0.0024550506
151	0xbc8bca41	-0.017064216
152	0xbd4c309b	-0.04985104
153	0xbd83618e	-0.064150915
154	0xbc4cb7ee	-0.012495024
155	0x3c9b19e4	0.018933244
156	0xbc94d158	-0.01816623
157	0xbd87ded7	-0.066343
158	0xbcb4c5fb	-0.02206706
159	0xbc4262d0	-0.011864379
160	0x3d2b5802	0.041831978
161	0xbd775f88	-0.06039384
162	0xbd5ce64e	-0.053930573
163	0x3b9a0f43	0.0047015264
164	0x3d969bca	0.07353933
165	0x3cbc34c0	0.022974372
166	0xbbc0694e	-0.0058719283
167	0x3d1438d1	0.036186997
168	0xbd41f04e	-0.047348313
169	0x3c90b050	0.017662197
170	0xbbec7fb8	-0.0072173737
171	0xbd6abf42	-0.057311304
172	0x3cc8531e	0.024453696
173	0xbd160139	-0.03662226
174	0x3d336248	0.0437949
175	0x3c97549c	0.018472962
176	0x3cc351fc	0.023842804
177	0xbd309b89	-0.04311708
178	0xbd26a326	-0.040682934
179	0x3d635bb4	0.055507377
180	0x3c3a3224	0.0113644935
181	0xbc8b770a	-0.017024536
182	0x3d516d1c	0.051129445
183	0x3d85c15e	0.065310225
184	0x3cf7213b	0.030167213
185	0xbd427727	-0.047476914
186	0x3c06156b	0.008183817
187	0x3d3fd0b2	0.046829887
188	0xbd88d83c	-0.066818684
189	0x3ca7857a	0.020449389
190	0xbcd99ece	-0.026564982
191	0xbd460cf4	-0.048352197
192	0xbd2816e5	-0.04103746
193	0x3cee1ab8	0.029065475
194	0xbcead08c	-0.028663896
195	0xbce1b4dc	-0.02755206
196	0xbd0c3397	-0.034228887
197	0x3c87de59	0.016585516
198	0xbdac5638	-0.084148824
199	0x3d36a6c4	0.044592634
200	0x3d521350	0.05128795
201	0x3bfd7990	0.0077354386
202	0x39b7f2c8	0.00035085366
203	0x3dc89972	0.09794892
204	0x3d970df9	0.07375712
205	0xbc01ad02	-0.007914783
206	0xbbb612c3	-0.005556436
207	0xbd7d0d4e	-0.061780266
208	0xbd69e4a8	-0.05710283
209	0x3d463ab7	0.04839584
210	0x3c82b70b	0.015956422
211	0x3d22feac	0.039793655
212	0x3cb436e7	0.021998836
213	0xbb2f3fbe	-0.0026740874
214	0xbd173477	-0.03691527
215	0xbd0b23b5	-0.0339696
216	0x3c27708e	0.010219706
217	0x3cec96f2	0.02888057
218	0xbd219141	-0.039445166
219	0xbc699ab2	-0.014258074
220	0x3c816c6d	0.015798772
221	0xbc41e058	-0.011833273
222	0xbc64f6d9	-0.013974869
223	0xbc90d6f9	-0.017680632
224	0x3d4288fc	0.04749392
225	0xbc859952	-0.01630846
226	0xbc207a89	-0.00979484
227	0x3b99bc18	0.004691612
228	0xbc2106e3	-0.009828302
229	0x3dea0f33	0.1142868
230	0xbd3c3089	-0.045944724
231	0x3cef73eb	0.029230079
232	0x3c054822	0.008134874
233	0x3ce9f346	0.028558385
234	0x3cf5b9b4	0.029995777
235	0xbde23f95	-0.110472836
236	0xbd48d147	-0.049027707
237	0xbd7ab3df	-0.061206695
238	0x3ceccb2f	0.02890548
239	0x3d662d2b	0.05619542
240	0xbbdc993e	-0.006732135
241	0x3c725c10	0.014792457
242	0xbdc36c08	-0.0954209
243	0xbbaca4d8	-0.0052686743
244	0x3c0f2460	0.0087367
245	0xbc0db4cd	-0.008649063
246	0x3cf687de	0.030094083
247	0x3da200ab	0.07910284
248	0x3c393304	0.011303667
249	0xbcd6d7b1	-0.026225897
250	0x3cd986f8	0.026553616
251	0xbd51b6d3	-0.051199745
252	0x3c87b320	0.016564906
253	0xbcf7b224	-0.030236311
254	0xbd90fd3d	-0.07079551
255	0xbd562f64	-0.05229129

std.constant7 f4 [128]
0	0xbc31bc01	-0.010848046
1	0x3c806cfc	0.015676968
2	0x3cbe9d15	0.023268262
3	0x3c6dd091	0.014515058
4	0xbb8a053e	-0.0042120507
5	0x3d46300b	0.04838566
6	0xbb98af80	-0.004659593
7	0x3c93c7de	0.01803964
8	0x3d89f737	0.067366056
9	0x3a271189	0.00063731574
10	0x3c2209ae	0.009890003
11	0x3d7fd46b	0.062458437
12	0x3d1a250a	0.03763298
13	0xbc04f05f	-0.00811395
14	0x3c005ba3	0.007834348
15	0x3c68990c	0.0141966455
16	0x3b29951e	0.0025876234
17	0x3ca600c3	0.020264035
18	0x3bfd297c	0.0077258926
19	0x3c7ec374	0.015549529
20	0x3c965b23	0.018354004
21	0x3c0034ce	0.00782509
22	0x3c707484	0.014676217
23	0xbc43fc43	-0.011961999
24	0x3bd0d806	0.0063734083
25	0x3ab90220	0.0014115013
26	0x3ce5c979	0.028050171
27	0x3c36334b	0.011120628
28	0x3d4abd1a	0.049496748
29	0x3c79b3ae	0.015240593
30	0x3d6e42d9	0.05816922
31	0x3cdcf226	0.026970934
32	0xbc17bca3	-0.009261283
33	0xbb04d876	-0.0020270622
34	0xbb4ae066	-0.0030956506
35	0x3a9b4d2c	0.001184856
36	0x3b13f388	0.0022575576
37	0x3c89c180	0.0168159
38	0x3cff6857	0.031177683
39	0x3c8b2f47	0.016990317
40	0xbc306b5a	-0.010767782
41	0x3bbeb74f	0.005820192
42	0xbb87c62e	-0.004143498
43	0x3d115f96	0.03549155
44	0x3de6262a	0.11237748
45	0x3c1b2c62	0.009471031
46	0x3bf769bc	0.0075504463
47	0x3c14b820	0.009077102
48	0x39bfe4d2	0.00036600843
49	0xbc7a5f2d	-0.015281481
50	0x3cc465b7	0.023974283
51	0x3cc7ad23	0.02437455
52	0xbbb0c838	-0.0053949617
53	0x3dab8a96	0.083760425
54	0x3d097c97	0.033566084
55	0x3cd815c7	0.026377572
56	0xbad53a82	-0.0016268047
57	0xbb2c3673	-0.0026277571
58	0x3c07db8c	0.00829209
59	0x3baeb720	0.005331889
60	0x3d0c6fb2	0.03428621
61	0x3b96a350	0.004597105
62	0xba64a182	-0.00087215763
63	0xbba63748	-0.005072508
64	0x3c8e5514	0.017374553
65	0x3c913d41	0.017729403
66	0x3caf1d22	0.021376196
67	0x3d043ad5	0.03228267
68	0xbbc5cacc	-0.006036138
69	0x3d32f7de	0.043693416
70	0x3be763f7	0.0070614773
71	0x3c9619a9	0.018322783
72	0x3bb1df6e	0.005428246
73	0xbc19c4dc	-0.009385314
74	0x3cb162cd	0.021653557
75	0x3c67c276	0.014145484
76	0x388c8550	6.7005516e-05
77	0x3c5517aa	0.01300613
78	0xbb083b73	-0.0020787388
79	0x3cf2073c	0.029544465
80	0x3c56e252	0.013115482
81	0x3d7a51e7	0.061113264
82	0x3be961ed	0.0071222694
83	0x3c5001dd	0.012695757
84	0x3d0046a9	0.031317387
85	0x3cced7ee	0.025249448
86	0xbb3a9a33	-0.0028473258
87	0x3b011b70	0.0019700192
88	0x3db85e8c	0.090024084
89	0x3c4087e9	0.0117511535
90	0xbadea98d	-0.0016987786
91	0x3db7cb37	0.08974307
92	0x3ce5a60a	0.028033275
93	0x3d2db0f8	0.0424051
94	0x3d1cc6c6	0.038275503
95	0x3d02eb88	0.0319629
96	0x3b0d6403	0.0021574504
97	0x3d86a2da	0.0657403
98	0x3bd9555e	0.006632491
99	0x3cdbda44	0.026837476
100	0xbb20db17	-0.002454465
101	0x3bd91ce4	0.0066257585
102	0xbc2e374c	-0.010633301
103	0xbbcea58e	-0.0063063568
104	0x3c9d0155	0.019165674
105	0x3ca2c6fa	0.01987027
106	0xbc0ba5f7	-0.008523456
107	0x3ba46542	0.0050169537
108	0x3cc24dc7	0.023718728
109	0x3c89e411	0.016832383
110	0x3c55ebb6	0.013056686
111	0x3c6f4cff	0.01460576
112	0xbbd9f2ca	-0.006651257
113	0x3ca2c40f	0.019868879
114	0x3c46d626	0.012136018
115	0x3b8e28de	0.004338368
116	0xbb32bf58	-0.0027274694
117	0xbb9ccc01	-0.0047850613
118	0xbb7fb987	-0.0039020495
119	0x3bfbecbb	0.0076881326
120	0x3d3fe6bd	0.04685091
121	0xbc329b0d	-0.010901225
122	0xbb141112	-0.0022593183
123	0xbb988f19	-0.0046557304
124	0xbc127649	-0.008939334
125	0x3d8cfb98	0.06883925
126	0x3c87c960	0.016575515
127	0x3bf0152b	0.007326742

std.constant8 f4 [128]
0	0x3c9107c3	0.017703896
1	0x3b4ff1ba	0.0031729774
2	0x3c81a1a6	0.01582415
3	0xbb3cf544	-0.0028832713
4	0xbc0e72ca	-0.00869436
5	0x3c9cb017	0.019126935
6	0xbc1b5ee6	-0.009483075
7	0x3ba81616	0.005129586
8	0x3c016064	0.0078965165
9	0x3b9a18ac	0.004702648
10	0x3b41ecd4	0.0029590623
11	0x3b3bb4cd	0.0028641701
12	0xbbbdfab8	-0.0057977103
13	0xbc84cfdc	-0.016212396
14	0xbb86c6bc	-0.0041130465
15	0xbc3ee83c	-0.011652049
16	0x3c00a8ff	0.007852792
17	0xbbae524b	-0.0053198687
18	0xbb4d4530	-0.0031321757
19	0xbba9c960	-0.0051814765
20	0x3b4d75e4	0.0031350786
21	0xbbe567ff	-0.0070009227
22	0x3c41745b	0.011807526
23	0x3c6b5aa3	0.014364871
24	0x3af209c8	0.001846605
25	0x3b43d551	0.0029881785
26	0xbc843497	-0.016138358
27	0x3b9340f9	0.0044938293
28	0xbc380923	-0.011232647
29	0xbbada1cc	-0.0052988287
30	0x37fbd0c0	3.0018738e-05
31	0xbae5505a	-0.001749526
32	0x3baafdd3	0.0052182465
33	0xbab0f618	-0.0013501076
34	0xbad35fda	-0.0016126588
35	0xbbd01158	-0.006349724
36	0x3c005d4f	0.0078347465
37	0x3bfd1cf3	0.0077243983
38	0xbaa910fa	-0.0012898736
39	0xbbf54576	-0.007485087
40	0xbc6cc771	-0.014451847
41	0x3a631588	0.0008662571
42	0xbc67f402	-0.014157297
43	0xbb0d33b1	-0.0021545703
44	0x3c04aa79	0.0080972845
45	0xbca898d8	-0.020580694
46	0x3bd8c81c	0.006615652
47	0xbb7bc89b	-0.003841913
48	0x3ba8811b	0.0051423437
49	0x3c84f692	0.016230855
50	0x3b4abcd6	0.003093531
51	0x3c5595c4	0.013036195
52	0xbbfc9bac	-0.007708987
53	0xbca321d1	-0.019913586
54	0xbbe0d45c	-0.0068612527
55	0xbbac7761	-0.0052632545
56	0xbb737365	-0.0037147638
57	0xbbb64902	-0.0055629024
58	0x3a2ae0ae	0.0006518465
59	0x38824b98	6.2129635e-05
60	0xbaeaf7fe	-0.0017926691
61	0xbb997798	-0.004683446
62	0xbb9f43c0	-0.0048603714
63	0xbc674dda	-0.014117682
64	0x3bc83001	0.006109238
65	0x3b699344	0.0035640756
66	0xbb4ef576	-0.0031579412
67	0xbad5f83a	-0.0016324588
68	0x3bcf97a1	0.0063352142
69	0xbcabc53e	-0.020968076
70	0x39d02684	0.00039701548
71	0xbb81351a	-0.003943098
72	0x3a645c7e	0.0008711292
73	0xbc5d83d1	-0.013520197
74	0x3b9b9e72	0.0047491128
75	0x3b871529	0.0041223955
76	0x3b9795c0	0.004626006
77	0x3b9fae7a	0.004873094
78	0x3c04d982	0.0081084985
79	0xbc72b45f	-0.014813512
80	0xbbcaa780	-0.0061845183
81	0x3ca1d440	0.019754529
82	0xbbac1d43	-0.0052525117
83	0xbb6aa562	-0.0035804142
84	0x3be353f5	0.0069374987
85	0x3bc9c5a5	0.0061575943
86	0x3b8c28ab	0.004277309
87	0x3b1dafe8	0.0024061147
88	0x3c6afcc1	0.014342488
89	0xbb460071	-0.0030212665
90	0x3bea8889	0.0071573895
91	0x3b0fb8cc	0.0021930216
92	0xbab53380	-0.0013824552
93	0xbca312eb	-0.019906482
94	0x3ca27486	0.019830953
95	0x3b17b871	0.0023150707
96	0xbc098859	-0.008394324
97	0x39ea10fa	0.00044644607
98	0x3bbee5d9	0.00582574
99	0x3b11452a	0.002216647
100	0x3c677c3b	0.01412874
101	0xbbd4d30a	-0.0064948844
102	0x3c71790d	0.014738333
103	0x3bc4c041	0.0060043638
104	0xbc17a3fe	-0.009255407
105	0xbb235c10	-0.00249267
106	0x3c63ef05	0.013911967
107	0xbbc4da71	-0.0060074856
108	0x3b19c3d8	0.002346268
109	0x3beb879a	0.007187796
110	0xbc631d98	-0.013862036
111	0x3a98a270	0.001164509
112	0x3bad2e9b	0.005285097
113	0xbbaba061	-0.0052376245
114	0x3bcbde41	0.006221563
115	0x3b8dd255	0.004328052
116	0xbc7f9bfa	-0.015601153
117	0xbb8e8b47	-0.0043500992
118	0x3c1a6eb0	0.009425804
119	0xbc80799a	-0.015682984
120	0xbc9858b8	-0.018596992
121	0x3c7bca22	0.015368016
122	0xbbbaf97d	-0.005706011
123	0xbbaa117b	-0.005190072
124	0xbc97d4ea	-0.018534143
125	0x3b4bd799	0.0031103848
126	0xbb9a473b	-0.0047081984
127	0xbb8db82f	-0.004324935

std.constant9 f4 [128]
0	0x3f800000	1.0
1	0x3f800000	1.0
2	0x3f800000	1.0
3	0x3f800000	1.0
4	0x3f800000	1.0
5	0x3f800000	1.0
6	0x3f800000	1.0
7	0x3f800000	1.0
8	0x3f800000	1.0
9	0x3f800000	1.0
10	0x3f800000	1.0
11	0x3f800000	1.0
12	0x3f800000	1.0
13	0x3f800000	1.0
14	0x3f800000	1.0
15	0x3f800000	1.0
16	0x3f800000	1.0
17	0x3f800000	1.0
18	0x3f800000	1.0
19	0x3f800000	1.0
20	0x3f800000	1.0
21	0x3f800000	1.0
22	0x3f800000	1.0
23	0x3f800000	1.0
24	0x3f800000	1.0
25	0x3f800000	1.0
26	0x3f800000	1.0
27	0x3f800000	1.0
28	0x3f800000	1.0
29	0x3f800000	1.0
30	0x3f800000	1.0
31	0x3f800000	1.0
32	0x3f800000	1.0
33	0x3f800000	1.0
34	0x3f800000	1.0
35	0x3f800000	1.0
36	0x3f800000	1.0
37	0x3f800000	1.0
38	0x3f800000	1.0
39	0x3f800000	1.0
40	0x3f800000	1.0
41	0x3f800000	1.0
42	0x3f800000	1.0
43	0x3f800000	1.0
44	0x3f800000	1.0
45	0x3f800000	1.0
46	0x3f800000	1.0
47	0x3f800000	1.0
48	0x3f800000	1.0
49	0x3f800000	1.0
50	0x3f800000	1.0
51	0x3f800000	1.0
52	0x3f800000	1.0
53	0x3f800000	1.0
54	0x3f800000	1.0
55	0x3f800000	1.0
56	0x3f800000	1.0
57	0x3f800000	1.0
58	0x3f800000	1.0
59	0x3f800000	1.0
60	0x3f800000	1.0
61	0x3f800000	1.0
62	0x3f800000	1.0
63	0x3f800000	1.0
64	0x3f800000	1.0
65	0x3f800000	1.0
66	0x3f800000	1.0
67	0x3f800000	1.0
68	0x3f800000	1.0
69	0x3f800000	1.0
70	0x3f800000	1.0
71	0x3f800000	1.0
72	0x3f800000	1.0
73	0x3f800000	1.0
74	0x3f800000	1.0
75	0x3f800000	1.0
76	0x3f800000	1.0
77	0x3f800000	1.0
78	0x3f800000	1.0
79	0x3f800000	1.0
80	0x3f800000	1.0
81	0x3f800000	1.0
82	0x3f800000	1.0
83	0x3f800000	1.0
84	0x3f800000	1.0
85	0x3f800000	1.0
86	0x3f800000	1.0
87	0x3f800000	1.0
88	0x3f800000	1.0
89	0x3f800000	1.0
90	0x3f800000	1.0
91	0x3f800000	1.0
92	0x3f800000	1.0
93	0x3f800000	1.0
94	0x3f800000	1.0
95	0x3f800000	1.0
96	0x3f800000	1.0
97	0x3f800000	1.0
98	0x3f800000	1.0
99	0x3f800000	1.0
100	0x3f800000	1.0
101	0x3f800000	1.0
102	0x3f800000	1.0
103	0x3f800000	1.0
104	0x3f800000	1.0
105	0x3f800000	1.0
106	0x3f800000	1.0
107	0x3f800000	1.0
108	0x3f800000	1.0
109	0x3f800000	1.0
110	0x3f800000	1.0
111	0x3f800000	1.0
112	0x3f800000	1.0
113	0x3f800000	1.0
114	0x3f800000	1.0
115	0x3f800000	1.0
116	0x3f800000	1.0
117	0x3f800000	1.0
118	0x3f800000	1.0
119	0x3f800000	1.0
120	0x3f800000	1.0
121	0x3f800000	1.0
122	0x3f800000	1.0
123	0x3f800000	1.0
124	0x3f800000	1.0
125	0x3f800000	1.0
126	0x3f800000	1.0
127	0x3f800000	1.0

std.constant10 f4 [128]
0	0xbc323af6	-0.010878315
1	0x3c817039	0.015800582
2	0x3cbf38b1	0.023342462
3	0x3c68418c	0.014175784
4	0xbb898646	-0.004196915
5	0x3d458473	0.048222017
6	0xbb989633	-0.004656577
7	0x3c92e681	0.017932178
8	0x3d897bee	0.06713091
9	0x3a2f789a	0.0006693691
10	0x3c1fcf22	0.009753974
11	0x3d7ecb82	0.0622058
12	0x3d1ae769	0.037818346
13	0xbc054f2e	-0.008136554
14	0x3bff70a7	0.0077954116
15	0x3c674d3d	0.014117536
16	0x3b205415	0.002446418
17	0x3ca7377d	0.020412201
18	0x3c011802	0.007879259
19	0x3c825eda	0.01591437
20	0x3c95af9a	0.01827221
21	0x3c0407b3	0.008058476
22	0x3c6e7811	0.014554993
23	0xbc43ba2b	-0.011946241
24	0x3bce3309	0.006292705
25	0x3acc57c9	0.0015590127
26	0x3ce6c032	0.028167818
27	0x3c35b8d5	0.011091431
28	0x3d4b4833	0.0496294
29	0x3c7b2a88	0.015329964
30	0x3d6d14ab	0.05788104
31	0x3cde0994	0.027104177
32	0xbc184008	-0.00929261
33	0xbaedce13	-0.001814308
34	0xbb53bcb5	-0.0032308523
35	0x3aaafa9b	0.0013044657
36	0x3b1a43b2	0.0023538885
37	0x3c8991d2	0.016793165
38	0x3cfc9baf	0.030835954
39	0x3c8bd5fb	0.017069807
40	0xbc2fe1f1	-0.010735021
41	0x3bcbb13d	0.006216197
42	0xbb7a35e5	-0.0038179096
43	0x3d11fa40	0.035639048
44	0x3de69c89	0.112603255
45	0x3c1adcc9	0.009452053
46	0x3bf4d0ef	0.007471196
47	0x3c1e79b6	0.009672573
48	0x3a1e473e	0.00060378376
49	0xbc7b3609	-0.015332707
50	0x3cc3d89b	0.023906996
51	0x3cc905f4	0.024538971
52	0xbbb073b0	-0.005384885
53	0x3dabb0bd	0.083833195
54	0x3d098108	0.03357032
55	0x3cdb06d2	0.02673665
56	0xbad9f098	-0.0016627489
57	0xbb30f580	-0.0027001798
58	0x3c080d39	0.008303934
59	0x3bb1b64f	0.005423344
60	0x3d0bc8d6	0.03412708
61	0x3b9db510	0.004812844
62	0xba610357	-0.00085835665
63	0xbba54961	-0.005044148
64	0x3c8dd8b6	0.01731525
65	0x3c8fdab1	0.017560335
66	0x3cadc4d8	0.021212026
67	0x3d048a6c	0.032358572
68	0xbbca1efb	-0.006168244
69	0x3d3274f0	0.04356855
70	0x3bed241c	0.0072369706
71	0x3c96ebbb	0.018422952
72	0x3bb9f71a	0.0056752088
73	0xbc18efa8	-0.009334482
74	0x3cb1c22e	0.021699037
75	0x3c62de75	0.013846983
76	0xb92f7ccd	-0.00016735792
77	0x3c57a7ba	0.013162548
78	0xbb0b5987	-0.002126308
79	0x3cf3b4b9	0.029749261
80	0x3c5b75ef	0.013394817
81	0x3d797f7c	0.060912594
82	0x3bec7a28	0.0072167106
83	0x3c531969	0.012884476
84	0x3d001521	0.03127015
85	0x3ccd44f6	0.025057297
86	0xbb396e52	-0.0028294516
87	0x3af42193	0.0018625729
88	0x3db76ea4	0.0895665
89	0x3c4412ae	0.011967344
90	0xbaf87b01	-0.0018957556
91	0x3db79848	0.08964592
92	0x3ce3c4a2	0.027803723
93	0x3d2e7eec	0.04260151
94	0x3d1cbc7f	0.0382657
95	0x3d034f3a	0.03205798
96	0x3b14a454	0.0022680955
97	0x3d886c31	0.06661261
98	0x3bd03bf1	0.006354802
99	0x3cdd39db	0.027005127
100	0xbb247102	-0.0025091772
101	0x3bdef009	0.0068035168
102	0xbc2d854e	-0.010590864
103	0xbbd1c414	-0.006401548
104	0x3c9dc43b	0.019258609
105	0x3ca14a3e	0.019688722
106	0xbc0b6323	-0.008507523
107	0x3babea33	0.0052464246
108	0x3cc3075f	0.023807226
109	0x3c8ac0cb	0.016937634
110	0x3c56309a	0.013073111
111	0x3c6f8f75	0.014621605
112	0xbbd75903	-0.0065718903
113	0x3ca28877	0.019840462
114	0x3c40cb86	0.011767274
115	0x3b8f7d76	0.00437897
116	0xbb2cea6a	-0.002638484
117	0xbba0f0ce	-0.0049115187
118	0xbb8179c7	-0.0039512846
119	0x3bfb628c	0.00767166
120	0x3d3fefbc	0.046859488
121	0xbc329ddc	-0.010901894
122	0xbb13f300	-0.002257526
123	0xbb930553	-0.0044867187
124	0xbc1274d6	-0.008938989
125	0x3d8cf081	0.0688181
126	0x3c89ba32	0.016812418
127	0x3bf076ae	0.0073383665

std.constant11 f4 [128, 7]
0	0x3d59cc08	0.053173095
1	0x3daaa7b9	0.08332772
2	0x3dc75922	0.097337976
3	0xbd83162a	-0.06400712
4	0xbdb40229	-0.087894745
5	0xbd4e7d89	-0.05041269
6	0x3cf2e6ab	0.029651007
7	0x3ad3cfac	0.0016159914
8	0x3cf2222a	0.029557306
9	0xbd8e3a51	-0.06944717
10	0x3d98595c	0.07438919
11	0xbd072888	-0.032997638
12	0xbd131df2	-0.03591723
13	0x3df61f27	0.120176606
14	0x3dde3c5f	0.108513586
15	0x3ddace5c	0.10683891
16	0x3d4b2154	0.04959233
17	0x3d566a67	0.052347567
18	0x3d75fa2e	0.060053043
19	0x3da93c0f	0.082634084
20	0xbd7d1901	-0.061791424
21	0x3d10b0cd	0.03532486
22	0xbdcf2729	-0.10114891
23	0x3d1aa31f	0.03775322
24	0x3d7d2c43	0.06180979
25	0xbcd1c82f	-0.02560815
26	0x3d11f822	0.03563703
27	0xbc54a2fe	-0.0129783135
28	0xbd1ff8a6	-0.03905549
29	0x3db70b24	0.08937672
30	0xbd0f6bc2	-0.035014875
31	0xbba518a6	-0.0050383387
32	0x3ca33ff6	0.01992796
33	0xbc7d1677	-0.015447251
34	0x3ccdaf02	0.025107864
35	0xbc8fafd5	-0.017539898
36	0xbd1775b3	-0.03697748
37	0xbd6a0787	-0.057136085
38	0x3d341bc0	0.043971777
39	0xbdc46b42	-0.0959077
40	0xbc2ce0f0	-0.010551676
41	0xbc9714f3	-0.018442607
42	0x3c89a98b	0.016804477
43	0xbdcab5b9	-0.09897942
44	0xbd96789f	-0.073472254
45	0x3d1931c4	0.037400976
46	0x3dbce480	0.092232704
47	0x3bcabbc2	0.0061869333
48	0x3c659c80	0.014014363
49	0xbd5de6d3	-0.05417521
50	0x3d226e32	0.03965587
51	0x3c155ae8	0.009115912
52	0x3dbda798	0.092604816
53	0x3dc4b0c7	0.0960403
54	0xbd27f17a	-0.041001774
55	0x3d6f57db	0.058433395
56	0x3d8ae110	0.067812085
57	0x3c419f1a	0.011817718
58	0x3c088c63	0.008334252
59	0x3d926fdc	0.07150242
60	0x3d945122	0.07242037
61	0xbbe0a81b	-0.0068559772
62	0xbb65107e	-0.0034952457
63	0xbda529f2	-0.08064641
64	0x3d20c839	0.039253447
65	0xbd5cfef0	-0.053954065
66	0x3d43cc13	0.047802042
67	0x3b732091	0.0037098269
68	0xbdcb1f74	-0.099181086
69	0x3c0fa7b4	0.008768011
70	0xbd9b9fc3	-0.075988315
71	0x3d5bb0db	0.05363546
72	0x3d8db4b2	0.069192305
73	0x3d074c6d	0.03303187
74	0x3dcab6e2	0.098981634
75	0x3df00557	0.117197685
76	0xbc8833d9	-0.016626285
77	0xbaa5ae40	-0.0012640432
78	0x3d89134c	0.06693134
79	0xbda4d9af	-0.08049332
80	0x3d471db9	0.04861233
81	0xbd7f28cb	-0.062294763
82	0xbd84f34e	-0.06491719
83	0xbc589746	-0.01321966
84	0x3d5c8031	0.05383319
85	0x3df417c1	0.11918593
86	0xbd9041f0	-0.070438266
87	0x3d855335	0.06510011
88	0x3d2f38be	0.042778723
89	0x3e0411f0	0.12897468
90	0x3e1f17f2	0.15536478
91	0xbd154e8d	-0.036451865
92	0x3cb960b2	0.022629116
93	0x3d6a38fd	0.057183255
94	0x3d81517a	0.063143685
95	0xbcf6dd83	-0.030134922
96	0x3d0bb212	0.034105368
97	0xbd806ba8	-0.06270534
98	0xbbaac4b1	-0.0052114357
99	0xb94c377e	-0.00019475629
100	0x3cb84685	0.022494564
101	0xbd22cd54	-0.039746597
102	0xbd4f35b0	-0.05058831
103	0x3c31e5af	0.0108579835
104	0x3b722c36	0.0036952621
105	0xbc65e0f2	-0.014030682
106	0xbd34a0c6	-0.044098638
107	0xbda1e774	-0.07905474
108	0xbd92d75f	-0.07169985
109	0x3bdb99cd	0.006701684
110	0x3c30d0f7	0.010792009
111	0xbda4df35	-0.08050386
112	0x3d21f57e	0.03954076
113	0x3d30c876	0.043159924
114	0x3dca7e9b	0.09887429
115	0x3bdf21df	0.0068094577
116	0x3d807ea8	0.06274158
117	0x3de1f1c4	0.11032441
118	0xbb2dc13e	-0.0026512886
119	0x3d9b4932	0.0758232
120	0x3bf5dff0	0.007503502
121	0xbd6480ec	-0.055787012
122	0xbd7d7192	-0.061875887
123	0xbd467f91	-0.0484615
124	0x3e04f141	0.12982656
125	0x3de8f553	0.11374917
126	0xbd9083ca	-0.07056387
127	0x3d1d2eb7	0.03837463
128	0xbd68685d	-0.056740154
129	0x3ceb253f	0.028704284
130	0x3d4d949b	0.05019055
131	0x3ddb1e2d	0.10699115
132	0x3c971540	0.01844275
133	0x3d0c24dc	0.03421484
134	0xbd914ad2	-0.07094349
135	0x3dd3232f	0.10309445
136	0x3d1040c0	0.035218
137	0xbbb55916	-0.0055343015
138	0xbc1bed18	-0.009516977
139	0x3e0d3d65	0.13792951
140	0x3dacfd7f	0.08446788
141	0xbd9cf4c1	-0.076638706
142	0xbdb303e8	-0.087409794
143	0x3d522158	0.05130133
144	0x3c8d1ae9	0.017224746
145	0x3de92c76	0.113854334
146	0x3d057d65	0.03259029
147	0x3cb02921	0.021503987
148	0xbd0ea075	-0.034820992
149	0xbb3f0a9c	-0.002915061
150	0x3da0777a	0.07835288
151	0x3d06bbc0	0.032893896
152	0x3d7c2990	0.061563075
153	0xbc3bd849	-0.011465141
154	0x3d110984	0.035409465
155	0x3d5e9e04	0.054349914
156	0xba3578e2	-0.0006922615
157	0xbd751d4a	-0.059842385
158	0xbb5967c0	-0.0033173412
159	0x3ca1837a	0.019716013
160	0x3dc388d5	0.09547583
161	0xbc678f63	-0.014133307
162	0xbc826bd1	-0.015920551
163	0x3d63593d	0.055505026
164	0xbd69ec20	-0.057109952
165	0x3d9150cc	0.07095489
166	0xbc3e039a	-0.011597538
167	0x3c9316fa	0.017955292
168	0xbdb85e0c	-0.09002313
169	0x3d6c4523	0.05768312
170	0xbdd51d17	-0.10405939
171	0xbda69977	-0.0813474
172	0xbc4f14b2	-0.0126392115
173	0x3cb82a0d	0.022480989
174	0xbd96285a	-0.07331915
175	0x3c739fef	0.014869674
176	0x3d7a19f6	0.061059915
177	0x3c4dc13b	0.012558277
178	0xbcaac5b4	-0.020846225
179	0x3d90c948	0.07069641
180	0x3d73f9ef	0.059564527
181	0x3c6f9f8e	0.014625443
182	0x3d509294	0.050921038
183	0x3d90b442	0.070656314
184	0x3baad732	0.0052136416
185	0xbd821d9b	-0.06353303
186	0x3dbac683	0.09119894
187	0xbd3d99a9	-0.04628912
188	0xbd9dec2a	-0.0771106
189	0xbdc6763c	-0.0969052
190	0x3d80be32	0.06286277
191	0x3d9ac8dd	0.07557843
192	0xbd2ac704	-0.041693702
193	0x3b9aef15	0.004728208
194	0xbcc3f191	-0.023918899
195	0x3cf58a1f	0.029973088
196	0x3d84a97f	0.06477641
197	0x3c34639c	0.011010077
198	0x3d814937	0.06312793
199	0xbd854f47	-0.065092616
200	0xbdadc919	-0.08485622
201	0xbda8d0fe	-0.08242987
202	0x3b69d725	0.0035681215
203	0xbd449903	-0.047997486
204	0xbc4bf5b7	-0.01244872
205	0xbcb6cb0d	-0.022313619
206	0xbd24edd4	-0.040265873
207	0x3a87a684	0.0010349308
208	0xbc6909a3	-0.014223489
209	0xbd2ad4fa	-0.041707017
210	0x3c5b2ecd	0.013377857
211	0x3d8eeb63	0.0697849
212	0x3d758d9d	0.059949506
213	0xbc7b8cc8	-0.015353389
214	0xbc695964	-0.014242504
215	0xbcf371bf	-0.029717324
216	0x3d9dbb9f	0.077018015
217	0x3dd1cbac	0.102439255
218	0xbd81d631	-0.06339682
219	0x3dd13c39	0.10216565
220	0xbb9ee3e6	-0.004848945
221	0x3d914eda	0.07095118
222	0x3dd0eb57	0.102011375
223	0x3dad4d40	0.08462
224	0x3db077a0	0.08616567
225	0xbdca4035	-0.09875528
226	0x3db3c854	0.08778444
227	0xbd88ddce	-0.06682931
228	0x3dc8d039	0.0980534
229	0xbda88a47	-0.08229499
230	0xbd865666	-0.06559448
231	0x3d2a904f	0.04164153
232	0x3d045098	0.032303423
233	0x3d0182e2	0.03161896
234	0xbcd0d0db	-0.025490215
235	0x3dc07b68	0.09398538
236	0x3a646682	0.00087127846
237	0x3dc8c8de	0.098039374
238	0x3d12b3ab	0.035815876
239	0xbcfe8bd1	-0.031072529
240	0xbddf80aa	-0.109132126
241	0x3cbc15a6	0.022959542
242	0x3c9d9be6	0.019239377
243	0xbd867290	-0.0656482
244	0xbd99c6a8	-0.07508594
245	0x39123a17	0.00013945285
246	0xbd15ec03	-0.03660203
247	0xbd4d0bd1	-0.050060097
248	0xbdc63120	-0.096773386
249	0x3d45448b	0.04816107
250	0x3d91687c	0.07100007
251	0x37a12ab1	1.9212575e-05
252	0xbc884fe5	-0.01663966
253	0xbd431c37	-0.04763433
254	0xbd8a377e	-0.067488655
255	0x3d3024cd	0.043003846
