AirQualityApp/AirQualityApp.Android/Assets/CopenhagenShort.tflite (tflite, 814948 bytes, 24 tensors)

std.constant3 f4 [128, 128]
-0.06480079 -0.035265926 0.027550643 0.010621642 0.011238622 0.029923467 0.0040716343 0.06725119
-0.035092726 0.05617048 0.055180214 0.049402732 0.019763572 0.0058354754 0.048195995 0.0509243
-0.035476215 -0.016853632 0.038114846 -0.022472698 0.019557806 0.013849101 -0.03903499 0.012634658
0.019460753 0.05825005 0.0048027886 0.007111951 0.06348264 0.03445917 -0.021922747 0.013692589
0.04887608 0.009665731 0.039087854 -0.038179085 -0.08760404 0.026576474 -0.07431138 0.050233558
-0.050537277 -0.1048181 0.009420763 -0.00024028937 0.012313921 -0.0051303837 -0.0008565895 0.013993073
-0.014088274 -0.02607856 0.03995943 -0.043182395 0.013987816 -0.038595993 0.0038090823 0.039765302
-0.026632475 -0.041819304 0.051786974 -0.10877797 -0.07669484 0.08168079 0.02515677 0.07405929
0.12619007 0.019659925 -0.013899549 0.06010986 0.1012793 0.047007587 0.031987265 -0.033438936
-0.031614307 0.057338696 0.07797221 -0.013458729 0.0051185032 0.05147892 0.0012635994 0.021941636
-0.0042216703 -0.0690436 -0.025692988 -0.026338676 0.05617556 0.0010955285 -0.019978419 -0.023249662
0.053333905 0.013676383 0.019365884 -0.0023782356 -0.0111758895 -0.06726235 0.034268066 -0.059437312
0.11057072 0.01972454 0.031291373 0.046188213 -0.023318872 0.027177311 -0.0049821357 0.0037208837
-0.030867094 -0.07602799 0.048782613 0.032959778 -0.008213904 0.0057565384 -0.04993776 0.0028551563
-0.0011246856 0.03676988 -0.02086466 -0.018133113 0.0241831 -0.014938439 -0.013270103 -0.036961105
0.035133928 0.06770292 -0.015782861 -0.031293925 0.056938067 -0.0760252 -0.029782966 -0.051952347
0.08199385 0.0020438673 -0.0028988705 0.0052718916 -0.07428528 0.016464269 -0.040000275 0.017153177
0.06634621 -0.018708244 0.075387806 0.08767543 -0.0054293745 -0.015908696 0.011392316 -0.031413574
0.04703505 -0.019698527 -0.019744024 -0.061427858 -0.00766613 -0.008267548 0.0061432105 -0.029433114
0.029278347 -0.015404698 -0.10161188 -0.09207241 0.0042208373 0.017162807 0.06202493 0.06770524
-0.02166715 0.042426094 0.022423279 -0.07660009 0.018070798 -0.0013092095 -0.015418331 0.03855758
0.016232753 -0.03333586 -0.019130867 -0.023610845 7.36732e-05 0.043962285 0.01613239 -0.0632264
-0.058069434 -0.034143463 0.01909123 0.01045094 -0.017284442 0.012522121 0.06101706 0.03666068
0.010895032 0.043399498 -0.012325386 -0.022600655 0.006458289 0.016919376 -0.006633505 0.010733412
0.040070046 0.011468147 0.059224103 0.010830991 -0.0683917 -0.0063589136 -0.032856308 0.010293914
0.00927439 -0.05289732 -0.016174579 0.020061098 0.0041017756 0.009992464 0.0010090512 -0.019304592
0.024192773 -0.057776548 0.045117974 0.093284644 0.040406078 0.04051477 0.008451177 0.023859594
-0.056976523 -0.009198403 0.041876502 -0.0010354482 -0.00028326735 -0.017633956 -0.006937923 0.027541894
0.042369146 0.028791888 0.0101014795 -0.046574958 0.051343232 0.015931465 -0.11857943 -0.019115778
-0.022891931 0.04098665 -0.013006481 0.011321558 -0.08492736 -0.031746775 -0.045228448 -0.018623017
-0.018597273 0.0005515297 0.014258513 -0.018691892 0.03336234 -0.058412142 0.0036615795 0.0022147372
-0.0022776253 -0.058003504 -0.025448212 -0.05347479 0.08163195 0.032268815 -0.08172046 0.02046476
00000000: 47b6 84bd 0173 10bd e3b1 e13c 6506 2e3c
00000010: 3222 383c 0f22 f53c 586b 853b feba 893d
00000020: 64bd 0fbd 0413 663d a604 623d 855a 4a3d
00000030: 37e7 a13c 8437 bf3b 2a69 453d 0096 503d
00000040: 824f 11bd a110 8abc 501e 1c3d aa18 b8bc
00000050: b137 a03c 57e7 623c 27e3 1fbd 9901 4f3c
00000060: 286c 9f3c 9b97 6e3d b660 9d3b 5e0b e93b
00000070: 3003 823d 0f25 0d3d 5597 b3bc e156 603c
00000080: 4932 483d 045d 1e3c 961a 203d ac61 1cbd
00000090: bf69 b3bd e8b6 d93c 9130 98bd b4c1 4d3d
000000a0: 2d00 4fbd dfaa d6bd 8b59 1a3c 30f6 7bb9
000000b0: 54c0 493c c71c a8bb c08c 60ba 3443 653c
000000c0: 81d2 66bc b4a2 d5bc 80ac 233d 06e0 30bd
000000d0: 272d 653c d516 1ebd cca1 793b f1e0 223d
000000e0: 592c dabc b84a 2bbd 941e 543d fcc6 debd
000000f0: 2f12 9dbd 4248 a73d 9215 ce3c 66ac 973d
00000100: f837 013e da0d a13c efba 63bc c235 763d
00000110: 866b cf3d 078b 403d 1405 033d 44f7 08bd
00000120: 017e 01bd fbdb 6a3d e5af 9f3d 0082 5cbc
00000130: 1eb9 a73b 8fdb 523d 5c9f a53a f2be b33c
00000140: f055 8abb bb66 8dbd 1a7a d2bc 35c4 d7bc
00000150: 5818 663d d697 8f3a c8a9 a3bc 1376 bebc
00000160: a774 5a3d e812 603c 34a5 9e3c 2cdc 1bbb
00000170: 141b 37bc d8c0 89bd ac5c 0c3d 8a74 73bd
00000180: e772 e23d 5c95 a13c 622b 003d da2f 3d3d
00000190: 3807 bfbc f4a2 de3c 2f41 a3bb 12da 733b
000001a0: fddc fcbc 90b4 9bbd 47d0 473d d500 073d
000001b0: 9c93 06bc 58a1 bc3b 898b 4cbd 931d 3b3b
000001c0: 306a 93ba 049c 163d 5dec aabc e58b 94bc
000001d0: a31b c63c 5bc0 74bc d96a 59bc 8764 17bd
000001e0: 98e8 0f3d d4a7 8a3d 0f4b 81bc 0f2e 00bd
000001f0: e437 693d 1ab3 9bbd 68fb f3bc fccb 54bd
00000200: 64ec a73d 67f2 053b fafa 3dbb d5bf ac3b
00000210: e222 98bd 13e0 863c 54d7 23bd d284 8c3c
00000220: 86e0 873d 0842 99bc ec64 9a3d 2d8f b33d
00000230: e5e8 b1bb f452 82bc d6a6 3a3c 85ab 00bd
00000240: d3a7 403d ce5e a1bc 38be a1bc c79b 7bbd
00000250: 2934 fbbb 9c74 07bc fc4c c93b b71d f1bc
00000260: 25d9 ef3c fd63 7cbc e419 d0bd 7690 bcbd
00000270: f34e 8a3b 0499 8c3c da0d 7e3d 0ba9 8a3d
00000280: 4f7f b1bc fcc6 2d3d 06b1 b73c 82e0 9cbd
00000290: 3609 943c c899 abba 2b9d 7cbc 8eee 1d3d
000002a0: 8dfa 843c 2f8b 08bd 56b8 9cbc 886b c1bc
000002b0: 0081 9a38 cc11 343d 1328 843c d87c 81bd
000002c0: 37da 6dbd 04da 0bbd 3665 9c3c 6b3a 2b3c
000002d0: 1a98 8dbc 9529 4d3c 06ed 793d 8229 163d
000002e0: 1481 323c acc3 313d 6af0 49bc 0225 b9bc
000002f0: 0ea0 d33b 819a 8a3c e05d d9bb 31db 2f3c
00000300: 7d20 243d e5e4 3b3c f994 723d 7874 313c
00000310: f310 8cbd 6f5e d0bb 5694 06bd cea7 283c
00000320: 9cf3 173c dcaa 58bd 8d80 84bc 2c57 a43c
00000330: 3068 863b 6fb7 233c 2442 843a aa24 9ebc
00000340: ec2f c63c 1aa7 6cbd a0cd 383d 050c bf3d
00000350: d880 253d d1f2 253d ce76 0a3c 3275 c33c
00000360: 3760 69bd e6b4 16bc b286 2b3d e0b7 87ba
00000370: 8083 94b9 1675 90bc 8457 e3bb 8a9f e13c
00000380: 458b 2d3d f7dc eb3c ad80 253c 62c5 3ebd
00000390: 484d 523d b482 823c c6d9 f2bd b198 9cbc
000003a0: dc87 bbbc 9ee1 273d 2319 55bc 0e7e 393c
000003b0: 65ee adbd e808 02bd 7741 39bd 4c8f 98bc
000003c0: 4f59 98bc 8894 103a 8a9c 693c bd1f 99bc
000003d0: f3a6 083d 9241 6fbd 1cf7 6f3b 2025 113b
000003e0: 3644 15bb 1595 6dbd c578 d0bc 6208 5bbd
000003f0: a72e a73d 4e2c 043d 0e5d a7bd b6a5 a73c

std.constant4 f4 [128, 128]
-0.008159864 0.013110955 -0.030742537 -0.08577415 0.040955577 -0.052706607 0.012166957 -0.038858924
0.021569408 -0.04903497 0.066740364 0.0067896694 -0.01018236 0.026367445 0.019568484 0.02198461
0.066969074 0.035378695 -0.010408752 0.03181109 -0.07359281 -0.03107092 -0.037427716 0.0052545173
0.0221325 -0.09792809 0.02147568 -0.008681612 0.07249975 0.006826021 -0.0617612 -0.061686978
-0.036086366 -0.09997106 0.05811251 0.0754391 0.05128266 -0.06288362 -0.058313236 0.022760522
-0.0010654023 0.0140906675 0.0067494838 0.0128305955 -0.058832712 0.010797675 -0.032375153 0.065270275
-0.022124857 -0.022120118 0.026843216 -0.047006205 -0.003726041 -0.023220416 0.0703416 0.0029043313
0.015464338 -0.006798111 -0.04759889 0.006033859 -0.0047393274 -0.002916629 -0.034519803 0.037233636
-0.03840685 0.09163535 0.037775815 -0.054910917 0.010464491 0.049895126 0.017000055 -0.07354169
0.052596994 0.13174118 0.024840182 0.15124182 0.09451319 -0.06463367 0.03986896 0.066973306
0.027682012 -0.06191129 -0.008480462 -0.05528865 -0.079864845 -0.02194041 -0.009439809 -0.029553574
-0.12867862 0.018407475 -0.11652589 0.062411785 0.06054844 0.017424215 0.050307687 0.07224727
0.040057372 -0.0044586062 0.02982679 -0.03755614 -0.06801408 -0.06792716 0.053885005 -0.00038781576
-0.055933222 -0.067370914 0.048361644 -0.0074283686 -0.0013400298 0.012180931 0.02078441 0.012970512
0.015259629 -0.014251387 -0.025280839 -0.016615896 -0.017667415 0.031135341 -0.03555639 0.097593196
0.056162808 0.013857531 0.0027421145 0.04854565 0.017900497 0.013660262 -0.015116343 -0.04434292
-0.05384226 0.099622265 0.038437076 0.032297764 0.09460746 0.0015752015 -0.017486343 0.015661493
0.0012312394 0.01843789 -0.0028441085 -0.018851332 -0.078511566 0.007670592 0.009129646 0.026347237
0.06357726 -0.03443546 -0.003924098 -0.07384538 0.021300182 0.058572855 0.023794927 0.07895053
-0.043924153 -0.032382194 -0.08093722 -0.007697011 0.026967438 0.009845351 -0.0036969604 0.017822394
0.031635545 -0.007161554 -0.0015961248 -0.071533404 0.040588353 -0.08029647 0.024512755 0.021303136
-0.02743913 -0.01834007 0.058249038 -0.052942812 0.014087863 -0.027777588 0.06811475 0.0140943695
0.026852194 -0.04413002 0.045041006 0.04924921 0.031954505 -0.008886538 0.01897444 -0.004150886
-0.053253017 -0.02737496 0.052725494 0.099834636 -0.021978991 -0.02364776 -0.05088749 -0.10149059
-0.054261323 0.035365436 -0.003460916 -0.013704395 0.05611906 0.009901476 0.042217772 -0.024494898
0.02770063 -0.021637022 -0.044635087 -0.033258215 -0.04838378 -0.08770095 -0.02148525 0.0029590596
-0.0014129663 0.04456186 0.012432591 -0.015270091 0.06525358 -0.045457095 -0.02630207 0.04980088
0.0043753823 -0.006384045 0.007681237 0.11433247 -0.06511915 0.005087653 -0.05089308 -0.03816544
0.023545768 -0.09902068 -0.014570506 -0.03561718 0.028219394 0.0016032932 -0.0022006477 -0.06423405
0.007239907 -0.07703758 -0.009007547 0.041433744 -0.052287236 -0.04852987 0.027588246 -0.0055714557
-0.019314172 -0.017770745 -0.005212456 -0.04663838 -0.032090284 0.024638284 -0.0005659582 -0.046037838
-0.03311514 -0.0072265333 -0.09701101 -0.04530461 0.11945058 0.05778543 0.0057150777 -0.044430062
00000000: f3b0 05bc 55cf 563c c6d7 fbbc 5caa afbd
00000010: 09c1 273d e2e2 57bd eb57 473c 892a 1fbd
00000020: 54b2 b03c e5d8 48bd 2caf 883d e07b de3b
00000030: ead3 26bc 8a00 d83c 164e a03c 1219 b43c
00000040: 1527 893d 40e9 103d 7889 2abc 584c 023d
00000050: d4b7 96bd 7188 febc ce4d 19bd 162e ac3b
00000060: 374f b53c 868e c8bd c4ed af3c 523d 0ebc
00000070: c07a 943d d0ac df3b 50f9 7cbd 7cab 7cbd
00000080: 4ccf 13bd a1bd ccbd 6207 6e3d d17f 9a3d
00000090: c40d 523d 21c9 80bd dcd9 6ebd 4674 ba3c
000000a0: f8a4 8bba 8bdc 663c c62a dd3b 6b37 523c
000000b0: 92fa 70bd bbe8 303c cf9b 04bd 6cac 853d
000000c0: 303f b5bc 4035 b5bc 4ee6 db3c 9489 40bd
000000d0: 9830 74bb be38 bebc 420f 903d 9856 3e3b
000000e0: 225e 7d3c b0c2 debb 0ef7 42bd aeb7 c53b
000000f0: 5c4c 9bbb ea24 3fbb a364 0dbd 4c82 183d
00000100: 8050 1dbd 50ab bb3d d0ba 1a3d 45ea 60bd
00000110: 4273 2b3c d55e 4c3d b343 8b3c 079d 96bd
00000120: f26f 573d 29e7 063e a37d cb3c 23df 1a3e
00000130: 2290 c13d a85e 84bd a24d 233d 4d29 893d
00000140: 63c5 e23c b196 7dbd a3f1 0abc 5a76 62bd
00000150: 2e90 a3bd 60bc b3bc 6ea9 1abc 561a f2bc
00000160: 54c4 03be 46cb 963c 20a5 eebd 80a3 7f3d
00000170: a401 783d 3abd 8e3c 6f0f 4e3d 60f6 933d
00000180: 3313 243d 8019 92bb 5057 f43c 78d4 19bd
00000190: f74a 8bbd 651d 8bbd 86b6 5c3d c053 cbb9
000001a0: 3c1a 65bd c3f9 89bd dc16 463d ac69 f3bb
000001b0: f0a3 afba 8792 473c 1144 aa3c 4582 543c
000001c0: 8603 7a3c a67e 69bc c319 cfbc 0f1e 88bc
000001d0: 41bb 90bc 8b0f ff3c 94a3 11bd f1de c73d
000001e0: f90a 663d b30a 633c 0cb5 333b ced7 463d
000001f0: 10a4 923c 4bcf 5f3c 8aaa 77bc eca0 35bd
00000200: b489 5cbd c206 cc3d 3270 1d3d a94a 043d
00000210: 8ec1 c13d fe76 ce3a 853f 8fbc 884c 803c
00000220: 8a61 a13a 0f0b 973c 3964 3abb 1c6e 9abc
00000230: acca a0bd 9759 fb3b 8394 153c 29d6 d73c
00000240: cb34 823d 320c 0dbd b895 80bb 3f3c 97bd
00000250: b87d ae3c 17ea 6f3d 94ed c23c d1b0 a13d
00000260: d0e9 33bd 31a3 04bd 6ac2 a5bd 3537 fcbb
00000270: d1ea dc3c 654e 213c b448 72bb 4500 923c
00000280: 4694 013d 78ab eabb 1035 d1ba 1b80 92bd
00000290: f93f 263d 7a72 a4bd f9ce c83c ea83 ae3c
000002a0: 07c8 e0bc ea3d 96bc 8b96 6e3d 90da 58bd
000002b0: c8d0 663c d38d e3bc bf7f 8b3d 12ec 663c
000002c0: 22f9 db3c aec1 34bd eb7c 383d 8ab9 493d
000002d0: bae2 023d d898 11bc 4970 9b3c 2804 88bb
000002e0: d61f 5abd 7441 e0bc b0f6 573d 1a76 cc3d
000002f0: 490d b4bc f2b8 c1bc 676f 50bd 4cda cfbd
00000300: 1f41 5ebd 59db 103d 89d0 62bb 6688 60bc
00000310: 19dd 653d cd39 223c 8bec 2c3d 86a9 c8bc
00000320: 6eec e23c 2040 b1bc 48d3 36bd c439 08bd
00000330: 122e 46bd 8e9c b3bd d601 b0bc c8ec 413b
00000340: 4833 b9ba 7f86 363d 11b2 4b3c 672f 7abc
00000350: aba3 853d 3831 3abd 7077 d7bc 02fc 4b3d
00000360: 5e5f 8f3b 4031 d1bb e3b2 fb3b 2427 ea3d
00000370: 305d 85bd 54b6 a63b 4375 50bd 5d53 1cbd
00000380: 0ee3 c03c 5bcb cabd 22b9 6ebc 52e3 11bd
00000390: 5c2c e73c 9825 d23a be38 10bb 248d 83bd
000003a0: be3c ed3b e1c5 9dbd 6494 13bc 6eb6 293d
000003b0: 242b 56bd 42c7 46bd bf00 e23c c290 b6bb
000003c0: c138 9ebc f493 91bc 40cd aabb e307 3fbd
000003d0: 1a71 03bd 3ad6 c93c d05c 14ba 2c92 3cbd
000003e0: bea3 07bd 8ecc ecbb b5ad c6bd 5491 39bd
000003f0: 81a2 f43d 6ab0 6c3d 8c45 bb3b 4cfc 35bd

std.constant5 f4 [128, 128]
0.010125097 0.005765905 0.025782084 -0.034071755 0.029936882 -0.01756318 0.010488138 0.009700807
0.014925711 0.033870652 0.006898565 -0.042508915 -0.05987374 -0.03897213 0.039091293 -0.05456803
0.03497672 0.048429538 -0.053051464 -0.051183462 0.0072044423 -0.027418531 0.02023184 -0.032480635
0.08109335 0.012822906 -0.010973677 -0.04606077 0.03740891 -0.013358405 -0.00289556 -0.066930026
0.030464904 0.0955988 4.377216e-08 0.026173716 0.07027671 -0.004114222 -0.027186086 0.016572515
0.04780417 -0.0011542398 0.02108071 0.07189097 0.006677274 0.033919644 0.017371308 0.0072500547
0.07721108 -0.051981848 0.04696102 0.025724253 -0.008272664 0.00045133987 -0.05927625 -0.1114346
-0.04871298 -0.0012040986 0.0049538426 -0.02652937 -0.018751033 -0.0081324065 0.0699863 0.001578772
0.0047505647 0.0089001665 0.0030689775 -0.053298704 -0.003320246 0.0017237719 0.06568272 0.017135061
0.03943977 0.013409818 -0.0051521347 0.021216068 -0.018757224 -0.003320344 -0.047663018 0.013653966
0.073718324 0.02460611 -0.0012595635 0.027714226 -0.019420877 -0.023688937 0.023488663 0.07678218
0.04996184 0.021727074 -0.02230575 -0.101223715 -0.053417195 0.02422544 0.01785198 -0.056265175
0.005686963 0.022318276 -0.027251447 0.043584213 -0.032808803 0.026918516 0.06813737 0.00612481
0.030694146 -0.015189902 -0.013044392 0.017714286 -0.02372489 -0.048408166 0.041041728 0.011118544
0.065659344 -0.030720983 0.04463033 -0.016421434 -0.00784892 0.02380141 0.03131917 0.0071436753
-0.026361395 -0.016444307 -0.060639907 -0.005714463 -0.0352637 -0.04999166 -0.02929267 0.044895537
-0.0017026352 0.009188716 -0.047001697 0.014207286 0.0146830585 0.025517836 -0.0016453343 0.009179896
-0.049819086 0.08117795 0.018860899 -0.022572935 -0.022859449 0.05159589 0.06004724 0.07833741
-0.025881117 0.06507619 0.04688434 -0.016661208 0.09421994 -0.07634008 0.077719264 0.05013496
-0.0072933435 -0.029789751 -0.044692725 0.034807324 0.014867534 -0.0040754196 -0.053942613 0.006680399
-0.020083126 -0.018959632 -0.034270648 -0.04472622 0.026879681 -0.11225965 -0.024899878 0.036276385
0.070586175 0.027791504 0.027036821 0.023070727 0.0042271754 -0.013875704 -0.053464472 -0.000418582
-0.015984133 0.029386632 0.0055835033 -0.033086162 -0.00033411384 0.008933915 0.02181065 0.090077944
-0.07365876 0.005483793 0.022089558 0.016334519 0.04105417 0.046819158 0.028325144 -0.018995218
-0.022599602 -0.04092545 0.023108747 0.015585812 0.04646462 -0.01271058 -0.020273477 -0.017515797
0.04156708 0.061050173 0.07307648 0.000984041 -0.06568784 0.025328625 -0.0655886 0.06680396
-0.007872191 -0.036582228 -0.01532768 -0.019802138 -0.03380196 0.009723622 -0.011974538 -0.03862401
-0.0028307661 -0.049698822 0.038349696 -0.021099115 -0.044198528 -0.05443876 0.07630192 0.01667295
0.020451732 0.031081716 0.0187965 -0.015136122 0.065163605 0.021667942 0.002287996 -0.0063174125
0.014546925 0.068441994 0.011698421 -0.0026873099 0.0271414 -0.02815096 -0.025376054 0.029813567
0.02786934 -0.008777963 0.014356583 -0.041753046 0.011235248 0.008238114 0.00728804 0.013362277
-0.048780754 -0.0012443699 -0.0026516141 0.013779826 -0.034447394 0.0038233888 0.057252232 0.099610895
00000000: bce3 253c ebef bc3b f334 d33c d38e 0bbd
00000010: 313e f53c a8e0 8fbc 70d6 2b3c 22f0 1e3c
00000020: f88a 743c f4bb 0a3d 5c0d e23b d41d 2ebd
00000030: 2b3e 75bd 3da1 1fbd 311e 203d ba82 5fbd
00000040: c043 0f3d 0d5e 463d 7e4c 59bd c0a5 51bd
00000050: 3e13 ec3b d49c e0bc 3ebd a53c 6a0a 05bd
00000060: 4514 a63d 2a17 523c f0ca 33bc 38aa 3cbd
00000070: 163a 193d 36dd 5abc 70c3 3dbb 9c12 89bd
00000080: 8991 f93c 4ec9 c33d 0000 3c33 436a d63c
00000090: 3ced 8f3d 98d0 86bb 5bb5 debc 15c3 873c
000000a0: 4ece 433d dc49 97ba 74b1 ac3c 933b 933d
000000b0: 09cd da3b 53ef 0a3d 464e 8e3c de91 ed3b
000000c0: d820 9e3d ebea 54bd 335a 403d abbb d23c
000000d0: 118a 07bc d0a1 ec39 a7cb 72bd d337 e4bd
000000e0: 4387 47bd d8d2 9dba d853 a23b 1f54 d9bc
000000f0: c49b 99bc c93d 05bc fa54 8f3d ccee ce3a
00000100: a0aa 9b3b 01d2 113c e620 493b be4f 5abd
00000110: 7c98 59bb 30f0 e13a a984 863d d45e 8c3c
00000120: 998b 213d dab4 5b3c 3dd3 a8bb 52cd ad3c
00000130: c0a8 99bc 219a 59bb 4c3a 43bd e2b4 5f3c
00000140: a2f9 963d c192 c93c f017 a5ba f208 e33c
00000150: 8818 9fbc 4d0f c2bc 4c6b c03c fa3f 9d3d
00000160: c9a4 4c3d fafc b13c 8cba b6bc 614e cfbd
00000170: fdcb 5abd 6e74 c63c 513e 923c 5076 66bd
00000180: b459 ba3b d1d4 b63c 6d3e dfbc 5c85 323d
00000190: 8662 06bd 3884 dc3c 9b8b 8b3d a1b2 c83b
000001a0: 4a72 fb3c 11df 78bc 25b8 55bc 8d1d 913c
000001b0: b35a c2bc a447 46bd 5f1b 283d 8e2a 363c
000001c0: 6878 863d 92aa fbbc 4bce 363d 3e86 86bc
000001d0: c298 00bc 2dfb c23c 8848 003d 7e15 ea3b
000001e0: daf3 d7bc 36b6 86bc 8d61 78bd 6440 bbbb
000001f0: ab70 10bd 0ec4 4cbd 2ef7 efbc 62e4 373d
00000200: f52a dfba 458c 163c da84 40bd adc5 683c
00000210: 3691 703c c80a d13c 42a8 d7ba 4667 163c
00000220: 190f 4cbd a040 a63d 2c82 9a3c e0ea b8bc
00000230: bd43 bbbc 3656 533d 18f4 753d 5d6f a03d
00000240: a304 d4bc aa46 853d cb09 403d 167d 88bc
00000250: 62f6 c03d 3058 9cbd 472b 9f3d 515a 4d3d
00000260: 00fd eebb a309 f4bc b80f 37bd 2092 0e3d
00000270: f596 733c 198b 85bb eef2 5cbd 40e7 da3b
00000280: 5e85 a4bc 3b51 9bbc 615f 0cbd d732 37bd
00000290: c732 dc3c 63e8 e5bd d4fa cbbc 8c96 143d
000002a0: 7c8f 903d 02ab e33c 537c dd3c d2fe bc3c
000002b0: 1e84 8a3b ec56 63bc 90fd 5abd 2075 dbb9
000002c0: 28f1 82bc 3cbc f03c d2f5 b63b 5b85 07bd
000002d0: 002c afb9 8e5f 123c 40ac b23c c97a b83d
000002e0: 67da 96bd 64b1 b33b 29f5 b43c f8cf 853c
000002f0: 6b28 283d 72c5 3f3d 220a e83c dc9b 9bbc
00000300: cd22 b9bc 72a1 27bd 8e4e bd3c a25b 7f3c
00000310: af51 3e3d 0940 50bc 9014 a6bc 4a7d 8fbc
00000320: 3e42 2a3d bf0f 7a3d 1fa9 953d f0fa 803a
00000330: 5987 86bd fa7d cf3c 5153 86bd 84d0 883d
00000340: 5dfa 00bc 3fd7 15bd f320 7bbc 1838 a2bc
00000350: ed73 0abd d44f 1f3c da30 44bc 3634 1ebd
00000360: 6084 39bb fe90 4bbd 9214 1d3d 0dd8 acbc
00000370: 8409 35bd 2dfb 5ebd 2e44 9c3d b695 883c
00000380: 648a a73c 159f fe3c 1efb 993c 7ffd 77bc
00000390: 7f74 853d f880 b13c 34f2 153b 4c02 cfbb
000003a0: 3a56 6e3c 512b 8c3d bcaa 3f3c 941d 30bb
000003b0: a457 de3c d89c e6bc 71e1 cfbc 953b f43c
000003c0: 3e4e e43c 72d1 0fbc e037 6b3c 3e05 2bbd
000003d0: 0c14 383c 28f9 063c 83d0 ee3b 74ed 5a3c
000003e0: 54ce 47bd 201a a3ba b4c6 2dbb c8c4 613c
000003f0: b618 0dbd d291 7a3b 5181 6a3d cc00 cc3d

std.constant6 f4 [128, 128]
-0.054787755 -0.053869665 0.039592057 0.027079176 -0.02836638 -0.0068770424 -0.074742496 0.04652702
0.13291255 -0.02295366 0.011160894 0.02092646 0.06670196 0.009320442 0.044861246 0.04402572
-0.04774624 0.019028082 0.04259156 0.007268708 -0.0028388277 0.010459475 -0.017920181 0.009519197
-0.044720937 -0.05757636 -0.08195407 0.038986564 -0.031903118 -0.10498173 0.07166748 0.003682876
0.04274582 -0.0013193828 0.046085298 -0.056645576 0.0694058 -0.02293953 0.042203687 0.016483117
0.035210434 0.08249613 -0.041089512 0.054641373 0.00520247 -0.021269526 -0.036850456 -0.008718221
-0.004658795 -0.034240052 -0.102170005 0.019764345 -0.058791 0.044655934 0.04740238 -0.0034568375
0.051780052 -0.044821937 0.032238856 -0.03599667 -0.004072223 0.0019857846 -0.048918918 -0.0062058195
0.029206641 0.0127405245 -0.053754847 0.044858247 0.019939022 -0.014889162 0.018788518 0.019363528
-0.018702097 0.0018837727 -0.06871944 0.024737842 0.03857683 0.0025875233 0.010525195 -0.09952665
0.0071328823 -0.012163531 0.05637491 -0.028511852 0.017956626 -0.07087396 -0.080932744 0.010675715
-0.020360667 -0.00037295 0.058519553 -0.0056259586 0.014643703 -0.04135294 0.04155698 0.03310819
-0.0067470074 -0.031557363 0.018741235 -0.001346515 0.030998122 0.012887992 0.026548138 -0.035074532
0.07244581 0.012909763 -0.038266085 0.047464386 -0.038499024 -0.046069242 -0.0065110945 0.06527091
0.07032575 0.045732982 0.02687981 -0.008539809 -0.06205251 0.015645102 -0.018391196 -0.046455625
0.015458149 -0.012867123 0.008169964 -0.046704028 0.034295354 -0.049547408 0.020825028 -0.015462384
0.0034720711 -0.063215375 0.026031978 0.010213343 0.05722904 0.017174603 -0.053845428 0.00038439548
0.043890897 -0.042983107 0.01592333 0.03299796 -0.049148228 0.0234954 -0.04174958 0.0056737266
-0.0105028795 0.00012638974 0.007807893 0.005665769 0.0778776 0.057880748 0.010836946 0.018575199
0.032885503 0.040971525 -0.017843064 -0.069039255 0.017534459 -0.07335522 -0.031464495 -0.057769984
0.030397138 0.025884226 -0.078324966 -0.09332823 -0.058905706 0.0009291856 0.057766445 0.030753907
0.01712564 0.077029005 -0.037677243 0.039075118 0.06836 0.013867112 -0.039071638 0.061346978
-0.06506273 0.00030305068 -0.008416476 -0.039891113 0.01825563 0.033469737 0.08013424 -0.05123958
0.05364315 -0.10886939 0.045033257 -0.07934366 0.06666713 -0.041216772 -0.01487265 -0.07473837
0.01468509 0.0064472426 0.011231322 0.031319376 0.012873936 -0.028032953 -0.03415376 -0.05328644
-0.006069351 -0.042903543 -0.006082622 0.041538153 -0.030920414 -0.0017483723 0.029231645 0.029343123
0.035926 -0.011282096 -0.0068265703 0.012888515 0.01035077 -0.057340566 -0.03480373 0.0102494415
0.023068706 0.011793624 -0.06421952 0.112712406 0.03172915 0.06919752 0.00085924927 -0.040629674
-0.032895546 0.030527895 -0.010133032 0.025005415 -0.002291517 0.006167972 0.05841504 -0.041267212
-0.031499527 0.032953497 0.08005897 -0.027661452 0.016844286 -0.01544445 -0.010942287 -0.03413214
-0.102626875 -0.031426296 -0.013346561 0.056979295 -0.01327503 -0.035144478 -0.074853025 -0.008104129
-0.03247241 0.021786528 -0.010002385 0.009525322 0.022451319 0.03145603 -0.032974597 0.013090928
00000000: 2069 60bd 70a6 5cbd 482b 223d 26d5 dd3c
00000010: 9c60 e8bc d058 e1bb 9812 99bd 1e93 3e3d
00000020: 3a1a 083e 5009 bcbc 2fdc 363c f86d ab3c
00000030: 0a9b 883d c4b4 183c 6dc0 373d 5054 343d
00000040: 9091 43bd c8e0 9b3c 7d74 2e3d 582e ee3b
00000050: a00b 3abb 385e 2b3c 58cd 92bc 68f6 1b3c
00000060: 4d2d 37bd 30d5 6bbd 89d7 a7bd 60b0 1f3d
00000070: d8ac 02bd a900 d7bd 66c6 923d 685c 713b
00000080: 3e16 2f3d 24ef acba f0c3 3c3d 3105 68bd
00000090: a124 8e3d aeeb bbbc c6dd 2c3d 9a07 873c
000000a0: d138 103d bbf3 a83d 7a4d 28bd a2cf 5f3d
000000b0: 7b79 aa3b 6e3d aebc 81f0 16bd dfd6 0ebc
000000c0: cea8 98bb 4c3f 0cbd 823e d1bd d6e8 a13c
000000d0: d5ce 70bd 24e9 363d ff28 423d 1c8c 62bb
000000e0: 5217 543d 3597 37bd e40c 043d 3f71 13bd
000000f0: 4870 85bb f023 023b 345f 48bd 305a cbbb
00000100: c442 ef3c a2bd 503c 0b2e 5cbd 48bd 373d
00000110: 2957 a33c acf1 73bc 61ea 993c 43a0 9e3c
00000120: 2435 99bc ece8 f63a c7bc 8cbd 04a7 ca3c
00000130: bd02 1e3d 7093 293b de71 2c3c a1d4 cbbd
00000140: f4ba e93b 8c49 47bc 61e9 663d b091 e9bc
00000150: c619 933c 5e26 91bd 11c0 a5bd 32e9 2e3c
00000160: 6acb a6bc 8088 c3b9 33b2 6f3d f659 b8bb
00000170: 24ec 6f3c b361 29bd a737 2a3d 749c 073d
00000180: 0016 ddbb 4b42 01bd 3887 993c 8c7d b0ba
00000190: c6ef fd3c 2828 533c 7b7b d93c 50aa 0fbd
000001a0: 785e 943d 7883 533c e6bc 1cbd 046a 423d
000001b0: 27b1 1dbd 1ab3 3cbd 055b d5bb c1ac 853d
000001c0: f206 903d 8252 3b3d 0c33 dc3c 8eea 0bbc
000001d0: c62a 7ebd 282a 803c 22a9 96bc 4148 3ebd
000001e0: 2d44 7d3c a0d0 52bc 50db 053c b94c 3fbd
000001f0: 4979 0c3d 39f2 4abd 4099 aa3c f055 7dbc
00000200: b08b 633b 1077 81bd 0441 d53c de55 273c
00000210: ff68 6a3d c1b1 8c3c 068d 5cbd b088 c939
00000220: f1c6 333d 0e0f 30bd a571 823c de28 073d
00000230: a74f 49bd 6d79 c03c 9c01 2bbd abea b93b
00000240: 4514 2cbc 7d87 0439 5bd9 ff3b eaa7 b93b
00000250: 4b7e 9f3d 5d14 6d3d 728d 313c 042b 983c
00000260: f3b2 063d c2d1 273d 9e2b 92bc 7464 8dbd
00000270: 6da4 8f3c 433b 96bd eae0 00bd 38a0 6cbd
00000280: 6b03 f93c 280b d43c d768 a0bd df22 bfbd
00000290: 1c47 71bd 9794 733a 829c 6c3d 9eef fb3c
000002a0: 124b 8c3c 62c1 9d3d 7453 1abd 3b0d 203d
000002b0: 5400 8c3d e232 633c 9509 20bd f846 7b3d
000002c0: 9c3f 85bd c6e2 9e39 42e5 09bc dd64 23bd
000002d0: d58c 953c 9017 093d 6c1d a43d 98e0 51bd
000002e0: ebb8 5b3d eaf6 debd cb74 383d ee7e a2bd
000002f0: c788 883d ebd2 28bd 6aac 73bc 6e10 99bd
00000300: bb99 703c 6443 d33b 9403 383c bf48 003d
00000310: 34ed 523c 5da5 e5bc d0e4 0bbd e242 5abd
00000320: 68e1 c6bb a0bb 2fbd bb50 c7bb e923 2a3d
00000330: cf4c fdbc a429 e5ba 3477 ef3c fd60 f03c
00000340: 2427 133d 8ad8 38bc 6cb1 dfbb 5a2a 533c
00000350: 4796 293c f1dd 6abd 5b8e 0ebd 46ed 273c
00000360: 95fa bc3c 0b3a 413c 8685 83bd c3d5 e63d
00000370: 6df6 013d 6eb7 8d3d 3e3f 613a 4d6b 26bd
00000380: 7bbd 06bd a315 fa3c 0405 26bc 28d8 cc3c
00000390: 472d 16bb b31c ca3b 9c44 6f3d cf07 29bd
000003a0: a605 01bd 3ffa 063d f5f5 a33d 459a e2bc
000003b0: 07fd 893c b80a 7dbc 4747 33bc 25ce 0bbd
000003c0: 0a2e d2bd dcb8 00bd 89ab 5abc 1f63 693d
000003d0: 837f 59bc a8f3 0fbd 8b4c 99bd 2ec7 04bc
000003e0: ca01 05bd a979 b23c 0be1 23bc 1910 1c3c
000003f0: d4eb b73c 0ad8 003d 5f10 07bd 557b 563c

std.constant7 f4 [128]
-0.005481539 0.08643233 -0.002634014 -0.0136073185 -0.009637242 -0.0007109819 -0.013108707 -0.009396099
0.005839963 0.019802824 -0.01554999 -0.0035779402 -0.009086403 0.0009787214 0.075749986 -0.0009319795
-0.008374763 -0.0007480776 0.001092526 -0.012370657 -0.0100748185 -0.010099072 0.0073780017 0.0016457879
0.019143496 -0.0019263485 0.0029484446 0.058985665 -0.005744677 -0.010167654 -0.0064028422 0.005617189
0.00615246 -0.0004336756 0.0015833864 -0.0052521103 -0.012806593 -0.009629635 0.004245998 -0.007173556
0.014839752 0.0020382947 0.012663678 -0.008274377 -0.001974315 0.03785853 -0.003670308 -0.004510349
-0.015049363 0.0589303 -0.009477932 0.019424472 0.04564561 -0.006432869 -0.007120537 0.0049411426
-0.01173378 0.027020367 0.034752175 -0.0057818494 -0.006157185 -0.0013018348 -0.006330884 -0.0074729254
0.011615386 0.011411398 -0.0028177209 -0.0026598182 -0.011112996 8.321304e-05 -0.014228104 -0.01276594
-0.010919198 -0.0154263945 -0.0003899471 -0.003425904 -0.013461261 0.03353256 0.007463553 -0.002019064
-0.004881081 -0.001458855 -0.0018237851 -0.0064472747 -0.008514079 -0.008805043 -0.0025248707 -0.0033689314
-0.010502497 -0.0044621113 -0.00880507 -0.015428558 -0.0095942225 0.08215141 -0.0060397172 0.039199635
-0.008906275 -0.010215773 -0.0019243212 0.0061803055 -0.008405589 0.0026617453 -0.011358773 -0.005735693
-0.00044738973 0.0004425093 0.00525247 -0.0035463397 0.00781623 -0.014772653 -0.0076968907 -0.012369967
-0.013499089 0.002196425 -0.007849402 0.014911061 -0.002648202 0.04176262 -0.011319911 0.0033543818
-0.0017999934 -0.003280758 -0.011574457 -0.011921794 -0.010028009 -0.013224549 -0.01082517 0.0028502927
00000000: 7b9e b3bb 6f03 b13d 6c9f 2cbb 3bf1 5ebc
00000010: 86e5 1dbc 3061 3aba e7c5 56bc 18f2 19bc
00000020: 295d bf3b 8839 a23c 63c5 7ebc e07b 6abb
00000030: 23df 14bc 7148 803a cf22 9b3d 1650 74ba
00000040: 4d36 09bc a31a 44ba 1733 8f3a 4cae 4abc
00000050: da10 25bc 9476 25bc 2ac3 f13b 7ab7 d73a
00000060: d2d2 9c3c 887d fcba b13a 413b f49a 713d
00000070: d83d bcbb 3b96 26bc efce d1bb 6610 b83b
00000080: 939a c93b f45e e3b9 a289 cf3a e519 acbb
00000090: bfd2 51bc 9ec5 1dbc 0322 8b3b 2610 ebbb
000000a0: 6e22 733c e994 053b 517b 4f3c 4191 07bc
000000b0: 8263 01bb 8c11 1b3d 8d89 70bb 8dcb 93bb
000000c0: 9a91 76bc e660 713d 5449 1bbc 1220 9f3c
000000d0: e4f6 3a3d d1ca d2bb 6553 e9bb 4fe9 a13b
000000e0: 0a3f 40bc d159 dd3c 4c58 0e3d ab75 bdbb
000000f0: 36c2 c9bb 54a2 aaba 4e73 cfbb 71df f4bb
00000100: 764e 3e3c dff6 3a3c 83a9 38bb 5850 2ebb
00000110: 4913 36bc a982 ae38 fe1c 69bc 3c28 51bc
00000120: 70e6 32bc fdbe 7cbc d071 ccb9 2285 60bb
00000130: 9f8c 5cbc 7059 093d d290 f43b 4652 04bb
00000140: 7af1 9fbb 0d37 bfba 130c efba a943 d3bb
00000150: a37e 0bbc 0743 10bc 4d78 25bb 4ac9 5cbb
00000160: aa12 2cbc e736 92bb 2443 10bc 10c8 7cbc
00000170: 1631 1dbc 003f a83d d2e8 c5bb cc8f 203d
00000180: a0eb 11bc 0f60 27bc 8139 fcba 2984 ca3b
00000190: 98b7 09bc ad70 2e3b 261a 3abc 7bf2 bbbb
000001a0: a28f eab9 9800 e839 e91c ac3b b569 68bb
000001b0: a50f 003c ff08 72bc 3336 fcbb 67ab 4abc
000001c0: 482b 5dbc e6f1 0f3b c79a 00bc 864d 743c
000001d0: 758d 2dbb 480f 2b3d 2677 39bc 30d5 5b3b
000001e0: c2ed ebba fc01 57bb cba2 3dbc a153 43bc
000001f0: 854c 24bc c7ab 58bc 0e5c 31bc facb 3a3b

std.constant8 f4 [128]
0.0041548004 -0.010362742 -0.00024758824 -0.010255796 -0.0048180674 -0.0021347948 -0.015092143 -0.012141158
-0.009742975 0.0012314534 0.012074309 0.0026938803 0.010285606 0.0034173864 -0.0050110184 -3.0587184e-05
0.0112750055 0.0046651904 -0.002202157 -0.014944179 -0.010662878 0.0035099876 -0.007512535 0.0052496414
-0.0028133567 -0.000985234 0.0008773323 0.014647252 0.009008637 0.012574115 0.008709692 -1.2462492e-06
-0.0013501217 -0.00017132661 -0.00048785197 0.0010666322 -0.013387745 0.011026077 6.0898412e-05 -0.012755056
0.0015538051 0.00040318162 -0.00089944317 0.012214933 0.0031957475 -0.016110877 0.018598234 -0.016328247
-0.014018049 -0.0042986744 -0.008463292 -0.0036759234 0.005896436 -0.0019018484 -0.010182851 0.0011409534
0.012854554 -0.0009022854 -0.0074988636 0.0022562104 -0.017254736 0.0021770676 -0.0006038026 0.0029988287
-0.0021799393 0.009775795 0.0031352935 -0.013354133 0.013423164 -0.00057301664 -0.017622292 0.015712032
0.0030306545 0.01512043 0.0006741839 0.0012546257 0.017266238 0.007846781 0.00033551094 -4.6155837e-05
-0.013189794 -0.0005016614 0.0020513278 -0.0012068481 -0.009362271 -0.009881427 -0.00045237492 -0.0127932625
-0.0013689518 -0.0058414796 0.011872376 0.017684136 -0.011683539 -0.0013609993 -0.0015504161 -0.015922349
0.010314617 0.011566831 -0.0015996671 0.0006306561 0.01147101 -0.0022018072 0.009053315 -0.011398638
-0.0022085733 0.008865463 0.00086230534 0.0033791405 -0.00038680108 -0.0071105375 0.017247293 0.013276144
-0.011355403 -0.008302162 -0.0036618263 -0.0053220717 -0.007779921 -0.0089321695 0.01798084 -0.0010926281
-0.003010784 0.00068696216 0.016764142 0.009220884 0.0071203955 0.016695805 -0.0066834525 -0.00086925813
00000000: fe24 883b 7dc8 29bc bbce 81b9 ed07 28bc
00000010: e1e0 9dbb eae7 0bbb 0945 77bc b5eb 46bc
00000020: 00a1 1fbc b868 a13a 53d3 453c d08b 303b
00000030: f584 283c 3bf6 5f3b 7833 a4bb bd4a 00b8
00000040: cdba 383c 74de 983b 1052 10bb 6ed8 74bc
00000050: 5ab3 2ebc d207 663b b62b f6bb 2f05 ac3b
00000060: 4b60 38bb f822 81ba c6fc 653a 07fb 6f3c
00000070: f698 133c a903 4e3c 19b3 0e3c cc44 a7b5
00000080: 91f6 b0ba 23a6 33b9 62c6 ffb9 3dce 8b3a
00000090: 4658 5bbc b8a6 343c 2c6d 7f38 95fa 50bc
000000a0: 0ca9 cb3a 1f62 d339 9cc8 6bba 2421 483c
000000b0: bf6f 513b f5fa 83bc 535b 983c d1c2 85bc
000000c0: f6ab 65bc e5db 8cbb 9fa9 0abc c3e7 70bb
000000d0: e436 c13b 7147 f9ba f9d5 26bc 0b8c 953a
000000e0: e89b 523c 5987 6cba 07b9 f5bb eedc 133b
000000f0: ce59 8dbc 22ad 0e3b 8248 1eba ff87 443b
00000100: 50dd 0ebb a82a 203c 7f79 4d3b 4bcb 5abc
00000110: d5ec 5b3c 7f36 16ba a05c 90bc 85b6 803c
00000120: f29d 463b aebb 773c b7bb 303a 4172 a43a
00000130: ed71 8d3c c98f 003c 84e7 af39 7497 41b8
00000140: 011a 58bc ed81 03ba 926f 063b 1a2f 9eba
00000150: 3664 19bc b5e5 21bc bc2c edb9 d59a 51bc
00000160: 666e b3ba e269 bfbb 5b84 423c 52de 903c
00000170: 506c 3fbc 8f63 b2ba 5537 cbba 966f 82bc
00000180: a4fe 283c ce82 3d3c ecab d1ba 9d52 253a
00000190: e7f0 3b3c 324c 10bb 5b54 143c 5ac1 3abc
000001a0: b6bd 10bb 7240 113c 550c 623a 9274 5d3b
000001b0: 90cb cab9 83ff e8bb 324a 8d3c 2f84 593c
000001c0: 030c 3abc cb05 08bc 40fb 6fbb c664 aebb
000001d0: b5ee febb 3c58 12bc 8e4c 933c 8436 8fba
000001e0: 9350 45bb 4015 343a f454 893c 3113 173c
000001f0: 3552 e93b a4c5 883c dd00 dbbb edde 63ba

std.constant9 f4 [128]
1.0 1.0 1.0 1.0 1.0 1.0 1.0 1.0
1.0 1.0 1.0 1.0 1.0 1.0 1.0 1.0
1.0 1.0 1.0 1.0 1.0 1.0 1.0 1.0
1.0 1.0 1.0 1.0 1.0 1.0 1.0 1.0
1.0 1.0 1.0 1.0 1.0 1.0 1.0 1.0
1.0 1.0 1.0 1.0 1.0 1.0 1.0 1.0
1.0 1.0 1.0 1.0 1.0 1.0 1.0 1.0
1.0 1.0 1.0 1.0 1.0 1.0 1.0 1.0
1.0 1.0 1.0 1.0 1.0 1.0 1.0 1.0
1.0 1.0 1.0 1.0 1.0 1.0 1.0 1.0
1.0 1.0 1.0 1.0 1.0 1.0 1.0 1.0
1.0 1.0 1.0 1.0 1.0 1.0 1.0 1.0
1.0 1.0 1.0 1.0 1.0 1.0 1.0 1.0
1.0 1.0 1.0 1.0 1.0 1.0 1.0 1.0
1.0 1.0 1.0 1.0 1.0 1.0 1.0 1.0
1.0 1.0 1.0 1.0 1.0 1.0 1.0 1.0
00000000: 0000 803f 0000 803f 0000 803f 0000 803f
00000010: 0000 803f 0000 803f 0000 803f 0000 803f
00000020: 0000 803f 0000 803f 0000 803f 0000 803f
00000030: 0000 803f 0000 803f 0000 803f 0000 803f
00000040: 0000 803f 0000 803f 0000 803f 0000 803f
00000050: 0000 803f 0000 803f 0000 803f 0000 803f
00000060: 0000 803f 0000 803f 0000 803f 0000 803f
00000070: 0000 803f 0000 803f 0000 803f 0000 803f
00000080: 0000 803f 0000 803f 0000 803f 0000 803f
00000090: 0000 803f 0000 803f 0000 803f 0000 803f
000000a0: 0000 803f 0000 803f 0000 803f 0000 803f
000000b0: 0000 803f 0000 803f 0000 803f 0000 803f
000000c0: 0000 803f 0000 803f 0000 803f 0000 803f
000000d0: 0000 803f 0000 803f 0000 803f 0000 803f
000000e0: 0000 803f 0000 803f 0000 803f 0000 803f
000000f0: 0000 803f 0000 803f 0000 803f 0000 803f
00000100: 0000 803f 0000 803f 0000 803f 0000 803f
00000110: 0000 803f 0000 803f 0000 803f 0000 803f
00000120: 0000 803f 0000 803f 0000 803f 0000 803f
00000130: 0000 803f 0000 803f 0000 803f 0000 803f
00000140: 0000 803f 0000 803f 0000 803f 0000 803f
00000150: 0000 803f 0000 803f 0000 803f 0000 803f
00000160: 0000 803f 0000 803f 0000 803f 0000 803f
00000170: 0000 803f 0000 803f 0000 803f 0000 803f
00000180: 0000 803f 0000 803f 0000 803f 0000 803f
00000190: 0000 803f 0000 803f 0000 803f 0000 803f
000001a0: 0000 803f 0000 803f 0000 803f 0000 803f
000001b0: 0000 803f 0000 803f 0000 803f 0000 803f
000001c0: 0000 803f 0000 803f 0000 803f 0000 803f
000001d0: 0000 803f 0000 803f 0000 803f 0000 803f
000001e0: 0000 803f 0000 803f 0000 803f 0000 803f
000001f0: 0000 803f 0000 803f 0000 803f 0000 803f

std.constant10 f4 [128]
-0.005636717 0.085418016 -0.0028447972 -0.013470142 -0.009836052 -0.00062160025 -0.013212496 -0.009414539
0.0060807248 0.019302689 -0.015588643 -0.003609864 -0.009030762 0.00084108027 0.07407753 -0.0006444873
-0.007404113 -0.00082578335 0.0011945586 -0.012287771 -0.0102131525 -0.0098855905 0.0070695514 0.0016534663
0.019385716 -0.0019438968 0.0027706707 0.059674934 -0.005673775 -0.010031315 -0.0061131218 0.006019182
0.0058968295 -0.00045127072 0.0018038166 -0.005234367 -0.012894854 -0.009667435 0.0046225283 -0.0070474404
0.014532701 0.0019194204 0.011593748 -0.008211259 -0.0020426344 0.03878684 -0.0034705529 -0.0043722754
-0.01549112 0.058862202 -0.009453653 0.018531708 0.046279613 -0.0064555774 -0.0071653607 0.004605198
-0.011754655 0.026337657 0.035532113 -0.005756176 -0.006162545 -0.0012088255 -0.0064275395 -0.0075362297
0.011323359 0.011600257 -0.0029088843 -0.0025700761 -0.011094741 -0.00038254115 -0.013857616 -0.012815334
-0.011313162 -0.015370938 -0.0003026138 -0.003586077 -0.01367745 0.03341886 0.0073028826 -0.0022815533
-0.0050432654 -0.0017474944 -0.0020062565 -0.00639012 -0.008603776 -0.0088255685 -0.0026765715 -0.0033135964
-0.010433582 -0.004553475 -0.008747772 -0.015399444 -0.009525713 0.08296738 -0.0063021216 0.039788056
-0.00889856 -0.010202087 -0.001731693 0.0060102884 -0.008542445 0.0026365921 -0.011048631 -0.005760084
-0.0010255883 -0.000129176 0.0054208804 -0.0034869472 0.0071332045 -0.014756958 -0.007850653 -0.012367213
-0.0136610605 0.0018658257 -0.007854988 0.015974814 -0.0026152567 0.04226217 -0.011276106 0.0039257854
-0.001886592 -0.00358834 -0.011462205 -0.012027908 -0.009966099 -0.01326493 -0.010863785 0.0034236643
00000000: 36b4 b8bb a4ef ae3d c76f 3abb dfb1 5cbc
00000010: 6427 21bc e3f2 22ba 3a79 58bc 703f 1abc
00000020: d140 c73b ac20 9e3c 8267 7fbc 7893 6cbb
00000030: c3f5 13bc f17b 5c3a f6b5 973d d0f2 28ba
00000040: 349e f2bb 6279 58ba bc92 9c3a a652 49bc
00000050: 1155 27bc 2cf7 21bc b2a7 e73b 1fb9 d83a
00000060: cbce 9e3c 5aca feba 2494 353b b46d 743d
00000070: 13eb b9bb 625a 24bc 9550 c8bb 8f3c c53b
00000080: 313a c13b 8898 ecb9 0b6e ec3a 0e85 abbb
00000090: f044 53bc 2964 1ebc 9478 973b 37ee e6bb
000000a0: 911a 6e3c 1095 fb3a b4f3 3d3c 8488 06bc
000000b0: b8dd 05bb f3de 1e3d 3772 63bb 4e45 8fbb
000000c0: 77ce 7dbc 7e19 713d 7fe3 1abc cfcf 973c
000000d0: b18f 3d3d 4f89 d3bb 67cb eabb 33e7 963b
000000e0: 9996 40bc 12c2 d73c 1f8a 113d 4e9e bcbb
000000f0: 2def c9bb 7471 9eba 1c9e d2bb 7af2 f6bb
00000100: 9c85 393c 010f 3e3c fba2 3ebb b96e 28bb
00000110: b7c6 35bc ce8f c8b9 0e0b 63bc 68f7 51bc
00000120: d75a 39bc 63d6 7bbc 23a8 9eb9 6304 6bbb
00000130: 6217 60bc 37e2 083d 054d ef3b 1d86 15bb
00000140: fa41 a5bb 2f0c e5ba 667b 03bb 3664 d1bb
00000150: daf6 0cbc 1e99 10bc 6b69 2fbb ec28 59bb
00000160: 9df1 2abc 5135 95bb d152 0fbc f34d 7cbc
00000170: bc11 1cbc cdea a93d 0782 cebb cdf8 223d
00000180: 44cb 11bc a826 27bc faf9 e2ba f4f1 c43b
00000190: 9cf5 0bbc adca 2c3b 5105 35bc 16bf bcbb
000001a0: 086d 86ba 6b73 07b9 a4a1 b13b 4485 64bb
000001b0: a8bd e93b 2bc7 71bc 06a0 00bc da9f 4abc
000001c0: a4d2 5fbc b98e f43a 35b2 00bc 9ddd 823c
000001d0: ba64 2bbb 191b 2d3d 6bbf 38bc e0a3 803b
000001e0: 8647 f7ba 5b2a 6bbb f9cb 3bbc b410 45bc
000001f0: d948 23bc 2655 59bc 04fe 31bc 8e5f 603b

std.constant11 f4 [128, 9]
-0.020023813 0.09693741 0.044825803 -0.016234117 -0.086732075 0.01858646 -0.01217807 -0.06330109
-0.006395683 0.03150289 0.032363374 0.014483521 0.026235452 0.11688029 0.062557265 0.00034289708
0.013280131 0.10863543 -0.061823007 0.038354013 -0.011499561 -0.09206013 0.03609803 -0.021144709
-0.07935817 -0.0043317685 0.0518316 -0.094846405 -0.07346832 -0.021426037 0.021970551 -0.10887252
-0.06944127 0.089387365 0.04640825 -0.071855344 0.0022652226 0.016049027 0.07035176 -0.102222174
0.08241436 0.059719633 -0.080333404 -0.043424204 0.06344214 0.05423526 0.025100654 0.03736889
-0.020184709 -0.036385525 -0.07016283 0.040164687 -0.0050903177 -0.0070302426 -0.09358908 -0.026314577
-0.04752255 -0.02264514 0.04378497 -0.11732296 0.085999206 0.013411674 -0.026485637 -0.004619958
0.03216039 -0.054168366 -0.09841147 0.088193655 0.008937565 0.039065532 0.086076595 -0.051651675
0.059715547 -0.00972686 0.0014729912 -0.058629405 0.08681661 -0.07128529 -0.0013316041 -0.06860513
0.06514377 0.0014540558 -0.035638466 -0.042476118 0.052845087 -0.103031315 -0.08493073 -0.03362438
-0.005851106 -0.031855747 -0.04986639 0.03481568 -0.10678267 -0.07605006 -0.085317835 -0.05325787
0.0446852 -0.099843055 -0.04128241 -0.0506167 -0.038575795 0.0119673675 0.07734968 -0.11358718
-0.10369726 0.09499922 0.08385244 0.019986473 -0.027307523 -0.07595958 -0.07523769 0.067067385
0.07800015 -0.013551317 0.034190394 -0.021639371 0.086723976 0.071430475 -0.07067279 0.02318856
0.07868981 0.026107153 -0.06736265 -0.0540828 -0.090689115 0.016108105 -0.0464502 0.005156592
0.065608785 0.088401616 0.045232892 0.0592814 0.07445976 0.057111792 -0.06381027 -0.0591414
0.079081014 0.10054226 -0.07355022 -0.029634168 0.012203877 -0.039922763 0.06949646 -0.117070444
-0.007953673 -0.056092188 0.09653596 0.07233072 -0.005740271 -0.11344396 0.04541209 -0.020390742
-0.07827419 0.017329581 0.089602515 0.059322048 0.021861251 -0.06670439 -0.090152174 0.10141555
0.051824726 -0.10599334 0.037404828 -0.097587496 -0.07008537 -0.06461687 -0.05032666 -0.10274584
-0.043316998 0.01541386 0.037597153 0.027938781 0.06439391 0.052721933 -0.007286905 -0.02975678
-0.025403671 -0.08722038 0.015986523 0.0029737288 0.057033807 -0.060383778 -0.05930654 -0.023249384
0.081195116 -0.0655494 0.04926109 0.08153226 0.029332936 -0.009491002 -0.07995418 -0.014185811
-0.026380086 -0.02320724 0.08784957 -0.04521749 -0.008828321 -0.004185117 0.065030366 0.070568524
-0.05948123 0.042915095 -0.032090794 0.1085796 -0.018147035 -0.08316995 -0.09047027 -0.0012652556
0.0596068 0.098096766 0.036274116 0.08151013 0.06974233 0.029465154 -0.047301937 -0.03944636
0.06705548 0.05933486 -0.019161997 -0.018245144 -0.04902876 -0.08236593 0.07063344 0.04794566
-0.041593842 0.040117264 -0.051024646 -0.004430854 0.061886728 0.023128271 -0.10040293 -0.09025577
-0.069447055 -0.066895574 -0.048953034 0.049964633 -0.0596111 -0.100429855 -0.0770265 0.01781743
-0.06592418 -0.038282547 0.08947394 0.11672339 -0.052475587 0.15689039 0.13856079 -0.05678779
0.097708076 0.0079435725 0.03378328 0.016668387 0.101774596 0.021039246 0.07558766 -0.025572024
00000000: fb08 a4bc 1f87 c63d 439b 373d 69fd 84bc
00000010: 96a0 b1bd a242 983c 8786 47bc 00a4 81bd
00000020: e192 d1bb 2d09 013d 758f 043d 4a4c 6d3c
00000030: bbeb d63c ef5e ef3d 061e 803d dec6 b339
00000040: e894 593c 417c de3d 1f3a 7dbd 1919 1d3d
00000050: a868 3cbc 058a bcbd 87db 133d ab37 adbc
00000060: 8986 a2bd 82f1 8dbb 5f4d 543d d53e c2bd
00000070: 8f76 96bd a885 afbc 96fb b33c 8ef8 debd
00000080: 3937 8ebd b910 b73d 9416 3e3d e528 93bd
00000090: 2174 143b 4079 833c 9514 903d dc59 d1bd
000000a0: dcc8 a83d 939c 743d d785 a4bd 94dd 31bd
000000b0: f4ed 813d cb25 5e3d e39f cd3c 1f10 193d
000000c0: 675a a5bc fd08 15bd 88b1 8fbd ba83 243d
000000d0: aecc a6bb f35d e6bb a2ab bfbd ab91 d7bc
000000e0: 01a7 42bd 4d82 b9bc de57 333d 0547 f0bd
000000f0: 5a20 b03d a3bc 5b3c 68f8 d8bc 0463 97bb
00000100: 9dba 033d a6df 5dbd f48b c9bd e09e b43d
00000110: dd6e 123c 2e03 203d ed48 b03d b590 53bd
00000120: 4a98 743d 685d 1fbc 6211 c13a 6325 70bd
00000130: e8cc b13d 06fe 91bd 3889 aeba d980 8cbd
00000140: 196a 853d 0496 be3a a4f9 11bd 70fb 2dbd
00000150: 1774 583d 1502 d3bd 2af0 adbd b8b9 09bd
00000160: a2ba bfbb 2c7b 02bd b340 4cbd e39a 0e3d
00000170: dfb0 dabd 22c0 9bbd 1ebb aebd ed24 5abd
00000180: d407 373d 847a ccbd bf17 29bd 7553 4fbd
00000190: a701 1ebd c712 443c 8269 9e3d 65a0 e8bd
000001a0: 3b5f d4bd f38e c23d d4ba ab3d acba a33c
000001b0: 07b4 dfbc b290 9bbd 3816 9abd a05a 893d
000001c0: 8bbe 9f3d 5806 5ebc 3a0b 0c3d 0d45 b1bc
000001d0: 579c b13d 244a 923d e5bc 90bd eff5 bd3c
000001e0: 2028 a13d abde d53c 6ef5 89bd ed85 5dbd
000001f0: 37bb b9bd 25f5 833c 9142 3ebd a1f8 a83b
00000200: e65d 863d e80b b53d 2046 393d 0ed1 723d
00000210: 5c7e 983d 0eee 693d f5ae 82bd 413e 72bd
00000220: 3af5 a13d 1ae9 cd3d 7fa1 96bd 5bc3 f2bc
00000230: c5f2 473c 0d86 23bd 2954 8e3d a1c2 efbd
00000240: 1f50 02bc ecc0 65bd a5b4 c53d 2122 943d
00000250: e218 bcbb 4f55 e8bd 0702 3a3d 7c0a a7bc
00000260: 384e a0bd c4f6 8d3c 8681 b73d adfb 723d
00000270: 5e16 b33c 509c 88bd b4a1 b8bd f5b2 cf3d
00000280: 2a46 543d 0913 d9bd ce35 193d f4db c7bd
00000290: eb88 8fbd d955 84bd 5423 4ebd 696c d2bd
000002a0: 2a6d 31bd 6a8a 7c3c 79ff 193d dfdf e43c
000002b0: f4e0 833d f4f2 573d fdc6 eebb 7ec4 f3bc
000002c0: 5c1b d0bc 99a0 b2bd 2bf6 823c e4e2 423b
000002d0: 489c 693d fb54 77bd 6aeb 72bd 7e75 bebc
000002e0: a049 a63d c43e 86bd ffc5 493d 63fa a63d
000002f0: a04b f03c 2680 1bbc 04bf a3bd 9b6b 68bc
00000300: 0d1b d8bc 1c1d bebc 7aea b33d fa35 39bd
00000310: a9a4 10bc 4e23 89bb a42e 853d 3b86 903d
00000320: 97a2 73bd bdc7 2f3d a371 03bd fb5e de3d
00000330: 17a9 94bc 0255 aabd 7a48 b9bd efd6 a5ba
00000340: 4326 743d f5e6 c83d 2b94 143d c8ee a63d
00000350: 11d5 8e3d e860 f13c adbf 41bd 8292 21bd
00000360: 6254 893d 1c09 733d 9ff9 9cbc d776 95bc
00000370: 62d2 48bd 78af a8bd 44a8 903d ab62 443d
00000380: 4e5e 2abd 0052 243d 38ff 50bd b330 91bb
00000390: f07c 7d3d 8077 bd3c 0da0 cdbd 04d8 b8bd
000003a0: 423a 8ebd 8c00 89bd fa82 48bd b7a7 4c3d
000003b0: c52a 74bd 2bae cdbd 12c0 9dbd dcf5 913c
000003c0: 4203 87bd 29ce 1cbd 1d3e b73d ac0c ef3d
000003d0: a4f0 56bd e0a7 203e e1e2 0d3e 509a 68bd
000003e0: 2c1b c83d c225 023c 5660 0a3d 248c 883c
000003f0: 336f d03d 7f5a ac3c b4cd 9a3d 6c7c d1bc

std.constant12 f4 [128, 9]
0.10277663 -0.0386284 0.084362134 -0.027064417 -0.10165625 -0.010317477 -0.08554374 0.028133063
-0.10738372 0.2148685 -0.08472608 0.023843685 -0.103073284 -0.032990467 0.089632116 -0.041553937
0.09001622 0.01905182 0.04931137 0.0637155 0.06822095 -0.06992746 0.020193182 -0.03391249
-0.00549984 -0.092957415 -0.030777264 -0.09068624 0.021305837 0.023042323 -0.063010536 -0.0658757
0.057884574 -0.09869768 0.061913244 0.046127178 -0.031535443 0.036240727 0.044924416 -0.023609364
0.08344447 0.09452634 0.07519653 -0.065794274 0.053048294 -0.024827326 -0.10845985 -0.03244693
-0.020749975 -0.07854734 -0.019325126 -0.01949394 0.021189192 0.020102141 0.014791594 0.04953678
0.042869166 -0.0062661576 -0.11729285 0.09173073 0.039588038 -0.008710038 0.02147207 -0.0664394
-0.010112516 0.04716258 0.09544804 -0.02232548 -0.0022796365 0.07149778 -0.11204617 -0.04753609
0.063109316 -0.08440059 0.06647644 0.061571952 -0.12152999 -0.02352612 -0.0032285694 0.014646672
-0.15151939 -0.19173637 -0.0276679 0.044243358 -0.055342134 0.08762722 0.06475156 0.010161805
-0.11110438 0.05220807 0.045410663 -0.04220294 -0.052782632 -0.020112576 -0.050758053 -0.0454741
0.027547855 0.100644805 0.109097555 -0.010569347 -0.010406587 0.0101465685 -0.03138425 -0.044778176
-0.06968443 -0.04702741 -0.038763706 0.026138391 0.12519549 -0.07834096 -0.088117 0.06951114
0.08675587 0.035734538 -0.057752877 -0.022900054 0.09550504 -0.006662622 0.10682385 0.025425464
0.09621604 0.09239789 -0.013551724 0.06132528 -0.021828774 -0.07681155 0.16716008 -0.0066011744
-0.00082160905 -0.112523265 0.07192262 0.10519786 -0.09642049 0.07352054 -0.1539495 -0.013233544
-0.07962345 0.002971376 -0.091898106 0.08669612 -0.056072943 0.07047634 0.0016337076 0.07929863
-0.011867857 0.04353107 0.08734026 -0.01604822 -0.06369268 -0.010810818 0.009154714 -0.10193053
0.04466574 -0.06508301 -0.060977213 0.09034647 -0.053517524 0.044770073 -0.007305332 0.058160514
-0.0690654 0.09125333 -0.06510826 -0.026566815 -0.051490895 -0.06968988 -0.03184012 -0.00015114313
0.05809637 0.009390514 -0.044181332 0.043941487 0.09094968 0.015262965 0.053386327 -0.078747265
0.063711375 -0.06676934 0.08847446 0.06406977 0.035190485 0.077782914 0.09473851 -0.06312309
-0.02450465 -0.10550079 0.046570223 -0.025775585 0.08538403 -3.9109887e-05 0.0029193708 0.10535965
-0.092190094 0.09622328 -0.021064747 0.031069092 -0.005950245 -0.08085741 0.15965998 0.0061180377
0.02439703 0.041307937 0.0069509596 0.034601312 -0.06334639 -0.009427932 -0.11387017 -0.12064684
0.041814473 -0.06355388 -0.042187486 0.07162361 -0.08930457 0.11283211 0.0035906332 -0.037801646
-0.12545387 -0.022751521 -0.005427335 0.08598142 0.08766057 -0.0077270544 -0.023652488 -0.051450133
0.04276578 0.13628253 -0.0466172 0.023856971 0.029816814 0.06828279 -0.04572431 0.008647167
-0.0075882394 -0.08950314 -0.07371529 0.050890207 -0.051213518 -0.0599425 0.010705285 -0.01772126
-0.05752553 -0.07458419 -0.012527138 -0.15179554 0.09653831 -0.086743474 0.02003795 0.14052029
-0.052983746 0.10080569 -0.099730566 0.032517508 0.06554854 -0.08495366 -0.06728537 0.050934248
00000000: 8e7c d23d d038 1ebd 0ec6 ac3d 32b6 ddbc
00000010: 2731 d0bd a30a 29bc 8e31 afbd 4f77 e63c
00000020: ffeb dbbd 7d06 5c3e de84 adbd d553 c33c
00000030: 1618 d3bd 0321 07bd 0b91 b73d 7634 2abd
00000040: 6d5a b83d 9012 9c3c b8fa 493d 467d 823d
00000050: 6db7 8b3d 2136 8fbd 2c6c a53c d3e7 0abd
00000060: 0038 b4bb 7560 bebd 9a20 fcbc b5b9 b9bd
00000070: 9489 ae3c 41c3 bc3c ab0b 81bd d7e9 86bd
00000080: 6018 6d3d 0222 cabd be98 7d3d daef 3c3d
00000090: 4f2b 01bd 2871 143d aa02 383d 6d68 c1bc
000000a0: efe4 aa3d 0797 c13d a300 9a3d 26bf 86bd
000000b0: 2b49 593d ad62 cbbc 3320 debd 12e7 04bd
000000c0: dafb a9bc 6edd a0bd ba4f 9ebc c1b1 9fbc
000000d0: f594 ad3c 3fad a43c 7158 723c 14e7 4a3d
000000e0: 9497 2f3d 5754 cdbb 3c37 f0bd 52dd bb3d
000000f0: 1127 223d 8cb4 0ebc 32e6 af3c 6111 88bd
00000100: f7ae 25bc 8d2d 413d 437a c33d ede3 b6bc
00000110: f465 15bb 6e6d 923d 7678 e5bd 34b5 42bd
00000120: 753f 813d 37da acbd cd24 883d df32 7c3d
00000130: b7e4 f8bd dab9 c0bc 6896 53bb 98f8 6f3c
00000140: e627 1bbe 8a56 44be cba7 e2bc 8638 353d
00000150: 6fae 62bd e675 b33d 779c 843d b37d 263c
00000160: b18a e3bd 21d8 553d 8800 3a3d fddc 2cbd
00000170: 9a32 58bd 21c3 a4bc ade7 4fbd 0d43 3abd
00000180: 0aac e13c dd1e ce3d 8a6e df3d 0e2b 2dbc
00000190: 6480 2abc cb3d 263c c58c 00bd 5269 37bd
000001a0: b6b6 8ebd d09f 40bd b1c6 1ebd 2e20 d63c
000001b0: 3f33 003e 3a71 a0bd b076 b4bd db5b 8e3d
000001c0: 10ad b13d 615e 123d 488e 6cbd e598 bbbc
000001d0: 2598 c33d 2052 dabb 76c6 da3d 1049 d03c
000001e0: ea0c c53d 1b3b bd3d 0d08 5ebc 3830 7b3d
000001f0: 42d2 b2bc 604f 9dbd 032c 2b3e aa4e d8bb
00000200: 4061 57ba 9972 e6bd 2b4c 933d fa71 d73d
00000210: 1b78 c5bd f091 963d f0a4 1dbe 82d1 58bc
00000220: 9f11 a3bd 6bbb 423b 1335 bcbd bc8d b13d
00000230: beac 65bd e655 903d 2122 d63a 5267 a23d
00000240: 6671 42bc a34d 323d 73df b23d 8f77 83bc
00000250: 4f71 82bd db1f 31bc a7fd 153c f4c0 d0bd
00000260: 6cf3 363d 3e4a 85bd 3ec3 79bd 9207 b93d
00000270: 3135 5bbd d360 373d 9161 efbb b839 6e3d
00000280: 2972 8dbd 07e3 ba3d 7b57 85bd a6a2 d9bc
00000290: 1ee8 52bd 91b9 8ebd c96a 02bd 2d7c 1eb9
000002a0: 76f6 6d3d acda 193c 7cf7 34bd fdfb 333d
000002b0: d343 ba3d 8411 7a3c 9fab 5a3d 3f46 a1bd
000002c0: 1c7b 823d 5dbe 88bd 1932 b53d 0337 833d
000002d0: e623 103d a64c 9f3d 4406 c23d ae46 81bd
000002e0: fabd c8bc cc10 d8bd 6bc0 3e3d 5227 d3bc
000002f0: d3dd ae3d ec09 24b8 ea52 3f3b cdc6 d73d
00000300: 29ce bcbd b610 c53d fa8f acbc 9c84 fe3c
00000310: 46fa c2bb 9298 a5bd e87d 233e d279 c83b
00000320: 48dc c73c 8332 293d e0c4 e33b 1bba 0d3d
00000330: c1bb 81bd 9d77 1abc c434 e9bd b115 f7bd
00000340: a745 2b3d 8928 82bd c9cc 2cbd 66af 923d
00000350: 50e5 b6bd 8514 e73d d450 6b3b e6d5 1abd
00000360: fb76 00be 6661 babc c9d7 b1bb 0717 b03d
00000370: 6387 b33d 3b33 fdbb ddc2 c1bc 60bd 52bd
00000380: 2c2b 2f3d a68d 0b3e adf1 3ebd b26f c33c
00000390: 6442 f43c d9d7 8b3d 6a49 3bbd d9ac 0d3c
000003a0: c4a6 f8bb 6c4d b7bd 0bf8 96bd 4072 503d
000003b0: 44c5 51bd 4486 75bd 3865 2f3c 2d2c 91bc
000003c0: e49f 6bbd 99bf 98bd a03e 4dbc 4a70 1bbe
000003d0: e1b5 c53d 90a6 b1bd a026 a43c 8de4 0f3e
000003e0: 7c05 59bd 3773 ce3d 8a3f ccbd 1431 053d
000003f0: 503e 863d 2ffc adbd e9cc 89bd 6ea0 503d
