AirQualityApp/AirQualityApp.Android/Assets/CracowShort.tflite (tflite, 814936 bytes, 24 tensors)

std.constant3 f4 [128, 128]
0	0xbd0016db	-0.031271797
1	0x3d7b868b	0.061407607
2	0xbbb82b89	-0.005620424
3	0x3d2115e0	0.039327502
4	0xbd57c4b7	-0.052677836
5	0xbd7ec680	-0.062201023
6	0xbcdc2b3f	-0.02687609
7	0xbc9dafb6	-0.019248825
8	0x3b732cfc	0.003710567
9	0x3da25eb9	0.07928223
10	0x3c4fc13d	0.012680349
11	0x3c2e7b20	0.0106494725
12	0xbc890ed1	-0.016730698
13	0xbd7aeb88	-0.061259776
14	0x3cedfdd1	0.029051693
15	0x3be1c21a	0.006889594
16	0x3d9b6914	0.075884014
17	0x3d870c2e	0.0659412
18	0x3dabc988	0.083880484
19	0x3c3d09ba	0.0115379635
20	0xbdc78d4c	-0.09743747
21	0xbc647875	-0.013944735
22	0xbb6bdc98	-0.0035989638
23	0xbc165da7	-0.009177602
24	0xbd3c4fef	-0.045974668
25	0x3cee2a6c	0.029072963
26	0xbd651116	-0.055924498
27	0x3d7d2543	0.061803114
28	0x3d65a039	0.056061003
29	0xb99ccb40	-0.00029906072
30	0xbda86cae	-0.08223854
31	0x39c14140	0.00036860444
32	0x3af911da	0.0019002513
33	0x3d09b680	0.03362131
34	0x3d9a527c	0.07535264
35	0x3d3243b8	0.043521613
36	0xbbcd97e8	-0.006274212
37	0xbc0844a7	-0.008317149
38	0x3cefe9bc	0.029286258
39	0xbd586dd5	-0.05283912
40	0xbdb44368	-0.08801919
41	0xbcc21fb6	-0.023696762
42	0x3c57159e	0.0131277125
43	0xbd24703f	-0.04014611
44	0xbcd4525a	-0.025918175
45	0xb99c7680	-0.00029842928
46	0xbd087a5a	-0.03331981
47	0x3d4e3670	0.050344884
48	0x3a802510	0.000977667
49	0x3be2f82b	0.0069265566
50	0x3c747eb2	0.014922785
51	0xbcff26bd	-0.031146402
52	0xbdcaa1f1	-0.09894169
53	0x3d0d6dfb	0.034528714
54	0xbd01a36f	-0.031650003
55	0xbd6ae74b	-0.057349484
56	0xbc57b2a1	-0.013165147
57	0x3d712344	0.058871523
58	0x3cdd993a	0.027050603
59	0xbd98653f	-0.07441186
60	0x3d2dd82d	0.04244249
61	0x3da444dd	0.08020947
62	0x3c989c89	0.01862933
63	0xbc43705e	-0.011928646
64	0xbc0f5e58	-0.008750521
65	0x3d073dae	0.033017807
66	0x3ba61400	0.005068302
67	0x3bfebb10	0.0077737644
68	0x3bbd77e4	0.0057821143
69	0xbb405fb4	-0.0029353919
70	0xbca7c144	-0.020477898
71	0xbd12bc08	-0.03582385
72	0x3c0611eb	0.008182983
73	0xbc9c4314	-0.019074954
74	0xbd2468b1	-0.040138904
75	0x3d821a74	0.06352702
76	0x3c4cea7a	0.012507075
77	0xbc157a28	-0.009123363
78	0x3c4beae0	0.012446135
79	0x3cf83b3d	0.030301685
80	0x3b4ac7c8	0.0030941833
81	0x3b7fd750	0.0039038248
82	0x3c260094	0.010131974
83	0xbc03b99c	-0.008039858
84	0x3d29df98	0.041473
85	0xbd9eb161	-0.07748676
86	0x3d90f9ec	0.07078919
87	0xbc97a64a	-0.01851191
88	0x3c99b1a5	0.018761465
89	0xbd9a1ad2	-0.07524647
90	0xba9014d4	-0.0010992535
91	0xbd6530cc	-0.05595474
92	0x3d6e3d78	0.05816409
93	0x3d1749c4	0.036935583
94	0x3cb4b135	0.022057155
95	0xbcd4ad11	-0.02596143
96	0x3db046ee	0.08607279
97	0xbd83887d	-0.064225174
98	0x3c8f6e16	0.017508548
99	0x3d051374	0.032489255
100	0x3d9e003c	0.077148885
101	0xbcde556f	-0.027140347
102	0xbb14f62c	-0.0022729738
103	0xbbc1f468	-0.005919028
104	0xbd950abc	-0.07277438
105	0xbd5a39b6	-0.053277694
106	0x3d5de962	0.05417765
107	0xbc1a23a4	-0.009407911
108	0xbca0102f	-0.019538967
109	0x3cfc9c7e	0.03083634
110	0xbd071100	-0.032975197
111	0x3dca3693	0.098736905
112	0x3cbbca86	0.02292372
113	0xbcc25309	-0.023721235
114	0x3dcc4f8d	0.099761106
115	0x3d533f00	0.051573753
116	0xbcd50e23	-0.026007717
117	0x3d5787df	0.05261981
118	0x3da4b6f9	0.08042712
119	0xbd788845	-0.06067683
120	0x3d382eb4	0.044966415
121	0x3cdc62d7	0.0269026
122	0x3d1fe330	0.039035022
123	0x3d6b29c7	0.05741289
124	0xbbdd56c7	-0.0067547294
125	0xbc3cce15	-0.011523743
126	0x3c22c8d8	0.00993558
127	0xbb8ce028	-0.0042991824
128	0xbd9d9c54	-0.07695833
129	0x3c101ca6	0.008795893
130	0x3c873dba	0.016508926
131	0xbb4eec9e	-0.003157414
132	0x3cbdf3a6	0.02318747
133	0xbd107dec	-0.03527634
134	0x3d150a29	0.036386643
135	0xbd55e8f8	-0.05222413
136	0x3c06d2ee	0.0082290005
137	0x3d406798	0.046973795
138	0x3bfc1b64	0.007693695
139	0x3d05291f	0.03250992
140	0x3d647d11	0.055783335
141	0x3d812c6b	0.063073
142	0x3d2bdac0	0.041956663
143	0xbc959388	-0.018258825
144	0x3b2e8802	0.002663136
145	0x3d0d55a0	0.034505486
146	0xbc6f2f90	-0.014598742
147	0xba5f37f8	-0.0008515115
148	0x3c3eb39f	0.011639505
149	0x3d308c3c	0.043102488
150	0xbcdad38c	-0.026712202
151	0x3cacf32f	0.021112053
152	0x3ca4f51d	0.02013641
153	0xbd13fe50	-0.036131203
154	0x3d1caa1a	0.03824816
155	0xbcb11085	-0.021614322
156	0x3c7fb8f3	0.01560806
157	0xbc847227	-0.016167713
158	0xbcb05e1c	-0.02152925
159	0xbd0ffdbb	-0.035154086
160	0xbda72cf8	-0.08162874
161	0x3d3d41ce	0.046205334
162	0xbbbd1d2c	-0.0057713
163	0x3cf05835	0.029338935
164	0xbd516e16	-0.051130377
165	0x3d52d1ea	0.05146972
166	0x3d6eeb01	0.058329586
167	0x3cc1ba42	0.023648385
168	0xbb262d8c	-0.0025356738
169	0xbc9924aa	-0.01869424
170	0x3bba5540	0.005686432
171	0xbc89abdd	-0.016805584
172	0xbd38f4c4	-0.0451553
173	0xbd561cda	-0.05227361
174	0xbcd0310a	-0.025414009
175	0x3ca0345f	0.019556222
176	0x3d2bfc2d	0.04198854
177	0xbc298d54	-0.010348637
178	0xbda7c0dc	-0.08191082
179	0xbd353c12	-0.04424674
180	0xbbe67fa6	-0.00703426
181	0xbce51af9	-0.027966963
182	0xbd882e9c	-0.06649515
183	0xbde74d74	-0.1129407
184	0xbc8067b0	-0.015674442
185	0xbd771240	-0.06032014
186	0x3cffe80d	0.03123858
187	0x3caaa474	0.02083037
188	0xbd6dfcc5	-0.058102388
189	0x3d29df86	0.041472934
190	0xbc86a970	-0.016438216
191	0x3ca25ab0	0.019818634
192	0x3d03a3fc	0.03213881
193	0xbc8b0ac1	-0.016972901
194	0x3cb1b806	0.021694195
195	0x3c0c0520	0.008546144
196	0x3a3dd6b8	0.00072417734
197	0xbda28c5f	-0.0793693
198	0xbc25e612	-0.010125654
199	0x3c366708	0.011132963
200	0x3d939019	0.07205219
201	0x3d53609c	0.051605806
202	0x3c0bfbf4	0.008543957
203	0x3c4566cc	0.0120484345
204	0x3d17ea56	0.037088715
205	0x3d10e27e	0.03537225
206	0x3c871470	0.016489238
207	0xbb85379a	-0.004065466
208	0x3d44122c	0.047868893
209	0x3c5a5f06	0.013328319
210	0xbd15908c	-0.036514804
211	0x3c5faa7a	0.013651485
212	0x3ce26c66	0.027639579
213	0x3adbe468	0.0016776444
214	0xbd0ce1f3	-0.03439517
215	0xbc7b141d	-0.01532462
216	0xbd242e41	-0.040083174
217	0x3c6b16b2	0.014348673
218	0xbd85dba4	-0.06536034
219	0x3ca8b19d	0.020592505
220	0xbc5d43e8	-0.01350496
221	0x3d78cc36	0.060741626
222	0xbd2b383a	-0.04180167
223	0x3cdcf508	0.026972309
224	0x3b796ace	0.0038058045
225	0x3cd15aaa	0.025555927
226	0xbdcc806e	-0.099854335
227	0x3c13abf4	0.009013165
228	0x3db496c8	0.08817822
229	0xbcc4b3f6	-0.024011593
230	0xbbc91d8e	-0.0061375564
231	0xbda33754	-0.079695374
232	0xbd0e1ef2	-0.03469748
233	0xbcb57221	-0.022149147
234	0xbc491394	-0.012272734
235	0xbdc10e34	-0.09426537
236	0xbcc47260	-0.02398032
237	0x3d39168d	0.04518752
238	0xbb2aa422	-0.0026037772
239	0x3d72b0ba	0.05925057
240	0x3ce2344a	0.027612824
241	0x3ca8caa1	0.020604433
242	0x3d335da9	0.043790493
243	0xbcc12f7e	-0.023582216
244	0xba7a64a0	-0.00095517375
245	0x3c78c9f2	0.015184866
246	0xbd0285ea	-0.03186599
247	0xbcca78e5	-0.02471585
248	0x3c92a9ee	0.017903294
249	0xbc89dd28	-0.016829088
250	0x3d0b03d6	0.033939205
251	0xbbcd708e	-0.006269521
252	0xbd2a53df	-0.041583892
253	0xbc6e1d4a	-0.01453335
254	0xbd9eb517	-0.07749384
255	0xbc598c2c	-0.0132780485

std.constant4 f4 [128, 128]
0	0x3cf9e1a9	0.030503111
1	0xbd1502de	-0.036379687
2	0xbd577a8a	-0.052607097
3	0xbc9720cb	-0.018448254
4	0x3b5b4b30	0.0033461563
5	0xbd15214c	-0.036408707
6	0x3d00f6c6	0.03148534
7	0xbcd2b041	-0.02571881
8	0xbd60ab33	-0.05485077
9	0xbd84c24f	-0.06482374
10	0x3e180053	0.14843874
11	0x3d2e1b37	0.042506423
12	0x3d2f8d7a	0.042859532
13	0xbc7561c4	-0.014976922
14	0xbce1051d	-0.027468259
15	0xbdb8cb06	-0.09023099
16	0x3c904abe	0.017613765
17	0x3d48319e	0.048875444
18	0x3d56cf68	0.05244389
19	0x3c79747c	0.015225526
20	0xbc3d17e9	-0.011541345
21	0x3d8ca285	0.06866936
22	0x3d4d254e	0.050084405
23	0xbd5a2e51	-0.053266827
24	0x3c941573	0.018076634
25	0xbd97f45d	-0.074196555
26	0x3d6d46a3	0.057928693
27	0x3dbcfb4a	0.09227617
28	0x3dbac808	0.09120184
29	0xbd552bad	-0.052043606
30	0x3ae30ee8	0.0017323168
31	0x3dacbefa	0.084348634
32	0x3d11b0c4	0.035568967
33	0xbd222f58	-0.03959593
34	0xbc10a1e7	-0.008827663
35	0x3ca522d0	0.020158201
36	0xbc035ea0	-0.008018166
37	0xbc89e56c	-0.01683303
38	0xbce9ec20	-0.028554976
39	0xbc1c5b24	-0.009543214
40	0x3d7fcb06	0.062449478
41	0xbd2aabca	-0.041667737
42	0x3d826382	0.06366636
43	0x3d3a0ddf	0.045423385
44	0xbcd2c2ff	-0.025727747
45	0xbd5fbee8	-0.05462542
46	0xbcdc802a	-0.026916582
47	0xbd31471f	-0.043280717
48	0x3ce47c5a	0.027891327
49	0xbd582c2e	-0.052776508
50	0xbcda31aa	-0.02663501
51	0x3b3bb910	0.0028644241
52	0xbcc90020	-0.024536192
53	0xbd69d6ce	-0.05708962
54	0xbc130e7e	-0.008975623
55	0xbcde4d8a	-0.027136583
56	0x3dad4d17	0.08461969
57	0x3c506e55	0.012721618
58	0x3c78e1f6	0.015190592
59	0x3d58ec8a	0.052959956
60	0xbb0652e8	-0.0020496193
61	0xbc398d4c	-0.011325192
62	0xbd53cd70	-0.051709592
63	0x3d093bcf	0.033504304
64	0xbbbdc576	-0.0057913614
65	0x3b77700c	0.0037755994
66	0xbd9de95f	-0.07710528
67	0x3d30958e	0.043111376
68	0x3b9fc522	0.004875795
69	0xbc37d294	-0.011219639
70	0xbd5eb0f7	-0.054367986
71	0x3cf472e1	0.029839935
72	0xbcc351cb	-0.023842713
73	0xbc837fa2	-0.016052071
74	0xbc4a09d2	-0.012331443
75	0x3d833f60	0.06408572
76	0xbd8108e9	-0.063005276
77	0xbd3f5c75	-0.046719033
78	0x3c6c6cb2	0.014430212
79	0x3c15cf64	0.009143684
80	0xbd2c13fe	-0.042011254
81	0x3cb8a9d2	0.022541914
82	0xbd6bb901	-0.05754948
83	0xbd0441a3	-0.03228916
84	0x3b029f78	0.0019931477
85	0x3cf28806	0.029605877
86	0x3cd3bba4	0.02584631
87	0x3c9cc768	0.019138053
88	0x3d69c3e2	0.057071574
89	0x3d807f71	0.062743075
90	0x3dfaefdf	0.12252783
91	0x3c947e42	0.01812661
92	0xbda877f9	-0.08226008
93	0xbd2e51e3	-0.042558562
94	0xbda4dc42	-0.08049823
95	0x3c85d865	0.016338537
96	0xbd825cc6	-0.063653514
97	0x3c4f6153	0.012657481
98	0xbd13e5af	-0.036107715
99	0xbd3aaf45	-0.045577306
100	0xbd27b9a2	-0.040948518
101	0x3d29b70b	0.04143433
102	0xbcefdf11	-0.029281171
103	0xbc9148b5	-0.017734865
104	0x3d893458	0.06699437
105	0xbd4b492a	-0.04963032
106	0xbb11d548	-0.002225237
107	0x3ce48f09	0.027900236
108	0x3d85063c	0.0649533
109	0x3ca2f57c	0.019892447
110	0x3ca70646	0.020388734
111	0x3d27a04b	0.04092435
112	0xbb435298	-0.0029803868
113	0xbd013bc2	-0.03155113
114	0xbd1ab644	-0.03777148
115	0xbd2269b2	-0.03965158
116	0x3d06b0ac	0.03288333
117	0x3bc00360	0.0058597773
118	0x39f49cf0	0.00046656234
119	0x3d6ca6ce	0.057776265
120	0xbd96bed2	-0.07360615
121	0x3d79d70e	0.060996108
122	0x3d5d28a7	0.053993847
123	0x3bf31b6d	0.007419041
124	0xbcc67646	-0.024226319
125	0x3cdc6c84	0.026907213
126	0x3caafa5f	0.02087134
127	0x3d3fcf00	0.04682827
128	0xbcb99be2	-0.022657339
129	0xbd0e07ae	-0.034675293
130	0xbd10bb00	-0.035334587
131	0xbe1d8301	-0.15382005
132	0xbcd8a17a	-0.026444186
133	0xbd62ed61	-0.055402163
134	0x3dbf8492	0.09351458
135	0xbd82a5d3	-0.06379285
136	0xbd5b634e	-0.0535615
137	0x3af27af8	0.0018499782
138	0xbcd790b2	-0.026314113
139	0x3c67aa56	0.014139732
140	0x3c03b8bd	0.0080396505
141	0x3d1e6829	0.038673554
142	0xbd0ee835	-0.03488942
143	0x3b9b9192	0.004747578
144	0xbd05af12	-0.032637663
145	0xbd001940	-0.03127408
146	0x3c88c54d	0.016695643
147	0x3d9d1403	0.076698326
148	0x3c12e515	0.00896575
149	0xbd8294dc	-0.06376049
150	0x3c5d0d9d	0.013492015
151	0x3bfc69fa	0.007703063
152	0x3d54884c	0.051887795
153	0xbcc11377	-0.023568852
154	0xbd13e399	-0.036105726
155	0xbc7947e7	-0.015214897
156	0x3d161d8a	0.036649264
157	0xbd48d70f	-0.04903322
158	0xbca859f6	-0.02055071
159	0x3cbab760	0.022792518
160	0x3c00d810	0.007864013
161	0xbce3aa92	-0.027791295
162	0xbd0091ac	-0.031388924
163	0x3c59bdf8	0.013289921
164	0x3d012b85	0.031535644
165	0x3c4d1dc0	0.0125193
166	0x3ce9472b	0.028476318
167	0xbbfae6d0	-0.0076569095
168	0xbcfa91bf	-0.030587075
169	0x3d7f8a3c	0.06238769
170	0xbd0de604	-0.034643188
171	0x3d954023	0.07287624
172	0xbd824ddd	-0.063625075
173	0x3c1c64de	0.009545533
174	0xbc42be84	-0.011886243
175	0x3cad1932	0.021130178
176	0x3d61e312	0.05514819
177	0xbc28c54a	-0.010300944
178	0xbd06a8f2	-0.032875963
179	0x3d371649	0.044698987
180	0x3db54fdb	0.08853122
181	0x3c33f438	0.010983519
182	0xbb985c1c	-0.004649652
183	0xbb5e7760	-0.0033945665
184	0x3c09de3e	0.008414803
185	0x3db4b7e1	0.088241346
186	0xbdd55422	-0.10416438
187	0x3ac63080	0.0015120655
188	0xbd054a05	-0.032541294
189	0xbd1598ea	-0.036522783
190	0x3d25b3c0	0.040454626
191	0xbd287b73	-0.041133355
192	0xbca31f15	-0.019912282
193	0x3d6476af	0.055777248
194	0x3b5d7504	0.003379167
195	0x3cb92881	0.022602322
196	0x3dac1214	0.08401886
197	0x3d98d2b4	0.074620634
198	0xbd0e979c	-0.034812555
199	0xbd1bd6cf	-0.038046654
200	0xbdb6c1bf	-0.08923673
201	0xbcb15592	-0.021647248
202	0x3d7ce934	0.061745837
203	0xbacb3320	-0.0015502907
204	0x3c10322c	0.008801024
205	0xbd1e93b2	-0.038715072
206	0xbc7d62b5	-0.015465428
207	0x3d3f3e44	0.04669024
208	0x3d59443d	0.053043593
209	0x3c9adbde	0.018903669
210	0xbcf302b6	-0.029664379
211	0xbc9ea7a0	-0.01936704
212	0xbd8a0a3a	-0.06740232
213	0xbce7d622	-0.028300349
214	0xbd156e9f	-0.03648245
215	0xbd201d35	-0.039090354
216	0x3aca19c2	0.0015419053
217	0xbdd77863	-0.10521009
218	0xbd0bd27a	-0.034136273
219	0xbd2d7346	-0.04234626
220	0x3d629eda	0.055327274
221	0x3d1d6827	0.038429406
222	0xbc1ae216	-0.009453317
223	0x3d110076	0.03540083
224	0xbd2c46d4	-0.042059734
225	0xbd51b4f8	-0.051197976
226	0xbcad5667	-0.021159364
227	0x3c8a4bf4	0.01688192
228	0x3d1ea6fc	0.038733467
229	0xbcf3a206	-0.029740345
230	0xbd4c4bf5	-0.049877126
231	0x3b7a96d0	0.0038236864
232	0x3dc9ee7a	0.09859939
233	0x3d08f9b9	0.03344128
234	0xbce6a0d1	-0.028152855
235	0xbd0b623a	-0.034029223
236	0x3d4f8fe7	0.050674345
237	0x3cc14249	0.023591178
238	0x3d2a047f	0.041508194
239	0x3d6f645c	0.05844532
240	0xbc9d541b	-0.019205144
241	0x3ddf9e9f	0.109189264
242	0x3bc624de	0.0060468754
243	0x3d1d3809	0.038383517
244	0x3dbfe1ab	0.093692146
245	0x3c35f040	0.011104643
246	0x3ce4269e	0.027850445
247	0x3ce74e86	0.028235685
248	0xbc71deca	-0.01476259
249	0x3ce9f832	0.028560732
250	0xbd1ae723	-0.037818085
251	0xbd1ea267	-0.038729098
252	0x3d29eabf	0.041483637
253	0xbc4caa60	-0.012491792
254	0x3d715bef	0.058925565
255	0x3d18c18f	0.037293967

std.constant5 f4 [128, 128]
0	0xbd9fbb98	-0.077994525
1	0x3d9e4880	0.07728672
2	0xbe1a8e08	-0.15093243
3	0x3d911835	0.07084695
4	0xbdca97ae	-0.09892212
5	0xbbfa0fd1	-0.00763128
6	0xbc90bb4c	-0.017667435
7	0x3d1e881c	0.038704023
8	0xbc03469d	-0.008012441
9	0x3d3ac405	0.045597095
10	0xbd03991c	-0.03212844
11	0xbc981943	-0.018566733
12	0x3d79687e	0.060890667
13	0x3c1894fc	0.009312864
14	0x3d0081e4	0.031373873
15	0xbdbc5850	-0.09196532
16	0xbd4f78a5	-0.050652165
17	0x3b238dfb	0.0024956453
18	0x3dd0ad59	0.101893134
19	0xbcc69696	-0.024241727
20	0xbd86b4ce	-0.065774545
21	0xbd2d7f12	-0.04235751
22	0xbc5b0ec8	-0.013370223
23	0xbb8ef0eb	-0.0043622158
24	0x3cd8b17a	0.026451815
25	0x3d621966	0.055200003
26	0xbc33824b	-0.010956357
27	0xbc28cbe1	-0.010302515
28	0xbbc3e7b6	-0.00597855
29	0x3da01ed2	0.078183785
30	0xbcbf4ea6	-0.023352932
31	0x3d1c0a97	0.038096037
32	0xbcd1ec1a	-0.025625277
33	0xbd33a0a3	-0.043854367
34	0x3d905d6e	0.0704907
35	0xbd664d21	-0.0562259
36	0x3ccdca6d	0.025120938
37	0x3c594bff	0.013262748
38	0xbdb7d4fc	-0.089761704
39	0xbd8d3a4e	-0.06895886
40	0x3ba44e8d	0.005014247
41	0xbdb47ee9	-0.08813269
42	0x3c6cb10d	0.014446509
43	0x3d8f02c2	0.06982948
44	0xbc6c2432	-0.0144129265
45	0xbdd17c84	-0.102288276
46	0x39423cc0	0.00018523913
47	0xbd969827	-0.073532395
48	0xbb18c2e8	-0.0023309533
49	0xbd71edd1	-0.05906469
50	0xbce539da	-0.027981687
51	0xbd09a41a	-0.033603765
52	0x3c504232	0.012711095
53	0x3c31193c	0.010809239
54	0x3d651fa0	0.055938363
55	0x3c8e8fa4	0.017402478
56	0xbd3edc30	-0.046596706
57	0x3d77eb50	0.060527146
58	0xbcfe1436	-0.031015497
59	0xbd4acc9b	-0.049511533
60	0xbcf3196f	-0.029675214
61	0x3cbb9a09	0.022900598
62	0xbd43b432	-0.04777927
63	0xbc99e74a	-0.018787045
64	0xbcf5a282	-0.029984716
65	0xbd158b4e	-0.036509804
66	0xbdcf558a	-0.10123737
67	0x3cd11c1b	0.025526097
68	0x3d8351b7	0.0641207
69	0xbd0be1bf	-0.034150835
70	0x3ce109c6	0.02747048
71	0xbd85a9e6	-0.06526546
72	0x3d32fbb7	0.043697085
73	0x3cd7b3ca	0.026330847
74	0xbd40fbbe	-0.04711508
75	0xbd740434	-0.05957432
76	0xbd109eee	-0.035307817
77	0xbc10ce52	-0.008838253
78	0x3d7734d4	0.060353115
79	0xbd449fce	-0.048003964
80	0x3cc7b247	0.024377001
81	0x3d067b73	0.032832574
82	0xbb291148	-0.0025797654
83	0xba8638a2	-0.0010240267
84	0xbc9c74d2	-0.019098673
85	0x3d9a8a4a	0.07545908
86	0xbcb14cd7	-0.021643085
87	0xbbcd5976	-0.006266768
88	0xbd6f0bd3	-0.058360886
89	0x3c79d18c	0.015247714
90	0x3d2476b6	0.040152274
91	0x3d7e66d4	0.062109783
92	0x3d23a463	0.039951693
93	0x3d5c8d30	0.053845584
94	0xbb3a4dcf	-0.0028427725
95	0x3ce1ba01	0.027554514
96	0xbccdabb1	-0.025106283
97	0xbc84f4d1	-0.016230019
98	0xbcd06f37	-0.025443656
99	0xbd2d5c9a	-0.04232464
100	0xbc8f365c	-0.017481975
101	0xbd911625	-0.07084302
102	0xbbcebd6b	-0.0063092015
103	0xbd25e0a2	-0.04049743
104	0x3c5a5918	0.013326906
105	0x3d320668	0.04346314
106	0xbc266d1c	-0.01015785
107	0x3b79c4fa	0.0038111792
108	0xbd0d43da	-0.034488536
109	0x3d84161e	0.06449531
110	0xbd082214	-0.033235624
111	0xbcf9d66b	-0.03049775
112	0x3d5b0791	0.053474013
113	0x3c23bec4	0.009994213
114	0x3cacd4bb	0.021097532
115	0xbc996e62	-0.018729392
116	0xbcb61626	-0.022227358
117	0xbbc5866a	-0.0060279863
118	0x3b917fee	0.0044402992
119	0x3d52184b	0.0512927
120	0x3cdae927	0.026722504
121	0xbcf8c23d	-0.030366058
122	0xbd00b61b	-0.03142367
123	0x3d53c002	0.051696785
124	0x3b167ed0	0.002296377
125	0xbd55db22	-0.052210934
126	0x3c90c569	0.017672257
127	0x3ce9daad	0.028546656
128	0xbdb3b02c	-0.087738365
129	0x3d022dbe	0.031781904
130	0xbc6b4360	-0.014359325
131	0xbc95022c	-0.018189512
132	0x3d206097	0.039154615
133	0xbd6786f0	-0.05652517
134	0x3bf65ba0	0.007518247
135	0x3d34a1b1	0.044099513
136	0xbd56c581	-0.05243445
137	0xbd713770	-0.05889076
138	0xbd8f8394	-0.070075184
139	0x3cd23a5c	0.025662594
140	0x3cf95984	0.030438192
141	0x3d81da6f	0.06340491
142	0xbc794204	-0.015213493
143	0x3d4a7a06	0.049432777
144	0x3d424885	0.04743244
145	0xbc3c543f	-0.011494695
146	0x3d8ef7c8	0.06980854
147	0xbc10830f	-0.008820309
148	0xbc94c124	-0.018158503
149	0x3bd5896c	0.006516626
150	0xbd815162	-0.06314351
151	0x3d2aa798	0.041663736
152	0x3c611054	0.013736803
153	0xbd514939	-0.05109522
154	0x3d288d92	0.041150637
155	0xbd91565c	-0.0709655
156	0xbb8db165	-0.0043241256
157	0xbd9f6bd6	-0.0778424
158	0x3d821efa	0.063535646
159	0xbd626fe5	-0.055282492
160	0xbca09ea8	-0.019606903
161	0x3d140620	0.036138654
162	0x3dbc856a	0.09205134
163	0xbd33f5e7	-0.043935683
164	0x3cf3f94d	0.029781962
165	0xbd2de171	-0.042451326
166	0xbded14f0	-0.11576259
167	0x3dc0443c	0.09388015
168	0x3bacf2a6	0.0052779494
169	0xbbbc4622	-0.005745665
170	0xbc4b9b97	-0.012427232
171	0xbbdc7d0a	-0.006728773
172	0x3c417a8e	0.0118090045
173	0x3c5fe788	0.013666041
174	0x3c99a6b9	0.018756257
175	0x3cf64370	0.030061454
176	0x3d85d093	0.06533923
177	0x3c1f77c3	0.009733143
178	0xbce185c0	-0.027529597
179	0xbd4dd195	-0.0502487
180	0x3d5d55d5	0.054036934
181	0xbd03a039	-0.032135222
182	0x3a4d2464	0.0007825552
183	0xbd4d7889	-0.05016378
184	0xbd90c8e4	-0.07069567
185	0x3bfd5f32	0.0077322954
186	0x3c91be68	0.017790988
187	0x3c8b51ca	0.017006774
188	0x3d5c2f23	0.05375589
189	0x3d49c72c	0.04926221
190	0x3cd5e270	0.02610895
191	0x3989bcc0	0.00026271306
192	0x3b662c84	0.0035121748
193	0xbc74d592	-0.014943497
194	0xbd06d202	-0.032915123
195	0xbdb423aa	-0.08795865
196	0xbc448e48	-0.011996813
197	0xbc116d9f	-0.008876233
198	0x3d817880	0.06321812
199	0xbb7b02de	-0.003830127
200	0x3d4272db	0.047472816
201	0x3b827bec	0.003982058
202	0x3d826b49	0.06368119
203	0xbd01ca0a	-0.03168682
204	0x3c137f38	0.009002499
205	0xbd954298	-0.072880924
206	0x3d557aa3	0.05211891
207	0x3c9007e9	0.017581897
208	0xbd274716	-0.040839277
209	0xbd1a180b	-0.037620585
210	0xbd6f376f	-0.058402475
211	0x3b445510	0.0029957928
212	0x3d5596b1	0.052145664
213	0xbd3be29f	-0.04587042
214	0xbc92601e	-0.017868098
215	0x3d2a4ade	0.041575305
216	0xbcaf275e	-0.021381076
217	0x3d42092b	0.047372025
218	0xbcd0f7db	-0.025508812
219	0xbc46f1d0	-0.0121426135
220	0x3c27d0a6	0.010242617
221	0xbc2ba606	-0.010476595
222	0xbd288ff2	-0.041152902
223	0xbd4c9be9	-0.049953375
224	0x3d3d2462	0.046177275
225	0xbd9698f2	-0.07353391
226	0x3d185572	0.037190862
227	0x3cde19fe	0.027112003
228	0x3d021e96	0.03176745
229	0x3ce2f0a5	0.027702639
230	0xbd0a6485	-0.03378727
231	0xbd62f39e	-0.055408113
232	0x3d71595f	0.05892312
233	0xbc441036	-0.011966756
234	0xbd720987	-0.059091117
235	0xbb82cf5c	-0.0039920043
236	0xbd16be42	-0.036802538
237	0xbd9090f7	-0.070589
238	0x3cb13c13	0.021635091
239	0xbc90a24e	-0.017655518
240	0xbe0ed64c	-0.13948935
241	0x3d2d0e26	0.04224982
242	0xbcb83cb2	-0.02248988
243	0xbdaeccfd	-0.08535192
244	0xbcf3e46a	-0.029772002
245	0xbdb57a87	-0.08861261
246	0x3c0e7e1c	0.008697059
247	0x3c539fec	0.012916546
248	0x3d20ffbb	0.039306384
249	0xbbfb50bf	-0.007669538
250	0xbc8f8c91	-0.017523082
251	0xbcaf1203	-0.021370893
252	0x3c558984	0.013033275
253	0xbd6e1a05	-0.058130283
254	0xbcfbed52	-0.030752812
255	0xbccc4092	-0.024933133

std.constant6 f4 [128, 128]
0	0xbce3acc0	-0.027792335
1	0xbc15cfc7	-0.009143776
2	0x3c178596	0.009248158
3	0x3cdc0f4f	0.026862768
4	0xbb80c4b8	-0.0039297007
5	0x3d9b0576	0.07569401
6	0xbc8bb072	-0.01705191
7	0x3c2bb4f8	0.010480158
8	0xbb949450	-0.004534282
9	0x3d8e4b85	0.06947998
10	0xbc985a5a	-0.01859777
11	0xbcade246	-0.02122606
12	0xbc9004e1	-0.017580451
13	0xbd3757dc	-0.044761524
14	0x3a546250	0.0008101808
15	0x3d4cee6c	0.050032064
16	0xbd061e90	-0.03274399
17	0x3c8b1e9d	0.016982371
18	0x3acccfc0	0.0015625879
19	0xbbc9964c	-0.00615195
20	0xbd0b6033	-0.03402729
21	0xbd36fc3d	-0.044674147
22	0xbd8b1f04	-0.06793025
23	0xbc393cf0	-0.011306033
24	0xbd27b353	-0.0409425
25	0xbd3bfaab	-0.045893352
26	0x3d2bfdc6	0.041990064
27	0xb9886880	-0.000260178
28	0xbd079254	-0.033098534
29	0xbbc71550	-0.0060755387
30	0xbc7363e7	-0.014855362
31	0x3c8b9dc0	0.017042994
32	0xbdd33d66	-0.10314445
33	0xbdc2e0f4	-0.09515563
34	0x3cb84d86	0.022497904
35	0x3d81a47b	0.063302
36	0xbce8fe6a	-0.028441627
37	0x3ae32f20	0.001733277
38	0x3ab67ef8	0.0013923338
39	0xbc8989a2	-0.016789261
40	0xbc82eba6	-0.015981507
41	0xbbc0614b	-0.005870973
42	0x3d3dd29a	0.046343423
43	0xbd9e0110	-0.077150464
44	0x3d216064	0.039398566
45	0x3c632d3a	0.013865763
46	0x3b0f2850	0.0021844096
47	0x3d03270c	0.03201966
48	0x3d820e98	0.0635044
49	0xbb707e4a	-0.0036696368
50	0x3d23a2c4	0.039950147
51	0xbd374b5e	-0.04474961
52	0xbcb1ffe6	-0.021728467
53	0xbd2da3dd	-0.0423926
54	0x3d5d6d88	0.054059535
55	0xbda5f8dc	-0.08104107
56	0x3cf560d6	0.029953402
57	0x3d0e3afe	0.034724228
58	0x3c0f0fed	0.008731824
59	0xb9aeaffc	-0.00033318985
60	0xbcd1594d	-0.025555277
61	0xbd3dc129	-0.04632679
62	0xbc95e09b	-0.018295577
63	0x3c878411	0.016542466
64	0x3ceb0cb3	0.028692579
65	0x3b88ec4a	0.0041785585
66	0x3d76ecb6	0.06028434
67	0xbcfe95c4	-0.031077273
68	0x3ad11350	0.001595119
69	0x3d2d64eb	0.04233257
70	0x3c46647a	0.012108916
71	0x3cea3d75	0.028593758
72	0xbb585c60	-0.0033014044
73	0xbd9c8748	-0.0764299
74	0x3bf8eb8c	0.0075964388
75	0x3cd74512	0.026278052
76	0xbd850dd2	-0.06496777
77	0xbcbffe6c	-0.023436747
78	0x3db9b6ac	0.09068045
79	0x3cd3c2b0	0.02584967
80	0x3d48abd1	0.048991982
81	0x3d0bd33c	0.034136996
82	0x3d1849b3	0.03717966
83	0x3c311164	0.010807369
84	0xbbeb677b	-0.0071839667
85	0x3c9a2d10	0.018820316
86	0x3ce1aab8	0.027547225
87	0x3b8c6bc8	0.0042853095
88	0x390dafb0	0.00013512257
89	0x3c965ad7	0.018353863
90	0xbd6e566f	-0.0581879
91	0xbd9a2654	-0.07526842
92	0x3d0af8ea	0.03392879
93	0xbc099d9e	-0.008399395
94	0xbd1529b6	-0.03641673
95	0x3d925447	0.07144981
96	0x3ca2d462	0.019876663
97	0xbc49e380	-0.012322307
98	0xbdb61482	-0.0889063
99	0xbc01f6c7	-0.007932371
100	0x3d514348	0.051089555
101	0xbb4f9240	-0.0031672865
102	0xbd895406	-0.06705479
103	0x3c880a2c	0.016606413
104	0xbced6e68	-0.02898331
105	0x3ca6c674	0.020358302
106	0x3d1cba51	0.038263623
107	0x3d914937	0.07094043
108	0x3c620034	0.013793994
109	0x3d6b5162	0.05745066
110	0x3aa828a6	0.0012829497
111	0xbbaf9d74	-0.005359346
112	0x3d3d97f1	0.04628748
113	0x3cb6abdc	0.022298746
114	0xbd36458e	-0.044499926
115	0xbcf592d2	-0.029977236
116	0x3cdc252a	0.02687319
117	0x3c0d7d72	0.0086358655
118	0xbd1cddc1	-0.03829742
119	0x3cbc453e	0.022982236
120	0x3ce2816e	0.027649608
121	0xbaefd832	-0.0018298684
122	0x3c589e14	0.0132212825
123	0x3c38cadc	0.011278834
124	0x3c9a784c	0.01885619
125	0x3da84092	0.08215441
126	0x3b8edff1	0.004360192
127	0xbd114337	-0.03546449
128	0x3c3b135b	0.011418189
129	0xbc492a00	-0.01227808
130	0x3cbcfeab	0.023070654
131	0x3d9a1dfc	0.0752525
132	0x3d4360ea	0.047699846
133	0x3c8e76d0	0.017390639
134	0xbc929bbc	-0.017896526
135	0x3d17d1a8	0.03706518
136	0xbd7a6918	-0.06113538
137	0x3c8e4e86	0.017371427
138	0x3d8cf6db	0.068830214
139	0xbc851a4c	-0.01624789
140	0xbcccc9ba	-0.024998534
141	0xbd8101c9	-0.062991686
142	0x3d861360	0.06546664
143	0x3ba6cbad	0.005090198
144	0xbbb68ecf	-0.0055712233
145	0xbda095cd	-0.07841072
146	0x3dbfa3a8	0.09357387
147	0xbd60301b	-0.054733377
148	0x3c2d4c8e	0.010577334
149	0xbd77a7bb	-0.060462695
150	0x3d156a76	0.036478482
151	0xbc2ab846	-0.010419911
152	0x3d7d776a	0.06188146
153	0x3bf8ab85	0.007588806
154	0x3c8724f0	0.016497105
155	0xbd36c262	-0.04461897
156	0xbd15eac7	-0.036600854
157	0xbd709876	-0.058739148
158	0x3ce2b6f2	0.027675126
159	0x3c9aea2a	0.018910486
160	0xbd1db85c	-0.038505897
161	0x3d5ceeae	0.05393856
162	0x3d18c16b	0.037293833
163	0x3d14ef1b	0.03636084
164	0xbd694dfb	-0.056959134
165	0xbc582ee3	-0.013194772
166	0xbd4de8f8	-0.050271004
167	0x3dad25ce	0.08454476
168	0x3bbdf6c8	0.005797241
169	0xbd26168f	-0.040548857
170	0xbd7945a1	-0.06085742
171	0x3bf9d8b4	0.00762471
172	0x3d4b4eb3	0.0496356
173	0xbbc53de4	-0.006019341
174	0xbbcdbd4c	-0.0062786695
175	0xbd48315a	-0.04887519
176	0x3c94ed3d	0.01817953
177	0x3c6a9f69	0.014320233
178	0x3d327dc3	0.043576967
179	0x3d5d1bce	0.053981595
180	0xbd411eba	-0.047148444
181	0x3d188574	0.037236646
182	0xbc0f0fa1	-0.008731754
183	0xbc08da98	-0.008352898
184	0xbc380c73	-0.011233437
185	0xbd0054b0	-0.031330764
186	0xbc55c28d	-0.013046873
187	0xbb152752	-0.0022759032
188	0x3d5ef0e7	0.05442896
189	0xbccb8fea	-0.024848897
190	0xbb67bef5	-0.0035361622
191	0xbd6840ef	-0.05670255
192	0x3dad1701	0.08451653
193	0x3d9ceb4a	0.07662065
194	0x3cb42543	0.021990424
195	0x3c2d1bb8	0.010565691
196	0x3d22ed93	0.03977735
197	0x3ca41997	0.020031733
198	0x3c038403	0.0080270795
199	0x3d3ea613	0.0465451
200	0xbdbacfde	-0.09121679
201	0x3b4c8626	0.0031207888
202	0x3d4eb908	0.05046943
203	0xbc995a7e	-0.018719908
204	0x3dfaaff7	0.12240594
205	0x3d294d0c	0.041333243
206	0x3ba4527f	0.005014717
207	0x3c082296	0.008309027
208	0xbd953805	-0.072860755
209	0xbbcf073a	-0.006318
210	0x3d5a3d58	0.05328116
211	0x3d2dddcf	0.04244786
212	0x3d4e6a38	0.050394267
213	0x3d8bb481	0.06821538
214	0xbd47dd0a	-0.048794784
215	0x3d94362c	0.07236895
216	0x3d54298d	0.05179744
217	0x3d3e7e1c	0.046506986
218	0x3a100110	0.00054933224
219	0x3d482754	0.04886563
220	0x3d4b39f5	0.04961582
221	0xbd330576	-0.04370638
222	0x3cbfad6f	0.02339813
223	0xbd03704f	-0.032089528
224	0xbde29e96	-0.11065404
225	0x3da6f3ea	0.08151992
226	0x3d7c4a54	0.061594322
227	0xbcd7204d	-0.02626052
228	0x3cc86a51	0.024464758
229	0xbd90acf3	-0.070642374
230	0x3d28c83c	0.041206583
231	0xbb257c91	-0.002525125
232	0x3d026d3a	0.031842448
233	0xbb269339	-0.0025417341
234	0x3cc2cf85	0.023780594
235	0x3cdfe953	0.027332937
236	0x3bf72948	0.007542763
237	0x3c952f74	0.018211104
238	0x3c842bda	0.016134191
239	0x3d8595d0	0.06522715
240	0x3cce2e15	0.025168458
241	0xbbb5bfe3	-0.0055465563
242	0xbdcbada7	-0.09945231
243	0xbc0904a5	-0.008362924
244	0xbbd097d6	-0.0063657565
245	0x3d8c8f1d	0.06863234
246	0xbced96a4	-0.029002495
247	0xbcfff464	-0.031244464
248	0x3d763a40	0.060114145
249	0xbc1f7115	-0.009731551
250	0x3c6e48bf	0.014543711
251	0xbcb188b7	-0.021671636
252	0x3abeacd7	0.001454736
253	0xbcc70955	-0.024296442
254	0x3d40b596	0.047048174
255	0xbd194f4e	-0.037429146

std.constant7 f4 [128]
0	0x3c1c6d58	0.009547554
1	0x3cd58176	0.026062708
2	0x3cc51be5	0.024061153
3	0xbc019695	-0.007909437
4	0xbbb9ba7c	-0.0056679826
5	0x3baddf3b	0.005306152
6	0xbca42d44	-0.020041116
7	0x3c39e375	0.011345734
8	0x3bbf56a5	0.0058391863
9	0x3e023f44	0.12719446
10	0x3c207793	0.009794134
11	0xba281bf3	-0.0006412856
12	0xbc699c3f	-0.014258443
13	0xbb9c990d	-0.0047789873
14	0xbc5f15a5	-0.013616
15	0x3d50ee93	0.051008772
16	0x3bc66e6f	0.006055645
17	0x39897134	0.0002621502
18	0x3e04fa94	0.12986213
19	0xbb9192c5	-0.004442545
20	0x3ba7ffb4	0.0051269177
21	0x3dc45776	0.09586994
22	0xbc5508ee	-0.013002617
23	0x3d5a0af1	0.05323309
24	0x3c3afb14	0.011412401
25	0xbc35b5ea	-0.011090735
26	0x3de7c730	0.11317289
27	0x3d39cc8a	0.04536108
28	0x3bc1e007	0.0059165987
29	0xbbb1633e	-0.005413442
30	0x3d6144aa	0.054997124
31	0x39b94613	0.0003533816
32	0x3e0486db	0.12942068
33	0xbbb41466	-0.0054955957
34	0xbb31ac53	-0.002711077
35	0x3d0d0615	0.03442963
36	0x3bc02c69	0.005864669
37	0x3c33754f	0.0109532615
38	0xbc7a8508	-0.015290506
39	0x3dd22de0	0.10262656
40	0xbc28f546	-0.010312384
41	0xbba13602	-0.0049197683
42	0x3c26e592	0.01018657
43	0x3aad096f	0.0013201664
44	0xbc4cd843	-0.012502733
45	0xbae9b0be	-0.0017829163
46	0x3c363b2b	0.011122505
47	0x3cacc5fa	0.021090496
48	0x3d4916bf	0.049093958
49	0x3d32e330	0.043673694
50	0xbbcaa72f	-0.0061844806
51	0xbc894250	-0.016755253
52	0x3ca96376	0.02067731
53	0xba637575	-0.0008676865
54	0x3d20fe20	0.039304852
55	0x3b18edd9	0.0023335128
56	0xba8d8639	-0.0010797448
57	0x3c56454b	0.013078044
58	0xbc3463ee	-0.011010153
59	0x3a25c4a1	0.00063235505
60	0xba11eb86	-0.0005566407
61	0x3c7e712f	0.015529915
62	0x3c2847f6	0.010271063
63	0xbbf3098c	-0.0074169096
64	0x3ad26f74	0.0016054944
65	0xbc3aeb1d	-0.011408594
66	0x3bd9e761	0.006649897
67	0x3bd90be8	0.006623734
68	0xbafadcae	-0.0019139254
69	0x3c813537	0.015772445
70	0x3dd99722	0.106245294
71	0xbb9ecd3a	-0.0048462423
72	0xbbec786c	-0.007216504
73	0x3d664766	0.056220435
74	0xbc3ab373	-0.011395323
75	0xbbe5f4f8	-0.007017728
76	0x3dab135d	0.08353303
77	0xbca1647c	-0.019701235
78	0xbc42045b	-0.011841859
79	0x3d326853	0.043556523
80	0xbb94804a	-0.004531895
81	0xbba09aee	-0.0049012816
82	0xbc7b1b7d	-0.015326378
83	0x3b0af3fe	0.002120256
84	0xbc83330a	-0.016015548
85	0xbb191a82	-0.0023361747
86	0xbc15ec33	-0.009150553
87	0x3ce5d42a	0.02805527
88	0x3d7b79e5	0.061395545
89	0x3d95463c	0.07288787
90	0x3d4320d7	0.04763874
91	0xbc9cc34a	-0.01913609
92	0x3d1a4340	0.03766179
93	0xbc5f4ff6	-0.013629904
94	0x3be852ea	0.0070899623
95	0x3e00db0e	0.12583563
96	0x3bfe71d7	0.0077650356
97	0x3bcf6949	0.0063296896
98	0xbca83aac	-0.02053579
99	0xbabc6646	-0.0014373742
100	0x3d4e1ed1	0.050322358
101	0xbad2296f	-0.0016034077
102	0xbbd1c330	-0.006401442
103	0x3de21e89	0.1104098
104	0x3d31b2e6	0.0433835
105	0xbc5cb8b2	-0.013471769
106	0xbc866d2a	-0.016409475
107	0xbc4adfb3	-0.012382436
108	0x3ab9e6ea	0.0014183198
109	0x3cd40855	0.02588288
110	0x3c1cbab5	0.009565999
111	0xbca0fa10	-0.01965049
112	0x3d17be44	0.037046686
113	0x3d337dfb	0.043821316
114	0xbc0e730c	-0.0086944215
115	0xbc394ca3	-0.0113097755
116	0x3c2068ed	0.009790641
117	0x3afc54dd	0.0019251365
118	0x3de695ff	0.11259078
119	0x3bbf42a2	0.0058368007
120	0x3b99b988	0.0046913065
121	0xba3d37b9	-0.0007218081
122	0x3a603eac	0.0008554261
123	0xbaab1ae7	-0.0013054282
124	0xbafca525	-0.0019275291
125	0x3b8e842c	0.004349252
126	0xbc24874e	-0.010042025
127	0x3b6bf3a1	0.0036003368

std.constant8 f4 [128]
0	0xbbd79409	-0.0065789265
1	0x3b8b96d9	0.004259926
2	0x3bab9aab	0.0052369437
3	0xbac95272	-0.0015359654
4	0xbbd712cb	-0.0065635196
5	0x3b909b93	0.004413077
6	0x3c726a2b	0.01479582
7	0x3ae34a26	0.0017340824
8	0xbb19d0c1	-0.0023470374
9	0xbb87a768	-0.0041398294
10	0x3bac7487	0.0052629146
11	0x3bbb60be	0.0057183197
12	0xbbd28da2	-0.0064255754
13	0xbb7442e7	-0.0037271322
14	0x3c30d608	0.0107932165
15	0xbc5c3ec5	-0.0134427
16	0xbc6b9595	-0.014378925
17	0x3c0f2270	0.008736238
18	0x3b7bece5	0.003844076
19	0x3ba8a5d3	0.005146721
20	0xbb1b06cf	-0.0023655181
21	0xbbd12317	-0.006382357
22	0x3c5cb645	0.013471191
23	0x3bbe9fd2	0.005817392
24	0xbb789783	-0.0037932105
25	0x3c5c62e4	0.013451312
26	0x3bcf54d9	0.0063272533
27	0x3c16be72	0.009200679
28	0xbb97a336	-0.0046276106
29	0x3b6624a1	0.0035117047
30	0xbc739556	-0.014867147
31	0xbbae0319	-0.005310428
32	0x3bd911f2	0.0066244537
33	0xba3ef16e	-0.00072839006
34	0xbbfd864f	-0.007736958
35	0xbc4d187c	-0.012518045
36	0x3c4b057f	0.012391447
37	0xbb7abffe	-0.003826141
38	0x3c14763c	0.009061392
39	0xbbe74b2f	-0.007058523
40	0xbc4938dd	-0.012281624
41	0xbc5ddb44	-0.0135410465
42	0x3b81ee97	0.0039652097
43	0x3b21ab1b	0.0024668637
44	0x3c5230df	0.012829035
45	0x3af9bfbd	0.0019054335
46	0x3b9ba003	0.0047492995
47	0xbbc2eaa7	-0.005948383
48	0xbbb623c3	-0.0055584623
49	0xbba4c35a	-0.0050281705
50	0x3b4d6661	0.003134154
51	0x3c0e219a	0.008675003
52	0x3b54faf1	0.0032498206
53	0xbb828e14	-0.003984222
54	0x3b86021f	0.0040896083
55	0xbba8f5de	-0.005156263
56	0xbb5aa7f6	-0.0033364273
57	0xbbfbba0d	-0.007682091
58	0xbc5e6887	-0.013574726
59	0x3bfd4686	0.0077293543
60	0x3c329681	0.010900141
61	0xbbcc6e24	-0.0062387157
62	0xbba030ef	-0.004888646
63	0x3bb05c10	0.0053820685
64	0x39751078	0.00023371156
65	0xbc117606	-0.008878237
66	0xbbb50ba3	-0.005525069
67	0x3be9119f	0.0071126963
68	0xb9206d9c	-0.00015299622
69	0xbbc42f1e	-0.005987062
70	0xbbab962b	-0.0052364073
71	0xbbeca45d	-0.007221742
72	0x3b1670b6	0.0022955365
73	0xbc1005f3	-0.008790481
74	0xbc47b72d	-0.012189669
75	0xbbb5c24b	-0.005546843
76	0x3b5a3f99	0.0033302067
77	0xbbf4304a	-0.0074520456
78	0x3c5282a5	0.012848531
79	0xbba49849	-0.0050230366
80	0xbb99b618	-0.0046908967
81	0x3b784216	0.0037881187
82	0x3c72095a	0.014772737
83	0x3c5db101	0.013530971
84	0x3c056cdb	0.008143629
85	0x3bb1e227	0.005428571
86	0x3c31ea38	0.010859065
87	0x3a1d42b2	0.0005999013
88	0xb9f8bf6c	-0.00047444867
89	0xbbac6baa	-0.005261858
90	0x3c5291ab	0.012852113
91	0x3c64f52e	0.013974471
92	0x3c0cd527	0.008595741
93	0x3c5ad9bd	0.013357577
94	0xbb933027	-0.004491824
95	0xbbb50dc9	-0.005525325
96	0x3ad84fbd	0.0016503256
97	0xbbc0761c	-0.0058734547
98	0xbc818066	-0.015808295
99	0x3bebc840	0.0071955025
100	0x3a7110cd	0.0009195924
101	0x3adbfdd6	0.0016784023
102	0x3c783068	0.01514826
103	0x3c384f25	0.011249338
104	0x3ad1f8ca	0.001601958
105	0xbc84432d	-0.016145313
106	0x3c897904	0.016781338
107	0x3c89f10c	0.016838573
108	0x3c8354e7	0.016031696
109	0xbb391038	-0.0028238427
110	0xbb97a3eb	-0.004627695
111	0x3c885ee8	0.016646817
112	0x3c5b144b	0.013371537
113	0xbc22d619	-0.00993874
114	0xbbeb0850	-0.007172622
115	0x3c6edc35	0.014578869
116	0x3aadcd51	0.0013260042
117	0xbaa67967	-0.0012700976
118	0x3b80f891	0.0039358814
119	0x3bcfa821	0.006337181
120	0xbb632ec9	-0.0034665337
121	0x3b382f27	0.0028104277
122	0xba1563a2	-0.00056987454
123	0x39bc092f	0.00035864997
124	0xbc3178d3	-0.010832029
125	0x3a1a1123	0.00058771874
126	0x3c8536a0	0.016261399
127	0x3bb23cae	0.0054393625

std.constant9 f4 [128]
0	0x3f800000	1.0
1	0x3f800000	1.0
2	0x3f800000	1.0
3	0x3f800000	1.0
4	0x3f800000	1.0
5	0x3f800000	1.0
6	0x3f800000	1.0
7	0x3f800000	1.0
8	0x3f800000	1.0
9	0x3f800000	1.0
10	0x3f800000	1.0
11	0x3f800000	1.0
12	0x3f800000	1.0
13	0x3f800000	1.0
14	0x3f800000	1.0
15	0x3f800000	1.0
16	0x3f800000	1.0
17	0x3f800000	1.0
18	0x3f800000	1.0
19	0x3f800000	1.0
20	0x3f800000	1.0
21	0x3f800000	1.0
22	0x3f800000	1.0
23	0x3f800000	1.0
24	0x3f800000	1.0
25	0x3f800000	1.0
26	0x3f800000	1.0
27	0x3f800000	1.0
28	0x3f800000	1.0
29	0x3f800000	1.0
30	0x3f800000	1.0
31	0x3f800000	1.0
32	0x3f800000	1.0
33	0x3f800000	1.0
34	0x3f800000	1.0
35	0x3f800000	1.0
36	0x3f800000	1.0
37	0x3f800000	1.0
38	0x3f800000	1.0
39	0x3f800000	1.0
40	0x3f800000	1.0
41	0x3f800000	1.0
42	0x3f800000	1.0
43	0x3f800000	1.0
44	0x3f800000	1.0
45	0x3f800000	1.0
46	0x3f800000	1.0
47	0x3f800000	1.0
48	0x3f800000	1.0
49	0x3f800000	1.0
50	0x3f800000	1.0
51	0x3f800000	1.0
52	0x3f800000	1.0
53	0x3f800000	1.0
54	0x3f800000	1.0
55	0x3f800000	1.0
56	0x3f800000	1.0
57	0x3f800000	1.0
58	0x3f800000	1.0
59	0x3f800000	1.0
60	0x3f800000	1.0
61	0x3f800000	1.0
62	0x3f800000	1.0
63	0x3f800000	1.0
64	0x3f800000	1.0
65	0x3f800000	1.0
66	0x3f800000	1.0
67	0x3f800000	1.0
68	0x3f800000	1.0
69	0x3f800000	1.0
70	0x3f800000	1.0
71	0x3f800000	1.0
72	0x3f800000	1.0
73	0x3f800000	1.0
74	0x3f800000	1.0
75	0x3f800000	1.0
76	0x3f800000	1.0
77	0x3f800000	1.0
78	0x3f800000	1.0
79	0x3f800000	1.0
80	0x3f800000	1.0
81	0x3f800000	1.0
82	0x3f800000	1.0
83	0x3f800000	1.0
84	0x3f800000	1.0
85	0x3f800000	1.0
86	0x3f800000	1.0
87	0x3f800000	1.0
88	0x3f800000	1.0
89	0x3f800000	1.0
90	0x3f800000	1.0
91	0x3f800000	1.0
92	0x3f800000	1.0
93	0x3f800000	1.0
94	0x3f800000	1.0
95	0x3f800000	1.0
96	0x3f800000	1.0
97	0x3f800000	1.0
98	0x3f800000	1.0
99	0x3f800000	1.0
100	0x3f800000	1.0
101	0x3f800000	1.0
102	0x3f800000	1.0
103	0x3f800000	1.0
104	0x3f800000	1.0
105	0x3f800000	1.0
106	0x3f800000	1.0
107	0x3f800000	1.0
108	0x3f800000	1.0
109	0x3f800000	1.0
110	0x3f800000	1.0
111	0x3f800000	1.0
112	0x3f800000	1.0
113	0x3f800000	1.0
114	0x3f800000	1.0
115	0x3f800000	1.0
116	0x3f800000	1.0
117	0x3f800000	1.0
118	0x3f800000	1.0
119	0x3f800000	1.0
120	0x3f800000	1.0
121	0x3f800000	1.0
122	0x3f800000	1.0
123	0x3f800000	1.0
124	0x3f800000	1.0
125	0x3f800000	1.0
126	0x3f800000	1.0
127	0x3f800000	1.0

std.constant10 f4 [128]
0	0x3c2858c0	0.010275066
1	0x3cd8f2c7	0.026482953
2	0x3cc81677	0.024424775
3	0xbbfc5df9	-0.007701632
4	0xbb9d5b8c	-0.004802173
5	0x3b69c1b1	0.0035668428
6	0xbca0a204	-0.019608505
7	0x3c278bc8	0.010226198
8	0x3be70329	0.0070499373
9	0x3e00a9f7	0.12564836
10	0x3c168803	0.009187701
11	0xba925aba	-0.0011165955
12	0xbc69ac8b	-0.014262329
13	0xbba30bc7	-0.004975769
14	0xbc5f0d12	-0.013613956
15	0x3d5235a1	0.051320676
16	0x3bc9f587	0.0061633023
17	0x39e47a0a	0.00043578475
18	0x3e065715	0.13119157
19	0xbba9119b	-0.0051595694
20	0x3b90baf5	0.0044168183
21	0x3dc9c136	0.09851305
22	0xbc5730b8	-0.013134174
23	0x3d54301a	0.051803686
24	0x3c4aea1a	0.012384916
25	0xbc366bab	-0.0111340685
26	0x3de72a3b	0.11287352
27	0x3d3c3b3b	0.045954924
28	0x3b96a4e3	0.0045972927
29	0xbbb07cbd	-0.0053859637
30	0x3d5ec424	0.054386273
31	0x3b643c58	0.0034826007
32	0x3e015d84	0.1263333
33	0xbbbca4fe	-0.0057569733
34	0xbb0ef748	-0.0021814872
35	0x3d088e62	0.03333891
36	0x3bd244cd	0.006416893
37	0x3c3611e1	0.011112661
38	0xbc7ca04f	-0.01541908
39	0x3dd09ceb	0.1018618
40	0xbc2944b2	-0.01033132
41	0xbb9cf03b	-0.00478938
42	0x3c199e5a	0.009376133
43	0x3ab956ee	0.0014140287
44	0xbc4d9ea9	-0.012550035
45	0xba98286a	-0.0011608724
46	0x3c31ff25	0.010864054
47	0x3ca4f66a	0.02013703
48	0x3d4920b2	0.049103446
49	0x3d2956f7	0.0413427
50	0xbbd8857d	-0.00660771
51	0xbc821e1a	-0.015883494
52	0x3ca7f030	0.020500273
53	0xb9eae7e3	-0.00044804727
54	0x3d21024d	0.039308835
55	0x3b376336	0.0027982718
56	0xba24dff4	-0.0006289475
57	0x3c55732c	0.013027947
58	0xbc34ea9a	-0.0110422615
59	0x3a385d11	0.0007032911
60	0x3a3ed205	0.000727922
61	0x3c66a3ae	0.01407711
62	0x3c2421f3	0.01001786
63	0xbc07eea4	-0.008296642
64	0x3a8f889e	0.0010950749
65	0xbc423410	-0.011853233
66	0x3bce3c68	0.006293822
67	0x3bd7e5ee	0.006588689
68	0xbb0d031b	-0.0021516744
69	0x3c746bae	0.014918251
70	0x3dd6a354	0.10480371
71	0xbb9c5428	-0.0047707744
72	0xbbe81f20	-0.0070837885
73	0x3d6d88a4	0.05799164
74	0xbc54619a	-0.012962723
75	0xbbe88d4b	-0.0070969216
76	0x3dad5e36	0.08465235
77	0xbc8411be	-0.016121741
78	0xbc40c470	-0.011765584
79	0x3d338364	0.043826476
80	0xbb84dba4	-0.0040545035
81	0xbb98d660	-0.0046642274
82	0xbc79a272	-0.015236484
83	0x3b03f130	0.0020132773
84	0xbc81b396	-0.015832704
85	0xbac6e29a	-0.0015173734
86	0xbc178bb0	-0.009249613
87	0x3cebd050	0.028785855
88	0x3d77628b	0.060396712
89	0x3d96f96e	0.07371794
90	0x3d438448	0.047733575
91	0xbc9c93bb	-0.019113412
92	0x3d284f0b	0.041091006
93	0xbc5f5823	-0.013631853
94	0x3bfcf8b8	0.0077200793
95	0x3e012b7f	0.12614249
96	0x3c0153ac	0.007893484
97	0x3bce0223	0.006286876
98	0xbca7a5e0	-0.020464838
99	0xbb0abd84	-0.002117009
100	0x3d3a99cc	0.04555683
101	0xba5aa881	-0.0008341149
102	0xbbe5204f	-0.006992377
103	0x3de4b667	0.11167603
104	0x3d2ef48c	0.042713687
105	0xbc5b27c7	-0.013376183
106	0xbc82430f	-0.015901117
107	0xbc4a58d2	-0.012350278
108	0x3a98dce5	0.0011662511
109	0x3cd222a6	0.025651287
110	0x3c1b00b0	0.009460613
111	0xbca14b8e	-0.019689348
112	0x3d1c891a	0.038216688
113	0x3d2d396d	0.042291094
114	0xbc0e6ccc	-0.008692931
115	0xbc39ba9f	-0.011335998
116	0x3c28d4c1	0.010304631
117	0x3a98f2d4	0.0011669048
118	0x3de976ad	0.11399589
119	0x3bc5167f	0.0060146446
120	0x3b97eb5a	0.0046362104
121	0xba02a700	-0.00049839914
122	0x39801d48	0.0002443588
123	0xba8bcddc	-0.0010666209
124	0xbae7f67a	-0.0017697357
125	0x3baa8c28	0.005204696
126	0xbc175da6	-0.009238636
127	0x3b5e4a62	0.0033918847

std.constant11 f4 [128, 9]
0	0x3d0454eb	0.032307547
1	0x3cb9d93c	0.022686593
2	0xbd94d4af	-0.07267129
3	0xbddcbf5e	-0.10778688
4	0x3d4bf724	0.04979624
5	0x3b803048	0.0039120056
6	0x3cee527c	0.029092066
7	0xbddde92a	-0.10835488
8	0xbe16a22a	-0.14710298
9	0xbdd42242	-0.10358097
10	0xbd95e12f	-0.07318341
11	0x3cbf0e84	0.023322351
12	0xbd7c571a	-0.061606504
13	0x3d87abe5	0.06624583
14	0x3d94533e	0.0724244
15	0x3d454bd3	0.048168015
16	0xbdb1e589	-0.086863585
17	0x3cab4640	0.020907521
18	0x3e3d2f44	0.18475062
19	0x3c1b890d	0.009493125
20	0xbd154d3d	-0.036450613
21	0xbbc690ed	-0.006059757
22	0xbd8c017b	-0.0683622
23	0x3dd23474	0.10263911
24	0xbd929009	-0.07156379
25	0x3dbfe09f	0.09369015
26	0x3d04585a	0.03231082
27	0x3da078e3	0.07835557
28	0x3dcb7a6d	0.0993546
29	0xbd9b3a53	-0.07579484
30	0x3d481059	0.048843715
31	0x3d71f065	0.05906715
32	0x38ec7cf0	0.00011276628
33	0x3d4a533d	0.04939579
34	0x3c531be2	0.012885066
35	0x3dc2f529	0.09519417
36	0x3bd43d0b	0.0064770035
37	0xbb965025	-0.0045871907
38	0xbdc8296a	-0.09773524
39	0xbdb50718	-0.08839244
40	0x3d0bffe8	0.034179598
41	0x3d9d062a	0.07667191
42	0x3d91ffb4	0.071288496
43	0xbd86a119	-0.06573696
44	0xbda0a6a8	-0.07844287
45	0x3d450401	0.04809952
46	0xb987dca6	-0.00025913602
47	0x3c133459	0.008984649
48	0x3dc9d268	0.09854585
49	0xbdaeb741	-0.08531047
50	0x3d79e4a1	0.061009053
51	0xbd4c3ba5	-0.04986157
52	0x3db02930	0.08601606
53	0xbbdad0f7	-0.0066777426
54	0xbdb377b6	-0.087630674
55	0x3b340a7a	0.0027472065
56	0xbda4ca2a	-0.08046372
57	0xbde78e36	-0.113064215
58	0xbc4f519b	-0.012653734
59	0xbd1f3410	-0.03886801
60	0x3d3ac54c	0.045598313
61	0xbe011d7b	-0.12608902
62	0x3cd978c2	0.02654684
63	0x3c48a406	0.0122461375
64	0x3ddcf97e	0.10789774
65	0x3d40e72f	0.047095474
66	0x3d230eb8	0.03980896
67	0xbd4e8ee1	-0.05042923
68	0xbda9e78b	-0.082961164
69	0x3ce07fdd	0.02740472
70	0xbcff193f	-0.031139968
71	0xbc07d6ac	-0.008290928
72	0x3d6d0314	0.057864264
73	0x3d20f92c	0.03930013
74	0x3dd25794	0.102706105
75	0xbd86ede9	-0.065883465
76	0xbddde6b6	-0.1083502
77	0x3d19510e	0.037430815
78	0x3de916ed	0.11381326
79	0xbd30f202	-0.043199547
80	0x3ce8bfca	0.028411765
81	0x3e665513	0.2249339
82	0x3d917bfc	0.07103726
83	0x3d9b5843	0.07585194
84	0x3dd95aa5	0.10612992
85	0x3c8b88a3	0.017032927
86	0x3e2ed90c	0.17074984
87	0x3e66043a	0.2246255
88	0xbb574459	-0.0032847135
89	0x3d4323cf	0.04764157
90	0x3e068ff6	0.13140854
91	0x3b097d9a	0.0020979405
92	0xbd9d25b8	-0.0767321
93	0x3da1c15f	0.07898211
94	0xbdddd6c1	-0.10831977
95	0x3d10d8ee	0.03536313
96	0x3d9cd217	0.07657259
97	0xbd59e8bb	-0.053200465
98	0x3c0ba529	0.008523264
99	0xbd1c0868	-0.038093954
100	0xbd4c46e9	-0.049872313
101	0x3c160f2a	0.009158889
102	0xbd253ed9	-0.04034314
103	0x3c41b9e8	0.011824109
104	0x3c2e9f2e	0.010658069
105	0xbd0137a8	-0.03154722
106	0x3d590397	0.05298194
107	0xbdcdbb3d	-0.100454785
108	0xbd74bd9a	-0.05975113
109	0xbda44208	-0.08020407
110	0xbdb71371	-0.08939255
111	0xbdad38e5	-0.084581174
112	0xbdcd1af3	-0.10014906
113	0xbdde4c93	-0.10854449
114	0x3da75ca8	0.0817197
115	0xbdce2c9b	-0.100671016
116	0x3dd22c22	0.10262324
117	0xbd608141	-0.054810766
118	0x3c92b6e9	0.017909484
119	0xbd3cb810	-0.046073973
120	0xbd9556e9	-0.072919674
121	0xbc59528b	-0.013264309
122	0x3ce00200	0.027344704
123	0xbc555724	-0.013021264
124	0xbdac0af2	-0.08400525
125	0x3c9cc71b	0.01913791
126	0xbd0f7397	-0.035022344
127	0x3cd9659c	0.026537709
128	0xbdc1bd01	-0.09459878
129	0x3cda163e	0.026621934
130	0xbde754cf	-0.11295473
131	0xbd6d1ac6	-0.05788686
132	0xbc972ff1	-0.018455477
133	0xbdbba5d4	-0.091624886
134	0x3c8487e1	0.016178073
135	0xbc9f045b	-0.019411257
136	0x3dd2659c	0.10273287
137	0x3de30588	0.110850394
138	0x3e03625b	0.12830488
139	0xbd82bd7c	-0.063837975
140	0x3ddf55b5	0.10905019
141	0x3d19a1c9	0.037507806
142	0x3db11fee	0.08648668
143	0x3e02cf93	0.12774496
144	0xbdc9e719	-0.098585315
145	0x3cc1ff51	0.023681315
146	0xbca56579	-0.020189987
147	0xbceb1a32	-0.028699014
148	0x3d9dd9cd	0.07707558
149	0xbcaebbef	-0.021329848
150	0x3c5957a1	0.013265521
151	0xbcdb85ae	-0.026797142
152	0xbcd388c8	-0.025822058
153	0x3d1e77d8	0.03868851
154	0xbd780a03	-0.060556423
155	0x3d78b19a	0.06071625
156	0xbdab0981	-0.08351422
157	0xbda4da77	-0.08049481
158	0x3d05d546	0.032674097
159	0xbdc14743	-0.0943742
160	0xbceab31c	-0.02864986
161	0xbd64d2a8	-0.05586496
162	0x3e338659	0.17531718
163	0x3e429f8a	0.19006172
164	0x3e4fbb93	0.20286398
165	0x3e14c624	0.1452871
166	0x3e0e06b6	0.13869748
167	0x3d986a0c	0.07442102
168	0x3e279092	0.16363743
169	0x3d3e82ee	0.046511583
170	0x3dca0f89	0.09866244
171	0xbd6a6d0d	-0.057232905
172	0x3c161568	0.009160377
173	0x3d2994fb	0.041401844
174	0x3cf4c5bf	0.029879449
175	0xbdd73658	-0.10508412
176	0x3da1a7d5	0.078933395
177	0x3cf654f1	0.0300698
178	0x3ac8bf14	0.0015315735
179	0x3d179f00	0.03701687
180	0xbcebe6a6	-0.028796505
181	0xbcccee07	-0.025015844
182	0xbd924839	-0.07142682
183	0xbd9ce137	-0.07660144
184	0x3c7c5f2d	0.015403551
185	0x3de5cdbc	0.11220881
186	0x3db6ab10	0.08919346
187	0x3d5922e2	0.053011782
188	0xbe122b97	-0.1427444
189	0xbdab7e6f	-0.08373725
190	0x3df6a53f	0.12043237
191	0x3b992b7d	0.0046743737
192	0x3e3026f5	0.17202361
193	0x3bca9e38	0.006183412
194	0x3d733608	0.0593777
195	0x3e4150d9	0.18878497
196	0x3e456fe1	0.1928096
197	0x3e31c8c0	0.17361736
198	0xbc4c5b81	-0.012472988
199	0xbcedcd16	-0.029028457
200	0xbd899aba	-0.06718965
201	0x3d808e95	0.06277195
202	0xbdcf9ecf	-0.10137712
203	0x3d7a8a2e	0.061166935
204	0x3d3579c7	0.04430559
205	0xbd389ae1	-0.04506958
206	0xbc1ecdf0	-0.009692654
207	0x3d7339b4	0.059381202
208	0x3e163578	0.14668834
209	0xbc53b682	-0.012921931
210	0x3e0fbf5c	0.14037842
211	0x3d6c3541	0.057667974
212	0x3d06f405	0.03294756
213	0xbd5467db	-0.051856857
214	0xbd00a71b	-0.031409364
215	0xbc8d51d9	-0.017250942
216	0x3dd7dfb5	0.105407156
217	0xbd98d4e4	-0.07462481
218	0x3dc867ba	0.09785409
219	0xbdd97272	-0.10617532
220	0xbd1d43b9	-0.038394663
221	0xba842855	-0.0010082821
222	0x3b0f2470	0.0021841787
223	0x3d806f6b	0.06271251
224	0xbe090256	-0.13379797
225	0xbcdfdf53	-0.027328169
226	0x3dc6fd42	0.09716274
227	0xbd7dfdf5	-0.06200977
228	0x3d847905	0.06468395
229	0x3c25b8db	0.010114874
230	0x3bfc6ebf	0.0077036317
231	0xbd647e3e	-0.055784456
232	0xbdae0d66	-0.08498649
233	0x3c209c26	0.009802854
234	0x3dd7d524	0.105387
235	0x3dee19d0	0.11626017
236	0x3e045c15	0.12925752
237	0x3db423e5	0.08795909
238	0x3d3dc191	0.046327177
239	0x3da6f0a7	0.081513695
240	0x3e1fc461	0.15602256
241	0xbb0e7175	-0.0021735106
242	0xbdebe0d0	-0.11517489
243	0xbd49e19b	-0.04928742
244	0xbd1879dd	-0.037225593
245	0x3df2fa9f	0.118642084
246	0xbce7487f	-0.028232811
247	0xbd1195b4	-0.03554316
248	0xbd5d4e5b	-0.054029804
249	0x3d2f4237	0.042787757
250	0x3d0af9a2	0.033929475
251	0xbdf93381	-0.12168027
252	0xbcadcd23	-0.02121598
253	0xbd66f269	-0.056383524
254	0x3dd9617f	0.10614299
255	0xbc01dd7c	-0.007926341
