AirQualityApp/AirQualityApp.Android/Assets/CracowLong.tflite (tflite, 810852 bytes, 24 tensors)

std.constant3 f4 [128, 128]
00000000: 780d 993d 674c 4fbd 0e0e edbd cd63 bf3c
00000010: d8e3 14bd 2c91 1d3d 4bbf 223d d742 b5bc
00000020: dcd6 d6bb a3b6 793c 49d6 c63c ee69 d5bb
00000030: bc70 b9bd 9689 9fbc 92b9 06bd aff9 bebc
00000040: 5bad a73b 3c7c 34bd c084 c7ba 5adf 03bd
00000050: 9434 d4bb cc0b 07be a1c1 8d3d 0b8f 36bd
00000060: 938c bc3d bb52 4abd fc22 6c3b 81bf 12bd
00000070: 641f bb3c 0bc5 363d c0fc f8bc b58b 31bc
00000080: f662 cdbc 3617 a43d 314b 1b3d e192 e9bc
00000090: b097 113b 6846 e03b 16a1 37bd 6634 31bc
000000a0: a820 6ebd 8cef 05bd 16e0 1a3c dae1 063e
000000b0: 5ef7 a83c c052 abb9 cb49 5e3d c2c4 44bd
000000c0: b782 57bd 5fae 233d 5614 043d 9488 85bd
000000d0: 647e 113d 88ea 88bd 213d 553d f014 df3a
000000e0: 989f 09bd 4da1 413c 6c93 eebc ff16 b1bd
000000f0: a9f1 01bd b624 903d 6f08 a43b 1712 143c
00000100: deef 4dbc b87f f23b 2696 333d 3bf0 4e3d
00000110: 2637 303d dd26 b2bc f06b e4bc a11d 073d
00000120: dbb4 353d a94d 403d 1b45 8abd 08dd f03b
00000130: 942a 7cbd a887 ccbc cc12 f7bc 20b7 af3d
00000140: ee5c db3c 47ae b73c 9341 5bbd b248 46bd
00000150: ec43 933d 6ac4 29bc ae2b 983c 1b9e 203c
00000160: 2c71 af3c ece2 f1bc a89b c4bb b42b d9bb
00000170: 50da 89bd 4450 6d3c ee44 813b c421 173c
00000180: fc4d 1dbc 467d 5c3d d725 67bd f243 80bd
00000190: b174 a6bc 34fe 3dbd f21a 453d 229c d5bc
000001a0: 224a 70bd 7352 2bbd fc3c c5bc e636 f6bc
000001b0: 9d5d c43d d476 29bb 20d1 133d b2d4 073d
000001c0: 78c4 28bd 5051 2dbd 9afe 063d 0dbc 833d
000001d0: 42ef 0fbd 8a5f 03bd c894 873a 6c60 d1bc
000001e0: 63ef 063d 846a 14bc 049e 05bd bdd4 8fbd
000001f0: f0d8 61bd dd93 3f3b dd0c 4cbd 1dc3 10bd
00000200: 1a46 61bb 7420 103d 0c99 433d e737 6f3b
00000210: ecfb 533d b0bc 2d3a 9c31 e1bc 9e13 b23d
00000220: 9abc 2ebc 4e3c bb3d 1121 ca3d 23a9 4dbd
00000230: de57 793d dc31 ad3b 6ab3 5a3b e756 07bc
00000240: 0947 0abd 3de2 9ebd 43ab b63d 175e 20bd
00000250: b8e9 0c3d 0c92 cbbb e2f2 c3bc a250 1a3d
00000260: d718 833d 8eb6 03bd 320d 2ebd 6a86 a1bd
00000270: dc40 2a3c d33d 8d3d 236c 25bd 1077 17ba
00000280: e0b2 9bbd c3e4 233d 5ec4 53bc 9d65 efbc
00000290: 98ad 9dbd 684e 753b 261c b7bc e2cb 783c
000002a0: 0273 b1bc efc6 153d 0cbd b9bc ba8a 37bd
000002b0: ec1a f2bb 38a6 0cbe 287e 813d b426 97bc
000002c0: 7078 a7bd a568 243d aac0 bfbc d9a5 1b3d
000002d0: 0d28 093e 34a0 ef3b a20a 81bc ac63 efbb
000002e0: 5c2c fc3c a503 a2bd 522e 08bd 574d 883d
000002f0: 7e32 34bc da6d 6a3c 487b 393c 1107 183c
00000300: 00eb 4c3c f6f7 9ebc ae36 ae3c 1a49 1cbd
00000310: cd30 463c 80e9 2a3a d6b2 1f3d 4ab9 a23c
00000320: c8b3 96bd 443c ee3c 1342 dbbc 4a84 b2bd
00000330: f3eb 9e3c 6c9f fe3b 8813 a13b 3493 a53c
00000340: fa3c 9cbc 2abf 5b3d 9441 93bc 0cb4 d9bc
00000350: f02c 17bd 566f 89bd a464 c9bb 0573 e33b
00000360: 4874 9fba 65dd 663c dd8d aebc b2bb 53bd
00000370: c853 b53c 9925 7bbd e07a 9fba 0e66 553d
00000380: e650 263d 1015 2dbb d8b0 1a3d 70c5 f73c
00000390: cf1e ecbd ae77 a9bc 3cc4 98bc 000f 913d
000003a0: dc1c c2bb 6c14 083d cd30 d93c 9815 863a
000003b0: 6fe8 bb3d 7ef1 313d 40ad 413d 669e cc3b
000003c0: a847 213d d6e0 14bc 0c52 0dbc 92d2 8f3c
000003d0: 58e5 69bd 4d3f 083c 4c6c 56bd 310c 6b3d
000003e0: 5c21 8dbd 9ec9 163d e257 ac3c 7171 8bbc
000003f0: 5922 a3bd b11b 60bc 685f 1c3c 7c46 86bb
0.07473272 -0.050609972 -0.11574946 0.023363018 -0.0363501 0.038468525 0.039733212 -0.022126598
-0.006556375 0.015241298 0.024272101 -0.006512872 -0.090547055 -0.019474786 -0.032891817 -0.023312418
0.005117101 -0.04406379 -0.0015222058 -0.032195427 -0.0064759944 -0.13188094 0.069216974 -0.04457001
0.092065 -0.049395304 0.0036031594 -0.035827164 0.022842117 0.04462151 -0.030393958 -0.010836531
-0.025071602 0.0801224 0.037913505 -0.02851242 0.0022215657 0.0068443306 -0.044831358 -0.010815715
-0.058136612 -0.032699153 0.00945284 0.13172093 0.020625766 -0.00032677315 0.054269593 -0.048039205
-0.052614894 0.039961215 0.032245956 -0.06520191 0.035520926 -0.06685358 0.05206025 0.001701979
-0.033599466 0.011818242 -0.02912303 -0.08646964 -0.031724606 0.07038252 0.005005888 0.009037516
-0.012569396 0.007400479 0.043844365 0.05052207 0.043021344 -0.021747047 -0.0278835 0.03298724
0.04436193 0.046949062 -0.06751462 0.0073505677 -0.061564043 -0.02496703 -0.03016033 0.0857985
0.02677771 0.02242197 -0.053529333 -0.04840917 0.071906894 -0.01036177 0.018575516 0.00980332
0.02141627 -0.02952715 -0.006000001 -0.0066275243 -0.06731093 0.014484469 0.0039449846 0.009224359
-0.009601112 0.053830408 -0.05643257 -0.062629595 -0.020319315 -0.046385005 0.0481214 -0.026075426
-0.05866445 -0.041826677 -0.024076931 -0.030055474 0.09588168 -0.002585818 0.03608811 0.033161826
-0.041202992 -0.042313874 0.03295765 0.06432352 -0.035140283 -0.032073535 0.0010344023 -0.025558673
0.03294314 -0.009058598 -0.0326214 -0.070229985 -0.05513853 0.002923242 -0.049816955 -0.035342325
-0.003437406 0.0351872 0.04775338 0.0036501826 0.051753923 0.0006627543 -0.027489476 0.08695148
-0.010665083 0.091423616 0.09869588 -0.05021013 0.060874812 0.0052854847 0.00333711 -0.008260465
-0.03375915 -0.07757995 0.08919384 -0.03915223 0.03440258 -0.0062124785 -0.023919526 0.037674554
0.06401222 -0.03215652 -0.042493053 -0.078869656 0.01039144 0.06896558 -0.04038633 -0.00057779346
-0.07602477 0.040013086 -0.012925236 -0.029223258 -0.07699126 0.0037430767 -0.02235229 0.015185328
-0.021661285 0.03656667 -0.022673152 -0.044810034 -0.0073884632 -0.13735282 0.063228905 -0.018451072
-0.081772685 0.04013886 -0.0234073 0.03799996 0.13394184 0.007312799 -0.01575214 -0.007305583
0.030782871 -0.079108514 -0.0332473 0.066553764 -0.010998366 0.014308417 0.011320896 0.0092790285
0.0125072 -0.019405346 0.021266308 -0.038155653 0.012096596 0.00065197796 0.03898891 0.019863743
-0.07358509 0.029081471 -0.026764905 -0.087166384 0.019399619 0.0077704694 0.0049156584 0.020211793
-0.019072045 0.053649105 -0.017975606 -0.02657511 -0.03690809 -0.06710689 -0.0061460305 0.0069412016
-0.0012165392 0.0140908705 -0.02130788 -0.051692672 0.022134677 -0.061315153 -0.0012167357 0.05209928
0.040604495 -0.002641026 0.037766308 0.030245513 -0.11529314 -0.02068695 -0.01864826 0.07082939
-0.0059238505 0.0332226 0.026512528 0.0010229824 0.091751926 0.043443196 0.047284365 0.0062444685
0.039374977 -0.009086808 -0.0086255185 0.017556462 -0.057103485 0.008315873 -0.052349374 0.057384674
-0.068911284 0.03681337 0.021038 -0.017021867 -0.07965536 -0.013678477 0.009544231 -0.004097758

std.constant4 f4 [128, 128]
00000000: 812a 5f3c 839c 593c 91ed e7bb f2eb 35bd
00000010: c0cf 903b aecc 6e3d 5611 963a 12e0 e73c
00000020: f487 8a3c 4b9b 27bd a0e6 7ebd 319f 08bd
00000030: a753 c83c 728f a1bc b595 0c3d ea0b df3c
00000040: 1f63 f2bc bc9d c3bc 2d92 3ebc 1919 5abc
00000050: 2979 1f3d c684 27bc 708d 93bc 1032 22bd
00000060: 409d 3f3d 5c6e 96bd d0cb 423c c4ab 013d
00000070: c809 8abc eba0 bd3d 8c19 cebd 6595 aebd
00000080: b9de e93c 2cbf 85bd 668f 653c 0c1b 213c
00000090: fa0a 04bd acaf ad3c df4d 3bbd c701 6f3d
000000a0: 14ec dfbd c957 b93c a4c1 24bb a1f9 243d
000000b0: 4435 8abc 5c8c 4b3d 5598 0f3d 02e8 493d
000000c0: 4d86 7b3c c03a 583d f85b ab3c 3f47 36bd
000000d0: 7048 433d 4808 34bb 3ed8 fdba 0138 813d
000000e0: f08f 613d 2068 583d 3669 14bc 0012 2d3d
000000f0: 7331 123d 7419 ab3d 9aa6 f5bc af2a f03b
00000100: 4ee6 183c 6b70 673d 6c85 403d f426 953c
00000110: 0260 07bd 12e8 103d 9cb4 d83b 773f 223d
00000120: 4049 2ebb 946b 81bd 0903 653d 2a9a ad3c
00000130: 249a 99bc fc61 143c 793a 39bd bef5 55bd
00000140: 873e 8b3c 5c79 433d 7e87 043d 2ceb 1abd
00000150: 2ea9 2abc 0c69 2d3d f7e0 5f3d aa30 a7bc
00000160: 107d 0d3d e659 16bb 5f9d 9a3b cc79 52bd
00000170: d253 b9bd 04cc b43b 5025 1aba c481 483c
00000180: 1c35 243d 4afe 86bd 6aaf 963d 65c5 cabc
00000190: 904d 843a dd4b 5c3d 1f23 aa3d 965a 09bd
000001a0: cbf9 babd 6466 1dbd 5971 993d 3468 a8bc
000001b0: cf3f 46bc a127 103c e84b e93c f04f fc3c
000001c0: 2648 653d 2fe0 233d 20b9 9b3b 1c18 d6bc
000001d0: 6cbd d4bb 843d 3cbc d64d 9a3c 66ed 443d
000001e0: 28f3 193d 4126 30bd 106f 303d 3a15 253d
000001f0: 1b87 07be e80b 8fbb 0b71 9c3d e0ba 40ba
00000200: a064 9bbd 11be 11bd 5315 323c d3c0 32bb
00000210: be9f f23b 6440 133d ecc2 b13b 58b1 b0bb
00000220: 3494 5ebd 563f b7bb 19be 5f3c 063d a6bd
00000230: 7fb4 8ebd c85c 97bc 43f2 893c 3677 893d
00000240: 4366 b83c 6b79 853d 3294 b63c bcd8 06bd
00000250: 4659 8abd f27d 5fbd 999b e2bc f32b 543c
00000260: 04cf 2ebc 22d8 d9bd 1a04 d9bc 97b1 4dbd
00000270: c807 243c 3c3f 1a3b 339b babb 041c 0ebd
00000280: 782f 22bd 0af5 79bd 6a7a 033d b564 30bd
00000290: 5208 42bd c483 953c f2f8 f43b b415 edbc
000002a0: 63e4 59bc b624 7cbd 6e87 4bbc 3b4f ff3c
000002b0: 9e16 63bd 46d8 9abc 23f0 84bc 2a06 1b3d
000002c0: ec79 78bc 794f c5bd 70fe c4bc 54e2 a0bd
000002d0: 5c29 adbd 77ca 8abd ae0d 85bc a2af a63c
000002e0: b424 17bc a89a 8cbd e2f6 433d 6ff3 a3bc
000002f0: fa7b 873c cc2c 94bd 7bec 6e3d 6478 de3c
00000300: 20bd c63d 756f adbb 9dc0 343c 82d3 d4bb
00000310: 9150 4dbd 029a 5abc 1089 323d 03c7 43bd
00000320: e226 01bd f476 d93c fc64 113d eddd adbc
00000330: 544f 583c bed2 693d f25f 94bd a0f2 8ebb
00000340: 70fb 853d 0a95 563c db89 033d 5285 473d
00000350: 102b 50bd c240 ab3c a46c e4bc 51e0 47bd
00000360: 1b04 cdbc 1813 2c3d 376a 75bd b5bf 1ebc
00000370: ee2d 0c3d d80f f13c 0ef0 c43c 2218 0bbd
00000380: baa6 3a3d 20ca 053d de0e 65bd d95a f63c
00000390: 4cc3 10bd 88f3 fe39 d496 5ebc 779a db3d
000003a0: f8b2 9fbc 1d98 863d c11b ec3c e5fb bf3d
000003b0: d0dd 3d3c c351 f4bb 3510 ac3d 07de bcbd
000003c0: b064 0dbd bb95 6fbb 75c2 823d 1afe 0dbd
000003d0: 9778 dc3c 5013 95bb e478 5e3c ef3d c83c
000003e0: d847 4b3c 745b 3ebd 18b8 6abd 5596 1fbd
000003f0: 4445 a8bc 1d15 aa3c 902b 7dbd dc8a 8ebc
0.013620974 0.013281944 -0.0070778807 -0.044414468 0.004419297 0.058300667 0.0011449258 0.028305087
0.01691053 -0.040919583 -0.06223166 -0.03335494 0.024453951 -0.01972172 0.03432246 0.02722736
-0.02958828 -0.023878925 -0.011631531 -0.013311648 0.038933907 -0.010224527 -0.018011779 -0.039598525
0.046780825 -0.07345268 0.011889413 0.03165795 -0.016850367 0.09259208 -0.100634664 -0.085245885
0.028548585 -0.06530604 0.01401124 0.009833109 -0.03223703 0.021201931 -0.04572856 0.058351304
-0.109337 0.022624867 -0.0025139833 0.040277127 -0.016871102 0.049694404 0.035057385 0.049293526
0.015351844 0.052790403 0.020917878 -0.04450154 0.047676504 -0.0027470756 -0.0019366813 0.0630951
0.05506891 0.052833676 -0.009058287 0.042253494 0.03569169 0.08354464 -0.029986668 0.007329307
0.009332253 0.056503695 0.04700224 0.01820705 -0.033050545 0.03537757 0.006613327 0.039611306
-0.0026593953 -0.06319347 0.055911098 0.021191675 -0.018750258 0.009056564 -0.04522178 -0.05223631
0.016997589 0.04772316 0.032355778 -0.037821934 -0.010416312 0.04233651 0.054657903 -0.020408947
0.034543097 -0.0022941767 0.004718467 -0.051385686 -0.090491906 0.0055174846 -0.0005880194 0.01223797
0.04008971 -0.065914705 0.07357676 -0.024752328 0.0010093916 0.053783286 0.0830748 -0.033533655
-0.091296755 -0.038427725 0.074923225 -0.0205575 -0.012100174 0.008798511 0.028478578 0.030799836
0.05597701 0.04000872 0.004752293 -0.026134543 -0.0064923074 -0.011489276 0.018835943 0.048077963
0.037585407 -0.04300523 0.043074667 0.040303446 -0.13235132 -0.004365433 0.07638749 -0.00073520653
-0.07587552 -0.035581652 0.010869342 -0.0027275577 0.0074042967 0.03595008 0.005424848 -0.005392235
-0.054340556 -0.005592267 0.013656163 -0.08117108 -0.06968021 -0.018476859 0.016839152 0.06712191
0.0225097 0.06517299 0.022287462 -0.032921538 -0.06755309 -0.05456347 -0.027662085 0.012949931
-0.010669474 -0.10636927 -0.026491214 -0.05021819 0.010011621 0.0023536226 -0.0056947707 -0.034694687
-0.03959605 -0.061024703 0.032099165 -0.04306479 -0.047371216 0.018251307 0.0074759657 -0.028941013
-0.013299081 -0.061558448 -0.012422426 0.03116571 -0.05544149 -0.018901955 -0.016227787 0.037847675
-0.015165787 -0.09634299 -0.024047107 -0.07855669 -0.08455154 -0.06776898 -0.016241875 0.02034742
-0.009225059 -0.06865436 0.047842868 -0.02001354 0.016538609 -0.07235107 0.058330994 0.027157016
0.097040415 -0.0052928277 0.011032251 -0.0064949403 -0.050125662 -0.013342382 0.043587744 -0.047797214
-0.031531222 0.02654598 0.035496697 -0.021223987 0.013202507 0.057085745 -0.072448626 -0.0043624192
0.065420985 0.013097057 0.03211389 0.04871113 -0.050822318 0.020904902 -0.027883835 -0.04879791
-0.025026372 0.042010397 -0.059915747 -0.009689261 0.03422349 0.0294265 0.024040248 -0.03395856
0.04556916 0.032663465 -0.05592238 0.030072616 -0.0353425 0.000486281 -0.013585765 0.10722821
-0.019494519 0.06571982 0.028821828 0.09374217 0.011588529 -0.007456036 0.08401529 -0.09222036
-0.03451985 -0.0036557752 0.06384746 -0.03466616 0.02691297 -0.0045494214 0.013578627 0.024443595
0.012407266 -0.046473935 -0.05730447 -0.038961727 -0.02054084 0.02076202 -0.061809123 -0.017400198

std.constant5 f4 [128, 128]
00000000: 2dd7 543c 3397 e23a 07bc f4bc b814 5b3d
00000010: f8f3 61bc bcd5 d03c bc2d 973c 2fee 7bbd
00000020: 8c9a c53c 1dbd 4b3c d0cf e33c 9a3d e73c
00000030: 5340 33bd c0d5 0a3d 5b9d 0ebd 371c 5fbc
00000040: d3c4 83bd 0a77 0f3d 48ae 303d 257e 99bc
00000050: 25ed 173d 9f8a b33d 3114 9fbd b335 bf3c
00000060: c5de 27bd 869f 143d cc44 8f3d cf7b 9cbd
00000070: f8bf 2fbd be68 163c 384d 303d 3827 6cbd
00000080: 43ee 5a3d da3f 2dbd 93f9 21bc 6e4f 363d
00000090: 9703 4dbc 1c92 e53a 741a 983c 4dd1 023d
000000a0: 78b5 c93c 507c 0dbd a80e 15bb 7223 2ebd
000000b0: 1408 f03b de0a 63bc 22f5 8dbd a0fd 0bbc
000000c0: 08ef 623c a3ed cf3c 462f 8abb c742 d7bc
000000d0: 853c 923c c84b e5bc 9237 223c 8afb 983b
000000e0: fc4d 103c a6f8 4abc 2040 c83c 3d12 85bd
000000f0: 0421 1abd d035 cbbb f032 51bd ccdb 5cbd
00000100: bc4c 5bbd 2c23 93bb f262 70bd f35e 5a3d
00000110: 5050 c7bd b614 dbbc 9e26 84bb 537d 803c
00000120: 118b 473d 443f 563d 7a7b de3b e619 e03c
00000130: 0a9b 81bc ce31 f1bb e0fd 873c aa93 1bbd
00000140: 68a3 ad3a 5bd6 443d 3224 c83c 342d cfbc
00000150: 2764 92bc fb84 16bc 6d42 a23c d0da 7bbc
00000160: 5503 ea3d 41fc c8bc cefa 9d3d 4a6a 253d
00000170: 4654 633d c64d 3fbc bc47 a03c 956d ba3c
00000180: 9405 653d cea9 6dbc ec4e 46bc 7902 bb3d
00000190: 7b45 e9bc 0276 753d 8f02 a73c b37e 9bbd
000001a0: c67d 64bc de8a 92bd 6c19 37bc 1647 e33c
000001b0: 2724 333c 4e67 0d3d 6ae4 98bc 2926 3abd
000001c0: 50f2 11bd ee12 01bd 8df2 703d c7b6 e33d
000001d0: 30fa 1a3d 470e d0bc 4498 a4bd a269 dc3c
000001e0: 0991 a43b 2f95 363d ea2c 8c3d 5355 bdbd
000001f0: 9bf9 01bd 224b 79bc c228 66bd be14 2b3d
00000200: 0362 54bc 0ca4 75bd f678 d9bb 689c e13c
00000210: 793a a03d dc59 2a3d 7b04 df3c 6285 1ebd
00000220: 6433 cc3b 32b6 573d 5806 29bc e70a 83bd
00000230: e899 4f3c 11f6 d2bc d2fa 1dbd aec8 70bd
00000240: 63a7 bc3d 178b 8fbd b435 f23c 2a25 353c
00000250: ee85 32bd f835 353d 9dea f13b 0c38 cb3c
00000260: fcff c0bc e29d 39bd 876d efbc 2b05 33bb
00000270: 4d68 473d a8af 1ebd e067 be3c f596 91bd
00000280: ee26 373d f3eb c9bd fc66 48bd 679f ea3c
00000290: 9474 c23c 8a98 c03d fa6c a73d 89ad de3c
000002a0: 84af 5fbb daa5 9abd 1b7c 83bd 56cb d83c
000002b0: 12fa 9d3d 3c88 853d f2b0 babc ee83 aaba
000002c0: 2235 e8bd ab96 a5bd 7dc4 aabc 84e2 a63d
000002d0: 6c1b 383d 2259 ae3d 466f 963c f0b2 40bb
000002e0: 34f5 5cbc 4233 dd3c c210 a33d 1001 653a
000002f0: decf bcbd 2314 a83d fffb 35bd f689 22bd
00000300: 8d07 8d3d 08bb 40bd 255d 09bd 32f4 013d
00000310: 26ed 88bd ba75 003d a252 7cbd 7cfe b63c
00000320: 400a 113d a557 4abc 7aea c9bc 4988 ddbd
00000330: ddbd 063d efc1 5bbd a867 863d 9257 513d
00000340: cfa1 6dbd fc1e 5dbd 4a1f 28bd e88b bd3d
00000350: a786 953c af5b a0bc 0ec8 913d df04 133d
00000360: 2e69 b6bc f514 083d f7fc c33c 8274 da3c
00000370: 2ebb 743d 6553 5c3c 8949 9d3b 603c fb3c
00000380: aec6 8abc 4c8a 2abd 5ee8 443c 1d94 0b3d
00000390: 5990 50bd 8dec 51bd 2c07 a23b 301c 693d
000003a0: 52fa c33c 3de9 b53c da9f 5e3d d329 c43d
000003b0: 12bb 1c3d 6fdd c5bc 09b7 85bd fa96 073d
000003c0: 4c2b f13b 8479 1a3c ac80 30bd 00e3 653c
000003d0: 4bcb 21bd 55e6 5cbc bc1b 50bd 2491 e3bc
000003e0: d457 363d 189e b7bb 07bb 623d 5b5e 403c
000003f0: e865 f13c fa50 c23c 9a44 6abd 582e 1ebc
0.012990755 0.0017287493 -0.029874815 0.053486556 -0.013791077 0.025492541 0.018454425 -0.061506446
0.024121545 0.012435225 0.027809054 0.028227616 -0.043762516 0.033895254 -0.034818035 -0.013617567
-0.064340256 0.035025634 0.043134958 -0.018736908 0.037091393 0.08766674 -0.07767523 0.023341035
-0.040983934 0.036284946 0.06995544 -0.07640802 -0.042907685 0.009180246 0.04304239 -0.05765459
0.05344988 -0.04229722 -0.009886163 0.044509344 -0.012513063 0.0017514857 0.018567301 0.031937886
0.024622664 -0.03454238 -0.0022744332 -0.042514272 0.0073251817 -0.013857571 -0.06931521 -0.008544356
0.013850935 0.025381869 -0.004217061 -0.02627696 0.017851124 -0.027990237 0.009900944 0.0046686577
0.008807655 -0.012388384 0.02444464 -0.06497619 -0.037629142 -0.0062014833 -0.05107397 -0.053920552
-0.053539976 -0.004490277 -0.05868811 0.053313207 -0.09732115 -0.026743274 -0.004032924 0.01568476
0.04871661 0.05230643 0.006789622 0.0273561 -0.015820999 -0.0073606735 0.01660055 -0.03798262
0.0013247551 0.048055988 0.024431322 -0.02529011 -0.017870022 -0.009186978 0.019807065 -0.015371993
0.11426417 -0.024534347 0.07713853 0.04038457 0.05550029 -0.0116762575 0.019565456 0.02275733
0.055913523 -0.014505817 -0.012103777 0.09131331 -0.028475514 0.059926994 0.020386962 -0.07592525
-0.013946002 -0.07155393 -0.011175495 0.027743857 0.010933912 0.034522347 -0.018663604 -0.04544655
-0.035631478 -0.031512193 0.058825064 0.111188464 0.037836254 -0.025397433 -0.08036855 0.026905838
0.0050221724 0.044575866 0.06844504 -0.0924479 -0.031732183 -0.015215667 -0.056191213 0.04176783
-0.012962821 -0.0599709 -0.006636734 0.0275404 0.07823653 0.041589603 0.027223816 -0.038701423
0.006231712 0.05266399 -0.010316454 -0.06398564 0.012670971 -0.0257521 -0.03856928 -0.058785133
0.09211614 -0.07008951 0.029566623 0.011056224 -0.043584757 0.04424092 0.0073827044 0.024806999
-0.023559563 -0.045316584 -0.029227031 -0.0027316313 0.048683453 -0.038741738 0.02324289 -0.07108871
0.04471486 -0.09859457 -0.04892634 0.028640462 0.02373723 0.094040945 0.081750825 0.027182357
-0.0034131715 -0.07551165 -0.064201556 0.026464146 0.07713713 0.06520125 -0.022789452 -0.0013009289
-0.11338259 -0.08085378 -0.020845646 0.08148673 0.044948027 0.085130945 0.018363606 -0.002940353
-0.013486195 0.02700198 0.07962181 0.0008735815 -0.09219335 0.08206966 -0.044429775 -0.03968235
0.06886206 -0.047053367 -0.033536095 0.031727023 -0.066858575 0.031362273 -0.061602242 0.022338144
0.035410166 -0.012349998 -0.02464794 -0.1081701 0.03289591 -0.053651746 0.065627396 0.051108904
-0.05801564 -0.053984627 -0.041045465 0.092552006 0.018252684 -0.019574968 0.071182355 0.035893317
-0.02226695 0.03322311 0.023924334 0.026666883 0.05974882 0.013447617 0.004800026 0.030668437
-0.016940441 -0.041635796 0.012018291 0.0340768 -0.05091891 -0.051250983 0.0049447026 0.056911647
0.023923073 0.022205943 0.054351665 0.0957829 0.03826434 -0.02415344 -0.06529052 0.033102967
0.0073598977 0.009428386 -0.04309146 0.014031172 -0.039500516 -0.01348265 -0.0508077 -0.02777917
0.044517353 -0.005603563 0.055354144 0.011741246 0.029467538 0.023720253 -0.05719433 -0.009654604

std.constant6 f4 [128, 128]
00000000: 80ed a43c 5a0b bebd 5276 393c 4253 89bc
00000010: 8ed5 90bd dcb6 fb3c 5b52 b03b 0088 c037
00000020: 349f ca3c 1a8a 083d 6e42 21bd 945c d4bb
00000030: 51fe 2abd 1691 e83d adf5 3cbd 0de1 493d
00000040: 705c 91bb 00fc 56bd 5672 04bd 3a25 383c
00000050: 352c 91bc 92b2 db3c 6095 28bd c058 9d3a
00000060: c0f5 133a dfe3 9dbc d8c1 3c3d 96b2 f23c
00000070: 39a2 ab3d 679a ae3c acfd 04bd 10e9 6c3c
00000080: 747e 4bbc f8c8 9d3c 92e6 b9bc 9b0f e4bd
00000090: 9675 01bc 08e0 e43c 26a7 91bb c4e1 17bc
000000a0: ac3e 703c c0e9 643d a669 8b3c 74cc 8c3c
000000b0: 8fe7 92bd 2415 753d 5798 7bbd e635 343c
000000c0: 0bc0 85bd 4017 443a 4dfb 0d3c a042 2fbd
000000d0: 904c 4e3b 35b1 4cbd 62ca 92bc eaee 5d3d
000000e0: f57a a5bc bb66 293d 9822 093d 0c9b c8bd
000000f0: 563c c63c b87d 9f3d 6e06 413d e25a dabd
00000100: 0fbe 88bc 6ddd 32bd 55a4 22bd 3c19 f7bc
00000110: 7ee5 ac3c b21a 81bd 6db5 843c 33d7 97bb
00000120: 2c96 8abc 84a7 10bc a5f0 27bd c088 4b3b
00000130: 1680 78bc 8768 733d 298d 2f3d c3e4 a3bd
00000140: 3e74 9e3c f0e6 29bd c820 be3c 9437 62bd
00000150: 8ae3 aebd 4dde 64bc e6e7 093d 7aa9 64bc
00000160: 73d1 bdbd a26d f1bb 80de 823a f50a 1b3d
00000170: 489c 89ba af5e 30bd 7b29 93bd abb8 22bd
00000180: ae4d 83bd 19d3 e2bc 4ce1 783c 7659 5bbc
00000190: 4423 44bc 1fb4 29bd 6eb6 6b3d 1cb0 a6bc
000001a0: 9a16 31bd dc57 4dbc 5d86 cd3b 0b8d 0abd
000001b0: 2398 cb3c 7c0b 7cbc 0086 0f3c f149 49bd
000001c0: 3ec2 923d 117e 143d 27a9 5bbd 570e 5d3c
000001d0: 8fed 313c b46c efba 76a8 523c 9276 e7bc
000001e0: cd74 423d f260 35bc 4409 8bbd b411 e43c
000001f0: 6be3 953c b0e2 413d a2a9 23bc 9497 393d
00000200: 0722 eebb 003a 46bd c35a a73c f629 ea3b
00000210: 542f 943b e188 bcbd ecc2 803d 8a90 d9bc
00000220: 459c 483c 799c 963c 4ede 5dbd affd 223d
00000230: 9a5e 2fbd e217 f1bb 0ec4 e5bc dd6d 0a3d
00000240: ab11 033d d274 e1bd ebb9 423d 9750 e73c
00000250: 6737 7bbc 5ebf 883d e887 073b 816c 89bc
00000260: 0499 cdbd 80c8 833d 7270 053d 879e 20bc
00000270: fc02 ab3d 49c4 89bd e86b f2bb f951 bd3c
00000280: b180 863d 11f2 5abd 8fdd 473d 5c1b ef3c
00000290: f2e4 42bd bae3 ab3d c4ac 043c e038 e1bc
000002a0: 015c 5cbd 195d 463d de5f 603d 58a1 28bd
000002b0: cdab fa3b aae5 183c f196 4e3d d6dd 2e3d
000002c0: c887 89bd d8bd 393d 66d2 8c3d 777f 83bd
000002d0: 15bf a13c decb ac3a b607 8ebd 6f41 053d
000002e0: 64f7 3c3d 824d 043c 014c 04bd fb2f 003d
000002f0: cb51 1c3b ab51 acbd 1dd0 33bd 5347 edbc
00000300: f790 193c cb1f 8bbd 991b b43c 167b 4b3d
00000310: ce77 183d 551a 0ebd 7d3a fa3d cdd5 2bbc
00000320: 0942 a23c 439c ae3b 22be 1a3c 560c 90bc
00000330: f9d6 58bd 67db 8ebc 8f45 033d cc5b 833c
00000340: 8251 32bd 9dd6 38bd 0ae6 96bc 028d 8fbb
00000350: efaf bb3c c84f 783a 98d4 e13c f547 f93a
00000360: 9209 fd3c 73db 02bc 628d b3bc 69b5 0b3d
00000370: c801 a23c c518 89bb 1b22 123d 9b6a c5bb
00000380: 4925 81bb 6c43 9b3c 3d39 16bd 59d1 d0ba
00000390: c31c 83bd 7374 6fbd 525f e2bc 0056 4dbd
000003a0: f46a 883d 103e 52bd fabe b9bc 3d64 fbbc
000003b0: 6dee 863c e74d 1ebb 1669 ffbc 0a27 f93c
000003c0: b08f 86bc e134 90bb 48bd 14bb 81a8 f7bb
000003d0: 74e9 afbd 828b 183c 37ac d9bd b8d6 88bc
000003e0: 4250 3c3d bf6d 9e3d f081 0c3c e709 d5bc
000003f0: fcfa 173c a32e 1a3c 3f83 a1bc 8e79 7a3d
0.02013278 -0.09279509 0.011319714 -0.016763333 -0.07071982 0.030726843 0.0053809113 2.2951514e-05
0.024734117 0.03333483 -0.039369993 -0.0064807627 -0.04174644 0.11355798 -0.046132732 0.04928689
-0.0044360682 -0.05248642 -0.0323356 0.011239344 -0.017721275 0.026818547 -0.04115808 0.0012004599
0.00056442246 -0.019273696 0.0460833 0.029626172 0.08380551 0.02131386 -0.032468483 0.014459863
-0.0124202855 0.019260868 -0.022692952 -0.11135789 -0.00790157 0.027938858 -0.0044449745 -0.009270135
0.01466338 0.055886984 0.01701815 0.017187335 -0.071730725 0.059834614 -0.06142458 0.0109991785
-0.0653077 0.0007480271 0.008665872 -0.042788148 0.003147874 -0.049973685 -0.01791877 0.054182924
-0.020200232 0.041357737 0.033480257 -0.09795198 0.024198692 0.07787651 0.047125272 -0.10661866
-0.01669219 -0.0436682 -0.0397075 -0.0301634 0.021105524 -0.0630392 0.016199792 -0.004633808
-0.01691731 -0.008829001 -0.04100098 0.003105685 -0.015167257 0.059425857 0.04285923 -0.08002617
0.019342538 -0.041480005 0.02320899 -0.055228785 -0.085394934 -0.013969016 0.03366842 -0.013956422
-0.09268465 -0.0073678056 0.0009984523 0.037852246 -0.0010498846 -0.043059047 -0.07185646 -0.039726894
-0.064113006 -0.02768855 0.015190434 -0.013388028 -0.011971299 -0.041431542 0.057547025 -0.020347647
-0.043234445 -0.012533154 0.006272121 -0.033825915 0.024852818 -0.015383597 0.008759975 -0.04914278
0.07165955 0.03625304 -0.053628113 0.013492188 0.010859861 -0.0018266649 0.012857547 -0.02825478
0.04747467 -0.011070477 -0.06788877 0.027840473 0.018296918 0.047335327 -0.009989174 0.04531057
-0.00726724 -0.048395157 0.02042902 0.0071461154 0.0045222435 -0.09205795 0.062871784 -0.02655818
0.012244289 0.018385159 -0.054167084 0.039792713 -0.04281483 -0.0073575834 -0.028047588 0.03379618
0.03199927 -0.1100861 0.047540586 0.02823667 -0.015333033 0.066771254 0.0020680372 -0.016775372
-0.10038951 0.06434727 0.03257794 -0.009803421 0.083501786 -0.067268915 -0.0073981173 0.023110377
0.06567515 -0.05345351 0.04879528 0.02918785 -0.04758162 0.08393045 0.008097831 -0.02749294
-0.05379868 0.04842863 0.054778926 -0.041169494 0.007649875 0.0093321 0.050436918 0.042692028
-0.06715351 0.045347065 0.06876068 -0.06420796 0.019744435 0.0013183316 -0.069350645 0.032533105
0.046134368 0.00807512 -0.032299045 0.031295758 0.0023852463 -0.084140144 -0.043899644 -0.028964674
0.009372941 -0.067931734 0.021985816 0.04967793 0.03722363 -0.03469308 0.12218187 -0.010487986
0.019806879 0.0053286864 0.009444745 -0.017584007 -0.05293939 -0.017438604 0.032048758 0.016034983
-0.043534763 -0.045126546 -0.018420238 -0.004380823 0.02291104 0.00094723376 0.027567193 0.0019018637
0.030888353 -0.007986891 -0.021918003 0.034108553 0.01977624 -0.004183861 0.035677057 -0.0060246713
-0.0039412123 0.018953048 -0.03667568 -0.0015931531 -0.0640197 -0.058460664 -0.027633343 -0.050130844
0.06661025 -0.05132872 -0.022674073 -0.030687446 0.016471112 -0.002415532 -0.031178039 0.030414123
-0.016425937 -0.004400835 -0.0022695828 -0.007557929 -0.085894495 0.009310605 -0.106285505 -0.016703948
0.045974977 0.07735776 0.008575901 -0.026005698 0.009276148 0.009410533 -0.019715903 0.06115108

std.constant7 f4 [128]
00000000: af41 23bb fd68 3e3d 2fa1 ca3b e3e5 d53c
00000010: 8825 f83c 02ed fa3d ce51 b13c 774c 32bc
00000020: 5d7a d33b 9fe6 093c 98fc 1a3d 939f c83c
00000030: 48f2 9abb 9a2d 473c 7518 b83c 2e02 9e3c
00000040: d910 6f3d 7c0e 143d d863 b0bb 8e5a 653d
00000050: cabd c33d 002d a53c 310c e6bb 6810 d93b
00000060: f444 643c 84d7 bf3d 74e6 983c 6e9c 033d
00000070: 0d97 2b3e 8dd5 8d3c 1efc de3c c213 033d
00000080: 1365 ca3c b811 213d 280b a93a af1b 0d3c
00000090: bc46 bb3d e7ef f73c 41c0 9039 c715 a13a
000000a0: d96c 88bc a107 c93c 2bff 8f3c e1f5 e83b
000000b0: a87a 903c 81f0 643d d1d3 bf3c 76ca 9f3c
000000c0: 9220 b43c 7230 a93c 7d5a f63b 1b8e fc3b
000000d0: 4dad 9b3c 9401 ffbb 8e40 443b 90c1 cf3b
000000e0: 3899 4ebb 98f9 003e e3d2 8ebc 1a1e 093c
000000f0: c2cc 513c 8dad 783d 79de 843d a41a 9d3d
00000100: e938 d23c 2f91 0f3d 1678 b43c 6671 8e3c
00000110: 1335 6c3a 7e54 c23b ad70 bfbb 32c5 273d
00000120: d4fe a73c 9248 973b c953 783d a68d e43b
00000130: 81eb 9e3c 2dbd aa3d 1a97 a23c 93b0 473d
00000140: 6564 193c 5776 ff3c 2ee6 4f3d d524 7a3c
00000150: 7fae d63c 0d54 1a3d cc39 1c3d 6009 bf3c
00000160: 52da ff3a 87fe 533d c95f a33b 0974 b2bb
00000170: 0a1c 473d 9722 ab3c e549 173e bcd6 abbb
00000180: b202 843c d8b7 803c 4b1a 0a3d 1d5b f23d
00000190: 309d 59bc dd4f 833b e513 0f3d 45d3 a53b
000001a0: cb0c 403d bb01 533d 688d 9d3d 0d2b 12bb
000001b0: 38a8 bc3b 4c01 c53c 9a43 b03d 1514 763c
000001c0: 334d 163d ee4f 033e 95ea a13b fb29 f83d
000001d0: 59fa 0c3b 471c 843c f9f9 123c 834d 823d
000001e0: 8955 16bc f1b1 a33d 88de d23c 48bf 383d
000001f0: 7c75 e63b 6ea4 a7bb b7f0 9cba c4a8 cd3c
-0.0024910977 0.046486843 0.0061837654 0.026110595 0.030291334 0.12252237 0.021645453 -0.010882488
0.006453796 0.008416801 0.03783855 0.024490153 -0.004728589 0.012156868 0.0224726 0.019288149
0.058365677 0.036146626 -0.005382996 0.055994563 0.09557684 0.02016306 -0.0070204963 0.00662427
0.013932455 0.09367278 0.018664576 0.032131605 0.1675684 0.017313743 0.027219828 0.032001264
0.024706399 0.03932354 0.0012897002 0.008612557 0.09144351 0.030265762 0.0002760906 0.0012289815
-0.016653465 0.02453977 0.017577728 0.007109389 0.017636612 0.055893425 0.023416432 0.01950572
0.021988187 0.020652983 0.0075181113 0.00770737 0.019003535 -0.0077821705 0.0029945704 0.006340213
-0.003152443 0.12595212 -0.017434543 0.008368993 0.012805166 0.060712386 0.06487746 0.07671097
0.025661903 0.035050567 0.022029918 0.017388057 0.0009010594 0.0059304824 -0.0058422894 0.040959544
0.020507254 0.0046168054 0.06062678 0.0069748936 0.019399406 0.08336864 0.019847441 0.04875238
0.009362315 0.031184359 0.050756626 0.0152675705 0.026206253 0.037677813 0.038141057 0.0233199
0.001952002 0.051756408 0.0049857837 -0.0054459614 0.048610725 0.020890517 0.14774282 -0.005244104
0.016114566 0.015712664 0.03371648 0.11833785 -0.013282105 0.004007323 0.034931082 0.0050605857
0.0468872 0.051515322 0.07692987 -0.0022303492 0.005757358 0.02404847 0.08606644 0.015019436
0.036694717 0.1282346 0.0049412944 0.12117382 0.0021511524 0.016126765 0.008970731 0.063624404
-0.009175667 0.07992924 0.025740877 0.045104295 0.007033048 -0.005116037 -0.0011973594 0.025104888

std.constant8 f4 [128]
00000000: df62 87bb 6f1a 8b3a 11c2 b5bc 9348 c43a
00000010: 1f2e 46bc b5ba c03c c08f 2dbb 5a7c f73b
00000020: 224a 74bb 1f8f a43c fede d53b 81e7 87bb
00000030: 9e99 acba 6d1b 37ba b290 49bb 5635 713b
00000040: 3708 ebbc ae5e a23a 7627 673b 96f4 6d3b
00000050: 54ec 283b 3890 efb8 fad8 ab3c c8fe 273b
00000060: 5650 00bb ff81 05bc 248d f5ba 8fcb 63bb
00000070: 529e a63c 8f80 153a fef8 97bb 907e cebc
00000080: f33f 653b 4f66 23bc f0fa acbb 7d32 74bb
00000090: 00e3 e4bc 8ec6 d33c 6196 603b beba 423a
000000a0: dd8c 9cbc a016 33ba cb7d a0bb 6263 e63c
000000b0: a487 8a3a cfd2 3ebb 1d21 0bbc f1fe b23b
000000c0: a453 17bb cd76 06bc a389 a43c 1aba c53b
000000d0: cf2c 923a 5225 a3bb d298 25b8 fbe4 5c3b
000000e0: ae69 bd3b cf66 cfbc f9ba b33c e4c4 75ba
000000f0: 6391 6fba 19ee 0aba 2933 75bb 2409 8a3b
00000100: ab23 75bb 0029 4c3b 008c 55b9 aaf1 52bb
00000110: eae8 b6bb 67d3 b73a 2980 c9bb 1a26 8eba
00000120: c09b c1bb e7c3 f03b d147 debc f10c d4bc
00000130: 1ec0 1239 f446 003d 39f2 383b 8162 55b9
00000140: 8ca6 a23c 04b6 ef3a 1806 a1bc 04cf 843b
00000150: 2320 a7ba da3f 183a 0834 e63a 80ce 0d3b
00000160: b4ac 97bb faf9 35bc 7fb4 eb38 70c8 983b
00000170: d13f 863c 2907 813a 03df febb e470 d43b
00000180: d5ad 113b a6d8 81bb cee1 183b 05a2 ccbc
00000190: a6ac 3f3c cd23 f2ba e957 c8bb 3bd5 3d3a
000001a0: 8646 243b cf48 e3ba 6d98 6a3b 8d70 993b
000001b0: 08bb 15bb f5af 01bb eec6 e03c 7ce3 a7bb
000001c0: c1aa 39bb 0f0d 3e3c a224 d73a 4851 ba3c
000001d0: 9e75 10bc 7121 7c3b 732b 9b3b c267 473c
000001e0: 3903 f5bb f1d4 543c 5f7f a03b a49c dc3c
000001f0: 5741 5c3b e3f0 623b 171f bb3a 81d2 1c3c
-0.0041316594 0.0010612736 -0.022187265 0.0014975242 -0.012095957 0.023526529 -0.0026483387 0.0075526657
-0.0037275632 0.020087777 0.006526827 -0.0041474705 -0.001316834 -0.0006984983 -0.003075641 0.0036805472
-0.02869044 0.0012387836 0.0035271323 0.0036309115 0.0025775628 -0.00011423271 0.020977486 0.002563404
-0.0019579134 -0.008148669 -0.001873408 -0.0034758782 0.020339165 0.00057030556 -0.0046378365 -0.025206834
0.0034980744 -0.009973123 -0.0052789375 -0.0037261539 -0.027940273 0.025851514 0.003426932 0.00074283394
-0.019110138 -0.00068316795 -0.004897808 0.028123561 0.0010568989 -0.002911735 -0.008491782 0.0054625203
-0.0023090625 -0.008207035 0.020085162 0.006034148 0.001115227 -0.004978814 -3.948139e-05 0.003370582
0.0057804203 -0.025317578 0.021939741 -0.0009375347 -0.0009138791 -0.00052997615 -0.0037414527 0.0042125154
-0.0037405293 0.0031152368 -0.00020365417 -0.00321875 -0.0055819647 0.0014024795 -0.006149311 -0.0010845095
-0.0059084594 0.007347572 -0.027133854 -0.025885077 0.00013995214 0.031317666 0.0028220548 -0.00020349959
0.019854806 0.0018288498 -0.019656226 0.0040529985 -0.0012750666 0.00058078545 0.0017563114 0.0021637976
-0.004628742 -0.011106962 0.00011239293 0.004662566 0.016387852 0.0009844053 -0.00777805 0.006483184
0.0022228856 -0.003962594 0.002332795 -0.0249796 0.011698877 -0.0018473804 -0.0061139953 0.00072415516
0.002506645 -0.0017340424 0.003579642 0.0046826066 -0.0022847075 -0.0019788716 0.027438607 -0.005123554
-0.0028330537 0.011599793 0.0016414116 0.022743836 -0.008817105 0.003847208 0.004735404 0.012170734
-0.007477191 0.012990222 0.0048979963 0.02693016 0.0033608282 0.0034628443 0.0014276233 0.009571672

std.constant9 f4 [128]
00000000: 0000 803f 0000 803f 0000 803f 0000 803f
00000010: 0000 803f 0000 803f 0000 803f 0000 803f
00000020: 0000 803f 0000 803f 0000 803f 0000 803f
00000030: 0000 803f 0000 803f 0000 803f 0000 803f
00000040: 0000 803f 0000 803f 0000 803f 0000 803f
00000050: 0000 803f 0000 803f 0000 803f 0000 803f
00000060: 0000 803f 0000 803f 0000 803f 0000 803f
00000070: 0000 803f 0000 803f 0000 803f 0000 803f
00000080: 0000 803f 0000 803f 0000 803f 0000 803f
00000090: 0000 803f 0000 803f 0000 803f 0000 803f
000000a0: 0000 803f 0000 803f 0000 803f 0000 803f
000000b0: 0000 803f 0000 803f 0000 803f 0000 803f
000000c0: 0000 803f 0000 803f 0000 803f 0000 803f
000000d0: 0000 803f 0000 803f 0000 803f 0000 803f
000000e0: 0000 803f 0000 803f 0000 803f 0000 803f
000000f0: 0000 803f 0000 803f 0000 803f 0000 803f
00000100: 0000 803f 0000 803f 0000 803f 0000 803f
00000110: 0000 803f 0000 803f 0000 803f 0000 803f
00000120: 0000 803f 0000 803f 0000 803f 0000 803f
00000130: 0000 803f 0000 803f 0000 803f 0000 803f
00000140: 0000 803f 0000 803f 0000 803f 0000 803f
00000150: 0000 803f 0000 803f 0000 803f 0000 803f
00000160: 0000 803f 0000 803f 0000 803f 0000 803f
00000170: 0000 803f 0000 803f 0000 803f 0000 803f
00000180: 0000 803f 0000 803f 0000 803f 0000 803f
00000190: 0000 803f 0000 803f 0000 803f 0000 803f
000001a0: 0000 803f 0000 803f 0000 803f 0000 803f
000001b0: 0000 803f 0000 803f 0000 803f 0000 803f
000001c0: 0000 803f 0000 803f 0000 803f 0000 803f
000001d0: 0000 803f 0000 803f 0000 803f 0000 803f
000001e0: 0000 803f 0000 803f 0000 803f 0000 803f
000001f0: 0000 803f 0000 803f 0000 803f 0000 803f
1.0 1.0 1.0 1.0 1.0 1.0 1.0 1.0
1.0 1.0 1.0 1.0 1.0 1.0 1.0 1.0
1.0 1.0 1.0 1.0 1.0 1.0 1.0 1.0
1.0 1.0 1.0 1.0 1.0 1.0 1.0 1.0
1.0 1.0 1.0 1.0 1.0 1.0 1.0 1.0
1.0 1.0 1.0 1.0 1.0 1.0 1.0 1.0
1.0 1.0 1.0 1.0 1.0 1.0 1.0 1.0
1.0 1.0 1.0 1.0 1.0 1.0 1.0 1.0
1.0 1.0 1.0 1.0 1.0 1.0 1.0 1.0
1.0 1.0 1.0 1.0 1.0 1.0 1.0 1.0
1.0 1.0 1.0 1.0 1.0 1.0 1.0 1.0
1.0 1.0 1.0 1.0 1.0 1.0 1.0 1.0
1.0 1.0 1.0 1.0 1.0 1.0 1.0 1.0
1.0 1.0 1.0 1.0 1.0 1.0 1.0 1.0
1.0 1.0 1.0 1.0 1.0 1.0 1.0 1.0
1.0 1.0 1.0 1.0 1.0 1.0 1.0 1.0

std.constant10 f4 [128]
00000000: 9986 0ebb 3e9b 3e3d 2992 c93b e0b8 d83c
00000010: 4956 f33c e2c4 f93d d55b ac3c e7d9 30bc
00000020: 770a cd3b c3bb 2e3c 0721 1c3d 62c4 ca3c
00000030: 7092 9ebb a614 5a3c e9cc ba3c 304d 963c
00000040: 149e 6e3d 2edb 143d f0df b5bb eaf4 633d
00000050: 97d0 c33d 4784 a23c c290 e5bb 92a1 d43b
00000060: ce0c 673c 7588 c03d f2b8 903c 507a 023d
00000070: 8488 2b3e 1053 8b3c 205e d93c e66f 033d
00000080: 2597 d03c b211 203d 9eec dc3a 7e85 0c3c
00000090: 4075 ba3d 9904 023d 349d 133a 1995 983a
000000a0: 0b6a 88bc e86e c83c d3a4 933c bffe ed3b
000000b0: 0355 8d3c 5711 623d 9998 c23c a0b6 963c
000000c0: 4794 b93c 84d7 a63c 933a ed3b dcec 0a3c
000000d0: d2a8 9d3c 0c6b 04bc 88d9 323b 1b24 df3b
000000e0: 2c92 75bb 6255 013e 446d 8ebc aa69 0f3c
000000f0: 0079 463c 4fcb 793d 1b43 863d c55c 9d3d
00000100: e86d cf3c ae33 0c3d cf68 aa3c db7d 8d3c
00000110: 338c 7639 5883 df3b e336 c1bb f9d7 2b3d
00000120: 7434 a53c 50f6 933b 6ac7 783d 8977 e43b
00000130: 9c21 a13c b428 ab3d a6b4 a13c 5d9e 463d
00000140: 0ea1 153c 514b 013d c6ee 543d df60 753c
00000150: d450 d53c 4dc2 1b3d 1ef2 1e3d 85de bf3c
00000160: 1106 e73a 29d0 553d 3bce a13b 2041 aebb
00000170: 6a03 473d 9e94 a63c 049b 173e 0231 afbb
00000180: 945a 873c f0b0 823c d95e 073d 903d f13d
00000190: 5b56 57bc 9828 733b 8ff6 0b3d 84ce 993b
000001a0: 6782 423d 5cd3 553d d96a 9d3d ccc5 d1ba
000001b0: 41e9 c43b 300c ca3c 37c2 af3d c10f 703c
000001c0: e474 183d b7ae 033e dfee 9c3b 0417 f93d
000001d0: f528 8e3a 7520 8c3c c56f 103c 227a 813d
000001e0: 2717 1abc 7c37 a53d 33ea d63c 41dc 373d
000001f0: dbb9 d83b ef6d b2bb 2083 c1ba 46b7 c93c
-0.0021747707 0.04653477 0.006151457 0.026455343 0.02970423 0.121957555 0.021039883 -0.0107941395
0.006257351 0.010664883 0.038117435 0.024751846 -0.004839234 0.013310587 0.022802787 0.018347353
0.058256224 0.03634184 -0.005550377 0.05565349 0.0956127 0.019838465 -0.007005782 0.0064889872
0.014102174 0.09401027 0.017666314 0.031854928 0.16751295 0.01700738 0.02653414 0.032089137
0.025462696 0.039079376 0.0016855185 0.008576749 0.09104395 0.031742666 0.000563103 0.0011641114
-0.016652128 0.024466947 0.01802293 0.007263034 0.01725245 0.055192318 0.023754405 0.01839763
0.022653712 0.020366438 0.0072396486 0.008479323 0.019245539 -0.008082163 0.0027290303 0.006809724
-0.0037471158 0.12630227 -0.017386086 0.00875322 0.01211381 0.060984906 0.06555768 0.0768371
0.025320962 0.034228973 0.02080193 0.017271927 0.00023512616 0.0068210773 -0.0058964356 0.041954014
0.020166613 0.0045154467 0.06073705 0.0069722575 0.019669347 0.08357373 0.01973946 0.04849087
0.009132637 0.031565968 0.051985525 0.014976709 0.026039518 0.038027097 0.03880512 0.023421535
0.0017625709 0.05220047 0.0049379147 -0.005317822 0.04858724 0.020334538 0.14805228 -0.0053464184
0.016522683 0.015953511 0.03304944 0.1177932 -0.013143147 0.0037103053 0.034170683 0.004693808
0.047487643 0.05220352 0.07686395 -0.0016004383 0.0060092513 0.024664015 0.085819654 0.0146521935
0.03722085 0.12859617 0.004789218 0.12162593 0.0010845946 0.01710532 0.00881571 0.06322123
-0.009404934 0.080672234 0.026234722 0.044887785 0.0066139526 -0.005445234 -0.001476381 0.024623524

std.constant11 f4 [128, 7]
00000000: af5c 4fbb 594f ca3d 624a 45bd 2267 87bd
00000010: 1663 68bd 37d5 ce3d ae0f d63d 9558 0dbd
00000020: 0ae9 3b3d cd96 95bc fd83 b73d 9c2c e33c
00000030: 6d4d 1b3d a73d 453e bdae 1b3c f74f 9b3d
00000040: 2130 113d 77b2 9e3d fafb 3abc 2d49 76bd
00000050: 8ced 073d 1233 203d 8da3 5c3d b3e1 82bd
00000060: ba6a 543d 6c6b 40bd 48c2 90bb 53a6 033d
00000070: 5f3a 92bd 9da2 aabb 88f6 2fbc 12e2 48bc
00000080: 0fb7 f83c 174d 2b3d 8de8 923c 6d5c 153e
00000090: 5326 093e 2727 e43c 4fb4 60bd 5981 ac3d
000000a0: ba55 133d d17c 713d ddda 9fbd 0020 673d
000000b0: ca95 67bc 5097 6f3b 3cb9 d3bd f8bb a7bd
000000c0: 7ae9 1dbc 1df2 cfbd b37f 983c 7eac 9d3d
000000d0: 7b2a e4bd 01ac a8bc 76bb 33bd 3292 02bd
000000e0: f77e b73c b71a bebd 1768 963d 1612 92bd
000000f0: fa49 b93d 5654 12bd 5f0b 813d 353f 78bd
00000100: 7529 d1bd 24b3 45bc c3be 043d f036 cbbd
00000110: ba8c 82bd 889c 0ebe db52 b43d c69a 8e3d
00000120: 2ea0 c03c ce12 66bd 5c7f 683c d1a7 afbd
00000130: d18d be3d c3bd efbc 79f8 073e 8ddd 82bd
00000140: 436c a93d e061 8cbc 7f6a 62bd 5bbb b93d
00000150: 3863 b23b a53c 68bd 2a1d a7bd d14f 7b3d
00000160: dc4a ba3d 00ad b03c f064 033e 3e07 e83d
00000170: 295a 003e 51a0 53bd b80e 5dbd 66cf 893c
00000180: f34b 813d bc05 283e 0c02 a43d 518b 66bd
00000190: 7c13 d7bd d745 603d 670c 42bd c521 9ebd
000001a0: f142 093e 5a91 b03d cfc1 d43d dd31 46bd
000001b0: a368 983d 4402 afbd 2f64 8ebd 77fd e9bb
000001c0: 912c d5ba d8a3 203d 05a1 3c3d f19c 87bd
000001d0: cffe 003e 5592 ab3d 167f ad3c d7eb 353d
000001e0: 8588 be3d 3f04 923c 622f a03d 6495 013d
000001f0: 3877 86bc 59d4 053e dc09 a43d 04f2 7abc
00000200: 6364 253d 5c2d c93d 543c e1bd de1e 0bbd
00000210: 2969 a2bd c495 8a3c a5ff 123e f89d 38b9
00000220: 8b6f 0dbd 9647 ef3d 7db2 9fbb afc0 973d
00000230: c4dd 1a3e 2d7f d43d 6562 e13d 3459 16bd
00000240: a4fe 923d 613b 143e a724 2b3e a800 82bd
00000250: 9cc8 c43d 75f5 6a3d 192e eebc f1ef 8dbd
00000260: c9f1 be3c 0b33 f9bc 8d20 a63d c284 c53d
00000270: d7b5 a7bd 0fa3 a13d 4e93 c0bd 6cdc cebc
00000280: fc2c 7c3d 2539 803c 1b95 eb3d ddf2 883d
00000290: 36a1 3e3d 5dd9 abbd dcb3 743d 7f50 1a3e
000002a0: 3cf3 2ebd 4b05 d0bd 5270 8a3b 057b 803d
000002b0: b2de 43ba a9ec e4bc 5081 a23d 7ef5 213e
000002c0: 7cfa d53d e171 de3c 18db f9bc f0d5 86ba
000002d0: a5d6 b6bc fe1f 213e f70d 953d e5d1 fa3d
000002e0: 6bd2 c63c 813f 643d f861 b3bc 88d6 f23d
000002f0: c5c1 9a3d 13f2 b9bc cae2 523d c975 9f3d
00000300: 0934 8dbd 6366 a93d fbe8 943d 2cd4 c43c
00000310: 52cb 483d b491 6a3e b4a7 4cbb 1af1 863d
00000320: fd30 1c3e cbc0 913c 16f2 0d3e 1df5 8bbd
00000330: eaa8 abbd 5c0b 103d 6bd1 1bbd ecf8 453d
00000340: 7654 333d ba3a 04bd 28d3 a0bc 1e47 81bd
00000350: 40c7 16bd 6357 6bbc 1dbe bebc aa27 b3bd
00000360: 6d01 573d 0c3c eebc 7c5f 24bd 0f59 01bd
00000370: 8aab 21bd f80c 65bd b569 eb3b 65b6 dcbc
00000380: f870 0d3d e7b8 143d 5908 abbd 41cb 643d
00000390: bd0d 933d b2b8 f73c 7af3 193e 7284 7dbd
000003a0: 12e2 b33d 944c e43d 938d 853d 94b1 83bd
000003b0: 557c 88bd 3b0f c23d f663 96bd d07e 2fbd
000003c0: 3b58 1bbd 102e 80bd 0e86 bb3d a156 d4bd
000003d0: 1730 663d 82dd 8bbd 4354 a0bc 567a 89bd
000003e0: bd17 ae3d 2973 413d 2483 a0bd c7a4 263e
000003f0: e878 d4b8 81c0 b5bb 8787 22bd 6fe1 d33d
-0.0031640937 0.098784156 -0.04816664 -0.06611468 -0.05673512 0.10099261 0.104522094 -0.034508307
0.04587654 -0.018260384 0.08960722 0.027731232 0.037915636 0.192618 0.00950211 0.075836115
0.03544629 0.07748883 -0.011412615 -0.06012838 0.033185527 0.039111204 0.05386691 -0.06390705
0.051859595 -0.046977445 -0.0044176914 0.03214104 -0.0714004 -0.0052073733 -0.01073993 -0.012260931
0.030360727 0.041821565 0.017933154 0.14586039 0.13393526 0.0278507 -0.054859456 0.084231086
0.035970427 0.058956925 -0.07805417 0.056427002 -0.014134834 0.0036558695 -0.10338065 -0.08190149
-0.009638185 -0.10153601 0.01861558 0.07698916 -0.11140915 -0.02058983 -0.04387995 -0.031877704
0.022399409 -0.09282439 0.07344072 -0.07132356 0.09047313 -0.03572496 0.06300997 -0.060607154
-0.102129854 -0.012066636 0.032408487 -0.09922588 -0.06374498 -0.139269 0.08804866 0.069631144
0.02351388 -0.056170277 0.014190521 -0.0857693 0.09304393 -0.02926529 0.13278379 -0.06389914
0.082726024 -0.017136514 -0.055277344 0.09068938 0.0054439567 -0.05669846 -0.081598595 0.061355416
0.090963095 0.021566868 0.12831473 0.11329506 0.12534393 -0.05166656 -0.053969115 0.016822528
0.06313314 0.16408437 0.08008203 -0.056285206 -0.10501763 0.054754104 -0.04737511 -0.07721285
0.13404442 0.086214736 0.103885286 -0.048387397 0.07441833 -0.08545354 -0.06952702 -0.007140811
-0.0016263892 0.039218754 0.046051998 -0.06621731 0.12597202 0.0837752 0.021178763 0.044414368
0.09303383 0.01782429 0.078215376 0.03163661 -0.01641427 0.13069285 0.08009693 -0.01531649
0.04037894 0.09823105 -0.10997835 -0.033964984 -0.07930214 0.016917117 0.14355333 -0.00017606455
-0.034530204 0.11683576 -0.0048735724 0.07409798 0.1512366 0.10375819 0.110050954 -0.036706164
0.07177475 0.14475776 0.167132 -0.063477814 0.09608576 0.057362992 -0.029074715 -0.06930531
0.023308652 -0.030419847 0.08111677 0.09644462 -0.0818898 0.07892429 -0.09403096 -0.02525159
0.061566338 0.015652249 0.11503049 0.066869475 0.04654046 -0.08391068 0.05974184 0.1506977
-0.042712435 -0.101572596 0.0042248154 0.06273464 -0.0007471844 -0.02794488 0.07934821 0.15816304
0.10448167 0.027153911 -0.03049998 -0.0010287147 -0.022319147 0.1573486 0.07278054 0.122470655
0.024270257 0.055724625 -0.021897301 0.11857325 0.0755649 -0.022698438 0.051485814 0.077861376
-0.068946905 0.08271482 0.07271 0.024026953 0.049022026 0.22907144 -0.0031227889 0.06588955
0.15253063 0.017792126 0.1386188 -0.06833861 -0.08381827 0.035167083 -0.038041513 0.048333094
0.04378172 -0.03228257 -0.019631937 -0.06312393 -0.036811113 -0.014364096 -0.023284012 -0.087478
0.052491594 -0.029081367 -0.040130123 -0.031579074 -0.039470233 -0.05592057 0.007184232 -0.026942441
0.034531564 0.03630915 -0.083512016 0.0558579 0.07180355 0.030239437 0.15034285 -0.061893888
0.08783354 0.111474186 0.06521144 -0.06430355 -0.066643395 0.09475561 -0.07343285 -0.042845547
-0.03792594 -0.06258786 0.09156428 -0.10368086 0.056198206 -0.06829359 -0.01957143 -0.06712787
0.085006215 0.047228966 -0.07837513 0.16273795 -0.00010131468 -0.00554663 -0.03968003 0.103457324

std.constant12 f4 [128, 7]
00000000: 7fe7 00be 5405 b2bd 3862 733d df74 12bd
00000010: f545 0fbd ebd7 28bd 7ea4 053d 62d8 8ebd
00000020: 20a8 693d 0746 843d b368 5ebd 942e 7abd
00000030: ab01 173d b54f 26be 07a3 763c 49ea 4f3d
00000040: 9a11 3c3d fcd9 da3c d16a 123d eb51 ebbd
00000050: 0006 cf3d 0bb4 af3d 27f8 e83d 68e2 853d
00000060: 7bd2 97bd 7ddc e8bb c0b2 b1bd 9a23 c53d
00000070: 3104 7aba 6812 093c ade8 9d3d a05c 83bd
00000080: 6052 6e3d f2d1 f83c b1f0 dbbd f50b 293c
00000090: 948c 2bbc 2653 dc3d 74fb 673d 2bd7 bfbc
000000a0: 0023 bebd 16cf 28be 42cb 743d 7ad6 ac3d
000000b0: 196f 35bd a763 c8bd b9ae edbc 3281 7bbc
000000c0: f489 09be 1632 19bd 787a 9abd 788f 36bd
000000d0: 94c7 b0bd 328d 253d f065 c83c 6b31 073c
000000e0: 77ff 3fbd e508 76bd 132c b2bd b010 bdbd
000000f0: b72f a3bd 4916 7f3b eb62 43bd cfa8 47bb
00000100: dfdd a73d f13b d9bc d3c5 20bd 4dfd e03c
00000110: d98f 49bb d58b 9ebd 89a4 49bd 1d8f 8d3d
00000120: d9da 42bc 4189 a9bd c0cd 613c b9f1 d7bc
00000130: 7ec8 32be bdbf 823d 710a 3d3d 3806 09bd
00000140: 36c8 553d 7a5f 3a3c e4fc 38bd 6881 e53d
00000150: 3905 adbd 75c0 333d 7f6d fcbc 8c79 053d
00000160: bc39 5cbc b66f aebd 034c 59bc 2c5c b1bd
00000170: 144d a6bc ef27 31bd 3093 6e3c da74 81bd
00000180: 4fe4 92bc e8d1 a4bd d5df 2f3c 7562 94bc
00000190: cd3d dc3b 7550 f93c 9ed9 b0bd ee17 b1bd
000001a0: 25c0 dfbd 0a1b a03b 22f6 e13c d59c 253d
000001b0: b7f4 57bd d652 4bbc b654 773d e1f0 ac3d
000001c0: 19b7 853d 26a6 803d 7dce 0e3d bcf7 d4bd
000001d0: 3111 a4bd 96dd 4b3d 1946 ce3d 32e6 e4bc
000001e0: 3326 e33d 49ca 243d 14f0 333b 553c 01bd
000001f0: 4673 0c3d f9a3 2d3e e4c4 9fbc 41fd ec3d
00000200: 8260 e03d 95a1 903d 561f 86ba 2261 cdbc
00000210: 0921 29bd 478d 833c 192e 043c 16aa b8bc
00000220: 509b 8f3d 9011 00bd 71a7 01bd 3556 36be
00000230: d603 2dbd a09e 293d 04b1 f13d cb87 573d
00000240: 28c7 d33a af1f aabd d234 39be cb2a dd3b
00000250: a7df 36bd d4b5 293d 94c8 d13d 0830 a03d
00000260: ad48 aa3c 3197 143e 9eda 1fbd 59b9 8ebd
00000270: 98a0 5bbd 71ed 23bd 80d4 ac3d b359 b53c
00000280: 0b90 42bd efbf 463c cc10 983d 054d 133d
00000290: bf3f 9f3d 1283 303d b63c 9c3c d47b 7d3d
000002a0: 59b5 86bd 9836 af3d d0f2 ea3c dfe9 3ebd
000002b0: f1f2 55bd a738 1e3d d942 aebd d4b0 d03d
000002c0: 461d 853d 4e19 36bc 175e 7ebd f44a 2bbd
000002d0: 7b51 b3bd f178 263e 7e97 04bd 9f00 ecbd
000002e0: 9792 cd3d f2c4 4b3d 11dd dfbd dd2d 53bd
000002f0: ca62 91bd 3905 b83c 4e32 b3bd cd7f d3bc
00000300: e866 47bd ae42 d0bc 4de4 573d 73fa 1dbe
00000310: ca43 7d3b 73d5 64bd 978d c53d 0c14 58bd
00000320: 02df f738 f3de c03d 3361 5bbe ee04 b3bc
00000330: cf55 4cbd 8f99 b63d 2ee6 0e3d 1cf8 97bd
00000340: 1d5c 9a3d 3c8a e43d 0967 fabc 2cf6 cd3c
00000350: ea17 d5bd 1430 afbd ec7f 243c 52b2 bb3c
00000360: bd85 1ebe 5c6a 3ebd 6368 af3d 81d0 983d
00000370: 7bb9 6b3d ecc2 08bd 114b f9bd 9a6a 0e3e
00000380: e371 96bd 9ff0 83bd 06ab 1e3c 8871 de3d
00000390: 9d6e 623d 47b8 a7bd c8cd a8bd 5c13 febb
000003a0: 5cc6 08bd 25f0 043d 63e8 69bd f9b7 c9bd
000003b0: cdeb 743d f3db d23d 2ada 933d 7cdc d5bc
000003c0: d2ee 4dbd 29fe 2fbd 9638 3c3c 2ca3 aebd
000003d0: e9e6 2ebd 769b 4fbc f8b1 c3bc a79f 223d
000003e0: 3e84 b7bd 0ca6 c93a fcb5 92bd 8702 78bd
000003f0: 2e3a fc3b 3fad a3bd 47cb e7bc 7b9c 483d
-0.12588309 -0.086924225 0.05941984 -0.03575599 -0.034978826 -0.04122154 0.032627575 -0.069748655
0.057045102 0.06458669 -0.054299068 -0.061079577 0.036866825 -0.16241343 0.015053517 0.05076054
0.045915224 0.026715271 0.0357464 -0.11490234 0.10108566 0.08579262 0.11375456 0.06537324
-0.07413193 -0.0071063624 -0.08676672 0.09625931 -0.0009537368 0.008366205 0.07710395 -0.06414151
0.058184028 0.030373547 -0.107392676 0.010317792 -0.010470528 0.10758047 0.05663629 -0.02341803
-0.092840195 -0.16485247 0.059764154 0.08439346 -0.044295404 -0.09784632 -0.029013978 -0.015350627
-0.13431531 -0.03740128 -0.0754289 -0.044570416 -0.086318165 0.040417857 0.02446267 0.008251528
-0.04687449 -0.060067076 -0.08699813 -0.092316985 -0.07968085 0.0038923195 -0.047701757 -0.0030465608
0.081966154 -0.02651784 -0.03925116 0.027464533 -0.0030755906 -0.077415146 -0.04922918 0.06912062
-0.011892998 -0.08278132 0.013781965 -0.02636038 -0.17459294 0.063842274 0.046152536 -0.033453196
0.05219289 0.011375302 -0.04516305 0.11206323 -0.08448262 0.043884713 -0.03081393 0.03258662
-0.013441499 -0.08517401 -0.0132627515 -0.086601585 -0.020300426 -0.043250974 0.014561459 -0.06321116
-0.017931132 -0.08047849 0.010734518 -0.018113354 0.0067212344 0.030433873 -0.08635257 -0.08647142
-0.109253205 0.004886036 0.027583186 0.04043277 -0.052723613 -0.012409886 0.06038352 0.084443815
0.06529064 0.0628169 0.03486489 -0.10398814 -0.080110915 0.049771868 0.10071964 -0.027941797
0.1109127 0.040231977 0.002745633 -0.031551678 0.03428962 0.16957082 -0.019503064 0.11571742
0.109559074 0.07062069 -0.0010232728 -0.02507073 -0.04129127 0.016058577 0.008067631 -0.02254204
0.070120454 -0.03126675 -0.031653825 -0.17806323 -0.042239986 0.041411042 0.11801341 0.052619737
0.0016157376 -0.083068244 -0.18086556 0.006749486 -0.044646885 0.04143317 0.10243335 0.07821661
0.020786608 0.145108 -0.03902685 -0.06968946 -0.05361995 -0.040021364 0.08438969 0.022137498
-0.04750065 0.0121307215 0.07425079 0.035962123 0.077758305 0.04309375 0.019071918 0.06188567
-0.06577558 0.08555335 0.028680235 -0.046609756 -0.05223364 0.038628247 -0.08508844 0.10189977
0.06499724 -0.011114432 -0.06210145 -0.041819528 -0.087557755 0.16257073 -0.032371037 -0.11523556
0.100377254 0.04974837 -0.10930837 -0.05155741 -0.07098921 0.022463428 -0.08749829 -0.025817776
-0.048682123 -0.02542242 0.05270796 -0.1542757 0.0038645142 -0.055867624 0.09646147 -0.052753493
0.00011819416 0.09417524 -0.21423797 -0.021852937 -0.04988652 0.08916008 0.034887485 -0.0742037
0.075371005 0.111591786 -0.03056671 0.025141798 -0.10404952 -0.08554092 0.010040265 0.022912178
-0.15480705 -0.04648815 0.08564832 0.07461644 0.057549935 -0.033389017 -0.12172521 0.13907853
-0.07345941 -0.06442379 0.00968433 0.10861498 0.05528127 -0.08189445 -0.08242375 -0.0077537727
-0.033392295 0.032455582 -0.057106387 -0.09849543 0.05979519 0.10295858 0.07219346 -0.026106112
-0.050276585 -0.042966995 0.0114881005 -0.08527216 -0.04270068 -0.012671342 -0.023888573 0.039703038
-0.0896077 0.0015384569 -0.07163617 -0.060549285 0.0076973652 -0.079920284 -0.028295172 0.048977356
