AirQualityApp/AirQualityApp.Android/Assets/DanzigShort.tflite (tflite, 814948 bytes, 24 tensors)

std.constant3 f4 [128, 128]
00000000: 8c8a 11bd 1135 65bd f9c7 7fbc 7b86 37bd
00000010: bea1 d53c 5f7c a0bb cabe 2e3d 044f 1e3d
00000020: 3118 2a3d 6635 9fbc 6137 413c 25f8 12bd
00000030: 690f 80bd ed67 9c3d 3c33 903a 98e3 8b3c
00000040: 4772 2b3d 817b 6dbd d1a2 513d 8e98 81bd
00000050: a0ad febb 30e6 6ebc 361e c23c c824 2a3d
00000060: 0f03 273d f1fd 093c d19b 38bc 7352 8bbc
00000070: 2a87 bf3c f61f 8e3c bdd6 40bd d4d5 f03b
00000080: d536 8ebd b417 a13d 1f22 893d 2e7d b2bb
00000090: bf48 983b 6c93 863c 4e2a 823c 9abb 3abc
000000a0: c9f9 cbbc d9a5 b1bd b8bf 7f3d ac71 993d
000000b0: a77a b23d e203 af3d 9bc6 853c f8eb 5dbd
000000c0: 2edb 87bd 42bf ec3b ee71 b53c 1740 f63c
000000d0: cbe9 26bd 87a8 293c 41cc 463d 06c4 733d
000000e0: aebf b0bc 3244 34bc a194 8c3d b290 e33c
000000f0: dac9 ed3b 9278 c43c 72f6 223d 49d7 ccbc
00000100: 55f3 bdbc bedb b73c 84ad 0f3b 753b 21bd
00000110: 288f 27bc acb0 2c3d 3f21 1a3d 1855 e0bc
00000120: 87e4 ddbc 8223 efbc 74bb 2a3c b83c 00be
00000130: bbf7 adbc e0bd aebb 55c8 8bbc d0e4 273a
00000140: f60a 4f3c ab3b e43d 90eb 58b9 a79f 20bc
00000150: 5f57 873d 81a9 e83b 265e 553d d853 8c3d
00000160: 54da a6bc b4bc c73b 9570 133d d26f 2bbd
00000170: 3f92 97bd a43d 6f3d 0094 cfb7 2201 a43d
00000180: 78fd b63a ec40 b9bd 3fbc a3bd f2f6 d83b
00000190: 7e66 803c 6573 68bd 12f0 07bd 0878 87bb
000001a0: b6dc 95bd 370c 373d b098 073b 1b6d a7bc
000001b0: 0298 12bc 5791 df3c e9f0 33bd a38b d53d
000001c0: d16e ed3c 82d1 92bd c58e 8dbc 422a 66bc
000001d0: 26d5 d5bc 9029 00ba 8c8b 2dbd 2612 39bd
000001e0: 035c 8ebd 6b48 38bc d4b4 ee3c 34c1 f53c
000001f0: 80a8 2fbd fbb4 02be c15a 7c3d 357c 9abc
00000200: 150c 1cbd 044e cebc ceed 5abd a6bc 9ebb
00000210: 0142 a33c 6cdd a53c 169b a8bc 9836 143b
00000220: 9714 893d df42 95bd a511 143d a420 f83c
00000230: 9441 fb3a c518 90bd 14b8 91bd 9ab3 3b3d
00000240: cccf 5b3a 499e e7bc edb9 c83d d4a4 d0bc
00000250: 213e b1bd d03b 31bb ab5e 04bd d1ef 413d
00000260: 0464 95bc a070 4d3a 7c8e 29bc 8ec5 b43c
00000270: c96b 833d 1de7 423d 78c7 3dbd dc75 2bbd
00000280: f5c0 7d3c 704e ceb9 966d e83d 5e87 fb3b
00000290: 788e 1ebc 51bc edbc d9b4 bdbc 688c b83c
000002a0: cd3e fa3c c1e7 44bd ae26 203c faec 763c
000002b0: 5f79 a33b 5247 cbbc 4af1 c13c 5e6f 83bc
000002c0: 02ba d43b 5ad8 93bd 7c71 e4bc 2c94 913d
000002d0: 38e3 a7ba 849b fa3c 99dd ddbc b9e1 46bc
000002e0: d637 103d b137 c33c da98 b5bb b0d2 373d
000002f0: 18fa 8fbd 04c7 e23b fcdd bbbc 1457 98bb
00000300: cb96 0fbd 45b2 113d 1f11 b9bb 246b 173d
00000310: 4d1f 403c 30c1 edba d8b4 573d 3e6d 013c
00000320: e36e b9bc 3c2b e2bc fae9 a7bd ada8 b5bc
00000330: 0256 613c ee49 13bd 5de5 64bd d664 bb3c
00000340: bd16 083d c248 f13a 2cd5 5f3d 32be fe3c
00000350: 98d9 d4bc 9833 69bd ae46 e43d 0c6d d5bc
00000360: e4bf 8f3c 3140 6c3d dd78 f13c c2ed 11bd
00000370: 7387 773c 652a 153c d79c e73d 0808 c63d
00000380: a6c6 80bd a75e 29bd 8ca7 163c 0412 a2bb
00000390: 932a bc3c 2e17 603d 8d8f 073d ba89 913c
000003a0: 7c34 04bd 1e82 5dbc b947 85bc 9c0f 81bd
000003b0: 12fc a6bc 0837 11bd 6e81 e9bc a9c0 6e3c
000003c0: ac12 6c3d 5a82 cb3b fbf5 7f3d 1e5c d5bb
000003d0: 6d81 163b c287 4dbd d0c9 50bd 98ff b83c
000003e0: b2c4 4bbd 5a11 bbbb b6ec 05bc 6e18 cfbc
000003f0: 6003 043c 54bc 47bd 0c0f c5bb fc2d 23bc
-0.03553252 -0.05595881 -0.015611642 -0.044805985 0.026078101 -0.0048976387 0.04266242 0.038649574
0.041526977 -0.019434642 0.0117929885 -0.03588118 -0.06252939 0.0763701 0.0011001597 0.017076299
0.04185703 -0.05797911 0.051180664 -0.063279256 -0.0077721626 -0.014581248 0.023696046 0.041538984
0.0407744 0.008422361 -0.011267618 -0.017007088 0.023379881 0.017349225 -0.04707979 0.007349709
-0.06944052 0.07865849 0.06695961 -0.0054470515 0.004647344 0.016427718 0.015889313 -0.011397267
-0.02489938 -0.08674211 0.062438697 0.07492384 0.087148 0.085456625 0.016330054 -0.054180115
-0.06633602 0.007224948 0.022149052 0.030059857 -0.040750306 0.010355121 0.048534635 0.059513114
-0.021575775 -0.011002587 0.06864286 0.027778957 0.0072567286 0.023983274 0.03978581 -0.025005
-0.023187319 0.022443648 0.0021923492 -0.039363343 -0.010227002 0.042160675 0.037629362 -0.027384326
-0.02708651 -0.029191736 0.010420669 -0.12523162 -0.021236291 -0.0053326935 -0.0170633 0.000640464
0.012636891 0.11144193 -0.00020687119 -0.009803689 0.066084616 0.0071002846 0.05209174 0.068519294
-0.020367779 0.006095493 0.03599604 -0.041854687 -0.07400941 0.058408394 -2.474524e-05 0.080080286
0.0013961038 -0.09045586 -0.079948895 0.006621235 0.015673872 -0.056750674 -0.033187933 -0.004134182
-0.07317488 0.044689383 0.0020690374 -0.020437768 -0.008947374 0.027290983 -0.04393092 0.10427024
0.028983505 -0.07168867 -0.017279992 -0.014048161 -0.026102614 -0.0004889006 -0.04236941 -0.045183323
-0.069511436 -0.011247735 0.02913896 0.029999353 -0.042885303 -0.12764351 0.061609987 -0.018858055
-0.03809746 -0.025183685 -0.053449444 -0.004844266 0.019928934 0.020247184 -0.020581763 0.0022615548
0.0669338 -0.07288145 0.03614964 0.030289002 0.0019169324 -0.070359744 -0.07115188 0.04582558
0.0008385151 -0.028273718 0.098010875 -0.025469221 -0.08654428 -0.0027043708 -0.032316845 0.047347847
-0.018236168 0.0007836912 -0.010348912 0.022066858 0.06417043 0.047583688 -0.046332806 -0.041860446
0.015487899 -0.00039349822 0.11349027 0.007676049 -0.009677522 -0.02902046 -0.023157524 0.022527888
0.030547524 -0.04807258 0.009774847 0.015071148 0.004988834 -0.024814282 0.023674626 -0.016044315
0.0064919004 -0.07219 -0.027886145 0.0710834 -0.0012808805 0.030591734 -0.027083205 -0.012138777
0.0352095 0.023830267 -0.005541903 0.04487866 -0.070301235 0.006920697 -0.022932999 -0.0046490524
-0.035055917 0.0355704 -0.005647793 0.03696741 0.011726213 -0.0018139239 0.0526627 0.0078995805
-0.022635883 -0.027608506 -0.08198924 -0.022175157 0.013753416 -0.035959177 -0.0558828 0.02287523
0.03322481 0.0018408524 0.054646656 0.031096552 -0.025982663 -0.05693397 0.111462936 -0.026052974
0.017547555 0.057678405 0.029476577 -0.035627134 0.015107977 0.009104346 0.11309212 0.096695006
-0.06287889 -0.041350033 0.00919522 -0.0049459953 0.02296952 0.054709606 0.033095885 0.017765868
-0.032276616 -0.013519792 -0.016269552 -0.063018054 -0.020383868 -0.035452873 -0.0285041 0.014572301
0.057634994 0.0062106075 0.062490445 -0.0065112254 0.0022965327 -0.050178297 -0.050973713 0.022582814
-0.04974813 -0.0057088556 -0.008174112 -0.025280204 0.008057445 -0.048763588 -0.0060137566 -0.009959694

std.constant4 f4 [128, 128]
00000000: e893 d33c 5bb5 4fbd e461 39bc ea19 5fbd
00000010: 6e5c 303c 7e96 f03c 9859 f03c 2ed7 a4bc
00000020: 49c7 16bd cced 343c 8c84 fd3d 02d8 39bb
00000030: 594d 52bd 96ee a4bc 0134 053d 1486 aa3c
00000040: 8763 d7bb b1b9 523d 1413 bdbb 1572 fc3c
00000050: 2f65 843d 2bc7 0a3b 909e a6bc da42 043d
00000060: 7cb4 98bc 3f1d 893d 5a0c 663d 301b 4abc
00000070: 92f1 923c 94e8 d03c 9ad8 f2bc 5aa1 553d
00000080: 1e23 afbd df85 d43c 90d6 13bd 8093 733b
00000090: 5e0b 88bc 7a03 8a3c 9c8c 47bd 1a2a 3bbc
000000a0: 50dc 163c b7fc cbbd 8306 3dbd fc79 833b
000000b0: 9215 afbb df61 b6bc 8695 1ebd 3366 7a3c
000000c0: 777b 38bd 696a 21bd a96a 8e3d 025d 613d
000000d0: 3c44 6fbd 8036 76ba 5a5f b0bc 6fbb 86bc
000000e0: 7494 683c 6881 133c fa09 123d d774 27bc
000000f0: 9e5f 6c3d 940f 97bc 53ba f43c 95f2 16bc
00000100: b462 43bd 6a43 c0bd e4a9 d63a 5122 003d
00000110: c0b5 733d c8e7 51bc 016c b0bd 3531 abbd
00000120: 789a 85bd 0600 28bd c54a 473c acc6 04bc
00000130: 8e41 fbbb 6cd8 783d eebf a4bc 86b8 793c
00000140: eac5 953c 8b44 6abb 76a9 373d ea4f b5bb
00000150: b4b9 3bbc bc68 dc3c 8625 8f3d 41a1 203c
00000160: e67e b4bc de14 913d 03fc 1ebc 3032 c03a
00000170: 0a2c 2f3d 1cc4 a3bd 3b34 a33d e4bb 81bb
00000180: dafd bf3c d8c5 cd3b a252 d9bc 0370 99bd
00000190: 41fd 25bd bc8c acbc 487a 68bc f97f d7bc
000001a0: 5a29 cd3c da41 e53c c7bd 003e 3e12 a4bc
000001b0: 8685 633d 94cc bc3c daf7 8cbd 07ed 0f3d
000001c0: 25a0 7e3d 4158 633c 9817 113b 872f a73c
000001d0: f299 d0bc 1c2e 823d f315 85bd 1b91 d93c
000001e0: 7884 a2bd 60e7 f33b 636c 57bd 4e34 8e3c
000001f0: f1e0 a3bd 72ff 463d 75df 01bd b890 2bbd
00000200: 922c fb3c 8e36 95bd 74a6 7e3b 74e0 9cbc
00000210: 48b2 403d e07f 50bd 85bb c8bc 04eb 24bd
00000220: 6311 a33c 0e0d 30bd 1a3b 96bd e8b5 843c
00000230: 4208 ce3d 87ed 52bc 7374 663c 49f3 25bd
00000240: 998f 49bc 7fc9 463d 6c0f 78bd bc7f f73c
00000250: 2120 c53b 3077 503d be9b 2c3d 8148 90bd
00000260: 0d7c 563d f478 42bb 0a12 80bd e0fb 093a
00000270: 17ee cd3d 23ad 83bb 3006 8a39 2328 7dbd
00000280: d888 523d d2df df3c 64be 20bd adb7 29bd
00000290: 4091 213a 3101 733d 2cc6 1ebc 5c64 6e3b
000002a0: 7c65 a3bb 7dc6 0f3d 5eb3 04bc a3a1 1a3d
000002b0: 40c8 21bb 47f1 ddbb 28bf 60bd b05f ea3c
000002c0: 24a1 353c c7b8 5ebd 0cee de3a 47a2 c43c
000002d0: 0270 9ebd 4371 51bc f130 613d 1b91 c1bd
000002e0: 8c2e 5e3c cb23 0ebd ce0e 2dbc 45a9 93bc
000002f0: 4f54 583c 5194 3cbd 54e0 a03d 2d7b 713d
00000300: 0ec0 923c f1a9 f3bc 8e30 0ebc 5918 eebc
00000310: 1dbd 863d 011d 8a3d 148c 36bb e13f 97bd
00000320: 22e6 ecbc 5bed bc3d 2458 26bd 9cc1 17bd
00000330: b40e db3b e0a8 3e3a 1caa 1d3d b836 9ebd
00000340: 527b bf3b fd4a 02bd 97ba 25bd a1dd 473d
00000350: 8eda 003d d575 abbc 00fa c2bc 22b1 983d
00000360: 4b07 253d 2b62 b43d ea6c a9bd 44f1 b43c
00000370: 1f9d 513c b7da 60bd d0aa c73c ca0d bebc
00000380: b893 4ebb 25a0 bfbd c6c3 c6bc 883f 0c3d
00000390: 5c3a 0fbc da91 29bc 9b4a 0cbb 944e 5fbd
000003a0: 4b62 5b3d bab1 703c f203 9c3c 602e aebc
000003b0: e41c 68bb 7889 80bd 2c0f dcbb 23e6 28bd
000003c0: 56ea 113d e5d5 5ebd 40b1 49bd 55d6 923d
000003d0: 701e 18bd 32ac 2ebc e916 ef3b 16d9 113d
000003e0: 26d1 b0bd 5316 d8ba e044 f9bc 8955 acbc
000003f0: ca32 113d 399e 8bbc fea5 09bc b65e 15bb
0.025827363 -0.050710063 -0.011314843 -0.054468073 0.010764224 0.029368635 0.029339597 -0.020122137
-0.036811147 0.011043023 0.12378797 -0.002835751 -0.051343296 -0.020133298 0.032520298 0.020815887
-0.006573144 0.05144662 -0.0057700966 0.030816117 0.06464612 0.0021175842 -0.02033928 0.032290317
-0.01864075 0.066950314 0.056164123 -0.012335584 0.017937455 0.025501527 -0.0296443 0.05215583
-0.0855162 0.025942741 -0.036093295 0.0037166774 -0.016606983 0.01684736 -0.04871808 -0.011423612
0.0092078 -0.09960311 -0.04614879 0.0040123444 -0.0053431476 -0.022263465 -0.038716815 0.015283155
-0.04503962 -0.03940812 0.069539376 0.05502034 -0.058414683 -0.00093922764 -0.021529842 -0.016446797
0.01419555 0.009003021 0.035654046 -0.010220728 0.057708375 -0.018440045 0.029874003 -0.0092131095
-0.047701553 -0.09387858 0.0016377536 0.031282727 0.059499502 -0.012811609 -0.0861435 -0.08358995
-0.06523603 -0.041015647 0.012163823 -0.008104008 -0.007667727 0.06075327 -0.02011105 0.015241748
0.01828285 -0.0035746421 0.044839345 -0.005533208 -0.011457849 0.02690541 0.06989579 0.009804071
-0.022033166 0.07084058 -0.009703639 0.0014663395 0.04276661 -0.07996389 0.079689465 -0.003959166
0.023436476 0.0062796883 -0.02652866 -0.07492068 -0.040524725 -0.021063201 -0.01418931 -0.02630614
0.025044132 0.027985502 0.12572394 -0.02002823 0.05554726 0.02304677 -0.068832114 0.035138156
0.062164444 0.013876022 0.0022139307 0.020408405 -0.025464032 0.06356451 -0.06498327 0.02655845
-0.07935423 0.0074433535 -0.0525936 0.017358925 -0.080018885 0.048583455 -0.031707246 -0.04188606
0.030660901 -0.07285796 0.0038856538 -0.019149996 0.047045022 -0.0509032 -0.024503479 -0.04026319
0.019905752 -0.0429812 -0.073354915 0.01620002 0.10060169 -0.012874014 0.01406585 -0.040515218
-0.012302303 0.048532005 -0.060561582 0.030212276 0.006015793 0.050894916 0.042140715 -0.07045079
0.052364398 -0.0029674144 -0.06253441 0.00052636676 0.10055178 -0.0040184422 0.0002632602 -0.061805855
0.051400036 0.027328406 -0.03924407 -0.041434933 0.00061633065 0.059327308 -0.009690803 0.0036375737
-0.004986463 0.035101403 -0.008099405 0.037751805 -0.0024686009 -0.0067731473 -0.0548698 0.02861008
0.011085782 -0.054375436 0.0017008199 0.024003161 -0.077362075 -0.012783351 0.054978315 -0.09451505
0.013560902 -0.034702104 -0.010562612 -0.01802505 0.0132036945 -0.046039883 0.07855287 0.05895536
0.017913844 -0.02974412 -0.0086785685 -0.029064344 0.06579039 0.06743813 -0.002785449 -0.07385231
-0.02891833 0.092249595 -0.0406114 -0.037049875 0.0066851024 0.0007273089 0.038492307 -0.077252805
0.0058435583 -0.031809796 -0.04046115 0.048795346 0.03145843 -0.02093021 -0.02380085 0.074556604
0.04029016 0.088077866 -0.08272727 0.0220877 0.012793808 -0.054896083 0.024373442 -0.023199935
-0.0031521153 -0.09356717 -0.024263274 0.034240276 -0.008741941 -0.010349715 -0.0021406773 -0.054518297
0.053560536 0.014690811 0.01904485 -0.021262348 -0.003541761 -0.0627622 -0.006715676 -0.0412351
0.03562387 -0.054403204 -0.049241304 0.07169787 -0.037138402 -0.010661172 0.0072964323 0.03560742
-0.08633642 -0.0016486145 -0.03042835 -0.02103688 0.035448827 -0.01704322 -0.008401392 -0.0022792048

std.constant5 f4 [128, 128]
00000000: 83fa b7bb c528 86bd 9086 0e3d 0240 bb3c
00000010: 37b7 993c 9e7b 823d 8598 a53d 1868 463d
00000020: c087 eebc 5e81 bcbc 90a4 d1bb 260e e43c
00000030: 8b66 8d3d ee0c 273c c1f4 1e3c 642d 4c3d
00000040: 9054 17bd 7570 cdbd 3ba6 9abd 689a 783d
00000050: ea4f 7a3c f2e2 43bd 1a20 00bd 5625 08bd
00000060: b75d 1d3d cc13 9fbb f2a8 8d3c 4825 45bd
00000070: 207c 6c3d c4d5 8d3c 1445 3f3d 9dbd 0ebc
00000080: 5130 4b3c 377f b0bd 5a43 56bd ba2d 733d
00000090: 6332 30bd eaee e93c 6e34 07bd 6239 5fbd
000000a0: 350b dbbc d2de 12bd 845d 3e3b 217b 75bd
000000b0: d83a c73c 4547 193d c6a1 7cbc 1f89 5b3c
000000c0: c393 96bd bc68 7e3d b63c ae3d 2d82 73bc
000000d0: 0b24 143d ec3e 613c ca31 443d 1e21 a23c
000000e0: b560 b73c 73ca 14bc e6bd 88bd 0426 8dbc
000000f0: dea0 013d 1f6a 2dbd 7e6c a33d c941 4e3c
00000100: 05c9 253d b6ba 27bd de1e c33c d28e 923c
00000110: 725d 2cbd be08 d83b c1fe f33c 4249 bcbc
00000120: a54a 9a3b a402 6bbd 498e d33b 0693 133c
00000130: 0292 213c 524b 31bc 349f a63c b824 49bc
00000140: 749e 8cbc 47e1 89bc 5ee5 1d3c 8bc9 983c
00000150: aaf8 9abd 22be 973b 41cd 0cbd 418e 61bd
00000160: 63c0 463c 84a3 5cba 50a1 bbbc 48f8 69bd
00000170: 491f b1bc 2b7e 173c 24ac 10bd f442 af3d
00000180: 7800 9b3c f0ed b8bb b46f dd3c b0d2 dcba
00000190: be22 8bbc 4723 7d3c 6449 b4bd 2a1d 8f3d
000001a0: 6667 12bc ba14 c0bc 34a0 bcbd da0d 073d
000001b0: b00d 6d3d aaf2 2dbc 2e84 903d 861a 863c
000001c0: f016 3a3a 2a70 53bd ffec a53d 30b2 7dbd
000001d0: 3bb0 75bc f19a 38bc 6964 103d 5b15 863d
000001e0: 68fe d63d b65f 2bbd 7eae 223b f824 37bc
000001f0: 220d b83c dab3 28bc 1148 12bd c88f 773d
00000200: 861d 31bd 0515 9c3c d032 a83c e3de 78bd
00000210: 85e5 0c3c a0f4 05bc 74d7 76bd 92b4 933c
00000220: 7f2d 4cbc 88bb ea3c 21ac 6a3d 1ad4 543c
00000230: bc23 4abd ee36 22bd a5e5 c5bc 151f 38bc
00000240: c542 a1bb 78a4 83bc 2120 21bd 3d21 89bd
00000250: f3d8 40bd 6bb3 ffbc da25 e4bc 7246 06bc
00000260: ffe8 d7bd 8a71 533b 1240 c3bc 9757 9b3c
00000270: 01f9 1abd e1d8 a33c f4e0 1fbd 949b 3bbd
00000280: ef04 71bc 8eb2 843d 7083 223d 79e6 e9bc
00000290: 5dc6 99bc e36d a23d 107b da3d f5dd 283d
000002a0: 661e 5f3d 8dbd 5e3d e0af f63d 9294 503d
000002b0: 604f 05bd 974b 3dbd 146d 673c 6330 453d
000002c0: d9e7 f93d 4a45 7ebd e307 1bbd 6f1b b7bc
000002d0: 96f3 dcbc 3248 5abd 6c3c 8bba eb5f 7ebd
000002e0: 324e 033d 57bd 28bd aaa1 373d c53f c5bc
000002f0: 473b 6abd 1873 bc3c 586d e73c f86e 2bbd
00000300: 381d 583d daa2 bfbb a907 833c 6a41 fcbb
00000310: e74b c7bd 5433 e3bc 87c9 783d 9811 133d
00000320: 37ae ccbc 1be8 24bd 75c3 18bd db4f 0b3e
00000330: 3f61 0dbd 9808 a33d ee62 f3bc bd94 28bd
00000340: 15b3 45bd bca6 a23d a8f0 f23c 398a fabd
00000350: 388e e1bc 84e6 6cbd 58c9 dab9 19e5 47bd
00000360: 59fd bdbc fcb9 a83d d4cd 8b3d 7622 a3bc
00000370: d076 853d 1039 df3b 5c3f 883b edce 60bd
00000380: 6a88 5b3b f6d3 16bd d168 f9bc 107e e43c
00000390: 5a29 873c dfa7 f7bc 3e55 623d 9755 17bd
000003a0: 213e 3c3d f299 fcbc e040 5bbc b08e 31bd
000003b0: ee1c 1c3d 7044 9a3c 0461 eebd f6aa a23c
000003c0: d4ce 373c b014 06bd c5d7 d0bd 58ab 96ba
000003d0: 914a f9bc 462a af3c c352 333d 5386 a83c
000003e0: 00fc f1ba f33e d33d 6f5f a53c ed1f 4d3d
000003f0: 77c3 74bd 7d84 4abc 8251 a5bc 4043 143d
-0.00561458 -0.06550745 0.034796298 0.02285767 0.018764121 0.06371234 0.080857314 0.048439115
-0.029117465 -0.023010906 -0.006397791 0.027838778 0.06904324 0.010195954 0.009701909 0.049847975
-0.03694588 -0.10031215 -0.07551237 0.06069413 0.015277842 -0.047823854 -0.031280614 -0.03323873
0.03841945 -0.004854655 0.017292473 -0.048131257 0.057735562 0.017313845 0.046696737 -0.0087121995
0.012401656 -0.08618014 -0.052310325 0.05936978 -0.043016803 0.028556306 -0.033008985 -0.054498084
-0.026738742 -0.03585703 0.002904744 -0.059931878 0.024320051 0.037421484 -0.015419429 0.013399391
-0.07352402 0.0621116 0.085076734 -0.014862579 0.036167186 0.013747912 0.047899045 0.019791182
0.02238498 -0.009081471 -0.06676845 -0.017230041 0.031647556 -0.042337533 0.079796776 0.012588927
0.04047491 -0.040949546 0.02381843 0.017890368 -0.042081304 0.006592839 0.029784562 -0.02298415
0.0047086054 -0.057375565 0.0064561707 0.009007221 0.009861471 -0.01082118 0.020339586 -0.012276821
-0.0171654 -0.016831053 0.009637205 0.01865079 -0.0756696 0.00463082 -0.034375433 -0.055067305
0.0121308295 -0.00084167 -0.022904068 -0.057121545 -0.021621363 0.009246389 -0.035320416 0.08557692
0.018921122 -0.0056435987 0.027030803 -0.0016847458 -0.01698434 0.015450305 -0.08803061 0.069879845
-0.008935785 -0.023447383 -0.09210244 0.032972194 0.05787438 -0.010616938 0.07056461 0.01637007
0.0007098755 -0.05162064 0.08101844 -0.06193751 -0.01499563 -0.01126741 0.03525201 0.06547042
0.10497743 -0.041839324 0.0024823244 -0.011178248 0.0224672 -0.010296786 -0.03571326 0.060439855
-0.043241046 0.019052992 0.020532042 -0.060759436 0.008599644 -0.008175999 -0.060264066 0.018030439
-0.012462019 0.028653875 0.05729306 0.012990022 -0.049350485 -0.039603166 -0.024157355 -0.011237879
-0.0049212896 -0.016069636 -0.03933728 -0.06695793 -0.0470819 -0.031213483 -0.02785008 -0.008195506
-0.10542487 0.003226372 -0.023834262 0.018962665 -0.037835125 0.020000877 -0.03903289 -0.045802668
-0.014710649 0.06479369 0.03967613 -0.02855228 -0.018771345 0.079311155 0.106680036 0.0412273
0.05447235 0.05437999 0.12045264 0.050922938 -0.0325464 -0.046214666 0.014125127 0.04814185
0.122024246 -0.062077798 -0.03784932 -0.022351949 -0.02697162 -0.053291507 -0.0010622866 -0.062103193
0.032056995 -0.041196194 0.04483191 -0.02407826 -0.057185438 0.0230041 0.028250381 -0.041853875
0.05276224 -0.005848271 0.015994864 -0.0076982277 -0.09731274 -0.027734436 0.060739066 0.03590545
-0.024985416 -0.040260416 -0.037295777 0.13604681 -0.03451657 0.079606235 -0.02971026 -0.041157473
-0.04826649 0.07941958 0.02965577 -0.12233395 -0.027533635 -0.057837024 -0.00041730213 -0.04880247
-0.023192095 0.08238599 0.06826368 -0.019913893 0.06516802 0.0068122223 0.0041579437 -0.05488484
0.0033498057 -0.036823235 -0.030445488 0.027892143 0.01649921 -0.030231414 0.055257075 -0.03694686
0.04595769 -0.030835126 -0.013382167 -0.043348968 0.038113527 0.018831462 -0.11639598 0.019856911
0.011218745 -0.032734573 -0.10197405 -0.0011495156 -0.030431064 0.021382462 0.0437801 0.020571863
-0.0018461943 0.10314741 0.020187108 0.050079275 -0.059756722 -0.012360689 -0.020180468 0.036196947

std.constant6 f4 [128, 128]
00000000: 00d6 5ebc 0f01 323d 79e4 8abc aac0 753c
00000010: 0082 edb8 4a43 7cbd ac5f 1abd d76e f63d
00000020: 7166 b0bd 556a 7cbd 742a 25bd f697 42bd
00000030: 90c2 da3c 8049 deb8 e837 433c 7030 51bb
00000040: e856 33bd ae9c eebc 70a8 70bb 2466 583c
00000050: 77d4 44bd 1065 79bc 4a98 1bbd 1112 b4bc
00000060: b3a2 a43c 4193 54bd e1d8 303d 3aed fdbc
00000070: 4078 663a 2019 813d 0f13 0c3d 6419 0bbc
00000080: a8ef d13d ce15 f8bb 4ad1 253d 8ff9 80bd
00000090: f6bc c4bd 08e0 0a3d a2d2 f4bc 1cb1 05ba
000000a0: de99 8abd 6aec 2e3c 6d26 423d 472b 51bd
000000b0: a4e6 ae3b 4247 82bd 2144 463d eeb1 fd3c
000000c0: eaa3 b3bb bdf0 d3bd c0d0 1ebd c5b1 21bc
000000d0: 9851 cabc 5658 b13c a73f 63bb 0070 a53d
000000e0: 87fb 92bc b196 03bd bfb2 eabc f179 4b3d
000000f0: 8f0b 203d 6f15 583d c1c5 093c c780 04bd
00000100: 19e3 e03c 21c4 51bd 496c 0abd f36a 1c3d
00000110: 535c a9bc ceff 993c 1c60 983c 442e 963b
00000120: 1e50 2d3c ac18 91bc 8629 65bd 483a 4a3d
00000130: 4ca2 32bc af7e e33c f8ec 79bc f28a 05bd
00000140: 4df6 87bc 3670 36bd 9d52 fc3c fb3b 2b3d
00000150: 170c 403d c2dd 803b 8274 df3c eccf d33d
00000160: 549a 703c fcc8 7b3b d0e7 65bd 2e39 68bd
00000170: 00e7 4f3c 4670 723d 5855 4c3c 933a 293d
00000180: 5859 8abc 6d9c 4a3d 0628 c2bb 888c a5bc
00000190: 3ec2 b53c 682d 8cbc b921 7dbd 849b f5bc
000001a0: 04ed 4b3d 4766 4d3c f756 413c 8ede 453c
000001b0: 4ab1 b33c ece8 983c f3b1 5bbc 32c3 c83c
000001c0: 3040 213c 07c0 b93c 46d2 d73c 25a4 15bc
000001d0: 02ce 533d 5425 01bb fe89 8ebd b656 b93c
000001e0: a8e6 34bd f6e3 e1bc 6eaf b23c 473e 04bd
000001f0: ee66 f2bc a995 20bc 3772 59bd c85e 02bc
00000200: 92cd 04bd 00c7 273d e3e0 81bc 4ec6 a63d
00000210: ccef 2a3d c1a5 52bd 7b0d 36bd d5a8 18bd
00000220: f5b9 54bd 47f6 013d e055 993d c05d 40bd
00000230: f676 0bbd 926a 75bd a089 3d3c e32d 7c3c
00000240: 6a58 d7bd c108 cc3c 9faa 1e3d ad54 20bd
00000250: 2313 7cbc 5e8b a23c 375c b1bd 51b2 a03d
00000260: f7d9 41bc 294e 3dbd c6e1 bdbc 375c 253e
00000270: 8391 fa3b 1cd8 afbc 5846 f8bc e9ad 6fbc
00000280: 4a95 af3c 3114 4bb9 9901 c23c 620a 593d
00000290: 52ea c3bb 2ad5 8dbc 347c 66bc e27d 6dbd
000002a0: e012 ecbc dcb7 05bc 143c 4c3c 99c0 bb3d
000002b0: 07bb 743c 4f24 1e3d 2b12 a3bd a060 933c
000002c0: cd03 e73c 52ec 52bd f208 50bd 7c74 1dbd
000002d0: 4a3b 7ebb 761f 2b3d 0134 8b3c d0ed 863d
000002e0: b502 4f3c 11f3 823d 2c57 a6bc b551 2b3c
000002f0: 2dc6 a13c ec6f 203c d044 0e3d 5ee7 1f3b
00000300: e500 0b3d 17ea bdbc 4739 b3bc 12df 42bb
00000310: b6db 9bbd a1f8 b43c 5637 49bd f27f e5bc
00000320: 9bee 8c3c bd82 a4bc 084d b5bc d874 353d
00000330: 6f50 903d cb7c 653c 77a8 3abc 2c3c 94bc
00000340: d9c8 a2bd 5d4e 603b b858 24bd df3d efbb
00000350: 91b5 1cbd 18ee ecbd cfa3 893b f31b a63c
00000360: a21f 73bd 390c bfbd 8d65 30bd 0886 813d
00000370: 6eca 863c dd2b 013d 705a c93c ca8c 46bc
00000380: 0a9f bf3d 990e 09bd ab82 853d 45cd 1bbd
00000390: 5827 8f3c b587 7dbd 1510 17bd 90c9 b73c
000003a0: 6a7d 39bb 4a4b 253d e4b5 713d b4b0 6fbd
000003b0: 989b 8a3c a82f 42bc 0769 233d d7f9 733d
000003c0: 9e15 463d 56a4 b5bd 9b1a 273d 050d ebbc
000003d0: 1efd c03b 10f3 0abe 9dac a83c be92 5f3d
000003e0: a1df a83c 3342 d4bc d817 f5bc 81d2 903c
000003f0: 08b3 f3bc e592 1f3c 915c 0c3d 8d4a b8bd
-0.013600826 0.04345804 -0.016954647 0.014999548 -0.00011325255 -0.06158761 -0.037688896 0.1203286
-0.08613289 -0.061624844 -0.04032369 -0.047508202 0.026704103 -0.00010599475 0.011915185 -0.003191974
-0.043784052 -0.029127445 -0.003672149 0.013207946 -0.048054185 -0.015221849 -0.03798703 -0.021981271
0.020097112 -0.051898245 0.04317558 -0.030996908 0.00087917224 0.0630362 0.034197863 -0.00848994
0.10250789 -0.0075709587 0.040482797 -0.062975995 -0.09606354 0.03390506 -0.029885594 -0.0005099939
-0.06767629 0.010676483 0.047399927 -0.051066663 0.005337553 -0.063612476 0.048404817 0.030968633
-0.0054821866 -0.103486516 -0.0387733 -0.009869044 -0.02469711 0.021648567 -0.003467539 0.08078003
-0.017942203 -0.032126132 -0.028649686 0.04967684 0.039073523 0.052754816 0.008408965 -0.032349374
0.027452039 -0.051212434 -0.033794675 0.038187932 -0.020673906 0.018798735 0.018600516 0.004583152
0.010578183 -0.01771196 -0.055947803 0.049371988 -0.010902952 0.027770368 -0.015254252 -0.03260321
-0.016596938 -0.044540606 0.030801112 0.04180525 0.04688653 0.0039326856 0.027277235 0.10342392
0.014685232 0.0038419357 -0.056129277 -0.056695156 0.012689352 0.059189104 0.012471519 0.041315626
-0.016888306 0.049465586 -0.0059251813 -0.020208612 0.022187348 -0.017111495 -0.06179974 -0.029981382
0.049786583 0.012536592 0.011800519 0.012076987 0.021935124 0.018665753 -0.013409126 0.024507139
0.009841964 0.022674574 0.026345383 -0.009133373 0.051710136 -0.0019706087 -0.06959914 0.022624355
-0.044165283 -0.02757452 0.021812167 -0.032285955 -0.029590096 -0.009801307 -0.05308744 -0.007957168
-0.03242261 0.040961266 -0.015854305 0.08143292 0.041732594 -0.051427606 -0.04444645 -0.037270386
-0.051935155 0.03172901 0.074870825 -0.046964407 -0.034048997 -0.059916086 0.011568457 0.0153918
-0.105149105 0.024906518 0.038736936 -0.039143253 -0.015385422 0.019841846 -0.08660167 0.07846511
-0.011831752 -0.046217117 -0.023178946 0.16148458 0.007646741 -0.021465354 -0.03030698 -0.014628866
0.021433491 -0.0001936711 0.023682402 0.052988417 -0.005978861 -0.017313559 -0.014067698 -0.05798138
-0.028817594 -0.008161511 0.012465496 0.091675945 0.014937169 0.038608845 -0.0796245 0.01799041
0.028200055 -0.051494904 -0.05078978 -0.038441166 -0.0038792663 0.04177805 0.01699257 0.06588328
0.012634923 0.063940175 -0.020305239 0.010456492 0.019747818 0.009792309 0.034733593 0.002439938
0.0339364 -0.023182912 -0.021877898 -0.002973501 -0.07610266 0.022091212 -0.049125038 -0.02801511
0.01720362 -0.020081872 -0.022131458 0.044300884 0.070465915 0.014006804 -0.011392704 -0.018095098
-0.07948465 0.0034226396 -0.04012367 -0.007301077 -0.038259093 -0.1156885 0.0042004357 0.020277
-0.05935634 -0.09328503 -0.043065596 0.063243926 0.016453948 0.031535972 0.024579257 -0.012118528
0.09356506 -0.033461187 0.065190636 -0.038037557 0.017474815 -0.061897 -0.03688057 0.02243498
-0.0028303512 0.040355004 0.059011355 -0.058518127 0.016919896 -0.011852182 0.039895084 0.059564438
0.04836046 -0.08869235 0.040796857 -0.028692732 0.005889549 -0.13569283 0.02059012 0.054583304
0.020614447 -0.025910472 -0.029918596 0.017678501 -0.029748455 0.009739612 0.034267966 -0.089985944

std.constant7 f4 [128]
00000000: 0c2a 543c 5942 943d dd54 82bc 5205 42bb
00000010: b682 c7bb dbdc e63d a8a9 25bb a7ca 633a
00000020: 966b 6a3d df6f 5b3a cfd6 0b3e c398 7abc
00000030: 7d20 46bb a375 a63c 5c6f fdbb 8466 e3bb
00000040: 8540 bf3c b7fa 913c 124d 183c 3173 503d
00000050: d2e6 9a3b b46f 33bc 5bf1 a5bb eb08 d63c
00000060: 4980 c3bb 0923 b0bb a977 823b fd12 1fbc
00000070: f68e 843d 7cdc 6a3d 31d5 7fbb 35cd e63d
00000080: 5c7a f83a fde3 15bc fbb5 96bc 2a10 86bb
00000090: cd15 583d 3868 cb3c 1bd4 393d 2098 adbb
000000a0: f16b f2bb 023a 033c e424 01bb f0f3 adbb
000000b0: 5f50 9bbb d242 8c3c 6d13 0bbc 61b8 643c
000000c0: 98bd 313c 7da4 673a 90b9 ecbb 4196 873d
000000d0: bb79 10bc ca47 3c3b 9934 c03d 9566 d8bb
000000e0: cfc1 d83c 9b9a fbbb 629d 753b 0c1e 70bc
000000f0: cf87 6abc 4e72 a73b b125 d83b d4a6 febb
00000100: 884b b13d 3794 01bc 0102 693b 223c 37bc
00000110: 17a9 6e3b 3714 dd3c a397 f239 2ba4 a53d
00000120: 2b6c a13d c11a e73d 979d 0a3e 4661 083b
00000130: 957e 503c ba61 bcbb 768a 093e 20a6 5bbb
00000140: b2cb 83bb d305 503b ba03 c0ba 0704 dabb
00000150: 7016 15bc 577e 36bb fc30 9bbb b43e 3b3d
00000160: 0143 173b 0efc 98bb a6fa 9c3d 05b4 2a3e
00000170: 5e94 b4ba ae5c f33c 4ee7 283d 20db 813c
00000180: 6e3d 463d 8291 2bbc f016 f43c 6bd6 5d3c
00000190: 6606 11bc 9b5e 5cbb 95c6 81bb c25b 42bc
000001a0: d9c9 d73b fc22 8d3d 9894 ffbb 45c1 843c
000001b0: 3859 ea3d 153f 8b3c 6744 c33c e2d3 5f3b
000001c0: 764a b13d 0cfb b2bb 6493 bf3b 45d5 d23c
000001d0: 4ad9 b43d ed43 4cbc 1f3e 093c b1ff 9f3c
000001e0: 3fbe 423d a2f3 0cbb 66c3 333b a698 ccbb
000001f0: 563b 973c 6225 503c 7d7f 3c3d d446 08bc
0.012949478 0.07239217 -0.015909607 -0.0029605222 -0.00608858 0.112725936 -0.0025278125 0.00086895603
0.05723151 0.0008370857 0.13656162 -0.01529521 -0.0030231767 0.020319765 -0.0077342223 -0.006939711
0.023346195 0.017819745 0.009295719 0.050891105 0.004727223 -0.010951925 -0.005064172 0.0261273
-0.0059662205 -0.0053752703 0.0039815498 -0.009709117 0.0647258 0.057339177 -0.0039036984 0.11269609
0.0018957364 -0.009148595 -0.018397322 -0.0040912824 0.052755166 0.024829969 0.045368295 -0.0052976757
-0.0073981215 0.008009436 -0.0019705826 -0.0053086206 -0.0047398056 0.017121706 -0.008488518 0.013959975
0.010848425 0.00088364613 -0.007224269 0.066204555 -0.008818085 0.0028729313 0.09385032 -0.0066040256
0.026459603 -0.0076783425 0.003747784 -0.014655601 -0.014314606 0.0051100617 0.00659629 -0.0077713523
0.086569846 -0.007908872 0.0035554173 -0.01118377 0.0036416703 0.026987178 0.00046270815 0.08087953
0.078819595 0.112844 0.13536678 0.0020809933 0.012725492 -0.0057489546 0.13431725 -0.0033515766
-0.004022085 0.0031741753 -0.0014649548 -0.006653312 -0.009099588 -0.00278463 -0.004736064 0.045714095
0.002308071 -0.004668719 0.07664995 0.16670235 -0.0013777127 0.029707279 0.041236214 0.015851557
0.048398428 -0.0104717035 0.029796094 0.013539891 -0.008851623 -0.0033625725 -0.0039604404 -0.011862697
0.0065853414 0.06891438 -0.007799696 0.01620544 0.114427984 0.016997853 0.023836328 0.0034153392
0.086567804 -0.005462056 0.0058464278 0.02573646 0.08830507 -0.012467367 0.008376627 0.019531103
0.047544714 -0.002150752 0.00274297 -0.006243783 0.01846091 0.012704225 0.04602002 -0.008317668

std.constant8 f4 [128]
00000000: 4513 6a3b 3adb 51bc c690 6cbc df97 36bb
00000010: 4a78 06bb 100d 38bc 87b7 aa3a 8453 c638
00000020: f269 993b d15b 943a 3c59 103c f09b 4bbc
00000030: ca9e b13a a612 edba 44fd 25bb 9f92 843c
00000040: 638b 733b f600 873b c6f2 4f3b d1ca c1bb
00000050: 96d8 ec39 821b 3dbc 4a83 3339 496d 903b
00000060: 3995 ce3a e556 4b3b 7a8b 55bb d5f5 773c
00000070: 914d 94bb 4705 56bc 0989 bf3a d3d1 8ebb
00000080: 5784 09bb 5690 73bc a573 643c 35c9 93bb
00000090: 7924 e2bb db72 833b 2da7 db3a f698 72bb
000000a0: c02e 043a 5eee 303b 8a94 a7b9 88cd 983b
000000b0: 92f6 53bb 3101 90bb 1a82 36bc 1417 a7bb
000000c0: 837c 00bb c288 1d3c 6bc6 543c 70a0 2cbb
000000d0: 3030 21bc f362 9bbb 402b 1fbc bfde 833b
000000e0: 8692 9b3b bd32 ed3a 174b a8bb f6ee 0a3c
000000f0: 4b4e 8fbc 024a 6abb 14c5 6dbb efd9 383c
00000100: 141e 143c 5b0e 383c 9bcf 38bb 705a 29bc
00000110: 7c22 13bb 146d 8d3b 7ba1 af3a b12e 013c
00000120: 12bb 2fbc 2e6c 483b 68f2 ba3b e5f1 8abb
00000130: de2d b7bb cb87 2a3c de4c 773b ca3d 07bb
00000140: 23eb b6bb e061 dd3b f6d0 8aba 1217 bd3a
00000150: 806c 173c 915b 273b 09b7 fc3b e7b7 49bc
00000160: 6e58 0a3c 48ad 9fbb 039d ad3b 36eb faba
00000170: 9dde 42bc 4262 70bb e664 e73b 8b24 503c
00000180: 3cce 18bc ff2e 3fbc cd08 3c3c cadd 3cb9
00000190: 10a0 c7ba ffc5 1dbc 817a 28bc 3a0c 57bc
000001a0: 0338 603c 9f56 ebbb 7ea9 45bc d66c 533c
000001b0: 3ac3 f33b 9286 d439 726c fdbb 4390 33bb
000001c0: d20e 4d3a 4f39 533a d59c 723b 908e b6ba
000001d0: 1070 2ebc d56e 523c 2c7b a93b dce0 aa3b
000001e0: 6e47 c73b 4b2b 9dbb 572f 0dbc 4033 2bbb
000001f0: 1ef2 f5ba bb6a 143b 315e 29bc f300 4dbc
0.0035717052 -0.012808615 -0.014438814 -0.0027861518 -0.0020518475 -0.011233583 0.0013024666 9.456932e-05
0.004681819 0.0011318867 0.008810338 -0.012427315 0.0013551351 -0.0018087223 -0.002532796 0.016183196
0.0037161938 0.0041199876 0.0031730398 -0.00591407 0.00045174797 -0.011542203 0.00017119679 0.004407559
0.0015761025 0.0031027135 -0.0032584355 0.0151342945 -0.004525848 -0.013062782 0.0014612983 -0.004358509
-0.0020983422 -0.014865955 0.013943587 -0.0045100697 -0.0069013205 0.0040114946 0.0016758196 -0.0037017441
0.00050423667 0.0026997547 -0.00031963392 0.004663173 -0.0032343012 -0.0043946733 -0.011139417 -0.0050991867
-0.0019605465 0.009615125 0.01298676 -0.0026340745 -0.009838149 -0.0047420203 -0.009714901 0.004024356
0.0047476916 0.0018096786 -0.0051359045 0.008479824 -0.017493388 -0.0035749678 -0.0036280798 0.011282428
0.009040374 0.011233891 -0.0028199914 -0.010336503 -0.0022450974 0.0043159816 0.0013399565 0.007884667
-0.010725753 0.0030582058 0.0057051666 -0.004240262 -0.0055901846 0.010408352 0.0037735025 -0.0020636194
-0.0055822297 0.0067560524 -0.001059084 0.0014426431 0.009242177 0.0025536756 0.007712249 -0.012311912
0.008443935 -0.0048729517 0.0052982583 -0.0019143585 -0.011893895 -0.003667966 0.0070615886 0.012704025
-0.009326514 -0.01166892 0.011476708 -0.000180117 -0.0015230197 -0.0096297255 -0.010283113 -0.013125474
0.013685229 -0.007181957 -0.012064336 0.0129043665 0.0074390443 0.00040536054 -0.007733875 -0.002739922
0.0007822338 0.0008057551 0.0037019749 -0.0013927985 -0.010646835 0.012843807 0.005172154 0.0052147936
0.006081513 -0.0047964207 -0.008617244 -0.0026123077 -0.0018764173 0.0022646624 -0.010337398 -0.012512433

std.constant9 f4 [128]
00000000: 0000 803f 0000 803f 0000 803f 0000 803f
00000010: 0000 803f 0000 803f 0000 803f 0000 803f
00000020: 0000 803f 0000 803f 0000 803f 0000 803f
00000030: 0000 803f 0000 803f 0000 803f 0000 803f
00000040: 0000 803f 0000 803f 0000 803f 0000 803f
00000050: 0000 803f 0000 803f 0000 803f 0000 803f
00000060: 0000 803f 0000 803f 0000 803f 0000 803f
00000070: 0000 803f 0000 803f 0000 803f 0000 803f
00000080: 0000 803f 0000 803f 0000 803f 0000 803f
00000090: 0000 803f 0000 803f 0000 803f 0000 803f
000000a0: 0000 803f 0000 803f 0000 803f 0000 803f
000000b0: 0000 803f 0000 803f 0000 803f 0000 803f
000000c0: 0000 803f 0000 803f 0000 803f 0000 803f
000000d0: 0000 803f 0000 803f 0000 803f 0000 803f
000000e0: 0000 803f 0000 803f 0000 803f 0000 803f
000000f0: 0000 803f 0000 803f 0000 803f 0000 803f
00000100: 0000 803f 0000 803f 0000 803f 0000 803f
00000110: 0000 803f 0000 803f 0000 803f 0000 803f
00000120: 0000 803f 0000 803f 0000 803f 0000 803f
00000130: 0000 803f 0000 803f 0000 803f 0000 803f
00000140: 0000 803f 0000 803f 0000 803f 0000 803f
00000150: 0000 803f 0000 803f 0000 803f 0000 803f
00000160: 0000 803f 0000 803f 0000 803f 0000 803f
00000170: 0000 803f 0000 803f 0000 803f 0000 803f
00000180: 0000 803f 0000 803f 0000 803f 0000 803f
00000190: 0000 803f 0000 803f 0000 803f 0000 803f
000001a0: 0000 803f 0000 803f 0000 803f 0000 803f
000001b0: 0000 803f 0000 803f 0000 803f 0000 803f
000001c0: 0000 803f 0000 803f 0000 803f 0000 803f
000001d0: 0000 803f 0000 803f 0000 803f 0000 803f
000001e0: 0000 803f 0000 803f 0000 803f 0000 803f
000001f0: 0000 803f 0000 803f 0000 803f 0000 803f
1.0 1.0 1.0 1.0 1.0 1.0 1.0 1.0
1.0 1.0 1.0 1.0 1.0 1.0 1.0 1.0
1.0 1.0 1.0 1.0 1.0 1.0 1.0 1.0
1.0 1.0 1.0 1.0 1.0 1.0 1.0 1.0
1.0 1.0 1.0 1.0 1.0 1.0 1.0 1.0
1.0 1.0 1.0 1.0 1.0 1.0 1.0 1.0
1.0 1.0 1.0 1.0 1.0 1.0 1.0 1.0
1.0 1.0 1.0 1.0 1.0 1.0 1.0 1.0
1.0 1.0 1.0 1.0 1.0 1.0 1.0 1.0
1.0 1.0 1.0 1.0 1.0 1.0 1.0 1.0
1.0 1.0 1.0 1.0 1.0 1.0 1.0 1.0
1.0 1.0 1.0 1.0 1.0 1.0 1.0 1.0
1.0 1.0 1.0 1.0 1.0 1.0 1.0 1.0
1.0 1.0 1.0 1.0 1.0 1.0 1.0 1.0
1.0 1.0 1.0 1.0 1.0 1.0 1.0 1.0
1.0 1.0 1.0 1.0 1.0 1.0 1.0 1.0

std.constant10 f4 [128]
00000000: abfc 4e3c fb0c 913d 76f0 85bc 7af2 94ba
00000010: 6576 c4bb d4f0 e63d 5243 e5ba 5496 c639
00000020: 6e21 6a3d 64da 553a e03a 0c3e cc3c 77bc
00000030: 6381 70bb 4761 a93c 3344 fdbb b99c debb
00000040: 16eb ba3c 00af 8d3c c395 053c 97e0 4f3d
00000050: 0eaa 613b fa31 34bc 2ed3 a5bb 909e d63c
00000060: 5384 d6bb fbff bbbb 5217 7c3b 857d 1cbc
00000070: 763c 843d 370b 683d 9ae0 47bb b5d1 e83d
00000080: 84c8 ac3a c9fa 15bc 2fa9 94bc 5374 8abb
00000090: a640 573d 0d4c ce3c 1507 453d f41d b5bb
000000a0: 32d8 eebb 2941 053c ba5e 1bbb 9117 b6bb
000000b0: 06b4 a7bb d085 8c3c a503 0cbc 7c11 523c
000000c0: feca 3e3c 9a97 563a 5cac efbb fbba 893d
000000d0: 5289 10bc 153d 443b 1363 c03d 2c76 d7bb
000000e0: 699f dc3c 2f24 03bc 602a 5d3b 4b94 74bc
000000f0: 2800 6ebc dee3 973b 86ed df3b 056c 03bc
00000100: 5f5f b13d 9e53 fcbb 2ea0 583b a724 36bc
00000110: df9c 623b 2378 d73c 4cc7 383a f617 a53d
00000120: cde5 a13d 3c8f e73d d308 0a3e 2c9d 463b
00000130: 857f 513c 78f4 bfbb 48f5 083e 308a 5bbb
00000140: 3435 99bb aea1 563b 4285 c6ba b8af d4bb
00000150: f860 10bc 35b5 0fbb 6489 aabb c2af 3c3d
00000160: 8bb4 323b f70b 90bb cffe 9b3d 5f67 2a3e
00000170: ae71 9cba 67e9 f73c 595b 243d 4834 813c
00000180: cdee 343d 626d 28bc 11e3 f13c 5db8 563c
00000190: bfa9 09bc 194f 47bb baea 89bb d49c 42bc
000001a0: d5fe f33b d23f 903d 012d 06bc ed01 873c
000001b0: 01c0 e83d 6e8d 873c faae b63c dfe4 643b
000001c0: ad05 b03d 9691 a0bb 4060 c53b b47e d63c
000001d0: 419b bc3d 98ce 4abc de58 113c 15b3 a03c
000001e0: f10b 483d dd9f ffba eac5 113b c205 b8bb
000001f0: 7e10 9a3c 4777 4c3c ecc3 3e3d 1d40 0dbc
0.012633483 0.07082554 -0.016350012 -0.0011363768 -0.005995559 0.11276403 -0.0017491376 0.00037877506
0.057160787 0.0008157848 0.13694334 -0.015090179 -0.0036698214 0.020676268 -0.0077290772 -0.006793585
0.022817176 0.01729536 0.008153382 0.050751295 0.0034433636 -0.0109982435 -0.005060575 0.026198655
-0.006546536 -0.0057373024 0.0038466048 -0.009551411 0.064568445 0.05665132 -0.0030498863 0.113681234
0.0013182317 -0.00915403 -0.01814708 -0.0042252927 0.052551888 0.025182748 0.048102457 -0.0055272523
-0.007288956 0.008133211 -0.0023707584 -0.0055570086 -0.005117896 0.01715365 -0.008545791 0.012821551
0.011645077 0.00081860425 -0.007314248 0.06725117 -0.008821802 0.0029943634 0.09393897 -0.0065753665
0.026931481 -0.008004232 0.0033747181 -0.014927934 -0.014526404 0.004635318 0.006833735 -0.008021359
0.08660769 -0.0077003976 0.003305446 -0.011117137 0.0034578366 0.026302403 0.00070487405 0.08061211
0.07905159 0.11306617 0.13479929 0.0030306084 0.012786751 -0.0058580004 0.13374817 -0.0033499114
-0.0046755318 0.0032750177 -0.0015145915 -0.006490674 -0.008812182 -0.0021928076 -0.0052043665 0.046066053
0.0027268257 -0.0043959576 0.0761696 0.16640995 -0.0011935735 0.030262662 0.04012618 0.015772
0.04417305 -0.010279985 0.029527219 0.013105479 -0.008402287 -0.0030412136 -0.00420889 -0.011878211
0.00744615 0.07043423 -0.008189441 0.01648041 0.11364747 0.016546931 0.022300232 0.0034926457
0.085948326 -0.0049001677 0.006023437 0.026183464 0.092093 -0.012378357 0.008871285 0.019616643
0.048839513 -0.0019502599 0.002224321 -0.0056159208 0.018806692 0.01247961 0.046573564 -0.008621243

std.constant11 f4 [128, 9]
00000000: 2587 143e b463 043c 349a 6abd aa78 14bc
00000010: c0e7 5e3d 19fc 433b 4673 85bd 829f de3d
00000020: d15a 09be 1a3e a53d 8b3d f73c ebc8 57bb
00000030: e19a b63d 60e5 b43c bf2c 013e 238a c0bc
00000040: bb53 95bb 2b16 143d d986 a0bd 8676 12bb
00000050: 2355 2e3d 6b9d 38bc d05f 283d de4d a43d
00000060: 35f9 7e3d 95a3 783d 0294 0bbd 8ed0 233e
00000070: 22a7 e8bc 1bd8 0dbd 1627 2cbd deeb 97bd
00000080: 1066 c53d 4cf6 04bd 11fd 2c3d da9f d3bb
00000090: b86a a4bd 9a5d a7bd 8087 d6bd 9b67 8fbd
000000a0: 9c4d c538 c799 a1bd 14fb c5bd f43c 99bd
000000b0: 0673 bc3d ca13 223d 2639 4d3e a6cd 2a3e
000000c0: 7f22 173d 96ce ae3d 3749 bf3d d507 583e
000000d0: 0c9e 943c 3989 b93d 2a14 d63d 1759 a73d
000000e0: 50f7 76bc cbb5 c0bc 0c6e 70bd 5b18 a8bd
000000f0: 91fd b7bd 4998 353b aa7d 85bd fc6c 613d
00000100: 8ca6 c83a dafe 213c 4cea a8bd 0d9a d8bc
00000110: 623c 88bd dba7 583c 7488 bb3d fca8 f7bd
00000120: bf58 853d f814 c93d 7768 243e 42b8 793c
00000130: 82a7 7e3d 996a 3abd 3da3 38bd 669d d63c
00000140: dd20 253d d9ee 323e 699b 813d a19d 033d
00000150: 2b09 a6bb 4da4 3abd 8725 4dbc ccbf d7bd
00000160: 0db1 b3bd 7d05 173d 260a f73d a452 4f3e
00000170: e9a7 6f3e f827 353e 89f7 c23d 4d1f 1d3e
00000180: b38d 573e 7c3b 453e 8672 203d 424d 55bd
00000190: 222c 7e3d 6df7 623d e5e2 bf3c d97e a9bd
000001a0: 9d5a aebd 783c 8ebd 7699 68bc 8b47 dabc
000001b0: 3df3 11bc 7f22 0b3d 0e74 65bd 961f a3bd
000001c0: 772a a9bd b37f 2bbd a284 a63a b2dd 80bd
000001d0: b941 75bd 9a32 343d 37bd bf3b 122b 833d
000001e0: 0efd e23d 5069 a5bd e47d 1abd ba40 ed3c
000001f0: 5458 94bc ee1a dcbd 18ec b6bd ab9b 033d
00000200: 0d87 66bd 57fc b9bd 61aa 28bd 3bf4 e1bb
00000210: a982 953c 9621 b03d b050 28bc 64bb e0bd
00000220: 6f95 ab3c bddb 2d3d b473 af3d d5e8 62bd
00000230: ffcf 18bd 973e 253d fa1b f3bc e957 97ba
00000240: 648e f23d 37ae 7bbb 0613 a2bb cbf0 cc3d
00000250: ab34 943c 7fc1 1ebc 845f e13d fdf4 ac3d
00000260: 9d20 37ba bdc2 083d 310c 953b 336c a2bd
00000270: 7168 91bb b06a 8b3d 3321 b33d d426 1c3d
00000280: bf37 9bbd ca1a 9fbd 4b1d 4c3d f5e1 20bd
00000290: 57c6 e03d 1175 833d f9b4 563d 7081 77bc
000002a0: cf9f bc3d 7097 c3bd 665c 9c3c a64c 163e
000002b0: fd1e ca3d a11e 293e 36e3 a83d 3997 c5bd
000002c0: 4c54 d53d 3527 513d cd63 d63c a8c5 cdbc
000002d0: 4cf3 a03d cfbb d83d 4c17 72bd 1e78 56bd
000002e0: 31ae a2bd d337 66bd ff30 bc3c b04e 7b3d
000002f0: 26fe 523c 59cb 753d 32cf 8dbc a7c4 03bc
00000300: d47a 1cbd 8358 a3bd f84b 47bd a612 213d
00000310: 4af0 533d 4737 94bd aad4 9f3d 2222 b43d
00000320: 853d e0bd 2245 ecbd 3170 063b 99f3 9ebd
00000330: 2364 c9bc 8fa4 a3bd 2fe3 7abd a364 e03d
00000340: 5e83 863d e6e5 b03d 521a ae3d dc7b 4b3d
00000350: b251 1cbd 17ef f23d 8d2b f23d 36cd f8bd
00000360: bb0c fb3b a61f bd3b 9a1c 53bc 0759 9d3d
00000370: 1eaa c13d ecf8 d2bd ea71 8c3d 7555 7fbd
00000380: 05f2 c33d 0dbd 2cbd e512 d0bd f3fa bc3d
00000390: 519b 433c 3c97 b13d fabd 703d 77fb 043d
000003a0: 456b bcbd 721b a93b c9a7 c4bc 05f9 513d
000003b0: 9dda 0d3b 1697 9d3d 697a fe3c a31f 133d
000003c0: 8e66 74bd edb7 73bc e02f c83d 054c 553b
000003d0: 5281 a23d 6f1a b4bd b8d4 073d 2e51 bdbc
000003e0: 7859 6d3d d5ae 9ebd 2039 f8bc fcb2 d23c
000003f0: d374 103d 4140 e13c ffe0 e2bb 7eed 403c
0.14504679 0.008080412 -0.057275966 -0.009061972 0.054420233 0.00299049 -0.06516127 0.108702675
-0.1341355 0.080684856 0.030180713 -0.0032926153 0.089162596 0.02208203 0.12614726 -0.023503369
-0.0045571006 0.036153954 -0.0783822 -0.0022348478 0.04256166 -0.011268 0.041107 0.080226645
0.06224938 0.06070288 -0.034076698 0.15997526 -0.028400008 -0.034629922 -0.042029463 -0.07418035
0.096386075 -0.03246145 0.04223353 -0.006458265 -0.080281675 -0.0817215 -0.10475063 -0.07002183
9.408148e-05 -0.07890659 -0.0966703 -0.07482329 0.092016265 0.039569654 0.20041332 0.16680011
0.036898132 0.08535497 0.093401365 0.21096738 0.018141769 0.09059376 0.10453065 0.081712894
-0.015073612 -0.023524186 -0.0586987 -0.082077704 -0.08983911 0.0027709177 -0.06518109 0.055035576
0.0015308424 0.0098874215 -0.082478136 -0.026440645 -0.06652142 0.013223614 0.09156886 -0.12092778
0.065110676 0.098184526 0.16055475 0.015241684 0.062171467 -0.045511816 -0.04507755 0.0261981
0.040314544 0.17473926 0.0632847 0.03213275 -0.005067011 -0.045566846 -0.012521154 -0.10534629
-0.08774004 0.03687047 0.120624825 0.20246369 0.23403896 0.17691028 0.0951987 0.15343972
0.21050148 0.19260973 0.039171718 -0.052075632 0.062053807 0.055411745 0.023423621 -0.082761474
-0.08513377 -0.06945127 -0.014196744 -0.026645442 -0.00890809 0.033968445 -0.05601888 -0.07965009
-0.08260053 -0.04186983 0.0012704323 -0.06292285 -0.05987713 0.04399357 0.0058514136 0.064046994
0.110834226 -0.080767274 -0.037717715 0.028961528 -0.018108524 -0.10747324 -0.0893175 0.03213088
-0.05628114 -0.09081333 -0.04117811 -0.0068955696 0.01825078 0.08600156 -0.010273144 -0.10973242
0.020945279 0.042445887 0.085669905 -0.055397827 -0.037307736 0.040342893 -0.029676426 -0.0011546585
0.11843565 -0.00384034 -0.0049461154 0.10006865 0.01809152 -0.009689688 0.11004546 0.08445165
-0.0006985756 0.033388842 0.0045485725 -0.079307936 -0.004437499 0.068074584 0.087465666 0.038122967
-0.07578992 -0.077687815 0.049832623 -0.03927799 0.1097533 0.06418813 0.052418683 -0.015106544
0.092101686 -0.09550369 0.019087028 0.14677677 0.09869192 0.1651559 0.08246462 -0.09647984
0.10416469 0.05106278 0.026170636 -0.025118664 0.07858905 0.10582697 -0.05910425 -0.052360646
-0.079433806 -0.056205582 0.022972582 0.06135434 0.0128779765 0.06000838 -0.017310712 -0.008042491
-0.038203076 -0.07975867 -0.048656434 0.039324425 0.05174283 -0.07237106 0.07804234 0.08795573
-0.10949234 -0.115366235 0.0020513649 -0.07761306 -0.024583882 -0.079903714 -0.061251815 0.10956695
0.06568025 0.086376 0.08501114 0.04967867 -0.03816385 0.11862009 0.11824713 -0.12148516
0.0076614297 0.005771595 -0.012885237 0.07682996 0.094562754 -0.10301384 0.06857665 -0.062337358
0.09567646 -0.04217248 -0.10159854 0.09227552 0.011938886 0.08671424 0.058774926 0.032466378
-0.092001475 0.0051607424 -0.024005787 0.051262874 0.0021645196 0.07694833 0.03106423 0.035918843
-0.059668116 -0.014875394 0.097747564 0.0032546532 0.07934822 -0.08794104 0.03316185 -0.023109999
0.057946652 -0.0774819 -0.030300677 0.025720112 0.035267662 0.027496459 -0.0069237943 0.011775373

std.constant12 f4 [128, 9]
00000000: f4f0 5a3e 635f cc3d 8696 03bc cfef abbd
00000010: 2780 093a 9352 d03c bd21 cb3d 1476 393d
00000020: f13a b0bd bf04 35be 1031 443d 21de 3bbd
00000030: a6db 493d 3ddf 3cbd a82d 19bd 2484 e63c
00000040: d158 66bc f265 3f3e d626 92bc 444a 633c
00000050: 1862 7ebd 0bb6 cbbc cc3b edbc 2b7c aa3d
00000060: c692 dcbd d671 813d f6a8 c1bc 9b2a 4abd
00000070: d767 bbbd 0707 adbc a008 b73d 2aa8 38bd
00000080: 3520 c8bd eeee b13c a16b 613d 8c59 9d3d
00000090: b47e aa3c 6e3b c93d 6f49 cbbd ba6c e53c
000000a0: 0ac9 afbd 28bd 19bd 5544 1d3a 9c0f 46bd
000000b0: 07c5 9bbd d089 723e a762 8abd 2f9c 833d
000000c0: a236 a4bd 821a 5dbd 866a 953d 1d03 aabd
000000d0: 2511 053d c538 a9bd 9260 a63d f40c 393d
000000e0: 8b57 21bd 4e04 3fbd 35b5 913d 47f8 973d
000000f0: 2065 acbd 260e 983d 36ac 21bd 82a2 653e
00000100: 395a 6a3d ba34 afbd 8746 bc3d 0b42 1bbd
00000110: 7509 a43d 27a4 293d 6d6f d5bd bf60 83bd
00000120: 54c1 473e 45b2 163d 1197 ef3d ae47 c13c
00000130: a7b3 0abe 1798 32bd 9fb0 83bc 8728 9cbd
00000140: 964f 99bd 4b74 543e 56aa a43d fd52 bcbd
00000150: 8f85 133d 19e2 04bd 2b54 a93d 7bf4 31bd
00000160: 1f86 983d 04ed 42bd 069f 6e3e 2349 d6bc
00000170: 33f1 963d b5ba d7bc f5d4 fa3a 8ba8 b8bb
00000180: 9e8d 2dbc a61e 22bd 5cab 0dbe b256 9f3d
00000190: 0da4 cebb 5dc1 36bd dd7d 8d3d 1c32 7f3d
000001a0: 25b9 c13a 9b0c a4bc b774 0b3d e894 893d
000001b0: c57d d13d 3ac3 603d 345f 21bd a25d 9c3d
000001c0: 5063 b7bc ccd1 223d 9e71 0dbc 299d 073d
000001d0: 28e1 85bd 8070 47be 7abd 14bd f3ec 1e3c
000001e0: b8bb 8dbd 57a7 be3d cbe0 8a3d bd5c e6bc
000001f0: 1249 06bb 2b10 573d 2908 e0bd d2c5 973d
00000200: 5909 c73c 7be8 a5bd 9edc 4abd f869 07bd
00000210: 34b1 703d cc06 d83c 52bd a9bd d33f 253e
00000220: 7228 b0bc 4160 353d 8860 b63b e152 27bd
00000230: b548 0dbd 5913 94bd 2781 6ebd 209f 813d
00000240: da4e 493e 0d3e c8bd b80f b33d 0324 04bc
00000250: b791 c83c 847b ac3d ba28 af3d 6149 b3bb
00000260: dde2 2bbe 0aa4 1ebe 1157 8dbc 0ed1 90bc
00000270: e4b0 383c 91c5 1d3e 2c26 8bbd 5237 c43d
00000280: 98a8 25bd 6c79 2a3e ffaf 4a3e 7985 c63d
00000290: 376a 02bd 2a8a 46bc 3de8 19be 3fab de3c
000002a0: 888c a03d 6489 ea3c 7dd6 6ebd 171e 50be
000002b0: d0c7 a83c c833 ccbd deb0 993c 6611 2dbd
000002c0: e64d e63b 6a4d d0bc c06c 213d 80a6 143c
000002d0: 5eba 153e 26fd d03c 8558 cc3d 3ba5 803d
000002e0: 88c4 c7bc 9d8f c13d 5b9c acbd 8e4a 7fbd
000002f0: 5daf 15be 64ed 843d 698a 113d 1ffc aabb
00000300: 02a9 c33d c410 ca3d d72b 813d 4736 883c
00000310: af86 f03a 365c c4bd 709c 43bd 560e 2b3d
00000320: d378 f8bc 40e7 27bb 987c 833d 1477 c93d
00000330: 00c5 c6bc e09d 85bc e066 783d 374b 403e
00000340: 6b09 9a3b d320 0e3d 1f7b 683c c76b bbbd
00000350: ad71 1a3d 8f7f 96bd 220f 343d 6917 c3bd
00000360: d6c0 ad3b 7387 413c b681 833d 5866 ea3c
00000370: a749 463d 7d6e ccbd cc1c adbd 6760 7abc
00000380: 9520 5f3d d88f 6f3c 059c dc3d 3df7 a0bd
00000390: c5a5 9d3d 4ab3 493d 29d2 58bd 2697 91bc
000003a0: 3ea3 d73d ef44 83bd 6c72 a1bd 23cd ea3c
000003b0: 47d6 3b3d dfd5 69bd 19e8 8c3b 7490 4d3c
000003c0: 9356 b93d 8b67 d7bd 0e46 a73d 5ef8 bfbd
000003d0: 32c1 a1bd a7b3 633c 9864 df3c 1fca 4f3d
000003e0: baa5 9cbc 2f38 663d ab5f efbc 2225 a83d
000003f0: 17e5 58be 14e7 7fbd 2482 9ebc 1204 dd3d
0.21380979 0.09979131 -0.008031493 -0.08395349 0.00052452314 0.02543 0.099185444 0.045278624
-0.08604992 -0.17677592 0.047898352 -0.045866136 0.04928174 -0.046111334 -0.037397057 0.028139181
-0.014059261 0.18691233 -0.017840784 0.013872687 -0.06210527 -0.024867078 -0.028959177 0.083244644
-0.10770182 0.063205406 -0.023640137 -0.049357038 -0.09150665 -0.021121515 0.08937192 -0.04508225
-0.09771768 0.021720376 0.055034284 0.07683095 0.02081237 0.098257884 -0.09926116 0.028005946
-0.08583267 -0.03753391 0.0005999257 -0.04835473 -0.07605939 0.23685384 -0.06757098 0.06426274
-0.08018233 -0.053980358 0.07295708 -0.08301375 0.032487053 -0.08262781 0.08123888 0.04517837
-0.039390128 -0.046634965 0.071146406 0.07420402 -0.084177256 0.074245736 -0.039470874 0.22425273
0.05721495 -0.08554979 0.091931395 -0.03790478 0.08009616 0.041416313 -0.104216434 -0.06414937
0.19507343 0.036791105 0.116987355 0.02359375 -0.13545094 -0.043602075 -0.01607543 -0.076249175
-0.07485883 0.20747487 0.080403015 -0.09195516 0.036016043 -0.032442186 0.08268007 -0.043446045
0.074474566 -0.047589317 0.2330285 -0.026157921 0.07370224 -0.026334146 0.0019136952 -0.0056353263
-0.010592846 -0.03958001 -0.138349 0.07780208 -0.0063061775 -0.044618 0.06908772 0.062303647
0.0014779909 -0.020025542 0.034046855 0.06717855 0.10229067 0.054873683 -0.039397433 0.076350465
-0.022386223 0.03975086 -0.0086330455 0.033108864 -0.06537086 -0.19476509 -0.03631351 0.009700048
-0.0692057 0.09309261 0.06781157 -0.028120393 -0.002049033 0.052505653 -0.109390564 0.07410778
0.02429645 -0.08100983 -0.049526803 -0.033060044 0.058762744 0.026370429 -0.08288063 0.16137628
-0.02150366 0.044281248 0.0055657066 -0.040850524 -0.034493167 -0.07230253 -0.058228638 0.06329179
0.19658986 -0.0977746 0.087432325 -0.0080652265 0.024483545 0.08421996 0.0855269 -0.005471394
-0.1678576 -0.15492263 -0.01725343 -0.01767781 0.011272643 0.15407397 -0.0679439 0.09580864
-0.040443987 0.16647881 0.197937 0.09693427 -0.031839576 -0.012117902 -0.15029998 0.027181266
0.07839304 0.028629966 -0.05831002 -0.20323978 0.02060309 -0.09970814 0.018761095 -0.04225292
0.007028329 -0.025427539 0.039410353 0.0090729 0.14621875 0.025511336 0.09977821 0.06281515
-0.024385706 0.0945122 -0.0842826 -0.06232696 -0.14617677 0.06490591 0.03553239 -0.0052180435
0.0955372 0.09866479 0.0630719 0.016627444 0.0018350686 -0.095879 -0.047756612 0.04176172
-0.030331051 -0.0025620013 0.06420249 0.098371655 -0.024263859 -0.016310632 0.060644984 0.18778692
0.0047008297 0.034699272 0.014189511 -0.09151416 0.037706066 -0.073485486 0.043959744 -0.095259495
0.005302529 0.011812079 0.06421225 0.028613254 0.048410084 -0.099820115 -0.08452758 -0.015281773
0.054474432 0.014621697 0.10771946 -0.07859657 0.07697634 0.04924325 -0.0529348 -0.017772269
0.10529183 -0.064096324 -0.07883152 0.02866227 0.045858648 -0.05708873 0.004300129 0.012546647
0.09049716 -0.10517796 0.08167659 -0.09373544 -0.07898177 0.013897813 0.027269647 0.050729867
-0.019121993 0.056205925 -0.029220423 0.082102075 -0.21181141 -0.062476233 -0.019349165 0.10791792
