AirQualityApp/AirQualityApp.Android/Assets/DanzigLong.tflite (tflite, 810852 bytes, 24 tensors)

std.constant3 f4 [128, 128]
00000000: 1828 af3a c1d6 7abb 2047 813d de03 863c
00000010: 8ffc 17bd e58d 903d 4c69 83bd d812 423c
00000020: 302c 213d 5f4d be3c 08cf 96bb dd3c bd3c
00000030: c6d6 11bc 5f69 403c 6691 dfbc c5c0 6bbd
00000040: 0a25 073b 7d68 c73b 4c71 4cbc d8fe 3abb
00000050: c0ed ee3b a2f3 a53c 1d1e e83b 1a74 3bbd
00000060: f2fd 443c 2675 a23c 63a8 9c3d 0d80 9eba
00000070: 5249 a6bd 6c51 f93b 3a75 173d c96c 2b3c
00000080: f970 383d d038 4a3d d364 9dbc f78d c93c
00000090: bb6c e33c 0546 88bd 4bad be3d 6f41 59bd
000000a0: d1dc 14bd 7bae 44bd 2c79 813d f3b8 aebc
000000b0: 64f5 dbbb a0da 863d f84d 773c 283b 2eba
000000c0: 82a6 513d 4070 c93c 0fe4 853d bf5b 643d
000000d0: 01c9 6fbd 59dc 423c ea7e 8d3d 1625 413d
000000e0: 382d 8bbd 73fd b83c 183e 81bb ed01 4bbd
000000f0: a31c 3abd 1b8e 243c 9020 503b 5a7e e3bb
00000100: 8bfc 90bc c986 2a3c 5682 20bd 619e 07bd
00000110: 3760 86bc 23c6 7fbd bb1d 03bd fe44 763d
00000120: 5575 953d 747c 073c d258 a4bd da5d a3bc
00000130: 9063 8ebc 144e cfbc 687b 40bb 6182 7c3c
00000140: 4432 f63c f25d 6c3d 6256 5e3d a6e9 713c
00000150: d499 d53d 10e7 033d 35b1 c9bc 1568 423d
00000160: 676b 12bc 2f55 38bd 4086 e7bb 22c7 71bd
00000170: e7ed 82bd af13 003d bea0 84bd 05e9 ad3d
00000180: 9fbf 99bc bd96 03bd 7567 d93c 9c16 9b3b
00000190: 087e b03c 5c56 83bc f742 443d 9a8f 96bc
000001a0: 844c 58bd 5502 a4bd 44e1 42bc 49e3 d93c
000001b0: 0891 183d cf17 923c ec72 c8bb 0642 29bd
000001c0: 1c1c dd3b b652 1cbd 76a4 66bd bccd dc3d
000001d0: f673 8bbd 044a bf3c 4a48 04bd 240e 48bc
000001e0: 9221 b4bd b2ea 3c3c fbcd 14bd b08f 61bd
000001f0: c7e6 903d 1c82 31bd e09d ec3c 563f 8b3a
00000200: ec3c 893d 5a9c 9d3c e4d4 133c 51a1 2abd
00000210: c5c5 92bc bee5 5c3c e21b 923d f2f8 ebbc
00000220: bcc0 11bd e46c ee3c 5db0 a73d ca60 51bc
00000230: cecd 30bc 7beb 84bc 57af 753c 637b 0fbc
00000240: bc05 823c d080 f9bc 7887 2a3b d09f 03bd
00000250: a6ad ea3c 66f7 5d3d ef3f 01bd 60a7 81ba
00000260: 1ed5 00bd 7069 823d d619 a5bd 82f0 ebbd
00000270: 82ee 70bb 15fa 4e3d c854 93bc 1bcd 83bd
00000280: d8ff f43c 08bc d6bc 0027 21bd 3716 40bc
00000290: 0291 463d 4943 b3bc 61ec f63c fa36 0fbd
000002a0: 0acf 383d 5554 33bd d324 af3c e7fd 703d
000002b0: 92fd 1ebd 749d 05bd 9ba0 893d 037e 31bd
000002c0: 70e5 643d 3467 03bd f0bd 5d3c 55a0 853b
000002d0: 0c08 f83c b544 ddbc f42a 9dbd eedf 49bd
000002e0: 7dc2 613b c0b3 6f3b 147a ab3c 42f7 22bc
000002f0: 0cbb 9fbc cbe7 84bc 4351 1b3d df93 4f3d
00000300: e655 8bbb 8ed0 debc 4651 56bd f4bb 923c
00000310: e8de e83b 047c 133d dff9 55bd 7e07 ccbc
00000320: 13e0 5c3c ebd5 be3d 4e64 393d f130 eabc
00000330: aff8 673c 561f 0f3d dca1 3ebd d064 15bd
00000340: 795a 643c f414 80bc d2e4 683c 22dc 9fbd
00000350: a1d5 33bd e8ad 5c3d 9eec c63d a0df 6cbb
00000360: 2394 9f3c 5ab3 abbc 97f7 80bd 4258 563b
00000370: e87a 92bd e436 1a3b f174 0d3d 360e 0c3d
00000380: 38bf c43b 38cc e2bc 0657 3cbc 9d33 103c
00000390: 3429 1f3d 3ea8 003d 2651 0ebe 16f7 8ebd
000003a0: 73f0 2fbc c664 ac3d caf9 a83d 5e2a de3c
000003b0: ae46 6bbc 6935 8ebc 4020 bbba 60d4 043b
000003c0: 2a10 83bd 0e47 a43c 3a34 113d 3d16 25bd
000003d0: 442f c03c 7bcd bb3c 6085 25bd 7454 173b
000003e0: 0d9c dabc f2a3 cc3c c70d 353d e263 febc
000003f0: 6d5c 9b3c 82fa 87bc bbdd a6bd ec21 063d
0.0013363389 -0.0038274976 0.06312394 0.016359266 -0.037106093 0.07058314 -0.06416568 0.011845313
0.03934878 0.023230253 -0.0046023168 0.023100311 -0.008901304 0.011743872 -0.027291011 -0.057556886
0.0020621442 0.006085454 -0.012478184 -0.0028533246 0.0072915256 0.020257775 0.007083668 -0.04576502
0.012023436 0.019831251 0.07649305 -0.0012092605 -0.081194535 0.007608583 0.03697703 0.010462948
0.045029614 0.049370587 -0.019213116 0.024603827 0.027761808 -0.0665398 0.09310397 -0.053040918
-0.0363434 -0.04801796 0.0632194 -0.021328425 -0.0067126025 0.06584668 0.015094273 -0.0006646388
0.051184185 0.024589658 0.06537639 0.05575156 -0.0585413 0.011893355 0.069089726 0.04715451
-0.06795734 0.022581792 -0.0039441697 -0.049562383 -0.045437466 0.010043646 0.003175769 -0.0069425525
-0.017698547 0.010408112 -0.039186798 -0.033110026 -0.0164033 -0.062444817 -0.032010775 0.06012439
0.0729777 0.008269418 -0.08024754 -0.019942213 -0.01738146 -0.025305785 -0.002937043 0.015411944
0.030053265 0.05770678 0.0542816 0.014765179 0.10429731 0.03220278 -0.024620632 0.04746254
-0.0089367395 -0.045003112 -0.0070655644 -0.0590278 -0.063930325 0.03126877 -0.06475972 0.084917106
-0.01876813 -0.032126177 0.02653859 0.00473292 0.021544471 -0.01603239 0.047915425 -0.018379021
-0.052807346 -0.08008257 -0.011894528 0.026597636 0.037247688 0.017833618 -0.0061172154 -0.04132273
0.0067477357 -0.038164817 -0.056309186 0.10781428 -0.06809227 0.023350723 -0.032295503 -0.012210403
-0.087954655 0.011530565 -0.03632925 -0.05506867 0.07075267 -0.043336973 0.028883874 0.0010623734
0.06701073 0.019239593 0.009022925 -0.04165775 -0.01791657 0.013482509 0.071342245 -0.02880523
-0.035584196 0.029104657 0.081879355 -0.012779424 -0.010791255 -0.016225567 0.014995418 -0.008757445
0.015871875 -0.03045693 0.0026020687 -0.03213483 0.028647255 0.054191016 -0.031555112 -0.0009891801
-0.031453244 0.06367767 -0.080615684 -0.115204826 -0.0036763255 0.050531466 -0.017984763 -0.06435605
0.029907152 -0.026212707 -0.039343834 -0.011724046 0.048478134 -0.02188267 0.030142011 -0.03496454
0.045119323 -0.043781597 0.021379864 0.05883589 -0.038816042 -0.032620862 0.06720086 -0.043333065
0.05588287 -0.032080844 0.013534054 0.004077951 0.030277275 -0.027010301 -0.07674208 -0.04928582
0.00344482 0.0036575645 0.020932235 -0.009946646 -0.01949837 -0.016223809 0.037919294 0.05067813
-0.0042521833 -0.027199056 -0.052323602 0.017911889 0.0071066506 0.036006942 -0.05224025 -0.024905916
0.013481158 0.09318145 0.045261674 -0.02858779 0.014158412 0.034941994 -0.04654108 -0.036473095
0.013937586 -0.015634991 0.014214711 -0.07805659 -0.043904904 0.053876787 0.097131 -0.0036144033
0.019479817 -0.020959545 -0.06297224 0.0032706414 -0.07152349 0.0023531253 0.034535352 0.03419324
0.0060042404 -0.02768527 -0.011495357 0.008801368 0.038857654 0.03141045 -0.13898143 -0.06980722
-0.01073848 0.084176585 0.082507685 0.027119812 -0.014360113 -0.017359452 -0.0014276579 0.0020268187
-0.063995674 0.020053413 0.035450198 -0.04030441 0.023460038 0.02292513 -0.0404104 0.002309111
-0.026685739 0.024980519 0.044202592 -0.031053487 0.01896497 -0.016598944 -0.081477605 0.032747194

std.constant4 f4 [128, 128]
00000000: 4b3b 51bc 232b 4e3c 01c4 263d e4fd 35bc
00000010: 3bdb 9fbc 0a47 1f3d 7b50 b8bd a43d e1bc
00000020: 5061 69bd ad48 ba3a 5022 173b 24eb d43b
00000030: bfc2 e5bc 7755 39bd 39ff 8c3d 496b a63b
00000040: b2b1 0abe d12d db3c afac 8b3d e544 debc
00000050: 6e88 4abb 34c0 403d 7d79 49bd 7395 c43d
00000060: db52 383d ac75 ba3d 6a14 5cbc 1cba ee3c
00000070: 86c0 963d 5cdb 7b3d 6876 933c 91dc fd3c
00000080: 37d1 7ebd a7b5 9abd c092 ad3d d287 603d
00000090: e81f 6cbb 149a 9c3c b6aa 2abc fefa 89bc
000000a0: 2788 6b3c c35d 30bd 389d 00bc 3f5b 09bd
000000b0: b470 053d 28d1 bd3d 26fb fabb 4a13 5c3d
000000c0: 98a5 2dbc fa9a 343c 6142 6e3c d883 b9bb
000000d0: 1843 4e3c 445b 8d3b da83 2e3d 87eb 4c3c
000000e0: 1fa5 a83c 4832 a3bc 7148 503d 1a39 6b3d
000000f0: 63a2 93bd 3834 58bc 4428 5e3c d818 5d3d
00000100: 0ad4 afbc 2b0a 72bd f4dc d13b a42f 633b
00000110: 0490 b43c 2614 cbbc 7692 34bd 8359 88bc
00000120: 292b 383d 6044 29bb e060 ce3c f4df 0a3d
00000130: f0bc 553d 80b1 91bd 7f90 35bc d478 163d
00000140: 42fe bf3d 5cd4 edbc bc32 69bb bd3b a6bc
00000150: 7466 383c e3a2 163d ecd0 2d3d 2694 35bd
00000160: 9251 9a3b 88d3 8f3c ff90 703c 427a 8a3d
00000170: ec01 1ebd bc41 22bd 76ca 883d f319 513d
00000180: f713 53bc c7d1 8dbd 115c f2bc ac4f a33c
00000190: 951a a2bc d45a e23b ce74 2a3d 743b 8abd
000001a0: e05b a239 f614 9d3c ea5e c23d d0d8 f6bb
000001b0: be28 c23d 6cd8 af3d d15e a2bc 1b1b 30bd
000001c0: f081 db3c 2512 a23d f88f 7dba 9517 143c
000001d0: a41b 3fbd 0d8f 55bd f9ac f13d 70ed 3c3d
000001e0: e896 103d 606b 3f3d def9 283d 001f 383c
000001f0: e43c 9d3c 844b 5bbc 0e5f 8d3d 807f 103a
00000200: d870 5bbc 0017 bbbc 1213 91bc 87d0 b9bc
00000210: c611 dbbc 5480 1cbd cae9 5f3b d6ca 413c
00000220: d2f4 dcbb 2c11 43bc d79a 133d b78c 89bd
00000230: 485a 343c 5955 b6bc d912 aa3c 82df d8bc
00000240: 2743 8ebd b06d 533d a495 a6bb bc43 42bc
00000250: 5bde 283d 9c1f 23b9 32ad ae3a 2f85 873c
00000260: 6476 dfbc bc2b 5f3a c0db c3bb 005a 5cbd
00000270: 480e c2bd 8072 d33d 12f0 63bd eccd 62bc
00000280: d33f 90bd 212b 233c 59a7 35bd d2b7 a1bb
00000290: 2896 743d fac3 a13b fcc2 883c 12f8 c23c
000002a0: b265 3b3d e6e3 c13c c24c 5bbd 5533 bcbd
000002b0: cbc6 cf3c fc92 2e3d 8cb1 23bb 16db cabc
000002c0: c5d3 1d3c 6a7f 5c3c 0007 70bd f9de 0e3d
000002d0: 5171 58bd b8f1 51bd 6718 9a3c 60fc 3f3b
000002e0: 0bd4 693c bc83 37bd 0e6e a6bd 87fc bf3a
000002f0: 8e95 cb3c 17f3 48bd c818 a73c d1c8 94bc
00000300: 9f41 883d 44d1 84bb 069f 953d b6bb 393d
00000310: 443d 213d bca1 6cbc de0a 88bd 64db 27bd
00000320: 72aa a2bd 5f99 d3bb c796 7f3d b41e b63c
00000330: 31b7 97bc 3276 7f3d 6d66 1bbc b906 7f3d
00000340: 9ea2 413d 431c e6bb f26c d63c dec0 27bd
00000350: 8869 dbb9 ee65 183d 200f e1bc 5ae3 793d
00000360: 9daf 923d b993 34bd a8bf a2bc 10ed d0ba
00000370: 4089 c4ba 8e59 34bd 0248 093c ad59 aa3c
00000380: d6ce 74bc f198 27bd f73d 883d 3e51 1abc
00000390: e8f7 4a3b a0da 8c3c e047 ba39 ca0a c9bb
000003a0: 023e e73c 2253 823c fed9 75bc f0c5 1a3d
000003b0: 9161 eebc 30fe 173c 7674 673d 42b4 293d
000003c0: aa55 753c 8447 073d 068a 4c3d f618 353c
000003d0: 6d25 753d 3aff 9fbc 02a2 85bd 04d4 afbc
000003e0: 05af 21bc dcf1 30bb 4c04 bebd f7c3 873d
000003f0: 5c25 5b3a 1eea 473b 601c 6cbd 6df3 6fbc
-0.012770484 0.012583527 0.040714268 -0.0111078955 -0.019513717 0.038886108 -0.089997254 -0.027495213
-0.05697757 0.0014212333 0.0023061223 0.0064977575 -0.028046964 -0.04524752 0.06884617 0.0050787074
-0.13544348 0.026755245 0.06820046 -0.02713246 -0.0030904072 0.0470583 -0.049188126 0.09598818
0.045000892 0.091044754 -0.0134326015 0.029141478 0.0736094 0.061488494 0.018000796 0.030988963
-0.06221124 -0.07554179 0.08475256 0.05481703 -0.003602976 0.019116439 -0.010416677 -0.016843315
0.014375723 -0.04305817 -0.007849984 -0.033534285 0.032578185 0.09268409 -0.0076593338 0.053729333
-0.010598563 0.011023277 0.014542193 -0.005661469 0.012589239 0.004313858 0.042606212 0.012507326
0.020586548 -0.019921437 0.050850336 0.057427503 -0.07208707 -0.013196044 0.013559405 0.05397877
-0.021463413 -0.05909173 0.0064045135 0.0034665847 0.022041328 -0.024789881 -0.04408499 -0.016644245
0.044963036 -0.0025828108 0.025192678 0.033904985 0.052182138 -0.071139336 -0.011081814 0.036736324
0.09374668 -0.029031925 -0.0035583219 -0.020292157 0.0112548955 0.036776435 0.04243557 -0.04433074
0.004709431 0.01755692 0.014683007 0.067616 -0.03857605 -0.03961347 0.06679241 0.051050138
-0.012883178 -0.069247775 -0.029584916 0.019935451 -0.019788066 0.0069078 0.0416153 -0.06749621
0.000309675 0.019175034 0.0949076 -0.0075331703 0.09480427 0.08586201 -0.019820603 -0.0429946
0.026795357 0.07913617 -0.0009672637 0.0090388255 -0.04665722 -0.052138377 0.1180057 0.046124876
0.035300165 0.04673326 0.041253917 0.01123786 0.019194074 -0.013384704 0.06902896 0.0005512163
-0.013393603 -0.022838116 -0.017709289 -0.022682441 -0.026741873 -0.03820832 0.0034166449 0.011828145
-0.006743052 -0.01190595 0.03603634 -0.06716292 0.011007853 -0.022257494 0.02076094 -0.026473764
-0.06946402 0.051618278 -0.0050837565 -0.011856969 0.04122768 -0.00015556667 0.0013326763 0.016543
-0.027278133 0.0008513292 -0.005977124 -0.05379677 -0.0947538 0.103245735 -0.05564887 -0.013843041
-0.070434235 0.009959013 -0.04434905 -0.004935243 0.059713513 0.0049366923 0.016694538 0.02379993
0.04575128 0.02366824 -0.05354 -0.09189478 0.025363347 0.042620644 -0.0024977652 -0.024762671
0.009633009 0.013458112 -0.058600426 0.034880612 -0.052842442 -0.05125591 0.018810464 0.0029294714
0.014271746 -0.044803366 -0.0812646 0.0014647403 0.024851587 -0.049059954 0.020397559 -0.018162163
0.06653141 -0.0040532667 0.07305722 0.04534503 0.039365068 -0.014442857 -0.06642698 -0.04098071
-0.07942666 -0.0064574922 0.06239965 0.022231437 -0.01851997 0.06236858 -0.009484869 0.06226227
0.047274224 -0.007022412 0.026174996 -0.040955417 -0.00041849562 0.037206583 -0.027473032 0.061007835
0.07162402 -0.04408619 -0.01986678 -0.0015939791 -0.0014994517 -0.04403072 0.008378984 0.020794714
-0.014941892 -0.04091734 0.06652444 -0.009418784 0.0030970518 0.017194092 0.00035530236 -0.0061353194
0.02822781 0.015908781 -0.015005587 0.037786424 -0.029099258 0.009276912 0.05650755 0.041431673
0.014974037 0.033027187 0.049936317 0.011053314 0.059850145 -0.019530881 -0.06525041 -0.021463402
-0.009868388 -0.0026999628 -0.09278163 0.06629174 0.0008359754 0.0030504535 -0.057644248 -0.01464544

std.constant5 f4 [128, 128]
00000000: fa54 0d3b d0dd e0bc c4ae 46bd c012 82bd
00000010: 0f8e 033d 6d73 91bc e355 70bc 966b af3b
00000020: 897f e6bb bfcb c73d 6a70 72bb fca0 c7bc
00000030: 2051 7a3d 20b2 cc3c ce4d 95bd e6fd 34bd
00000040: aba9 a3bc cafb 1ebc 8431 7dbd f67f 79bd
00000050: ff6d 75bc 37b0 0a3e 1461 a9bc b672 903d
00000060: b6eb 70bd 82b6 8a3d f176 37bd a492 42bd
00000070: a8bb 023c b09b 48bd d490 c93d 3dbc 10bd
00000080: a4fc 7dbd 0c6b b5bd 1406 4fbd 424b 10bc
00000090: dcdd 573d 18a9 4d3b 6e2f 3bbc e90a f93c
000000a0: 2ea3 313c 520c 14bd c7f8 9cbc ab97 03bd
000000b0: f024 76bd 3423 a93d 7ef0 28bc 10e8 d03b
000000c0: 01e1 cc3c 4a95 b93b 5512 dbbc 37c9 e8bc
000000d0: 3d8e dfbc e573 453d 4ffc c93c 193a 853b
000000e0: ec52 123d 220c c93c 1321 09bd 0e09 443d
000000f0: b027 80bb 94b4 883d 4b41 51bd e123 013c
00000100: dd66 243d 9623 013d d5af 4bbd 09da f53c
00000110: 91dd a7bd f069 4d3d 8ed1 cc3c 0b4c 5e3d
00000120: 985c 603c 6c9c 05bd 24a2 353d 52f7 9dbc
00000130: 0f3a 863d ca75 bb3d 0e64 6dbd 17ba 24bd
00000140: 51a9 de3b ef12 e93c 26c1 c5bc fa62 b9bc
00000150: c8ce 843a 40c4 18bd ad4a cebb 6c70 543d
00000160: 8805 2a3b e24c ca3c f006 10bd 00e1 8bbc
00000170: 8d3e 983c a6e6 1e3c 16d1 0fbd 1ff2 bdbc
00000180: 92e7 703d 3d3a a3bb 4256 96bc d76b 333d
00000190: ec81 91bc a747 a73d 6034 9fbb 1c4d 14bd
000001a0: ea86 c73b 6973 0e3d b288 babd 6883 a03c
000001b0: 2858 923b 5095 69bd a23a 57bc e291 86bd
000001c0: c47f 403b 767a e03c fec6 5d3c c8a1 b83d
000001d0: 4687 a03b 67f3 b03d 7b26 75bd 2073 8ebc
000001e0: b224 20be 5672 a93a 649e 00bd 4128 c03c
000001f0: 4234 003d deac 89bc ca55 46bc a5b5 2fbd
00000200: 7fec 80bd 42ec 7ebd a8ae a7bc e3b0 713d
00000210: 4af9 eebc f220 fe3c 0020 c93c 387d 54bb
00000220: d5a4 f3bb e069 1c3d 8ea1 cdbd 3e2c b7bc
00000230: fc37 6a3d 6e83 743c f02d 96ba ce74 d5bd
00000240: b8a7 593d 1df7 bcbd 233b 3b3d 5424 adbb
00000250: 0af3 b43d 6c0b 3ebc c8b2 5fbb 1231 9d3d
00000260: 50c4 213d 4cab 1cbd 0a91 2ebc eb15 1dbd
00000270: 3ae2 30bc d943 753d a5ad a43d 9a3a 60bd
00000280: 78b2 943d 34e1 013d f031 5a3d 8871 a0bd
00000290: fc26 93bd b372 afbd aceb a9bb 9857 e13c
000002a0: 35a1 9cbd 0b3f d7bc dc74 88bd a556 1e3d
000002b0: d42a 4b3c 804c c03d 0b50 3ebd 5d2a 803b
000002c0: 167b 72bd 7ab1 59bd e40d e2bc 0077 a03c
000002d0: 6ac7 1cbd 51b2 dc3c 26cd b1bd 17cc ce3c
000002e0: 4c35 55bd 2119 89bc bf23 9b3d a2e0 95bd
000002f0: 19dd 15bc 3ea4 42bd 19b0 d4bc 82e5 2c3d
00000300: 901d 8d3b 9c44 de3c 9c10 d13c 9a40 f6bb
00000310: 00a5 333d 756d 9bbd 3c8a 033d a870 1c3c
00000320: 9ca4 ffbc a555 043e 32d0 d83c c817 6c3b
00000330: b631 803d 1430 ed3d 34b5 213c ca04 1a3d
00000340: 0dea 16bd 54c9 10bd e076 f8ba d8a1 063c
00000350: c29c 633c 7200 f03d 44b5 1fbb f3bc e23b
00000360: 7c18 e83c cce5 29bd 06c2 613d eadb 12bd
00000370: fa93 0ebc acd0 62bd 5a0a 573d 5b89 ec3c
00000380: 2681 453c 05ab 423d a8f4 ee3c a000 063c
00000390: 7bb5 463d 8c28 dcbb eebe 173d ce86 1d3d
000003a0: 1075 1e3d d0eb 17ba 0428 513c 2853 243d
000003b0: 86dd adbd 9299 903c 8617 703c 4755 82bc
000003c0: 5f2f 9f3c 5cc0 6abc 496a c5bb ba93 f73c
000003d0: e079 2c3c 0f92 843c 6b97 673d c12a a0bc
000003e0: 33fa 1a3d 70ba d73b b9b2 723d 4192 ffbc
000003f0: 3293 95bb 3daa 62bd b86b 3e3d 269a 653d
0.0021565543 -0.027449518 -0.048506513 -0.063512325 0.0321179 -0.017755235 -0.0146689145 0.0053534014
-0.0070342463 0.09755658 -0.0036993274 -0.024368756 0.061112523 0.02498728 -0.07290231 -0.04418745
-0.019978365 -0.009703586 -0.0618148 -0.06091305 -0.014979838 0.13543783 -0.020676173 0.070531294
-0.05881854 0.06773092 -0.044791166 -0.04750313 0.007979311 -0.0489766 0.09842077 -0.035335768
-0.062008515 -0.08858308 -0.050542906 -0.008807005 0.052701816 0.0031381305 -0.011424882 0.03040071
0.010842128 -0.036144562 -0.019161595 -0.032127064 -0.06009382 0.082586676 -0.010311244 0.0063753203
0.025009634 0.0056635486 -0.02674214 -0.02841626 -0.027289504 0.04820623 0.024656443 0.0040657637
0.03572361 0.024541918 -0.033478808 0.047860198 -0.003910981 0.066750675 -0.05108766 0.007882089
0.04013716 0.031528078 -0.049728233 0.030011194 -0.08196557 0.050149858 0.025002267 0.05427174
0.013693951 -0.03261988 0.044344082 -0.01928297 0.065540425 0.09153326 -0.057956748 -0.04021653
0.0067950864 0.028451411 -0.024139952 -0.022630204 0.0010132426 -0.037296534 -0.006295523 0.051865026
0.0025943238 0.024694864 -0.035162866 -0.017075062 0.018584514 0.009698546 -0.03511151 -0.023186741
0.058814593 -0.004981308 -0.018351678 0.043804016 -0.017762147 0.081679635 -0.0048585385 -0.03620635
0.006089081 0.034778032 -0.09108104 0.01959391 0.0044660755 -0.05702716 -0.013136538 -0.06570794
0.002937303 0.027402144 0.013536213 0.09015232 0.0048989384 0.08640175 -0.05985115 -0.01738888
-0.15638998 0.0012927752 -0.031401053 0.023456695 0.031299837 -0.016806062 -0.012105415 -0.04289784
-0.06295108 -0.06223703 -0.020469025 0.059006583 -0.029171605 0.031021569 0.024551392 -0.003242327
-0.007435421 0.038186908 -0.1004058 -0.022359964 0.057182297 0.014923913 -0.0011457782 -0.10422669
0.053138465 -0.092268206 0.045710694 -0.0052838717 0.088354185 -0.011599403 -0.0034133662 0.07675375
0.03949386 -0.0382493 -0.010654697 -0.03835098 -0.010796124 0.059879158 0.080409326 -0.054743387
0.07260603 0.03170891 0.05327028 -0.07834154 -0.0718517 -0.08566799 -0.005185565 0.027507588
-0.07647935 -0.026275178 -0.06662914 0.03865685 0.012400348 0.09389591 -0.046463054 0.0039113
-0.059199415 -0.05314777 -0.027594514 0.019587994 -0.038276114 0.026940497 -0.08681707 0.025243802
-0.05205278 -0.016735615 0.075751774 -0.07318236 -0.009146952 -0.047519915 -0.025962876 0.042211063
0.0043065026 0.027132325 0.025520615 -0.0075150253 0.043858528 -0.07589237 0.032114252 0.009548344
-0.031206422 0.12923296 0.026466463 0.0036024917 0.062594816 0.11581436 0.009869862 0.037602223
-0.036844302 -0.03534825 -0.0018956326 0.0082172975 0.013892354 0.11718835 -0.0024369517 0.006919497
0.028331988 -0.041478917 0.055116676 -0.035854258 -0.008702273 -0.055374786 0.052500106 0.02887409
0.012054717 0.04752638 0.029169396 0.00817886 0.048512917 -0.0067187008 0.03704732 0.038458638
0.03868586 -0.00057953317 0.012765888 0.040118366 -0.08489518 0.017651353 0.014654046 -0.015909804
0.019431768 -0.014328089 -0.006024633 0.030221809 0.010527104 0.016182927 0.056540888 -0.019551637
0.037836265 0.0065835044 0.059252474 -0.031197669 -0.004564666 -0.055338133 0.046489447 0.05605521

std.constant6 f4 [128, 128]
00000000: a01a a73d 72bd acbc 677f 123d 68c8 ef3b
00000010: 4cc4 263c 769a acbd ffa1 cb3c d86e 773d
00000020: 20d2 c2bc 80a3 d2bb 28ee 5fbc 9e44 4abc
00000030: c6eb 683c 5c9d d2bc 79ff c93c 7855 523c
00000040: 33c7 a63c 5abd 7bbd 07ae 80bd 2c5e 4cbc
00000050: 86f9 06bb 4cda 04bb 6f9c 27bd 40f2 af3c
00000060: eed1 0bbd 687d ab3c 4a76 1d3d 5269 bbbd
00000070: 107c 883d 697c ad3d 08f9 2ebd e6f7 6b3c
00000080: 63a0 c43c 8164 8b3c 472e 903d f3ab bbbd
00000090: 3abe 53bb fe3f 1e3c d183 dabd a7ce c93b
000000a0: 9820 833d 4167 65bd 0cc1 323d f9a9 4d3d
000000b0: d3b2 263d 8b30 60bc c47a 01bd 1788 a1bd
000000c0: 1a59 003d 3449 883d 7ee4 2f3c e210 983c
000000d0: 4d2a 93bd b8b4 a43b 1ae7 283c 780b 5dbc
000000e0: 078e 1d3c 5374 a53c 62a8 0f3c d028 3dbd
000000f0: a0e9 76bd 822e 47bd d072 7d3c 5178 5c3d
00000100: b6b5 2f3d 1ad3 9e3c cd26 373d 5da5 0a3c
00000110: 2d68 f3bc c9c7 4c3d 8ace 1dbd d2de 2b3c
00000120: 0e90 9e3d 3a57 1fbd 5554 4e3c 2a9c 8f3c
00000130: 3f7a c4bd 9254 2abd 2672 81bd 3fb6 f93b
00000140: b82f 913b 9c46 6abd 0989 e6bd 5a1e ae3c
00000150: 308b 5c3b 2fa2 0c3d 00e0 0437 6ea9 6b3d
00000160: c276 fd3c a324 893d 3d0f 3c3d 96e8 d4bc
00000170: 04b9 86bc 226b a83b 0086 363b eaad 193d
00000180: 6879 5fbc 9f58 b7bc e8da d8bb 37d3 28bd
00000190: 6b68 023c 018f 893d 10ec 1a3d e4d0 383d
000001a0: 9ad4 32bd d83d 41bd a9e9 a13c 38bc 99bd
000001b0: 139c ebbc 81b7 83bd b950 b53d 3655 803c
000001c0: 58ea f8bc d357 a33b e211 273d ae9a febc
000001d0: 8983 d33d 25cc 24bd 6aea 7b3d 01b7 dc3c
000001e0: ea78 aa3c d241 62bc 8482 d0bc a95b febc
000001f0: 50a7 7c3c 4380 b63d 13eb 7bbd bb71 db3b
00000200: 22c2 2fbc 00e0 b73a d2b8 953d cc52 63bd
00000210: f279 01bd 274b 003d ff54 24bb 3647 db3a
00000220: 7df2 563d 0e88 61bd 7cc3 30bc 0335 f83b
00000230: 2cc5 7abd ff8c 27bc 90bd df3d 9a1d 80bc
00000240: 0b6d 22bd 90a4 f33c acd0 673d 6859 a4bd
00000250: d15a afbb 2d51 19bd c627 4bbd ebde b2bb
00000260: 6a7a 9b3d b55a 503d a030 a6bc 3c45 38bd
00000270: 33a8 1f3c 0658 973c ebcd 813d c307 73bc
00000280: 3bde 113d c39d fbbb 988f a03c a924 003d
00000290: e51d 21bc 41ac 92ba a3ec 9abd ba6b bebc
000002a0: 6576 0c3d a5cc 623c 959a bcbc 0f2d 1d3d
000002b0: 6158 d53d 6546 343d ed73 30bd 85c7 8c3b
000002c0: 9809 cfbc c21c d8bc f205 dd3a 50bf 293b
000002d0: a493 f63c b8b9 84bc cba2 bdbc 846f a53d
000002e0: eba8 2e3d d26a 383c 5e87 0b3d a47f fa3c
000002f0: 0baa 9c3d 6917 9a3b 567c 423c 2cae 613d
00000300: 0c07 ad3c 9e85 c6bc 80a6 3d3d e881 95bc
00000310: 96cf eabc 0d9e 313d dcb1 ba3d fcd5 843c
00000320: 625e bcbc 485e fc3c a456 72bb 48a2 1dbd
00000330: f8e5 8f3c d072 993b 352a de3c ae82 f6bb
00000340: a180 23bc 518a dc3c 34d6 e83c 9445 c13c
00000350: e37f 89bd 287d 773c c7d7 02bd a0c5 953c
00000360: 4818 70bd bfb8 8d3d b6ae 123d 688b 573c
00000370: 7965 92bc 9603 d73b eede e4bb 2d72 5fbd
00000380: 6e8f 45bd 6695 61bc 39cc 7e3d cfa5 223d
00000390: d73b 42bc 8d74 49bd dca8 bf3c cb23 df3c
000003a0: 9835 35bd a11d 8e3d 9b10 283d ce26 1c3d
000003b0: 46ed f53c 5297 9bbb db53 aabd 5acc bcbc
000003c0: fa5a 9ebc 1888 1ebd 3522 073d 5079 bbbc
000003d0: 0f43 283d 0b61 5c3c 5545 363d a422 19bb
000003e0: dfa6 17bd bbdc 533b 1ad2 bf3c 1434 053a
000003f0: 5cce d83c 5dbf cabc 2eb3 46bd f871 91bc
0.08159375 -0.021086428 0.03576603 0.0073175915 0.010178637 -0.084278986 0.02485752 0.060408443
-0.023781836 -0.006428182 -0.013667621 -0.012345461 0.014216369 -0.0257098 0.024657952 0.01283776
0.020358657 -0.061459877 -0.06283193 -0.012473624 -0.0020595505 -0.0020271717 -0.04092067 0.021477818
-0.03413575 0.020933822 0.038442887 -0.09150948 0.06664288 0.08470995 -0.042717963 0.014402365
0.02400226 0.017015697 0.07040077 -0.09163656 -0.0032309429 0.009658812 -0.10669673 0.006158668
0.06402701 -0.056006674 0.043641135 0.050210927 0.040697884 -0.013683449 -0.03161122 -0.07887285
0.031334974 0.066545874 0.010735629 0.018562738 -0.071858026 0.005026426 0.010309005 -0.013491504
0.0096163815 0.02019707 0.008768173 -0.0461815 -0.060281396 -0.048628338 0.015469268 0.05382568
0.042897902 0.01938777 0.044714738 0.008462277 -0.02971276 0.049995217 -0.03852705 0.010490136
0.0774232 -0.038901545 0.0125933485 0.01753052 -0.09593629 -0.04158456 -0.063206 0.0076206024
0.0044307373 -0.057196245 -0.11256606 0.021254707 0.0033652298 0.034334358 7.919967e-06 0.057534628
0.030940417 0.06696441 0.04591297 -0.025989812 -0.016445644 0.0051397244 0.0027850866 0.037519373
-0.013639785 -0.022381125 -0.0066178925 -0.041217055 0.0079594655 0.06716729 0.037822783 0.04512109
-0.043659784 -0.04717812 0.019764738 -0.07506603 -0.028760945 -0.06431485 0.08853287 0.015665632
-0.030385181 0.0049848347 0.04078854 -0.031079616 0.10327823 -0.04023375 0.06150285 0.026942732
0.02080961 -0.013809638 -0.02545286 -0.031049566 0.01542075 0.08911183 -0.06150348 0.0066969073
-0.010727437 0.0014028549 0.07310642 -0.055498883 -0.031610437 0.03132167 -0.0025075076 0.0016729597
0.05247735 -0.055061392 -0.010788795 0.007574679 -0.061223194 -0.010226487 0.10924828 -0.015639115
-0.039654773 0.029741555 0.05659549 -0.080248654 -0.0053514023 -0.03743093 -0.049598478 -0.005458703
0.07591708 0.050867755 -0.020286858 -0.044987902 0.009744692 0.01847459 0.06338104 -0.0148333935
0.035612326 -0.007678719 0.01959972 0.03128496 -0.009833788 -0.0011190252 -0.07564666 -0.023244727
0.034292597 0.013842736 -0.02302293 0.03837305 0.104172476 0.044012446 -0.043079305 0.0042962455
-0.02527313 -0.0263809 0.0016862734 0.0025901385 0.030099697 -0.016201839 -0.023148915 0.080779105
0.04264156 0.011255937 0.034064643 0.030578442 0.076496206 0.0047024977 0.011870464 0.055097744
0.021121524 -0.024233636 0.046301365 -0.01825042 -0.028663438 0.04336362 0.09115955 0.016215317
-0.022994224 0.030806676 -0.0036977911 -0.03848484 0.017565712 0.004682876 0.027119735 -0.0075229025
-0.009979398 0.026921423 0.028422453 0.023592748 -0.067138456 0.015105523 -0.031944063 0.018282712
-0.058616906 0.06920003 0.03581115 0.013155796 -0.017870652 0.006561707 -0.006984583 -0.054552246
-0.04823249 -0.0137685295 0.06220648 0.03970891 -0.011855087 -0.049183417 0.023395948 0.027238747
-0.044240564 0.06939245 0.04103146 0.038122945 0.030020367 -0.0047482634 -0.083167754 -0.023046661
-0.01933049 -0.038704008 0.032991607 -0.022884995 0.041079577 0.013450871 0.044499714 -0.0023366595
-0.037024375 0.003232761 0.023415614 0.00050813076 0.026465587 -0.024749452 -0.048510723 -0.01775454

std.constant7 f4 [128]
00000000: f48f 883c 6cf6 313d da9b 383c 5421 063d
00000010: 1de5 043d e880 7f3d 9aa5 44bc 5852 703b
00000020: 17fd 813d e8c2 8a3d 2218 a43d 4a87 1f3d
00000030: 6b9a b03d 7447 423c 1c3c 723c 672c 1a3d
00000040: ad84 05bc 542e 343d 093e 0a3d d08c aabb
00000050: ef26 4abc 3611 7b3c f144 533d d315 883d
00000060: 9421 5bbc b6ca 273d 8703 743c 635e 913d
00000070: 8fb6 2a3d 6798 083d 0e89 8c3c a47b e73c
00000080: e171 7ebc 12ff e33d d1d9 253d bf62 11bc
00000090: 9a81 153d 5b42 003d a444 d93d 864d adba
000000a0: cc2c 903c ed8c 693c 3dfa c93d a4ae 86bb
000000b0: 244c ba3c 2e4c b43b 76b4 0a3d bcdd 82bc
000000c0: 9aef 9d3d 3709 1a3c d29c b03b a4b5 bd3d
000000d0: fb66 ce3c a2b6 edbb d57b 943d c41f 843d
000000e0: 7e8c fbbb 2aeb a73c 428c c33d 3098 b33c
000000f0: a29d ee3c 8b18 963d 0ad4 193c 51bb 9ebc
00000100: 0016 533d 4291 e63d 5a1d d23c f625 533d
00000110: cf79 143d 511f 2f3d 7838 083c 6b79 bc3c
00000120: 6156 cc3d 9702 973c 1dd9 94bc 6254 a73d
00000130: 1f2c 5cbc 7b51 f2bb 7af8 b53b 63bc aebb
00000140: e06a 183d f1cf c9bb 06af 3d3a 7fb4 f53b
00000150: d0ce a73d fe23 d03c e5b4 f33d f9ab e53c
00000160: e222 103d 7d84 8b3d 22c8 143d 4bf5 7f3c
00000170: 16f4 213b 5b49 413c 66e5 1a3d 3b00 4a3b
00000180: 0aae 073d b9f8 a53c f00b 643c 24b2 2f3d
00000190: dccc 5f38 9a3c 6dbc 9837 ef3c 2b56 053d
000001a0: 3030 003d 493e 4f3d 6609 17bb 7b05 0a3d
000001b0: 1b7b 23bc 2bf5 7d3c 940f 5f3d acf8 973b
000001c0: cec7 9939 eb05 d93d 3272 f13c d307 fa3c
000001d0: ebb3 533d f920 d83d 1653 fb3c 77b5 163d
000001e0: f943 ee3c c4cc 7d3c b0eb eb3c 1c50 623c
000001f0: 79a1 073d b389 30bc b2f7 e13d af4f 0bbb
0.016670205 0.043447897 0.011267627 0.032746628 0.032445062 0.062378794 -0.012002373 0.0036670174
0.06347101 0.06775457 0.080124155 0.03894738 0.08623203 0.011857856 0.014784839 0.03764
-0.008149308 0.043989494 0.033750568 -0.0052047744 -0.012338384 0.015323928 0.05157942 0.06644788
-0.013374705 0.040964805 0.014893419 0.07098081 0.041678008 0.033348467 0.017155197 0.028257199
-0.015530081 0.11132635 0.04049093 -0.008873641 0.03650055 0.03131328 0.10608795 -0.0013221956
0.017599486 0.014254791 0.09862182 -0.0041101743 0.022741385 0.0055022454 0.033863507 -0.015974872
0.07711716 0.009401611 0.005389788 0.09263161 0.02519559 -0.0072544375 0.072501816 0.06451371
-0.00767666 0.020497877 0.095482364 0.021923155 0.0291279 0.073289 0.009388933 -0.019376429
0.051534653 0.112581745 0.025648762 0.051549874 0.03624898 0.042754475 0.008314244 0.023007115
0.09977413 0.018433852 -0.018169934 0.081703916 -0.013438254 -0.007394967 0.0055533024 -0.005332516
0.0372113 -0.0061588218 0.00072358584 0.0074983235 0.08193743 0.025407787 0.11899737 0.028036105
0.035189517 0.068123795 0.036323674 0.015622447 0.0024712137 0.011797274 0.037816428 0.0030822891
0.03312496 0.020260202 0.013918862 0.042894498 5.3358133e-05 -0.014479781 0.029201314 0.03255288
0.031295955 0.05059651 -0.0023046373 0.033696633 -0.009978081 0.015500347 0.054458216 0.0046377983
0.000293313 0.10596832 0.029473398 0.030521309 0.051685255 0.10553164 0.030679267 0.036794152
0.029085146 0.015490714 0.028798908 0.013813045 0.033112977 -0.010775018 0.11033572 -0.0021257212

std.constant8 f4 [128]
00000000: 0385 c5bb d356 ecbb ada5 523b d44d 2cbb
00000010: dd20 803b af87 2e3c e0d9 8ebc 8868 6e3b
00000020: 1cff 4e3c bbda 363b e62f 99bb ed70 3fbb
00000030: 1bab d6bc fe92 463a 2866 3bbb d1e0 65bc
00000040: 8b8c dd3b 2dcf 963c 7666 343c a97e 173c
00000050: 87fc 933c 3b29 4d3c b317 22bb 455c afbc
00000060: 5b63 6bbc 3382 a0ba 27e3 8abb 0a55 c33c
00000070: 03e0 4e3c 08fe 4e39 442f 5cbb 0dd0 14bb
00000080: fee1 653c a6aa b0bb 2e3f 023b 1ab3 8c3b
00000090: 07e3 5abc 5bf8 18bb da92 82bc c28e 583c
000000a0: fd96 a4bb 61b5 b93b 00cc 6736 8d0b 2e3b
000000b0: 0e50 bcbb f145 afbb c68b a33c d692 99bc
000000c0: 6cc0 933b d136 003c aa2b cfbb f132 debb
000000d0: 9e9f 343b 7b24 00bc 24fc 4d3c 1a57 553c
000000e0: be5b 88bc 8cbe 70bc 11fe c6bc 6620 03bc
000000f0: 6999 b0bc 9f9d da3c 5385 60bc 048e b8bc
00000100: 40e2 5aba 7f4b 80bc 85b8 3d3b b173 ba3c
00000110: 7a1f 133b 8a58 893a 6bed 4fbb c538 46bb
00000120: 4f36 ae3c bc0e 6fbb 453c bd3c f0a1 4abc
00000130: 6d8f 813c 783f b13b 59bc a7bc 84fb a6bb
00000140: b6d8 77bb 7514 c23b 44c4 32bc 4a1b 62bb
00000150: 27cf b8bc 370f 80bb 94aa 85bc e605 a73b
00000160: b754 6c3b ae98 cbbc d902 b73b fa42 c63b
00000170: a619 08bc d717 483b dff2 3ebb 5345 813b
00000180: 1f34 453b cc15 af3b 8a62 f2b9 ead6 4c3c
00000190: 9077 beba 7dcb 65bc dc74 453b eb0d c0bb
000001a0: 8bc5 603b 1e6f cb3c 515b 503c f9ba d53b
000001b0: e316 95bb 9d2e 45bb c32f a23a 0da1 89bb
000001c0: ad14 adbb 6721 c2bc f834 bdbc a0a6 3cba
000001d0: 2570 3bba 25da 9c3b eb77 933b 3ae9 88bb
000001e0: 2748 863c 4270 94bc ce6d bfbb a824 bb3c
000001f0: f286 65bb 14fe 853c d597 8f3c e45f 833b
-0.006027819 -0.0072124987 0.0032142207 -0.0026291506 0.0039101676 0.010652467 -0.017437875 0.0036378223
0.012634065 0.002790137 -0.0046748994 -0.0029211596 -0.026204636 0.0007575004 -0.0028594825 -0.014030651
0.006761139 0.018409336 0.011010757 0.009246507 0.01806475 0.012522037 -0.0024733364 -0.021406302
-0.01436695 -0.0012245834 -0.0042385045 0.02384426 0.012626651 0.00019740325 -0.0033597508 -0.0022707016
0.0140309315 -0.0053914366 0.0019874084 0.0042938115 -0.013359792 -0.002334139 -0.015939165 0.01321763
-0.005022882 0.005667374 3.4540426e-06 0.0026557178 -0.005746848 -0.005348914 0.01996411 -0.018746775
0.0045090225 0.007825569 -0.006322344 -0.006780975 0.002756096 -0.007821198 0.012572322 0.013021255
-0.016645309 -0.014693867 -0.02429107 -0.00800333 -0.021557527 0.026686488 -0.013703662 -0.022528656
-0.0008349754 -0.015661 0.0028949094 0.022760244 0.0022449181 0.0010478657 -0.0031727205 -0.003024624
0.02126613 -0.0036477288 0.023100028 -0.0123677105 0.015815461 0.0054091774 -0.020475553 -0.005095901
-0.0037818379 0.005922849 -0.010911051 -0.0034501129 -0.022559715 -0.0039080638 -0.01631669 0.0050971387
0.0036061236 -0.024853077 0.0055850563 0.0060504647 -0.008306896 0.0030531788 -0.0029136462 0.0039450317
0.003009088 0.0053431746 -0.00046231254 0.012502411 -0.0014531482 -0.014025566 0.0030129468 -0.005861034
0.0034297432 0.024833258 0.012717084 0.006522533 -0.0045498475 -0.0030087598 0.0012373853 -0.004200107
-0.0052820058 -0.023697568 -0.023096547 -0.000719646 -0.0007150195 0.004786747 0.0045003793 -0.0041781934
0.016391827 -0.018119935 -0.005841947 0.022844627 -0.003502306 0.016356505 0.017528454 0.004009234

std.constant9 f4 [128]
00000000: 0000 803f 0000 803f 0000 803f 0000 803f
00000010: 0000 803f 0000 803f 0000 803f 0000 803f
00000020: 0000 803f 0000 803f 0000 803f 0000 803f
00000030: 0000 803f 0000 803f 0000 803f 0000 803f
00000040: 0000 803f 0000 803f 0000 803f 0000 803f
00000050: 0000 803f 0000 803f 0000 803f 0000 803f
00000060: 0000 803f 0000 803f 0000 803f 0000 803f
00000070: 0000 803f 0000 803f 0000 803f 0000 803f
00000080: 0000 803f 0000 803f 0000 803f 0000 803f
00000090: 0000 803f 0000 803f 0000 803f 0000 803f
000000a0: 0000 803f 0000 803f 0000 803f 0000 803f
000000b0: 0000 803f 0000 803f 0000 803f 0000 803f
000000c0: 0000 803f 0000 803f 0000 803f 0000 803f
000000d0: 0000 803f 0000 803f 0000 803f 0000 803f
000000e0: 0000 803f 0000 803f 0000 803f 0000 803f
000000f0: 0000 803f 0000 803f 0000 803f 0000 803f
00000100: 0000 803f 0000 803f 0000 803f 0000 803f
00000110: 0000 803f 0000 803f 0000 803f 0000 803f
00000120: 0000 803f 0000 803f 0000 803f 0000 803f
00000130: 0000 803f 0000 803f 0000 803f 0000 803f
00000140: 0000 803f 0000 803f 0000 803f 0000 803f
00000150: 0000 803f 0000 803f 0000 803f 0000 803f
00000160: 0000 803f 0000 803f 0000 803f 0000 803f
00000170: 0000 803f 0000 803f 0000 803f 0000 803f
00000180: 0000 803f 0000 803f 0000 803f 0000 803f
00000190: 0000 803f 0000 803f 0000 803f 0000 803f
000001a0: 0000 803f 0000 803f 0000 803f 0000 803f
000001b0: 0000 803f 0000 803f 0000 803f 0000 803f
000001c0: 0000 803f 0000 803f 0000 803f 0000 803f
000001d0: 0000 803f 0000 803f 0000 803f 0000 803f
000001e0: 0000 803f 0000 803f 0000 803f 0000 803f
000001f0: 0000 803f 0000 803f 0000 803f 0000 803f
1.0 1.0 1.0 1.0 1.0 1.0 1.0 1.0
1.0 1.0 1.0 1.0 1.0 1.0 1.0 1.0
1.0 1.0 1.0 1.0 1.0 1.0 1.0 1.0
1.0 1.0 1.0 1.0 1.0 1.0 1.0 1.0
1.0 1.0 1.0 1.0 1.0 1.0 1.0 1.0
1.0 1.0 1.0 1.0 1.0 1.0 1.0 1.0
1.0 1.0 1.0 1.0 1.0 1.0 1.0 1.0
1.0 1.0 1.0 1.0 1.0 1.0 1.0 1.0
1.0 1.0 1.0 1.0 1.0 1.0 1.0 1.0
1.0 1.0 1.0 1.0 1.0 1.0 1.0 1.0
1.0 1.0 1.0 1.0 1.0 1.0 1.0 1.0
1.0 1.0 1.0 1.0 1.0 1.0 1.0 1.0
1.0 1.0 1.0 1.0 1.0 1.0 1.0 1.0
1.0 1.0 1.0 1.0 1.0 1.0 1.0 1.0
1.0 1.0 1.0 1.0 1.0 1.0 1.0 1.0
1.0 1.0 1.0 1.0 1.0 1.0 1.0 1.0

std.constant10 f4 [128]
00000000: be9f 853c 9495 313d c410 453c fbe2 023d
00000010: afd1 063d 112c 7f3d 9990 44bc 3e4e 6e3b
00000020: d783 813d d7f5 8a3d 6dda a33d c1f2 1b3d
00000030: 5244 b03d 8f3a 413c 8137 7c3c 4b8f 193d
00000040: ecbd 07bc 00f4 343d 7a09 093d e13c aabb
00000050: 5375 4cbc df35 7d3c 7d8c 523d 9743 893d
00000060: 9368 5dbc ec8e 2a3d fa84 6f3c f8c2 923d
00000070: 3e68 2d3d 1e17 0b3d 3fe5 8f3c de10 e93c
00000080: 9ec6 7fbc 096b e33d cd53 273d 8381 0fbc
00000090: 6aaf 143d 0319 013d 7975 d93d bc30 beba
000000a0: a0c0 8b3c 1372 653c a092 c93d 7132 85bb
000000b0: 107c b43c 52cb b23b 0afe 0a3d 91dc 82bc
000000c0: a434 9d3d f749 213c 393d ae3b ce51 bc3d
000000d0: 91bd d33c 7ad6 e2bb 448b 953d 1d77 843d
000000e0: f5fd fdbb 6a31 a53c a897 c33d 6b58 b33c
000000f0: d7aa ed3c 07b6 953d f4f0 193c 86fd 9dbc
00000100: 3ad5 533d f67a e73d 5279 ce3c 818a 523d
00000110: ed8e 153d 4b02 313d 1601 0f3c 96de ba3c
00000120: e1d4 cb3d 48a1 9b3c 251d 95bc 9f03 a73d
00000130: 8dd1 5bbc a837 f1bb 5bfc b53b a997 b5bb
00000140: 5240 173d af44 c8bb 8623 253a ff78 fa3b
00000150: e5a0 a73d d1a3 d73c 5784 f33d 2e66 e33c
00000160: 9717 0f3d 817a 8a3d 81eb 133d f97d 7f3c
00000170: f802 323b a9b2 3e3c e03b 173d 5f41 5b3b
00000180: c0de 043d df7e a43c e32a 5e3c 1923 2e3d
00000190: 5b47 2f39 cbfd 69bc b2da ef3c 7f85 043d
000001a0: 170c 013d 8cb0 503d 2359 36bb a86b 0b3d
000001b0: 9524 23bc aa81 803c 481b 613d be5c 843b
000001c0: daf2 153a 1fee db3d 861c f33c 15c1 f53c
000001d0: 0207 513d 3815 d93d 0fa0 f33c fd7f 183d
000001e0: a5f7 eb3c 9157 733c 46cb ec3c 57a7 623c
000001f0: a05a 0a3d 6ab1 30bc 4d36 e23d c4bc 01bb
0.016311523 0.04335554 0.012027923 0.031954747 0.032914814 0.062297884 -0.011997365 0.0036362554
0.063239746 0.067851715 0.08000646 0.038073305 0.08606781 0.011793747 0.015394093 0.03749017
-0.008285027 0.04417801 0.033456303 -0.0051952456 -0.012479144 0.015454738 0.05140351 0.06702345
-0.013513702 0.041640207 0.014619106 0.071660936 0.04233574 0.033957593 0.017565368 0.028450426
-0.015611319 0.111044 0.040851403 -0.008758905 0.0363001 0.031517994 0.10618109 -0.0014510374
0.017059624 0.014004248 0.098424196 -0.004064851 0.022031814 0.0054563666 0.033933677 -0.015974315
0.07676056 0.009844295 0.005317357 0.091952905 0.025847228 -0.0069225403 0.073019534 0.064680316
-0.0077512213 0.020165164 0.095504105 0.021892747 0.029012127 0.073101096 0.009395827 -0.019285928
0.05171702 0.1130275 0.025204334 0.05140162 0.036513258 0.043215077 0.008728286 0.022811215
0.09952713 0.018997803 -0.018202374 0.081549875 -0.01341666 -0.007361371 0.0055537648 -0.005541761
0.036926575 -0.0061117033 0.0006299544 0.0076438184 0.08184985 0.026323231 0.11890476 0.027758684
0.034934606 0.06761647 0.036113266 0.015593999 0.0027162414 0.011639276 0.036922336 0.0033455712
0.032438993 0.020080028 0.01356003 0.04251394 0.00016715883 -0.0142817 0.029279087 0.032353874
0.03150567 0.05094962 -0.0027824126 0.034038216 -0.009957452 0.015686829 0.054957658 0.004039376
0.00057200866 0.10738777 0.029676687 0.029999295 0.051032074 0.1059975 0.029739408 0.037231434
0.02880461 0.01485242 0.028905522 0.013833842 0.033777833 -0.010784486 0.11045513 -0.001979635

std.constant11 f4 [128, 7]
00000000: 3cd7 50bd c5d1 663d f1ba e83a d307 b33d
00000010: c0a5 dc3d 89a5 053c a754 9e3d 6697 84bd
00000020: 1474 993d 4f60 e13d d374 9fbd db62 1ebc
00000030: 5330 9d3d 069d 323e abbb 00bd f0ba 83bd
00000040: 85b5 963c 92c9 78bd f6ed 043d 92cf a53d
00000050: aa3a 273e 1e43 c73d 5647 ae3c f1e0 17bd
00000060: fc8e ad3d c8fc 89bd 50eb 713d 4d99 433c
00000070: 415d 5d3d 0909 f83d d054 d6bd f741 663c
00000080: 808c 053d 5fda a0bd ff3d 443d 5eb8 0f3e
00000090: 1f2d ce3d fbaf 6abd 6d6e 583c 28e8 2fbc
000000a0: 57d8 bdbc 2340 263d 8dc3 a2bd 2442 97bd
000000b0: 9a40 a43d f683 eebc 29d9 94bc 5b7d c9bd
000000c0: 6ba1 77bc 2297 a13d a810 87bd 95d9 85bd
000000d0: 5215 393d f814 a5bb 3a2c 4e3d a6fe 8dbc
000000e0: 16df 133c d135 2e3d 1b53 713d bd41 193d
000000f0: 37ef d03d a202 7bbd b18c 9d3d d69e 013e
00000100: 58c6 6abd a59c d93c 4a58 ec3d 992c a63d
00000110: ee5c 5dbc 9e1b 0b3e a5d5 acbc b203 e83d
00000120: c45d 403d 1829 783d c92b 103e 396b 753d
00000130: 37b7 843b b186 213d ceb0 9d3d 0ba4 18bb
00000140: d84a dc3d 1992 303d cc8d d93d 549f adbb
00000150: 5ce9 7d3d c8be 90bd 9e05 21bd 020f ae3d
00000160: f4c7 96bc 9998 023e 6190 89bb 3aa7 a83d
00000170: 9593 3cbd 5442 133d 44e3 4dbd a435 54bb
00000180: 4718 b83d 1302 f0bc 8349 aa3d 5a89 2ebc
00000190: cbf9 e8bd afcf af3c a6dc dbb8 7273 533b
000001a0: adda 1c3e 07ee 9b3d 29cc 013d 4f58 473d
000001b0: 45a6 153d 65de 093d cfef 8d3d 620d d13d
000001c0: b0f9 9abc 4bd2 3bbd eff1 debd 6736 aa3d
000001d0: 5345 cdbd 3ec1 81bd 14b6 4bbd a49f b7bc
000001e0: 6807 733d 2c82 1b3d 0008 94bd c0a5 043e
000001f0: e509 d83d 2ab9 ac3d 830b c2bc d569 afbd
00000200: 35a5 8f3d ca0b a5bd 1f39 a7bd f198 89b8
00000210: 5917 033d cece d4bd fdb3 babd d66b 2e3d
00000220: e6c1 e1bc 2c44 9a3c db91 753d 21da 0ebd
00000230: cfa2 883d 0ddc f13c 8f6c 9b3d 94f6 96bd
00000240: 9da7 693d db76 cdbd 7fb3 2a3c d32b 84bd
00000250: b9c6 9ebd 7887 b2bd b4de 18bc 28d9 963d
00000260: ff07 c5bd 2492 95bc f66e 103e 637c cf3d
00000270: 94a1 ccba 3cde db3d f7d5 3a3b 752e d33c
00000280: 7f88 9a3d 39dd 79bd 8282 843c db8d aabd
00000290: 45ed 81bc 1778 1e3c 0a06 5dbd 6d94 81bd
000002a0: d662 7cbd fa12 0ebd 1adf 8f3d 11d1 edbd
000002b0: 2ba5 b73d f131 8d3c 1746 c63d 596d b63d
000002c0: 084a ce3d 7c52 85bd bbb3 cf3d 197a 1cbd
000002d0: d1bc 8fbc 8611 e43d 7688 3e3d 55ad a33d
000002e0: 158d dcbd 7d79 133d f179 9a3c 03ac 9fbd
000002f0: 4cb9 643d 8491 5bbc 7555 3a3d 4a68 71bb
00000300: ff32 abbd d4f9 073e 82fc d73d ce52 eabc
00000310: afb3 ee3d c0b7 aabc f709 a6bd a2be cb3c
00000320: b253 61bd 6233 97bd 3aa7 873d fd2b f43d
00000330: a33c 5fbd e195 1f3d c472 1bbd 9e04 e53d
00000340: d241 99bd 605e 4f3d 1091 723a b8ef 8ebd
00000350: 0f5f c0bd 51d4 d53c edf2 543d 6ecd ea3c
00000360: d9d8 d23d 85f4 493d 07d5 97bd 61c6 8dbd
00000370: 61b7 9abd 5305 703d 5058 763d 60a6 9f3d
00000380: a28b 72bd 8ca1 453d c1c3 1b3c 87f0 303d
00000390: 844c 91bc 2626 40bc 2f0d 63bd d6a6 a13d
000003a0: ec56 983d c249 8a3d 8524 48bc eebf 083e
000003b0: 1d93 0cbc d146 7f3d c608 653d e111 e9bc
000003c0: 39fd 8f3c 5638 893d 6ae1 82bd 3b39 ac3d
000003d0: cd67 8a3d 8029 e1bb a042 8ebd cd02 a43d
000003e0: cd41 193d eaa7 85bd fe46 ed3c 6b40 dc3a
000003f0: 7c60 a3bd ac9f dc3d 7e57 c9bd 0aaa dd3d
-0.050986513 0.056352396 0.0017755908 0.08741727 0.10773802 0.008157142 0.0773099 -0.064741895
0.07492843 0.110046975 -0.07785954 -0.009667124 0.07675233 0.17442712 -0.031428974 -0.0643214
0.018397102 -0.060739107 0.0324535 0.080962315 0.16330972 0.097295985 0.02127425 -0.037079755
0.08474538 -0.06737667 0.059062302 0.011938405 0.054044012 0.12111098 -0.104653955 0.014053813
0.032604694 -0.07854151 0.047910687 0.14035174 0.100672 -0.057296734 0.013209921 -0.010736503
-0.023174448 0.04058851 -0.079474546 -0.07385662 0.08020134 -0.029115658 -0.018169956 -0.09838363
-0.015114169 0.078901544 -0.06594974 -0.06535641 0.04518635 -0.0050379 0.050335146 -0.01733334
0.009025356 0.042531792 0.058917146 0.03741621 0.102018766 -0.061281808 0.076928504 0.12658247
-0.05731806 0.026563952 0.11540277 0.08113975 -0.013510926 0.13584754 -0.021097967 0.1132883
0.046964422 0.060586065 0.14079203 0.05991671 0.004050161 0.039435092 0.076997384 -0.0023291137
0.10756463 0.04310808 0.10622749 -0.0052985344 0.061990127 -0.07067639 -0.039311998 0.08498956
-0.018405892 0.12753524 -0.0041981195 0.08235021 -0.046039183 0.035951927 -0.050265566 -0.0032380605
0.089890055 -0.029297864 0.083148025 -0.010652864 -0.11375769 0.021461336 -0.00010483833 0.0032264856
0.15317793 0.076137595 0.031688843 0.048668202 0.03653552 0.033659358 0.069305055 0.10207631
-0.018917888 -0.045854848 -0.10885989 0.08311158 -0.10022988 -0.06335686 -0.04973419 -0.02241499
0.059333235 0.03796594 -0.072280884 0.12953854 0.10548762 0.08433755 -0.02368713 -0.08565108
0.070139326 -0.08058889 -0.08165192 -6.5611566e-05 0.032004688 -0.10391007 -0.09116361 0.04258331
-0.027558278 0.018831335 0.05995355 -0.034875993 0.06671678 0.029523874 0.07589065 -0.0737125
0.057044614 -0.100324355 0.010418772 -0.06453671 -0.07752747 -0.08717245 -0.00933044 0.07365638
-0.09620666 -0.018258162 0.14104828 0.10131147 -0.0015612119 0.10735747 0.002850888 0.025778988
0.07545566 -0.06100199 0.016175512 -0.08327838 -0.01586021 0.009672186 -0.053960837 -0.06327138
-0.061617695 -0.034686066 0.07024975 -0.11612142 0.0896705 0.017235728 0.09681337 0.08907575
0.10072714 -0.06509873 0.10141703 -0.03820238 -0.01754609 0.11136155 0.046516858 0.07992045
-0.10769097 0.036004532 0.018856974 -0.077964805 0.055840775 -0.013401393 0.045491654 -0.0036835843
-0.08359336 0.13278896 0.10546209 -0.028603937 0.11655366 -0.020839572 -0.081073694 0.024871174
-0.05501146 -0.07382847 0.06623693 0.119224526 -0.054501187 0.038961295 -0.037951246 0.11182521
-0.07483257 0.050627112 0.00092531834 -0.069793165 -0.09393131 0.026102217 0.051989485 0.02866241
0.10295267 0.049305458 -0.074136786 -0.069226034 -0.07554508 0.058598828 0.060142815 0.077954054
-0.059215195 0.048249766 0.009507121 0.043198135 -0.01773668 -0.011727845 -0.055432495 0.078931496
0.07438454 0.067523494 -0.012215738 0.13354465 -0.008579996 0.062323395 0.05591657 -0.028450908
0.0175768 0.06700198 -0.063906506 0.08409353 0.0675808 -0.0068714023 -0.069463015 0.08008347
0.03741627 -0.06526168 0.028964516 0.0016803866 -0.07977387 0.107726425 -0.09831141 0.10823448

std.constant12 f4 [128, 7]
00000000: 2992 1bbb c626 b23d 7e0d cabd b52d 013d
00000010: 346c 583d bf89 5dbc befa dbbd 25f1 50bd
00000020: 332b 5cbd 27d3 cebd 95c1 583d e488 843d
00000030: 1aaa b03c 2628 22be 319c 07bd 1546 f23d
00000040: 79fa 49bd 542e 02bd f35d c03d 6986 d33d
00000050: c09b a73d 8c01 f8bd a5f1 783d 2b2d ddbd
00000060: 40f4 7fbd b330 1abc e94e 2a3d b2af 1dbe
00000070: eedf 483d 315b b1bd 95c9 403d f7d0 803d
00000080: 0a81 903d d7c3 ca3d 06a5 333e 33f2 79bd
00000090: 5cb7 613d 694f 12bd f799 adbd ce35 05bc
000000a0: 6b17 483c 7e59 5abe ba30 913d ce9b e7ba
000000b0: c6be 4d3d b441 983d 48bb 48bc 5e64 883d
000000c0: 59fc 8bbd 37c9 b63d d89c d1bd 92a7 93bd
000000d0: bca5 b03d 3edc 983d 2efc 043d 3f82 a2bd
000000e0: fc71 edbd 59d1 2cbd 0b9f dcbb bc17 68bd
000000f0: 20a7 c83d 4007 513d 3831 00be 7c0f 6b3d
00000100: cf5c 9b3d 9a17 0abc ccbc bdbd 6974 733c
00000110: ad17 d2bd 2a4e 213e 510a 663c a1cc e23c
00000120: 9e8c a83d 0688 c33d a7b9 afbd 756d 8b3d
00000130: 2aee 3bbe a293 ed3c 8d21 7ebd 45a3 443d
00000140: 33c2 3abd 5f23 d8bd 6cd5 843d cd62 1bbe
00000150: d06e a7bd 375d 303d c988 29bd 9ce8 23bc
00000160: 369a 523d 684c 363b a93f 373e 5136 6abc
00000170: fa21 38bc 929d 50bd 46fc ab3c 80bd b43d
00000180: 17a7 1bbd 3d88 d3bd fcb6 01be f0f1 94bc
00000190: a50d 43bd 2315 bfbd 9dd3 713d ed2b c6bd
000001a0: b89f adbd bd76 7d3c 64c0 a0bd 288f 283d
000001b0: 4d10 823d 9381 213c 033e b13d 1f66 193e
000001c0: 5637 aebd 2ab0 a8bc fcaf 583d c6f8 113d
000001d0: fc37 613c df8e a73d 3393 f53c fbcf d8bd
000001e0: 7d81 da3d d5c3 cf3d 6931 d23d 9ee6 30bd
000001f0: c8e3 5cbd 64b4 02be 1172 7bbd d224 243d
00000200: b618 563b 3b17 80bd ddba 81bc c12d 08bd
00000210: 3810 08be fcda a5bd 46b3 b03d 097a b9bd
00000220: 3b51 9b3c fa44 aabc 4aca a3bc 1e58 59bd
00000230: 4664 90bd 0fcc 073d ccd6 4dbc a6cb eabc
00000240: 0977 b53c 9d54 95bd 612d fcbc 3186 e53c
00000250: c219 adbd c629 6ebd 9f18 9bbd 0880 833d
00000260: 3a06 76bd 79c3 d9bd e109 2d3c 23d9 e2bc
00000270: a0e7 5c3c 95cc 36bd ae8c b83d 8794 9dbb
00000280: 693a 19be 5fe3 a03d ce88 86bd 446f 4b3d
00000290: 50e4 cb3d 8665 a93c d581 e7bd 578d df3d
000002a0: f2ad a93d e411 ab3d 9061 793d b41c aa3d
000002b0: 09d5 a33d 4cae 8b3d 25dc 99bb 75d9 a23d
000002c0: dbf3 9ebd 119e 53bd 08d4 f33d 6349 bf3c
000002d0: 2ef1 893d 16e9 3a3e 31f9 d6bc 56d1 55bc
000002e0: 05f9 b13d 1f8d ccbd b83c b43b ed0b 94bd
000002f0: 8400 9ebd d46e 5abd 4e4a 643d 0bf4 b33d
00000300: ed5d 3c3d a51d 89bd 722d 5cbc 0ccc 19be
00000310: ee2c a7bd 17a3 99bc 15e2 1fbd 5239 253d
00000320: dad7 01bd e39e 1a3d 4776 f9bd e5c3 c4bd
00000330: e021 4a3b 281d d93b 354a 863d 4650 be3d
00000340: d9cf cdbd be22 06be 4f48 1cbd e56e 943d
00000350: 00a9 36bc 1274 7abd d9bf be3c b2ce b4bd
00000360: 33f8 c6bd 1a7a efbd 1632 08bd 8974 d2bd
00000370: c9d8 eabd efd0 8cbd 97d8 72bd 5cd6 41be
00000380: 87a1 98bc 6029 cdbd 65d5 91bd 0fbd 42bd
00000390: 2c3b bbbd af59 18bd e0f0 613c 5cf3 57bd
000003a0: 2480 b6bd 34ee ad3d 66c7 1b3d c565 e7bd
000003b0: a759 d0bc 0c0f 533e ddd6 853d 2824 20b8
000003c0: 0617 893c 3032 89bc 0538 c23d 0764 f8bc
000003d0: 02a7 333e 0180 583d 6e30 ddbd bcf8 a4bd
000003e0: a363 5fbd ee55 24bc a3c5 d9bd da28 583c
000003f0: a59f 8a3d cd90 923d c95f 82bc edab 4cbc
-0.0023738241 0.08698802 -0.09865855 0.03153773 0.052837566 -0.013521611 -0.10741185 -0.051011223
-0.053752135 -0.10098868 0.05291899 0.06471422 0.021565486 -0.15835628 -0.03310794 0.11829773
-0.049311135 -0.031782463 0.093929194 0.10328371 0.08184004 -0.1210967 0.060777325 -0.10799631
-0.062488794 -0.009411025 0.04157916 -0.15399054 0.04904168 -0.086599715 0.047067244 0.06289857
0.07055862 0.09900635 0.1754342 -0.061021995 0.055106506 -0.035720263 -0.08476632 -0.008130504
0.0122126145 -0.21323201 0.07089372 -0.0017670335 0.050230764 0.07434407 -0.012251683 0.066597685
-0.06835241 0.089250974 -0.10234994 -0.07209696 0.08625361 0.07463883 0.03246706 -0.07934999
-0.115940064 -0.042191837 -0.0067328266 -0.05666326 0.097975016 0.051032305 -0.12518775 0.057387814
0.07586061 -0.008428479 -0.09264526 0.014859297 -0.10258422 0.15752473 0.014040546 0.027685465
0.082299456 0.09547429 -0.08580332 0.06807987 -0.18352571 0.02900106 -0.062043715 0.04800727
-0.04559536 -0.105536215 0.064860195 -0.15174408 -0.08175433 0.043057647 -0.041390214 -0.010004189
0.0514166 0.0027816538 0.17895378 -0.014295177 -0.011238569 -0.05093152 0.020994317 0.08825207
-0.038001146 -0.1032872 -0.12667459 -0.018181771 -0.047620434 -0.093302034 0.0590397 -0.09676347
-0.084777296 0.015470204 -0.078491956 0.04115215 0.063507654 0.009857553 0.08654406 0.14980362
-0.08506648 -0.020591814 0.052902207 0.03563764 0.013746258 0.081815474 0.029977417 -0.10586544
0.10669229 0.10144774 0.102633305 -0.043188684 -0.053928167 -0.12764126 -0.06138808 0.040074177
0.0032668537 -0.06254431 -0.015836174 -0.03324676 -0.13287437 -0.080984086 0.08627944 -0.090564795
0.018959632 -0.020784844 -0.01999392 -0.05306255 -0.07050376 0.03315359 -0.012563419 -0.02866156
0.022151487 -0.07291529 -0.030783357 0.028018089 -0.084521785 -0.058145307 -0.075730555 0.064209044
-0.060064532 -0.106329866 0.010561437 -0.02769143 0.013482958 -0.0446287 0.090112075 -0.0048089656
-0.14963688 0.078558676 -0.06569062 0.049666658 0.099556565 0.020678293 -0.1130406 0.1091563
0.082851306 0.08353022 0.06088406 0.08306256 0.079996176 0.06820354 -0.0046954327 0.07951633
-0.077613555 -0.051664416 0.11905676 0.023350423 0.067354545 0.18252978 -0.02624187 -0.013050398
0.08690075 -0.09987854 0.0055004023 -0.07228837 -0.07714942 -0.05332835 0.055734925 0.08786782
0.045988012 -0.06695107 -0.013438569 -0.15019244 -0.081628665 -0.018754525 -0.039033968 0.040337868
-0.031699993 0.037749182 -0.12180763 -0.096076764 0.0030842945 0.00662579 0.065571226 0.09292655
-0.100494094 -0.1309919 -0.038154896 0.07247714 -0.011148691 -0.06114585 0.02328484 -0.088284865
-0.09715309 -0.11693211 -0.03325089 -0.102761336 -0.1146713 -0.068757884 -0.059288587 -0.18929428
-0.01863171 -0.10017657 -0.0712078 -0.04754358 -0.091421455 -0.037194904 0.013790339 -0.05272232
-0.0891116 0.08492699 0.038031958 -0.11298708 -0.025433375 0.20611209 0.065351225 -3.8180646e-05
0.016734611 -0.016747564 0.09483341 -0.030321134 0.17544177 0.05285645 -0.10800253 -0.08055255
-0.05453838 -0.010030253 -0.10633399 0.0131933335 0.06768731 0.07156525 -0.015914815 -0.012492162
