AirQualityApp/AirQualityApp.Android/Assets/LondonShort.tflite (tflite, 814936 bytes, 24 tensors)

std.constant3 f4 [128, 128]
000000 d1 04 fa 3c ca fb e2 bb 44 48 5e bd ad 33 06 bd
       0.030519875 -0.0069269883 -0.054268137 -0.032764126
000010 54 5a 0d bc 7c da 66 3d 3c d1 8a bd 96 d1 bf 3c
       -0.008627493 0.056360707 -0.067781895 0.023415368
000020 f2 eb 36 bd 30 46 69 3c 9c 61 fe 3b e4 df 80 bc
       -0.04465861 0.014237925 0.007763101 -0.01573176
000030 ea eb 2c bc c0 50 c9 39 e4 21 dd bc 3b 0e bf 3d
       -0.010554293 0.0003839787 -0.0269937 0.09328886
000040 28 3d 0a bd 3e 88 33 3d 67 44 41 bd 7d cf a9 bd
       -0.03374973 0.043831103 -0.047184374 -0.082915284
000050 0e e5 85 bd 8e d2 21 bd f3 4a cd bc 4c cc 09 bd
       -0.06537829 -0.03950744 -0.025060153 -0.0336421
000060 b8 d8 5d 3d 8a 3b 64 3d 14 59 9b 3c d1 7b 90 bd
       0.054161757 0.055720843 0.018963374 -0.07054866
000070 60 bc ca 3d 6a 69 cc bc 55 23 0a bc 28 d7 70 3d
       0.09899211 -0.02495261 -0.008431275 0.05879894
000080 8b 60 bd 3c c8 ab f9 bc 40 09 21 b9 29 bb 51 bd
       0.023117324 -0.03047742 -0.00015357602 -0.05120388
000090 16 e7 de bc 2c 1c bc 3c 8c 74 8d bd 5c 86 9a 3d
       -0.0272098 0.022962652 -0.06906995 0.07545158
0000a0 64 37 c5 3c a3 6f 1b 3d 49 06 a1 3c 96 d2 0b bd
       0.024074264 0.037948262 0.019656317 -0.034136377
0000b0 f8 83 8e bd 2e f1 b7 3c 69 56 b2 3c 9e 71 9e 3d
       -0.06958765 0.02245387 0.02176972 0.077365145
0000c0 03 bd 09 3d c9 08 c8 bc 1f c1 09 bd 6e 31 5a 3d
       0.03362752 -0.024418252 -0.03363144 0.053269796
0000d0 7d e6 42 bd 80 c7 d5 bb 85 f2 82 3c 5a 4c b8 3c
       -0.047583092 -0.0065240264 0.015984783 0.022497345
0000e0 39 1d 91 bc 98 3f e3 bc dc 20 11 bc 2a a7 02 bd
       -0.01771413 -0.027740285 -0.008857932 -0.0318977
0000f0 a1 ee 1a 3d 14 b2 37 bd 54 da c1 3a b6 1b 4e 3c
       0.03782523 -0.044847563 0.0014789798 0.012579849
000100 de 28 01 bc ce 43 17 3d 9d c1 8c 3d 12 99 54 bc
       -0.007883279 0.036929898 0.06872866 -0.012975948
000110 3a 2b 21 3d 30 9c fe 3d b8 ec b1 3c af e9 4e 3d
       0.039347865 0.12432134 0.021719322 0.050515827
000120 da 5f f9 bc b2 65 82 bc a8 57 fb 3c 70 fe 25 bc
       -0.030441213 -0.015917633 0.030681446 -0.010131463
000130 15 63 8f bc 71 9d 90 bc bc 02 fe 3b c1 ba 28 bd
       -0.0175033 -0.017653199 0.007751791 -0.041193727
000140 9e 1b b2 3c 60 3f b6 39 d6 8e 32 3c b9 d1 90 bd
       0.021741685 0.00034760963 0.010898313 -0.070712514
000150 30 3f 5c bd a2 13 a3 3b bf 5d 12 bc bc 41 58 3b
       -0.053771198 0.0049767056 -0.008933484 0.0032998165
000160 ec 2d e5 3c 58 ac 2b bd 2a a2 dc 3c 80 57 ac bc
       0.027975999 -0.041912407 0.026932795 -0.021037817
000170 48 dd 92 3b 3c 4c 81 3d d8 52 3b 3d 93 d2 03 bc
       0.004481945 0.06313369 0.045733303 -0.00804581
000180 ac ef b0 3c 32 f1 7c bd 81 db 68 3d 10 e3 34 ba
       0.02159866 -0.06175346 0.05684996 -0.000690029
000190 2f 46 87 bc 98 3f be 3c ac 24 d3 bd 8c 84 5c 3d
       -0.016512958 0.023223683 -0.10309729 0.053837344
0001a0 c0 68 ab bc 98 e7 ab bc c4 7d 29 bb 92 40 d6 bc
       -0.020923972 -0.020984456 -0.0025862316 -0.026153836
0001b0 10 c3 cb 3d b6 61 57 bd 00 28 b9 3c 40 b4 90 39
       0.099493146 -0.05258342 0.022602081 0.00027600117
0001c0 4d 49 9b 3d 26 54 71 3d 9e c2 71 3d 92 3c b0 3c
       0.075823404 0.05891814 0.059023492 0.021513257
0001d0 f4 8b 6f 3d 2d 41 49 bd 60 e7 8d 3c cb 98 a9 3d
       0.05848308 -0.049134422 0.017322242 0.08281096
0001e0 8a 41 ff bc 2c 17 1d bd 05 86 95 3c dc 5f 78 3d
       -0.031159181 -0.038352177 0.018252382 0.060638294
0001f0 f7 25 c9 3c 40 7c dd 3c 0a 2b 11 3d 1a 20 4b 3d
       0.024554236 0.027036786 0.035441436 0.04959116
000200 ff 86 7f 3d 1f 59 2a 3d d3 84 ae 3d 8d 03 8b bd
       0.0623846 0.0415889 0.08521428 -0.06787787
000210 f3 8e 20 bd d2 e3 cd bc 26 5a fd bc 00 0b 96 b9
       -0.039198827 -0.025133047 -0.030926775 -0.00028618425
000220 e6 06 b9 bc 92 8d 55 3c a7 ef 0e 3c 5c c1 72 3d
       -0.022586297 0.013034241 0.00872413 0.059266433
000230 d0 2a 53 3a 54 4d e1 bc 86 86 ad 3c 8e 40 ba 3c
       0.0008055391 -0.027502693 0.02118231 0.02273586
000240 ec 3a bc bb 78 99 98 bd 01 cc 18 bc 62 ea 0e 3c
       -0.0057443287 -0.07451147 -0.009325982 0.008722873
000250 cb bb 71 bc 54 51 5a 3d 6b b1 7d 3c c0 a2 b8 bc
       -0.014754246 0.053300217 0.015484194 -0.022538543
000260 92 4b 9e bc 10 87 05 bd 8c 5d 08 3c 54 ec 83 ba
       -0.019323144 -0.03259951 0.008323085 -0.0010064938
000270 26 d7 89 3d 98 a9 b6 bc 82 2a ca 3c 36 f5 2a 3d
       0.067304894 -0.022297665 0.024678472 0.041737758
000280 56 20 4e bd f0 da b6 3c e0 f8 a3 39 16 fa 44 3c
       -0.050323807 0.022321194 0.0003127521 0.012022516
000290 17 5f a8 3c 1e 1a c9 bd b7 72 95 3b 20 92 56 bd
       0.020553155 -0.098194346 0.004560794 -0.05238545
0002a0 fb ad e6 3c d7 4e d6 bc 6c 68 2c bd 73 8c 97 3c
       0.028159132 -0.02616064 -0.042091772 0.018499589
0002b0 5a 03 9c 3c 2c 16 55 bc a6 48 08 3d b0 b1 a1 ba
       0.019044567 -0.0130057745 0.033272408 -0.001233628
0002c0 70 74 45 bc 52 af ca 3c e7 56 c4 bc eb 5b 6d bd
       -0.012051687 0.024741802 -0.02396722 -0.057948988
0002d0 7e ea 8a bd b1 e9 fb 3d bf bd 04 3d 58 f2 d8 bc
       -0.06783007 0.123004325 0.03240752 -0.026482746
0002e0 dd ba 94 3c b6 86 9d 3d da 94 19 3d 3c dc d7 3c
       0.01815551 0.0769171 0.03749547 0.026350133
0002f0 e4 0c c9 3c 96 6a e6 bc de bf 27 3b 2e e0 84 3d
       0.02454228 -0.028126996 0.002559654 0.064880714
000300 4c c1 fb bb 93 de d3 bc 08 00 e7 bc b1 44 49 3d
       -0.007682955 -0.025862968 -0.028198257 0.049137775
000310 fe 99 06 bd b2 27 35 3d 56 eb 51 3d be fa 1c bb
       -0.032861702 0.04422731 0.051249824 -0.0023953165
000320 2d 75 41 3d 36 54 b3 3d ea 1d f3 3c 17 b5 66 bd
       0.04723089 0.08756296 0.02967735 -0.056325044
000330 bd 4b 84 3d 38 03 9e bd cb e9 b1 bd 74 09 2a bd
       0.064597584 -0.07715458 -0.086871706 -0.04151292
000340 4f 0d e7 bc c4 e4 9e bb be b2 ad 3c 87 cc 24 bd
       -0.028204588 -0.0048490483 0.021203395 -0.040234115
000350 74 8a 1e bb 53 3f 86 bc e1 a5 15 3c a9 6e 72 3c
       -0.0024191411 -0.016387617 0.009133787 0.014796891
000360 66 0a 2b 3d f8 42 28 bd f0 1d 7e 3b 44 69 c6 bc
       0.041757964 -0.04107949 0.0038775168 -0.024220116
000370 20 e6 1c bb 00 0d 91 bd 45 42 76 bc 84 12 18 3d
       -0.0023940876 -0.07082558 -0.015030448 0.037127033
000380 fd 62 b9 3c 11 dc 4c 3d 26 51 21 3d f0 70 8f bd
       0.02263021 0.05001456 0.03938403 -0.07003963
000390 46 5c a0 bd e1 e0 30 bc 14 10 cc 3b 08 7d ab 3d
       -0.078301 -0.010795803 0.0062275026 0.08373457
0003a0 f3 fd 87 bc 23 92 8d 3d 18 6a 09 3b be 0c 02 bd
       -0.016600585 0.06912639 0.0020967778 -0.031750433
0003b0 18 e6 0a bb 90 8b c8 bd 46 60 1f 3c 2b 74 1a bd
       -0.0021194275 -0.097922444 0.009727543 -0.037708443
0003c0 11 c0 6e bd d8 d1 1a 3c 16 9b 7b bd 15 d1 d5 3c
       -0.058288638 0.009449445 -0.0614272 0.026100675
0003d0 92 50 4e bd d0 2d 6c 39 4a 98 11 bd 60 fa f5 b9
       -0.050369807 0.0002252378 -0.035545625 -0.00046916585
0003e0 34 58 c4 bc ce 34 3b 3d dd 9e 87 bb da 90 ae 3d
       -0.02396784 0.045704655 -0.004138811 0.08523722
0003f0 97 91 9e 3c 71 da 31 bc 0e e4 cf 3c be 95 32 bd
       0.019356532 -0.010855303 0.0253773 -0.043599837

std.constant4 f4 [128, 128]
000000 71 ae 98 3c e0 d1 29 3d a8 29 a7 3c 2f 6e 69 3d
       0.018637868 0.041459918 0.020405605 0.056989845
000010 45 80 08 3d 5e c2 47 3d 1e 1a 11 bd 5f 98 84 3d
       0.033325452 0.048769347 -0.035425298 0.06474375
000020 b7 a6 7d 3d fd ac f6 3d ba 51 41 3d 61 aa e4 bd
       0.06192657 0.12044714 0.04719708 -0.1116531
000030 62 86 08 3d c3 9e 02 bc a8 00 e4 3b 2a c7 8d 3d
       0.033331282 -0.007972422 0.006958086 0.06922753
000040 f5 ab 67 bc 39 69 9b 3d 9e 15 43 bd 9a fe 6d 3d
       -0.014140119 0.07588429 -0.047628038 0.058104135
000050 c9 88 19 3c a2 bf 9b 3c 6e 15 b7 3d eb 08 3e 3d
       0.009370991 0.019012276 0.08939634 0.046395224
000060 14 21 f9 3c 06 1b b2 3c 44 1e 2a bd ce fd cd bc
       0.03041128 0.021741401 -0.04153277 -0.025145438
000070 92 67 0f bd 5d af 0a 3d 4c 39 80 3d 2e ed ae bc
       -0.03501088 0.033858646 0.062609285 -0.02135333
000080 38 b7 14 ba bc 1c f3 3b 1a b6 bb bd 56 6d 2e 3d
       -0.00056730537 0.007419197 -0.091655925 0.04258474
000090 46 d8 74 3c 5d ba 03 bd 04 24 ce 3b 76 98 94 bd
       0.014944142 -0.03216015 0.0062909145 -0.07255642
0000a0 75 c8 a4 bc 38 7d 90 bd f4 79 a1 3c 8a 55 40 3d
       -0.020115117 -0.070551336 0.019711472 0.046956576
0000b0 74 a9 07 bc 40 95 31 3d 28 27 60 3d 2c 82 3f bd
       -0.008280147 0.043355227 0.054724842 -0.046755
0000c0 61 ab 00 3d b1 ae 3c bd 62 07 02 bc 7a 9f 84 3b
       0.03141344 -0.046065036 -0.0079363305 0.0040473314
0000d0 6a 44 84 3c 58 40 5b 3d 5e e8 1f 3d 70 64 00 bd
       0.016145904 0.05352816 0.039039962 -0.031345785
0000e0 cb f8 5b bd 36 b6 bc 3c e2 c9 27 bc a1 e8 23 bd
       -0.053704064 0.023036104 -0.010241004 -0.040016774
0000f0 96 4f 11 bc c3 83 81 bc bc 83 73 3d dc fe f0 bc
       -0.008869072 -0.0158099 0.059451804 -0.029418401
000100 62 2f fa bc c2 b0 e1 bc 5c 01 59 3b 5c 9f e2 bb
       -0.030540172 -0.027550105 0.0033112383 -0.00691597
000110 e6 17 29 3d 1c a8 2a 3d 78 2e 1b 3c cc 2b 04 3c
       0.041282557 0.041664228 0.009471528 0.008067083
000120 e1 5f d7 3c 8c 22 22 3d 0b 7d ff bc a3 4d 12 3d
       0.026290836 0.039583728 -0.031187555 0.03571857
000130 68 f8 f5 bb 40 ff 7c bd 88 00 02 bd 3d 2f 85 3d
       -0.007506419 -0.061766863 -0.031738788 0.065031506
000140 b2 01 ac bd 00 2f 83 3c 28 8f d7 bd a0 6d dd 3b
       -0.08398761 0.016013622 -0.10525352 0.006757453
000150 56 5d 04 3d b4 8f 82 3b 6e 7c 3f bd c1 8a 3e bd
       0.032315575 0.003984416 -0.046749525 -0.046519045
000160 cb 38 50 bd 4a 5b f2 3c 89 0b 0a 3d 70 69 b9 3c
       -0.050835412 0.029584546 0.033702407 0.022633284
000170 40 b5 c7 3c 32 79 7a bc 99 99 bd 3d 68 dc 92 3c
       0.024378419 -0.015287684 0.09257812 0.017927364
000180 de 78 76 3d dc da 42 3d 2f 8a 74 bd 79 c4 44 bc
       0.06017386 0.047572 -0.059702095 -0.012009733
000190 36 ed c7 3c 3c 0e 78 3d 3f b3 bc bc f8 02 3f 3d
       0.024405103 0.06056045 -0.02303469 0.04663369
0001a0 9c ca 4e bd dc 0f e3 3c e0 ca 6e 3d 7e ec df 3c
       -0.050486192 0.027717523 0.058298945 0.027334448
0001b0 1c 16 1c bd e6 64 2f bc bf 11 f1 bc 94 36 0c bd
       -0.038107023 -0.010705208 -0.029427407 -0.034231737
0001c0 c2 96 92 bb ff 45 f0 bc 3f 7e 1f 3d 02 7c b4 3d
       -0.004473538 -0.029330252 0.038938757 0.08812715
0001d0 46 8c c3 3c 2b ab 24 3d 99 e0 be bd cd 16 95 3c
       0.023870599 0.0402023 -0.09320182 0.018199349
0001e0 5a 85 06 3d b9 a7 8e 3d 8e 8e 09 bc 47 05 e7 3c
       0.032842018 0.06965584 -0.008395804 0.028200759
0001f0 21 ac 25 3d c8 a9 2c 3c ba eb 10 bc b8 33 70 3d
       0.040447358 0.010538526 -0.008845264 0.058643073
000200 9b 91 90 bc 35 31 41 3d d6 60 6c bc b9 7f 33 3d
       -0.017647555 0.047166068 -0.014427384 0.043822978
000210 f7 e7 75 bc 4a 5b 2d 3d 22 7a 19 3d dc 2e 8a bd
       -0.015008918 0.04232339 0.03746999 -0.06747219
000220 14 04 4c 3d cf 15 08 bc fc e5 a3 3a 82 72 4b 3d
       0.049808577 -0.008305981 0.0012504454 0.04966975
000230 d1 ba 23 3d d2 00 85 3c 18 1d 09 3c 40 a0 70 b9
       0.039973084 0.016235743 0.008368753 -0.00022947881
000240 02 55 0e bd a0 6a 23 bb 86 99 53 bd c4 23 04 bd
       -0.03474904 -0.002493538 -0.051660083 -0.03226067
000250 cb 28 54 bc 2c db eb bc ac 33 d4 bc 2b 97 52 bd
       -0.012949179 -0.028791033 -0.025903545 -0.051413696
000260 d8 42 2f bc 95 f0 a8 3b 90 b6 c0 bc 30 3c 7e bc
       -0.010697089 0.0051556327 -0.023524553 -0.0155172795
000270 f6 a3 bd bc 7c 9e 06 3c c7 82 30 3d 02 a5 94 bd
       -0.023149472 0.008216497 0.04309347 -0.07258035
000280 30 b3 7c 3c 57 3c 82 bd a4 a7 09 3d d2 1d 71 bc
       0.015423581 -0.06359165 0.03360714 -0.014716582
000290 1d e6 86 3d 1a 13 ee bc 94 0f 63 bc f2 de 31 bc
       0.065868594 -0.029061843 -0.013858695 -0.010856377
0002a0 c1 0e 13 3d 54 04 4f bd f4 52 5f 3c da 43 0d 3c
       0.035902742 -0.050541237 0.013630617 0.008622134
0002b0 39 d2 ee bc 15 67 f9 bc 4c 45 d6 bc 9e 13 1e bd
       -0.029152976 -0.030444661 -0.02615609 -0.038592927
0002c0 fa a6 68 bd 60 29 16 3a ec 84 6c 3d 38 06 24 ba
       -0.056799866 0.0005728211 0.05774395 -0.000625703
0002d0 ae 9e 55 3d 6e 68 2a 3c 56 c4 1d 3d 50 c2 a0 bc
       0.052153282 0.010400875 0.03851732 -0.019623905
0002e0 82 e6 29 3c 0a 11 15 bd 46 40 9d bb 23 bf 8a 3c
       0.010369899 -0.036393203 -0.0047989218 0.016936844
0002f0 35 ae d8 bb b6 68 2f bd f6 55 d7 3c 5e b1 b0 3c
       -0.006612564 -0.04282447 0.026286107 0.02156895
000300 13 d4 00 3c 49 ba 70 3c ca b0 57 3d 0a b1 0a 3c
       0.007863062 0.014692851 0.052658834 0.008465061
000310 fa fa 40 bd 34 e6 ab bb 46 04 46 3d 5a 97 db 3d
       -0.04711435 -0.005245948 0.04834392 0.107222274
000320 2e bc 11 3d ab 77 9a bc b0 b6 cc ba e0 b9 8d 3d
       0.035579853 -0.01885589 -0.001561841 0.069202185
000330 a8 b8 dc bc f6 70 3a bd dc 3e 4a 3d 4a c2 c4 3d
       -0.02694352 -0.045517884 0.049376354 0.0960737
000340 67 1b 93 bd b6 a8 fd bc 8f 05 90 bd e6 27 b0 3c
       -0.07182961 -0.030964237 -0.0703231 0.0215034
000350 90 62 51 bd 6c 7e 1c bd 83 00 63 3d 5e c1 12 3c
       -0.051119387 -0.038206503 0.05542041 0.008957235
000360 e9 2c b6 bd 98 11 60 3d b0 2a a7 bd 63 5a 9d 3c
       -0.08895285 0.05470428 -0.08162439 0.019208139
000370 51 b8 53 bd 66 b8 9c 3d e8 75 3f bd 80 4e 03 bd
       -0.05168945 0.07652359 -0.046743304 -0.032057285
000380 b6 8b 31 3d 42 90 4e 3d 9c 3a 62 3c 9c ab 85 3c
       0.04334613 0.050430544 0.013807919 0.016317181
000390 51 59 71 bd e4 55 8f 3c 3e fb 67 3d cc 47 21 3c
       -0.05892307 0.01749701 0.056636088 0.009843778
0003a0 11 c8 93 bd aa 78 8c 3d d4 ed 91 3a ff 87 0a bd
       -0.07215894 0.06858952 0.00111335 -0.033821102
0003b0 61 51 3d bd 9a c1 22 3d 12 ae dd bc ce 12 78 bd
       -0.046220187 0.039735414 -0.027060542 -0.06056481
0003c0 50 4d a6 3c c4 1c 03 3d 52 d3 cb 3c 8b a2 d6 3c
       0.020300537 0.032009855 0.024881039 0.026200553
0003d0 fc 12 2c 3c a1 6e 01 be c9 f2 95 3d 97 c6 3f 3d
       0.010502573 -0.12639858 0.07321698 0.04682025
0003e0 14 00 43 3b 30 1b 75 bb e0 81 f6 3c 41 ab 00 3d
       0.0029754685 -0.0037400238 0.030091226 0.03141332
0003f0 d8 7f bf bb 6f 3c 51 3c 61 88 c4 3c f8 a8 b3 bd
       -0.0058440976 0.012770756 0.023990812 -0.087724626

std.constant5 f4 [128, 128]
000000 b5 49 09 3d ed b9 3c 3d 12 29 c9 bd 0a 8a b1 3d
       0.033517558 0.04607575 -0.09822287 0.08668907
000010 bc 54 68 3d 4b 0d bd 3c d4 78 1d bc aa 78 b4 3d
       0.056721434 0.023077628 -0.009611327 0.08812077
000020 e6 56 02 bd bd 45 97 bd da af cb 3d a6 f8 82 bc
       -0.031821154 -0.073863484 0.099456504 -0.015987705
000030 0c cf a9 3b af 87 9a bc 09 fc e0 bc d3 95 84 bc
       0.0051821526 -0.018863527 -0.02746393 -0.016184723
000040 2c c6 ee bc 6f e9 c0 3c 3e 48 40 bd 65 d5 2f 3c
       -0.02914723 0.02354881 -0.046943896 0.01073203
000050 3b 73 46 3c 16 be 15 3d b9 3b 12 bc 7e 63 8d bc
       0.012112434 0.036558233 -0.008925372 -0.017259356
000060 9b d3 8d bb 14 08 94 bd 3d 08 02 3c 72 2f 19 bd
       -0.004328204 -0.07228103 0.0079365345 -0.037398763
000070 66 32 de bb 34 c6 81 3d 0a 83 21 bd 5d a5 d9 3c
       -0.0067809103 0.06336632 -0.03943161 0.02656811
000080 ae 7d 96 3d 52 df ee bc 88 a2 0b bd 5e 19 78 3d
       0.0734819 -0.029159222 -0.03409055 0.060571067
000090 98 91 c6 3b 04 6b 13 bd 72 97 a8 3c ee 7a 02 3c
       0.0060598366 -0.03599073 0.020580027 0.007963879
0000a0 e2 60 b2 3d 08 b2 98 bc 64 fb eb bd b4 e0 80 3d
       0.08709885 -0.01863958 -0.11522558 0.06292859
0000b0 ce 04 ca 3c 51 b8 a5 3d f9 9f 80 3c ce ef 82 bd
       0.024660494 0.08091796 0.01570128 -0.06393395
0000c0 b9 8a 98 3c 54 83 d3 bc 80 82 12 b9 cc a0 b4 3d
       0.018620836 -0.025819458 -0.0001397226 0.08819732
0000d0 ac 2b 84 bd b6 b1 6a 3d 38 cc a7 bc 25 b6 53 3d
       -0.06453642 0.057298385 -0.020483121 0.05168738
0000e0 24 0a ac bd 9c b0 9f bc 1e 08 87 3b 26 02 c7 3c
       -0.08400372 -0.019493394 0.0041208407 0.024293017
0000f0 f0 c0 42 3d 2c 6a 82 bc db d3 c4 3c 70 0f 6e ba
       0.04754728 -0.015919767 0.024026802 -0.000908128
000100 aa 48 48 3c ec 27 ea 3c ec c4 b7 bc 28 0a 77 3d
       0.012224356 0.02858349 -0.022432767 0.06031242
000110 12 82 50 bd d3 8d 06 3d 83 d8 02 3d 8b 15 62 3c
       -0.050905295 0.032850098 0.031944763 0.013799082
000120 d1 11 87 bd ee dc b3 bb 1d 1a 86 bd 88 71 32 bd
       -0.06595195 -0.0054889834 -0.065479495 -0.043565303
000130 15 8a 6f 3b 97 d1 61 bc ec 5c dd 3c f0 18 81 3c
       0.003655081 -0.01378288 0.027021848 0.015758961
000140 e3 e2 26 3c a5 19 e6 bc 40 0f 41 bd a8 d8 82 bd
       0.01018593 -0.0280884 -0.047133684 -0.0638898
000150 00 4f a7 bc fa f8 72 bb 45 a6 46 bd 66 25 a8 3d
       -0.020423412 -0.003707467 -0.04849841 0.08210258
000160 82 99 42 bc 70 f1 12 3d 37 87 40 3d 98 c5 bf bc
       -0.011877419 0.035874784 0.04700395 -0.02340965
000170 82 6c 5e 3d 3f 83 c9 bd c0 29 7f ba c2 96 09 bc
       0.0543027 -0.09839486 -0.0009733699 -0.00839776
000180 25 7f 12 3c d4 9e 81 3d b9 9e ad 3d b7 b9 cf bc
       0.008941446 0.06329122 0.084775396 -0.02535711
000190 49 60 b4 bd 44 81 90 bd 94 96 cd 3b c8 ec b7 3b
       -0.088074274 -0.070559055 0.006274054 0.0056129433
0001a0 5e 7d 60 bd 62 df 01 bd 39 f2 60 3d cc 85 5e 3d
       -0.05480706 -0.031707175 0.0549185 0.054326817
0001b0 d4 6b 8b bd de b6 90 bd c8 e7 f8 bc 19 26 c7 bc
       -0.06807676 -0.07066129 -0.03038396 -0.024310159
0001c0 67 11 35 3c 7a bf c0 3c ea 5c 4e 3d 2b 41 24 3c
       0.011051512 0.023528803 0.05038158 0.010025303
0001d0 97 b6 d8 bc e0 35 16 3d 5e 3d cc bb dc 83 32 bd
       -0.026454253 0.036672473 -0.0062329015 -0.043582782
0001e0 f8 7d 44 bc f8 25 50 bd 6e 9a ae bd ee a4 a7 3d
       -0.011992924 -0.05081746 -0.08525549 0.08185755
0001f0 5f f9 70 bd c5 2b 0c bd 41 60 94 3d 1e af 29 bd
       -0.05883157 -0.03422143 0.072449215 -0.04142677
000200 b1 d7 e7 bc 9d d2 49 3d a7 34 ed bc ac f2 91 bc
       -0.028301092 0.049273122 -0.02895577 -0.01781591
000210 f0 b5 38 3c b4 47 2a 3d 26 e5 b1 3c cb f3 07 bd
       0.011273846 0.041572288 0.021715712 -0.033191483
000220 78 3d 77 bc 13 c2 c2 3d 81 a2 5d 3b 84 e3 62 3d
       -0.015090339 0.09509673 0.0033818784 0.055392757
000230 5b 9a 9e 3d d5 ae d3 3c 36 5b 18 3d 09 7e 40 bc
       0.07744285 0.025840202 0.03719636 -0.011748799
000240 59 98 96 3c 74 c3 8e 3d 04 b6 ae 3c d7 fc 41 3c
       0.018383192 0.069708735 0.021327026 0.011840067
000250 48 91 be bc 01 12 cc bc 4c 42 cb ba fa d5 bc 3d
       -0.023262635 -0.024910929 -0.0015507429 0.092205
000260 c8 b3 ff 3b 88 3c 3f bd 16 91 a1 bd d0 4c 54 3d
       0.007803414 -0.046688586 -0.07889001 0.051831067
000270 16 b0 c9 bc e9 39 25 bd a7 0f 7d 3d ed bf cb 3c
       -0.024620097 -0.04033843 0.061782505 0.02487179
000280 64 80 fe bc 95 be 96 bc 59 1f 88 bd 2f 87 ca bc
       -0.03106708 -0.018401423 -0.06646604 -0.024722664
000290 8a 95 3e bc 72 b5 e4 3c 44 ae db 3c f8 c2 92 bd
       -0.011632333 0.027918551 0.026816495 -0.071660936
0002a0 e3 42 80 bd 36 4e 88 bc 96 7e e6 ba f3 7f 8d 3c
       -0.06262758 -0.016638856 -0.0017585333 0.017272925
0002b0 b0 49 92 bc 67 68 ae 3d 52 3f ae bc 8c 9b 1f bc
       -0.017857403 0.08516007 -0.021270428 -0.009741675
0002c0 60 06 aa bc 5e df 78 bd f4 2b 1c bd 79 b5 03 bd
       -0.020754993 -0.060759895 -0.038127854 -0.032155488
0002d0 05 d4 6d bc 03 d3 37 3d 59 02 38 3c 0b d3 24 bd
       -0.014515881 0.04487897 0.0112310285 -0.04024033
0002e0 38 bb 67 3c e2 82 66 bc 3e cc e8 bc d1 48 72 bc
       0.0141437575 -0.014069291 -0.028417703 -0.014787869
0002f0 66 bb 9a bc fb db e2 3c 88 3f df bb e3 47 fa bc
       -0.018888187 0.027692785 -0.0068129934 -0.030551856
000300 10 ea a1 3a a3 88 ae 3d b8 a9 06 3b f0 a5 88 3d
       0.0012353081 0.08522155 0.0020547938 0.06672275
000310 14 96 2f 3b d5 1c 2f bd 11 3b 98 3d 7b 88 80 3c
       0.0026792334 -0.042752106 0.07433141 0.015690079
000320 e1 3c 66 3d b6 0c 3b bd ee e2 b4 3d fc 45 89 3d
       0.056210402 -0.04566642 0.08832346 0.067028016
000330 77 df 6c bd 9f ad af 3d aa 10 c5 3b 73 e3 16 bc
       -0.0578303 0.085780375 0.0060139494 -0.009209502
000340 8d b9 e3 3d 83 ff 89 bd 83 f4 ab 3d ac f1 b5 bc
       0.111193754 -0.06738188 0.08396246 -0.022209965
000350 3d 73 b0 bc 96 11 1a bc 9f b7 c8 3d f4 71 19 bb
       -0.021539325 -0.009403607 0.09800648 -0.0023413869
000360 ca b2 19 bd 0d 88 d5 bd c1 57 d9 bc 1d 92 bf bb
       -0.037524022 -0.1042634 -0.026531102 -0.0058462755
000370 6f 5c 00 bd 27 1c 87 bb d9 82 8d bb 38 b9 ec bc
       -0.03133815 -0.004123229 -0.004318577 -0.028896913
000380 e2 0e 60 3d 9b 7a 22 3d d7 99 91 3c f0 07 24 bd
       0.054701693 0.039667707 0.017773552 -0.040046632
000390 42 a2 58 bc 0a a5 ea 3c e6 54 07 bd 80 70 1b b9
       -0.013222279 0.02864315 -0.03303995 -0.00014823861
0003a0 ea ef e1 3c 9a 57 83 3c a5 a5 27 bd aa ee f7 3c
       0.02758022 0.016032983 -0.040929455 0.030265171
0003b0 6a d8 7f 3d 03 ac 7e bd dc eb 94 3d 13 98 92 3d
       0.062462248 -0.062175762 0.07271549 0.07157912
0003c0 b0 24 8b 3d 14 37 70 bd 30 93 06 bc 46 89 f5 bc
       0.06794107 -0.058646277 -0.008213803 -0.029972684
0003d0 66 6e 11 3c d0 f3 d6 bc 5e 86 1c 3d 43 fc a1 bc
       0.008876419 -0.026239306 0.03821408 -0.019773608
0003e0 c6 83 d3 3c e6 83 8d bc de 92 96 3d 75 2b 9f bb
       0.02581967 -0.017274808 0.073522314 -0.0048574754
0003f0 d2 52 0a bd 59 b0 03 3c e3 59 db bc 66 61 46 3d
       -0.03377039 0.00803765 -0.02677626 0.04843273

std.constant6 f4 [128, 128]
000000 e0 4c 5b bd 78 2d 03 3b e8 0c a5 3c 16 87 96 bb
       -0.05354011 0.0020016115 0.020147756 -0.00459374
000010 ad d9 32 bd 76 5c 16 bd 30 7f 64 3c b8 e2 bc bc
       -0.043664623 -0.03670927 0.0139463395 -0.023057327
000020 1c da c6 bc 06 d2 56 bd 08 33 20 bd d0 92 2d bd
       -0.024273925 -0.052446388 -0.039111167 -0.04237634
000030 38 72 a3 3c 9a f3 c9 3c 40 4f 45 ba 36 64 f5 bc
       0.019951925 0.024652291 -0.0007526763 -0.02995501
000040 e4 2f 2e 3c 04 23 bc 3c a1 9b 41 3d f8 79 21 3d
       0.010631535 0.022965916 0.04726756 0.03942296
000050 54 01 95 bd 64 65 0b bd 60 1b 88 3b f2 bc 98 3d
       -0.07275644 -0.03403224 0.004153654 0.074579135
000060 80 34 60 ba 0c 54 87 3c 49 03 21 3d 12 45 28 bd
       -0.0008552745 0.016519569 0.039309774 -0.041081496
000070 58 28 92 bc 3e 3f ac 3c 90 ee 95 bb b8 c6 b3 3c
       -0.017841503 0.02102625 -0.004575558 0.021945342
000080 11 e5 15 3c ae eb fc 3c 44 80 96 bb da ac 03 3d
       0.009148852 0.0308741 -0.004592927 0.032147266
000090 d0 e1 77 3c e0 f2 24 3d 65 19 af bc 9f 94 31 3d
       0.0151295215 0.040270686 -0.021374414 0.043354627
0000a0 0d 15 aa 3c 74 54 cf 3c 5c e1 20 bd f0 e7 1c 3b
       0.02076199 0.025308825 -0.03927742 0.0023941956
0000b0 34 83 42 bd bc 8e 27 bd 5d 1f 20 3d 20 ab 73 bc
       -0.047488406 -0.040907606 0.03909241 -0.014872342
0000c0 17 49 74 3c 10 fa 43 bd d2 50 1e 3c 8f f5 01 bd
       0.014910004 -0.0478459 0.009662824 -0.031728324
0000d0 a8 14 26 bd 3e 60 19 3d 6c 29 c6 bb 34 3d 1c bc
       -0.040547043 0.0374453 -0.0060474183 -0.009536076
0000e0 c9 2e 9b 3c 09 03 0f bd 1f ea ae 3d b6 72 4c bd
       0.018943207 -0.034915004 0.08540749 -0.049914084
0000f0 b9 7b d9 3c 80 1d 0f 3c 7d 16 90 bc d0 74 5b 3c
       0.026548253 0.008735061 -0.017588848 0.0133945495
000100 a7 c4 90 3c a6 08 4e bc ab 3a c9 bb be b8 51 bd
       0.017671896 -0.012575304 -0.006141027 -0.051201575
000110 10 52 56 bd d5 a8 76 3d 30 ef 78 bd 87 7b 1e 3d
       -0.052324355 0.060219605 -0.060774982 0.038692024
000120 ac 43 b1 3d c8 f5 13 bd c0 df 3e 3d 2e 6c 80 bd
       0.086554855 -0.036123067 0.046600103 -0.06270634
000130 9e e7 4c bd 9f 35 e9 3c 04 8e 9e 3a c1 14 b5 bc
       -0.050025575 0.028467951 0.0012096767 -0.022104623
000140 1c ae c4 bc 52 75 b9 bb c5 3f 26 3d 2c a8 f0 3c
       -0.024008803 -0.0056597376 0.04058816 0.029377066
000150 84 7f 9d 3d 9b 22 08 bd 9c f6 07 bd 85 d2 b2 bc
       0.07690337 -0.033236127 -0.03319417 -0.0218289
000160 14 62 cf 3d 6f ed 8f 3d a8 4c af bc ba 51 e7 3c
       0.10126129 0.07027709 -0.021398857 0.028237212
000170 e5 18 3f 3d d6 da f1 bb 32 12 b0 3c 5c 18 05 bd
       0.0466546 -0.0073808236 0.021493051 -0.032493934
000180 4b 94 1e bd fe 46 ba bc de f7 a7 3c 22 ea 8f 3c
       -0.038715642 -0.02273893 0.020503934 0.017567698
000190 6f 9a 1a 3c a4 e9 80 3d 7d 85 9c bd 74 95 0b bc
       0.009436234 0.062945634 -0.07642648 -0.008519519
0001a0 0c ed e3 bc 08 d6 77 3c a7 6d 58 bc 44 43 8f 3b
       -0.027822994 0.015126713 -0.013209737 0.0043720324
0001b0 48 e9 b0 ba 78 06 1f bb d8 61 e3 bc 00 60 20 bd
       -0.0013497258 -0.002426533 -0.027756616 -0.039154053
0001c0 8e 4b 91 bd bb 0e 51 bd d2 1b c5 3d a9 ea 5b 3d
       -0.07094489 -0.05103944 0.09624447 0.053690586
0001d0 c4 f0 ae 3a 7f 00 c8 bc 7d 49 3e bd 0c 01 19 bd
       0.00133469 -0.024414299 -0.046456803 -0.037354514
0001e0 22 cc 1c bd b4 1b 56 bc b1 69 a3 bd da 2f 2a 3d
       -0.038280614 -0.013068128 -0.079791434 0.04154954
0001f0 56 f3 3f 3c 6c 5e 28 3d 10 dd f0 bb 82 90 54 3c
       0.011715731 0.041105673 -0.0073505715 0.0129739065
000200 b1 fc 94 bc c0 e4 0f bd 04 1e d5 ba fd 0b 61 3d
       -0.018186899 -0.035130262 -0.0016259556 0.054943074
000210 5c c1 c1 bc 35 5f 44 3d 12 e9 af 3c 49 3c ca 3c
       -0.023651771 0.04794236 0.021473441 0.02468695
000220 c2 39 83 3d b4 f2 5d bd 63 63 fa bc 47 75 11 3d
       0.06407501 -0.054186538 -0.03056497 0.035512235
000230 f4 4d 82 3d 34 b5 a8 bb 3a 4c 8d 3d e2 86 e8 3b
       0.06362525 -0.005148554 0.06899305 0.0070961574
000240 56 7a 6f 3d 74 09 ac bc 53 d3 8a bd 14 87 02 3d
       0.058466278 -0.021000601 -0.06778588 0.0318671
000250 2c 4f 79 bd dc 40 c4 39 dd 03 c2 3c c8 22 43 bd
       -0.06086652 0.00037432357 0.023683483 -0.04764059
000260 0f 44 0d 3d ef b9 1e 3d 05 0b a5 3d 62 7c 79 3b
       0.034488734 0.03875154 0.080587424 0.0038068523
000270 e5 22 88 bc 90 dd cc bb 09 6b 37 bd 7b c2 69 bd
       -0.016618202 -0.0062519982 -0.04477981 -0.057070237
000280 74 c0 84 3d 20 c1 44 bd 8c b1 04 bd 7e 59 28 3d
       0.0648202 -0.04803574 -0.032395884 0.04110097
000290 55 da be 3c a2 46 35 bd f4 87 34 3c 53 f3 18 3d
       0.023297468 -0.044256814 0.011018742 0.037341427
0002a0 f1 5d 91 bd 16 2b 8b 3d 7b 28 81 3c 69 b2 68 3d
       -0.07097996 0.06795327 0.015766373 0.05681077
0002b0 61 23 a3 bd fc 0c e7 3b 9c 57 7b 3b 0a e6 90 3c
       -0.07965732 0.0070511084 0.003835178 0.017687816
0002c0 d4 9e b2 bd 65 b3 95 bd 8a 04 2e bc 49 99 14 bd
       -0.087217 -0.073096074 -0.010621199 -0.036278997
0002d0 14 9c c6 3c a3 18 b2 bb d0 88 00 3d 6a ec 84 3d
       0.024244346 -0.005435066 0.031380475 0.06490405
0002e0 60 75 eb 3c 55 c5 9c bc 9e 0b 5e 3c a2 9e 61 3d
       0.028742492 -0.019137064 0.013552574 0.055082925
0002f0 37 f4 f9 bb 7c 8f f2 bb 2b 6d 35 bd a3 99 5f 3c
       -0.0076279896 -0.0074023586 -0.044293564 0.01364747
000300 85 58 b0 bd e8 82 c5 3c ce b9 87 3d 2e 41 b3 bd
       -0.08610634 0.024110273 0.06627236 -0.087526664
000310 d4 3b 85 3d c5 0b 9b 3d 24 e3 2b bd fb a2 0a 3d
       0.06505552 0.07570604 -0.041964665 0.033846837
000320 6b 40 c7 3d b2 f9 f1 bc 97 c5 1b 3c c0 d5 97 bc
       0.097290836 -0.02953801 0.009507558 -0.018534541
000330 35 a7 aa 3d 5e 70 d3 3c bc 3c 1b 3d 9f f2 69 3a
       0.083326735 0.025810417 0.037899718 0.0008924398
000340 9e cd 98 bc 1d 31 88 bd f4 a4 8a bd 5c 6c 18 bd
       -0.018652733 -0.066499926 -0.067697436 -0.037212715
000350 b6 44 b1 bb 6f 2f 4c 3c 53 31 04 bd 7c d3 48 3d
       -0.0054098023 0.012462481 -0.0322736 0.049029812
000360 5b 5f ca 3c 8a 27 12 be 94 97 96 3d 2b 38 20 bc
       0.024703672 -0.14272895 0.0735313 -0.0097790165
000370 df 27 95 bc 7c 9e 60 3d 0d 95 6c bd 19 e6 12 bd
       -0.018207489 0.054838642 -0.057759333 -0.03586397
000380 39 da 62 bd 98 32 0b 3c 80 c2 97 3c 37 57 36 bd
       -0.055383895 0.008495949 0.018525362 -0.04451677
000390 83 e7 5b bd 28 5d 34 bd fa fe 50 bd 6b 1a ed 3c
       -0.053687584 -0.044034153 -0.051024415 0.028943261
0003a0 1f ca e8 bc 56 d3 9a bc ea 90 8f 3d a7 bc 29 bc
       -0.028416691 -0.018899601 0.07010062 -0.01035992
0003b0 4d 11 d1 bc 59 d9 6a bd 41 4a fe 3c 89 62 a3 3c
       -0.025520945 -0.057336185 0.031041266 0.019944446
0003c0 bd 07 17 3d 05 c8 9d bb 77 e9 28 bb 8c fe d4 3a
       0.036872614 -0.004815104 -0.0025773922 0.0016250177
0003d0 7e cd d0 3c 37 c8 10 3d 90 31 a7 3d d6 be 82 bc
       0.025488611 0.03534719 0.0816375 -0.015960138
0003e0 40 1f bc 3c 11 06 1f bd e8 ab 42 bd 02 40 10 bd
       0.02296412 -0.038824145 -0.047527224 -0.035217293
0003f0 5b cc 04 bd 2a 4a 33 bc 10 22 e2 3d 1e 3e 0e 3d
       -0.03242145 -0.010942975 0.11041653 0.03472721

std.constant7 f4 [128]
000000 5d 07 05 3e c8 d6 cb 3d e5 d5 ba bb 55 0b 0e bc
       0.1299109 0.09953076 -0.0057017677 -0.008669694
000010 1c cb be 3d 32 03 7d bc 81 da 0d bb bc 86 f5 bb
       0.09316084 -0.015442656 -0.002164513 -0.007492868
000020 86 37 f2 3b 1e db 46 bc e3 d2 46 bc 83 53 9d 3c
       0.007391873 -0.012137203 -0.01213524 0.01920486
000030 1d 2b 86 3c ae 65 1e 3c ec 86 1a 3c 81 20 e4 3b
       0.01637798 0.009667797 0.009431582 0.0069618826
000040 18 7a ec 3b d3 3c 36 3d 94 5d 03 3d 54 83 b0 3d
       0.007216703 0.0444916 0.032071665 0.08618799
000050 75 8b 0f bc 13 a2 ea bb a0 9a e1 3c df cf f3 3b
       -0.0087612765 -0.007160434 0.027539551 0.0074405516
000060 2b 92 01 bc ef ca 83 bc d5 99 30 3a 1a 87 45 3b
       -0.007908384 -0.016087977 0.000673679 0.0030140341
000070 d5 4a cb 3d 8b ad b0 3c a3 76 18 bb 86 52 54 3b
       0.099263825 0.021567127 -0.0023264072 0.003239782
000080 a2 e9 5f 3c 2c c5 4f bc 0a 23 e3 3a da c3 ef 3d
       0.013666542 -0.012681287 0.0017329168 0.117072776
000090 42 cf 49 3b 5f 26 a2 bc 7c 64 6c bc 08 02 65 bc
       0.0030793701 -0.019793687 -0.014428254 -0.013977535
0000a0 d8 83 26 bc 8f 60 30 bc 5e e1 c7 3c d8 17 1d bc
       -0.01016327 -0.010765209 0.024399456 -0.009588204
0000b0 fc b4 10 bc 96 4e 8d 3b 1d 1e 6c 3c 40 f9 90 bb
       -0.008832213 0.0043123467 0.014411476 -0.004424244
0000c0 62 6d 39 3c 43 de a8 3c d0 33 71 b9 26 53 5c bc
       0.011317583 0.020613795 -0.00023002853 -0.0134475585
0000d0 bd 67 98 3d c9 c1 0f bc 73 95 22 bc b2 44 ee 3c
       0.074416615 -0.008774229 -0.009923327 0.02908549
0000e0 56 ba 36 3a ef 47 59 3a 34 30 8f 3b eb 85 05 3c
       0.0006970515 0.0008288612 0.00436976 0.008149604
0000f0 b4 fc 48 3d 41 44 86 bc 6a f4 01 bc 41 90 ef bb
       0.04906912 -0.016389968 -0.007931808 -0.0073108976
000100 7a 88 7e bc cf 75 94 3c 5f 51 9b 3b 1f ac 42 3c
       -0.015535468 0.018122582 0.004739925 0.011881857
000110 ae 58 0d 3d cb 6f a6 b9 3a cb 15 3c c0 ce 25 3d
       0.0345084 -0.0003174528 0.009142691 0.040480375
000120 82 b7 03 3d d7 7a cb 3c c8 31 1d 3d 3f 67 c9 bb
       0.03215743 0.024838848 0.038377553 -0.006146341
000130 ca 5a 0f 3e a8 74 0a 3c 5a de c0 ba ff f3 26 3b
       0.13999477 0.008450665 -0.0014714703 0.0025475023
000140 64 87 3c 3c a4 09 40 3d 53 b7 fe 3d ba 49 54 bc
       0.011506889 0.046884194 0.1243731 -0.012957031
000150 46 4c 31 ba 2a 98 65 3b a3 a1 1b 3c b1 3f e1 bb
       -0.000676338 0.0035033324 0.009498986 -0.0068740477
000160 56 d5 43 bb 81 93 31 ba 96 f9 55 3c ea 62 3d bc
       -0.0029881797 -0.0006773994 0.013059994 -0.0115592275
000170 4b ae 5d bc 99 92 df 3c 07 05 a4 3b 6e f7 fb ba
       -0.013530324 0.027291583 0.005005482 -0.001922352
000180 24 e6 8c 3b ef 31 45 bb 9a 61 43 bb a3 6a b9 3d
       0.004299896 -0.0030089577 -0.0029812814 0.090535425
000190 1c ae bd 3d 9d 9e 95 3d 7c 3d b0 3b 7b 91 01 bc
       0.09261724 0.07305644 0.0053784233 -0.00790822
0001a0 1c 72 3f 3d b2 c2 c7 3d b9 0f 1e bc 95 75 b2 3d
       0.046739683 0.09753932 -0.009647303 0.08713833
0001b0 cd 68 19 3c 56 6c 2f 3c 91 f9 6d 3d 9c f0 3c bc
       0.009363365 0.010706982 0.058099333 -0.011531975
0001c0 67 14 91 bb e0 0d f7 ba 4c f8 df bb 76 e6 73 3d
       -0.004427481 -0.001884874 -0.006835019 0.059545957
0001d0 92 5c c0 3a 68 83 c3 bb c7 28 cb 3b 6c 20 35 bc
       0.0014676026 -0.0059665926 0.0061999294 -0.011055093
0001e0 7d 39 93 bb 4f bf 23 3c 4f 09 2b 3d b5 70 98 3c
       -0.004492937 0.009994342 0.041756924 0.01860843
0001f0 4f 25 64 bb ef 61 8e 3c 5b b9 29 bb 22 9c 8a bc
       -0.0034812277 0.017380683 -0.0025897834 -0.016920153

std.constant8 f4 [128]
000000 5f 11 68 bc 03 b4 82 3b e5 2b 32 3c e4 16 1f 3c
       -0.014164298 0.003988744 0.010874723 0.009710047
000010 09 7c 48 bc fe 00 22 bc b0 dd a7 ba d3 39 66 bc
       -0.012236604 -0.009887932 -0.0012807157 -0.014051872
000020 eb 43 b2 bb 13 30 7f 3c 32 43 5d 3c b2 ed 55 bb
       -0.0054402254 0.015575427 0.01350479 -0.0032642898
000030 c9 ce 0e 3a 97 8a 50 3c 8d 4d 44 3b 1c 25 59 bc
       0.00054476835 0.012728355 0.002995345 -0.0132534765
000040 0a 25 9e 3a 8e 28 e6 bb 96 d0 0a ba d4 cd db 3b
       0.0012065482 -0.0070238775 -0.0005295364 0.0067078862
000050 95 8e 59 bb 86 9a 58 bc 41 ca 2a 3b a0 a1 92 3a
       -0.0033196558 -0.013220435 0.0026060494 0.0011187084
000060 44 14 aa ba 01 6e 86 3c 78 5c 1d bb 52 22 80 3b
       -0.001297601 0.016409876 -0.0024011414 0.0039103413
000070 64 6b 1b 3b a7 e6 73 bb b3 19 ed 3b ee 9d c2 3a
       0.0023715133 -0.0037216337 0.0072357296 0.0014848092
000080 60 66 7a bb 5f bc 6e bc 11 7f 61 3c e0 5d 5a bc
       -0.0038207993 -0.014571278 0.013763205 -0.013328046
000090 2b 4f b4 3b 9d fe 8c bc 13 39 79 bc 1d 5e 6f bc
       0.0055026016 -0.017211253 -0.015211361 -0.014609841
0000a0 a2 3d 4a bc 23 21 5b bc 2c 89 0f bc 30 de 54 3c
       -0.012343796 -0.0133746 -0.008760732 0.012992427
0000b0 61 80 86 3b 8c db 81 3c 39 ec 5f ba 22 37 3a 3c
       0.0041046594 0.015851758 -0.0008541975 0.011365684
0000c0 40 b6 14 bb f6 d1 cd 39 5d db 58 bb 26 c5 af bb
       -0.0022691637 0.0003925708 -0.0033089735 -0.005364078
0000d0 40 f5 4d bc a0 55 c7 bb 42 bf 6d bc 47 28 ed bb
       -0.012570679 -0.0060832053 -0.014510931 -0.0072374674
0000e0 96 30 74 3c 81 1b a3 bb 16 30 81 3b f8 8d 81 3b
       0.014904162 -0.004977644 0.0039425 0.0039536916
0000f0 09 5b ea 3b a0 2e 87 bc 56 48 a4 bb 8b 5b 73 3c
       0.0071519655 -0.016501725 -0.005013506 0.0148533685
000100 01 89 b0 bb e5 d9 71 3c 51 0e 9f bb 76 02 3a bb
       -0.005387426 0.014761423 -0.0048540016 -0.0028382814
000110 a5 7d cf 3a 25 af 91 3a 96 07 14 bb 69 cd 14 bc
       0.0015830292 0.0011114819 -0.002258753 -0.009082177
000120 06 b1 2c 3b e2 94 62 bc 3e 4f e9 3a 4b a3 22 3a
       0.0026350631 -0.013829442 0.0017800105 0.0006204142
000130 bc 5d 3b 3b 9c 1e 5c b9 54 2c 4a bb 3a e2 4a 3c
       0.0028589806 -0.00020992238 -0.0030849176 0.012383038
000140 a2 95 20 bc e3 f4 36 3b a3 32 1b 3c 06 4e 18 bc
       -0.0098013 0.002791696 0.009472522 -0.009295946
000150 d6 ef 3e 3c ea 4a 6b bc ae 30 40 bc 8d 2e 3c bb
       0.011653861 -0.014361123 -0.011730356 -0.002871427
000160 b4 f9 95 3b df 30 50 bc df 2f a8 b9 d1 9c 58 bc
       0.004576886 -0.012706964 -0.00032079124 -0.013220982
000170 dc 78 6f bc ce 81 df ba b9 89 05 bc c1 30 f8 3a
       -0.014616217 -0.0017052235 -0.008150511 0.0018935428
000180 c8 1d 5a ba 2f dc 68 bc 3e d1 9c b9 4f 80 69 bc
       -0.0008320478 -0.014212652 -0.00029910536 -0.014251783
000190 47 2e 6c bb d5 50 10 3c 0e 28 39 bc 78 6c f7 ba
       -0.0036038326 0.008808334 -0.011301054 -0.0018876931
0001a0 a8 cb dc 3b 91 fd 89 bb 90 b5 ae 3a f1 b7 db 3b
       0.006738145 -0.0042111357 0.0013329256 0.006705277
0001b0 64 e4 fe ba 40 95 74 bc 29 02 e6 ba 97 12 45 bc
       -0.0019446728 -0.014928162 -0.0017548251 -0.012028358
0001c0 ed fd 3d ba b7 01 81 3b 8f 60 8b bc 69 18 94 3b
       -0.0007247616 0.003936972 -0.017013816 0.0045195115
0001d0 c7 d1 76 3c d0 c7 1f bc a4 c4 62 3a f9 fe 4f 3c
       0.015064663 -0.009752229 0.00086505176 0.012695068
0001e0 bc ea 06 bb 39 f0 65 bb 55 e6 00 3b 3f b1 11 bc
       -0.002058669 -0.003508581 0.0019668539 -0.008892356
0001f0 ee 10 d1 39 c8 29 f1 3b c4 20 44 3c 6f e2 82 3c
       0.000398762 0.007359717 0.011970703 0.015977113

std.constant9 f4 [128]
000000 00 00 80 3f 00 00 80 3f 00 00 80 3f 00 00 80 3f
       1.0 1.0 1.0 1.0
000010 00 00 80 3f 00 00 80 3f 00 00 80 3f 00 00 80 3f
       1.0 1.0 1.0 1.0
000020 00 00 80 3f 00 00 80 3f 00 00 80 3f 00 00 80 3f
       1.0 1.0 1.0 1.0
000030 00 00 80 3f 00 00 80 3f 00 00 80 3f 00 00 80 3f
       1.0 1.0 1.0 1.0
000040 00 00 80 3f 00 00 80 3f 00 00 80 3f 00 00 80 3f
       1.0 1.0 1.0 1.0
000050 00 00 80 3f 00 00 80 3f 00 00 80 3f 00 00 80 3f
       1.0 1.0 1.0 1.0
000060 00 00 80 3f 00 00 80 3f 00 00 80 3f 00 00 80 3f
       1.0 1.0 1.0 1.0
000070 00 00 80 3f 00 00 80 3f 00 00 80 3f 00 00 80 3f
       1.0 1.0 1.0 1.0
000080 00 00 80 3f 00 00 80 3f 00 00 80 3f 00 00 80 3f
       1.0 1.0 1.0 1.0
000090 00 00 80 3f 00 00 80 3f 00 00 80 3f 00 00 80 3f
       1.0 1.0 1.0 1.0
0000a0 00 00 80 3f 00 00 80 3f 00 00 80 3f 00 00 80 3f
       1.0 1.0 1.0 1.0
0000b0 00 00 80 3f 00 00 80 3f 00 00 80 3f 00 00 80 3f
       1.0 1.0 1.0 1.0
0000c0 00 00 80 3f 00 00 80 3f 00 00 80 3f 00 00 80 3f
       1.0 1.0 1.0 1.0
0000d0 00 00 80 3f 00 00 80 3f 00 00 80 3f 00 00 80 3f
       1.0 1.0 1.0 1.0
0000e0 00 00 80 3f 00 00 80 3f 00 00 80 3f 00 00 80 3f
       1.0 1.0 1.0 1.0
0000f0 00 00 80 3f 00 00 80 3f 00 00 80 3f 00 00 80 3f
       1.0 1.0 1.0 1.0
000100 00 00 80 3f 00 00 80 3f 00 00 80 3f 00 00 80 3f
       1.0 1.0 1.0 1.0
000110 00 00 80 3f 00 00 80 3f 00 00 80 3f 00 00 80 3f
       1.0 1.0 1.0 1.0
000120 00 00 80 3f 00 00 80 3f 00 00 80 3f 00 00 80 3f
       1.0 1.0 1.0 1.0
000130 00 00 80 3f 00 00 80 3f 00 00 80 3f 00 00 80 3f
       1.0 1.0 1.0 1.0
000140 00 00 80 3f 00 00 80 3f 00 00 80 3f 00 00 80 3f
       1.0 1.0 1.0 1.0
000150 00 00 80 3f 00 00 80 3f 00 00 80 3f 00 00 80 3f
       1.0 1.0 1.0 1.0
000160 00 00 80 3f 00 00 80 3f 00 00 80 3f 00 00 80 3f
       1.0 1.0 1.0 1.0
000170 00 00 80 3f 00 00 80 3f 00 00 80 3f 00 00 80 3f
       1.0 1.0 1.0 1.0
000180 00 00 80 3f 00 00 80 3f 00 00 80 3f 00 00 80 3f
       1.0 1.0 1.0 1.0
000190 00 00 80 3f 00 00 80 3f 00 00 80 3f 00 00 80 3f
       1.0 1.0 1.0 1.0
0001a0 00 00 80 3f 00 00 80 3f 00 00 80 3f 00 00 80 3f
       1.0 1.0 1.0 1.0
0001b0 00 00 80 3f 00 00 80 3f 00 00 80 3f 00 00 80 3f
       1.0 1.0 1.0 1.0
0001c0 00 00 80 3f 00 00 80 3f 00 00 80 3f 00 00 80 3f
       1.0 1.0 1.0 1.0
0001d0 00 00 80 3f 00 00 80 3f 00 00 80 3f 00 00 80 3f
       1.0 1.0 1.0 1.0
0001e0 00 00 80 3f 00 00 80 3f 00 00 80 3f 00 00 80 3f
       1.0 1.0 1.0 1.0
0001f0 00 00 80 3f 00 00 80 3f 00 00 80 3f 00 00 80 3f
       1.0 1.0 1.0 1.0

std.constant10 f4 [128]
000000 df 13 03 3e b0 63 c8 3d e2 47 bc bb a5 fc 0d bc
       0.12800549 0.09784639 -0.005745874 -0.008666192
000010 5f 3b bf 3d a3 86 79 bc 8b a4 16 bb 40 9d f4 bb
       0.09337496 -0.015229854 -0.002298626 -0.0074650347
000020 29 45 08 3c 05 99 49 bc 87 ba 48 bc 42 86 a5 3c
       0.00831727 -0.012304549 -0.012251503 0.02020562
000030 f2 91 8c 3c fb 8d 1d 3c 36 cc 14 3c b4 03 eb 3b
       0.017159436 0.00961637 0.009081891 0.0071720723
000040 53 5b f5 3b 9f 3d 32 3d ef 31 fe 3c de b0 b0 3d
       0.0074876933 0.043515798 0.03102967 0.08627485
000050 3f 3d 0e bc 56 f6 ea bb 28 e9 e6 3c 07 e0 00 3c
       -0.008681594 -0.007170479 0.02818735 0.007865912
000060 50 d8 f8 bb f2 1e 83 bc fe e1 80 3a 61 a8 12 3b
       -0.007594146 -0.016005967 0.0009832976 0.0022378194
000070 44 da ca 3d c7 a2 b4 3c a9 7e 2c bb 61 ee 72 3b
       0.09904912 0.022050275 -0.0026320613 0.0037068354
000080 9d 89 64 3c b9 7e 50 bc e3 75 ea 3a df f5 f1 3d
       0.013948825 -0.012725526 0.0017887916 0.11814474
000090 50 dd 6b 3b a1 21 a5 bc 5f 36 6e bc 22 32 63 bc
       0.0035990067 -0.020157637 -0.01453933 -0.013866933
0000a0 bc 53 25 bc 6f 28 3e bc 04 53 b0 3c 51 0e 1d bc
       -0.010090765 -0.01160632 0.02152396 -0.009585933
0000b0 33 04 10 bc ac 80 8b 3b 4f 68 70 3c 70 76 92 bb
       -0.008790064 0.0042572822 0.014673307 -0.0044696853
0000c0 1b 0c 37 3c b7 98 a8 3c ab 2e 41 ba e3 b3 59 bc
       0.01117232 0.020580633 -0.000736932 -0.013287517
0000d0 d6 4b 99 3d 91 dc 19 bc c3 7f 22 bc a5 42 e8 3c
       0.07485168 -0.009390966 -0.009918156 0.028352091
0000e0 a7 42 ab 3a c4 1c a8 39 37 2f 9d 3b 8f 7c 08 3c
       0.0013066129 0.0003206489 0.004796888 0.008330478
0000f0 07 76 44 3d e5 55 84 bc 8a c8 f6 bb 38 d3 ea bb
       0.047964122 -0.016154239 -0.0075312303 -0.0071662925
000100 84 c5 80 bc 6b 7c 96 3c bc fd 8d 3b f8 dd 33 3c
       -0.015719183 0.018369874 0.004333226 0.010978214
000110 7a e4 0c 3d ba 54 0e 38 15 20 0f 3c 31 27 23 3d
       0.03439758 3.3934346e-05 0.008735676 0.039832298
000120 dc ee 03 3d 1e c8 c9 3c 01 b9 1f 3d 0f ed c9 bb
       0.032210216 0.024631556 0.038994793 -0.006162293
000130 48 6a 12 3e 63 1b 08 3c f5 6d b5 ba 14 5d 33 3b
       0.14298356 0.008307311 -0.0013841974 0.0027368711
000140 6d 36 3a 3c d7 db 3d 3d 26 61 00 3e 2d 85 5b bc
       0.011365515 0.046352234 0.12537059 -0.013398451
000150 8c 0b a9 b9 ec ee 7a 3b d6 d7 19 3c 20 a4 de bb
       -0.00032242795 0.0038289381 0.009389838 -0.0067944676
000160 d2 c7 49 bb b8 cd 0a ba 58 15 4d 3c e4 7e 3c bc
       -0.0030789268 -0.0005294937 0.012517296 -0.011504862
000170 d3 f8 5d bc fc cc d8 3c 76 0c a6 3b d7 ee f0 ba
       -0.013548094 0.026464932 0.0050674034 -0.0018381727
000180 0c 65 9b 3b e0 b7 7e bb 8b 7c 56 bb f0 0e bb 3d
       0.0047422703 -0.0038866922 -0.0032728042 0.091337085
000190 f5 ac c1 3d 88 1a 92 3d 69 0f b2 3b 8a 90 02 bc
       0.09456817 0.07133967 0.005433966 -0.007969031
0001a0 5a 3c 41 3d 04 b8 c9 3d 89 dd 1e bc 2d 17 b3 3d
       0.047176696 0.09849551 -0.009696373 0.08744655
0001b0 00 01 16 3c 04 92 2c 3c bb 4c 73 3d 06 11 3c bc
       0.009155512 0.01053286 0.059399348 -0.011478668
0001c0 76 77 8e bb ae 6d ef ba b9 42 cf bb f0 1f 6d 3d
       -0.004347737 -0.001826694 -0.0063250926 0.057891786
0001d0 88 82 e6 3a 71 51 c5 bb 14 03 ea 3b 80 9c 34 bc
       0.0017586509 -0.0060216715 0.00714148 -0.011023641
0001e0 50 34 98 bb 47 bd 20 3c f6 35 30 3d 5b 12 9e 3c
       -0.004644908 0.009810752 0.04302021 0.019295862
0001f0 14 1b 68 bb 58 2c 95 3c a5 df 1f bb b4 eb 8a bc
       -0.003541653 0.018209621 -0.0024394777 -0.016958095

std.constant11 f4 [128, 9]
000000 25 da d1 3c 70 9f a1 3d 5f 49 f4 3d 32 05 09 3e
       0.025616715 0.078917384 0.11928057 0.13380888
000010 55 7b 21 bd 0c af df 3c aa b8 21 3e 0b 2b c3 3c
       -0.03942426 0.027305149 0.157931 0.023824235
000020 c8 82 e9 bc d7 96 a3 bb 63 51 33 3e f6 e9 98 bc
       -0.028504744 -0.0049923467 0.17511515 -0.018666249
000030 bf 29 e2 ba a7 f6 c7 3d 41 30 88 3d 78 2c 82 3c
       -0.0017254873 0.09763842 0.06649829 0.015890345
000040 ab c0 5b 3d f2 9a 50 bc 18 10 94 bc 52 1b 60 3d
       0.05365054 -0.012732254 -0.01807408 0.054713555
000050 10 15 c1 3d 42 f7 9e bd d5 aa 5f 3c fe 96 5e 3b
       0.094278455 -0.077620044 0.013651569 0.003396451
000060 81 c7 c4 bc c8 12 eb bc 4d df 92 bd 0f 03 7e 3d
       -0.024020912 -0.028695479 -0.071714975 0.062014636
000070 28 11 84 3d 10 eb bf 3d 78 0f ec bc ab 66 98 bd
       0.06448585 0.093710065 -0.02881597 -0.07441457
000080 6e d3 61 3d 5f cf 9b bd f2 23 5f bd aa 63 e4 bd
       0.055133276 -0.07607912 -0.05447764 -0.11151822
000090 a1 3e bc 3d 3c 1a 1e 3e 82 6c e9 3d 42 cb c6 3c
       0.09191633 0.15439695 0.11397649 0.024266843
0000a0 df 44 c5 bc 6d 24 1c 3e b9 6f 33 3e 67 9c 92 3c
       -0.024080692 0.1524827 0.17523088 0.017896844
0000b0 82 86 b4 bc 08 ff 01 3d 17 c5 b7 bd 6b ed 84 bd
       -0.022036795 0.031737357 -0.08973139 -0.064905964
0000c0 e8 aa 2a bd fe e1 a2 bc 9d 3f 22 3d fc ca 77 bd
       -0.041666895 -0.019883152 0.039611448 -0.060496315
0000d0 e6 c0 83 bd 6e a5 73 3d 9c 63 2a bd 96 d6 a2 bd
       -0.06433277 0.059483938 -0.0415989 -0.07951085
0000e0 53 8f 21 bc 1a f5 63 3c ec 11 08 3c 0f 93 a0 bd
       -0.009860831 0.013913417 0.008305054 -0.07840549
0000f0 1a a9 3a 3d 32 fd 85 3c e3 95 7b bd cc ad 81 3d
       0.045571424 0.016356084 -0.06142224 0.06331977
000100 34 90 8f bd f8 95 7e bd 32 6d 89 bd 20 20 3d 3d
       -0.070099264 -0.06215474 -0.067102805 0.046173215
000110 bd 51 a9 bd 9c 6b 9d bd 46 9c ed bc c5 81 41 3d
       -0.082675435 -0.076865405 -0.029005181 0.0472429
000120 99 cf 2e 3e c8 86 2d bd dc 21 a9 3d 3e 74 92 3d
       0.1707138 -0.042364866 0.08258411 0.07151078
000130 d1 0a 7f 3d 08 d4 1c bd 8d 1d 11 bc 3e 30 bb bd
       0.062266175 -0.038288146 -0.008857143 -0.09140061
000140 e3 4e 32 bc 58 53 94 bd 51 3f 82 3d d0 55 63 3b
       -0.010883066 -0.07242459 0.06359733 0.00346886
000150 8b da 86 3b b3 b9 64 39 dc ec e3 bc 3a f1 10 3c
       0.004115408 0.00021812953 -0.027822904 0.008846575
000160 a2 b3 c4 3c 96 13 25 bd bc 0e a3 3c 5c 1c 82 3d
       0.024011437 -0.04030188 0.019904487 0.06353065
000170 70 0e 30 bd a7 28 ba bc 1f e0 dd bd f5 84 9a 3d
       -0.04298252 -0.022724463 -0.10833763 0.07544891
000180 39 25 95 bd ed 90 33 bc 17 4a e0 bd 5b a2 1d 3e
       -0.0728249 -0.010959846 -0.109516315 0.15393965
000190 34 c0 5c 3d 0a 7f 99 3d c0 62 85 bd 93 96 a7 bd
       0.053894237 0.07494934 -0.06512976 -0.08183017
0001a0 f0 fd 73 bd 3e b1 88 bd 53 ad a3 bc a5 44 0d bc
       -0.059568346 -0.06674431 -0.019980108 -0.008622323
0001b0 f2 61 1d 3e e7 0e 33 3d 5a 7f 22 bd 32 0b 3f 3d
       0.15369394 0.043715384 -0.039672233 0.046641536
0001c0 8e a5 39 3d f9 a9 c2 bd b2 a1 88 bd 4c 72 9f bc
       0.0453239 -0.09505076 -0.06671466 -0.01946368
0001d0 31 bf bd bd dd 03 9f bd 8b 44 ae bd 58 d5 cc bc
       -0.092649825 -0.07764409 -0.08509167 -0.025004074
0001e0 74 1d a7 3c 1f 13 5b 3d 4b d8 53 3d 94 d1 55 bc
       0.020399787 0.053485032 0.051719945 -0.013050456
0001f0 ba 44 5b 3b d7 c1 ae bd 82 e7 7d 3d 52 c5 ca bc
       0.0033457712 -0.08533066 0.06198836 -0.024752293
000200 3f 55 94 3d 20 d7 c1 3d 91 f9 55 bd cf db 78 bd
       0.07242822 0.0946486 -0.05223996 -0.0607565
000210 39 33 de 3d e5 48 e9 3c 51 b4 18 bc 18 b7 b5 bd
       0.10849614 0.028477142 -0.0093203345 -0.08872813
000220 13 1c 31 3d 7a c1 e3 3d 6b b2 6e bd 29 5d 23 3d
       0.043239664 0.11120887 -0.05827562 0.039883766
000230 aa ad 84 bc 56 52 76 bd 71 68 35 bd e0 b9 8f 3c
       -0.01619609 -0.060137115 -0.044289056 0.017544687
000240 62 c2 d7 bb ac 47 90 3c 97 16 c4 3d ad 8b c9 3d
       -0.0065844515 0.0176123 0.09574621 0.09841094
000250 64 7e fa bd 65 dc 9d bc 69 f0 09 bd f2 2c 85 bd
       -0.12231138 -0.019270131 -0.03367654 -0.06502713
000260 e9 72 dc bd 2e e2 da 3d 01 2f f0 b9 18 8a 0a bc
       -0.10764105 0.106876716 -0.00045811388 -0.008455776
000270 42 48 d2 bc 73 ba b6 3d 65 e3 5f 3d 89 73 42 3c
       -0.02566922 0.08922281 0.05466022 0.011868366
000280 c8 d5 c0 3d 86 a8 ec 3c 00 d1 e0 bc 80 99 24 bd
       0.094157755 0.028888952 -0.027443409 -0.04018545
000290 af 15 ea 3d 0f 9c 29 bd b9 85 72 bd 58 d1 89 bd
       0.11429917 -0.041408595 -0.05920956 -0.06729382
0002a0 73 e5 39 bc 5f 62 8e 3c 70 be 32 3d 30 06 9d 3d
       -0.011346209 0.017380891 0.043638647 0.07667196
0002b0 f0 36 25 3e f6 11 0f 3e 2b f8 8d 3d 04 29 80 bd
       0.16134238 0.13971695 0.069321 -0.06257823
0002c0 05 99 fe 3b 0f 1a f7 3d b9 7c 23 3d 03 a1 90 3c
       0.007769706 0.12065517 0.039913867 0.017654901
0002d0 3d bb 1c bd 5d 0e 8f 3c 65 30 cc 3d 0a 15 d1 bd
       -0.0382645 0.017462904 0.09970168 -0.10209091
0002e0 e8 a7 b7 bd ff 5b b4 bb 3b 77 8e 3c 64 ed 36 3d
       -0.089675725 -0.005504131 0.017390838 0.044659987
0002f0 bc 8d 37 bd af 34 05 3d 83 de 0d bd 5b a2 1a 3c
       -0.044812903 0.032520946 -0.03463603 0.009438123
000300 66 0b da bd 21 cd fb bc 2b 2e 30 bd 07 9e b0 bb
       -0.10646705 -0.030737462 -0.04301278 -0.005389932
000310 56 1b af bc 88 01 b4 bc 23 3c f1 3d 28 29 43 3d
       -0.02137534 -0.021973386 0.11779048 0.04764667
000320 08 ee 9e bd 7f 62 29 bb 21 62 e2 3c e3 82 26 3d
       -0.077602446 -0.0025846062 0.027634682 0.040652167
000330 5a 1f cb 3d 9c 5f ce 3b d2 3d cb bd d6 03 3f 3d
       0.09918089 0.0062980186 -0.09923901 0.046634518
000340 03 82 06 bc 13 1b 2c 3c e4 e6 af bd 84 eb 9a 3c
       -0.008209708 0.010504502 -0.08588961 0.01891113
000350 1e 15 27 3d ad c2 e3 3d ef 39 6d bc ea f5 fe bd
       0.040791623 0.11121116 -0.0144791445 -0.12449248
000360 74 78 7d 3d d7 d9 20 3d 2e 68 a2 3d df b4 a5 bd
       0.06188245 0.03927025 0.07930027 -0.08091139
000370 8a 82 42 3d 69 3e 61 3d 19 ed b7 3c c9 c3 d3 bd
       0.047487773 0.05499116 0.022451924 -0.103400774
000380 71 2f 1e 3c 8a 1c 8b bd 0a 1d 18 3d 41 3a 87 3c
       0.009654866 -0.06792553 0.03713707 0.01650727
000390 85 35 f6 bd cd f4 88 bd ce 9e 74 bd d9 4e e6 bd
       -0.12021927 -0.06687317 -0.05972176 -0.11245508
0003a0 31 b6 33 3d 99 fd 9a bb 7b da 0d 3e 15 d8 a8 bc
       0.043874923 -0.004729938 0.13852875 -0.020610848
0003b0 9e 6c 66 bd a2 7d db bd eb 78 bc 3d e8 9d 6c bd
       -0.05625593 -0.10717322 0.09202751 -0.05776778
0003c0 af 59 9d bd af 41 a1 3d 03 25 35 bd cd ac 7f bc
       -0.076831214 0.07873856 -0.04422475 -0.015605164
0003d0 5c 82 96 bd ce 71 df 3d 1c 35 db bd 01 3a db bd
       -0.07349083 0.109103784 -0.10703489 -0.10704423
0003e0 b7 09 9f bd 3f 82 8b 3d d6 a0 8d 3b a8 83 87 bd
       -0.07765525 0.06811952 0.0043221517 -0.06616908
0003f0 b1 19 53 3e 49 6b fe 3d 8e d1 38 3d df b6 53 3d
       0.20615269 0.12422807 0.045121722 0.05168807
