AirQualityApp/AirQualityApp.Android/Assets/LondonLong.tflite (tflite, 810852 bytes, 24 tensors)

std.constant3 f4 [128, 128]
0	0x3c942677	0.018084748
1	0xbd64d974	-0.055871442
2	0x3d70e285	0.058809776
3	0x3da282ea	0.07935126
4	0x3d9b28f9	0.07576174
5	0x3d24cb20	0.040232778
6	0x3b890dca	0.004182552
7	0x3c193272	0.009350406
8	0x3c665a09	0.014059552
9	0x3ce3bb76	0.02779935
10	0x3d135972	0.035973974
11	0x3d2e7fb5	0.04260226
12	0x3d55a5bc	0.05216001
13	0x3bf13c0f	0.007361896
14	0x3cb847a1	0.022495093
15	0xbc530c48	-0.012881346
16	0x3d34efb2	0.044173904
17	0x3c86ccba	0.016455043
18	0x3d397203	0.045274746
19	0x3d380cc3	0.044934046
20	0xbc81f21d	-0.015862519
21	0xbd0b6647	-0.034033086
22	0xbc861cf4	-0.016371228
23	0xbbed4fee	-0.0072421944
24	0xbd89cac7	-0.0672813
25	0xbd2c9db1	-0.042142574
26	0xbd83347a	-0.064064935
27	0xbd7b88eb	-0.061409872
28	0xbd9c5b83	-0.07634642
29	0x3d616f6d	0.055037905
30	0xbbfd9df2	-0.007739776
31	0x3ca5dce4	0.02024693
32	0x3d852e88	0.06503016
33	0x3d80fd4b	0.06298312
34	0x3dc57168	0.09640771
35	0xbd6b0fcc	-0.057388112
36	0x3d56c5bd	0.05243467
37	0x3cec0cec	0.028814755
38	0x3b87f22c	0.004148742
39	0x3c21629e	0.009850172
40	0x3cb51646	0.022105347
41	0xbd79ed44	-0.06101729
42	0xbd5ccc4c	-0.05390577
43	0x3bf71cd2	0.0075412774
44	0xbcd1822c	-0.025574766
45	0xb900562a	-0.0001223913
46	0xbd07457a	-0.033025242
47	0xbbe01474	-0.0068383757
48	0x3bec142c	0.007204553
49	0x3add7070	0.0016894471
50	0x3d132b62	0.035930045
51	0x3d490cee	0.049084596
52	0x3c92d62e	0.017924394
53	0xbceef208	-0.029168144
54	0x3d5222c0	0.05130267
55	0x3ce5564c	0.027995251
56	0xbd471070	-0.04859966
57	0xbdb5442a	-0.08850892
58	0x3ce74ab5	0.028233865
59	0x3d3fb529	0.046803627
60	0x3db835ad	0.08994613
61	0xbd80f167	-0.06296044
62	0x3cb41a16	0.021985095
63	0x3d81b23e	0.06332825
64	0x3d116a8d	0.035502005
65	0xbd954878	-0.07289213
66	0x3c5048ba	0.012712652
67	0xbc18e9c0	-0.009333074
68	0x3bb3e79c	0.0054902565
69	0xba4c1268	-0.0007784725
70	0x3d169ae9	0.036768828
71	0x3c8459ee	0.016156163
72	0x3c37d63d	0.011220512
73	0xbbdd42c4	-0.006752344
74	0x3dff55fa	0.124675706
75	0x3ade5ca0	0.001696486
76	0x3c7e4968	0.015520431
77	0x3d59df79	0.053191636
78	0xbd178a0c	-0.036996886
79	0x3b932302	0.0044902572
80	0xbd988264	-0.07446745
81	0xbd7b6db4	-0.061383918
82	0x3ca7bff3	0.02047727
83	0x3d60627a	0.054781415
84	0xbcae666e	-0.021289077
85	0x3d82e1e4	0.063907415
86	0x3cda5fd2	0.026657019
87	0xbe1e3ebd	-0.1545362
88	0xbc8e6b5b	-0.017385175
89	0xbce167a6	-0.027515244
90	0x3cb2cebe	0.021827098
91	0xbcaad1ce	-0.020851996
92	0x3c347eaa	0.011016527
93	0xbce44816	-0.027866405
94	0x3d105267	0.035234835
95	0xbbd653a4	-0.0065407325
96	0x3c83d02c	0.016090475
97	0xbd329ef8	-0.043608636
98	0xbd95b7f2	-0.073104754
99	0x3d98c797	0.07459944
100	0x3c95cd47	0.01828636
101	0x3c6a2156	0.0142901745
102	0x3b8c295f	0.0042773928
103	0xbba6aa65	-0.0050862306
104	0x3da6e89c	0.081498355
105	0x3d39cfaa	0.04536406
106	0x3d64ce3e	0.05586075
107	0xbc79fc7d	-0.015257952
108	0x3b34cd1e	0.002758808
109	0xbc145b26	-0.009054935
110	0xbc02ca34	-0.007982779
111	0x3bb1dc20	0.0054278523
112	0xbbe7249d	-0.007053925
113	0xbd4d19e4	-0.05007352
114	0xbc85f2e5	-0.016351173
115	0x3cb035e8	0.02151008
116	0x3d20ff75	0.039306123
117	0xbcc72e68	-0.02431412
118	0x3add105c	0.0016865837
119	0x3c9d97ce	0.019237425
120	0xbd6ed492	-0.05830819
121	0xbc4dacc7	-0.0125534
122	0xbc8e529e	-0.01737338
123	0x3ca3016b	0.019898137
124	0x3c2978de	0.010343758
125	0x3c119669	0.008885958
126	0xbd2e6fc3	-0.042587053
127	0xbd29e165	-0.04147472
128	0xbc28664b	-0.010278295
129	0xbd00bcb6	-0.03142997
130	0x3d82953e	0.06376122
131	0xbd231409	-0.03981403
132	0x3d31554b	0.043294232
133	0xbc81c158	-0.015839264
134	0xbca179fe	-0.01971149
135	0x3d2a9519	0.041646097
136	0xbc819ce3	-0.01582188
137	0x3bb82bcd	0.005620456
138	0xbd1dc6d7	-0.038519707
139	0xbd1fe710	-0.039038718
140	0x3d0c0188	0.034181148
141	0x3b25c2fe	0.0025293226
142	0xbcd4f0bd	-0.0259937
143	0x3c4477eb	0.011991481
144	0x3b6ff45f	0.0036614162
145	0x3d9c5732	0.07633819
146	0xbd1aa1d4	-0.037751988
147	0x3b11361e	0.00221575
148	0x3d5dee7a	0.054182507
149	0x3c599ef2	0.013282524
150	0x3d9931b3	0.074801825
151	0xbd235eff	-0.039885517
152	0xbbbf090c	-0.005829936
153	0xbd3232c1	-0.043505434
154	0xbd68a9fb	-0.05680273
155	0x3dccc995	0.09999386
156	0xbd19ace4	-0.037518397
157	0xba6d7660	-0.0009058472
158	0x3d0ed555	0.034871418
159	0xbd274030	-0.0408327
160	0xbcdf7d63	-0.027281469
161	0x3cbcfb06	0.023068916
162	0x3c90ae16	0.017661136
163	0x3b17d3a8	0.0023166928
164	0x3c8e8ee1	0.017402114
165	0x3bf3aabf	0.007436126
166	0x3c100416	0.008790037
167	0x3cf47f24	0.029845782
168	0x3d320d70	0.043469846
169	0xbc9f8584	-0.019472845
170	0x3c9ae205	0.018906603
171	0x3b7aeae0	0.003828697
172	0xbd8df99a	-0.06932373
173	0x3caf586e	0.021404471
174	0xbd10fc9c	-0.035397157
175	0x3d336824	0.043800488
176	0xbdad8dda	-0.08474322
177	0xbd08e6cf	-0.03342324
178	0xbd069bc7	-0.032863405
179	0xbbb1e6c7	-0.005429122
180	0x3d714812	0.058906622
181	0x3d0a780d	0.033805896
182	0xbc2c898e	-0.0105308425
183	0x3cb37a62	0.021908943
184	0x3cf68b75	0.030095795
185	0xbc755e2e	-0.0149760675
186	0x3bf86770	0.00758069
187	0x3b6ecbd0	0.00364374
188	0x3ca56dc2	0.020193938
189	0x3abbe070	0.0014333855
190	0x3d3f549c	0.04671155
191	0xbd2338be	-0.039849035
192	0x3d943301	0.07236291
193	0x3c439fba	0.011939937
194	0x3d4f4bb0	0.05060929
195	0xbb8dce76	-0.0043275906
196	0xbcad81b4	-0.021180011
197	0xbbaaa455	-0.005207578
198	0x3d075ac2	0.033045538
199	0x3d54d9e1	0.051965598
200	0xbd3b57ff	-0.045738216
201	0x3d06877e	0.03284406
202	0x3c8975de	0.016779836
203	0xbc91e0aa	-0.017807323
204	0x3d2d01f9	0.04223821
205	0x3c87c5b7	0.01657377
206	0x3d8a76a2	0.06760909
207	0xbc581863	-0.013189408
208	0xbcd89348	-0.026437417
209	0x3d524ea0	0.051344514
210	0x3d46315b	0.048386913
211	0x3d0b4882	0.034004696
212	0x3c513e86	0.012771254
213	0x3d9b525e	0.0758407
214	0x3c0f9697	0.008763931
215	0x3d81766c	0.06321415
216	0xbd20ecfc	-0.039288506
217	0xbc654486	-0.013993388
218	0x3c8e5c54	0.01737801
219	0x3d097b65	0.033564944
220	0x3c85dc44	0.016340382
221	0x3b783730	0.0037874691
222	0x3c0db271	0.008648501
223	0xbd7027ab	-0.05863158
224	0xbc70c3dc	-0.014695134
225	0xbd68e30c	-0.056857154
226	0x3bdd0b3b	0.0067457235
227	0xbdc4a4d0	-0.09601748
228	0x3b5e282c	0.0033898456
229	0xbc493e1d	-0.012282875
230	0x3cd235aa	0.025660355
231	0xbb9cc02c	-0.004783651
232	0x3d395346	0.04524543
233	0xbd7c4521	-0.061589364
234	0x3dbb0f04	0.091337234
235	0xbde0dee9	-0.10980017
236	0xbc88c07e	-0.01669335
237	0xbdb9bf47	-0.090696864
238	0x3d2187bd	0.03943609
239	0x3cce3ac3	0.025174504
240	0x3ceb25ba	0.028704513
241	0xbd6f0a6c	-0.05835955
242	0xbd00b69d	-0.031424154
243	0xbb39f48e	-0.0028374526
244	0xbc9282e4	-0.01788468
245	0xbd3ef1a5	-0.04661717
246	0xbcaac820	-0.02084738
247	0x3c3cdb1b	0.011526848
248	0xbd0d768f	-0.034536894
249	0xbd859200	-0.06521988
250	0xbc9f3c68	-0.019437984
251	0xbc353e6b	-0.011062245
252	0x3d073b87	0.033015754
253	0x3d69af0a	0.057051696
254	0x3c83ac76	0.016073447
255	0x3ca9990e	0.020702865

std.constant4 f4 [128, 128]
0	0x3cb79ad9	0.022412704
1	0x3d5a4249	0.05328587
2	0x3c405ce8	0.011740901
3	0xbc313aba	-0.010817224
4	0xbc003313	-0.007824677
5	0xbdb43feb	-0.08801254
6	0x3d7a1b31	0.061061088
7	0x3d42392c	0.047417805
8	0xbbd86051	-0.0066032787
9	0xbda7e0cc	-0.081971735
10	0x3d53fbd6	0.05175384
11	0x3d38bc0f	0.04510122
12	0x3c3496b1	0.011022256
13	0xbd51adf9	-0.051191304
14	0xbc9a1381	-0.018808128
15	0xbcce4764	-0.025180526
16	0x3d9ee5eb	0.07758697
17	0xbb0657d4	-0.0020499127
18	0x3d774483	0.060368072
19	0xbccb0dae	-0.024786796
20	0x3c911788	0.017711416
21	0x3cd71729	0.02625616
22	0x3c1d2f70	0.0095938295
23	0x3bb6b794	0.0055760834
24	0xbcd02050	-0.025406033
25	0x3c80a606	0.015704166
26	0x3a854af6	0.0010169435
27	0xbb477d4e	-0.0030439678
28	0xbd54caa9	-0.051951084
29	0xbcaf3736	-0.021388631
30	0x3d627c4f	0.05529433
31	0x3b9e912c	0.004839083
32	0xbc6622da	-0.014046395
33	0x3d77bb2e	0.060481243
34	0xbd0ab03a	-0.03385947
35	0x3d7091c9	0.05873278
36	0xbce88051	-0.028381499
37	0xbd7cea32	-0.061746784
38	0x3d7ee08c	0.062225863
39	0x3d0a6267	0.03378525
40	0x3d48355e	0.04887902
41	0xbcce50aa	-0.025184948
42	0x3cab6adf	0.020924984
43	0x3ca24ede	0.019812997
44	0xbcf10aa4	-0.02942402
45	0x3d90d2f2	0.070714846
46	0x3a96f630	0.0011517461
47	0x3ce3212c	0.027725779
48	0xbc30fdc6	-0.010802692
49	0xbd20d929	-0.0392696
50	0x3ca0ca2c	0.019627653
51	0x3d486c8e	0.04893165
52	0xbd4f9850	-0.050682366
53	0x3d5cd583	0.05391456
54	0xbdc0f215	-0.094211735
55	0xbd5b7ee3	-0.053587805
56	0x3a151140	0.00056864694
57	0x3ca7c056	0.020477455
58	0xbd42ad65	-0.047528643
59	0x3c6e6f3a	0.014552886
60	0x3be3083f	0.0069284732
61	0x3cc80620	0.024416983
62	0x3d44e0f9	0.048066113
63	0xbc1ceede	-0.009578435
64	0x3cc4c740	0.024020791
65	0xbcb4a6d7	-0.022052212
66	0xbc1f55dd	-0.009725061
67	0xbd7b6096	-0.06137141
68	0xbc89da84	-0.01682783
69	0x3c9c9f16	0.019118827
70	0xbd8b8170	-0.068117976
71	0xbbad9ab6	-0.005297984
72	0x3cc5a38e	0.02412584
73	0x3cca6078	0.024704203
74	0x3d22d1ac	0.03975074
75	0x3ddb92c8	0.10721356
76	0xbc3ca1a2	-0.011513146
77	0x3d4e00a5	0.050293583
78	0xbda7a504	-0.08185771
79	0x3d4e8742	0.05042196
80	0x3d7e1bf5	0.06203838
81	0x3d14eaf0	0.036356866
82	0xbd684bf5	-0.056713063
83	0xbd66154e	-0.05617266
84	0x3cb2b60c	0.021815322
85	0x3d914d74	0.07094851
86	0xbd923fad	-0.071410514
87	0x3d364219	0.04449663
88	0x3b6e8160	0.0036393031
89	0xbdac012d	-0.08398662
90	0x3ca41802	0.020030979
91	0xbd09582f	-0.033531364
92	0x3d63bc77	0.055599656
93	0xbd89ec2d	-0.067345
94	0xbcbec9df	-0.023289619
95	0xbd88bdbb	-0.06676813
96	0xbd1b5c2b	-0.037929695
97	0x3dab4acc	0.08363876
98	0x3da8e941	0.08247615
99	0xbcc86b62	-0.024465267
100	0xbd0e2806	-0.034706138
101	0x3c434778	0.011918895
102	0xbba627ea	-0.005070676
103	0xbcd30bef	-0.025762526
104	0x3cbb7ec2	0.022887591
105	0xbb92371a	-0.004462135
106	0xbda49a82	-0.080372825
107	0xbcb9aae3	-0.022664493
108	0x3c2c3636	0.010510972
109	0xbaed6fa2	-0.0018114934
110	0xbc268fe2	-0.01016614
111	0xbddae536	-0.1068825
112	0xbd1ed4b2	-0.03877706
113	0x3d43a5ce	0.047765546
114	0x3ca9f783	0.020747906
115	0xbd9e7376	-0.07736866
116	0xbd044064	-0.03228797
117	0x3ca4fce6	0.020140123
118	0xbc5ac3c2	-0.013352336
119	0x3c1a165b	0.009404744
120	0x3ca1f744	0.019771226
121	0x3b604400	0.0034220219
122	0xbc09b9a5	-0.0084060775
123	0x39ddcfe0	0.00042307284
124	0x3db92761	0.09040714
125	0x3c991370	0.018686026
126	0xbbf470ee	-0.0074597513
127	0x3c8ed214	0.017434157
128	0xbc99f681	-0.0187943
129	0xbd330487	-0.04370549
130	0x3b915ac2	0.004435868
131	0xbc8ad300	-0.016946316
132	0x3c7b13d5	0.015324553
133	0x3d4313f2	0.047626443
134	0x3ccdbfd1	0.02511588
135	0x3c763f76	0.015029779
136	0xbc88bbc8	-0.016691104
137	0x3cac7577	0.021052105
138	0xbcabf130	-0.02098903
139	0xbc8745e3	-0.016512817
140	0xbd9cec8d	-0.07662306
141	0x3d4edee9	0.050505552
142	0xba642ccc	-0.0008704185
143	0x3d167907	0.036736514
144	0xbcf0f457	-0.029413385
145	0xbce85134	-0.028359033
146	0xbc6d335a	-0.014477575
147	0xbd10a102	-0.0353098
148	0xbc8f4ca2	-0.017492596
149	0x3cc14dfc	0.023596756
150	0xbd2a0981	-0.04151297
151	0xbc6717d3	-0.014104801
152	0x3af5d020	0.0018754043
153	0xbd964fdf	-0.07339453
154	0x3dc36332	0.095404044
155	0xbda3637f	-0.07977962
156	0xbcd3ab6f	-0.025838582
157	0xbd5dffe2	-0.054199107
158	0xb9da3bb4	-0.00041624682
159	0xbcb65088	-0.022255197
160	0xbd02dd13	-0.031949114
161	0xbd144ffa	-0.036209084
162	0x3c9f6c28	0.019460753
163	0xbbf5e3cc	-0.007503962
164	0xbd38b5de	-0.045095317
165	0xbd8a3a56	-0.06749408
166	0x3bf5df6c	0.0075034406
167	0xbd3dcd9e	-0.04633867
168	0xbbddaa62	-0.006764696
169	0x3db2ca0a	0.08729942
170	0x3db4860d	0.08814631
171	0x3ced26d3	0.028949177
172	0xbd5f76cf	-0.054556664
173	0x3bc3ac14	0.005971441
174	0xbd376bec	-0.044780657
175	0x3d710d87	0.05885079
176	0xbc69ef84	-0.014278296
177	0xbdccb25b	-0.09994956
178	0x3d520884	0.051277652
179	0x3d03d59d	0.03218614
180	0xbc2278e6	-0.00991652
181	0x3ca5d60f	0.020243673
182	0xbcf86563	-0.030321782
183	0x3d96dd03	0.073663734
184	0x3c23c496	0.0099956
185	0x3ca9740f	0.020685224
186	0x3cd932b8	0.026513442
187	0x3d4c37d2	0.049857922
188	0xbdf9c642	-0.12196018
189	0x3d0fdbf7	0.035121884
190	0xbc205da8	-0.009787954
191	0x3ca666f2	0.02031276
192	0x3d819841	0.06327868
193	0x3c9b3cd9	0.018949913
194	0x3d74c262	0.05975569
195	0x3dc874bf	0.097878926
196	0xbd25dedb	-0.040495735
197	0x3d6f7d26	0.05846896
198	0x3da431b0	0.0801729
199	0x3c691f62	0.014228674
200	0x3afbdcbc	0.0019215564
201	0x3d142c45	0.03617503
202	0x3db2369f	0.087018244
203	0xbd76281b	-0.06009684
204	0xbce1055e	-0.02746838
205	0x3d22b8f4	0.039727166
206	0xbdb61916	-0.088915035
207	0xbd4b0947	-0.049569394
208	0xbd32e06e	-0.043671064
209	0xbd00a32a	-0.031405605
210	0x3c3f0065	0.011657809
211	0x3cdadf2a	0.026717741
212	0x3cdd6b34	0.027028657
213	0xbd3125db	-0.043248992
214	0x3c1cde7d	0.00957453
215	0x3a764608	0.0009394591
216	0xbce35556	-0.027750652
217	0xbd992718	-0.0747816
218	0x3d17da24	0.03707327
219	0xbd1113d3	-0.035419296
220	0x3b7a0154	0.0038147764
221	0xbc93e508	-0.018053547
222	0x3d08760e	0.03331571
223	0xbdd69527	-0.10477667
224	0xbd5a56e0	-0.053305507
225	0x3d31d87b	0.043419342
226	0xbbcfb46e	-0.0063386476
227	0x3b4448d8	0.0029950645
228	0x3b649ca7	0.003488341
229	0xbdad4892	-0.08461107
230	0x3d0e8e2a	0.034803547
231	0xbd0ee322	-0.03488458
232	0x3da230ec	0.07919487
233	0x3b30be7e	0.002696901
234	0xbd10be7d	-0.035337914
235	0xbda955b0	-0.08268297
236	0x3c37fe76	0.011230102
237	0xbcd964ff	-0.026537417
238	0xbd8b860e	-0.06812678
239	0xbc8e9b65	-0.017408082
240	0x3c374214	0.011185188
241	0x3c8785fd	0.016543383
242	0x3c34f3c0	0.011044443
243	0x3cf1883e	0.02948391
244	0x3d38be2f	0.04510325
245	0xbca56d23	-0.020193642
246	0xbcaa824a	-0.02081408
247	0xbcdd8b8b	-0.027044078
248	0x3c4eb38b	0.012616049
249	0xbc12def2	-0.008964287
250	0x3d0ade04	0.033903137
251	0xbc6741e5	-0.014114832
252	0x3c1a18de	0.009405343
253	0xbd41694d	-0.047219563
254	0x3cd5e4fc	0.026110165
255	0xbc105dfd	-0.008811471

std.constant5 f4 [128, 128]
0	0x3d193ac2	0.03740955
1	0xbb7c2822	-0.003847607
2	0xbcc0d07c	-0.023536913
3	0xbc2ed008	-0.010669716
4	0xbc7a856a	-0.015290597
5	0xbda8ee6f	-0.082486026
6	0xbd8580d3	-0.06518712
7	0xbcee4bce	-0.02908888
8	0xbc29cfb4	-0.010364462
9	0xbd8a79f0	-0.06761539
10	0xbcbdf162	-0.02318639
11	0x3ccd4c1e	0.02506071
12	0xbd3fccca	-0.04682616
13	0x3c5e814e	0.013580633
14	0x3d08485f	0.033272143
15	0xbd512c07	-0.05106738
16	0xbd697f69	-0.057006273
17	0x3d8260a6	0.063660905
18	0xbb7f70a4	-0.003897705
19	0xbd6028fc	-0.054726586
20	0xbce3cecc	-0.02780857
21	0x3df11f74	0.11773577
22	0x3cdf40c4	0.027252562
23	0x3d0002cf	0.03125268
24	0x3d99a6f7	0.07502549
25	0xbd52926a	-0.051409163
26	0xbd1181c2	-0.035524137
27	0xbd8e45ce	-0.06946908
28	0xbd326091	-0.043549124
29	0xbd006a41	-0.03135133
30	0xbd55d38e	-0.052203707
31	0x3b7de0b8	0.003873868
32	0xbc98c110	-0.018646747
33	0x3d0831d0	0.03325063
34	0x3c40b41c	0.011761691
35	0x3dae97a4	0.08525017
36	0xbc38af24	-0.0112722255
37	0xbd14d4e4	-0.03633584
38	0x3d48b91e	0.049004667
39	0x3d5afc4a	0.053463258
40	0x3bb828ae	0.005620084
41	0xbd1f54f4	-0.038899377
42	0xbc96d384	-0.018411405
43	0xbcf34c59	-0.029699491
44	0x3d3c8363	0.046023738
45	0xbd53bb03	-0.05169202
46	0xbcfc5e88	-0.030806795
47	0xbd447a55	-0.047968227
48	0x3d2359e8	0.039880663
49	0x3dcd3907	0.10020643
50	0xbcb3fb32	-0.021970365
51	0x3c8256f2	0.0159106
52	0x3cac5c46	0.021040093
53	0xbcd3c94b	-0.02585282
54	0x3d0dded3	0.03463633
55	0x3d0c9936	0.0343258
56	0x3ce4ffc0	0.027953982
57	0x3d7ec6ee	0.062201433
58	0x3d0e1637	0.034689154
59	0xbd56d708	-0.052451164
60	0xbcfe69c6	-0.031056296
61	0x3c5850dd	0.013202873
62	0xbcb87a64	-0.022519298
63	0xbcaa26fe	-0.020770546
64	0x3d947b25	0.072500505
65	0xbb88a8cf	-0.004170514
66	0x3d73b442	0.05949808
67	0xbd04d0e7	-0.032425787
68	0xbdb690fc	-0.08914372
69	0x3d1200ee	0.035645418
70	0x3d3e27c2	0.046424635
71	0x3d261a35	0.040552337
72	0x3d9bb245	0.076023616
73	0x3c435aa5	0.011923467
74	0x3d2d7934	0.042351916
75	0x3da92492	0.08258928
76	0xbd370327	-0.04468074
77	0x3d4e4f74	0.05036874
78	0x3b25ff40	0.0025329143
79	0xbd689e8e	-0.056791835
80	0xbc13f2a4	-0.009030018
81	0x3c19d7ba	0.009389812
82	0xbd32641d	-0.043552507
83	0xbce8f455	-0.02843682
84	0xbcd240c2	-0.025665645
85	0xbd56e1a2	-0.052461274
86	0xbd28b6f1	-0.04119009
87	0x3b1d0528	0.0023959372
88	0x3bd1eb66	0.0064062355
89	0x3c3dfe34	0.011596251
90	0x3cb8505c	0.022499256
91	0x3c7bd084	0.015369538
92	0xbc7a10d5	-0.015262802
93	0x3cca6a58	0.024708912
94	0x3d82a8ca	0.0637985
95	0x3c140175	0.0090335505
96	0x3ba27720	0.0049580485
97	0xbd979aa6	-0.07402544
98	0x3ccb9060	0.024849117
99	0xbcf15587	-0.029459728
100	0x3c24481b	0.010026957
101	0x3dc98fbb	0.098418675
102	0xbc272ca1	-0.010203511
103	0x3d7d8156	0.061890922
104	0xbda2f1fc	-0.07956311
105	0xbc1d2ebe	-0.009593664
106	0xbd9561a3	-0.07294013
107	0xbd4ef9e8	-0.050531298
108	0xbd2a175a	-0.041526176
109	0xbceb7cdb	-0.02874606
110	0x3ceb6cbc	0.028738372
111	0x3d3da6f0	0.046301782
112	0x3d754b96	0.059886537
113	0x3d95fbc5	0.07323412
114	0xbd41f708	-0.047354728
115	0x3d8a99c5	0.067676105
116	0x3d347833	0.044059943
117	0x3d20c1a1	0.03924716
118	0xbcf6a55c	-0.030108146
119	0xbd11327e	-0.035448544
120	0x3d5bd9bc	0.053674445
121	0x3c1246b5	0.008927991
122	0xbd8161c2	-0.06317474
123	0xbb87490a	-0.00412858
124	0x3d050cb0	0.032482803
125	0x3dc740ea	0.09729178
126	0xbcd4ecfa	-0.025991905
127	0xbdfd4dac	-0.1236833
128	0xbd39eb52	-0.045390435
129	0xbc27b836	-0.01023679
130	0xbd11b15e	-0.03556954
131	0x3cc7c301	0.024384977
132	0x3d390252	0.04516823
133	0x3d8ae89b	0.06782647
134	0xbd8ebb21	-0.06969286
135	0x3c827f4a	0.015929837
136	0xbc9782f2	-0.018495057
137	0x3ceff6b0	0.029292434
138	0xbb9d3aa6	-0.004798251
139	0xbd80693b	-0.06270071
140	0xbce66ea5	-0.028128931
141	0xbd2e5cde	-0.042569034
142	0x3d211065	0.039322276
143	0x3d81d516	0.06339471
144	0x3b525bdc	0.003209821
145	0xbd38a4c2	-0.045079
146	0x3d56e38a	0.052463092
147	0xbdc3829b	-0.095463954
148	0xbcecfbcd	-0.028928662
149	0xbd713c64	-0.058895484
150	0x38eb7880	0.00011228118
151	0x3b8dd173	0.004327947
152	0x3cb1c716	0.021701377
153	0xbd39ffbe	-0.04540991
154	0x3d023505	0.031788845
155	0xbd624aea	-0.055247225
156	0xbc9ba75e	-0.019000705
157	0xbcce7b79	-0.02520536
158	0xbd4cb344	-0.04997565
159	0xbd7fa8e7	-0.062416937
160	0x3cfa7b40	0.030576348
161	0x3dea07f8	0.11427301
162	0xbd8e9902	-0.06962778
163	0x3d0f225c	0.034944877
164	0x3d99f461	0.07517315
165	0x3bec9220	0.007219568
166	0x3d5759d1	0.05257589
167	0xbd44f1c2	-0.04808212
168	0xbda8e6b3	-0.082471274
169	0xbd14ab59	-0.036296222
170	0x3ce29dcc	0.027663134
171	0x3d14f0fc	0.036362633
172	0xbd92c39c	-0.07166216
173	0x3d4777f1	0.04869837
174	0xbcde6315	-0.027146855
175	0x3dc9bb6a	0.098501995
176	0xbd39712d	-0.04527395
177	0x3cbd0624	0.023074217
178	0x3d14f337	0.03636476
179	0x3bc5df8d	0.006038612
180	0x3d491399	0.049090955
181	0x3d3335ab	0.043752354
182	0xbc1f14fb	-0.009709592
183	0xbd4849e5	-0.048898596
184	0xbd00d629	-0.03145424
185	0x3d65fc5d	0.056148876
186	0x3d090223	0.033449303
187	0x3d34f493	0.044178557
188	0xbd378e8a	-0.04481367
189	0xbd68fd7d	-0.05688237
190	0x3c9c668b	0.019091865
191	0xbd8cc68b	-0.068738066
192	0x3cd81e44	0.02638162
193	0x3c039cd0	0.0080329925
194	0x3a206240	0.0006118156
195	0xbcd7a6e4	-0.026324697
196	0xbda16000	-0.07879639
197	0xbce69d1c	-0.028151087
198	0x3b717944	0.0036845962
199	0x3d74249e	0.059605233
200	0xbc2f8606	-0.010713106
201	0x3b4491c7	0.0029994117
202	0x3ac84c30	0.0015281495
203	0xbd86adb2	-0.065760985
204	0x3d6ed648	0.058309823
205	0x3cb0528e	0.02152374
206	0x3b2ef460	0.0026695952
207	0x3d274082	0.040833004
208	0xbd2d105c	-0.04225193
209	0xbad033fe	-0.0015884636
210	0xbd57d9d6	-0.05269798
211	0x3d42b2f2	0.047533937
212	0x3dd3d540	0.103434086
213	0xbcc536ec	-0.02407404
214	0xbd01ddfd	-0.031705845
215	0xbd7a32f9	-0.061083768
216	0xbc248f78	-0.010043971
217	0xbd6e577b	-0.058188897
218	0x3d874d06	0.06606488
219	0x3d3c7044	0.046005502
220	0xbc90701e	-0.017631587
221	0x3c6961f6	0.014244547
222	0x3d050f82	0.032485493
223	0xbcf8282c	-0.030292593
224	0x3cbd2b45	0.023091922
225	0xbd29c2a7	-0.0414454
226	0x3c9bc7b4	0.019016124
227	0xbd09e7cd	-0.033668328
228	0x3cd2900e	0.025703456
229	0x3df2fb6d	0.11864362
230	0x3da6f023	0.08151271
231	0x3d29cf38	0.041457385
232	0xbb50c938	-0.0031858217
233	0xbd856986	-0.065142676
234	0x3d0b3732	0.033988185
235	0xbd7da434	-0.061924174
236	0x3c8d45dc	0.017245226
237	0xbd360c1c	-0.044445142
238	0x3c2bae00	0.010478497
239	0x3d8e192e	0.069383964
240	0x3cef5f1a	0.029220153
241	0x3d871016	0.06594865
242	0x3cf0758c	0.029352926
243	0xbb833f4c	-0.0040053483
244	0xbac940d0	-0.0015354399
245	0xbce85a08	-0.028363243
246	0x3d4a7226	0.049425267
247	0x3ca15f3e	0.019698735
248	0x3d6d92e5	0.058001418
249	0x3c9dffc2	0.019286994
250	0xbc44b13c	-0.012005147
251	0xbc66b5ec	-0.0140814595
252	0xbcbf4fb5	-0.023353437
253	0x3dc61c76	0.09673397
254	0x3c9551f5	0.018227557
255	0xbd73cf2c	-0.059523746

std.constant6 f4 [128, 128]
0	0x3c94f6c0	0.018184066
1	0xbcd0ed64	-0.025503822
2	0xbd1b4914	-0.03791149
3	0x3d5654a8	0.05232683
4	0x3cd8ebfe	0.026479717
5	0xbdf99baf	-0.121878974
6	0xbb5c5480	-0.0033619702
7	0x3da26b2a	0.07930596
8	0xbd523d6e	-0.051328115
9	0x3bb9f9e4	0.0056755412
10	0x3d249810	0.04018408
11	0xbd06c412	-0.03290183
12	0x3d5fbf04	0.054625526
13	0x3d180865	0.03711738
14	0x3c36838c	0.011139762
15	0xbd3db767	-0.046317484
16	0x3d26c502	0.040715225
17	0x3d87b26f	0.066258304
18	0xbabe5b00	-0.001452297
19	0x3d4f456a	0.050603308
20	0x3c2bf4ac	0.010495346
21	0x3ca7a672	0.02046511
22	0xbb4462a7	-0.0029966028
23	0xbc5fe239	-0.0136647755
24	0x3c908eba	0.017646182
25	0x3aab78c6	0.0013082258
26	0x3cad7c67	0.021177484
27	0xbcafd088	-0.02146174
28	0x3d49b231	0.049242202
29	0xbd186b0b	-0.03721146
30	0xbd857aae	-0.0651754
31	0x3d4f252a	0.05057255
32	0xbdf1624e	-0.11786328
33	0xbc7a870a	-0.015290985
34	0xbd526637	-0.05136701
35	0xbd96c6fe	-0.073621735
36	0xbbf34f2f	-0.007425211
37	0xbb84a6e4	-0.004048215
38	0x3c2be556	0.01049169
39	0x3d0b8652	0.034063645
40	0x3cbf9e6e	0.023390975
41	0xbc56030a	-0.013062248
42	0x3d499542	0.04921461
43	0x3ce2b227	0.02767284
44	0xbd23d380	-0.039996624
45	0xbd4991bb	-0.049211245
46	0x3da229a0	0.079180956
47	0x3d4b18e0	0.04958427
48	0x3d093ec6	0.03350713
49	0xbcfffca8	-0.031248406
50	0xbd8162de	-0.063176855
51	0x3e02a657	0.12758766
52	0x3de780b3	0.11303844
53	0x3d93a93a	0.07210012
54	0x3c52eec6	0.012874311
55	0x3d960ea1	0.07327009
56	0x3bc68476	0.006058271
57	0x3d190dce	0.03736668
58	0x3d38b897	0.045097914
59	0x3d013d7c	0.031552777
60	0xbcce9a82	-0.02522016
61	0xbd5e546a	-0.054279722
62	0xbd0d57e0	-0.034507632
63	0xbc9b25d6	-0.01893894
64	0x3db2d5b6	0.087321684
65	0xbd9f4378	-0.077765405
66	0xbd8a3e5b	-0.067501746
67	0xbc45d75a	-0.01207527
68	0x3c0fb682	0.008771541
69	0x3c2a9c63	0.010413262
70	0xbd93768c	-0.072003454
71	0x3c1c824a	0.009552548
72	0x3d2b6eae	0.0418536
73	0xbd289208	-0.04115489
74	0x3c9cecfa	0.019155968
75	0xbcf6f0c2	-0.0301441
76	0xbc8c3b3e	-0.017118093
77	0xbccef229	-0.025261955
78	0x3d6ff913	0.058587145
79	0xbd24cd8d	-0.04023509
80	0x3c04dc6c	0.008109193
81	0xbcab42d0	-0.020905882
82	0x3c47d7d2	0.012197452
83	0xbd0e3db3	-0.03472681
84	0x3c6d48a7	0.014482654
85	0xbcd2bb08	-0.02572395
86	0x3d4d5dfc	0.05013846
87	0x3be0e418	0.0068631284
88	0xbbb53206	-0.005529645
89	0x3d547568	0.05186978
90	0x3d06ed59	0.032941196
91	0x3ceed5a8	0.029154614
92	0xbd2de08f	-0.042450484
93	0xbdd4de81	-0.10394002
94	0x3c76703c	0.015041407
95	0xba9a3524	-0.0011765105
96	0x3be9652f	0.0071226577
97	0x3c8f425c	0.017487697
98	0x3c878e76	0.016547423
99	0x3d26bc73	0.040707063
100	0xbd2e540d	-0.042560626
101	0x3be91374	0.0071129147
102	0x3ca2213e	0.019791242
103	0x3ca05f0a	0.019576568
104	0xbd0450b5	-0.03230353
105	0x3d75d90a	0.060021438
106	0xbd174ead	-0.036940265
107	0x3c8aec52	0.01695839
108	0xbcfab790	-0.030605108
109	0xbc96bb7a	-0.018399943
110	0x3d0c937b	0.034320336
111	0x3d57310a	0.052537
112	0xbd303978	-0.043023556
113	0xbdd76cfa	-0.105188325
114	0x3d96b84a	0.07359369
115	0x3d9385d5	0.07203261
116	0x3db2fa14	0.08739105
117	0x3c67c282	0.014145495
118	0xbd18d0ac	-0.03730838
119	0x3cd762f6	0.026292305
120	0xbb502b37	-0.003176404
121	0xbd38a8f4	-0.045083
122	0xbc9728e2	-0.018452112
123	0x3ca5664c	0.02019038
124	0xbbb30163	-0.005462812
125	0x3b2a5439	0.0025990142
126	0x3d72902a	0.059219517
127	0x3cd3de8c	0.025862955
128	0xbdbba69e	-0.09162639
129	0x3ca9bdc0	0.020720363
130	0xbbf1a576	-0.007374461
131	0xbd1a7ec0	-0.037718534
132	0xbc42b479	-0.011883848
133	0xbc0b9d8e	-0.008521451
134	0xbb95c64c	-0.004570758
135	0x3da48b3d	0.0803437
136	0x3d6ad8a4	0.05733551
137	0x3d520173	0.051270913
138	0xbd345485	-0.044025917
139	0x3d028597	0.031865682
140	0x3ce9817e	0.02850413
141	0x3d0ebe80	0.034849644
142	0xbce8ec08	-0.028432861
143	0x3bcc6496	0.0062375767
144	0x3da3d205	0.079990424
145	0xbbc26b22	-0.0059331814
146	0x3d1a9189	0.03773645
147	0xbabdc730	-0.0014478918
148	0x3a9f8cd3	0.0012172706
149	0x3bd33d37	0.0064465064
150	0x3dba5e5a	0.091000274
151	0x3c457a09	0.012053021
152	0xbca5af84	-0.020225294
153	0xbaf940e5	-0.0019016532
154	0x3ac4d5de	0.0015017351
155	0x3cfe005c	0.03100603
156	0xbcb97a64	-0.022641368
157	0xbc708b86	-0.0146817025
158	0x3cf0fc5a	0.029417206
159	0xbc1796e5	-0.009252285
160	0x3d14b443	0.036304723
161	0xbd5808b5	-0.05274268
162	0x3c24553e	0.010030089
163	0x3c1b2fc4	0.009471837
164	0xbcff36e2	-0.0311541
165	0xbd355d5f	-0.0442785
166	0x3d4f97e9	0.050681982
167	0xbc472b52	-0.012156324
168	0xbc6aecf3	-0.01433872
169	0x3c7bbe96	0.015365263
170	0xbd6dc1c3	-0.058046114
171	0xbc5f040b	-0.013611804
172	0x3b821795	0.0039700964
173	0xbce3d324	-0.02781064
174	0xbcaa3f06	-0.020782005
175	0x3da41cb6	0.08013289
176	0xbc3d4f8e	-0.011554612
177	0x3d314d4d	0.04328661
178	0xbcc4882a	-0.02399071
179	0xbc45d5b0	-0.012074873
180	0xbdabfb38	-0.083975255
181	0x3c2fc324	0.0107276775
182	0x3c6746d0	0.014116004
183	0x3c89fea8	0.016845062
184	0x3d903e10	0.070430875
185	0xbd98c462	-0.07459332
186	0x3bf865b5	0.007580484
187	0xbcd6ad59	-0.026205705
188	0x3cbcda66	0.02305336
189	0x3cc07c67	0.02349682
190	0x3977d6e0	0.00023635803
191	0x3d7a8c96	0.06116923
192	0x3d13e0eb	0.03610317
193	0x3d258aa7	0.040415432
194	0x3d5c9778	0.05385539
195	0x3d14ee67	0.03636017
196	0xbd96c87f	-0.0736246
197	0x3d3f3469	0.04668084
198	0xbd0f6a05	-0.035013217
199	0xbd2d8f23	-0.042372834
200	0xbd82f071	-0.06393517
201	0x3d72aa47	0.05924442
202	0xbd4db1d5	-0.050218422
203	0x3cafb337	0.021447761
204	0xbc1316f5	-0.008977641
205	0xbd3995ab	-0.04530875
206	0x3dd8a975	0.10579196
207	0x3cf99d04	0.030470379
208	0xba94ad3e	-0.0011343134
209	0x3d160f49	0.03663567
210	0xbc986e05	-0.018607149
211	0xbc8521b5	-0.016251424
212	0xbd6e06ff	-0.05811214
213	0xbd39b749	-0.04534081
214	0x3c342992	0.010996239
215	0x3d9a4bac	0.075339645
216	0xbdb2ec33	-0.08736458
217	0xbd4f443e	-0.05060219
218	0xbc6a990b	-0.014318715
219	0x3d810961	0.06300617
220	0xbd89731b	-0.06711408
221	0x3ce7f586	0.028315317
222	0x3c90202e	0.01759347
223	0xbd063a60	-0.032770514
224	0xbcbb0f4c	-0.022834443
225	0xbc7a439d	-0.015274909
226	0x3bf31022	0.0074176947
227	0x3dd3f256	0.10348956
228	0x3cbd5a9c	0.023114495
229	0x3cbd08f6	0.023075562
230	0x3d96d0fb	0.073640786
231	0x3d4bc874	0.049751714
232	0x3d03aa16	0.03214463
233	0x3d1114c2	0.035420187
234	0x3cd99731	0.026561351
235	0xbd457e6d	-0.048216272
236	0xbd3e7bb4	-0.04650469
237	0x3c9968a5	0.018726656
238	0x3d0ba3d3	0.03409178
239	0xbc94f55b	-0.0181834
240	0xbd77ab7d	-0.06046628
241	0x3d8297a2	0.06376578
242	0xbbc8aac7	-0.006123874
243	0xbcea7662	-0.028620902
244	0xbd212296	-0.039339624
245	0xbbc065f2	-0.005871528
246	0xbbce332e	-0.006292722
247	0xbcd1296f	-0.025532452
248	0xbd817d4c	-0.063227266
249	0xbd0cb55c	-0.034352645
250	0xbca117a1	-0.019664587
251	0xbd5b30e2	-0.053513415
252	0x3caf1123	0.021370476
253	0x3cb52d1e	0.02211624
254	0xbc20962f	-0.009801432
255	0x3d8e62fe	0.06952475

std.constant7 f4 [128]
0	0x3dc70dd4	0.097194344
1	0x3d1b5d05	0.037930507
2	0x3cef19ee	0.029187169
3	0xbb43afa2	-0.0029859324
4	0x3c1ceb08	0.00957752
5	0x3d133b97	0.0359455
6	0x3d6f562a	0.05843178
7	0x3ccb38de	0.02480739
8	0x3dd88a57	0.10573261
9	0x3d3e85b7	0.04651424
10	0x3ca88779	0.02057241
11	0xbbd888f8	-0.006608125
12	0x3c09a17f	0.00840032
13	0x3d59f5fb	0.0532131
14	0x3c05dd80	0.0081704855
15	0x3e07e5a6	0.13271198
16	0x3d981b06	0.07427029
17	0x3dcbdbd0	0.09954035
18	0x3d31736f	0.043322977
19	0x3d885fb9	0.06658883
20	0x3d405559	0.046956394
21	0xbbad248c	-0.0052838977
22	0x3d17d490	0.03706795
23	0x3cc6d072	0.024269316
24	0x3d4415dc	0.04787241
25	0x3d1f7e92	0.038939066
26	0x3d37fde9	0.044919882
27	0x3dad5662	0.08463742
28	0x3d36d45b	0.04463611
29	0x3db17dcc	0.08666572
30	0x3d2e1114	0.042496756
31	0xbb166efe	-0.002295434
32	0xbbcd0a50	-0.006257333
33	0xbbca9709	-0.0061825556
34	0xbbe3f3cb	-0.0069565526
35	0x3dd8baab	0.10582479
36	0x3ba2f661	0.0049732183
37	0x3d6a52b4	0.057207778
38	0x3c97933c	0.018502824
39	0x3d8491b3	0.064731024
40	0x3df3a8e8	0.11897451
41	0x3ddad036	0.10684244
42	0x3d805f4c	0.062681764
43	0x3bf91510	0.007601388
44	0xbc3de257	-0.011589608
45	0xbb8cf505	-0.0043016695
46	0x3b466b43	0.0030276335
47	0x3b4b91f4	0.0031062337
48	0x3d04d1fb	0.032426815
49	0xbbe85c9a	-0.007091117
50	0x3c011e97	0.007880828
51	0x3d072e86	0.033003353
52	0x3dbfa8b0	0.093583465
53	0xbb8801d6	-0.0041506095
54	0x3cab7b55	0.020932833
55	0x3d4f09a6	0.05054631
56	0xbba12bee	-0.004918567
57	0xbbbe3bf8	-0.0058054887
58	0x3cc970e1	0.024589958
59	0x3c2f28e7	0.010690904
60	0x3d55a40f	0.05215841
61	0x3d987adc	0.074453086
62	0x3d23fc70	0.040035665
63	0x3df90555	0.1215922
64	0x3c338ed9	0.0109593505
65	0x3d8df5e5	0.06931666
66	0x3d2c8654	0.042120293
67	0x3cf562fb	0.029954424
68	0x3da954b9	0.08268113
69	0x3da69aad	0.08134971
70	0x3cf99a26	0.030469012
71	0xbb9614fc	-0.0045801383
72	0x3d38666e	0.04501956
73	0x3cc5a69e	0.0241273
74	0x3cbe22d5	0.023209969
75	0x3d9f26c8	0.07771069
76	0xbb2acdda	-0.0026062638
77	0x3cdfbddf	0.027312217
78	0x3dcec367	0.10095864
79	0xbb9b370c	-0.0047367867
80	0x3d660be5	0.056163687
81	0x3cd6c894	0.02621869
82	0xbbaa893c	-0.005204348
83	0x3d0629e1	0.032754783
84	0x3cfa273b	0.030536285
85	0x3de099b0	0.109668136
86	0x3dbaeedf	0.09127592
87	0x3cf5c6db	0.030002048
88	0x3d9e9f7f	0.07745265
89	0x3cd4e7d2	0.025989447
90	0x3a30e86f	0.00067485025
91	0x3d4090fb	0.047013264
92	0x3ca1af2c	0.019736849
93	0x3d611f7f	0.054961678
94	0xbc7992e9	-0.01523278
95	0xbc0659f9	-0.008200162
96	0xbbdf0472	-0.00680595
97	0x3ddca3fa	0.107734635
98	0x3cfcca26	0.03085811
99	0x3c8c6fa1	0.017143073
100	0x3d19d083	0.037552368
101	0xbc0a1cfc	-0.008429762
102	0xbbe0c601	-0.0068595414
103	0xbb93464e	-0.004494465
104	0x3c38d183	0.01128042
105	0xbc0f025e	-0.008728592
106	0x3d84c7f3	0.0648345
107	0x3ce7bfd7	0.028289719
108	0x3cb2f882	0.021847013
109	0x3cd304a8	0.025759056
110	0x3daf506e	0.085602626
111	0x3d096e42	0.033552416
112	0x3c504856	0.012712559
113	0x3ba24383	0.0049518957
114	0x3d3e762c	0.046499416
115	0x3cdf54a3	0.027262038
116	0xbc259c09	-0.010108002
117	0x3df7a140	0.12091303
118	0x3d9cefcb	0.076629244
119	0x3c4e5c45	0.012595241
120	0x3cbe6c54	0.023245014
121	0x3c8b54ff	0.017008303
122	0x3dc8cf1f	0.0980513
123	0x3c4d72e1	0.012539596
124	0x3d009143	0.031388532
125	0xbbd585a4	-0.0065161753
126	0x3c7d74a5	0.015469705
127	0x3dcf062d	0.101086

std.constant8 f4 [128]
0	0xbccf0b8d	-0.025274063
1	0xb81a0060	-3.671681e-05
2	0xbab44c3e	-0.0013755632
3	0xbb805e3e	-0.0039174845
4	0x3b9bd775	0.004755909
5	0x3a3816dd	0.000702245
6	0xbcb91b18	-0.022595927
7	0x3b4c0c6e	0.0031135338
8	0xbcb4b03a	-0.022056688
9	0x3a88e327	0.0010443673
10	0x3b9f75b6	0.004866327
11	0x3bde80bb	0.006790248
12	0x3ba3a846	0.004994425
13	0xbb453f7f	-0.003009766
14	0xba518650	-0.00079927314
15	0xbcd6e693	-0.026232993
16	0xbc6841f7	-0.0141758835
17	0xbb565a74	-0.0032707723
18	0x3ca7ef22	0.02049977
19	0x3ad1045a	0.0015946731
20	0xbb6b91dd	-0.0035945096
21	0x3b952886	0.00455195
22	0x3b3f58ae	0.0029197144
23	0x3c03414a	0.008011172
24	0xbbd6bff3	-0.006553644
25	0x3aaa8c2d	0.0013011746
26	0xbc176cab	-0.009242217
27	0xbcc2a624	-0.023760863
28	0x3b004b98	0.0019576307
29	0x3c548bea	0.012972811
30	0x3c49a8e3	0.012308332
31	0xbb3300ce	-0.0027313712
32	0xbb5b2439	-0.0033438338
33	0x3b34bcc3	0.002757833
34	0xbadac878	-0.0016691824
35	0xbcb3c942	-0.021946553
36	0xbb2d2432	-0.002641928
37	0x3c9a4774	0.0188329
38	0x3b68976c	0.0035490645
39	0xbc587b43	-0.013212982
40	0x39a1c51e	0.00030855177
41	0xbca797bf	-0.0204581
42	0xbb7574b2	-0.003745359
43	0xbb91a380	-0.0044445395
44	0xbc27532c	-0.010212701
45	0xbbe61856	-0.007021944
46	0xbbb59b1c	-0.005542172
47	0xbc840f49	-0.01612057
48	0x3a46454f	0.00075634284
49	0x3be56ba8	0.007001359
50	0x3b9e0c59	0.0048232493
51	0xbcb38960	-0.021916091
52	0x3bd3ce9b	0.0064638383
53	0xbb4a0679	-0.0030826612
54	0x3ad86898	0.0016510664
55	0x3a9012d8	0.0010991944
56	0xbba15966	-0.004923987
57	0xbbaeacc0	-0.005330652
58	0xbb5c4141	-0.003360823
59	0x3b14902c	0.002266894
60	0x3c606fce	0.013698531
61	0x3b07d0d4	0.0020723836
62	0x3cd41d51	0.025892885
63	0x3c5abbe2	0.013350459
64	0xba41f1fe	-0.00073984254
65	0xbcc69063	-0.02423877
66	0x3b317099	0.002707517
67	0xbbb4e468	-0.005520392
68	0x3b055747	0.002034621
69	0xbc7cb85f	-0.015424817
70	0xbb62db06	-0.0034615411
71	0xbb272390	-0.0025503375
72	0x3bb41378	0.005495485
73	0x3c0d4764	0.008622978
74	0xbb887d1c	-0.004165305
75	0x3aab20b4	0.0013056011
76	0x3bd57b1c	0.00651492
77	0x3b2a3a70	0.0025974773
78	0x3cddb78c	0.027065061
79	0x3b064f77	0.0020494142
80	0x3b32d5fa	0.0027288185
81	0x3aee13c3	0.0018163848
82	0xbb4665eb	-0.003027315
83	0xbb590b1f	-0.00331182
84	0xbcb89f42	-0.022536878
85	0xbcbb197b	-0.022839298
86	0xbbc7b563	-0.006094621
87	0x3be576c7	0.0070026848
88	0xbab7a78f	-0.0014011728
89	0xbb7555cc	-0.0037435172
90	0xb9a74466	-0.00031903683
91	0x3b68d7cb	0.0035529013
92	0x3afc7e8d	0.0019263789
93	0x3b517bd3	0.0031964674
94	0xbc5c256f	-0.013436659
95	0x3c71d896	0.014761111
96	0x3bba9925	0.005694526
97	0xbcc82d91	-0.02443579
98	0xbb9a2752	-0.0047043944
99	0xbbbe7ee6	-0.0058134673
100	0x3c38009c	0.011230614
101	0x3b3cd9cb	0.0028816338
102	0xbaf912b1	-0.0019002763
103	0x3bcec528	0.006310124
104	0x3adee27d	0.0017004755
105	0x3c840192	0.01611403
106	0xbc82376e	-0.015895572
107	0x3c88cc9f	0.016699133
108	0x3bd7d5c7	0.0065867635
109	0xbc42595f	-0.011862128
110	0xbbe2d265	-0.0069220536
111	0xbaf94806	-0.0019018657
112	0xbc92524b	-0.017861506
113	0xbc2a0f23	-0.010379585
114	0x3b9c7a4f	0.0047753225
115	0xbb5933f6	-0.0033142543
116	0xbbb9a723	-0.005665676
117	0xbc981026	-0.018562388
118	0x3ce09917	0.027416749
119	0xbb122898	-0.0022302028
120	0x3b51e712	0.0032028598
121	0xbb0cb293	-0.0021468743
122	0x3cc4045d	0.023927862
123	0x3b175dad	0.0023096607
124	0xbba6c796	-0.0050897105
125	0xbbe7be67	-0.0070722583
126	0xbb106c3b	-0.0022037167
127	0xba99551b	-0.0011698337

std.constant9 f4 [128]
0	0x3f800000	1.0
1	0x3f800000	1.0
2	0x3f800000	1.0
3	0x3f800000	1.0
4	0x3f800000	1.0
5	0x3f800000	1.0
6	0x3f800000	1.0
7	0x3f800000	1.0
8	0x3f800000	1.0
9	0x3f800000	1.0
10	0x3f800000	1.0
11	0x3f800000	1.0
12	0x3f800000	1.0
13	0x3f800000	1.0
14	0x3f800000	1.0
15	0x3f800000	1.0
16	0x3f800000	1.0
17	0x3f800000	1.0
18	0x3f800000	1.0
19	0x3f800000	1.0
20	0x3f800000	1.0
21	0x3f800000	1.0
22	0x3f800000	1.0
23	0x3f800000	1.0
24	0x3f800000	1.0
25	0x3f800000	1.0
26	0x3f800000	1.0
27	0x3f800000	1.0
28	0x3f800000	1.0
29	0x3f800000	1.0
30	0x3f800000	1.0
31	0x3f800000	1.0
32	0x3f800000	1.0
33	0x3f800000	1.0
34	0x3f800000	1.0
35	0x3f800000	1.0
36	0x3f800000	1.0
37	0x3f800000	1.0
38	0x3f800000	1.0
39	0x3f800000	1.0
40	0x3f800000	1.0
41	0x3f800000	1.0
42	0x3f800000	1.0
43	0x3f800000	1.0
44	0x3f800000	1.0
45	0x3f800000	1.0
46	0x3f800000	1.0
47	0x3f800000	1.0
48	0x3f800000	1.0
49	0x3f800000	1.0
50	0x3f800000	1.0
51	0x3f800000	1.0
52	0x3f800000	1.0
53	0x3f800000	1.0
54	0x3f800000	1.0
55	0x3f800000	1.0
56	0x3f800000	1.0
57	0x3f800000	1.0
58	0x3f800000	1.0
59	0x3f800000	1.0
60	0x3f800000	1.0
61	0x3f800000	1.0
62	0x3f800000	1.0
63	0x3f800000	1.0
64	0x3f800000	1.0
65	0x3f800000	1.0
66	0x3f800000	1.0
67	0x3f800000	1.0
68	0x3f800000	1.0
69	0x3f800000	1.0
70	0x3f800000	1.0
71	0x3f800000	1.0
72	0x3f800000	1.0
73	0x3f800000	1.0
74	0x3f800000	1.0
75	0x3f800000	1.0
76	0x3f800000	1.0
77	0x3f800000	1.0
78	0x3f800000	1.0
79	0x3f800000	1.0
80	0x3f800000	1.0
81	0x3f800000	1.0
82	0x3f800000	1.0
83	0x3f800000	1.0
84	0x3f800000	1.0
85	0x3f800000	1.0
86	0x3f800000	1.0
87	0x3f800000	1.0
88	0x3f800000	1.0
89	0x3f800000	1.0
90	0x3f800000	1.0
91	0x3f800000	1.0
92	0x3f800000	1.0
93	0x3f800000	1.0
94	0x3f800000	1.0
95	0x3f800000	1.0
96	0x3f800000	1.0
97	0x3f800000	1.0
98	0x3f800000	1.0
99	0x3f800000	1.0
100	0x3f800000	1.0
101	0x3f800000	1.0
102	0x3f800000	1.0
103	0x3f800000	1.0
104	0x3f800000	1.0
105	0x3f800000	1.0
106	0x3f800000	1.0
107	0x3f800000	1.0
108	0x3f800000	1.0
109	0x3f800000	1.0
110	0x3f800000	1.0
111	0x3f800000	1.0
112	0x3f800000	1.0
113	0x3f800000	1.0
114	0x3f800000	1.0
115	0x3f800000	1.0
116	0x3f800000	1.0
117	0x3f800000	1.0
118	0x3f800000	1.0
119	0x3f800000	1.0
120	0x3f800000	1.0
121	0x3f800000	1.0
122	0x3f800000	1.0
123	0x3f800000	1.0
124	0x3f800000	1.0
125	0x3f800000	1.0
126	0x3f800000	1.0
127	0x3f800000	1.0

std.constant10 f4 [128]
0	0x3dc67435	0.096901335
1	0x3d1b4e2d	0.03791635
2	0x3ce9dbc7	0.02854718
3	0xbb5bc980	-0.0033536851
4	0x3c1da7a4	0.009622488
5	0x3d133ad8	0.03594479
6	0x3d6e8457	0.058231678
7	0x3ccd862d	0.025088394
8	0x3dd8d6e5	0.10587863
9	0x3d3f90b9	0.046768878
10	0x3caa4996	0.020787042
11	0xbbdc158f	-0.006716437
12	0x3c0478ca	0.008085439
13	0x3d5674dd	0.052357543
14	0x3bfba349	0.007679377
15	0x3e081561	0.13289405
16	0x3d978669	0.073986836
17	0x3dcc67da	0.099807456
18	0x3d32824a	0.043581285
19	0x3d8898a1	0.06669737
20	0x3d422c65	0.04740562
21	0xbbad9cc9	-0.0052982313
22	0x3d16679e	0.03671991
23	0x3cc69e47	0.024245394
24	0x3d44cfd3	0.04804976
25	0x3d2007d1	0.039069954
26	0x3d39daa1	0.045374516
27	0x3dab9f25	0.08379964
28	0x3d347819	0.044059847
29	0x3db12e45	0.08651403
30	0x3d2ecfb5	0.042678554
31	0xbb16da4c	-0.0023018299
32	0xbbca9ca8	-0.0061832257
33	0xbbd1a4d4	-0.006397823
34	0xbbdead0d	-0.0067955316
35	0x3dd8b3ae	0.10581146
36	0x3b9d7668	0.004805375
37	0x3d68f498	0.056873888
38	0x3c989606	0.018626224
39	0x3d85a404	0.06525424
40	0x3df3cf7f	0.11904811
41	0x3ddaef4b	0.10690173
42	0x3d80fc03	0.062980674
43	0x3bf8811f	0.007583752
44	0xbc40f96d	-0.011778218
45	0xbb8c12f8	-0.004274722
46	0x3b7c3ba0	0.0038487688
47	0x3b53cd31	0.0032318349
48	0x3d02a071	0.03189129
49	0xbbe8e3a7	-0.0071072164
50	0x3c0072e2	0.00783989
51	0x3d04a14f	0.0323804
52	0x3dbf3a89	0.093373366
53	0xbb8fc365	-0.0043873065
54	0x3ca6dcd4	0.02036897
55	0x3d4e6807	0.050392177
56	0xbbb263f2	-0.0054440433
57	0xbbba83d9	-0.005691987
58	0x3cc70def	0.024298636
59	0x3c345f47	0.011009044
60	0x3d571a56	0.05251535
61	0x3d967381	0.07346249
62	0x3d243696	0.04009112
63	0x3df83c21	0.12120844
64	0x3c304f39	0.010761076
65	0x3d8dfd12	0.06933035
66	0x3d2bda60	0.041956306
67	0x3cee7e4a	0.029112954
68	0x3da95f49	0.08270127
69	0x3da69057	0.081329994
70	0x3cf95526	0.03043611
71	0xbb9641ca	-0.0045854794
72	0x3d36f167	0.044663813
73	0x3cc99811	0.024608644
74	0x3cbcaa00	0.023030281
75	0x3d9fbcb3	0.077996634
76	0xbb39581c	-0.0028281277
77	0x3ce17816	0.027523082
78	0x3dce8355	0.10083643
79	0xbb9a2a5f	-0.004704758
80	0x3d631b62	0.055446036
81	0x3cd5e347	0.02610935
82	0xbba85328	-0.005136866
83	0x3d08f653	0.033438038
84	0x3cfab2ef	0.0306029
85	0x3de10300	0.109869
86	0x3dbabf4e	0.0911852
87	0x3cfb094a	0.030644078
88	0x3d9ec0cd	0.077516176
89	0x3cd8d4d4	0.026468672
90	0x38589e20	5.164568e-05
91	0x3d3e0308	0.04638961
92	0x3ca5722b	0.020196041
93	0x3d5f1b22	0.054469235
94	0xbc74d517	-0.014943383
95	0xbc074860	-0.008257002
96	0xbbe04f09	-0.006845359
97	0x3ddc4cc4	0.107568294
98	0x3d01a6d2	0.031653233
99	0x3c88f8a2	0.01672012
100	0x3d1ae308	0.03781417
101	0xbc0a2e07	-0.008433825
102	0xbbe0bf5e	-0.0068587502
103	0xbb9c56f0	-0.004771106
104	0x3c40714d	0.011745763
105	0xbc0e46ef	-0.008683904
106	0x3d846e9d	0.0646641
107	0x3ceb1f22	0.028701369
108	0x3cb9c1d9	0.022675442
109	0x3cd3945a	0.025827575
110	0x3daf92cf	0.085729234
111	0x3d0758c7	0.03304365
112	0x3c4ef21d	0.0126309665
113	0x3ba39da8	0.0049931593
114	0x3d3bdc2d	0.045864273
115	0x3cdca820	0.026935637
116	0xbc249a52	-0.010046558
117	0x3df716d8	0.12064904
118	0x3d9cc96e	0.07655607
119	0x3c543f9d	0.01295462
120	0x3cbf49d6	0.023350637
121	0x3c87db96	0.016584199
122	0x3dc89173	0.09793367
123	0x3c3f5a84	0.011679295
124	0x3d02516c	0.03181593
125	0xbbccdb09	-0.006251697
126	0x3c80fe42	0.01574624
127	0x3dcf589e	0.10124324

std.constant11 f4 [128, 7]
0	0xbccb9588	-0.024851575
1	0x3d4b2e6d	0.049604822
2	0xbd66e7e8	-0.056373507
3	0xbd68c51e	-0.05682861
4	0xbd3256d8	-0.043539852
5	0xbd2502a4	-0.04028572
6	0x3d629334	0.055316165
7	0x3dcf26c6	0.10114817
8	0x3c19ea3c	0.009394225
9	0x3ce2126e	0.027596679
10	0x3dbd630f	0.092474096
11	0x3cf5791c	0.029964976
12	0xbd140f89	-0.036147628
13	0xbcd4d523	-0.025980538
14	0x3d203915	0.039116938
15	0x3d648d92	0.055799074
16	0x3d4919d1	0.049096886
17	0x3dd79d98	0.105281055
18	0xbd5d2dc1	-0.053998712
19	0x3dfa6e6e	0.12228094
20	0x3d6955d1	0.056966607
21	0x3d53c6bb	0.051703196
22	0xbcbb3df8	-0.022856697
23	0x3d1b6f67	0.03794804
24	0xbc7be289	-0.015373834
25	0xbdc8a869	-0.09797747
26	0x3b894775	0.0041894265
27	0xbcf2c607	-0.029635442
28	0xbd22a2f1	-0.039706174
29	0x3d703383	0.058642875
30	0x3d9b1c74	0.075737864
31	0xbcd27471	-0.02569029
32	0x3d6869f4	0.05674167
33	0x3dd8dfc1	0.10589553
34	0x3dcf3637	0.101177625
35	0xbcbbe5f2	-0.022936795
36	0xbd9756f1	-0.0738963
37	0xbd535c4d	-0.051601697
38	0x3db77834	0.08958474
39	0xbd8d7041	-0.06906176
40	0x3cbc6d3f	0.023001311
41	0x3dc0d7cd	0.09416161
42	0x3d01fc70	0.031734884
43	0xbd795c6e	-0.060879163
44	0xbd343537	-0.043996062
45	0xbd903738	-0.07041782
46	0xbda7a45c	-0.08185646
47	0x3d8197e7	0.06327801
48	0x3d9b76bd	0.07591007
49	0x3c1b907b	0.009494896
50	0x3dbed1f5	0.0931739
51	0xbdc2681a	-0.09492512
52	0xbdab34b3	-0.08359661
53	0x3dd6f79b	0.10496446
54	0x3d88cef6	0.066801
55	0x3df24db8	0.1183123
56	0xbd92ba30	-0.07164419
57	0x3d17d75e	0.037070625
58	0xbc4b1387	-0.012394792
59	0x3d5c3fe0	0.053771853
60	0xbd05d82d	-0.032676864
61	0x3e0564f9	0.130268
62	0xbcfbadc8	-0.030722514
63	0x3bd70199	0.0065614698
64	0x3db89fa4	0.09014824
65	0x3db326bd	0.08747623
66	0x3d2f54e9	0.042805586
67	0x3dc3d182	0.09561445
68	0xbc47cd24	-0.012194905
69	0x3e0a8912	0.1352885
70	0xbc0123af	-0.007882043
71	0xbd036de3	-0.032087218
72	0x3d68b6df	0.056815024
73	0x3ca97150	0.020683914
74	0xbd981ba7	-0.07427149
75	0x3df151df	0.11783194
76	0x3dab1402	0.083534256
77	0xbc0b8d2b	-0.008517544
78	0xba827e9b	-0.0009955944
79	0x3d8ee4df	0.069772474
80	0xbd88d60b	-0.066814505
81	0xbc4001ee	-0.01171921
82	0xbcd03ed7	-0.02542059
83	0xbd954f75	-0.07290546
84	0x3cf6c31e	0.030122336
85	0xbdafb41a	-0.085792735
86	0x3cacd132	0.021095846
87	0x3b2ead80	0.0026653707
88	0xbd0c0c97	-0.034191694
89	0x3d9b784b	0.075913034
90	0xbc96df04	-0.018416889
91	0xbbdf9403	-0.0068230643
92	0xbc53150e	-0.012883438
93	0x3d635add	0.055506576
94	0x3ca7c524	0.020479746
95	0xbd52ebd6	-0.051494442
96	0x3d900543	0.070322536
97	0x3aac900d	0.0013165489
98	0xbc5c58ea	-0.013448933
99	0x3c9191e1	0.017769756
100	0xbdd83a06	-0.10557942
101	0x3d5d5929	0.054040108
102	0xbbcc8b9c	-0.0062422287
103	0x3d6ee79b	0.058326345
104	0xbc024615	-0.007951279
105	0x3d241f19	0.04006872
106	0x3d4ca339	0.04996035
107	0x3d9d0b2b	0.07668146
108	0x3db11756	0.08647029
109	0xbd150252	-0.036379166
110	0x3df22e22	0.118252054
111	0xbd662c2d	-0.056194473
112	0x3d3d1e3a	0.046171404
113	0x3dc5b12b	0.09652933
114	0x3d8d92e4	0.06912783
115	0x3e01bde6	0.12670097
116	0x3dc2760d	0.09495173
117	0x3cf6375a	0.03005569
118	0xbcb84228	-0.022492483
119	0x3d4e4eb9	0.050368045
120	0x3d122e8f	0.035688933
121	0x3c5910c1	0.013248623
122	0xbd4dae9f	-0.05021536
123	0x3b886769	0.004162718
124	0x3d9c8862	0.076432005
125	0x3d2b00f5	0.04174896
126	0xbdaebe64	-0.08532408
127	0xbd85a834	-0.06526223
128	0xbc8ac56b	-0.01693984
129	0xbdafeda9	-0.08590252
130	0x3dc4e7a3	0.09614494
131	0xbd35b57c	-0.04436253
132	0xbdd74414	-0.10511032
133	0x3de698f9	0.11259646
134	0x3dc76b5f	0.09737276
135	0xbcfc11b5	-0.030770162
136	0x3de093dc	0.10965702
137	0x3d401906	0.046898864
138	0x3e0cdf95	0.13757165
139	0xbc52990d	-0.012853873
140	0xbd87d2a0	-0.066319704
141	0x3cf545bb	0.029940477
142	0xbcdcabc5	-0.026937375
143	0xbd4e9306	-0.05043318
144	0x3d7b30ff	0.061326023
145	0xbd3e5702	-0.046469696
146	0x3e057c05	0.13035591
147	0xbd4088ac	-0.04700534
148	0xbd32c769	-0.043647204
149	0x3d554a83	0.052073013
150	0x3c3a5814	0.0113735385
151	0x3d88b95a	0.06675978
152	0xbcdf0c4b	-0.027227541
153	0x3d9eb261	0.07748867
154	0x3d04c48d	0.032414008
155	0x3d6ed7af	0.05831116
156	0xbd9063be	-0.07050274
157	0x3df65ef8	0.120298326
158	0xbd692f58	-0.056929916
159	0x3c7f3ec4	0.015578929
160	0x3cafc016	0.021453898
161	0x3de39648	0.11112648
162	0x3db9926f	0.09061133
163	0xbbd307a0	-0.006440118
164	0xbd8d9403	-0.069129966
165	0x3c02b0d3	0.0079767285
166	0x3bef8c86	0.007310453
167	0x3d78ffa8	0.060790688
168	0x3d857dbd	0.06518123
169	0x3c304885	0.0107594775
170	0x3da1be9e	0.078976855
171	0x3d25d082	0.04048205
172	0x3bcad7c2	0.006190271
173	0xbda48cd9	-0.08034677
174	0x3c95fe50	0.018309742
175	0x3d8926a4	0.06696823
176	0x3d873747	0.0660234
177	0xbd9877bf	-0.07444715
178	0xbbe798ac	-0.0070677605
179	0xbd5d12a0	-0.05397284
180	0x3da636ee	0.08115946
181	0x3dc025c1	0.09382201
182	0xbd6630a3	-0.056198727
183	0x3c9910cb	0.018684765
184	0x3d6378b7	0.055535045
185	0x3dc255e5	0.09489039
186	0x3da63c57	0.08116978
187	0xbcc929a0	-0.024555981
188	0x3df98148	0.121828616
189	0xbd4ba943	-0.049721967
190	0xbd1527eb	-0.036415022
191	0xbd9e75ac	-0.07737288
192	0x3db3d4b1	0.08780802
193	0xbc35f31a	-0.011105323
194	0xbd81ed72	-0.06344117
195	0x3dbe94f1	0.09305752
196	0xbd9f8d3f	-0.077906124
197	0x3d9c69dc	0.076373786
198	0xbd452a8f	-0.04813629
199	0x39e36093	0.00043368767
200	0x3ce0b16c	0.027428351
201	0xbd067a65	-0.03283157
202	0x3d129cae	0.035793953
203	0x3dccab41	0.099936016
204	0xbd8cfe07	-0.06884389
205	0xbd0377f3	-0.032096814
206	0xbdad1d47	-0.0845285
207	0x3e0329b5	0.12808879
208	0x3dd408a3	0.1035321
209	0xbce23d7d	-0.02761721
210	0xbd47f60a	-0.048818626
211	0xbd3e504f	-0.046463307
212	0x3cb0dfb1	0.02159104
213	0xbc9db1ca	-0.019249815
214	0xbd074613	-0.033025812
215	0xbc1eb5ea	-0.009686926
216	0x3ddaecc7	0.10689693
217	0xbd9088d8	-0.07057351
218	0x3dbfc5e8	0.093639195
219	0x3db853b3	0.09000339
220	0x3b36be5e	0.0027884464
221	0x3c4e763b	0.0126014305
222	0xbd732c58	-0.05936846
223	0x3d7a58d5	0.061119873
224	0xbd3a71c5	-0.045518655
225	0xbd45dde9	-0.048307333
226	0x3daad823	0.08342006
227	0xbd713dfe	-0.05889701
228	0xbcdc3694	-0.026881494
229	0x3d5d9fcb	0.05410747
230	0x3ded2666	0.115795895
231	0xbcf5eeab	-0.030021032
232	0x3d95b7cd	0.07310448
233	0xbc850815	-0.016239205
234	0xbc9418ed	-0.018078292
235	0x3ccec7a6	0.025241684
236	0x3dd1d25a	0.102451995
237	0xbd8b473e	-0.06800698
238	0x3cbbc96d	0.022923196
239	0x3d230258	0.039797157
240	0xbd3fe62f	-0.04685038
241	0x3c869849	0.016430037
242	0xbd2777f7	-0.04088589
243	0x3d02eb2d	0.031962562
244	0x3d5c1f35	0.0537407
245	0x3d803727	0.062605195
246	0x3c16ac7d	0.009196398
247	0xbd80a04f	-0.062805764
248	0x3d6bb240	0.05754304
249	0x3dc303dc	0.095222205
250	0x3ce01a34	0.027356245
251	0xbd070150	-0.032960236
252	0x3d234d01	0.03986836
253	0xbc75528b	-0.014973293
254	0x3d31a0d9	0.043366287
255	0xbdd19361	-0.102331884
