AirQualityApp/AirQualityApp.Android/Assets/MadridShort.tflite (tflite, 814936 bytes, 24 tensors)

std.constant3 f4 [128, 128]
000000 25 4a 72 3d 74 cd 6c 3c 57 d1 5b 3c b5 95 86 3d
       0.05915274 0.014453281 0.01341661 0.06571523
000010 f9 6a d6 bd ed c6 ac bc 6b 28 45 bc 6e c0 5d 3d
       -0.10469622 -0.021090949 -0.012033562 0.054138593
000020 89 ae f5 bc 5d ac 00 bd f3 8c 8e 3d fe 81 7d 3c
       -0.029990451 -0.03141438 0.06960478 0.015472887
000030 47 1d b8 3d f0 4d e0 39 27 9d 29 bd 23 10 00 bc
       0.08989959 0.00042782677 -0.041409638 -0.007816347
000040 47 d2 22 bc 56 e5 6d 3d 4d 58 be 3d e5 78 84 3d
       -0.009937829 0.05808004 0.09294186 0.06468371
000050 8d c6 7f 3c 5f a6 91 3d d4 4b af bc 10 5a 3c 3d
       0.015611303 0.07111811 -0.021398462 0.045984328
000060 ed 45 43 bd a8 3f 68 bd e6 cb 3b bc 19 b5 38 bc
       -0.04767411 -0.056701332 -0.011462187 -0.011273646
000070 ce 9a bf bb 9b 8c a3 bd 55 c2 eb 3d dc 9b e8 3b
       -0.0058473116 -0.07985803 0.11511675 0.007098658
000080 25 b4 8c bc 4c f3 d9 bc b2 78 37 3d b0 37 89 3c
       -0.017175743 -0.02660527 0.04479284 0.016750187
000090 35 8c d1 bd 98 b3 c1 3c 04 6d 0b 3d 8a 8d 21 bd
       -0.102318205 0.023645207 0.034039512 -0.039441623
0000a0 ec 5c 80 3b f9 09 a2 bc 08 62 2e bc 90 8d ce bd
       0.003917327 -0.019780146 -0.01064349 -0.10085595
0000b0 a0 46 85 bc 7a f4 0b bc 2d 47 16 bd 75 70 3c bd
       -0.016269028 -0.0085421745 -0.036688972 -0.046005685
0000c0 60 11 8a 3d fc db c0 3c de 63 0f bc 8e 9b 34 3d
       0.06741595 0.023542397 -0.008751838 0.04409366
0000d0 90 8e ad bc 5d 56 64 bc 6b 2d 35 3c 57 98 8b bd
       -0.021186143 -0.013936606 0.011058192 -0.06816166
0000e0 6c cd da 3b b4 ea dc 39 d6 e5 97 3d f0 60 b7 3b
       0.00667732 0.00042136537 0.074168846 0.0055962726
0000f0 98 50 07 3d 40 bd 1d bc 70 4f 02 bd a8 59 4d bb
       0.033035845 -0.00962764 -0.03181404 -0.0031333957
000100 db 51 43 3c 30 d6 32 bd 4a ea f8 3c 12 e3 bb 3c
       0.011921371 -0.043661296 0.030385155 0.022935424
000110 7a 43 83 bc ba e9 fc bc e2 3e d4 bc fe ad ae bc
       -0.016023386 -0.030873168 -0.025908891 -0.0213232
000120 ec ca 4f bd c0 68 e9 bc 82 a8 b7 bc 9b 45 ae bc
       -0.05073063 -0.028492332 -0.022419218 -0.021273425
000130 88 ea 97 3a bf a2 46 bd 67 e4 b9 3d b6 1b c7 3d
       0.0011590282 -0.04849505 0.090767674 0.09722082
000140 5a e1 76 bd e4 f7 c8 bd b1 2b 58 3d b4 26 2b 3d
       -0.060273506 -0.098129064 0.052776042 0.041784957
000150 cc c2 1b 3d 50 ec 25 bd 34 34 c5 bb 96 f5 b3 3c
       0.03802757 -0.04050857 -0.006018186 0.02196769
000160 54 ee d3 3b 80 ac 2d ba aa 44 d4 3d 40 ab 15 3d
       0.00646762 -0.0006625131 0.10364659 0.03654027
000170 64 f6 1b 3d 9d c8 e7 bc 04 32 58 3b 2c 1f 70 bd
       0.038076773 -0.028293902 0.0032988796 -0.058623478
000180 19 e7 f7 3b 9a 58 2c 3d da dc 64 bd 00 09 ef b8
       0.007565391 0.042076685 -0.055874683 -0.000113980845
000190 f0 0b 10 3c c0 28 8d 3c 61 b7 c3 bc f9 95 55 3c
       0.008791909 0.017231345 -0.023891153 0.013036245
0001a0 85 65 87 3d da 71 0c 3c d0 60 35 3c 80 3d 4e ba
       0.0661116 0.008572066 0.011070445 -0.00078674406
0001b0 72 2a 50 bd 18 22 30 3d c5 63 07 3d dc 9a f4 bc
       -0.05082173 0.043001264 0.033054132 -0.029858999
0001c0 ce 25 a4 3c a3 7f 81 3d b0 1a 8f 3b 80 1b f0 b8
       0.020037558 0.06323173 0.004367195 -0.00011449214
0001d0 7f 60 48 3d b2 e9 61 3d 9e fb ee bd 6b a6 f3 bb
       0.04892015 0.05515451 -0.11669086 -0.00743561
0001e0 ea 9c 2c bc c0 01 14 3a f9 6b 63 bc 46 4c ba 3c
       -0.010535458 0.0005646013 -0.013880723 0.022741448
0001f0 9e a8 9e 3c 72 84 79 3d 8a c2 55 bd ff 60 34 3d
       0.019367512 0.060917325 -0.05218748 0.044037815
000200 0c 97 31 3c e9 02 cd 3a d9 4b 07 3c c5 20 9c bd
       0.010839235 0.0015641126 0.00825783 -0.07623438
000210 8f 24 bc 3b 61 25 15 bc 88 07 03 3d 92 79 52 bd
       0.005741663 -0.00910315 0.031989604 -0.05138547
000220 8a a8 b4 bd 2f 74 65 3d 22 e0 05 bc 57 68 63 3d
       -0.08821209 0.056019004 -0.008171113 0.055519428
000230 8b fa cb bc d2 fb bd 3d 60 df 4e 3d 8a a6 62 3d
       -0.024899742 0.092765465 0.050505996 0.055334605
000240 fb 94 4c 3d e4 a7 a5 3c ce 8f bc 3c a8 36 86 bd
       0.049946766 0.020221658 0.02301779 -0.065533936
000250 97 4f 00 3d 1d 30 8c bb 5b 4e d5 3c d4 b3 73 3c
       0.031325903 -0.0042781965 0.02603834 0.014874417
000260 20 13 6c bc 4c 97 95 bc 98 94 e8 bb f0 48 34 3a
       -0.014408857 -0.01826062 -0.007097792 0.00068773236
000270 2c a2 ba bd b2 14 44 3d b7 8d db bc 95 16 ba bd
       -0.09112963 0.0478713 -0.026800973 -0.090863384
000280 7b b1 89 3d 71 f1 f4 3c 61 f3 a6 3d ea 20 72 bd
       0.06723305 0.029900284 0.081518896 -0.05911342
000290 18 a7 a7 3d 7c 0b 10 bc e3 86 90 3d c9 3c d4 bc
       0.081861675 -0.008791801 0.070569776 -0.02590789
0002a0 e4 07 63 bd 77 c0 43 bd 8a 94 54 bd e2 0f d8 3d
       -0.055427447 -0.04779097 -0.05189947 0.105499044
0002b0 78 27 52 bb 68 7f d4 bc dd e9 99 3b e8 84 17 3b
       -0.0032066982 -0.025939658 0.004697068 0.002311999
0002c0 5d 78 03 bd 6e 50 44 3d 43 7d b7 bd 1a 53 17 bd
       -0.03209721 0.047928266 -0.08959439 -0.036944486
0002d0 e7 e3 7c bc 34 37 0f 3d d9 e5 bb bc da 8e 5c bd
       -0.0154351955 0.034964755 -0.022936748 -0.05384717
0002e0 82 4e c9 3c 41 4e 16 3d 38 1f e1 3c d4 b6 88 3d
       0.024573568 0.036695722 0.027480707 0.06675497
0002f0 0c 43 8d bd 6b d1 99 3d 14 d9 18 bc bd 05 5b bd
       -0.06897554 0.075106464 -0.009329099 -0.05347227
000300 f8 2b 1a 3d b8 c1 13 bd d8 40 b0 3c 7a 71 0d bd
       0.037639588 -0.036073416 0.021515295 -0.034532048
000310 50 c8 2c 3d ba 76 06 3d 50 22 37 bd 2e e4 1a bd
       0.04218322 0.03282807 -0.044710457 -0.037815265
000320 03 ec d2 3c 5b 74 69 3c 99 f2 88 bd e4 03 0c bc
       0.025747305 0.014248933 -0.06686897 -0.0085458495
000330 d8 8c 31 bc 02 9a 33 bc 60 ad 92 39 8a fa ac bb
       -0.010836802 -0.010962011 0.00027976464 -0.00527889
000340 b4 71 e7 3b 46 43 34 3d a5 6e 06 3d 76 0e a0 3d
       0.007063115 0.04400947 0.032820363 0.07815258
000350 f5 c7 e3 3b ab a5 11 bd 6a b8 8d bd 03 cf 35 bd
       0.006951327 -0.035558384 -0.0691994 -0.044386875
000360 60 4d 4e bd 3d 31 e5 3c cc 09 56 3d 70 90 04 3d
       -0.05036676 0.02797758 0.052255437 0.03236431
000370 36 a9 93 bd 4a 95 9c 3c 3c 03 9b 3b be 9f 3f bd
       -0.07210009 0.019114155 0.00473061 -0.0467832
000380 3a 51 64 3c 5f 7c bb bd f8 82 03 3d 81 3a c3 bd
       0.013935382 -0.09154581 0.032107323 -0.09532643
000390 b6 c3 b5 3c a4 e0 1e 3d bc 93 04 3d 8e 13 10 bd
       0.022188049 0.038788453 0.032367453 -0.0351749
0003a0 6a c6 c6 3d 6b d7 cb bc 48 23 b4 bc fc 8f b2 3c
       0.09705813 -0.024882993 -0.02198948 0.021797173
0003b0 4a 9b bd 3c fc 5a c6 bc 09 d0 a4 3d 86 2a 6c bd
       0.023145337 -0.024213307 0.08047492 -0.05765774
0003c0 ce 12 12 3c 1e 34 0c 3d 09 49 88 3d e3 6b e9 3b
       0.008915616 0.03422939 0.06654555 0.007123457
0003d0 2e c2 09 3d 84 ca 9e bc 8f 83 50 bd 67 05 f7 3c
       0.03363245 -0.019383676 -0.050906714 0.030153943
0003e0 f2 d8 18 3c 4e 98 7a 3d e2 75 7f 3c 15 b9 be bd
       0.009329068 0.061180405 0.01559207 -0.09312645
0003f0 4a bb c3 3b 39 95 eb bc 81 31 17 3d 4e 85 48 bc
       0.0059732543 -0.028757678 0.036912445 -0.012238814

std.constant4 f4 [128, 128]
000000 08 3d 3d 3d 75 6d 09 bc 0f bb 05 bd 01 65 03 bd
       0.046200782 -0.008387913 -0.032649096 -0.032078747
000010 8a 30 c3 3c 45 f4 9d 3c 43 2f 6b bd d9 9c 07 bd
       0.023826856 0.019281516 -0.05741812 -0.033108566
000020 f8 38 8a bd 90 5a bf b9 dd 2b ec bc d3 24 41 bd
       -0.06749147 -0.00036497833 -0.02882951 -0.04715426
000030 ff 92 d9 3d 34 8c d0 3c 65 89 0e bd 14 2e 91 bb
       0.106237404 0.025457479 -0.034799 -0.004430542
000040 24 4f d1 3c 3b 02 03 bd 06 bc 8f 3d 62 07 21 3d
       0.025550433 -0.03198455 0.070182845 0.03931368
000050 04 eb 2d bc 31 23 14 bd d8 de 8f 3b 72 9b 4b 3d
       -0.010615114 -0.036166374 0.0043905787 0.04970879
000060 1f d2 5c 3d 44 8f ee bc 27 56 15 bc 8b ff 8a bd
       0.053911325 -0.029121049 -0.009114779 -0.06787022
000070 04 3b 08 3d 5e 74 ff 3b a7 d6 cb bc ed 44 19 bd
       0.033259407 0.0077958545 -0.024882628 -0.03741925
000080 ec 81 ec 3c c4 88 f2 3c 2f 41 91 bd fc 2c 2f bd
       0.028870545 0.02960623 -0.07092511 -0.04276751
000090 c4 d0 a2 bc d0 23 7f bc f0 8d 3e 3d ce 3a 66 bd
       -0.019874938 -0.015572503 0.04652208 -0.056208424
0000a0 35 ac d3 bd 7a 1c cb bc dc a3 b4 3d d0 23 cf 3d
       -0.1033558 -0.024793852 0.08820316 0.101142526
0000b0 7a 6e 26 3c 19 78 66 3d 81 ab 26 3d 06 90 14 3d
       0.010158176 0.056266878 0.040690903 0.036270164
0000c0 9a 24 99 3d f5 83 0c 3c 21 d8 06 3d 25 4f 84 bc
       0.07477684 0.008576383 0.03292096 -0.01615102
0000d0 e5 0a fb bc 74 9d 85 3b 90 28 30 3c 3d 86 55 bd
       -0.030644843 0.0040776078 0.010751858 -0.052129973
0000e0 eb 0c 0f 3d 50 c3 66 ba 68 54 a5 bd 08 65 76 bc
       0.03492443 -0.00088029075 -0.0807274 -0.015038736
0000f0 9a c7 d2 3d bf b6 81 bd bb 2e f2 bc 4c f3 11 bc
       0.10291977 -0.06333684 -0.029563298 -0.008908104
000100 48 44 7b bd f7 04 b5 bb 5c 83 87 3d 40 b2 b5 3b
       -0.061344415 -0.0055242735 0.06616852 0.0055449307
000110 84 8c e2 bd da 54 41 3d c8 3c 31 3b 58 30 1e bd
       -0.110619575 0.04720006 0.0027044285 -0.038620323
000120 40 52 50 3d b7 bf 01 bc df 7d 63 bd 04 20 19 bd
       0.05085969 -0.007919244 -0.055539962 -0.037384048
000130 16 76 96 bd 68 a4 13 bd 57 71 69 bd d4 0a b4 bc
       -0.07346742 -0.036045462 -0.056992855 -0.02197782
000140 fa 76 ac bd 0e 05 57 bb 76 34 01 bb 81 9a 90 bb
       -0.084211305 -0.003280941 -0.0019715107 -0.0044129496
000150 2a 3c 77 3c b3 03 84 bc 8a f5 da bc f8 29 d2 ba
       0.015090028 -0.016115045 -0.02672841 -0.0016034236
000160 22 5c a2 3c 26 87 95 bc a1 b9 03 bd 58 53 b7 bc
       0.019819323 -0.01825292 -0.03215945 -0.022378609
000170 d4 63 15 3d e0 a8 4c bb 5c 36 b1 bc a4 56 10 3d
       0.036472157 -0.0031228587 -0.021632366 0.035238877
000180 cb af 6f 3c a3 06 83 3c 7a 43 3f 3c 0b 6a 12 3d
       0.014629315 0.015994376 0.0116738025 0.03574566
000190 9b 3f 39 3d 0c 5c 4e 3c a0 4c fc bc f9 c0 e5 3b
       0.045226675 0.012595188 -0.030798256 0.0070115295
0001a0 4a 0a 50 3d 4a f3 41 3c a2 92 9d bd b2 08 6d 3d
       0.050791062 0.01183779 -0.076939836 0.05786962
0001b0 a8 b3 ba 3c 46 9e 9c 3d dc ab 74 bc 17 c5 ab 3d
       0.022790745 0.07647376 -0.014933553 0.08387201
0001c0 47 11 65 bc 54 81 20 bc 2a a6 38 3d 5a bd 01 3c
       -0.01398117 -0.009796459 0.04508034 0.00791868
0001d0 2c 49 d6 3b 61 11 00 bd 6c e5 72 3d e7 8a 3d 3d
       0.0065394845 -0.031266574 0.059300825 0.046275046
0001e0 a8 fe 79 bc 1d b0 e9 3c 6a 03 4a 3d 1c 92 ce bc
       -0.015258469 0.02852636 0.049319662 -0.025216155
0001f0 08 aa 08 bd 1b d0 b4 bc 1e 4d 2d bb 40 45 81 bd
       -0.03336528 -0.022071889 -0.002644367 -0.063120365
000200 1e ec e4 bc e6 b1 a6 ba a6 36 25 bd 30 2c e2 3a
       -0.02794462 -0.0012717813 -0.04033532 0.00172556
000210 5a e7 11 bd 84 92 73 bd 9a e1 dc bc 4c 40 19 bc
       -0.035621025 -0.0594659 -0.026963044 -0.0093537085
000220 b4 1b 40 3d ff d5 6d bd 7c 01 3f 3c 4e a3 51 bd
       0.04690142 -0.05806541 0.011658069 -0.05118113
000230 10 63 b1 b9 0c 88 54 3d c0 72 72 3c f6 82 1a 3c
       -0.00033833878 0.051887557 0.014797866 0.009430638
000240 6d ab 98 3c fa a8 60 bd 62 01 9d 3d 02 97 58 3d
       0.01863643 -0.05484865 0.076662794 0.052878387
000250 8a 86 29 3a f0 31 97 3d 70 2a 32 3d 12 23 89 bd
       0.0006466886 0.07382572 0.043497503 -0.06696142
000260 69 92 09 3d a0 16 91 b8 90 99 c0 ba 23 be c1 bc
       0.033586893 -6.918353e-05 -0.0014694203 -0.023650235
000270 77 0b 38 3d 8b a9 84 3c a4 fc 4f bb fd e9 1a bb
       0.04493281 0.016194126 -0.003173628 -0.0023638003
000280 ee 90 03 bc 27 d2 20 bd 61 33 29 bd f1 eb 3d bc
       -0.008030159 -0.039262917 -0.041308764 -0.011591897
000290 57 41 66 bd c1 59 07 3d 39 c7 23 3d 00 98 4a 3a
       -0.056214657 0.03304458 0.039984915 0.0007728338
0002a0 f4 26 c0 3c ba 44 43 3d 20 2b 55 bc 6b 69 b4 3c
       0.023456074 0.047672965 -0.01301077 0.022022923
0002b0 26 e1 08 3d 14 6c 40 3d e4 3e 08 3c 90 6e a7 3c
       0.033417843 0.04697807 0.008315776 0.020438462
0002c0 03 d6 71 3d 1a 3a df 3d 02 c7 34 bc 48 11 3a 3a
       0.059041988 0.10899754 -0.011033775 0.0007097912
0002d0 ef 04 b8 bc 59 a3 fc bc 53 02 53 bd 60 d3 a7 b9
       -0.02246329 -0.030839609 -0.05151589 -0.0003201021
0002e0 43 d8 3f 3b 4a d9 92 3b 7e 63 3f bd 63 95 5c bd
       0.002927319 0.0044814693 -0.046725743 -0.053853404
0002f0 00 34 ba 37 37 e8 ac 3d 4e de f7 bb b0 2b ce bb
       2.2197142e-05 0.08442729 -0.0075643426 -0.006291829
000300 4a 5b 54 bd fd aa f2 3b 80 b5 07 bd 02 83 af 3c
       -0.051844873 0.0074056373 -0.033132076 0.021424774
000310 0f 66 27 3d 7f 3b 11 3d 61 ae 9d 3d fb 41 50 bd
       0.040868815 0.03545713 0.07699276 -0.050844174
000320 49 cf a0 3c c5 0a 75 3c 9c 5a 0b bc 9d b4 cb bd
       0.019630091 0.014956181 -0.00850549 -0.099465586
000330 13 03 68 bd a0 ce 1e bd b4 55 85 bd 55 42 63 3d
       -0.056643557 -0.03877127 -0.06510487 0.05548318
000340 56 55 df bc 7d 3a 64 bd 71 44 82 bc 7d 5c 6e bd
       -0.027262371 -0.05571984 -0.015901776 -0.058193672
000350 fd 02 b5 3c 07 5b 8c 3d ec 2d 46 3b c0 54 05 3d
       0.022096151 0.068532996 0.0030239774 0.032551527
000360 30 53 43 bb b7 da c3 bd 8b f8 a4 3c 93 8e 93 3d
       -0.0029804222 -0.09563201 0.020138046 0.07204928
000370 d6 51 4c 3c 45 f4 97 3d 79 db 82 bd 47 d7 50 3d
       0.012470683 0.074196376 -0.06389517 0.050986554
000380 c1 83 48 bd c0 17 75 3d 68 ff e8 bc de 92 b3 3d
       -0.048953775 0.059837103 -0.0284421 0.08768247
000390 6d 40 81 bd 19 43 b1 bc b8 db 3c 3d 80 7a d0 ba
       -0.06311116 -0.02163844 0.046107978 -0.0015905648
0003a0 da 57 ae 3c 94 c5 62 bd ab b0 51 3d 25 be b3 bd
       0.021282125 -0.055364206 0.051193874 -0.087765016
0003b0 33 16 14 3d 7a fb 9b 3c 40 5a 8e ba 80 f3 50 bd
       0.036153983 0.019040812 -0.0010860637 -0.05101347
0003c0 1c f7 1a 3c fe 1e 17 3d 48 c4 81 bb dc 47 9d 3c
       0.0094583295 0.03689479 -0.003960166 0.019199304
0003d0 b3 da 4c bd 01 f3 01 3d d3 71 65 3d a2 e6 f1 3c
       -0.050013255 0.031725887 0.056016754 0.02952892
0003e0 e0 87 4f bd 82 b2 de bc e4 6a f0 3c b8 52 10 3d
       -0.05066669 -0.027184729 0.029347844 0.035235137
0003f0 37 47 9f bc 50 2c 98 bd 3a c7 51 3c fd 90 43 bd
       -0.019443138 -0.07430327 0.012803847 -0.047745693

std.constant5 f4 [128, 128]
000000 2f e6 62 bd 58 46 e7 3c 20 7a 0e bd 96 cf 38 3c
       -0.0553953 0.028231785 -0.034784436 0.011279961
000010 ca 39 3a bc 18 3c 04 bd 3d 20 00 3d 82 6d 1e 3d
       -0.011366317 -0.032283872 0.031280745 0.038678654
000020 1f 24 32 3c b2 13 b5 bc 06 60 b3 3c 4c 58 a4 3d
       0.01087287 -0.022104118 0.021896373 0.08024654
000030 5b 5a 48 bd ba b0 9c 3c c8 6b c8 bc a3 df b7 bc
       -0.048914295 0.019127239 -0.024465457 -0.022445505
000040 92 b7 cb 3c a8 f2 2a 3d 68 39 19 bd 09 83 02 bd
       0.024867807 0.04173532 -0.037408262 -0.031863246
000050 39 b1 37 bd 9c bf 4c 3d bc 1d ef bc a3 ed 0a 3d
       -0.044846747 0.04998742 -0.029188983 0.033918034
000060 87 2c 3a bd 50 ba eb ba 12 d8 bf bc 9c 5a 7b bd
       -0.04545262 -0.0017984603 -0.02341846 -0.06136571
000070 56 25 35 bd 05 ba 78 3d 03 81 27 3d 12 f9 d4 3c
       -0.04422506 0.060724277 0.04089452 0.025997672
000080 7a 3e b6 3c c0 ee d6 39 7c e9 47 bb 57 d0 96 bc
       0.022246588 0.00040995143 -0.0030504158 -0.018409891
000090 5e a0 cc 3b bc 6f 58 3d bb 05 89 bd d4 65 04 bd
       0.006244703 0.052840933 -0.06690546 -0.032323673
0000a0 f6 87 95 bd 40 9a 03 bb 92 a9 7b bc a4 1a 0e bd
       -0.07301323 -0.0020080954 -0.015360253 -0.034693375
0000b0 be 1a 75 3c 00 3c c5 b8 71 ad 0f 3d 70 42 a9 bd
       0.014959989 -9.404868e-05 0.035077516 -0.08264625
0000c0 2e 08 68 bd c5 8b 15 bd c7 a6 a5 3c a0 b5 14 3d
       -0.056648426 -0.036510248 0.020221127 0.036306024
0000d0 02 19 4d bd 04 40 48 bc ea 75 2f 3c 24 ed dc bb
       -0.050072677 -0.012222294 0.010709265 -0.0067421366
0000e0 ac 68 84 3d e1 b1 78 3d a1 12 68 bd e0 6d a3 b9
       0.06465277 0.060716514 -0.05665839 -0.00031171646
0000f0 02 a9 2d 3d c2 f1 ad 3c 91 86 47 3c 4c 33 6b 3b
       0.042397507 0.021233443 0.012178079 0.003588873
000100 30 4c 2d bd b9 0e 46 bd 2c 03 b2 bc 5a 17 ab 3a
       -0.042308986 -0.048353884 -0.021730028 0.0013053224
000110 13 ac f3 bc 2d 9c 22 3d 66 46 1f 3d fa d3 06 3d
       -0.029745137 0.039699722 0.038885497 0.032917
000120 80 b4 f0 3c 86 12 08 bd 02 91 79 3d 95 f1 bd bc
       0.029382944 -0.03322079 0.060929306 -0.023186484
000130 88 a6 00 3e 3a 81 46 3d 08 8d 84 ba da c6 9f bd
       0.12563527 0.048463084 -0.0010112831 -0.078016
000140 c0 b1 45 bc 5b fd 99 3c b1 81 71 3c dc 37 31 ba
       -0.012066305 0.018797567 0.0147403935 -0.0006760338
000150 26 5c 66 3d 7c e3 49 bc 20 a2 15 bd d3 d0 dd 3b
       0.056240223 -0.012322303 -0.036531568 0.0067692786
000160 ef 1c b9 3c 6a f8 89 3d e1 7d b1 bd 5b 8b d0 bb
       0.022596804 0.06736834 -0.086665876 -0.0063642687
000170 a7 cb 8e bd f8 42 ce bb 35 39 cb 3c 92 01 81 bd
       -0.06972437 -0.0062946044 0.024807552 -0.06299128
000180 78 09 94 ba c4 06 11 bd 86 3b aa 3c 8a 8c 25 bc
       -0.0011294326 -0.035406843 0.020780336 -0.010104308
000190 fc 08 87 3d c6 22 83 bc 04 3c 26 bd c9 43 9a 3c
       0.065935105 -0.016007792 -0.04058458 0.01883115
0001a0 f0 81 88 bd 6c bf 8c ba a0 e1 a2 bc 1f ed 0a bd
       -0.066654086 -0.00107382 -0.019882977 -0.033917543
0001b0 da 4b bf 3c 4b b1 9e bd da c1 af bd f4 0e 5d 3d
       0.023351599 -0.0774866 -0.08581896 0.05396934
0001c0 dc 09 fb 3d 6b 17 14 bd 4d dd ed bd 82 b1 b7 bc
       0.1225774 -0.036155146 -0.116144754 -0.02242351
0001d0 c0 37 29 3d bc a7 4e 3d 9f e4 ba bc f1 32 6b 3c
       0.041312933 0.050452933 -0.022814093 0.014355407
0001e0 fc 85 49 3d a9 1f 06 bd 63 a9 7b bb 52 c2 79 3d
       0.049200043 -0.032745037 -0.0038400523 0.060976334
0001f0 72 7b 87 bd c4 6c 0f bd a3 e0 b0 bd ce 50 7a 3d
       -0.06615342 -0.035015836 -0.08636596 0.061112218
000200 93 b5 cb bc b7 7a 21 3b 22 dc bb 3c 00 b3 cf 3c
       -0.024866855 0.0024639794 0.022932116 0.025353909
000210 78 04 d7 bc 35 e0 69 bd 59 19 55 bd 71 7e d0 3c
       -0.026247248 -0.057098586 -0.052026127 0.025450917
000220 40 8f 87 bd ba 28 a6 ba 40 16 8a 39 dc f8 ac 3c
       -0.0661912 -0.0012676932 0.0002633799 0.02111476
000230 72 a5 19 3d 5e eb 9d 3c e0 31 46 3d af 15 15 bc
       0.037511297 0.01927727 0.04838741 -0.009099408
000240 e2 21 c4 3d e5 ec a8 bc 9c c2 b3 bc 7d 86 98 3d
       0.09576775 -0.020620773 -0.021943383 0.074475266
000250 f4 ae 94 3d 23 cc 07 3d 20 b6 4f bc 5c 52 39 bd
       0.07259932 0.033153664 -0.012677699 -0.04524456
000260 6a 08 14 bc 43 1d b9 3c 29 b4 45 bd 1f 83 b9 bc
       -0.009035209 0.02259696 -0.048267517 -0.022645531
000270 ea 2a aa 3d 25 fa 46 3d 02 02 6d bd a1 ec 0c 3d
       0.083089665 0.0485784 -0.057863243 0.034405354
000280 44 ac 26 3d 56 68 88 bd 34 17 ba 3c 78 92 39 bc
       0.04069163 -0.066605255 0.022716142 -0.011326425
000290 0c ed aa bc 0c f3 b6 3c f0 78 e3 3d fe 98 c2 3d
       -0.020864986 0.02233269 0.11107051 0.09501837
0002a0 16 6d ca 3c f6 ab bf 3c af ab d3 3c e3 ae 2f bd
       0.02471022 0.023397427 0.025838701 -0.042891394
0002b0 e0 69 11 bc 4e a0 d1 3c 8a fb 00 3c 73 bd 57 3d
       -0.00887534 0.025589135 0.007872472 0.052670907
0002c0 f6 a0 20 3c 5e de 2a 3d 90 60 b0 bc 88 f3 ad bc
       0.009804001 0.041715972 -0.02153042 -0.021234289
0002d0 dd e0 5c 3d 3b 82 82 3c d8 d8 2c 3a 4d 71 19 3d
       0.053925384 0.01593124 0.00065935915 0.037461568
0002e0 3c bb 81 3c da 46 76 bc cf 25 72 bd 2f 67 9e bc
       0.01583635 -0.015031541 -0.05911809 -0.019336311
0002f0 bc 9c dd bc 42 84 85 bc a5 31 1f 3d 8e 68 ed 3c
       -0.027052276 -0.016298417 0.038865704 0.02898052
000300 f6 61 0b 3c d2 59 85 bc 94 ea f1 bc be da c6 3d
       0.008507242 -0.016278181 -0.0295308 0.097096905
000310 be a5 02 3d 80 81 28 bd 85 a9 a1 3c 77 93 34 bd
       0.031896345 -0.041139126 0.019734154 -0.044085946
000320 bb 5f 69 3d f1 1a fd 3c 7e 8b a6 bc 4f 35 8b 3d
       0.05697606 0.030896636 -0.020330187 0.06797277
000330 b5 c5 51 bd 68 57 8f bd 18 bc 38 3c 65 a4 43 3d
       -0.05121394 -0.06999093 0.011275314 0.0477642
000340 cf 80 45 bd a8 86 3b bb 1c 20 55 3d 1e df d3 bb
       -0.048218545 -0.0028614197 0.052032575 -0.0064658066
000350 90 f0 90 bd ae 54 0d bd 38 eb ee bc 32 b9 15 bc
       -0.07077134 -0.034504585 -0.029164895 -0.009138392
000360 ec f5 e0 bd 0d 68 8b 3d 97 24 82 bd 40 cb b0 3d
       -0.10984406 0.068069555 -0.06354635 0.08632517
000370 70 5c d2 3a 35 0b fe 3c fe 79 ed 3c b6 5e 4a 3c
       0.0016049277 0.031011203 0.028988834 0.012351682
000380 56 00 d1 bc 66 80 08 3d d0 0a 96 39 10 2d 81 b9
       -0.025512855 0.033325575 0.00028618285 -0.00024638372
000390 dc d3 a0 3b 32 a8 c6 bc 81 b3 08 bc 7b 90 aa 3d
       0.004908068 -0.024250124 -0.008343578 0.08328339
0003a0 27 85 25 3d 60 e4 e9 bc 35 7d 08 3d 3a 44 15 3d
       0.040410187 -0.02855128 0.03332253 0.03644202
0003b0 31 61 26 bd cc 99 44 3d 21 f6 56 3d de 01 f4 bc
       -0.040620033 0.047998235 0.05248082 -0.029786047
0003c0 ab 7c 35 bc 48 aa 25 bd 80 af 9f b9 93 f4 76 3d
       -0.011077086 -0.040445596 -0.000304576 0.060291838
0003d0 41 de b8 3c 3e c0 1b bd 78 68 bc 3c 96 37 3c 3d
       0.022566916 -0.038025133 0.022999033 0.04595145
0003e0 10 a7 b1 bc 22 00 d5 3c dc 0f fc 3c 80 a6 05 bd
       -0.021686107 0.02600104 0.030769281 -0.03262949
0003f0 f3 fe ee 3d 8e ff 73 3d b0 16 39 3d b8 d2 61 3d
       0.116697215 0.059569888 0.045187652 0.055132598

std.constant6 f4 [128, 128]
000000 80 72 4a bc 51 0d be bd 3e 9f 03 bd 5c a2 d6 bc
       -0.0123564005 -0.09279884 -0.032134287 -0.026200466
000010 68 5a a8 3c e0 d3 5a bb 9e 4f d3 3d 5a ad 9c 3d
       0.020550922 -0.0033390447 0.1031792 0.07650252
000020 4c a8 16 3c 94 4c 47 bd 20 7d a3 3c 39 38 8a bd
       0.009195399 -0.048657015 0.019957125 -0.06749005
000030 40 61 d1 bd d0 e3 71 3d cc 00 a9 bc 76 5d 82 3c
       -0.10223627 0.05905515 -0.020630263 0.015913706
000040 49 eb 9b bd 87 76 1b 3d 84 ef a6 3b c5 0a 13 bd
       -0.076132365 0.037954833 0.0050944705 -0.035898943
000050 30 ba b8 bc 37 bd 84 bd 2d 84 f9 bc 89 87 36 3d
       -0.022549719 -0.06481402 -0.030458534 0.04456285
000060 78 f1 e8 3c ec f8 b0 3d 3c 20 87 bd 60 e9 1d bd
       0.028435454 0.08641228 -0.06597945 -0.038552642
000070 4e 4c 87 3d bd 0b 83 bc f6 07 33 bd 27 b4 c6 bc
       0.06606351 -0.015996808 -0.043708764 -0.024255825
000080 cd 49 b5 3d 14 39 60 3d 4c ee 72 3d f7 e7 b6 3d
       0.08851967 0.054741934 0.05930929 0.089309625
000090 00 88 2a 3d b4 e0 1a ba b7 7f b6 bd 5a 9b 89 bc
       0.041633606 -0.0005908117 -0.089110784 -0.01679771
0000a0 03 b9 2d bd 52 50 b1 3d c8 a0 ee bc a2 c0 17 3c
       -0.04241277 0.08657898 -0.0291294 0.009262236
0000b0 dd be d8 3d a1 aa 90 3d a8 2b 0d 3b a4 be c1 bb
       0.10583279 0.07063795 0.0021540914 -0.0059126187
0000c0 98 1f 5e bd 04 68 52 ba 5e 55 ee bc 52 7d b6 bc
       -0.05422935 -0.0008026364 -0.02909344 -0.022276554
0000d0 92 8d ad bc 47 c2 8d 3c 80 d8 28 bd ad 80 82 3b
       -0.02118567 0.017304553 -0.041222095 0.0039826245
0000e0 9f b9 10 bc f8 d4 c6 3c 79 ad be bc 64 ca 70 3c
       -0.008833318 0.024271473 -0.023276078 0.014696691
0000f0 ff d4 7d bd 22 6b d8 3c 5c 7e de bb 4e fc 49 3c
       -0.061970707 0.026418272 -0.0067899656 0.0123282205
000100 95 e5 4d 3c ea d6 43 bd b6 78 9a bd a0 20 2b 3d
       0.012566944 -0.04781238 -0.07542555 0.04177916
000110 cb 85 6e bd 72 00 8d bd 6e f6 2e 3b 34 dc ef 3b
       -0.058233064 -0.068848506 0.0026697177 0.0073199514
000120 43 b5 75 3c 88 ac fa bc 4c f7 9b 3b 2e 46 99 3c
       0.014996829 -0.030599847 0.0047597047 0.018710222
000130 63 e9 51 3d a4 e6 4e bd 54 84 8e 3c 83 08 49 bd
       0.051247966 -0.050512925 0.017397083 -0.049080383
000140 10 f8 07 3b fd 8d f5 bd d7 ba 02 3c d7 ec b2 bc
       0.0020747222 -0.11989973 0.007979116 -0.02184145
000150 5f 83 61 3d c3 7d ad 3c b1 5b 17 bd de 48 e2 3c
       0.055056926 0.021178132 -0.036952678 0.027622636
000160 b2 9d 84 bd 58 cf 74 3b 02 06 81 bd 48 18 b5 bb
       -0.064753905 0.0037355032 -0.06299974 -0.005526576
000170 e6 6a 15 bd ec 7a 81 bc 02 f0 90 3c 13 6f 74 3c
       -0.0364789 -0.015805684 0.01769257 0.01491906
000180 57 84 f6 3b eb 54 ab 3c 80 b7 8c bb 30 f5 87 3d
       0.0075231004 0.020914515 -0.004294336 0.06638563
000190 2d 2f 67 3c 44 24 e1 3c f8 b1 27 bd bc ed a8 ba
       0.014110369 0.027483113 -0.04094121 -0.0012888233
0001a0 30 93 32 3d 7a 3f e0 3d cc 2d c4 bc e4 0b 21 3d
       0.0435974 0.10949607 -0.023947619 0.03931798
0001b0 9d 70 e5 bd 4a e8 7b 3c 80 7e 11 3d ea 7f 0b bd
       -0.1120312 0.015375206 0.03552103 -0.034057535
0001c0 73 e2 21 bc 9e 93 cb bc 15 b2 93 3d 84 a0 09 3c
       -0.00988065 -0.024850663 0.07211701 0.008400086
0001d0 e4 e4 b8 3a 99 87 1e bd fb 41 bc 3d e6 8e db bc
       0.0014106301 -0.038703535 0.09192272 -0.026801538
0001e0 72 56 b6 3c 54 f9 a8 bd 6e c5 fd 3c f4 e5 b3 bd
       0.022258017 -0.082506806 0.03097793 -0.087840945
0001f0 62 a5 8c bb b2 2a 7d bd 24 75 d0 bb ea 5a 75 bd
       -0.004292176 -0.061808296 -0.0063616205 -0.059901156
000200 26 7a 1a 3b 80 de e2 3c 61 a6 7e bd fd 3a c3 bc
       0.0023571341 0.027693987 -0.06217039 -0.023831839
000210 5b 7a 11 bc 83 99 82 3d 33 d5 02 bd 49 1a 44 bd
       -0.0088792695 0.06376936 -0.031941604 -0.04787663
000220 d0 2a 1a 3c 22 9b de 3d 2d 60 4e 3d 22 44 08 be
       0.009409621 0.10869433 0.05038469 -0.1330724
000230 b9 b8 39 3d ba 5f 25 3b 3a f6 97 bb 77 ba 9d bc
       0.04534218 0.002523406 -0.004637507 -0.019253952
000240 14 4c 53 bd d5 6c d1 3a 1f b5 ad 3b ae 70 12 bd
       -0.051586226 0.0015977869 0.0053011323 -0.03575199
000250 52 c2 10 bd 36 ab 20 bd c2 4f 24 bd 46 aa 8a 3d
       -0.03534157 -0.03922578 -0.040115125 0.06770758
000260 29 56 6a 3d 4f 5a 05 bd 72 43 f9 b9 13 66 4c bd
       0.057211075 -0.032556828 -0.00047543232 -0.049902033
000270 cb e4 26 3d db 1c bb 3d 13 78 a1 bb ea b6 0a 3d
       0.040745538 0.09136363 -0.004927644 0.033865847
000280 ce f2 b6 bc a9 45 5d 3d b1 4c a2 3c 9e 7b 7a 3c
       -0.022332575 0.05402151 0.01981196 0.015288262
000290 2b 07 1e bd f9 aa 29 bd 79 e0 fa bc 66 f9 d6 3c
       -0.038581055 -0.041422818 -0.030624615 0.02624197
0002a0 0f 54 b4 3d 35 48 35 3d dd e3 29 bd 28 04 6f bd
       0.088050954 0.044258315 -0.041477073 -0.058353573
0002b0 ea bb b1 3c 1a d6 c5 3b 29 65 93 bc 09 ed 58 3d
       0.02169605 0.006037486 -0.017992573 0.05296043
0002c0 fd f7 ab 3b f9 e3 78 3d 7b d6 59 bd 4c 4b b3 bb
       0.0052480684 0.060764287 -0.05318306 -0.0054716226
0002d0 a7 33 78 bd 5f 0a b6 3c af a2 ac bd 55 28 92 bd
       -0.060596135 0.022221742 -0.08429467 -0.07136599
0002e0 0a fb 47 b9 64 88 89 bd b3 49 80 3c 17 e2 3c 3c
       -0.00019071638 -0.067154676 0.015660143 0.011528513
0002f0 83 aa 04 3d 58 f9 b8 3c 43 7f 76 bb f6 6c 49 3c
       0.032389175 0.022579834 -0.0037612475 0.012294045
000300 c7 a9 5c bd 87 51 b9 3b 03 4e 46 3c 03 a2 e6 3c
       -0.05387285 0.005655471 0.01210356 0.028153425
000310 78 d5 33 bc 41 28 21 3d cf 65 3b bd 93 52 fc 3b
       -0.010976188 0.03934503 -0.04575139 0.0077002733
000320 56 d9 49 bd ef 68 0c 3d 65 95 6d 3d 5f 7f f7 3c
       -0.049279533 0.03427976 0.0580038 0.030212102
000330 d3 94 0f 3c 3e bd d8 3c dd ff e9 bc a6 8c ca bc
       0.00876351 0.026457425 -0.028564388 -0.02472527
000340 41 b7 26 bd 04 cf c0 3d c5 97 a0 bd ab 43 4b 3d
       -0.04070211 0.09414485 -0.07841448 0.04962508
000350 c7 a3 b1 bc 3d 9e 4a 3b 9d c1 73 3d 1c 89 21 3c
       -0.02168454 0.0030917071 0.059510816 0.00985935
000360 0d cf 8c bd fd e1 9b 3c 71 77 94 3c 1d 52 1f bc
       -0.06875429 0.019028658 0.01812336 -0.009724167
000370 a4 82 4f 3c 9c e0 d1 bb 1a e5 15 bb 8a 2b 91 bc
       0.0126654245 -0.0064049494 -0.002287215 -0.017720956
000380 df 22 5a 3c c6 7f 09 3d 92 ee 17 bc a4 5e 32 3d
       0.013313978 0.03356912 -0.009273188 0.043547288
000390 2e 48 ad 3d a2 fe a4 3c 08 12 91 bd 22 e9 1d 3b
       0.08461033 0.02014095 -0.07083517 0.0024095257
0003a0 d5 16 45 3d 8b 5f 06 3d ad 45 ca 3c fe 81 58 bd
       0.048117477 0.03280596 0.024691427 -0.052858345
0003b0 d8 bd 0e bd ef 06 2a 3c f3 c6 77 3d 5c ae 54 3d
       -0.034849018 0.01037763 0.060492467 0.051924095
0003c0 11 fb eb 3b aa 02 38 3d 45 27 25 bd bf 22 00 3e
       0.0072015603 0.044924416 -0.040320653 0.12513255
0003d0 e7 9b 48 bd 24 0c 2b bc 07 82 21 bd 06 61 25 3c
       -0.048976805 -0.010439906 -0.039430644 0.010093933
0003e0 1b 89 de bc 05 e9 6c bd 7e fd 09 bd 62 14 df bc
       -0.027164986 -0.057839412 -0.033689015 -0.027231399
0003f0 2f 75 14 3c 25 32 0f bd 56 38 51 3d 27 5c 31 bd
       0.009061142 -0.03495993 0.051079117 -0.043300774

std.constant7 f4 [128]
000000 46 99 d3 bb 30 be aa 3d a4 0f 8f bc 75 e3 3a bc
       -0.0064574806 0.08337057 -0.017463513 -0.011406769
000010 b9 5e af 3d 11 96 94 bc 46 4d 4d 3c 51 4f 33 3d
       0.08562989 -0.018137963 0.01253063 0.043776814
000020 55 15 12 3d 41 20 29 3c 2c e3 37 3c 36 d2 23 3d
       0.035664875 0.010322631 0.011223596 0.039995395
000030 cb 69 ea 3d 0b 82 3b bc 02 95 0a bb 0e df 10 3c
       0.1144596 -0.011444579 -0.0021145944 0.008842243
000040 24 ee 4b 3c e2 70 a2 ba 58 9d 58 bc 16 b4 67 bc
       0.012446914 -0.0012393261 -0.013221107 -0.014142057
000050 3d 5d 36 ba 7e a0 a2 3c 41 32 f8 bb 5c 91 1e 3e
       -0.00069566426 0.01985192 -0.00757435 0.15485138
000060 9a 6e eb 3a 65 7a 8e 3a d6 51 23 bc fc db 4b 3b
       0.0017962039 0.0010870217 -0.009968242 0.0031106463
000070 76 65 bd bb 40 54 2c bc 5d 4c 07 bc 99 36 85 3d
       -0.0057799174 -0.010518134 -0.0082579525 0.06504554
000080 ed f5 a1 bb 60 94 9b bb 52 a3 de 3d 2e 09 bd bb
       -0.0049426467 -0.0047479123 0.10870995 -0.0057689166
000090 60 0d 45 bc 6a ba 8d bb 29 a7 5f 3d b8 e3 26 3c
       -0.012027115 -0.004325201 0.054602776 0.010186128
0000a0 f1 47 44 bc 78 30 1a 3c c8 06 2a bc 98 50 2c 3d
       -0.011980043 0.00941097 -0.010377593 0.042069048
0000b0 2c 0b 42 3c 54 05 5c 3c 12 1e 91 b9 b0 6b c2 bb
       0.011843484 0.013429005 -0.0002767896 -0.0059332475
0000c0 ba 5a fe 3c ba 9c b0 3a 62 b0 6e 3b 00 24 57 bc
       0.031049121 0.0013474443 0.003642105 -0.013131142
0000d0 12 4e a0 bb e8 ce a6 3d 44 a9 8c 3c 60 12 4a 3e
       -0.004892119 0.08144933 0.017170556 0.19733572
0000e0 d2 8e 30 bc df 2a 0d bb d4 82 37 bc 2a 7b 23 3c
       -0.0107762385 -0.0021540446 -0.011200625 0.009978095
0000f0 a1 6d 44 bb 7b 53 88 3c 9c fa 55 bc 52 6f 81 bb
       -0.002997257 0.01664137 -0.013060238 -0.003950038
000100 8d 21 94 3b fa f8 69 bc 4b 64 66 3c 77 6e 36 3b
       0.004520601 -0.014280552 0.014061998 0.0027836838
000110 21 90 20 bc 33 2d 35 3d a3 ee d2 39 94 1d 63 bb
       -0.009799988 0.04423256 0.0004023212 -0.003465508
000120 2e 48 81 bb 4f 4b a8 bb ba 94 1d 3c d5 38 ba bb
       -0.003945372 -0.0051359306 0.009617979 -0.0056830444
000130 1c 9d 03 3c 2c fd 80 3b 72 4a 76 bb 2f 7c a0 3d
       0.008033063 0.0039364304 -0.0037580994 0.07836186
000140 3b 19 06 bc 99 55 e8 ba 76 1c c0 3d ad eb f7 ba
       -0.008184726 -0.0017725705 0.093804285 -0.0018914841
000150 7e e7 4f bc 28 50 96 3c 55 8e 51 3c 5d cc 0b bc
       -0.012689469 0.018348768 0.012790282 -0.008532611
000160 c6 0e 8f 3c 99 c7 6b 3c 88 43 c1 bb 51 9a 5c bc
       0.0174631 0.0143908495 -0.005897943 -0.013464526
000170 a6 be 7f 3b e6 09 46 bc 0a 95 ba bb 63 d6 f4 3d
       0.0039023547 -0.012087321 -0.0056940364 0.119549535
000180 11 a7 16 3b c4 f5 98 3b 23 13 51 3c 89 24 dc 3b
       0.0022987763 0.0046679694 0.01276091 0.0067182225
000190 df 60 d6 bb 1d 95 f1 3b 21 cb 8d 3b f2 fb 6c bb
       -0.0065423097 0.007372512 0.0043271934 -0.0036160913
0001a0 e6 a0 84 bb d2 46 bd bb 5a 24 1d b8 c9 18 bb bb
       -0.004047501 -0.0057762647 -3.7465572e-05 -0.0057097417
0001b0 44 22 3b 3c e0 e6 6c 3b 6c 69 53 3c d2 41 7d 3c
       0.011421744 0.0036148354 0.0129035525 0.015457587
0001c0 c5 a0 46 bb 9b 45 43 bc 1c 67 37 3c c0 6a d7 3c
       -0.0030308228 -0.011918451 0.011194017 0.02629602
0001d0 04 9e 95 3d 0a 29 86 ba 3c b5 57 3c a6 40 be 3b
       0.0730553 -0.0010235619 0.013165768 0.0058060465
0001e0 71 1f 32 3c 2e 39 06 3b a8 7b 9a 3a 78 a3 bb 3c
       0.010871754 0.002048086 0.001178612 0.022905096
0001f0 0d 4b 81 3c 8d bc 4b 3c cd 04 7d 3b c9 24 0c 3c
       0.015782857 0.012435091 0.0038607598 0.008553692

std.constant8 f4 [128]
000000 75 9f 20 3a fa f7 07 3b 4d f2 62 3c 0b 47 41 3c
       0.00061272766 0.002074717 0.013851714 0.011796723
000010 05 07 81 bc 23 3a 69 3c 6e 75 d2 39 ed 5b 95 3c
       -0.015750417 0.014235052 0.00040141813 0.01823231
000020 9a 8f c1 ba 58 1d 2c 3a 55 97 b0 3c c3 25 83 bb
       -0.0014767528 0.0006565652 0.021556536 -0.0040023043
000030 1a ec 41 bb a0 d2 20 3c 31 d9 2f 3c 13 4a 21 3b
       -0.002959019 0.009815842 0.010732935 0.0024610802
000040 cf bb 00 3c dc 23 8d 3b 47 32 92 3c 8a a4 8b 3c
       0.007857277 0.0043072533 0.01784624 0.017046232
000050 56 01 2b bb 82 23 97 3b f8 53 31 3b 3a 09 2e bb
       -0.0026093326 0.004612387 0.0027058106 -0.0026555792
000060 4c a1 a3 ba a8 51 fb 3a 13 af 22 bc eb 7e 58 3c
       -0.0012483983 0.0019174116 -0.009929436 0.013213853
000070 3c 50 3f bb 03 55 3c 3c 90 81 17 bc 05 fc 71 3b
       -0.002919211 0.011494878 -0.009247199 0.0036923897
000080 dd 18 f2 ba 23 c5 f3 3a 6e c3 f2 bb 6b 13 75 ba
       -0.0018470545 0.001859818 -0.007408551 -0.0009348902
000090 c9 df 94 bc 1e fc f5 ba f6 42 b2 bb ef d1 40 3b
       -0.018173115 -0.0018767153 -0.0054401113 0.0029422005
0000a0 48 1c 21 3c 0a 55 aa b9 7d 49 2a bc 64 06 64 bc
       0.009833403 -0.00032488286 -0.0103934975 -0.013917539
0000b0 66 f1 0d bc 4c 65 f6 bb 42 df 42 3b 4c 54 23 3c
       -0.008663511 -0.0075193997 0.0029735123 0.009968828
0000c0 7f 75 83 bc c8 fd fb 3b 9c 8b 1b 39 55 0f 92 bc
       -0.016047237 0.007690165 0.0001483396 -0.017829577
0000d0 bc 71 d2 bb d0 c3 a2 3b c6 d7 cf bb 61 8c 0f 3c
       -0.0064222496 0.0049671903 -0.006342861 0.008761496
0000e0 c9 18 2d bc a3 4f 61 bc 94 6a dc bb 86 ca de 3a
       -0.010564991 -0.013751897 -0.0067265723 0.0016997613
0000f0 22 d4 a2 3b 79 7c c2 3a 4a be 43 bc 71 13 29 bb
       0.004969136 0.0014838121 -0.011947224 -0.0025798941
000100 5a d3 4d bc d0 09 12 3c c8 07 40 bb 13 e8 6e bb
       -0.012562597 0.008913472 -0.0029301513 -0.0036454245
000110 cd 1d 36 3c b5 5d ab bb 03 17 53 bb 4d 37 95 bb
       0.0111155035 -0.0052296766 -0.003220976 -0.0045537115
000120 70 90 57 bc d7 5d 8c 3b c2 4c 03 bc d6 2e 31 b8
       -0.013156995 0.0042836475 -0.008013906 -4.2243708e-05
000130 6c 7b 0c 38 8d c0 02 bb 85 ce 14 bb 24 89 9e bc
       3.3493547e-05 -0.0019951195 -0.0022706103 -0.019352503
000140 88 5b 93 bb df fb 03 bb b8 88 81 3c d4 61 34 bb
       -0.0044969954 -0.002013914 0.015812263 -0.002752413
000150 bc e6 5f 3c bc 2b 54 3c a8 59 84 38 60 4d 3d 3c
       0.013665851 0.01294988 6.31095e-05 0.011554092
000160 35 42 ed ba de e0 e9 39 f0 51 90 3b b5 c3 51 3c
       -0.0018101396 0.00044608762 0.004404299 0.012803008
000170 84 62 9c 3c 14 48 02 bc 84 11 c0 ba f1 c9 87 bc
       0.019089945 -0.007951755 -0.0014653658 -0.016575785
000180 1b 09 15 bb df f6 92 bb d4 e4 8c b9 b6 e9 e9 ba
       -0.0022741023 -0.0044849957 -0.0002687337 -0.001784614
000190 4d ff f3 3b da 33 4d bb 0c c9 67 bb 12 d9 aa ba
       0.0074462057 -0.0031311424 -0.0035367636 -0.0013034663
0001a0 d6 f7 74 3c 20 e9 96 bb 74 65 d0 3b 0d d0 0b bc
       0.014951667 -0.0046054274 0.0063597504 -0.00853349
0001b0 f2 cb 9f 3a b0 2d 23 3b 9a ee f4 bb cc de d7 ba
       0.0012191518 0.0024899058 -0.0074747326 -0.0016469597
0001c0 9d d9 ac 39 c5 78 88 3c 4d 79 53 3a 5d 52 44 bb
       0.0003296853 0.01665915 0.00080670865 -0.002995632
0001d0 21 7a 3a bc 01 5e a6 3a 57 91 9c bb 1a 38 6c 39
       -0.011381657 0.001269281 -0.004778068 0.00022527613
0001e0 66 ed bb b8 a0 a5 8c b8 d2 b4 13 b9 98 3d 97 bc
       -8.961074e-05 -6.70657e-05 -0.00014086373 -0.018461987
0001f0 2a 15 ca ba f4 c3 9f ba 4f 33 a4 3c 27 97 89 3c
       -0.0015417684 -0.0012189136 0.020043997 0.016795708

std.constant9 f4 [128]
000000 00 00 80 3f 00 00 80 3f 00 00 80 3f 00 00 80 3f
       1.0 1.0 1.0 1.0
000010 00 00 80 3f 00 00 80 3f 00 00 80 3f 00 00 80 3f
       1.0 1.0 1.0 1.0
000020 00 00 80 3f 00 00 80 3f 00 00 80 3f 00 00 80 3f
       1.0 1.0 1.0 1.0
000030 00 00 80 3f 00 00 80 3f 00 00 80 3f 00 00 80 3f
       1.0 1.0 1.0 1.0
000040 00 00 80 3f 00 00 80 3f 00 00 80 3f 00 00 80 3f
       1.0 1.0 1.0 1.0
000050 00 00 80 3f 00 00 80 3f 00 00 80 3f 00 00 80 3f
       1.0 1.0 1.0 1.0
000060 00 00 80 3f 00 00 80 3f 00 00 80 3f 00 00 80 3f
       1.0 1.0 1.0 1.0
000070 00 00 80 3f 00 00 80 3f 00 00 80 3f 00 00 80 3f
       1.0 1.0 1.0 1.0
000080 00 00 80 3f 00 00 80 3f 00 00 80 3f 00 00 80 3f
       1.0 1.0 1.0 1.0
000090 00 00 80 3f 00 00 80 3f 00 00 80 3f 00 00 80 3f
       1.0 1.0 1.0 1.0
0000a0 00 00 80 3f 00 00 80 3f 00 00 80 3f 00 00 80 3f
       1.0 1.0 1.0 1.0
0000b0 00 00 80 3f 00 00 80 3f 00 00 80 3f 00 00 80 3f
       1.0 1.0 1.0 1.0
0000c0 00 00 80 3f 00 00 80 3f 00 00 80 3f 00 00 80 3f
       1.0 1.0 1.0 1.0
0000d0 00 00 80 3f 00 00 80 3f 00 00 80 3f 00 00 80 3f
       1.0 1.0 1.0 1.0
0000e0 00 00 80 3f 00 00 80 3f 00 00 80 3f 00 00 80 3f
       1.0 1.0 1.0 1.0
0000f0 00 00 80 3f 00 00 80 3f 00 00 80 3f 00 00 80 3f
       1.0 1.0 1.0 1.0
000100 00 00 80 3f 00 00 80 3f 00 00 80 3f 00 00 80 3f
       1.0 1.0 1.0 1.0
000110 00 00 80 3f 00 00 80 3f 00 00 80 3f 00 00 80 3f
       1.0 1.0 1.0 1.0
000120 00 00 80 3f 00 00 80 3f 00 00 80 3f 00 00 80 3f
       1.0 1.0 1.0 1.0
000130 00 00 80 3f 00 00 80 3f 00 00 80 3f 00 00 80 3f
       1.0 1.0 1.0 1.0
000140 00 00 80 3f 00 00 80 3f 00 00 80 3f 00 00 80 3f
       1.0 1.0 1.0 1.0
000150 00 00 80 3f 00 00 80 3f 00 00 80 3f 00 00 80 3f
       1.0 1.0 1.0 1.0
000160 00 00 80 3f 00 00 80 3f 00 00 80 3f 00 00 80 3f
       1.0 1.0 1.0 1.0
000170 00 00 80 3f 00 00 80 3f 00 00 80 3f 00 00 80 3f
       1.0 1.0 1.0 1.0
000180 00 00 80 3f 00 00 80 3f 00 00 80 3f 00 00 80 3f
       1.0 1.0 1.0 1.0
000190 00 00 80 3f 00 00 80 3f 00 00 80 3f 00 00 80 3f
       1.0 1.0 1.0 1.0
0001a0 00 00 80 3f 00 00 80 3f 00 00 80 3f 00 00 80 3f
       1.0 1.0 1.0 1.0
0001b0 00 00 80 3f 00 00 80 3f 00 00 80 3f 00 00 80 3f
       1.0 1.0 1.0 1.0
0001c0 00 00 80 3f 00 00 80 3f 00 00 80 3f 00 00 80 3f
       1.0 1.0 1.0 1.0
0001d0 00 00 80 3f 00 00 80 3f 00 00 80 3f 00 00 80 3f
       1.0 1.0 1.0 1.0
0001e0 00 00 80 3f 00 00 80 3f 00 00 80 3f 00 00 80 3f
       1.0 1.0 1.0 1.0
0001f0 00 00 80 3f 00 00 80 3f 00 00 80 3f 00 00 80 3f
       1.0 1.0 1.0 1.0

std.constant10 f4 [128]
000000 8b ad d4 bb 87 be a9 3d 4d b1 8d bc 19 95 3b bc
       -0.0064904145 0.08288293 -0.017296458 -0.011449122
000010 84 3c b1 3d ed da 94 bc d2 c5 45 3c c3 0b 33 3d
       0.086541206 -0.018170798 0.01207109 0.04371239
000020 9c 73 0f 3d 8f 73 2b 3c 9d a6 42 3c 4f 31 23 3d
       0.035022363 0.010464563 0.011880544 0.039841946
000030 ea e8 e8 3d fa 75 3b bc 4e a1 cf ba 1c 91 03 3c
       0.1137255 -0.011441702 -0.0015840919 0.008030202
000040 39 c9 4f 3c 58 be 86 ba 27 7b 5d bc 48 f9 67 bc
       0.012682253 -0.0010280116 -0.013518131 -0.014158554
000050 96 82 be ba 58 7c a1 3c 11 4a 01 bc 21 47 1e 3e
       -0.0014534767 0.019712612 -0.007891194 0.15456821
000060 5c e2 05 3b d8 b7 63 3a 54 62 24 bc d8 25 27 3b
       0.002042911 0.00086867576 -0.010033209 0.0025504734
000070 63 b2 ba bb c3 d4 2c bc d0 32 06 bc 58 4b 85 3d
       -0.005697535 -0.010548773 -0.008190826 0.06508511
000080 4d 4b a6 bb c0 bc 9c bb b3 69 e0 3d 6d 72 b9 bb
       -0.0050748945 -0.004783243 0.109576605 -0.0056593926
000090 a0 71 43 bc 80 3d 86 bb 57 d9 5d 3d a9 a9 1a 3c
       -0.011928946 -0.004096687 0.05416235 0.009439864
0000a0 e6 be 3d bc d9 1d 14 3c b2 38 29 bc 02 04 33 3d
       -0.011581158 0.009040319 -0.010328459 0.043704994
0000b0 35 d9 41 3c da c2 5e 3c f5 cc d2 39 91 d1 a0 bb
       0.011831571 0.013596261 0.00040207026 -0.0049077948
0000c0 ea a6 00 3d 7a 9e ca 3a 23 b1 85 3b b1 11 62 bc
       0.03140918 0.0015458607 0.0040799542 -0.013798163
0000d0 cd 4a 9f bb 95 a6 a9 3d 0c 4a 88 3c c1 2b 49 3e
       -0.004861212 0.08283726 0.01663687 0.19645597
0000e0 dd e0 2f bc 0c 6c d6 ba 76 8f 3e bc b8 6b 20 3c
       -0.010734764 -0.0016359105 -0.011630883 0.009791307
0000f0 23 7b 44 bb f8 fe 8c 3c cb e5 54 bc a6 9e 87 bb
       -0.0029980622 0.017211422 -0.01299424 -0.0041387854
000100 32 52 8c 3b b6 97 66 bc c2 88 67 3c 74 0a 35 3b
       0.0042822594 -0.014074257 0.014131727 0.0027624639
000110 13 c2 20 bc c5 70 32 3d 3e 9c 0c 3a c7 a6 71 bb
       -0.009811896 0.043564577 0.0005363858 -0.0036873089
000120 04 f4 69 bb 57 ae ae bb c7 ba 17 3c 5e 33 b4 bb
       -0.0035698423 -0.0053308415 0.00926084 -0.0054992875
000130 84 3e f6 3b 5f 1b 87 3b 2e 28 88 bb 0c 43 a1 3d
       0.0075147767 0.004123136 -0.0041551804 0.07874116
000140 37 6c 05 bc 5c 1f 0f bb 13 cf c4 3d 5d 3f 02 bb
       -0.008143476 -0.002183876 0.09609809 -0.0019874193
000150 86 75 4f bc 01 6a ac 3c 70 d5 3b 3c 53 2f 0a bc
       -0.012662297 0.02104664 0.011464462 -0.008434135
000160 7c 74 89 3c 78 37 74 3c 73 86 c1 bb f2 54 60 bc
       0.016779177 0.014905803 -0.00590592 -0.013692128
000170 2a 5d 90 3b ae 21 44 bc 82 f9 c8 bb f8 5c f7 3d
       0.0044056373 -0.0119709205 -0.0061332593 0.12078279
000180 0c ed 0c 3b 7c 6d 9f 3b d5 75 4a 3c ca 44 ba 3b
       0.0021503596 0.0048653465 0.012357195 0.00568447
000190 df 15 db bb 72 b1 fc 3b 76 c5 84 3b 48 23 5f bb
       -0.006685957 0.007711583 0.0040518595 -0.003404813
0001a0 60 f9 78 bb 35 a4 b1 bb a8 14 5b 37 68 ab ba bb
       -0.0037990436 -0.0054211863 1.3058227e-05 -0.0056967027
0001b0 74 81 3a 3c 28 b9 5a 3b ab 7d 57 3c 95 69 7b 3c
       0.011383403 0.0033374522 0.01315252 0.015344997
0001c0 5b f6 30 bb d8 b5 3b bc 11 d2 28 3c 6b 91 d0 3c
       -0.0027002308 -0.011456929 0.01030399 0.025459966
0001d0 45 b2 96 3d 60 46 76 ba 07 8b 61 3c 1b e7 9c 3b
       0.07358221 -0.0009394642 0.013766057 0.004788292
0001e0 4b 1c 42 3c 2b b1 ff 3a 9e 8e 40 3a 52 7f b9 3c
       0.011847566 0.0019507756 0.00073454704 0.022643719
0001f0 8d ed 8a 3c a0 62 4b 3c 2b dc 5b 3b df e8 10 3c
       0.016958976 0.012413651 0.0033547978 0.008844583

std.constant11 f4 [128, 9]
000000 b6 80 f5 bc 39 b3 1f 3c 50 3b c2 3d 66 47 85 bc
       -0.0299686 0.00974732 0.09483969 -0.016269397
000010 6b b2 3d 3c 3f 07 ba 3b 5a bc 0a bd fe bd 1f bd
       0.011578183 0.0056771333 -0.033871032 -0.03899955
000020 e0 f8 2f bd b6 b6 36 3e 8d 23 e8 3d 16 77 f5 3d
       -0.042961955 0.17843136 0.11334906 0.119856045
000030 f0 95 56 bd 50 3b d1 bc 3f 52 c2 3c be 97 3b 3d
       -0.052389085 -0.025540978 0.023720859 0.04579901
000040 33 b2 0f 3e a4 23 c8 bd 8f f0 c0 3d 41 9b de bd
       0.14032821 -0.09772423 0.09420883 -0.10869456
000050 a9 c4 a4 bd 90 52 68 bd 11 8b 8d bd c2 9c cc 3c
       -0.080453224 -0.056719363 -0.069112904 0.024977092
000060 bb 09 cb bd c4 bf 92 bd 64 87 d9 bb 8a 0d 8d bd
       -0.09913965 -0.07165483 -0.0066384543 -0.06887348
000070 0c a8 e7 bd 3d 6f 11 bd f6 b0 89 3d 50 26 c0 bc
       -0.11311349 -0.035506476 0.06723206 -0.023455769
000080 29 a7 61 3c b0 9b b2 bc e7 81 3d 3d fd 80 8d bc
       0.013772764 -0.021802753 0.046266463 -0.01727342
000090 0f 4c 04 bd 46 b8 1a 3e 67 8e 02 bc be 97 af 3c
       -0.032299098 0.15109357 -0.007968522 0.021434661
0000a0 eb 6b 3f bd 10 fe 49 bd 04 b6 23 3d 3c c8 29 ba
       -0.046733778 -0.04931456 0.039968506 -0.00064766756
0000b0 94 6a 89 3d f9 ef ab bd 63 63 5f 3d a7 d1 a2 3b
       0.06709781 -0.083953805 0.054538142 0.00496884
0000c0 f3 a6 c2 bd aa db fe 3b c9 aa 9d 3c 6a 54 67 bd
       -0.09504499 0.007777651 0.019246476 -0.056476988
0000d0 0d 1a 6b bd 95 e4 e6 bd 53 bf 11 3d 78 e9 16 3d
       -0.05739789 -0.11274067 0.03558285 0.036843747
0000e0 24 31 63 3c cf dd 91 3c e2 d7 a6 3d 97 07 21 3c
       0.0138666965 0.017805962 0.08146645 0.00982847
0000f0 ab 25 ab 3d 2a 6c 20 3d 0e 79 d6 bd ae ad 4f 3d
       0.08356794 0.039165653 -0.10472308 0.050702743
000100 ba f1 10 3d d3 17 f2 3d a2 86 07 3e 40 a3 4b bd
       0.03538678 0.1182095 0.13234952 -0.049716234
000110 d1 fa fc 3d 74 de 5c b9 5e 06 c7 3d 51 74 b3 bc
       0.12352527 -0.00021063705 0.09718011 -0.02190605
000120 8f 84 0b 3e 53 f0 88 3d 5d 31 fe 3c 67 7d ff 3d
       0.13624786 0.06686463 0.031029398 0.124750905
000130 53 79 bf 3c 68 2e 2a 3d af fd 03 3d 11 e2 14 bd
       0.023373282 0.041548163 0.032224353 -0.036348406
000140 1f 60 19 be 60 dc cc 3d 0c fc b0 bd 03 27 3d 3c
       -0.14978074 0.10002971 -0.08641824 0.011544946
000150 12 51 32 bd 56 2c 81 3d 64 88 10 bd 98 93 67 bc
       -0.043534346 0.063072845 -0.035286322 -0.01413431
000160 68 9e 96 bd b1 cb 7a bd 74 4e f1 3d 7d 9f 9e 3d
       -0.07354432 -0.06122941 0.11782542 0.07745264
000170 8b 62 7f 3d e7 7e b0 bd 13 d0 bf 3d 91 1d da 3b
       0.062349837 -0.08617955 0.09365859 0.0066563566
000180 46 16 8d 3d ba ba 0f 3d ec b9 5f 3c 44 f7 8f bb
       0.06889014 0.035090186 0.013655167 -0.00439349
000190 5b 6d 09 3e 0a 91 b8 bc 3a 9c b4 3d 6e e8 80 3c
       0.13420622 -0.022530098 0.0881886 0.015735831
0001a0 c9 3a 79 bd 48 72 4b bd fd d7 9c 3d 30 ae d8 bd
       -0.060847078 -0.049669534 0.07658384 -0.10580099
0001b0 33 94 0c 3e 30 2b 92 3d 26 01 a7 3c 59 1f fb 3d
       0.13728409 0.071371436 0.02038629 0.122618385
0001c0 4f 1b e6 3c 52 e8 9c 3d 15 8d 33 3e 9b b0 6d 3d
       0.028089194 0.07661499 0.17534287 0.058029752
0001d0 19 02 24 3d bb 8b a6 bd 75 2c 1d bd 69 4e b6 bc
       0.040041063 -0.0813212 -0.038372476 -0.022254186
0001e0 69 e6 47 bd 59 77 3b 3d cd db a9 3b 16 78 c1 3d
       -0.04880372 0.045768116 0.005183673 0.09446733
0001f0 96 11 4d 3d 10 40 20 3d b5 19 6d bd 9d b5 48 bb
       0.0500656 0.039123595 -0.057885844 -0.0030625828
000200 27 23 40 bc 95 1f a2 bd 1c a2 98 3d 6a 2e dc 3d
       -0.011727131 -0.0791618 0.07452795 0.1075104
000210 8d 12 ae bd de 7f 98 3d 1f 8b d5 3d 68 dd 04 3c
       -0.08499632 0.07446264 0.10426926 0.008109428
000220 32 ac 51 bd 0c af 3c bd 1e 36 b4 3c 24 4d 74 3d
       -0.05118961 -0.046065375 0.021998461 0.05964388
000230 1b a1 84 3b 76 50 e9 3d 9e 0c 86 3c 06 df b2 3c
       0.0040475256 0.113923 0.016363438 0.021834861
000240 77 49 5d 3a 7d fa a8 bd 44 3b 65 bd 62 c7 76 bd
       0.0008441428 -0.08250902 -0.055964723 -0.06024874
000250 9c 19 80 bd 5a bd 17 bd 9b 2b f2 3c 1c 14 88 bd
       -0.062548846 -0.037045814 0.029561808 -0.066444606
000260 7d 1a 0d 3d 14 c2 84 bc 89 04 c0 bc 17 a1 bd b9
       0.03444909 -0.016205825 -0.023439663 -0.0003616891
000270 5b 07 22 bd 43 74 bc 3d 80 d2 02 3b 85 fc 94 3d
       -0.039557796 0.09201863 0.0019961894 0.07274727
000280 e7 8a d5 3b ca 29 d6 bb a5 fb a2 bd e1 0f 2f bc
       0.0065168026 -0.0065357434 -0.07958154 -0.010684938
000290 35 91 12 3d 09 52 73 3d 9e f3 6e 3d c3 f6 27 3d
       0.03578301 0.059404407 0.0583378 0.041006815
0002a0 5c 3a 3a bd b3 e3 a2 bd 16 31 98 3d e1 fe 97 bd
       -0.045465812 -0.079535864 0.074312374 -0.07421661
0002b0 7e 6e d4 bd 8c f0 d9 bd 15 cc 37 bd f9 e8 a0 3d
       -0.10372637 -0.10641584 -0.044872362 0.07856936
0002c0 69 1a bc bc 6b 7c b7 bd 06 c4 0c bd 3a 10 93 3d
       -0.022961812 -0.08959278 -0.03436663 0.07180829
0002d0 e3 0d 08 3d e1 06 c6 3c 21 50 9b 3d be 8c 6a bd
       0.03321637 0.024173202 0.07583643 -0.05726313
0002e0 5a d4 0d 3c 75 90 a1 bd d6 4d 6d 3c 84 1c 0b 3d
       0.008656586 -0.07888881 0.01448389 0.03396274
0002f0 e7 ff 02 3d 08 26 ba b9 74 2f 4c bd 31 af a3 3d
       0.03198233 -0.0003550502 -0.049849942 0.079923995
000300 81 d7 f6 3a 26 25 bc bd cd 1b c7 3d 6b f2 f6 3c
       0.0018832536 -0.09186773 0.097220995 0.03014489
000310 26 06 8b bd 4b b5 58 bd 40 50 79 bd 07 28 20 bd
       -0.06788282 -0.05290727 -0.060867548 -0.039100673
000320 74 99 9b bd df 6c 48 bd 45 d9 b6 bb af 6c 64 3d
       -0.07597628 -0.048931953 -0.0055800998 0.05576771
000330 85 2e 0d bd e0 a7 e4 bc 78 1d bb 3c 4a 4e 57 3d
       -0.034468193 -0.02791208 0.0228412 0.052564897
000340 b8 3c fc 3c 09 df 5d 3e e1 ba 4e 3e 50 07 1a 3d
       0.030790672 0.21667112 0.20188476 0.03760463
000350 fc 28 25 3e 31 da 30 3d b9 29 62 3e 3e 41 8b bc
       0.16128916 0.043176834 0.22086228 -0.016998883
000360 20 f1 aa 3d 57 54 7a 3d 93 b6 05 3c ba 83 ba 3c
       0.08346772 0.06111559 0.008161205 0.02276789
000370 67 6c a8 3c af 47 2f 3d 4f ce d6 3d ab 35 41 3d
       0.020559503 0.042792972 0.10488569 0.047170322
000380 97 a3 2b bc 62 2d 72 3d c3 a3 77 3d 13 b3 6b 3c
       -0.010476015 0.05912531 0.06045891 0.014385956
000390 ae 81 0d 3d f1 dd 3e bd 04 d2 04 3d ce 7c b3 bc
       0.0345475 -0.04659838 0.03242685 -0.021910097
0003a0 6e 8b 22 3d 93 f8 0c 3d 62 3d 98 bd ba 4d 4a bd
       0.03968375 0.034416746 -0.07433583 -0.049390532
0003b0 3d d5 ce bc bb 31 a1 3d 49 40 ae 3d a5 83 8e 3d
       -0.025248164 0.078708135 0.08508355 0.06958703
0003c0 3a f5 6c 3d f7 51 3d 3d 9a 0b 42 bd 75 e4 86 3d
       0.057851054 0.046220746 -0.047374345 0.065865435
0003d0 36 ec 96 bd ec 65 aa bd d8 01 3e bd 65 11 2a 3d
       -0.073692724 -0.08320221 -0.046388477 0.041520495
0003e0 28 03 37 3d 04 1a 38 3d f8 3e a3 bd a7 26 c0 3d
       0.044680744 0.044946685 -0.07970995 0.09382372
0003f0 50 f0 9a 3d 19 88 99 bb 56 de 1c bd 4f 5b 93 3d
       0.07565367 -0.0046854136 -0.038297974 0.0719515
