AirQualityApp/AirQualityApp.Android/Assets/MadridLong.tflite (tflite, 810852 bytes, 24 tensors)

std.constant3 f4 [128, 128]
00000000: 65df 29bd a22b 17bc 7814 c5bc 0a9d 01bd
00000010: 15ad 9bbd 74e9 803d c48d 5cbd 2bab 8fbc
00000020: 6765 a93c dc80 b7ba 58bc a93a 3425 a33c
00000030: fb0a dbbc 1e4a 0f3d 9873 94bb 5561 e1bb
00000040: 142c 873c 2d04 72bd 348c 95bb 2952 053c
00000050: c4d1 063d 90b4 98bd 6c6f 573a c923 ce3c
00000060: 21a1 07bd b3a1 5e3d c430 b73c 8c4b 58bd
00000070: a868 a53c 5528 193d 19fe 67bd d24b 263d
00000080: 048b 82bc 7fb0 503d 00b8 79bc ea08 0cbd
00000090: 9530 5cbc f7a9 46bb a10b 5b3c 112c 6b3d
000000a0: 16d1 15bc e082 7d3d 4808 c63d bd09 73bd
000000b0: 3322 c53d 36ba c93b 25e0 0ebd f63b f43b
000000c0: 44ad 8abc 8361 2dbd 81cc d83c 516a 003d
000000d0: 0061 b1bd 70e5 803d 3851 5cbd e0e1 49bd
000000e0: dd7d 883c c787 323c 3760 45bd d462 0d3d
000000f0: 21e0 4cbd 2e27 373d dfed 083a e5f2 3dbd
00000100: 1028 893d 0c23 4d3b 905e 643d 6a1e 273d
00000110: c8ec 6abc dad7 c7bc 8d61 7d3d d1eb 9cbd
00000120: 8aa8 1b3d de85 503d 956d 34bd c34b 2b3d
00000130: 4858 583d 5831 3b3d 0d43 82bc 8244 b1bc
00000140: a849 843d 32d4 d6bc 3793 72bc 608a d83a
00000150: 0193 6a3d a850 25bb d2c7 9e3c 87ad 9b3d
00000160: fa14 0e3d c7de 8fbd 8d68 6b3d 8869 aa3b
00000170: a6f6 eb3c 4021 30bd 5afd 453d 44c6 523c
00000180: 48b9 203b f144 453d eb01 1f3d 01f7 46bd
00000190: 8e63 423c ce92 ecbc efcd 20bc 3afc 593c
000001a0: 90ba 05bd 51e2 fd3c 2888 103c 803c 7a3c
000001b0: 6191 3f3d c57c e63d c73c f03d c08e 643a
000001c0: 8ee4 e23b ea21 11bc 0f5f e7bd 70d6 923d
000001d0: c333 25bc d326 4b3d eecc 10bd cad3 243c
000001e0: c699 6b3d 3620 01bd 48d9 eeba beea c2bc
000001f0: aa92 f13c 7723 81bc d693 e5bc 7752 14bd
00000200: c692 69bd 6b5f 333d 92c9 e4bb 8ac3 023d
00000210: 338f 48bd d195 4d3d 0a09 cd3c 551c 29bc
00000220: ea0f 5bbc 9aad 863c 5fa4 7dbd 3fcb bbbc
00000230: 82dc 02bd d591 3d3d b0ed b13c 70c1 afbb
00000240: cc4b adbc 180e 313d cc37 0bbd dac8 433d
00000250: ea9e 97bd e7f3 15bd 89a0 3bbd 7d04 223b
00000260: 945f 1c3d 6cce 8e3d ec11 133b c0d7 ed3a
00000270: 21b6 903d 1a76 9a3c 17a9 07bd f043 a5b9
00000280: e8f1 f63b a2c2 bd3b fcf7 333d a53b 043d
00000290: 19f9 62bd 44b4 85ba 820c 903c e04c ae3d
000002a0: ada1 663d 5ee7 353d f87f c43c 44d5 efbc
000002b0: 1630 14bd 0d31 503d 177c 643d 5233 d1bb
000002c0: 138d 3c3c 3092 543b 8174 05bd 625f dbbb
000002d0: a07b a03c 0c99 e73c 3965 c1bc fc10 4dbb
000002e0: 1e44 febc 5dd1 04bd f0db 19bd 5a09 ba3d
000002f0: 947c e3bc b68d bebc bfec 653c 3622 263c
00000300: a6a2 3dbd f91f aabc 861a 31bd eae2 273d
00000310: 8d50 c6bc 6c08 453d 2238 eabc 18f7 943c
00000320: 9363 9dbd 12b0 093d a2bc 3dbd 2636 bd3c
00000330: 3466 443d 8ed4 763d fe41 86bb c4d3 063d
00000340: e73c a1bc 9e37 d0bd 4d86 89bd b89f 153c
00000350: c624 a53d 06eb dd3c 9c55 9abd 8ad0 533d
00000360: 7e01 94bd 8298 113d dd02 36bd 9c13 2a3c
00000370: b274 49bd a34b 50bd 90de f43c b0ec 0bbd
00000380: e418 5c3d f488 0dbc fe5a 813d 78a5 e03a
00000390: 80f1 c93c cf63 0b3c 1d12 c7bb 49b2 313d
000003a0: 9e08 44bd e793 3dbd 6837 82bc d1c7 53bd
000003b0: 99cd 35bd b06a f5ba 1c04 b5bb 0b70 14bd
000003c0: 7202 233d db7a 913c aa35 933d 493f f53c
000003d0: c4ab fcba f492 203d c676 093d 3760 07bc
000003e0: c872 bfbb bdbd 36bd 3f3b cc3d e797 9d3c
000003f0: 5b08 83bd 550a d43b 94ae 1dbc b377 7b3c
-0.04147281 -0.0092267115 -0.024057612 -0.031643905 -0.07601372 0.06294528 -0.053846136 -0.017537674
0.020678235 -0.0014000195 0.0012949808 0.0199152 -0.026738634 0.034982793 -0.0045303814 -0.006878058
0.01650051 -0.059086014 -0.0045638327 0.008137264 0.03291489 -0.074563146 0.0008218202 0.025163548
-0.03311265 0.054353427 0.02236212 -0.052806422 0.020191506 0.03739198 -0.05663881 0.04059965
-0.015935428 0.05094957 -0.015241623 -0.03418819 -0.013439317 -0.003031371 0.013369472 0.057415072
-0.009144088 0.06189239 0.09669548 -0.05933546 0.096256636 0.0061562313 -0.03488173 0.007453437
-0.016928323 -0.042329323 0.026464703 0.03135139 -0.086610794 0.06293762 -0.053788394 -0.049287677
0.016661579 0.01089663 -0.04818746 0.034518078 -0.050018433 0.0447151 0.0005223434 -0.04637422
0.066970944 0.0031301407 0.055754244 0.04080049 -0.01433868 -0.024394918 0.06186061 -0.07662166
0.03800253 0.050908916 -0.044049818 0.0418203 0.052818567 0.045701355 -0.015901113 -0.021639112
0.06459361 -0.02622423 -0.014805607 0.0016520731 0.0572691 -0.0025225077 0.019382391 0.07601457
0.034687974 -0.07024913 0.057472754 0.0052005686 0.028804135 -0.04300046 0.048337318 0.012864653
0.0024524499 0.04816145 0.03882019 -0.048575405 0.011864556 -0.028878596 -0.009814723 0.013304764
-0.032648623 0.030991705 0.008821525 0.015273213 0.046769504 0.11254267 0.11730342 0.0008718781
0.0069242185 -0.008858183 -0.11297428 0.07169807 -0.010083142 0.049597573 -0.035351686 0.01006026
0.057519697 -0.03152486 -0.0018222714 -0.023793574 0.02948888 -0.015763981 -0.028024595 -0.036211457
-0.05702474 0.04379217 -0.006982037 0.03192476 -0.04896469 0.050191704 0.025028724 -0.010321696
-0.013370493 0.016440202 -0.061924335 -0.022924064 -0.031948574 0.046281654 0.021719784 -0.0053636357
-0.021154307 0.04322633 -0.03398876 0.04779897 -0.07403357 -0.036609557 -0.045807395 0.0024721914
0.038177088 0.069729656 0.0022441102 0.0018145964 0.07065988 0.018855143 -0.03312024 -0.0003152187
0.0075361617 0.0057910243 0.04393767 0.032283444 -0.05541334 -0.0010200818 0.01758409 0.085107565
0.05630653 0.044410102 0.023986802 -0.029276498 -0.03617867 0.05082803 0.055782404 -0.0063842917
0.011508244 0.0032435767 -0.03258181 -0.00669472 0.019590199 0.02827122 -0.023607837 -0.003129064
-0.03103834 -0.032426227 -0.037563264 0.09083815 -0.027769364 -0.023260932 0.014033495 0.010139992
-0.04629769 -0.020767199 -0.043238185 0.040987886 -0.024208331 0.048103735 -0.02859122 0.01818423
-0.07685008 0.03361518 -0.046322472 0.023097109 0.04794903 0.0602613 -0.0040972224 0.0329168
-0.01968236 -0.10166858 -0.06715069 0.009132318 0.080636546 0.027089607 -0.0753586 0.05171255
-0.07226847 0.035545833 -0.044436324 0.010380652 -0.049183555 -0.050853383 0.029891282 -0.03416127
0.053734675 -0.008638609 0.063161835 0.0017139157 0.024651289 0.008507683 -0.0060751573 0.043382917
-0.04785978 -0.04628363 -0.01589556 -0.05170423 -0.044385526 -0.0018723812 -0.0055241715 -0.036239665
0.039797254 0.017758777 0.0718797 0.029937403 -0.0019277264 0.039202645 0.033560537 -0.0082626855
-0.0058425404 -0.044614542 0.09972238 0.019237472 -0.06398078 0.0064709582 -0.009624142 0.015348363

std.constant4 f4 [128, 128]
00000000: 60c3 563c 3465 e2bc 18db 163d 50b8 f9ba
00000010: fd50 20bd 2c4a b4bc 39d6 663d 0307 033d
00000020: 00ea 4ab7 f158 c8bc 3d20 f8bb 7944 653d
00000030: b8c1 563d 902b a6bc 691e a0bd c7a2 283d
00000040: fbdb 4c3d d6f6 963c fee2 0abd c7ff b6bd
00000050: 1f0f ddbc 0e2a 80bd 8018 163a 5a57 da3d
00000060: a2a2 d23c 2e44 303d e3f3 273d 52b9 693d
00000070: 39d8 25bd bbed a6bd 3048 963c ec9d 97bd
00000080: f592 b03c e160 403d d875 36bc e408 da3c
00000090: d4ca f939 2456 fdbb eb71 2fbd 80d8 84bc
000000a0: b3aa ff3c 00cb 1239 743e 933d 40c3 f13a
000000b0: a75c 1d3c fac3 1c3b 3010 5cbd bde4 ffbc
000000c0: c0d1 f83a ae29 be3c 6286 0dbe 08a8 8bbc
000000d0: e23d c6bc 2657 cebc 9e56 aabd 48b3 773c
000000e0: 3eec c3bc 8030 7b3b a4cf 653b 6d72 51bb
000000f0: e0d2 b83c cfd9 533d 0334 e0bc d064 b0bd
00000100: 7411 bd3c 4bd5 3fbd e54e a83d daa3 b5bc
00000110: a555 3cbc 6474 9bbc f680 713d 2ad7 d43c
00000120: 4c12 24bd beb1 02bc 86e6 163d 771d a2bc
00000130: 36ca 57bc 7f06 543d e0f0 bbb9 be29 583c
00000140: a257 493b 2860 433d 02d1 f1bc b121 0c3d
00000150: 00b6 a9b8 e001 133d a00a eb3c bf07 43bc
00000160: 8711 c23d 673d 1c3d 544a 91bc d573 bdbc
00000170: 1a2c f73c 5d66 053e eccc 0bbd e6c8 60bc
00000180: 76a9 ebbb f967 43bd a033 f8bc 268f 5d3d
00000190: 23a9 6fbc ba60 7f3d 831e c93d 626c 29bd
000001a0: 880e fdbb 1aa8 e53c e6d1 143d 07e8 263d
000001b0: 0e66 34bd 67bd 833b 3a43 9dbd 3169 f1bc
000001c0: 3154 c0bc ffd9 2c3d 12a0 9bbd 04ee 703d
000001d0: 1e62 00bc d3a4 3ebb 2073 c93a ce6c 34bd
000001e0: 9dea 663c ef35 27bb f92e d7bd 7616 543d
000001f0: 9631 34bd b433 d83c e876 24bd ba6f 3c3d
00000200: 0a26 c53c f946 d13c b63e 023d b7e0 8abc
00000210: a786 803c c1f6 c63a c825 b1bd 9469 56bd
00000220: 6258 ae3d 2376 b6bc 5c58 d13a e86a b3bc
00000230: 9c80 a23c 3379 5abd f992 88bd 3eed ae3d
00000240: bcdb 58bd a5b0 70bd 1433 13bd f3d1 8e3c
00000250: bab7 cb3d 2a45 b7bc 83fb 7bbd 7ba8 55bd
00000260: 069d cabc 82c1 23bd fbf7 59bd f1cd 80bc
00000270: fa3d cfbb b888 d1bd 1df3 7abc 1a96 31bd
00000280: 81ab adbc c493 f23c 681c a73c 1d09 673d
00000290: c0a8 393c e8bf 683c 0037 1738 c207 25bc
000002a0: a462 683d 1c6d 9b3b 4180 9d3c 0157 babd
000002b0: e3b7 9d3d 7e5e 803d 64e7 7dbd 7252 093c
000002c0: 51c0 dc3b 1823 bd3c e4a1 1bbd 45b3 7e3d
000002d0: eec1 8b3d 3605 b5bc 248f 453d 9952 873c
000002e0: 9ee8 203d d70d 4b3d fcd9 aabb 9e64 aabc
000002f0: a7c0 783d 64fe 7f3b e3fc 29bb ad70 043c
00000300: 76e4 e4bc bac7 2dbc a230 023d 7af5 86bd
00000310: 63fa b63d 408e 21bb da8a 60bd 092d 0f3c
00000320: 7432 47bd 272e a53d e8e8 063c cc51 c1bb
00000330: 5edf 5ebd 32ef 1fbd 4709 613d f047 c3bb
00000340: ece6 043c 627b e53d c2b5 6abd f8b9 85bd
00000350: 4387 7e3c 00f4 753a 90cc 31bc d2ca 27bd
00000360: 2e3e 213d 6e9d bf3d d86e efbd 347a ac3b
00000370: 8a41 dabc 78d6 983c c2a2 b63d 6856 29bb
00000380: e0c5 ea39 c7c2 b0bc a02c 823a 46c9 903b
00000390: 4e28 2a3c 4f3f 393d 6297 06bd 429c 28bd
000003a0: 9a51 35bb 3090 dcba 2088 aa39 14c0 f8bc
000003b0: 6792 29bc 083f 2b3c e799 3abd def1 083d
000003c0: 0c9f 6cbd 6717 92bc 0a23 17bc 0013 453b
000003d0: ca4a 2cbd aef2 f8bc e0dc d1bc cc3e 0bbc
000003e0: 848b e03c e6b8 c1bc dcb0 43bd 1c48 a63c
000003f0: 7efa aebc d655 6e3c da1e ee3c 992d 113d
0.0131081045 -0.027636148 0.036830038 -0.0019052122 -0.039139736 -0.022008024 0.056356642 0.03198911
-1.2094621e-05 -0.024456473 -0.0075722025 0.055973504 0.05243084 -0.020284444 -0.078183 0.04117086
0.050014477 0.018428247 -0.033907883 -0.089355044 -0.02698475 -0.06258021 0.00057256967 0.10661192
0.025712315 0.04303377 0.041004073 0.0570615 -0.04048941 -0.08150812 0.018344969 -0.07403168
0.02155445 0.04696739 -0.011136495 0.026615568 0.000476441 -0.007731216 -0.04283325 -0.016216516
0.031209325 0.00013999268 0.07189646 0.001844503 0.00960461 0.0023920522 -0.053726375 -0.031237
0.0018983409 0.023213234 -0.13820794 -0.017047897 -0.02419943 -0.02518804 -0.08317302 0.015118428
-0.02391636 0.0038328469 0.003506639 -0.0031959072 0.02256149 0.05172139 -0.027368551 -0.086129785
0.023079611 -0.04683427 0.08218173 -0.022172857 -0.011495029 -0.018976398 0.058960877 0.025981504
-0.04005651 -0.007976947 0.036840938 -0.01978944 -0.013170769 0.051764008 -0.00035846885 0.013193546
0.00307224 0.047699124 -0.029518608 0.034211818 -8.092448e-05 0.03589046 0.02869159 -0.011903702
0.09475999 0.038144495 -0.017735638 -0.023126522 0.030172396 0.1302733 -0.034130976 -0.013719773
-0.007191832 -0.047706578 -0.030298054 0.054091595 -0.014627728 0.062348105 0.09820273 -0.041363128
-0.0077226795 0.028034259 0.036332987 0.040748622 -0.04404264 0.0040203813 -0.07678838 -0.029469104
-0.023477646 0.042200085 -0.0759889 0.05882074 -0.007835893 -0.0029089942 0.0015369393 -0.044049077
0.014094022 -0.0025514325 -0.10507006 0.051779233 -0.0439926 0.026391841 -0.04015246 0.04600499
0.02406599 0.025546538 0.031798087 -0.016952856 0.015689207 0.001517974 -0.08649784 -0.05234678
0.085129514 -0.022273129 0.0015971768 -0.021901563 0.019836716 -0.05333824 -0.06668658 0.08541344
-0.05294393 -0.05876221 -0.035937384 0.017434096 0.099471524 -0.022371847 -0.061519157 -0.05216263
-0.024733078 -0.039979465 -0.05321501 -0.0157232 -0.006324527 -0.10231155 -0.015316752 -0.04335604
-0.021199943 0.029611476 0.020399287 0.056405175 0.011331737 0.01420591 3.605243e-05 -0.01007265
0.056734696 0.0047432315 0.019226195 -0.09098626 0.07701089 0.06268023 -0.06198825 0.008381473
0.006736793 0.023088023 -0.037996188 0.062182683 0.068240985 -0.022097211 0.048232213 0.016518878
0.03928434 0.049573746 -0.005213974 -0.020799931 0.060730603 0.003906154 -0.0025938086 0.008083505
-0.02794097 -0.010606701 0.03178466 -0.0658979 0.08934476 -0.0024651438 -0.05481992 0.008738765
-0.0486321 0.080654435 0.00823424 -0.0058996435 -0.05441224 -0.039046474 0.05494049 -0.0059595034
0.008111697 0.11205174 -0.057302244 -0.06529611 0.015535179 0.0009382367 -0.010851994 -0.04096491
0.03936594 0.09356199 -0.11691064 0.005263591 -0.02664258 0.018656954 0.08917762 -0.0025838856
0.00044779386 -0.021577252 0.0009931512 0.004418525 0.010385586 0.04522639 -0.032859214 -0.041164644
-0.0027667047 -0.0016827639 0.00032526348 -0.030365027 -0.010349846 0.01045204 -0.04555693 0.033433788
-0.057768866 -0.017833425 -0.009224663 0.003007114 -0.042063512 -0.030389156 -0.025618017 -0.008498859
0.027410276 -0.023647737 -0.047776088 0.020298056 -0.021359678 0.014546832 0.029067446 0.035443876

std.constant5 f4 [128, 128]
00000000: e036 103d 3eaf 473c 94d4 333d 9220 febc
00000010: 5ae8 3fbd 7463 293c db25 a0bc 6302 8f3c
00000020: b355 9bbc 1c0c b23c 3b29 0c3c af05 133d
00000030: 0ca3 e0bb cbf9 7cbd 5ab0 0c3c de31 f13d
00000040: 1b5a 3cbd 0027 9dba 5ec7 c5bd 117c 42bc
00000050: e403 06bd 535a 81bd b9b0 6d3d 1e2f 093d
00000060: 6e9e 60bd 7c80 303d 9772 47bd 2382 253c
00000070: 2fb4 9abc 3336 7f3d a231 a1bd b63d 04bd
00000080: c05e 693c 4a3e a93a ea94 93bd 86e9 2b3d
00000090: b84d 7c3b 22de af3d 68ec ad3b aa55 30bd
000000a0: d5af 0abd 1467 a23d 518f 9cbb b300 353d
000000b0: 2fd1 44bd e6a5 1a3d f792 003d d842 a1bc
000000c0: 45b2 e0bc 4408 2bbc 7100 2cbc beaf b6bc
000000d0: 250a a23c a586 3ebd 6422 313d dc19 0d3d
000000e0: fa16 4fbd 5aca ce3d 1e0a 8dbc b77b 7bbc
000000f0: f07f bcbc 1ce7 75bc f07d 923c cf24 d03c
00000100: 6c54 713c bdfd 8b3c 5255 a93c e441 973d
00000110: 8162 1c3c 60d9 75bc 9c1e cfbc 8b74 77bc
00000120: a0c0 02bd 4362 f2bc c54f 533d 9c09 693c
00000130: 61d1 ea3c 0cb9 78bc df5e 4b3c 5fdf 173d
00000140: 86b2 20bd 4624 21bd a6a3 223c bc18 ddbb
00000150: 2f94 e2bc f83f 14bc 765a 3bbd 928b 8b3d
00000160: 3b1a 18bd ce70 663b 8e93 9f3d c1d6 92bd
00000170: 3eb7 cd3c 8679 b73d ca36 a33d 1cfc 92bb
00000180: 142c 0e3d 0abf 423d 7707 a7bc f703 8e3c
00000190: d623 dc3d 6ec5 aabc baca 003c 460e 053c
000001a0: 141d 343d 384e 283c 8897 753b f5d4 91bc
000001b0: 48bc 35bd ae5d ee3d 1f66 433d da21 2ebd
000001c0: 2049 a33d 0ca9 933c 9379 593c 90f0 693b
000001d0: 670f 2cbd 1430 99bd 843f f6bb 562d ee3c
000001e0: 90fa deba d603 6f3b 920e 623d 6cf4 9bbc
000001f0: 8e45 9cbc eadd ba3c 0953 7a3c ccc1 06bd
00000200: 776c 3f3d 7dd7 603d bbc3 4b3d a38e 9c3c
00000210: e022 a9bd 31f7 433c f545 ddbc ba8b 7b3d
00000220: b083 bb3c f36b f2bc b48e e6bc 9ed0 6c3d
00000230: 5ec1 de3d 2b02 473d 3844 c0bb 73f6 593d
00000240: 24d0 51bd 70d9 d939 a8bb 543b 1f4d 033d
00000250: 1637 b4bc 8b9b 443c 2249 f9bc bed6 75bd
00000260: a814 1d3c 1cab 5b3b c96d 3f3d d122 5dbc
00000270: ceb9 bf3b fee5 9c3d 72a9 ba3d 483d 11bb
00000280: 42f2 5d3d 70c5 61bc 8c05 5abd 2c1d 763c
00000290: 0e39 a5bc e04b 01b9 1eeb e63c d834 dc3d
000002a0: 188d dbbc f017 223d 9ad7 a23d a0b7 873b
000002b0: 0723 b03d ae61 49bc 8677 9f3d cf59 203d
000002c0: 7f8e 7cbd 710d 96bd 5606 b73b 6b73 84bd
000002d0: 00bb 8a3d 8b66 a13c 191c fbbc f2f0 53bd
000002e0: 5f3d 993c 9a40 89bd f0cf 78bd 8ed9 003d
000002f0: 1405 e13c 6c59 90bc 2e09 823c a52c 80bd
00000300: c3fd fcbc 2f24 5fbd 3ea6 12bd 8c2d 383d
00000310: eb40 c6bc fa6a 07bd d474 e03c 40d1 543d
00000320: 6c8d 84bd 2b1c 313c a1dc d03d 3dd3 cbbc
00000330: 9e6e 2c3c 7742 6bbd 1ac2 63bc 8887 2bbd
00000340: 5053 a13c ab7e 81bc ecd7 d33c 3295 c4bc
00000350: 22ea 49bc 48fa 75bc cea5 e83c 5250 9cbc
00000360: ad18 dd3c 0605 7f3c f1fd c53c 3520 20bd
00000370: 70d3 aa3b 4997 20bd 30b3 813c 4845 c4bc
00000380: 2ec8 d5bb e05d 28bd e97c b13d 435f 33bd
00000390: 0453 b53d 1c84 b73d 4555 85bd f4b1 6e3d
000003a0: 08f8 643c 58e5 763d 66d3 13bd f417 98bb
000003b0: 386a 083d 409c 883c d9e7 6d3c 875f 8abd
000003c0: 1862 aebd 44d2 693d b8db fcb9 306b d3bd
000003d0: 6f33 403d a459 93bd ed6f 0f3d 4924 e33b
000003e0: fc6b 80bc 2a59 b93c 2c21 bc3c 2fef 8dbd
000003f0: 527d 053d 548e 643c 0169 833c 597e 3ebd
0.035208583 0.012187777 0.043903902 -0.03102139 -0.046852447 0.010338653 -0.0195493 0.017457193
-0.018961763 0.02173429 0.008554752 0.035894092 -0.006855374 -0.06176166 0.008586967 0.117770895
-0.04598437 -0.0011989772 -0.09657167 -0.0118704 -0.032718554 -0.06316056 0.058029864 0.0334922
-0.05483859 0.043091282 -0.048693266 0.010101828 -0.018884746 0.062307548 -0.07870795 -0.032285415
0.014243782 0.001291224 -0.072061375 0.041970752 0.0038498472 0.0858729 0.005307723 -0.043050446
-0.033859093 0.07929817 -0.004777827 0.04419012 -0.048051056 0.03775587 0.031390157 -0.019685194
-0.027428756 -0.010438982 -0.010498152 -0.022300597 0.019780228 -0.046515126 0.043245688 0.03444849
-0.05055902 0.10097189 -0.017216738 -0.01534932 -0.023010224 -0.015008714 0.017882317 0.025408177
0.0147296 0.017088765 0.020670567 0.073856145 0.00954497 -0.0150054395 -0.02528315 -0.01510347
-0.031921983 -0.02958787 0.051589746 0.014223482 0.028664293 -0.015180837 0.012412756 0.037078258
-0.039232753 -0.039341234 0.009926712 -0.0067473333 -0.02765855 -0.009048454 -0.045740567 0.0681373
-0.03713439 0.0035162452 0.07791816 -0.07169867 0.02511179 0.08958726 0.079694346 -0.00448562
0.034710005 0.04754547 -0.020389302 0.017335875 0.10749023 -0.020846095 0.007860834 0.008121079
0.043973044 0.010272555 0.0037474353 -0.017801741 -0.044369012 0.11638962 0.047704812 -0.042512752
0.07972932 0.018024944 0.013273614 0.0035696365 -0.042006876 -0.07479873 -0.007514896 0.029074352
-0.0017011929 0.0036470792 0.055189677 -0.019037448 -0.019076135 0.022810895 0.015278586 -0.032899663
0.0467343 0.054893006 0.04974721 0.019110983 -0.08258605 0.0119607905 -0.027010897 0.06141255
0.022889942 -0.02959249 -0.028144218 0.05781614 0.108767256 0.048586052 -0.0058675073 0.053213548
-0.05122389 0.0004155147 0.0032460485 0.03205597 -0.021998923 0.011999975 -0.03043038 -0.060019247
0.009587444 0.0033518737 0.04673556 -0.01349707 0.005851007 0.07661055 0.091143504 -0.002216177
0.054186113 -0.013779983 -0.053227946 0.015021604 -0.020168807 -0.00012330664 0.028188284 0.10752267
-0.026800677 0.03957361 0.07951279 0.004141763 0.08600431 -0.012291355 0.07786469 0.03914815
-0.061659332 -0.073267825 0.005585472 -0.06467327 0.06773949 0.019702217 -0.030653046 -0.051743455
0.018706022 -0.06701775 -0.06074518 0.031457476 0.027468242 -0.017620765 0.015873518 -0.06258515
-0.030882722 -0.054477867 -0.035803072 0.044965312 -0.024200877 -0.033061005 0.027399458 0.05195737
-0.064722866 0.010809938 0.101983316 -0.024881 0.01052442 -0.057436433 -0.013901258 -0.0418773
0.019693047 -0.01580747 0.025859796 -0.023996923 -0.012323888 -0.015013285 0.028399374 -0.019081268
0.026989305 0.0155651625 0.02416894 -0.039093215 0.0052131936 -0.039206777 0.015832514 -0.023958817
-0.0065241074 -0.04110515 0.08666403 -0.04379202 0.088537246 0.08960745 -0.065104045 0.058275178
0.013975151 0.060277313 -0.036090277 -0.0046415273 0.033304423 0.016676068 0.014520609 -0.06756502
-0.08514804 0.05708529 -0.0004822889 -0.10323179 0.04692405 -0.07194832 0.03501885 0.0069318158
-0.015676491 0.022625525 0.022965036 -0.06930386 0.032590218 0.013949949 0.01604128 -0.046507213

std.constant6 f4 [128, 128]
00000000: 00c8 193a 3c11 3d3c 677e 66bd 980a 983b
00000010: 7349 cf3b 91f0 3ebd 35eb 85bc 8a2e 773d
00000020: 8273 423d ea4a 193c e158 19bd 9230 dc3c
00000030: d190 c0bc dc04 9cbc 38b1 5fbc 38c7 5d3b
00000040: 1ade a0bb 6150 2abd 69dc 0ebd 8281 d63c
00000050: 2d7c b1bb 640a 82bd 2265 13bd 1b4c 633d
00000060: 0132 e63c aaaa 5ebc 9453 d8bc 34a5 20bc
00000070: 1c9f b33c 7875 25bc bd8e 6dbd 6ef6 e1bc
00000080: 3adc e83d a5a1 ecbc fa10 163c 91ac 013d
00000090: 5a8d 013d cede 89bd b893 7d3d ef17 a4bc
000000a0: a861 f6bc d904 ac3d 1647 d6bc a003 4fba
000000b0: dee0 da3b c0c1 6c3d db1d 3abd 6c4e 5c3c
000000c0: 8ae0 d9bc cf9e 83bb 5823 3b3c 3746 1abd
000000d0: beb5 fbbc 130c f2bc 4cbf 463d 1505 13bd
000000e0: 72c7 00bd ee32 ddbc c484 45bc 6e7c bd3c
000000f0: 30e2 2f3c dee6 87bd 2b12 803c 1c8e 163d
00000100: c8c8 893c 00e9 cebc 4341 523d c29c 05bd
00000110: 4104 4d3d 5a31 0fbd 76d9 3a3b 5500 463d
00000120: c5ff 03bd d9d9 653d ef21 5abd 5126 5e3d
00000130: eb94 88bd 6ae1 b83c 59e4 efbc 7457 b73d
00000140: e3bc 5bbc cfac abbd 0c3d 93bc 8ac1 233d
00000150: 82f6 563c 5a2d 63bc 1039 febc 59d7 1cbd
00000160: c1f5 50bd cc3c 3f3d de24 54bd bfec 9abd
00000170: a167 a83d 4bf6 1f3c 0779 e5bc f222 1a3d
00000180: 1d4d f23b 18c1 8cbd 9615 dd3c cb16 a7bc
00000190: 0052 96ba a06c 39bb 0af2 dd3c 0c3a 133d
000001a0: 6021 0f3b f80b a53c 75b5 90bd 9d70 8fbc
000001b0: 3a7d 47bc 22c2 67bd 96a7 54bd 6802 743d
000001c0: dc71 bc3c 965f 2fbd a3c6 8a3c 48ca 7abd
000001d0: 2df7 253d d437 993b 0aa3 1f3d 2434 83b9
000001e0: 9cb6 5f3d 845c 25bc d627 453d e60f 023c
000001f0: 0738 753d 9ffc 5cbc d64e 063d 181f 433c
00000200: eee9 b8bc 800f 403d e01c e53c 022b a4bd
00000210: edb6 943c 27f8 aa3c a85b 853d 4349 843d
00000220: 14d2 bb3c 0354 703d 03fe 20bd d10a 9e3c
00000230: 4be1 eebc 2acb bfbc a044 02bc c7d9 7f3d
00000240: afd2 233c 21e0 90bc f6d2 9eba 74e1 54bd
00000250: a629 f83a 4de7 173d 8e6f 13bd 4e3f 183b
00000260: ef90 7c3c 9074 b23d d7e8 59bc 9f6c 44bc
00000270: e685 46bd ef93 75bd c69f 963c a6ae 233c
00000280: f884 003d 3a94 11bd 0b36 acbd 8433 1ebd
00000290: 4f4e 163d 4797 9bbc b333 383c ec0b 9a3c
000002a0: 6194 0b3b fc7c 823d 8fda 9c3c f1e5 523d
000002b0: 6063 213d 09fc aabc f5d3 35bb d3b9 fbbc
000002c0: b41f 073d 1e0b 603d a2d3 143d fc9d 3fbd
000002d0: 7a10 4e3d 5ec5 303c 353b 34bd 89c6 97bc
000002e0: 9147 b4bd 939a dd3c d48c 9bbb 4e3a 84bc
000002f0: 0662 91bd 2e48 97bc 3597 6ebd 2c7a c5bc
00000300: 3d76 36bd 9740 81bd 88d4 08bd 460b 093c
00000310: 79eb 09bd 3cc5 20bd 5bba f83b 55af 803c
00000320: ee45 da3c ae4a d1ba 5dad d33c 9ef9 b03c
00000330: 4d45 7d3d c8a1 04bd 154a 0dbd 8acd a5bc
00000340: 30ab a13c b505 ab3c ff48 4ebc e670 83bd
00000350: 7728 14bd 32b7 663b 49b2 b03d fb31 3d3c
00000360: 9613 babc 299f ad3c f878 a43c f222 ebba
00000370: 11bd 233c f9c4 b23c 1bf2 163d bb82 d93b
00000380: c73c 77bd 4af4 933d 0815 92bc 853b 063d
00000390: db56 35bd 6024 e5bc 19e9 313d 5efd fdbc
000003a0: f9e7 943c 5f9b 0f3d 762a 893d 7aa3 59bd
000003b0: e3d3 3ebc 07d9 d3bc e9e8 6dbc c2f2 8b3c
000003c0: d00f 913d 3e28 99bb 0314 2d3d 49f2 5cbd
000003d0: 2f60 4fbd 5534 853d 0034 373d 6021 a23d
000003e0: 15a0 803d 6a13 1abd 1942 d2bc 9988 483d
000003f0: 9e17 58bb a3ca 7bbd 4977 003d 5051 0ebd
0.0005866289 0.0115397535 -0.05627289 0.0046399347 0.0063258945 -0.04661614 -0.016347507 0.060347117
0.047473438 0.00935624 -0.037438277 0.026878629 -0.023506554 -0.019045286 -0.013653092 0.0033840667
-0.004909289 -0.04158056 -0.03487817 0.026184801 -0.0054164142 -0.06349638 -0.03598512 0.0554925
0.028100016 -0.013590494 -0.02640704 -0.0098050125 0.021926455 -0.0100988075 -0.057997454 -0.027583327
0.1137013 -0.028885672 0.009159321 0.031658713 0.031628944 -0.0673195 0.061908454 -0.020030944
-0.030075863 0.08399362 -0.026156943 -0.00078969635 0.0066796383 0.057801962 -0.04543863 0.013446432
-0.026596326 -0.004016734 0.011422001 -0.03766462 -0.03072631 -0.029546773 0.04852228 -0.03589352
-0.031440206 -0.027001824 -0.01205558 0.023130622 0.01073508 -0.06635831 0.015633663 0.03675662
0.016819373 -0.025257587 0.05133177 -0.0326202 0.050052885 -0.034959175 0.0028510964 0.04834016
-0.032226343 0.05611596 -0.053255018 0.05423576 -0.06669029 0.022568423 -0.02928369 0.08952227
-0.013411733 -0.0838257 -0.017973445 0.039979495 0.0131202955 -0.013865793 -0.031033069 -0.03829131
-0.05101562 0.04668884 -0.05179297 -0.07564687 0.08222891 0.009763311 -0.028011812 0.037630983
0.0073944465 -0.06872767 0.026987832 -0.02039661 -0.001146853 -0.0028293505 0.027092952 0.03594403
0.0021839961 0.020147309 -0.0706586 -0.017509753 -0.012175852 -0.056581624 -0.051917635 0.059572607
0.023003511 -0.042815767 0.01694042 -0.061228067 0.04051893 0.0046758447 0.038973846 -0.00025025115
0.05461751 -0.010092858 0.048133694 0.007938361 0.059867885 -0.013487964 0.032790028 0.011909269
-0.022572484 0.046889782 0.02796787 -0.080160156 0.018153632 0.020870281 0.06511623 0.06459286
0.022927321 0.05867387 -0.039304744 0.019292267 -0.029160162 -0.023412306 -0.007950932 0.062463548
0.009998961 -0.017684998 -0.0012117315 -0.05197282 0.0018933311 0.03708582 -0.03599506 0.0023231092
0.015415414 0.08713639 -0.013300142 -0.011988788 -0.04846754 -0.059955534 0.018386733 0.00999037
0.03137681 -0.03554175 -0.084087454 -0.038623348 0.036695775 -0.018993033 0.011242795 0.018804513
0.0021298158 0.06371495 0.019147186 0.05148882 0.039401412 -0.020872133 -0.0027744744 -0.030728256
0.03298922 0.054698102 0.03633464 -0.046781525 0.050308682 0.0107892435 -0.044001777 -0.018527286
-0.08802713 0.027051246 -0.0047470126 -0.016141083 -0.070987746 -0.018467035 -0.05824967 -0.024106108
-0.044546355 -0.06311148 -0.03340581 0.008364504 -0.03367183 -0.039250597 0.0075905747 0.015708605
0.026644673 -0.0015967691 0.025839502 0.021603402 0.06183367 -0.03238085 -0.03449448 -0.02023961
0.019734949 0.020876745 -0.012590646 -0.06418018 -0.036171403 0.0035204408 0.08627755 0.011547561
-0.022714417 0.021194058 0.020077214 -0.0017939492 0.009993807 0.02182244 0.036851984 0.0066378987
-0.060360696 0.07224329 -0.017832294 0.032771606 -0.044272285 -0.027971447 0.04343519 -0.031004604
0.01817702 0.035060283 0.06697552 -0.05313442 -0.011647197 -0.025860323 -0.014520862 0.01708353
0.07083094 -0.0046739867 0.042255413 -0.053942 -0.050628837 0.06504122 0.044727325 0.07916522
0.06280533 -0.03761617 -0.025666283 0.048958395 -0.0032973061 -0.061472546 0.03136376 -0.034745514

std.constant7 f4 [128]
00000000: 7ee1 983c a8c2 913d 957d 19bb 0372 4d3d
00000010: 8b57 c8bb 89cf d13b c893 a33d 78e4 c93c
00000020: 694a 10bc 3138 363d b0ae 333d 5c17 a93d
00000030: aec4 b13c 899e da3c 821b 403c dd64 d83b
00000040: c4ff 0fbc b8f9 1d3d 75a1 a5bb 9eb8 2e3d
00000050: 6a0c ab3c bfaa e13c 24e5 8b3c ffe2 d13d
00000060: f580 083d bb7d 123d 3ce1 503d 7cde 163e
00000070: 26cb c73c cae4 c5bb 353f 2dbc 8177 a0bb
00000080: f005 ee3c 6326 8c3d d9c6 373d 42a8 383d
00000090: 75eb ae3d 4df6 063e b15a 2e3d 21eb 493d
000000a0: 2ece a03c 1dee 643c fb71 fc3c 9fcf 903c
000000b0: db44 973d 1a45 c13c 0afd 1a3d cb9c 17bc
000000c0: d8d6 ea3b b879 48bc 91fb 85bb 38a6 d23d
000000d0: 1ca6 633d 77ad c53d ec63 563c d06d 75bc
000000e0: 7493 f93b 4716 2c3d b0f8 e8bb 17ed 753c
000000f0: 2cdc 553b 3bac 363d c234 e53c 1acf a53d
00000100: 74ff 203e 162e acbb c8d9 353b 3538 d73d
00000110: e6d0 673c a207 1a3e c5ba 6c3d 5b61 823b
00000120: 0576 b8bb 0954 173c 14f7 f93d 8ea5 0ebc
00000130: 89b1 263d b981 a03d 5c56 cab9 44a5 543d
00000140: b3bf bd3b 72d2 e8bb 0864 0d3d 7549 623c
00000150: 8772 a53c c889 5d3d c68c ad3c b48f b63b
00000160: 20e6 053d 3a5d 453d 2cc8 683c b72c e63d
00000170: 89fb 1d3d 6027 433d 43e2 543c 9fcf 233d
00000180: fc46 e53d 2f1d 18bc 878c 0ebc 4060 343d
00000190: 3f7d 3c3c fe22 7d3c f966 8abb 7ec1 8a3d
000001a0: f7bb 013d 0abf c43c 314f 353d e8a1 7c3d
000001b0: 1c76 5c3d ca8c 3a3d 253a 333d 6a24 9e3c
000001c0: f800 253d 42f7 72bb 8070 803d 3024 d0bb
000001d0: 4c2f 1e3d a50e 2a3d a1e7 f33c 3c3a 7f3b
000001e0: 5a9d c43d 817b 50bc 12c5 b13c 2075 603d
000001f0: 7dc8 ac3c 1e2b 3bbb b434 d73d 1c3d 8e3c
0.01866221 0.07117206 -0.00234208 0.05015756 -0.0061139516 0.006402914 0.079871714 0.024645075
-0.008806803 0.044487182 0.043867767 0.082564086 0.02170023 0.026686924 0.011725308 0.0066038207
-0.008789007 0.03856823 -0.0050546476 0.042656533 0.020879943 0.027547238 0.017077036 0.10248374
0.033326108 0.035764437 0.05099605 0.14733309 0.02438886 -0.0060392367 -0.010574152 -0.0048970585
0.029055566 0.06843259 0.04486737 0.04508234 0.085410036 0.13179894 0.04256696 0.049296502
0.019629564 0.013972786 0.030816069 0.017677126 0.0738618 0.02359252 0.037838973 -0.009253691
0.0071667247 -0.012236051 -0.004088827 0.1028561 0.055578336 0.096522264 0.013085347 -0.014979795
0.0076164547 0.042013433 -0.007109724 0.01501014 0.0032632453 0.044597846 0.027979258 0.08096142
0.15722448 -0.0052545173 0.0027748216 0.105087675 0.014148926 0.15041974 0.057795305 0.003978891
-0.0056293034 0.009236344 0.122053295 -0.0087064635 0.040696654 0.07837243 -0.00038592785 0.051915422
0.0057906746 -0.007105165 0.034519225 0.013811459 0.020196212 0.054086477 0.02118529 0.00557133
0.032690167 0.04818461 0.014207881 0.112389974 0.03856996 0.047644973 0.012993398 0.039992925
0.1119518 -0.009284302 -0.0087004965 0.044037104 0.01150447 0.015450237 -0.004223701 0.06775187
0.031673398 0.024016876 0.044264976 0.061677843 0.053823575 0.045544423 0.043756623 0.019304473
0.040284127 -0.0037073647 0.06271458 -0.00635197 0.038619325 0.041517872 0.029773535 0.0038944623
0.09600325 -0.012724758 0.021700416 0.0547992 0.021091694 -0.0028559635 0.10508099 0.017363124

std.constant8 f4 [128]
00000000: 74d3 7e3b 86f9 ca3c e7d2 f63a e788 0e3b
00000010: 2e60 8d3c c8e7 4e3b d89f d53c 5445 163b
00000020: 2ede 53bc 2459 0e3c 6f52 cd3c 798d bebc
00000030: d9dd a6ba b13a 243a 6c7e 6839 16bc 9aba
00000040: 8809 0dbb 3397 c0bc 16a4 71bb 5ea1 49ba
00000050: c52d 3a3b 168d a13c fb6c e03b 9251 803c
00000060: 6779 08bb a4d2 7dbb eec5 2fbb e31a 883c
00000070: 14d6 ccbb b13f c6ba d537 ab3c 35bd bd3b
00000080: ced2 debb e52a 7abb 0ffa 963b 5624 343c
00000090: 6cdd 8b3c a82f b8bc 54c1 913a 4ed7 c1ba
000000a0: a53f 99bb 2992 b4bc 7768 5abc 9937 2d3b
000000b0: bf04 2a3c a9cd 393b c496 fa3b 7812 893b
000000c0: f36e 8fbb e15c 81bc 14ed 87bb 0b9b d43b
000000d0: 2308 17bc 9a18 c23c ebbb b5bb 7127 aa3c
000000e0: 7197 b0bc 6e14 333c 1555 653a 54b2 c43c
000000f0: fe19 59bb 7747 0e3b 4ef3 9ab9 9dc8 c73c
00000100: 4098 d2bb a1a7 4dbb c2c4 daba 6742 c9bb
00000110: 0aad 9e3b f728 ba3c 4400 5c3c da53 1abb
00000120: 896d 60bb 8d07 b03c 0bf9 c73c 406c 8abc
00000130: 0389 68bb 74a9 d53c 72d2 bebb 0a29 1b3b
00000140: 371d 96bb 3678 e1bb 809d 833b e608 84bb
00000150: bcc7 75bb be4c 7f3b a4b1 c83a 7a44 3d3a
00000160: a96c 323a a5e0 ccbc 4593 543b 8572 3cbc
00000170: 8087 11bb 5304 edbb 3cf4 aebb cee5 553b
00000180: 6232 d53c 7497 2fbc 10ba 00bc b263 5b3a
00000190: d809 233c 7a99 87bc d70d 86bb 0ce4 b03c
000001a0: 0bb1 c4bc a6c0 80bc 9ad4 e43a c400 c83c
000001b0: 6b76 b4bc 876b 1b3a fa94 e439 8156 12bc
000001c0: 83c5 cbbb fae7 9fbc ba81 8cbc 46b1 7ebb
000001d0: 810c 86b9 2968 a2bc 67f6 77bb a75c cf3b
000001e0: 498c ac3c 994c 84bc 99cc c7bb b80b 61bc
000001f0: 830e 1c3c 84fc eaba dd59 9abc 2420 3cba
0.003888336 0.024777185 0.0018831164 0.002174908 0.017257776 0.0031571258 0.026077196 0.0022929506
-0.01293139 0.008688245 0.025063721 -0.023260819 -0.0012730911 0.0006264849 0.0002217234 -0.0011805322
-0.0021520574 -0.023509597 -0.0036871484 -0.0007691587 0.0028408628 0.019720595 0.006848929 0.015663896
-0.0020824315 -0.0038730288 -0.0026820856 0.016614383 -0.006251106 -0.0015125183 0.020900646 0.0057903775
-0.006800032 -0.003817254 0.004607446 0.010994991 0.017073356 -0.022483662 0.0011120238 -0.0014788897
-0.0046767765 -0.02204235 -0.01333057 0.0026430844 0.010377108 0.0028351343 0.007647367 0.00418311
-0.00437724 -0.015791358 -0.004148135 0.006488209 -0.009218249 0.023693372 -0.005546083 0.02077076
-0.021556588 0.010930164 0.0008748335 0.024010815 -0.0033127065 0.0021710077 -0.00029554445 0.024387652
-0.006426841 -0.0031380432 -0.0016690718 -0.006141949 0.004842405 0.022724612 0.013427798 -0.0023548515
-0.0034244976 0.021487975 0.024410745 -0.01689732 -0.0035482056 0.026081778 -0.005823427 0.0023675584
-0.0045811194 -0.0068807853 0.004016578 -0.004029381 -0.0037503084 0.0038955654 0.001531173 0.00072199816
0.0006806353 -0.025009463 0.0032436412 -0.011501913 -0.0022206008 -0.0072331815 -0.0053391736 0.0032638195
0.026025001 -0.010717262 -0.007856861 0.0008369043 0.009951077 -0.016552676 -0.0040910053 0.021593116
-0.024010202 -0.015716862 0.001745838 0.024414428 -0.022029122 0.00059288036 0.00043598545 -0.008931757
-0.0062186136 -0.019519795 -0.017151702 -0.0038862987 -0.00025567788 -0.019825058 -0.0037836076 0.0063281837
0.021062987 -0.016149806 -0.006097388 -0.013735704 0.009524944 -0.0017928039 -0.018841678 -0.000717642

std.constant9 f4 [128]
00000000: 0000 803f 0000 803f 0000 803f 0000 803f
00000010: 0000 803f 0000 803f 0000 803f 0000 803f
00000020: 0000 803f 0000 803f 0000 803f 0000 803f
00000030: 0000 803f 0000 803f 0000 803f 0000 803f
00000040: 0000 803f 0000 803f 0000 803f 0000 803f
00000050: 0000 803f 0000 803f 0000 803f 0000 803f
00000060: 0000 803f 0000 803f 0000 803f 0000 803f
00000070: 0000 803f 0000 803f 0000 803f 0000 803f
00000080: 0000 803f 0000 803f 0000 803f 0000 803f
00000090: 0000 803f 0000 803f 0000 803f 0000 803f
000000a0: 0000 803f 0000 803f 0000 803f 0000 803f
000000b0: 0000 803f 0000 803f 0000 803f 0000 803f
000000c0: 0000 803f 0000 803f 0000 803f 0000 803f
000000d0: 0000 803f 0000 803f 0000 803f 0000 803f
000000e0: 0000 803f 0000 803f 0000 803f 0000 803f
000000f0: 0000 803f 0000 803f 0000 803f 0000 803f
00000100: 0000 803f 0000 803f 0000 803f 0000 803f
00000110: 0000 803f 0000 803f 0000 803f 0000 803f
00000120: 0000 803f 0000 803f 0000 803f 0000 803f
00000130: 0000 803f 0000 803f 0000 803f 0000 803f
00000140: 0000 803f 0000 803f 0000 803f 0000 803f
00000150: 0000 803f 0000 803f 0000 803f 0000 803f
00000160: 0000 803f 0000 803f 0000 803f 0000 803f
00000170: 0000 803f 0000 803f 0000 803f 0000 803f
00000180: 0000 803f 0000 803f 0000 803f 0000 803f
00000190: 0000 803f 0000 803f 0000 803f 0000 803f
000001a0: 0000 803f 0000 803f 0000 803f 0000 803f
000001b0: 0000 803f 0000 803f 0000 803f 0000 803f
000001c0: 0000 803f 0000 803f 0000 803f 0000 803f
000001d0: 0000 803f 0000 803f 0000 803f 0000 803f
000001e0: 0000 803f 0000 803f 0000 803f 0000 803f
000001f0: 0000 803f 0000 803f 0000 803f 0000 803f
1.0 1.0 1.0 1.0 1.0 1.0 1.0 1.0
1.0 1.0 1.0 1.0 1.0 1.0 1.0 1.0
1.0 1.0 1.0 1.0 1.0 1.0 1.0 1.0
1.0 1.0 1.0 1.0 1.0 1.0 1.0 1.0
1.0 1.0 1.0 1.0 1.0 1.0 1.0 1.0
1.0 1.0 1.0 1.0 1.0 1.0 1.0 1.0
1.0 1.0 1.0 1.0 1.0 1.0 1.0 1.0
1.0 1.0 1.0 1.0 1.0 1.0 1.0 1.0
1.0 1.0 1.0 1.0 1.0 1.0 1.0 1.0
1.0 1.0 1.0 1.0 1.0 1.0 1.0 1.0
1.0 1.0 1.0 1.0 1.0 1.0 1.0 1.0
1.0 1.0 1.0 1.0 1.0 1.0 1.0 1.0
1.0 1.0 1.0 1.0 1.0 1.0 1.0 1.0
1.0 1.0 1.0 1.0 1.0 1.0 1.0 1.0
1.0 1.0 1.0 1.0 1.0 1.0 1.0 1.0
1.0 1.0 1.0 1.0 1.0 1.0 1.0 1.0

std.constant10 f4 [128]
00000000: c61f 983c 280b 923d 0cdd 1dbb 4ab8 4f3d
00000010: e24b c4bb b72c d33b e08f a33d d568 cd3c
00000020: 0682 10bc 3584 353d b4c3 333d c252 a93d
00000030: b0d4 af3c f0c2 e03c bcf2 3b3c bbcb dd3b
00000040: f47e 12bc de1a 1f3d 0a1a abbb f375 2d3d
00000050: 311e a83c d9de e43c 705b 8a3c 4606 d13d
00000060: bbfd 0a3d e531 133d 1049 513d 2fe2 163e
00000070: 64cd c73c 756f cbbb 2421 2cbc 3c32 acbb
00000080: 4c6e ee3c 42fd 8b3d 87e4 373d 1667 383d
00000090: 7491 ae3d 3db4 063e 38ad 2d3d 2fc8 493d
000000a0: eba2 a53c 168c 643c 2a92 fb3c f0f5 903c
000000b0: b6a6 973d ea95 bf3c 9d06 1b3d 28f3 17bc
000000c0: d456 ee3b dd56 49bc 0d8a 8dbb 98a6 d23d
000000d0: 07ad 633d 8b2e c63d 17b2 593c 3045 77bc
000000e0: ba3f fa3b 0ef7 2b3d 4482 e2bb a343 763c
000000f0: b1cd 793b 7f77 393d 5989 e63c 6ea6 a63d
00000100: a13c 213e a204 adbb d93e 343b 7d56 d63d
00000110: 9f7d 663c dd7a 1a3e b083 6e3d d63c 873b
00000120: 8db8 bdbb 082a 143c 6d1e f93d bd49 0dbc
00000130: 739a 253d 9b24 a13d a5ea 09b9 288c 553d
00000140: 12b6 be3b 4007 e5bb d9fd 0d3d 1c79 593c
00000150: f411 a63c 9ab8 5f3d 8fb3 a83c 602c ac3b
00000160: d58f 053d e45c 453d 2e2c 673c 4611 e73d
00000170: c853 1c3d b5a9 433d 6dc2 4e3c 86a2 243d
00000180: 1edc e43d fa33 18bc 9304 0fbc 7996 343d
00000190: 6bff 3c3c d4b2 7d3c 0cd4 8ebb 46a3 8a3d
000001a0: b136 003d a0e4 c43c 1b56 333d b8ce 7c3d
000001b0: 0712 5b3d 5b93 3d3d 548f 313d 8ddd 9c3c
000001c0: ef89 253d aac1 70bb 8ad6 7f3d 9a94 d0bb
000001d0: 8973 203d 866d 2a3d 12fb f53c c3db 843b
000001e0: c8ad c33d e3ef 50bc aff5 ad3c 6a66 613d
000001f0: c8d5 ac3c 33fa 5ebb b7b2 d63d 6da8 8f3c
0.018569838 0.07131034 -0.0024088053 0.05071286 -0.0059904912 0.0064445394 0.07986426 0.025074402
-0.0088200625 0.044315536 0.04388781 0.08267738 0.021463722 0.027436703 0.011471447 0.0067686713
-0.008941401 0.038843982 -0.00522161 0.042348813 0.020522209 0.027938293 0.016889304 0.10206275
0.033933382 0.035936255 0.05109507 0.1473472 0.02438993 -0.006208355 -0.010505948 -0.005255012
0.029105328 0.068354145 0.044895675 0.045020185 0.08523837 0.13154693 0.042401522 0.049263176
0.020219287 0.013949415 0.030709345 0.017695397 0.074048445 0.023386914 0.037848104 -0.009274282
0.0072735343 -0.012288776 -0.0043194355 0.102856815 0.055584934 0.09676846 0.013287089 -0.015092179
0.0076369913 0.041983657 -0.0069125015 0.015030774 0.0038116986 0.045279976 0.028141664 0.08137213
0.15745784 -0.0052800933 0.002750328 0.10465715 0.014068036 0.15085931 0.058231056 0.0041271253
-0.0057898224 0.009043224 0.121640064 -0.008623538 0.040430497 0.0786831 -0.0001315275 0.052135617
0.0058200443 -0.0069893897 0.034665916 0.013273504 0.020272233 0.05461941 0.020593433 0.0052543133
0.032607872 0.04818429 0.014109654 0.112825915 0.038165838 0.047769267 0.012619597 0.040194057
0.111747965 -0.009289736 -0.008729118 0.044088814 0.011535506 0.0154845305 -0.004358774 0.06769423
0.031302158 0.024034798 0.04378329 0.06172058 0.05348399 0.046283107 0.04334958 0.019148612
0.040414747 -0.0036736527 0.06246046 -0.006365371 0.039172683 0.041608356 0.030026946 0.004054518
0.095546305 -0.012752506 0.021235315 0.05502931 0.021098033 -0.0034023642 0.10483306 0.017536366

std.constant11 f4 [128, 7]
00000000: b873 0fbd 42b9 c13c 927a 853d c381 2b3d
00000010: 2afc 6fbd e0e8 a1bd 0119 013e 8081 3e3b
00000020: 41f7 fd3d 0ceb 8e3d 93ad e53d 118a 333d
00000030: 16a1 3b3d e79f 37bd 602c 5fbd fe93 cbbc
00000040: dbe3 4ab9 e993 523d e70f a4bd f4a4 81bc
00000050: 0292 a5bb 83f1 eb3d ee60 1dbd 6cda a93d
00000060: 9c7c 273d a476 77bd 0347 df3d 89a1 a53c
00000070: f8f1 bfbd 584b 69bd ae83 063b 8253 933d
00000080: e8c3 c83d 6b32 dcbd 7733 f0bd d932 dd3d
00000090: cb87 0abd c648 9f3d 3d8b cf3c da29 9c3d
000000a0: 54eb a13d dd39 c73d 2bef 86bc 4757 4bbd
000000b0: 19cf 93bd 479e 3bbd f400 763d 3c70 de3d
000000c0: ce9e 9e3d 76a7 153d 5d13 38bd 5534 823d
000000d0: cb20 2bbc e612 2c3c 1d67 b63c 9aa1 0b3e
000000e0: d883 c43d 8335 febb 8dbc 5ebc b10a 90bd
000000f0: 26e5 b83d a89d b1bd bb8c 983d 0d09 3ebd
00000100: 4d5f af3c c52e 5d3d a7e7 6abd cf27 b3bd
00000110: c663 c43d ab38 16bd 2260 cabb fe2e 1dbd
00000120: 0883 ee3d 9d0e a9bd f433 c7bc 9eae 783d
00000130: 2b97 3abd 9c5c ff3d d27b c0ba c0c8 013e
00000140: e508 1bbd 915a a5bb 798a 6e3d d53a 80bd
00000150: 3f60 ac3d 18fc 9fbd 3ec4 be3d a395 07bd
00000160: 9f49 2dbc 4a58 8e3d dbc3 97bc a037 993d
00000170: 51b2 1bbd 080d e23d 229a aabd 32c5 a5bd
00000180: b283 a33d 578e 1d3e 41fb 90bb d839 3b3d
00000190: 0d28 d23d f54b b23d 493e 39bc 71f8 d23d
000001a0: d690 073d d7d7 bf3d e62a a53d 00d6 963d
000001b0: 28ea a9bd b93b a63d 7993 1e3c a8ab 11bd
000001c0: 5635 2bbd f0ca 95bd 913e 81bd 54e4 8fbd
000001d0: 6443 cbbd 4efd 493d 8ac2 3e3d 68da 67bd
000001e0: 43ce 8cbd 1f24 993d 09b7 7e3d 8cdc 9b3d
000001f0: f633 d3bc 1cc1 0a3e ea89 d43d a256 5cbd
00000200: 1be8 6c3b ebde 073c ef96 a2bd df6a 00bd
00000210: df2b a7bd 25c3 19bd afd2 9a3d 9ba4 f03d
00000220: 09d9 a4bd b69f 503d b808 56bc a7a9 d4bc
00000230: 7b6c 7c3d 27aa b0bc c16e c43c bcd9 e03d
00000240: e951 c2bd c624 1a3c bcb0 23bd 7e15 403c
00000250: 42b0 dfba a767 073d b541 7cbd 5ab7 663d
00000260: 3b67 a6bd 7f11 e33d 7052 863d b54f 3d3c
00000270: 3c8f d03d f78b 2d3d 3213 7f3d 0848 a5bc
00000280: 4d7d bf3c 7b6e 04bc d4a1 0cbd b90e febc
00000290: 28d9 9abd 2c21 8fbb eeb1 2cbd 6efd 773d
000002a0: ada1 203d 8928 c53d 397a 3fbd 0ef0 13bd
000002b0: 9aaa 6ebc c12a 523d 91f3 083e a77f bcbb
000002c0: 37a3 853d bdca 80bd e737 d3bc 3464 f13c
000002d0: ce2e 873c a8f6 463b c4cf ef3d eca7 f13d
000002e0: 772f 9dbd 42b3 fe3d 3747 9abc 7b95 0dbd
000002f0: bd2d c03b d29e 1cbc 111e 46bd 15ba 0b3d
00000300: 21a6 c43c 134a ae3d 34ad ca3d c12e 403c
00000310: a038 95bd da57 893d f224 b33d 16a3 473d
00000320: a84f f33d a803 5abd df04 b43c f5d2 b4bd
00000330: 46a9 a03d 3bf2 b9bd 3259 9b3d 26ab 2ebc
00000340: b078 82bd 429b 843c 6522 383c 3541 8ebd
00000350: ca22 2b3b 69e6 a2bd edc0 833d 6c2d b0bc
00000360: 0e07 86bd 2cca 31bd 5e72 b53d e3ed 3d3d
00000370: d170 d1bd f1e0 50bd 16f1 c6bd aaee 89bd
00000380: 9e97 363d 169a 783d 1925 853d cbcf a23d
00000390: a840 aabd 9c1b a8bc 23db 3abd 2c78 86bd
000003a0: 74f1 813d 05e2 edbc 83a6 013e 916e c7bb
000003b0: a151 e0bb 9571 253d 658c 9bbd b997 c53d
000003c0: b68e 9b3d 558f e93d f281 28bd 013f f73d
000003d0: 8489 e63d 28ea 6dbd d3a7 1e3d 17d0 43bd
000003e0: a8fd 3d3d a5a2 b83c 9725 3cbd 742b 3e3d
000003f0: 8040 c53d fa00 c03d 8a0e c03c 33c1 893d
-0.035022467 0.023647908 0.06517519 0.041871797 -0.05859009 -0.079057455 0.12607194 0.0029068887
0.124006756 0.069784254 0.11214747 0.043832842 0.04580792 -0.04483023 -0.05448568 -0.024850842
-0.00019349104 0.05141059 -0.08010846 -0.015825726 -0.005052806 0.11520674 -0.038422517 0.08293614
0.04089032 -0.06041588 0.10902216 0.020218628 -0.09372324 -0.05695662 0.0020525265 0.07193662
0.09802991 -0.10751804 -0.11728566 0.10800714 -0.03382091 0.07777552 0.025334949 0.0762517
0.079062134 0.097278334 -0.016471466 -0.04964378 -0.07217235 -0.045805242 0.060059503 0.10861251
0.07745133 0.036536656 -0.04494034 0.06357638 -0.01044483 0.010502553 0.022265965 0.13635865
0.0959546 -0.007757844 -0.013594759 -0.07033289 0.090280816 -0.08672649 0.07448717 -0.04639535
0.021407748 0.05399968 -0.057349827 -0.08747827 0.09589343 -0.036675137 -0.0061760107 -0.038374893
0.11646086 -0.082547404 -0.024316765 0.060713403 -0.04555432 0.12468836 -0.0014685339 0.12674236
-0.03785028 -0.0050461967 0.058237527 -0.06261221 0.08416795 -0.07811755 0.09314774 -0.03310169
-0.010576635 0.069504336 -0.018526008 0.07481313 -0.038011853 0.11037642 -0.0833018 -0.08094253
0.07984103 0.1538633 -0.004424483 0.04570946 0.10261545 0.08705894 -0.011306354 0.10301293
0.03309711 0.0936734 0.08064823 0.07365036 -0.08296615 0.0811686 0.009678715 -0.035564095
-0.041798912 -0.07314098 -0.06310762 -0.07025972 -0.09924963 0.049313836 0.046572246 -0.056604773
-0.06875279 0.07477593 0.062186275 0.07610425 -0.025781613 0.13550228 0.103778675 -0.053793557
0.0036149088 0.008292894 -0.079389445 -0.03135192 -0.081626646 -0.03753962 0.07559716 0.11750146
-0.08049209 0.050933562 -0.013063602 -0.025959803 0.061626893 -0.02156551 0.023978593 0.109790295
-0.09488279 0.0094081815 -0.03996347 0.011723874 -0.0017066079 0.033057835 -0.0615861 0.0563272
-0.081251584 0.110873215 0.065586925 0.011554648 0.1018357 0.04236981 0.062274165 -0.020175949
0.023375178 -0.008082981 -0.03433402 -0.03101288 -0.075609505 -0.004367968 -0.042161874 0.060544424
0.039216686 0.09626872 -0.04674742 -0.036117606 -0.014567042 0.051310305 0.13374163 -0.005752522
0.065252714 -0.06288669 -0.025783492 0.029466726 0.01650181 0.003035942 0.1170955 0.11799607
-0.07675069 0.124365345 -0.018832786 -0.034566384 0.0058648274 -0.00955935 -0.048368517 0.03411301
0.024004998 0.08510222 0.09896317 0.011729897 -0.07286191 0.067062095 0.08747281 0.048739515
0.118804276 -0.053226143 0.021974979 -0.08829299 0.07844786 -0.09079405 0.07585372 -0.010660922
-0.063706756 0.016187314 0.011238669 -0.06946031 0.0026113265 -0.079541035 0.06433282 -0.021506034
-0.06544314 -0.043405697 0.088597044 0.046369445 -0.10226596 -0.05099577 -0.09713952 -0.06734975
0.044578187 0.060693823 0.065012164 0.079497896 -0.083131135 -0.020520978 -0.04561914 -0.0656589
0.06344882 -0.029038439 0.12661175 -0.0060861786 -0.0068456684 0.040391523 -0.075951375 0.096480794
0.07595579 0.114042915 -0.04113955 0.12072564 0.11256698 -0.058084637 0.03873427 -0.04780587
0.046384484 0.022538492 -0.045934286 0.04642816 0.09631443 0.09375186 0.023444433 0.06726303

std.constant12 f4 [128, 7]
00000000: 7ca6 2c3d f46a ed3d 30c5 c93d b2d5 b03d
00000010: e804 6fbd c0a6 a23c ff47 f43d 8f09 c83d
00000020: 1261 99bc 548c bcbd db3b d4bc 748f 33bd
00000030: 7876 b2bc 4739 2bbe 8f8c c2bd 975d 28bd
00000040: bc8a dabc ffde e03d 6d72 be3d 6e6d 0fbd
00000050: 2dc9 913d 9284 8abd be18 3bbc 3f37 aa3c
00000060: 7817 02bd 81c5 823d da20 423d ef15 343e
00000070: 1ccd 88bd 4e52 a9bc a66e 1d3c 237c 563d
00000080: 8891 3dbd 1f31 e63c eed5 13bd 0f4e 873d
00000090: 9c13 bc3d 6100 9b3c e7b9 1fbc 59db de3c
000000a0: f28c 4cbd b3bc a33d 5c59 8dbd f3ee 8a3d
000000b0: 1d41 8c3c 3a71 51bd 8d3c 683d 4d48 cabd
000000c0: 2e9c 45be 12e1 da3d 4f34 073d deca 9a3c
000000d0: 6691 c0bc 7b3c cc3b 6329 fa3d 6803 0c3e
000000e0: 0ff5 0cbd cf38 b03d e2a9 64bd 9d96 123d
000000f0: aa4e 9ebd 399e 8b3c 071f 513d da7d 4cbd
00000100: 0de3 a3bd bf47 0fbd ad53 aa3b 97b4 ac3d
00000110: c043 eebd 4024 243e 7efd aebd f181 123d
00000120: 635a 0ebc 7ca9 85bd 83a1 95bc 0802 84bc
00000130: 738d 31be fecf 92bd e5cc 3fbd 300d 723d
00000140: 184e 80bd 422a 4e3c 9dfe 8b3d 75b2 3f3e
00000150: 7a7d 13bc 8d3d 26bd 01ba 81bd bbda 873d
00000160: 0676 d23d b245 413d b4d0 073e 08c4 c63d
00000170: 4118 293d 3b4e 693d ff72 16bd 6d62 8a3d
00000180: 9188 613c 941c 2d3e a6b1 be3d 1c0d 943d
00000190: c5f3 e7bd b480 b3bd 1a62 ccbd 4357 4dbd
000001a0: 1a1a c8bd 1202 8a3d 7219 e1bc 4b25 d2bd
000001b0: 0c0a 4c3c eb8a 1abd aff5 643d 2b75 ba3d
000001c0: 0325 af3d 1d9b 5c3d 836d dd3d 7215 b53a
000001d0: 862c 283d 0b82 bdbc d207 cfbc e85c 813d
000001e0: 1599 483c 9cd6 a73d f046 703d 5c8a 9b3d
000001f0: e4e1 08bd 72e0 473e 1201 b93d 4f2a c8bd
00000200: bf4e d3bd 4136 96bd ba5f e6bc 5410 2dbc
00000210: 7d1f 693d d81c febc f795 86bc e555 b7bc
00000220: 49ef 913d 4cc5 3a3d 9ade 0b3c 81b9 3c3e
00000230: 0b22 b5bc 70ae e1bd 7493 e0bd 1c6a be3d
00000240: f094 84bd 235c 74bd c852 13be 9147 9ebd
00000250: 3a95 6ebd 28bb 793d 3e5e f5bc 6a74 8f3b
00000260: 08d6 d3bd 2b78 edbd 62bf 683d b878 523d
00000270: cb1d dc3d df8f 613d e843 a03c ff9b cb3d
00000280: c177 a83d 1f38 aebd f7f3 afbd b9ed a73c
00000290: 9484 d03d 7938 53bc 645c 0b3d 514f 65be
000002a0: 97c6 32bd 678d 0dbc 61db 283d e4c4 673d
000002b0: 9bc5 cabd ee8e acbd a2f4 21be ccc5 883c
000002c0: 4f03 0bbd f9e8 773d 5908 263d b8bc 24bd
000002d0: 0797 6cbd 39e3 06be dd9f b8bd f713 61bd
000002e0: 2225 113d aef0 5d3c 95c7 f93a 2b15 ed3d
000002f0: c12c 2f3e b2ca 1b3d bae3 df3d 1a85 44bd
00000300: 079e 453d 6374 21bc dac9 69bb 8f11 6dbe
00000310: efb5 d4bd b681 473d 1c8c 3c3c 108b d23b
00000320: dbe5 fbbc f0d7 f7bc bbbc dbbd b82d b8bc
00000330: 7697 c73c 3532 e7bd 8cf7 f73c a7c8 f33c
00000340: 7456 e7bd d416 903b b543 b1bc 7dfe a5bd
00000350: ad4e 79bd d379 25bd 47d0 033d c0d5 81ba
00000360: 6ac7 a7bc 1bf2 a63d 85c6 c63d bbd7 81bb
00000370: 1d6c a83d e5b6 893d 77df 743c e9f6 4ebd
00000380: 8400 973c 8fb1 f7bc eb31 d23c 34ca 26bd
00000390: d06a e43a 0a21 cf3d 95e3 003e d447 9e3d
000003a0: af1b 20bd cc35 78bd 45fe abbd 775a 853b
000003b0: 80b6 503d ae62 433e b1d6 163d b8a7 273d
000003c0: 268d 563d 40ee 53bd 74b0 013d 94c7 d6bc
000003d0: e71e 493e 0218 eebb 5a9d 25bd 36ac be3d
000003e0: b5c6 8ebd 1f80 8b3d 263e 363d f3d6 f5bd
000003f0: c9c9 b6bd 62ec 193d 4ce4 ce3d a36e 8a3d
0.04215096 0.11592665 0.09852064 0.08634509 -0.05835429 0.019854903 0.11927795 0.09767448
-0.018723045 -0.09206453 -0.025907448 -0.04383798 -0.021785006 -0.16721068 -0.09499466 -0.04110488
-0.026677482 0.10980033 0.09299169 -0.03501647 0.07118449 -0.06763567 -0.011419473 0.020778297
-0.031760663 0.06385327 0.04739461 0.17586492 -0.066797465 -0.020669129 0.0096089 0.05236448
-0.046281368 0.028099595 -0.03609269 0.06606685 0.09183428 0.01892108 -0.009748912 0.027204202
-0.049939103 0.07994976 -0.069018096 0.06783857 0.017120892 -0.051133372 0.05669837 -0.098770715
-0.19297859 0.1068746 0.03300887 0.018895563 -0.023506831 0.006232796 0.12214925 0.13673174
-0.034413394 0.086045854 -0.055826075 0.035788167 -0.07729848 0.01704322 0.05105498 -0.04992471
-0.08002291 -0.03498053 0.005197963 0.08432882 -0.11634016 0.16029453 -0.085444435 0.035768453
-0.008688542 -0.06526467 -0.018265491 -0.01611425 -0.17339115 -0.071685776 -0.046826262 0.059094608
-0.06264895 0.012583317 0.06835673 0.1872042 -0.009002084 -0.040586043 -0.063343056 0.066335164
0.102764174 0.047185607 0.13263208 0.09705359 0.041282896 0.056959372 -0.036730763 0.067570545
0.01376547 0.16905433 0.093112275 0.07229063 -0.11325792 -0.087647825 -0.09979649 -0.050132047
-0.097706035 0.06738676 -0.027477954 -0.10261019 0.012453567 -0.03773014 0.055898365 0.09104379
0.08551981 0.053858865 0.10811903 0.0013815595 0.041058086 -0.023133298 -0.025272284 0.063165486
0.012243529 0.0819523 0.0586614 0.07594749 -0.03341855 0.19519213 0.09033407 -0.09773695
-0.10317754 -0.07334567 -0.028121818 -0.010562975 0.056914795 -0.031019613 -0.01642893 -0.022379825
0.07125718 0.045598313 0.008536959 0.18430139 -0.02211096 -0.110195994 -0.109656245 0.092975825
-0.0647372 -0.05965818 -0.14387047 -0.07728494 -0.058247782 0.0609695 -0.029952165 0.0043778913
-0.103435576 -0.11595186 0.056823142 0.051384658 0.1074787 0.055068847 0.01956363 0.09941863
0.08225966 -0.08506798 -0.085914545 0.020499097 0.10181537 -0.012891882 0.034023657 -0.22393538
-0.04364642 -0.00863967 0.04122484 0.056584254 -0.099009715 -0.08425699 -0.15815976 0.01669588
-0.033938702 0.060524914 0.040535305 -0.04021904 -0.05776122 -0.13172616 -0.090148665 -0.05495068
0.035435803 0.013546152 0.0019056672 0.11576303 0.17106916 0.038035102 0.10932107 -0.047978498
0.04824641 -0.009854409 -0.0035673291 -0.2315123 -0.103862636 0.048707686 0.011508014 0.006425269
-0.030749252 -0.030254334 -0.10729357 -0.022482738 0.024364214 -0.11288873 0.030269407 0.029758764
-0.112957865 0.0043972526 -0.02163873 -0.081051804 -0.060866047 -0.040399384 0.03218105 -0.0009905621
-0.02048083 0.08151647 0.09705833 -0.0039624847 0.08223746 0.067243375 0.014945856 -0.05052844
0.018432863 -0.030236034 0.025658568 -0.04072018 0.0017426852 0.101137236 0.12586816 0.07728544
-0.0390889 -0.06059818 -0.083981074 0.004069622 0.050955296 0.19080612 0.03682584 0.040931433
0.052380703 -0.051740885 0.03166242 -0.026218213 0.19640695 -0.0072660455 -0.040433265 0.093101904
-0.06971494 0.068115465 0.044492863 -0.12003889 -0.08925206 0.037578948 0.10102138 0.067593835
