AirQualityApp/AirQualityApp.Android/Assets/MilanShort.tflite (tflite, 814948 bytes, 24 tensors)

std.constant3 f4 [128, 128]
0	0x3ca41d90	0.020033628
1	0x3ca21673	0.019786095
2	0xbd2d9fca	-0.042388715
3	0xbc7768fa	-0.015100712
4	0xbb4a1c63	-0.0030839674
5	0xbc277f97	-0.010223291
6	0xbd877a7f	-0.06615161
7	0x3c1cae86	0.009563094
8	0xbdf11949	-0.11772401
9	0xbce9868b	-0.028506538
10	0x3d21e663	0.039526355
11	0x3cf38b18	0.029729411
12	0x39c4bc98	0.00037524546
13	0xbdbf3018	-0.09335345
14	0x3cdeae55	0.027182737
15	0xbb94d172	-0.0045415694
16	0xbbfb508a	-0.007669513
17	0xbbc83c49	-0.006110702
18	0x3d37ff1b	0.044921022
19	0xbb8a295c	-0.004216356
20	0x3dab2c25	0.08358029
21	0xbd91e336	-0.07123415
22	0x3d84c1da	0.06482287
23	0x3cd0fa22	0.025509898
24	0xbcee7aa4	-0.029111214
25	0x3cffc39d	0.031221205
26	0x3c77f563	0.015134188
27	0xbd7f4570	-0.06232208
28	0x3a7893d0	0.0009482475
29	0xbd64c04f	-0.055847462
30	0xbd6f827e	-0.058474056
31	0x3e0c7afc	0.1371879
32	0x3cf01f12	0.02931169
33	0xbd78e0a8	-0.060761124
34	0xbdb368f8	-0.087602556
35	0x3c6132cf	0.013745024
36	0x3cfbfdad	0.03076061
37	0x3d023129	0.031785164
38	0x3cadabb9	0.021200048
39	0xbb126b1c	-0.0022341674
40	0x3d00d581	0.031453613
41	0xbb975630	-0.0046184286
42	0xbc69eff7	-0.0142784035
43	0xbdb8c7af	-0.090224616
44	0xbc7162bb	-0.014733012
45	0xbddb8c81	-0.10720158
46	0xbd432e80	-0.047651768
47	0x3db3f188	0.08786303
48	0x3c82686e	0.015918937
49	0xbc83c562	-0.01608533
50	0xbdc71352	-0.09720482
51	0xbce27c04	-0.027647026
52	0xbcb5aedf	-0.022178112
53	0x3d29f717	0.04149541
54	0x3d0dc32d	0.034609962
55	0xbd161137	-0.03663751
56	0xbd0d8e57	-0.034559574
57	0xbb3cda38	-0.0028816592
58	0x3ca3e366	0.020005893
59	0x3cd01966	0.025402736
60	0x3d15cf12	0.03657443
61	0x3d3ed599	0.04659042
62	0x3cfa5042	0.030555848
63	0x3d12f5dc	0.035879
64	0xbd36509b	-0.044510465
65	0xbd2b0375	-0.041751344
66	0x3d77a366	0.060458563
67	0xbcd7771e	-0.026301917
68	0xbc1548c2	-0.009111585
69	0xbcb26998	-0.021778867
70	0xbcf9d301	-0.030496122
71	0x3d99ed1e	0.0751593
72	0xbd3acf81	-0.045608047
73	0x3d745850	0.059654534
74	0xbd4e16c6	-0.050314687
75	0x3cce2dae	0.025168266
76	0x3d326594	0.043553904
77	0xbb3172bc	-0.0027076444
78	0xbd03108b	-0.0319982
79	0x3d0e9c94	0.034817293
80	0xbc9ca7c2	-0.019122962
81	0xbc14aa6e	-0.009073837
82	0x3cb66874	0.022266604
83	0xbdb74ad7	-0.089498214
84	0xbd93b71a	-0.07212658
85	0xbdd07617	-0.10178774
86	0xbc791b87	-0.015204317
87	0x3c321669	0.010869601
88	0x3cf3f5f3	0.029780364
89	0x3cf8c791	0.030368598
90	0xbc1bc224	-0.009506736
91	0xbd65e2af	-0.056124385
92	0x3d3f13f0	0.046649873
93	0xba38a110	-0.0007043043
94	0xbc2bfb02	-0.010496857
95	0x3c995cd9	0.018721031
96	0xbd68a286	-0.05679562
97	0xbcafb4b6	-0.021448474
98	0xbd0061ff	-0.031343456
99	0x3d045366	0.032306097
100	0xba808b70	-0.0009807181
101	0xbd1974c3	-0.03746487
102	0x3c85224a	0.016251702
103	0xbc8e1852	-0.017345581
104	0xbc1ab463	-0.009442422
105	0x3d105865	0.03524055
106	0xbd125f84	-0.035735622
107	0xbca6460b	-0.020297071
108	0x3c8d1874	0.017223574
109	0xbe0466fb	-0.12929909
110	0x3d0675c8	0.03282717
111	0x3ca95922	0.020672385
112	0x3c99d08d	0.018776203
113	0x3c74731a	0.0149200205
114	0x3bcc4741	0.00623408
115	0xbce70d0e	-0.028204467
116	0x3d3c354c	0.045949265
117	0xbc8d588c	-0.017254137
118	0x3d8245e7	0.06360989
119	0x3cb4840c	0.022035621
120	0xbd779b8e	-0.060451083
121	0x3d762fe8	0.06010428
122	0xbd43fd11	-0.047848765
123	0x3c0edd3f	0.008719741
124	0xbb784490	-0.0037882663
125	0x3d6ab56a	0.057301916
126	0xbc722784	-0.014779929
127	0xbd2de5c8	-0.042455465
128	0x3db4e8c1	0.08833457
129	0x3c9f91cb	0.0194787
130	0x3d009f1b	0.031401735
131	0x3ced8388	0.028993383
132	0xbd6c0f12	-0.05763156
133	0xbd3ce7fb	-0.04611967
134	0xbb0c6e1e	-0.002142794
135	0xbd968b88	-0.07350832
136	0xbcc91306	-0.024545204
137	0x3d3936e3	0.04521836
138	0x3dbc4350	0.09192526
139	0x3d2c40fe	0.04205417
140	0x3b9d4f42	0.004800708
141	0x3d25419d	0.040345777
142	0x3d6ca80e	0.057777457
143	0xbd8f41bf	-0.06994962
144	0x3d822fa4	0.06356743
145	0x3d34e8c9	0.044167314
146	0x39dc3298	0.00041999365
147	0x3aab89c2	0.001308732
148	0xbd556c3d	-0.052105177
149	0x3d45d07a	0.048294522
150	0xbd0ff46a	-0.0351452
151	0xbd0c7738	-0.034293383
152	0x3d911269	0.070835896
153	0xbc38193a	-0.011236483
154	0x3baf31ba	0.005346504
155	0xbd5ea3d0	-0.054355443
156	0x3d849859	0.064743705
157	0x3c45b470	0.012066945
158	0xbc971505	-0.01844264
159	0xbc579260	-0.013157457
160	0xbcdc69e3	-0.02690596
161	0xbd279ed5	-0.04092296
162	0x3da0ef48	0.07858139
163	0xbd18379a	-0.0371624
164	0x3d2a6ea4	0.04160942
165	0xbcd7dd7c	-0.02635073
166	0x3c87c986	0.016575586
167	0xbd4b845c	-0.049686775
168	0x3d883d29	0.066522904
169	0xbcee9de8	-0.02912803
170	0x389f7380	7.6032244e-05
171	0xbc43233e	-0.011910258
172	0xbc26461a	-0.010148549
173	0xbc8db7b8	-0.017299518
174	0x3d8823e9	0.06647474
175	0xbc636a9a	-0.013880396
176	0x3d7b053e	0.061284296
177	0x3d0ebcaf	0.03484791
178	0xbc056abf	-0.008143126
179	0x3db35926	0.08757238
180	0x3ce0b606	0.027430546
181	0xbd5dcad9	-0.05414853
182	0x3c796eb9	0.015224152
183	0x3df0e89c	0.11763117
184	0x3cab6000	0.0209198
185	0x3cba7ab7	0.022763593
186	0x3c59df36	0.013297847
187	0x3ca37635	0.019953826
188	0x3bb61af0	0.0055574104
189	0xbcf473ab	-0.029840311
190	0xbd902dc4	-0.07039979
191	0x3d2c4545	0.042058248
192	0x3bdb3177	0.0066892463
193	0xbcbdf0de	-0.023186143
194	0xbba59f48	-0.005054388
195	0xbd4ea725	-0.05045237
196	0x3d395947	0.045251157
197	0xbcaca8f3	-0.021076655
198	0xbd102992	-0.035195895
199	0xbdcdf614	-0.10056701
200	0xbd1e79e7	-0.038690474
201	0xbcd0e694	-0.025500573
202	0x3c9dcade	0.019261774
203	0xbceb5e43	-0.02873147
204	0x3baa3750	0.005194582
205	0xbd09b86d	-0.033623148
206	0x3d42413a	0.047425486
207	0x3d9f9b7f	0.077933304
208	0xbc0ccb0e	-0.008593334
209	0xbd828948	-0.063738406
210	0xbcad6d8a	-0.021170396
211	0xbc31b672	-0.010846721
212	0x3c41e21f	0.011833697
213	0xbb858c92	-0.004075595
214	0xbd62e5ce	-0.05539494
215	0x3d4396ea	0.047751345
216	0xbd1437ee	-0.03618615
217	0xbb4f9af3	-0.003167805
218	0x3dc11ed3	0.094297074
219	0x3b8a98da	0.004229647
220	0x3d117192	0.0355087
221	0x3b355f70	0.0027675293
222	0xbd20eaf9	-0.039286587
223	0x3d30f001	0.043197636
224	0x3d660912	0.056160994
225	0xbccd5978	-0.025067076
226	0x3d34401c	0.044006452
227	0x3cee1037	0.029060466
228	0x3c98eeb1	0.018668504
229	0xbbfe9d3b	-0.007770208
230	0x3cf41dbf	0.02979934
231	0xbc1e7ab3	-0.009672808
232	0xbc361ee6	-0.011115765
233	0xbd3b6508	-0.045750648
234	0xbd803ef7	-0.062620096
235	0xba68a3c0	-0.00088744983
236	0x3c86476e	0.016391482
237	0xbd5dffd8	-0.05419907
238	0x3d7ce9cf	0.061746415
239	0x3ba62bf6	0.0050711585
240	0x3d003716	0.031302534
241	0x3d35843f	0.044315573
242	0xbd9897a9	-0.07450802
243	0xbc9f6cef	-0.019461123
244	0xb9f051e0	-0.0004583737
245	0x3c2e7e92	0.010650294
246	0x3bfb8af0	0.0076764748
247	0x3b15be08	0.0022848863
248	0xbd25ca6a	-0.04047624
249	0x3b39ffb4	0.002838117
250	0x3d9024f3	0.070382975
251	0xbce86812	-0.028369937
252	0xbd50f0a1	-0.05101073
253	0xbc9c25f2	-0.019061062
254	0xbd89efc7	-0.06735187
255	0xba0c1920	-0.000534432

std.constant4 f4 [128, 128]
0	0x3ccd5ff6	0.025070172
1	0xbd71e38d	-0.0590549
2	0xbc93d049	-0.018043654
3	0x3ca2e081	0.019882442
4	0xbc6033c6	-0.013684219
5	0x3d4ecc67	0.050487902
6	0x3c875b46	0.016523015
7	0x3d4f3369	0.050586138
8	0x3d87bfc6	0.06628375
9	0x3db5bdbd	0.0887408
10	0x3c25cfe1	0.010120363
11	0xbd2fe1d8	-0.04293999
12	0xbd170374	-0.036868528
13	0xbc9d8aa4	-0.019231148
14	0xbd651049	-0.055923734
15	0x3c988bd0	0.018621355
16	0xbc28fef7	-0.010314695
17	0x3cb329f4	0.02187059
18	0xbb165c0c	-0.0022943048
19	0xbb2e69d4	-0.0026613371
20	0x3cd5ce7a	0.026099432
21	0x3c58cbf0	0.013232216
22	0x3bbed241	0.005823404
23	0x3b29e31e	0.0025922726
24	0xbdbf12de	-0.093297705
25	0x3d71d35d	0.059039462
26	0xbc853c3e	-0.016264077
27	0x3c9efcc6	0.019407641
28	0x3bc6e0f6	0.006069298
29	0x3d5ac8be	0.0534141
30	0x3d0f994c	0.035058305
31	0x3cb11e8a	0.021621007
32	0xbd60aaba	-0.054850318
33	0x3de7e3fb	0.11322781
34	0x3d01f719	0.03172979
35	0x3d962280	0.07330799
36	0x3cf2658a	0.029589433
37	0xbd62db9f	-0.05538523
38	0x3b62b47c	0.003459244
39	0x39fa8a20	0.00047786627
40	0x3d41cf4f	0.047316846
41	0x3cd3df77	0.025863392
42	0x3ced69fb	0.0289812
43	0x3bffda64	0.0078080166
44	0xbcaf7ab4	-0.021420814
45	0xbd6e6fb1	-0.058211986
46	0x3c9ff077	0.019523842
47	0x3cdf133b	0.02723085
48	0x3bc1f134	0.005918646
49	0xbdcf4645	-0.10120825
50	0xbcc203d0	-0.023683459
51	0x3d9afbb4	0.0756754
52	0x3ae9070b	0.0017778588
53	0x3c17885b	0.009248818
54	0x3bc9e91c	0.006161822
55	0xbca40e9a	-0.020026494
56	0x3d3e1aa5	0.04641213
57	0xbc97ea0e	-0.018544223
58	0x3d050392	0.032474108
59	0xbda1a23a	-0.078922704
60	0xbbd6e917	-0.006558548
61	0x3d78342b	0.060596626
62	0x3dcd6957	0.100298576
63	0xbcd241f8	-0.025666222
64	0xbd16e2ec	-0.036837503
65	0xbca56878	-0.020191416
66	0xbda7a11c	-0.08185026
67	0x3d1ed7e0	0.038780093
68	0x3d05612a	0.032563366
69	0x3d14a4a6	0.036289833
70	0xbc7b0c35	-0.015322735
71	0xbbbcf7cc	-0.0057668444
72	0xbd213c4e	-0.03936415
73	0xbd3ba0d4	-0.045807675
74	0xbc8ed3a4	-0.017434902
75	0xbd067e8c	-0.03283553
76	0xbd0f718b	-0.035020392
77	0xbd1c4272	-0.038149305
78	0x3c987b75	0.018613556
79	0xbd536328	-0.051608235
80	0xbb8f14ac	-0.004366478
81	0xbc98f84c	-0.018673085
82	0x3d009090	0.031387866
83	0xbb8ceec4	-0.004300924
84	0x3c074999	0.008257293
85	0x3cc53740	0.024074197
86	0x3d4ce102	0.05001927
87	0x3da1a270	0.078923106
88	0xbd1168a9	-0.035500202
89	0x39c465b0	0.00037459796
90	0xbd2ac5b6	-0.041692458
91	0xb93a8464	-0.00017787662
92	0x3bf43350	0.007452406
93	0x3d06300a	0.032760657
94	0x3c2fc486	0.010728007
95	0x3c93b9ef	0.018032996
96	0x3c130574	0.008973468
97	0x3ad7dfc4	0.0016469886
98	0x3c56ecd8	0.013117991
99	0xbc27a894	-0.010233063
100	0x3d819e97	0.06329077
101	0xbc815bbc	-0.015790813
102	0x3d031dfb	0.032011013
103	0xbc582b15	-0.013193865
104	0x3ccad9aa	0.024761993
105	0xbc97ae0d	-0.018515611
106	0x3d54d304	0.051959053
107	0xbc7b612a	-0.01534299
108	0x3d1b379a	0.037894823
109	0xbd4f44a2	-0.050602563
110	0xb8ce0680	-9.824056e-05
111	0x3d31bdce	0.043393902
112	0xbd8db559	-0.06919355
113	0xbd030912	-0.031991072
114	0x3cbde1f1	0.023179026
115	0xbd5ff4ad	-0.0546767
116	0x3c68a924	0.0142004825
117	0x385b6500	5.2307732e-05
118	0xbd67b1ca	-0.056566037
119	0x3d9fe58f	0.07807457
120	0x3d11364a	0.035452165
121	0xbbbc9245	-0.0057547414
122	0x3b3d6d76	0.0028904355
123	0x3c39e2a8	0.011345543
124	0x3cc16d3e	0.023611661
125	0xbd088fe4	-0.03334035
126	0x3cd0aa84	0.025471933
127	0x3d0c05b1	0.034185115
128	0x3bbf136b	0.005831172
129	0xbd0fe1fb	-0.03512762
130	0xbd876572	-0.06611146
131	0xbd3c8f6b	-0.04603521
132	0x3d3fac5e	0.04679524
133	0x3dac804b	0.084229074
134	0xbc99a826	-0.018756937
135	0xbbccd3a2	-0.0062508145
136	0xbcd96796	-0.026538651
137	0xbd2886b4	-0.041144088
138	0x3d025bfb	0.031826
139	0x3bf03905	0.007331016
140	0x3c9454b2	0.018106792
141	0xbda0b3f3	-0.078468226
142	0x3c64f452	0.013974266
143	0x3b9e41c7	0.0048296186
144	0xbc9e0b3c	-0.019292466
145	0xbd837f76	-0.064207956
146	0xbd2945b4	-0.04132624
147	0xbd1226a7	-0.035681393
148	0x3ca629a6	0.020283531
149	0xbd0d19a3	-0.034448277
150	0x3da05dae	0.07830368
151	0xbc952715	-0.018207112
152	0xbcefd75b	-0.029277494
153	0x3cb3cd45	0.021948466
154	0xbcbcb2e0	-0.023034513
155	0x3d8fa73d	0.0701432
156	0x3ceffd0c	0.029295467
157	0x3c6f098e	0.01458968
158	0xbd00f00a	-0.03147892
159	0xbc85ed45	-0.01634849
160	0x3d4a1f98	0.049346536
161	0xbcf5ffcc	-0.0300292
162	0xbcc2e813	-0.023792302
163	0xbcd45e33	-0.025923824
164	0xbd95f770	-0.073225856
165	0xbbd1d525	-0.0064035826
166	0xbcfd6b59	-0.030934976
167	0xbd0d53ef	-0.034503873
168	0xbc15a950	-0.0091346055
169	0xbd046edd	-0.03233229
170	0xbdabc4cc	-0.083871454
171	0x3b9a41f3	0.004707569
172	0xbd084cfe	-0.03327655
173	0xbca2ffd8	-0.019897386
174	0xbc263bcc	-0.010146093
175	0xbc2d2d2d	-0.010569853
176	0x3a7e29f8	0.0009695585
177	0x3d1290f0	0.035782754
178	0xb90a0200	-0.0001316145
179	0x39bd7f00	0.00036143512
180	0xbd15f123	-0.03660692
181	0xbc5e4063	-0.013565156
182	0x3d4d70b2	0.050156303
183	0x3dcb032e	0.09912716
184	0x3cdf1d30	0.027235597
185	0x3c14fd90	0.009093657
186	0x3d825b72	0.06365098
187	0xbb20546c	-0.0024464382
188	0x3b535dd4	0.003225197
189	0x3c827f68	0.015929893
190	0x3d1adb0f	0.037806567
191	0x3ce14bb8	0.027501926
192	0x3d88c1f7	0.06677621
193	0x3dbb45ec	0.09144196
194	0xbd289894	-0.041161135
195	0xbd036821	-0.032081727
196	0xbc41842a	-0.0118112955
197	0xbd62eecc	-0.055403516
198	0x3b5b79cb	0.0033489342
199	0x3d24a805	0.0401993
200	0x3c5a16a6	0.013311064
201	0xbca1c1d5	-0.019745747
202	0xbaaa8490	-0.0013009477
203	0xbc17d878	-0.009267919
204	0x3b17ff32	0.002319288
205	0xbc2b6590	-0.010461226
206	0x3d8ea2d8	0.06964654
207	0xbc464ca4	-0.0121032335
208	0x3c391a56	0.011297783
209	0xbcb38098	-0.021911904
210	0x3d4986d6	0.049200855
211	0x3dc4f5e3	0.09617212
212	0xbd4292fe	-0.047503464
213	0xbd394016	-0.045227133
214	0x3d0c3264	0.034227744
215	0x3b345226	0.0027514785
216	0xbc1dcc45	-0.009631221
217	0x3d2cdd59	0.04220328
218	0xbcba1f42	-0.022719983
219	0xbdbfc520	-0.093637705
220	0xbda27cb5	-0.07933942
221	0xbd40bb30	-0.047053516
222	0xbd0abbac	-0.033870384
223	0xbd0f7794	-0.035026148
224	0xbba3fc74	-0.00500446
225	0xbd9edf89	-0.0775748
226	0x3d51c71d	0.05121528
227	0xbc17f076	-0.009273639
228	0x3da3b16d	0.07992826
229	0x3a9716f2	0.0011527224
230	0xb922c788	-0.00015523855
231	0x3cd25eab	0.025679907
232	0xbc6dd52c	-0.014516156
233	0xbc129088	-0.008945592
234	0xbcb97384	-0.02263809
235	0x3d893806	0.06700139
236	0xbccd69fe	-0.025074955
237	0x3b90430c	0.004402524
238	0x3c1461ee	0.009056551
239	0xbd271fa4	-0.04080166
240	0xbb70c598	-0.0036738869
241	0xbd98312e	-0.07431255
242	0xbd641fc5	-0.05569436
243	0xbc90d5b2	-0.017680023
244	0xbd7f6897	-0.062355604
245	0x3c9ec079	0.019378887
246	0x3c2a1b0f	0.010382428
247	0x3ccce58a	0.025011797
248	0xbd85ac28	-0.06526977
249	0xbd3d953c	-0.0462849
250	0x3d1e468c	0.038641497
251	0xbcefcac0	-0.029271483
252	0xbc86cccc	-0.016455077
253	0xbd8cf4b4	-0.06882611
254	0xba169c60	-0.00057453476
255	0xbcb0ee4e	-0.021598008

std.constant5 f4 [128, 128]
0	0x3cac8086	0.021057379
1	0x3cd39862	0.025829498
2	0x3d930cb2	0.07180156
3	0x3c79b1f8	0.015240185
4	0x3c2c71dc	0.010525193
5	0x3cc1be52	0.023650322
6	0xbd43d28b	-0.04780821
7	0x3d2cc47b	0.042179566
8	0xbca43f8b	-0.02004983
9	0x3c379f12	0.011207359
10	0xbcbaebc6	-0.022817504
11	0x3cc6a9b1	0.024250837
12	0xbbc9cd86	-0.0061585335
13	0x3bfa08fd	0.007630466
14	0xbcaf8d30	-0.021429628
15	0x3c2c73ac	0.010525625
16	0x3c17c8ec	0.009264212
17	0xbd157c71	-0.03649563
18	0xbce76b4a	-0.028249402
19	0x3d00ce41	0.0314467
20	0xbd1510b7	-0.036392894
21	0x3c84af08	0.016196743
22	0x3d8a6009	0.067565985
23	0x3b4ea330	0.0031530373
24	0xbc86821c	-0.016419463
25	0xbd8a619d	-0.067568995
26	0x3d0068aa	0.031349815
27	0x3c2b38eb	0.010450582
28	0x3ce8524e	0.028359558
29	0xbd50a47a	-0.050938107
30	0x3bedc28b	0.0072558573
31	0xbe07e161	-0.13269569
32	0xbc4980d1	-0.012298779
33	0xbc073843	-0.00825316
34	0x3e060f18	0.13091695
35	0xbd2ac8bc	-0.04169534
36	0xbcfaf15e	-0.030632671
37	0x3b02b468	0.0019943956
38	0xbba58b19	-0.005051982
39	0x3ce0a64a	0.027423043
40	0x3cb2a597	0.021807475
41	0x3d1c06b4	0.03809233
42	0x3d29f74d	0.04149561
43	0x3cb7778c	0.022395872
44	0x3cca35d2	0.024683867
45	0xbda44ee9	-0.080228634
46	0xbd2ee134	-0.04269524
47	0xbd8415a2	-0.06449439
48	0x3c1dd9be	0.009634433
49	0xbd59138b	-0.052997153
50	0x3dd206f6	0.10255234
51	0xbc9d4f79	-0.019202935
52	0xbd12d74c	-0.035849854
53	0x3b2c7a34	0.0026317956
54	0x3d502cd1	0.05082399
55	0x3d8d8443	0.069099925
56	0x3d8b5bce	0.0680462
57	0xbcf384d9	-0.029726433
58	0xbcbef7d0	-0.023311526
59	0x3d0f7c66	0.035030745
60	0xbd3fb04e	-0.046798997
61	0x3bf6f952	0.0075370455
62	0x3c5634c5	0.013074105
63	0x3cc5ada4	0.02413065
64	0x3b7d4614	0.0038646506
65	0xbbfb3593	-0.0076662987
66	0xbd942544	-0.0723367
67	0x3d476ca4	0.048687592
68	0x3ca83c0c	0.020536445
69	0xbd3c48ec	-0.04596798
70	0x3c1f47f8	0.0097217485
71	0x3d603694	0.05473955
72	0x3d36a896	0.04459437
73	0xbd09df7a	-0.03366039
74	0xbd3def27	-0.04637065
75	0xbc69aa32	-0.014261769
76	0x3c1ef242	0.009701313
77	0x3d4089bf	0.047006365
78	0x3d815d7d	0.063166596
79	0x3c13b6e6	0.009015774
80	0xbd2ad694	-0.041708544
81	0xbcf7b22a	-0.030236322
82	0xbcbd035c	-0.023072891
83	0xbaa3f460	-0.0012508743
84	0xbd58cb94	-0.052928522
85	0xbc8bb04b	-0.017051836
86	0xbd8e34b3	-0.06943645
87	0xbd3de2db	-0.046358924
88	0xbd9cdb42	-0.076590076
89	0xbd27e9b6	-0.04099437
90	0xbd33cb28	-0.043894917
91	0xbcb236cd	-0.021754647
92	0xbcfe209c	-0.031021409
93	0x3b81549f	0.003946855
94	0x3d3a217f	0.0454421
95	0xbc84c24f	-0.016205935
96	0xbce397c0	-0.027782321
97	0xbc5ff69b	-0.013669635
98	0x3c469279	0.012119883
99	0x3d09a39d	0.0336033
100	0x3d379b47	0.04482582
101	0x39b33e60	0.00034188014
102	0xbcf7400c	-0.030181907
103	0x3d517ca2	0.05114425
104	0x3c92bfea	0.017913777
105	0xbd8fce48	-0.07021767
106	0xbd7b0af6	-0.06128975
107	0x3c6e77a4	0.014554892
108	0xbc7f9320	-0.015599042
109	0xbdb08d24	-0.086206704
110	0xbcfda71e	-0.030963477
111	0x3c8498da	0.016186167
112	0x3d29693c	0.041360125
113	0xbd800c71	-0.06252373
114	0xbc7c5ab4	-0.015402485
115	0xbbc4de9c	-0.0060079824
116	0xbd020586	-0.03174355
117	0xbd36d6d8	-0.044638485
118	0xbb6c545e	-0.003606103
119	0x3c811fa1	0.015762152
120	0x3d227ce1	0.039669875
121	0x3cac6596	0.021044534
122	0xbd9f3960	-0.07774615
123	0x3d1f2446	0.038852952
124	0xbc868b4c	-0.016423844
125	0x3d885896	0.066575214
126	0x3d87b553	0.06626382
127	0x3d49210b	0.049103778
128	0xbca29969	-0.019848542
129	0xbd2e5935	-0.042565543
130	0xbbc028de	-0.0058642467
131	0x3b9c3185	0.0047666454
132	0xbc5f9280	-0.013645768
133	0x3c8660b7	0.01640354
134	0x3bb70c84	0.005586209
135	0xbd3b9175	-0.045793016
136	0xbbf305fe	-0.007416486
137	0xbd97079f	-0.073745005
138	0x3dde8107	0.10864454
139	0xbda377e1	-0.079818495
140	0xbd955836	-0.072922155
141	0xbd67e222	-0.05661214
142	0x3d19db28	0.03756252
143	0x3d7ca0f6	0.06167694
144	0xba8937be	-0.0010468883
145	0xbcf50cf8	-0.02991341
146	0x3dd97020	0.10617089
147	0xbdc1b226	-0.09457807
148	0xbce39a01	-0.027783396
149	0x3d9a070e	0.07520877
150	0x3d0d83fa	0.03454969
151	0x3d3e22c6	0.04641988
152	0x3a1b64b8	0.0005927789
153	0xbcb56c00	-0.022146225
154	0x3d5b38a8	0.05352083
155	0xbd8deb78	-0.06929678
156	0x3c5efc01	0.013609887
157	0x3dbd6a5c	0.09248802
158	0xbc2e4972	-0.010637628
159	0x3d02dc08	0.03194812
160	0xbd5f7d88	-0.054563075
161	0xbb3f7d5e	-0.0029219012
162	0xbce6af61	-0.028159799
163	0x3d8f41bc	0.0699496
164	0x3bb4d026	0.0055179773
165	0x3d1eab56	0.038737617
166	0x3c02e396	0.007988831
167	0x3c8364c1	0.016039254
168	0xbbb1d922	-0.0054274956
169	0xbd3e6994	-0.046487406
170	0xbc634620	-0.0138717
171	0xbd13e6ad	-0.03610866
172	0xbc8f85da	-0.01751988
173	0x3c5e95ec	0.013585549
174	0xbc23061a	-0.009950185
175	0x3cfff678	0.031245455
176	0xbd25ffd4	-0.04052718
177	0xbc2198fc	-0.0098631345
178	0xbd227448	-0.039661676
179	0xbd4ede9c	-0.050505266
180	0xbcb14f1c	-0.021644168
181	0x3d8232ae	0.06357323
182	0xbcf5f79a	-0.030025292
183	0x3c00e4ed	0.00786708
184	0xbe0f46f5	-0.13991912
185	0xbcf03cd0	-0.029325873
186	0x3d600e5a	0.054701187
187	0xbcda05f9	-0.026614176
188	0x3c5f540c	0.013630878
189	0x3c95b0f5	0.018272856
190	0x3d90dc33	0.0707325
191	0x3a075460	0.0005162414
192	0xbc8cd5ea	-0.017191846
193	0xbd298f20	-0.04139626
194	0xbcc6c907	-0.02426578
195	0xbbdbc7e6	-0.0067071794
196	0xbd000126	-0.031251095
197	0x3d4e2d3e	0.050336115
198	0x3cbf4aa9	0.02335103
199	0x3c976787	0.018481983
200	0x3d97ccfa	0.07412143
201	0xbb278488	-0.0025561173
202	0x3d0627ce	0.032752804
203	0xbde15921	-0.11003328
204	0x3c0660f2	0.0082018245
205	0x3c39f161	0.011349053
206	0xbc879e56	-0.016554993
207	0xbce2fe2d	-0.027709091
208	0x3d2fd3dc	0.042926654
209	0x3d4cef12	0.050032683
210	0x3ce6f788	0.028194204
211	0x3c41679d	0.0118044885
212	0x3cb1a934	0.021687128
213	0x3cb8d6b2	0.022563312
214	0xbd082756	-0.03324064
215	0xbd858aee	-0.06520639
216	0x3c913d6d	0.017729485
217	0x3b3f630e	0.0029203328
218	0xbc29d9cc	-0.010366868
219	0x3dad1a19	0.08452243
220	0xbc0f4242	-0.008743824
221	0x3d7f38b4	0.062309936
222	0xbb710fc2	-0.0036783074
223	0xbd91f22a	-0.07126267
224	0xbd29d934	-0.041466907
225	0xbb2170f2	-0.002463397
226	0x3bef210f	0.007297642
227	0x3b850218	0.0040590875
228	0x3d8941cf	0.06702005
229	0x3bb85f41	0.0056265895
230	0x3c237bea	0.009978274
231	0xbcd8fa84	-0.026486643
232	0xbd1f3efe	-0.038878433
233	0xbda2c31b	-0.0794737
234	0x3c4631c6	0.012096828
235	0x3baf41d0	0.0053484216
236	0xbcff6f90	-0.031181127
237	0xbd311f5a	-0.04324279
238	0x3b2e93a4	0.0026638294
239	0x3d8efe5e	0.069821104
240	0xbcacfa1e	-0.021115359
241	0xbd5203ae	-0.05127304
242	0x3dbdbfb1	0.09265078
243	0xbd1fd978	-0.039025754
244	0x3c19bb56	0.009383043
245	0xbd13e0dd	-0.03610312
246	0x3d5ad574	0.05342622
247	0x3bfd7f2e	0.0077361083
248	0xbd30608d	-0.043060828
249	0xbd6229ec	-0.05521576
250	0xbb3efa2e	-0.0029140818
251	0xbdd14bf0	-0.10219562
252	0xbbe14ada	-0.006875378
253	0xbc3b79f5	-0.011442651
254	0x3d7eae62	0.062178023
255	0xbd0b4474	-0.03400083

std.constant6 f4 [128, 128]
0	0x3d45c1e0	0.048280597
1	0xbd8c7fe0	-0.06860328
2	0x3cbfd8e4	0.023418851
3	0x3db5f5d9	0.08884782
4	0x3b321100	0.0027170777
5	0x3c7ef44f	0.015561177
6	0xbdb7ee2c	-0.089809746
7	0xbca6e91e	-0.02037483
8	0x3ccfdcca	0.025373835
9	0xbb43ab60	-0.0029856786
10	0x3c4ed414	0.012623806
11	0x3db3d0fd	0.08780096
12	0x3dae8bb6	0.085227415
13	0xbd881c62	-0.066460386
14	0x3c53a87b	0.012918587
15	0xbd5b94fe	-0.053608887
16	0xbd597385	-0.053088684
17	0x3d903894	0.070420414
18	0xbd42e319	-0.04757986
19	0xbc9e2ada	-0.019307543
20	0xbd2107e4	-0.039314166
21	0x3d9582b1	0.07300318
22	0x3d18db0a	0.037318267
23	0xbcd8ee2b	-0.026480755
24	0x3ccd6031	0.025070282
25	0x3b0d95a0	0.0021604076
26	0x3d127bf3	0.03576274
27	0x3d82fa9d	0.06395457
28	0xbd8bf7fc	-0.06834409
29	0xbc2015ff	-0.009770869
30	0x3d373c28	0.044735104
31	0xbc69f6fc	-0.014280077
32	0xbd39c49c	-0.045353517
33	0xbc1ddd9a	-0.009635353
34	0xbd11b786	-0.035575412
35	0x3d904cc6	0.07045893
36	0xbcd0520a	-0.025429744
37	0xbd2ca7e8	-0.042152315
38	0x3d470040	0.048584223
39	0xbbeee798	-0.0072907917
40	0xbcb71927	-0.02235086
41	0x3d48a965	0.048989672
42	0xbd459236	-0.04823514
43	0x3b49c9b2	0.0030790386
44	0x3cb0649c	0.02153235
45	0x3c9ed6ec	0.019389592
46	0xbc6bdea8	-0.014396347
47	0x3c9aa790	0.018878728
48	0x3d94721c	0.07248327
49	0x3ca3283c	0.019916646
50	0xb92d8c80	-0.00016550906
51	0xbd5a9f64	-0.053374663
52	0x3d9d2b42	0.076742664
53	0xbd17bbfc	-0.03704451
54	0xbd549c89	-0.051907096
55	0x3a235030	0.00062299054
56	0x3ca9b7d4	0.020717539
57	0x3d0ea3c4	0.034824148
58	0x3d1e5e19	0.038663957
59	0x3d4d1c6a	0.050075926
60	0xba9f5e34	-0.0012158812
61	0x3d81a9ad	0.06331191
62	0x3d8fcb0b	0.07021149
63	0x3dca5328	0.09879142
64	0xbd739812	-0.059471197
65	0xbca0426d	-0.019562924
66	0x3d02d925	0.031945366
67	0x3c817d2d	0.015806759
68	0xbcc1b0ec	-0.023643933
69	0x3da989a1	0.08278204
70	0x3da876b2	0.08225764
71	0xbd600fb0	-0.05470246
72	0xbdc4a3dc	-0.09601566
73	0x3ba22108	0.0049477853
74	0xbba4ae02	-0.005025626
75	0xbd11a0f4	-0.035553887
76	0xbcb6a6a1	-0.022296252
77	0x3c3526fc	0.011056658
78	0xbd1ac26c	-0.03778307
79	0x3c84564b	0.016154429
80	0xbbf4bfef	-0.0074691693
81	0xba83f560	-0.0010067634
82	0xbd09a179	-0.033601258
83	0x3c318882	0.010835769
84	0x3cfc468d	0.03079536
85	0xbd350ff8	-0.044204682
86	0x3d2189ab	0.03943793
87	0xbd6e3e9b	-0.058165174
88	0xb9c56930	-0.0003765314
89	0xbc91877d	-0.017764801
90	0xbd5f89d2	-0.054574795
91	0x3d70ef58	0.058822006
92	0xbddfcc61	-0.10927654
93	0xbdd55902	-0.104173675
94	0xbc822dc4	-0.015890963
95	0xbd823b2f	-0.063589446
96	0xbd04bb49	-0.03240517
97	0x3dcd7978	0.10032934
98	0x3ce6f2c8	0.028191939
99	0x3dc897ff	0.09794616
100	0x3c348f4c	0.011020493
101	0x3c7ae63d	0.015313682
102	0xbbfe37e8	-0.0077581294
103	0x3d84b43a	0.06479688
104	0xbcaf3c58	-0.021391079
105	0xbc7504b0	-0.014954731
106	0xbd6f9e41	-0.058500532
107	0xbd33c6cf	-0.04389077
108	0x3a2220c0	0.00061846897
109	0x3cde63fb	0.027147284
110	0x3dae9d91	0.08526147
111	0x3d057aac	0.032587692
112	0xbd082f67	-0.03324833
113	0xb9843800	-0.00025218725
114	0xbd2513fb	-0.040302258
115	0xbc806bea	-0.015676457
116	0xbbbe4b7c	-0.0058073383
117	0x3d5eeb82	0.054423817
118	0xbd02ede2	-0.031965144
119	0xbd07038f	-0.032962378
120	0xbcc5b5f2	-0.02413461
121	0xbd80db5c	-0.062918395
122	0xbc05f7d6	-0.0081767645
123	0x3c84459e	0.016146477
124	0x3d2e7a64	0.04259719
125	0x3d381217	0.044939127
126	0xbb7f51c2	-0.0038958644
127	0xbb4ca080	-0.0031223595
128	0x3d145904	0.036217704
129	0x3bf6e100	0.0075341463
130	0xbd8ba97e	-0.068194374
131	0xbb44862a	-0.0029987195
132	0x3d00df9b	0.031463247
133	0x3c6b9b4d	0.014380288
134	0x3d984ea5	0.07436875
135	0x3cf3d470	0.029764384
136	0x3b6a4ca7	0.0035751255
137	0x3d4869b6	0.04892894
138	0x3de473a5	0.1115487
139	0xbc513b66	-0.012770509
140	0xbca40b0f	-0.020024804
141	0xbc06289a	-0.008188391
142	0xbb042bb9	-0.0020167662
143	0xbd64699b	-0.055764776
144	0xbd88d14a	-0.06680544
145	0x3dc3717d	0.095431305
146	0xbd030418	-0.031986326
147	0x3cffd304	0.03122855
148	0xbba1ab59	-0.0049337563
149	0x3c8a2cc5	0.01686705
150	0xbd2545ba	-0.0403497
151	0x3c48b8f9	0.012251132
152	0x3b65b997	0.0035053247
153	0xbc8d84bc	-0.017275207
154	0x3dfa5f26	0.122251794
155	0xbbff8d48	-0.0077988245
156	0x3d1a06b9	0.037604067
157	0xbda5202b	-0.08062776
158	0xbca0b59c	-0.019617848
159	0xbd277348	-0.040881425
160	0xbc94dbc6	-0.018171202
161	0xbcb2a787	-0.021808399
162	0xbd5de295	-0.054171164
163	0xbc9fb287	-0.019494308
164	0xbc82caa1	-0.015965762
165	0xbd37b667	-0.044851687
166	0xbd607510	-0.05479914
167	0x3c4ddbb9	0.012564593
168	0x3da663d9	0.08124513
169	0xbce4e7e6	-0.027942609
170	0xbd0fb83f	-0.03508782
171	0x3d3ac375	0.04559656
172	0x3d803da0	0.06261754
173	0xbd482edb	-0.04887281
174	0xbc97536b	-0.018472394
175	0xbb76fd7e	-0.0037687714
176	0x3b1947c6	0.0023388728
177	0xbd1f0fbb	-0.03883336
178	0xbc86d07b	-0.016456833
179	0xbd2a7591	-0.041616026
180	0xbcfb70d0	-0.030693442
181	0xbcd7f0b9	-0.026359903
182	0x3ca64667	0.020297242
183	0xbc1840b7	-0.009292773
184	0xb9c1f492	-0.00036994048
185	0xbca56b47	-0.020192755
186	0xbd0dc673	-0.034613084
187	0xbb14e494	-0.002271925
188	0x3ca9017d	0.020630592
189	0x3d6dc356	0.058047615
190	0x3ca84a65	0.020543287
191	0x3dc51586	0.09623246
192	0x3b689eb0	0.0035494976
193	0xbd11de1c	-0.03561221
194	0x3ad5a56b	0.0016299909
195	0xbc3711b3	-0.011173653
196	0xbd4b41d6	-0.049623333
197	0xbc38e7bd	-0.011285719
198	0xbd9698b9	-0.07353348
199	0x3c6d8f3a	0.01449948
200	0xbda7b934	-0.081896216
201	0x3d64ae6e	0.05583041
202	0x3d0604af	0.03271931
203	0x3bc8f8c4	0.006133171
204	0x3c05dd5a	0.00817045
205	0xbbaec56f	-0.0053335945
206	0x3cca397e	0.024685618
207	0xbd64ea34	-0.055887416
208	0xbd4efb6b	-0.05053274
209	0x3c42e66e	0.011895759
210	0x3d74b192	0.059739657
211	0xbc03344c	-0.008008074
212	0x3cf6b102	0.0301137
213	0x3b721040	0.0036935955
214	0x3d87a56f	0.06623351
215	0x3c83429b	0.01602297
216	0x3bbe1dff	0.0058019157
217	0xbd5bfadf	-0.053706046
218	0x3d5cf121	0.053940896
219	0x3d3d6638	0.04624006
220	0x3d539596	0.05165633
221	0x3c9094ad	0.01764902
222	0x3d62436c	0.05524008
223	0xbbee4e1a	-0.007272494
224	0x3d0ec5ad	0.034856487
225	0x3ccb88d4	0.024845518
226	0x3d3337ee	0.04375451
227	0xbd850482	-0.064950004
228	0x3ca2c99c	0.019871525
229	0xbd67cc08	-0.056591064
230	0xbd8c93c8	-0.068641245
231	0x3d6c065a	0.057623245
232	0x3d650845	0.05591609
233	0x3d3b5d6f	0.045743402
234	0x3b7d4f4e	0.0038652006
235	0xbd51de18	-0.051237196
236	0xbc4cec74	-0.012507547
237	0x3d5c49e5	0.05378141
238	0x3cb76156	0.02238528
239	0x3d032586	0.032018207
240	0xbd01fba6	-0.03173413
241	0xbc9f7d8d	-0.019469047
242	0xbc08f809	-0.008359917
243	0xbd33c861	-0.043892268
244	0x3d843fda	0.06457491
245	0x3d3b4965	0.04572429
246	0xbd252d82	-0.040326603
247	0xbbb3c9de	-0.005486711
248	0x3c3bfcef	0.011473878
249	0xb91faae0	-0.00015227078
250	0xbd19766d	-0.037466455
251	0x3da56685	0.08076195
252	0xbd198fd5	-0.037490685
253	0x3c84b1c7	0.016198052
254	0xbd9ea760	-0.07746768
255	0x3db526bf	0.08845281

std.constant7 f4 [128]
0	0xb7a7c8a6	-2.0001386e-05
1	0x3dff053f	0.124521725
2	0xbc1e84c9	-0.009675213
3	0xbc1a0279	-0.009400004
4	0xbc8de79f	-0.01732236
5	0x3c6169b9	0.013758116
6	0x3d2a7540	0.041615725
7	0x3cf4a4cc	0.029863738
8	0x3c37f2f7	0.011227361
9	0xb9503a59	-0.00019858162
10	0x3bcfc26c	0.0063403156
11	0xbbebcd47	-0.007196102
12	0x3da934f6	0.082620546
13	0x3d9ee0f1	0.07757748
14	0x3d1fe270	0.039034307
15	0x3c4cc045	0.0124970125
16	0x3c984f58	0.018592522
17	0x3b23b219	0.002497798
18	0xbbbc32bc	-0.0057433527
19	0xb9096f3a	-0.00013106773
20	0xbc3580c4	-0.011078063
21	0x3bded511	0.006800302
22	0x3cd017b0	0.02540192
23	0xbc0c982a	-0.008581201
24	0x3da632e7	0.081151776
25	0x3bd69656	0.006548683
26	0xbc2144d8	-0.009843074
27	0x3c968c57	0.018377466
28	0xbc22a0f8	-0.009926073
29	0xbc3e5d88	-0.011618979
30	0x3da9fa22	0.08299662
31	0xbc5e96ab	-0.013585727
32	0x3d40216d	0.046906877
33	0x3ca1a222	0.019730631
34	0xbb8baa65	-0.004262256
35	0x3c41069b	0.01178136
36	0x3e1c47fc	0.15261835
37	0x3c14d101	0.009083034
38	0x3bd1a177	0.006397422
39	0x3de6313b	0.11239859
40	0x3db3d3b8	0.087806165
41	0x3a1c0392	0.000595146
42	0x3ba1da07	0.004939321
43	0xbc1d9357	-0.009617648
44	0xbc29cd9c	-0.0103639625
45	0x3b9d1f86	0.0047950177
46	0x3de94840	0.11390734
47	0xbc4d79a3	-0.0125412075
48	0x3d62b000	0.055343628
49	0x3c0a237a	0.00843131
50	0xbba94c37	-0.005166556
51	0x3d78ef01	0.060774807
52	0x3c9fda0e	0.019513156
53	0x3ca21fe2	0.019790594
54	0x3c195c50	0.009360388
55	0x3c144135	0.00904875
56	0xbabd1a96	-0.0014427479
57	0x3ba4d62a	0.005030413
58	0x3d0c567e	0.034262173
59	0x3c14fa4f	0.009092881
60	0xbc5e522a	-0.013569394
61	0xbc9284ff	-0.017885683
62	0xbc80bb7a	-0.015714396
63	0x3cb250f3	0.021767115
64	0x3bcb13d8	0.006197434
65	0xbc9ddf27	-0.019271446
66	0xbc3bd9c5	-0.0114654945
67	0x3bc1449d	0.005898072
68	0x3c2b5c70	0.010459051
69	0x3d8915f5	0.06693641
70	0xbcbff5ec	-0.023432694
71	0x3bfceee1	0.0077189063
72	0xbc869051	-0.016426237
73	0xbb8458db	-0.0040389127
74	0x3d96827b	0.07349106
75	0x3bb3ec43	0.005490811
76	0x3cfaff6a	0.030639369
77	0x3b624c57	0.0034530365
78	0xbbc9fa1f	-0.00616385
79	0x3d701ae3	0.05861939
80	0x3bc655f6	0.006052728
81	0x3bbec69f	0.0058220173
82	0xbcaddfdc	-0.021224909
83	0x3d54c7d7	0.051948395
84	0x3c06ef5e	0.0082357805
85	0x3be01c4a	0.00683931
86	0x3bb96002	0.005657197
87	0xbc523beb	-0.012831668
88	0x3d15fbe2	0.036617167
89	0xbc961577	-0.018320782
90	0x3d4b9fe6	0.049713038
91	0x3c2d94df	0.010594576
92	0x3c2b8867	0.010469533
93	0xba199a1b	-0.00058594503
94	0xbcb2d5ff	-0.021830557
95	0xbbafd1eb	-0.0053656003
96	0x3c3ed3ad	0.011647147
97	0xbb8c4ac1	-0.0042813723
98	0x3deaf311	0.114721425
99	0x3db1fafe	0.08690451
100	0xbc0bb920	-0.008528024
101	0x3c90edec	0.017691575
102	0x3d782a91	0.06058747
103	0x3d8434f1	0.0645541
104	0x3c9efdb6	0.019408088
105	0xbb3142b4	-0.0027047815
106	0xbc4c1127	-0.012455261
107	0x3cff15e0	0.03113836
108	0xbc67cb7a	-0.014147634
109	0xbc3c8e05	-0.0115084695
110	0x3d0e4838	0.034736842
111	0x3e0572a8	0.13032019
112	0x3c777c59	0.01510533
113	0xbba0f718	-0.0049122684
114	0x39e22098	0.00043130363
115	0x3e084dd7	0.13310944
116	0x3d02980c	0.031883284
117	0xbb16b1ec	-0.0022994233
118	0xbbe1dc6f	-0.006892733
119	0xba6d19b4	-0.00090446626
120	0xbc45eaca	-0.012079904
121	0x3c608198	0.013702773
122	0x3c6808f2	0.014162289
123	0x3b70d91b	0.0036750499
124	0xba3d5a30	-0.0007223217
125	0x3dd4deea	0.1039408
126	0xbba2f917	-0.0049735415
127	0xb921da84	-0.0001543556

std.constant8 f4 [128]
0	0x3b9ca9a7	0.0047809663
1	0xbb6f6cd8	-0.0036533382
2	0xbc035c9f	-0.008017688
3	0x3bbfa807	0.005848888
4	0xbb1499a1	-0.0022674578
5	0x37f911fa	2.9691484e-05
6	0x3c0ecfd1	0.0087165395
7	0xbc29034d	-0.010315728
8	0xba193922	-0.0005845
9	0x3ad59f36	0.0016298059
10	0xbb9a5df5	-0.0047109076
11	0x3c28ac1c	0.01029494
12	0x3ca6e5b5	0.020373205
13	0xbc885403	-0.016641622
14	0xba42120a	-0.0007403201
15	0xba0b4e97	-0.000531414
16	0xbb4515b7	-0.0030072758
17	0xbb304f20	-0.002690263
18	0x3a67aaab	0.0008837382
19	0xbc9d9dd1	-0.019240292
20	0x3c3efcb6	0.011656931
21	0x3bc442fe	0.0059894314
22	0xbc90fea4	-0.017699547
23	0x3c252958	0.010080658
24	0x3be4d70f	0.006983645
25	0xbbe1a58a	-0.006886189
26	0x3c4bd898	0.012441777
27	0xbaca7f3d	-0.0015449297
28	0x3c4d5a56	0.012533745
29	0xbb3b8450	-0.00286128
30	0xbc8ffe71	-0.017577382
31	0xbc61a239	-0.013771587
32	0x3ad93fbc	0.001657478
33	0xba50ac60	-0.0007960256
34	0x3ca40819	0.020023393
35	0xbb5d096a	-0.0033727535
36	0xbb279be7	-0.0025575103
37	0xbb81fe00	-0.0039670467
38	0xbc66ab15	-0.014078875
39	0xbc23471c	-0.009965684
40	0x3b19ac1a	0.0023448528
41	0xbc00613a	-0.007835681
42	0xbb12d94d	-0.0022407353
43	0xbbef12da	-0.0072959485
44	0x3c873bba	0.016507972
45	0xba8e2aeb	-0.0010846531
46	0xbc55ee22	-0.013057264
47	0xbc84a12c	-0.016190134
48	0xbab34193	-0.0013676159
49	0x3b605df9	0.00342357
50	0xba9fb0c2	-0.0012183415
51	0x3c98ced8	0.018653318
52	0x3b486e17	0.0030583197
53	0x3ab90548	0.0014115954
54	0xbbc001d4	-0.005859593
55	0x3b821dd3	0.0039708405
56	0xbbab1fec	-0.0052223112
57	0x3a80cd78	0.000982686
58	0x3b7d8d45	0.003868894
59	0xbb5b4f58	-0.003346404
60	0xbc9e434a	-0.019319195
61	0x3c948f86	0.018134844
62	0xbc8381eb	-0.01605316
63	0x3bf14651	0.0073631187
64	0xbc397ff8	-0.011322014
65	0xbc7aa7b0	-0.015298769
66	0xbc90f5b9	-0.017695295
67	0x3c21f6d2	0.009885507
68	0xbc90617e	-0.017624613
69	0x3cb766e0	0.022387922
70	0xbc33f241	-0.010983051
71	0x39a6ab57	0.00031789645
72	0xbc62dd2e	-0.013846679
73	0xba2049dd	-0.0006114522
74	0xbb5f9aee	-0.0034119445
75	0xbb0f63ca	-0.0021879547
76	0x3caacd9b	0.020849993
77	0xbc36a019	-0.011146569
78	0xbb8a4177	-0.00421923
79	0xbc9e5c61	-0.01933116
80	0xbc7ca1bb	-0.015419419
81	0xbb061eac	-0.002046506
82	0xbc8a2496	-0.016863149
83	0x3b2bff4d	0.00262447
84	0xbc18c8ab	-0.009325187
85	0xbb482f64	-0.0030545825
86	0xbb4bafe1	-0.0031080174
87	0xbc7793b5	-0.0151109
88	0xbb6e0153	-0.0036316707
89	0xbc98df7c	-0.018661253
90	0xbb2517b1	-0.0025191123
91	0xbcb9a39f	-0.022661028
92	0xbb94484c	-0.00452522
93	0x3c3f1f9f	0.011665254
94	0xbc8bd8c9	-0.017071145
95	0xbc8858c4	-0.01664389
96	0x3b836483	0.0040097847
97	0x3b181abf	0.0023209301
98	0x3b8a106e	0.0042133844
99	0xbb19573b	-0.002339794
100	0x3cb1189a	0.021618176
101	0xbcaabbab	-0.02084144
102	0xbc39f274	-0.011349309
103	0xba832998	-0.0010006903
104	0x39851bfc	0.00025388587
105	0xbb55a771	-0.0032601024
106	0x3c5c66db	0.013452257
107	0xbad81629	-0.0016486096
108	0x3c7c9478	0.015416257
109	0x3c8a703a	0.016899217
110	0x3a2a6bc6	0.0006501045
111	0x3c9b9a49	0.018994467
112	0xbabf5be6	-0.0014599531
113	0xbbd802c3	-0.006592126
114	0x3a375bf4	0.0006994598
115	0x3bed7d6a	0.0072476165
116	0xbab3821b	-0.0013695391
117	0x3b095485	0.0020954919
118	0x3c7ada4c	0.015310835
119	0xbb96667b	-0.0045898533
120	0xbc4daa23	-0.012552771
121	0xbb2793fa	-0.0025570379
122	0xbac16ff4	-0.0014758096
123	0xbbb3ef3a	-0.0054911645
124	0xbb88e231	-0.0041773547
125	0xbb13da9a	-0.0022560717
126	0xbb9571e5	-0.0045606964
127	0xba79ae0b	-0.00095245306

std.constant9 f4 [128]
0	0x3f800000	1.0
1	0x3f800000	1.0
2	0x3f800000	1.0
3	0x3f800000	1.0
4	0x3f800000	1.0
5	0x3f800000	1.0
6	0x3f800000	1.0
7	0x3f800000	1.0
8	0x3f800000	1.0
9	0x3f800000	1.0
10	0x3f800000	1.0
11	0x3f800000	1.0
12	0x3f800000	1.0
13	0x3f800000	1.0
14	0x3f800000	1.0
15	0x3f800000	1.0
16	0x3f800000	1.0
17	0x3f800000	1.0
18	0x3f800000	1.0
19	0x3f800000	1.0
20	0x3f800000	1.0
21	0x3f800000	1.0
22	0x3f800000	1.0
23	0x3f800000	1.0
24	0x3f800000	1.0
25	0x3f800000	1.0
26	0x3f800000	1.0
27	0x3f800000	1.0
28	0x3f800000	1.0
29	0x3f800000	1.0
30	0x3f800000	1.0
31	0x3f800000	1.0
32	0x3f800000	1.0
33	0x3f800000	1.0
34	0x3f800000	1.0
35	0x3f800000	1.0
36	0x3f800000	1.0
37	0x3f800000	1.0
38	0x3f800000	1.0
39	0x3f800000	1.0
40	0x3f800000	1.0
41	0x3f800000	1.0
42	0x3f800000	1.0
43	0x3f800000	1.0
44	0x3f800000	1.0
45	0x3f800000	1.0
46	0x3f800000	1.0
47	0x3f800000	1.0
48	0x3f800000	1.0
49	0x3f800000	1.0
50	0x3f800000	1.0
51	0x3f800000	1.0
52	0x3f800000	1.0
53	0x3f800000	1.0
54	0x3f800000	1.0
55	0x3f800000	1.0
56	0x3f800000	1.0
57	0x3f800000	1.0
58	0x3f800000	1.0
59	0x3f800000	1.0
60	0x3f800000	1.0
61	0x3f800000	1.0
62	0x3f800000	1.0
63	0x3f800000	1.0
64	0x3f800000	1.0
65	0x3f800000	1.0
66	0x3f800000	1.0
67	0x3f800000	1.0
68	0x3f800000	1.0
69	0x3f800000	1.0
70	0x3f800000	1.0
71	0x3f800000	1.0
72	0x3f800000	1.0
73	0x3f800000	1.0
74	0x3f800000	1.0
75	0x3f800000	1.0
76	0x3f800000	1.0
77	0x3f800000	1.0
78	0x3f800000	1.0
79	0x3f800000	1.0
80	0x3f800000	1.0
81	0x3f800000	1.0
82	0x3f800000	1.0
83	0x3f800000	1.0
84	0x3f800000	1.0
85	0x3f800000	1.0
86	0x3f800000	1.0
87	0x3f800000	1.0
88	0x3f800000	1.0
89	0x3f800000	1.0
90	0x3f800000	1.0
91	0x3f800000	1.0
92	0x3f800000	1.0
93	0x3f800000	1.0
94	0x3f800000	1.0
95	0x3f800000	1.0
96	0x3f800000	1.0
97	0x3f800000	1.0
98	0x3f800000	1.0
99	0x3f800000	1.0
100	0x3f800000	1.0
101	0x3f800000	1.0
102	0x3f800000	1.0
103	0x3f800000	1.0
104	0x3f800000	1.0
105	0x3f800000	1.0
106	0x3f800000	1.0
107	0x3f800000	1.0
108	0x3f800000	1.0
109	0x3f800000	1.0
110	0x3f800000	1.0
111	0x3f800000	1.0
112	0x3f800000	1.0
113	0x3f800000	1.0
114	0x3f800000	1.0
115	0x3f800000	1.0
116	0x3f800000	1.0
117	0x3f800000	1.0
118	0x3f800000	1.0
119	0x3f800000	1.0
120	0x3f800000	1.0
121	0x3f800000	1.0
122	0x3f800000	1.0
123	0x3f800000	1.0
124	0x3f800000	1.0
125	0x3f800000	1.0
126	0x3f800000	1.0
127	0x3f800000	1.0

std.constant10 f4 [128]
0	0x3a83bcad	0.0010050737
1	0x3e043fa2	0.12914899
2	0xbc3a40d1	-0.0113679925
3	0xbc12508c	-0.008930337
4	0xbc910a3f	-0.017705081
5	0x3c5b70b8	0.013393573
6	0x3d187494	0.037220553
7	0x3ced1a31	0.028943153
8	0x3c466b03	0.0121104745
9	0x3626f8b0	2.4880683e-06
10	0x3bfbfb86	0.007689896
11	0xbbe1c8e0	-0.0068904012
12	0x3da33b75	0.07970325
13	0x3d9f9b17	0.07793253
14	0x3d22418f	0.039613303
15	0x3c639049	0.013889381
16	0x3ca0b82b	0.019619068
17	0x3b0e60db	0.002172521
18	0xbbcee50d	-0.006313926
19	0xb95e2559	-0.00021185483
20	0xbc35b43f	-0.011090337
21	0x3bded9e3	0.0068008765
22	0x3cd9d833	0.02659235
23	0xbc1d73bc	-0.009610113
24	0x3d9c101e	0.076202616
25	0x3be7a16f	0.007068805
26	0xbc20bc3f	-0.009810506
27	0x3c8753b9	0.016519414
28	0xbc203c61	-0.00978002
29	0xbc3d5645	-0.011556213
30	0x3da88481	0.08228398
31	0xbc58866d	-0.013215643
32	0x3d36cdb7	0.04462978
33	0x3c9eb39b	0.019372752
34	0xbb816fd6	-0.0039500995
35	0x3c3c9295	0.011509557
36	0x3e1ac122	0.15112737
37	0x3c624be8	0.013812043
38	0x3bc10d41	0.0058914726
39	0x3de7898e	0.11305533
40	0x3daf7529	0.085672684
41	0x3aaeafad	0.0013327502
42	0x3bc39ec0	0.005969852
43	0xbc19941c	-0.009373691
44	0xbc1e4f80	-0.009662509
45	0x3bb05c2e	0.0053820824
46	0x3de9a622	0.114086404
47	0xbc4cecdc	-0.012507644
48	0x3d65a0a3	0.0560614
49	0x3bf4081a	0.007447255
50	0xbba008e9	-0.0048838747
51	0x3d8032d4	0.06259695
52	0x3ca987c8	0.020694628
53	0x3c94fa69	0.018185811
54	0x3c0205f8	0.007935993
55	0x3c2a88cf	0.010408594
56	0xba87aeb9	-0.0010351754
57	0x3ba6afc5	0.0050868713
58	0x3d0b1f3d	0.033965338
59	0x3bfc19fc	0.0076935273
60	0xbc59a531	-0.013284014
61	0xbc90c284	-0.017670877
62	0xbc811a9e	-0.015759762
63	0x3ca663de	0.020311292
64	0x3bb95c10	0.0056567267
65	0xbc9df80c	-0.019283317
66	0xbc3b6e17	-0.011439822
67	0x3bd02326	0.0063518463
68	0x3c2c6d95	0.010524173
69	0x3d816f13	0.06320014
70	0xbcbfba53	-0.023404276
71	0x3bfd5b49	0.0077318293
72	0xbc85c853	-0.016330874
73	0xbb38b68b	-0.0028184976
74	0x3d982f72	0.074309245
75	0x3ba13f6d	0.004920891
76	0x3d00fea2	0.031492837
77	0x3b6f05a3	0.0036471866
78	0xbbb5cac4	-0.005547853
79	0x3d75be28	0.0599958
80	0x3bb2bd32	0.0054546827
81	0x3bb6d5f5	0.005579705
82	0xbcaedadf	-0.0213446
83	0x3d563a94	0.05230196
84	0x3bd99def	0.0066411416
85	0x3c01bd15	0.007918616
86	0x3bb2d016	0.0054569347
87	0xbc518bc7	-0.012789673
88	0x3d15527e	0.036455624
89	0xbc96ea6c	-0.018422328
90	0x3d5e5e01	0.054288868
91	0x3c2cb66e	0.0105415415
92	0x3c3485ea	0.011018256
93	0xb9cd675f	-0.00039177664
94	0xbcaf8232	-0.021424387
95	0xbbaf6b6a	-0.005353381
96	0x3c2f72ea	0.01070855
97	0xbb8c4bbd	-0.0042814896
98	0x3df1b67c	0.11802384
99	0x3db09e91	0.08623994
100	0xbc1642dd	-0.009171215
101	0x3c9060e3	0.017624324
102	0x3d76c468	0.0602459
103	0x3d808529	0.06275398
104	0x3c98d8d9	0.018658089
105	0xbb98c334	-0.004661942
106	0xbc4c5e6d	-0.012473685
107	0x3d04952f	0.032368835
108	0xbc73007b	-0.0148316575
109	0xbc3d869a	-0.011567736
110	0x3d024276	0.031801663
111	0x3e04445e	0.12916705
112	0x3c736656	0.014855942
113	0xbb7b6e2d	-0.003836523
114	0x397377de	0.0002321894
115	0x3e067114	0.13129073
116	0x3d029ac2	0.03188587
117	0xbb4dd009	-0.0031404516
118	0xbbe2be5f	-0.0069196667
119	0xba77b05f	-0.00094485836
120	0xbc427ca5	-0.011870538
121	0x3c4fcb39	0.012682729
122	0x3c5c2f51	0.0134390155
123	0x3b238caf	0.002495568
124	0x39b62966	0.0003474459
125	0x3dd8062c	0.10548052
126	0xbb8643a6	-0.00409742
127	0x39f098d1	0.00045890224

std.constant11 f4 [128, 9]
0	0x3e2f9f04	0.17150503
1	0xbd1018f2	-0.03518004
2	0x3dd606ab	0.104504906
3	0x3c237a78	0.009977929
4	0x3c8351b3	0.016030168
5	0x3d857b52	0.06517662
6	0x3d9b43aa	0.07581265
7	0x3b9f831c	0.0048679244
8	0xbd89a62c	-0.06721148
9	0x3e60631b	0.21912806
10	0x3dec6569	0.1154278
11	0x3e201caf	0.15635942
12	0x3cc186db	0.023623874
13	0x3db31aac	0.08745322
14	0x3e64cdf4	0.2234419
15	0x3df1ee1b	0.11812993
16	0xbb2635be	-0.0025361623
17	0x3d89baa6	0.067250535
18	0x3d8a90db	0.0676591
19	0x3da7c6c8	0.081922114
20	0x3d1f13c3	0.038837206
21	0x3d937982	0.0720091
22	0x3c944ac8	0.018102065
23	0xbd6bbcb1	-0.057552997
24	0xbd14a056	-0.03628572
25	0x3cab967d	0.020945782
26	0xbd830615	-0.063976444
27	0xbdafbcf3	-0.08580961
28	0xbdc8c2ad	-0.098027565
29	0x3da6d30d	0.081457235
30	0xbd69ebc1	-0.057109598
31	0xbda54b05	-0.080709495
32	0x3dc6d500	0.09708595
33	0x3d488f5c	0.048964843
34	0x3ca00253	0.019532358
35	0x3c3637b9	0.011121684
36	0xbbc07ac8	-0.0058740117
37	0xbcf6d448	-0.03013052
38	0xbd84d4d3	-0.064859055
39	0x3cc5162b	0.024058422
40	0xbcf6a9d3	-0.030110275
41	0x3d3e192a	0.046410717
42	0xbdb2b56d	-0.087260105
43	0xbda9cb69	-0.082907505
44	0x3ce37ffe	0.027770992
45	0x3dd2eb20	0.10298753
46	0xbd3e07b4	-0.046394065
47	0x3d7d38d1	0.061821762
48	0xbc68d9c8	-0.014212079
49	0xbd999fba	-0.075011685
50	0xbd82e296	-0.06390874
51	0x3d1d9dce	0.038480572
52	0x3d2fbdff	0.042905804
53	0xbde10b61	-0.109884985
54	0xbc1aa3ec	-0.009438496
55	0x3dafa36d	0.08576093
56	0x3d2d2228	0.042268902
57	0x3de61bad	0.112357475
58	0xbc8a3e0b	-0.016875288
59	0x3c2776b0	0.010221168
60	0xbd1c375c	-0.038138732
61	0x3d1fefc7	0.03904703
62	0xbe02340c	-0.12715167
63	0xbc9d3d7e	-0.01919436
64	0xbb829639	-0.003985193
65	0x3e01d8ae	0.12680313
66	0x3d34e9c4	0.04416825
67	0x3d3da9fd	0.04630469
68	0x3d9741e0	0.073856115
69	0x3e0ac29e	0.13550803
70	0x3d8ffe1e	0.07030891
71	0x3d08321f	0.033250924
72	0x3e4450b7	0.19171415
73	0x3d9793cb	0.07401236
74	0x3d4dc8a6	0.05024018
75	0x3dd41d26	0.10357122
76	0x3d611a85	0.05495693
77	0x3d85bff7	0.06530755
78	0xbd4015c4	-0.046895757
79	0x3d909de1	0.07061363
80	0x3d2193e8	0.039447695
81	0x3dd0d9c3	0.10197785
82	0xbd8fc43e	-0.07019852
83	0x3ded39ec	0.11583313
84	0x3c781f9d	0.015144256
85	0x3d477085	0.04869129
86	0xbc71bd2c	-0.014754575
87	0x3de92ae7	0.11385136
88	0x3dd186a3	0.10230758
89	0x3d5f2874	0.05448194
90	0x3d4f7cd3	0.05065615
91	0x3ccb78e6	0.024837922
92	0x3d8976df	0.06712126
93	0xbdacfa28	-0.08446151
94	0x3d15e610	0.036596358
95	0xbda25dcb	-0.07928046
96	0x3d2cc96f	0.04218429
97	0x3a420196	0.0007400749
98	0xbdafe5e4	-0.0858877
99	0xbdd1c28d	-0.10242186
100	0x3d89dcf2	0.06731595
101	0xbda6f4dd	-0.08152173
102	0xbcceda2a	-0.025250513
103	0xbbe90b91	-0.0071119745
104	0xbd8706d5	-0.065931
105	0x3d456159	0.04818854
106	0xbc2549ff	-0.010088443
107	0xbdc52de6	-0.09627895
108	0xbd0a7339	-0.03380129
109	0x3d8d1b4b	0.06889971
110	0x3e14b00d	0.14520283
111	0x3e277ab5	0.16355403
112	0x3e3801a0	0.1796937
113	0x3df20b0c	0.11818513
114	0x3dd0261c	0.10163519
115	0x3e1b1bff	0.15147398
116	0x3da8306e	0.08212362
117	0x3e51306f	0.20428632
118	0x3da40020	0.08007836
119	0xbcfb2a03	-0.030659681
120	0xbd04430d	-0.032290507
121	0x3c0cbaa3	0.00858942
122	0x3dae4015	0.085083164
123	0x3ce96c47	0.028494013
124	0x3d219220	0.039445996
125	0x3d50cd03	0.050976764
126	0x3d925e1e	0.07146858
127	0xbc4e3829	-0.012586632
128	0xbd223c19	-0.039608095
129	0xbd1b1b93	-0.037868094
130	0x3ccbbd05	0.024870405
131	0x3e0972da	0.13422719
132	0x3e0c7d7c	0.13719743
133	0xbd6645a5	-0.056218762
134	0xbd83dabc	-0.06438205
135	0x3e47755c	0.19478363
136	0xbdc6f5e9	-0.097148724
137	0x3c05f032	0.008174943
138	0xb9c7de5a	-0.00038121903
139	0xbdf83fd2	-0.12121548
140	0xbd376b34	-0.04477997
141	0x3d3a7d7f	0.04552984
142	0xbcd3c792	-0.025851998
143	0xbd28d452	-0.04121811
144	0x3e048eab	0.12945049
145	0xbd5137fd	-0.051078785
146	0x3d5487b3	0.051887225
147	0x3b7d7b67	0.003867829
148	0xbdf53e5b	-0.11974784
149	0x3cad1eef	0.021132914
150	0x3e0b814a	0.13623539
151	0x3c3c156c	0.011479717
152	0xbe2f56cc	-0.17122954
153	0x3e0017a4	0.12509018
154	0x3d211c38	0.039333552
155	0xbcfb41e5	-0.03067107
156	0x3d7cd09d	0.061722387
157	0x3cd81e15	0.026381532
158	0x3c9987ef	0.018741576
159	0x3c293b54	0.010329086
160	0x3d866bd7	0.065635376
161	0xbd835cb4	-0.06414166
162	0xbd08f672	-0.033438154
163	0x3d84c55f	0.06482958
164	0x3c88a882	0.016681913
165	0xbd89116f	-0.06692778
166	0xbc666a62	-0.01406345
167	0x3d8efb7a	0.06981559
168	0x3db2804d	0.08715878
169	0x3da6cbfc	0.08144376
170	0x3d08060f	0.033208903
171	0x3d7ea4b7	0.062168803
172	0x3d8abd1f	0.06774353
173	0xbdb1f266	-0.08688812
174	0xbd5087cd	-0.05091076
175	0x3de6ca53	0.11269059
176	0x3ccc1d3a	0.02491628
177	0xbcbc49f0	-0.022984475
178	0xbd80517a	-0.062655404
179	0x3c79b65b	0.015241231
180	0x3bfbb04a	0.0076809274
181	0x3d4a685c	0.04941593
182	0x3ca0319c	0.019554906
183	0x3b8fcb74	0.004388267
184	0xbd1fdf2c	-0.039031193
185	0x3d868ac8	0.06569439
186	0x3dae4e21	0.08510996
187	0x3cb70afb	0.022344103
188	0x3b1c5b13	0.0023857995
189	0x3da147f6	0.078750536
190	0x3d6b6d4c	0.05747728
191	0x3de9aaf9	0.114095636
192	0xbdb77a39	-0.08958859
193	0xbd53f1c2	-0.05174423
194	0xbd9bca89	-0.0760699
195	0xbd1c480e	-0.038154654
196	0xbda8e61c	-0.08247015
197	0xbd838278	-0.06421369
198	0xbdbe10eb	-0.092805706
199	0xbd4b7af5	-0.049677808
200	0x3de72a6f	0.112873904
201	0xbc98aea1	-0.018637957
202	0x3cb0ef3c	0.02159845
203	0x3e07fd41	0.13280202
204	0x3de29128	0.110628426
205	0x3dc56fe0	0.09640479
206	0xbda859aa	-0.08220227
207	0xbcd5d69c	-0.02610331
208	0xbde06954	-0.1095759
209	0x3cb3de6d	0.021956647
210	0xba9f2014	-0.0012140297
211	0x3c22549f	0.009907871
212	0x3c985319	0.018594312
213	0xbc742882	-0.014902236
214	0xbd88586b	-0.066574894
215	0xbd87d1c0	-0.066318035
216	0x3d9e34ee	0.07724939
217	0x3e24265e	0.16030261
218	0x3d988f9d	0.07449267
219	0x3db68708	0.08912474
220	0xbcdba64c	-0.026812695
221	0x3e00535e	0.12531802
222	0x3d308330	0.04309386
223	0x3d8b85f1	0.06812657
224	0xbdabd88a	-0.08390911
225	0x3e0fcf04	0.14043814
226	0xbd8cee46	-0.068813846
227	0x3dab6eac	0.08370718
228	0xbd94519c	-0.07242128
229	0xbdb88c2e	-0.09011112
230	0xbc25cbaf	-0.010119363
231	0xbd464b70	-0.048411787
232	0x3cce0e9c	0.02515345
233	0xbd3cf710	-0.046134055
234	0xbd19f605	-0.037588138
235	0x3cc07fe4	0.023498483
236	0xbdefcd5a	-0.117090896
237	0x3c9e75a0	0.019343197
238	0x3c74012c	0.0148928575
239	0xbc4ed8a6	-0.012624895
240	0x39fd38ef	0.0004829834
241	0x3d067eb1	0.032835666
242	0xbbfc4039	-0.0076980856
243	0x3ccc0f1d	0.02490955
244	0x3dd35dd7	0.10320633
245	0x3c23d428	0.009999312
246	0x3d73a784	0.059485927
247	0x3d94f129	0.0727256
248	0x3cd6c5db	0.026217392
249	0xbd032254	-0.03201516
250	0x3db6d81b	0.089279376
251	0xbc705ce8	-0.014670588
252	0xbd3b3045	-0.04570033
253	0xbd0b806f	-0.03405803
254	0x3d99dbc4	0.0751262
255	0x3cb12900	0.021625996
