AirQualityApp/AirQualityApp.Android/Assets/MilanLong.tflite (tflite, 810852 bytes, 24 tensors)

std.constant3 f4 [128, 128]
0.022154216 0.00516805 -0.008655157 -0.021149939 -0.009602249 -0.0015916042 0.035034984 0.035952244
0.11478514 -0.05337002 -0.039443552 0.035919137 -0.027949955 -0.043376252 0.017130466 0.028784953
-0.05073044 -0.039980195 0.00487021 -0.003924916 -0.001801936 -0.10498242 -0.0031770442 0.07919722
0.008075765 0.037162915 0.015017193 -0.062872894 0.018398743 0.021513842 -0.021683618 -0.029901762
-0.026013663 0.051288776 -0.03775601 -0.08669307 -0.02473037 -0.006987674 -0.11958097 0.07071203
-0.05937921 0.009369583 -0.009048927 -0.0280651 -0.0009838231 0.059972204 0.0028286837 0.025770152
-0.02097194 -0.014263047 -0.015742265 -0.0068369284 0.0017088512 0.03476649 -0.003538595 -0.05036589
-0.10017279 -0.042695858 -0.07729982 0.012639962 0.0060479026 0.020013222 0.0720617 0.06406036
-0.028995678 0.0006374791 0.04620968 -0.0013408717 0.059032973 -0.059613377 -0.06268174 0.07230056
0.10243131 -0.011177332 0.019062156 0.002968566 -0.05597063 -0.030879803 -0.0019228868 0.020932665
-0.024232812 -0.016457623 0.05360334 -0.04650037 -0.03921218 0.06655194 0.029379794 -0.00894146
-0.010455649 -0.05914029 0.043105155 0.07070537 0.030798713 -0.08897841 0.06034952 -0.024792962
0.050525147 0.014333695 0.02930199 -0.05066535 -0.03611464 0.0017161083 0.0018671565 -0.028342992
-0.014844838 -0.021934997 -0.12724106 -0.004791568 0.023290113 -0.05419892 0.0705986 0.0083230985
-0.004080574 -0.039372496 -0.01615949 0.04127727 0.07681577 0.008576757 -0.0066009127 0.010487536
0.015954774 0.0031096893 -0.00896709 -0.011149313 -0.088273704 0.09477452 -0.033590466 -0.032514174
-0.051704675 0.000544155 -0.065213144 0.016662402 0.0065876283 0.016358417 -0.02359653 -0.08610125
-0.015321551 0.055366453 0.09675666 -0.043093868 -0.032477193 -0.098311245 0.00746651 -0.043523643
-0.022984266 -0.04024123 0.00997659 0.019048333 -0.031942558 -0.04882688 -0.06561603 0.057579976
0.01064848 -0.0116139315 -0.06407504 0.075881064 -0.08136796 -0.018351335 0.052021783 0.017074738
0.08362013 -0.024639089 -0.14525318 0.059788167 -0.064225554 -0.012988571 -0.012809734 0.019048296
-0.049105287 0.050108332 0.02820324 0.022292651 -0.0038605835 0.04536496 -0.03934663 -0.03023562
0.06924223 -0.0032075224 -4.836684e-05 -0.038058143 0.015702687 -0.012403712 0.016688403 -0.030550633
0.06664604 0.083195604 -0.070284635 0.0120424675 -0.07733777 -0.018891457 0.052015007 -0.05948569
-0.015694719 0.0643463 0.06172946 0.042298898 0.09074859 -0.008433745 0.01354482 0.051254597
-0.016783357 -0.03346558 0.05986694 0.057013415 0.027083589 0.0070733577 -0.024984844 0.062220708
0.032550395 0.025788238 0.037989076 -0.03860895 -0.047536347 -0.031054292 0.065842494 0.025128106
0.0042761136 0.054436855 0.017347302 0.03982972 -0.0022813622 -0.034763504 0.046306983 -0.03632362
0.111537024 0.05987105 -0.04370872 0.011980906 0.031440485 0.070147224 0.023332562 0.012462271
-0.032398786 0.021852458 -0.038653582 -0.04335122 -0.003016821 -0.027858801 0.027562086 -0.008006879
0.023544611 -0.014760256 -0.073460005 0.01568651 0.012363885 0.010850169 0.019092629 -0.012726381
-0.034396738 -0.05239713 -0.009596048 0.041396514 0.049231384 -0.06342697 0.08220316 0.0679534
00000000: c27c b53c bf58 a93b 5cce 0dbc a342 adbc
00000010: c052 1dbc 609d d0ba d880 0f3d a942 133d
00000020: 7914 eb3d 869a 5abd 908f 21bd f21f 133d
00000030: 4ef7 e4bc 4cab 31bd 3155 8c3c 6cce eb3c
00000040: b9ca 4fbd 46c2 23bd 4896 9f3b 959c 80bb
00000050: f02e ecba 0601 d7bd f535 50bb 2732 a23d
00000060: 3750 043c 2438 183d ac0a 763c 81c3 80bd
00000070: f6b8 963c cc3d b03c d8a1 b1bc 8af4 f4bc
00000080: 9b1a d5bc 2e14 523d 0ca6 1abd 238c b1bd
00000090: 5897 cabc dcf8 e4bb dee6 f4bd 78d1 903d
000000a0: 9d37 73bd e182 193c f341 14bc c8e8 e5bc
000000b0: a0f3 80ba 6aa5 753d 7061 393b ed1b d33c
000000c0: 59cd abbc 8eaf 69bc ecf5 80bc 5008 e0bb
000000d0: 88fb df3a 4f67 0e3d c6e7 67bb 774c 4ebd
000000e0: 6427 cdbd dae1 2ebd 5e4f 9ebd d817 4f3c
000000f0: 7c2d c63b c5f2 a33c 1695 933d 1432 833d
00000100: 5888 edbc 801c 273a 5d46 3d3d 30c0 afba
00000110: 8fcc 713d 282d 74bd 495f 80bd 5112 943d
00000120: 82c7 d13d 2121 37bc 3d28 9c3c 468c 423b
00000130: 7641 65bd a4f7 fcbc 6009 fcba fb7a ab3c
00000140: e483 c6bc 23d2 86bc 2d8f 5b3d 2c77 3ebd
00000150: f39c 20bd 624c 883d e5ad f03c 347f 12bc
00000160: 2c4e 2bbc 173d 72bd 088f 303d facd 903d
00000170: 954d fc3c 503a b6bd 0f31 773d 9c1a cbbc
00000180: 75f3 4e3d e0d7 6a3c ba0a f03c 7886 4fbd
00000190: f2ec 13bd 0aef e03a 60bb f43a 902f e8bc
000001a0: c337 73bc 06b1 b3bc 7b4b 02be 9602 9dbb
000001b0: e8ca be3c b0ff 5dbd 0096 903d 9b5d 083c
000001c0: 56b6 85bb 0e45 21bd e860 84bc 5b12 293d
000001d0: 9651 9d3d 8785 0c3c 784c d8bb ead3 2b3c
000001e0: 96b3 823c eecb 4b3b b4ea 12bc 9cab 36bc
000001f0: d8c8 b4bd 2519 c23d 2896 09bd 952d 05bd
00000200: 48c8 53bd a0a5 0e3a 788e 85bd 977f 883c
00000210: 08dd d73b 1602 863c 834d c1bc da55 b0bd
00000220: 3e07 7bbc efc7 623d 5b28 c63d 3283 30bd
00000230: ce06 05bd 6857 c9bd a0a9 f43b d945 32bd
00000240: 8049 bcbc fdd3 24bd da74 233c 400b 9c3c
00000250: 33d6 02bd b2fe 47bd b261 86bd fbd8 6b3d
00000260: f676 2e3c 5c48 3ebc c639 83bd 8867 9b3d
00000270: 3fa4 a6bd 8a55 96bc cb14 553d 52e0 8b3c
00000280: 0841 ab3d ead7 c9bc 40bd 14be 70e4 743d
00000290: b088 83bd 04ce 54bc ebdf 51bc 2c0b 9c3c
000002a0: a022 49bd 653e 4d3d 7b0a e73c 149f b63c
000002b0: d801 7dbb 9cd0 393d ef29 21bd b1b0 f7bc
000002c0: dfce 8d3d 4c35 52bb 80dd 4ab8 dbe2 1bbd
000002d0: eca2 803c f038 4bbc 1eb6 883c 5245 fabc
000002e0: b87d 883d 7562 aa3d 64f1 8fbd c54d 453c
000002f0: 4463 9ebd 42c2 9abc b00d 553d 44a7 73bd
00000300: 3692 80bc fec7 833d 08d8 7c3d 9c41 2d3d
00000310: 66da b93d b12d 0abc 18eb 5d3c 57f0 513d
00000320: 407d 89bc 3413 09bd 0937 753d e686 693d
00000330: 67de dd3c a0c7 e73b 04ad ccbc 24db 7e3d
00000340: 9053 053d db41 d33c 6f9a 1b3d 6b24 1ebd
00000350: 79b5 42bd 9265 febc 6ed8 863d 75d9 cd3c
00000360: a41e 8c3b 2ef9 5e3d ee1b 8e3c 7d24 233d
00000370: e882 15bb 2d64 0ebd 64ac 3d3d 13c8 14bd
00000380: 866d e43d 593b 753d ea07 33bd 904b 443c
00000390: bdc7 003d 59a9 8f3d ee23 bf3c 8e2e 4c3c
000003a0: 97b4 04bd ed03 b33c 3853 1ebd 0d91 31bd
000003b0: dcb5 45bb 2438 e4bc e2c9 e13c 492f 03bc
000003c0: a1e0 c03c 00d5 71bc 3372 96bd ff80 803c
000003d0: e491 4a3c e8c4 313c 2568 9c3c 5082 50bc
000003e0: 98e3 0cbd 5f9e 56bd be38 1dbc 648f 293d
000003f0: d9a6 493d 00e6 81bd 215a a83d 272b 8b3d

std.constant4 f4 [128, 128]
0.05211667 -0.050967947 -0.042027146 0.08127579 0.017203681 -0.019494854 -0.02981356 0.006073415
-0.006336156 0.08437333 -0.021020358 -0.025087819 0.028101692 0.06505303 -0.012205355 0.010381101
-0.03488364 -0.017922834 -0.04897183 0.021244513 0.020928347 -0.024159651 -0.0005386425 -0.036112137
0.0023171315 0.032769237 -0.059736155 0.037052725 -0.04114277 0.058070645 0.01884345 0.003487464
0.017650567 -0.07557801 -0.0043276474 -0.036788672 0.00023683254 0.056119226 -0.014393512 0.032528624
-0.09674739 0.048902445 -0.037706725 0.014756445 -0.028476382 0.012170706 0.08333121 -0.054369956
-0.0032072703 -0.008039186 0.04819467 -0.01591196 -0.016789023 0.039127328 -0.016596 -0.093258455
0.0013674602 0.025699811 -0.031057779 0.007940441 0.0045291493 0.026209157 0.0737977 0.0044624256
-0.01589516 0.03056693 0.017025013 0.0467934 0.028969232 -0.13516724 0.052638724 -0.0021999818
-0.0016189944 0.034231793 0.063251555 -0.04277272 0.015065769 -0.093936644 -0.046237964 0.017933996
-0.06169536 0.047540545 -0.048657745 0.032846045 -0.016650787 0.028736975 -0.021189861 0.03710412
-0.023494948 0.040342934 0.014139039 -0.0232491 -0.07435259 -0.031441927 0.092519894 0.007521592
-0.05698535 -0.0660146 0.09480454 -0.121315196 0.06893005 0.00085427193 -0.005479932 0.04466735
0.0736916 0.017124139 -0.028367536 0.048053764 -0.05901755 -0.008452121 0.03251061 0.005021208
-0.07470713 0.003096887 -0.0053409263 0.025936814 -0.045008563 0.0993845 0.07874375 0.06840509
-0.040213466 0.06873448 -0.032816358 -0.01238987 -0.031205965 0.024576236 0.0018610181 0.007868946
-0.018466774 -0.023339983 -0.002790272 0.035993345 0.022756927 -0.05121004 0.058321543 0.02161706
-0.0049471767 0.029546324 -0.052643374 0.010297813 0.01757418 -0.0014061402 0.026521925 -0.046989717
-0.100929596 -0.018656 0.010050194 0.0651958 0.056338266 -0.040587805 0.042161018 0.0077092103
-0.075302675 -0.036722448 0.024575355 0.0028253365 0.00086949393 0.04508631 0.023335159 2.3603267e-05
-0.03132329 0.05130711 -0.07858652 0.034808442 0.05708443 -0.009078087 -0.027010212 0.05591765
0.006838164 0.00022300566 0.07335119 0.0041364506 0.021949563 0.016151663 -0.089835696 -0.020202845
0.0033348212 -0.017537957 -0.09371353 -0.0424323 0.0014055073 0.07224425 0.030241776 0.035122655
-0.009924753 0.013955699 -0.011760093 0.0052847816 -0.039144598 -0.007226947 5.9660524e-05 0.098199174
0.013763758 0.008569965 0.0053086933 0.04744407 -0.08395453 0.027638404 0.033363674 -0.02973539
0.028064944 0.0485123 0.03673459 0.0065074684 0.013609655 -0.035958264 0.0481573 -0.021275891
0.024064288 -0.041369848 0.045914292 -0.029349575 -0.065947056 0.091317855 0.007316284 -0.026976751
0.023961201 0.08029278 0.038399242 -0.067233115 0.008317112 0.014087952 0.0060760956 0.07449665
0.10696696 0.033370037 -0.053381626 -0.025165698 -0.003253498 -0.06761667 -0.028742276 0.09734956
-0.0037033912 0.047118925 -0.019683259 -0.036468986 -0.066277266 0.017993845 0.016221002 -0.03798471
-0.045375187 0.009321821 -0.033824354 0.044921704 0.005666377 0.056553468 0.011816517 -0.020537293
0.009548011 0.07284766 -0.06972348 -0.040782414 0.013832393 0.060611334 -0.030300105 -0.01722161
00000000: 4a78 553d c4c3 50bd a824 2cbd ec73 a63d
00000010: bcee 8c3c acb3 9fbc 913b f4bc 7f03 c73b
00000020: 879f cfbb edcb ac3d e332 acbc f884 cdbc
00000030: 8535 e63c 863a 853d f8f8 47bc 7e15 2a3c
00000040: 26e2 0ebd e8d2 92bc b096 48bd f908 ae3c
00000050: ed71 ab3c 76ea c5bc b033 0dba 52ea 13bd
00000060: 04db 173b 0939 063d e6ad 74bd 99c4 173d
00000070: 5285 28bd 7cdb 6d3d 945d 9a3c f08d 643b
00000080: ec97 903c a5c8 9abd f0ce 8dbb b8af 16bd
00000090: 4056 7839 46dd 653d c4d2 6bbc bc3c 053d
000000a0: 7f23 c6bd ee4d 483d 5e72 1abd 04c5 713c
000000b0: 4d47 e9bc a467 473c 8ea9 aa3d 08b3 5ebd
000000c0: 1131 52bb cab6 03bc c667 453d cc59 82bc
000000d0: 2289 89bc fa43 203d 56f4 87bc 4afe bebd
000000e0: 5a3c b33a 6988 d23c e26c febc a018 023c
000000f0: 4269 943b 96b4 d63c 4023 973d 8a39 923b
00000100: 9136 82bc 8067 fa3c 0a78 8b3c 70aa 3f3d
00000110: e250 ed3c 4869 0abe b49b 573d 922d 10bb
00000120: 7034 d4ba a336 0c3d 088a 813d 7332 2fbd
00000130: 6ad6 763c db61 c0bd 0564 3dbd 51ea 923c
00000140: 46b4 7cbd e0b9 423d 584d 47bd 9389 063d
00000150: 3b67 88bc ce69 eb3c 5c96 adbc 7dfa 173d
00000160: 7a78 c0bc a23e 253d 6ea7 673c e674 bebc
00000170: 2c46 98bd 40c9 00bd 127b bd3d b077 f63b
00000180: 7869 69bd aa32 87bd e228 c23d 1a74 f8bd
00000190: 332b 8d3d 38f1 5f3a 0091 b3bb 1cf5 363d
000001a0: 9feb 963d ec47 8c3c 0963 e8bc 06d4 443d
000001b0: 63bc 71bd c47a 0abc d829 053d f288 a43b
000001c0: 0d00 99bd 24f5 4a3b f002 afbb 7179 d43c
000001d0: e65a 38bd 1a8a cb3d 6744 a13d f817 8c3d
000001e0: e0b6 24bd aac4 8c3d 726a 06bd e2fe 4abc
000001f0: a7a3 ffbc 1a54 c93c 68ed f33a c0ec 003c
00000200: a247 97bc 7e33 bfbc ffdc 36bb c26d 133d
00000210: bc6c ba3c 9ec1 51bd 92e2 6e3d 4316 b13c
00000220: ed1b a2bb 220b f23c 94a0 57bd 29b8 283c
00000230: baf7 8f3c 3c4e b8ba 8244 d93c 4a78 40bd
00000240: 2db4 cebd 78d4 98bc 92a9 243c 6085 853d
00000250: f4c2 663d 663f 26bd 08b1 2c3d 8b9d fc3b
00000260: 4a38 9abd 476a 16bd 4152 c93c 4829 393b
00000270: c0ee 633a 6cac 383d 6029 bf3c a1ff c537
00000280: da4c 00bd 6727 523d f8f1 a0bd 4c93 0e3d
00000290: 5dd1 693d 42bc 14bc 8544 ddbc e809 653d
000002a0: ad12 e03b a0d6 6939 2639 963d 108b 873b
000002b0: 92cf b33c 7e50 843c c7fb b7bd 7080 a5bc
000002c0: 048d 5a3b c3ab 8fbc e1ec bfbd 7ecd 2dbd
000002d0: 0039 b83a cbf4 933d 9abd f73c c6dc 0f3d
000002e0: 6e9b 22bc 72a6 643c 68ad 40bc f62b ad3b
000002f0: 1656 20bd 07d0 ecbb 003c 7a38 a61c c93d
00000300: 6381 613c 0a69 0c3c 8cf4 ad3b b754 423d
00000310: 5af0 abbd ef69 e23c 59a8 083d a297 f3bc
00000320: 74e8 e53c d5b4 463d 0277 163d 9a3c d53b
00000330: 08fb 5e3c f948 13bd 9740 453d c74a aebc
00000340: 7822 c53c 6e73 29bd a010 3c3d 856e f0bc
00000350: 400f 87bd db04 bb3d 70bd ef3b 59fe dcbc
00000360: 484a c43c 8b70 a43d 8648 1d3d 84b1 89bd
00000370: 7f44 083c 27d1 663c fc19 c73b b391 983d
00000380: 7e11 db3d 05af 083d b1a6 5abd 4b28 cebc
00000390: a438 55bb 9c7a 8abd ec74 ebbc 355f c73d
000003a0: 98b4 72bb c6ff 403d c93e a1bc 8160 15bd
000003b0: 60bc 87bd d467 933c e8e1 843c db95 1bbd
000003c0: 55db 39bd 8dba 183c 688b 0abd d2ff 373d
000003d0: 04ad b93b 9ca4 673d 119a 413c d33d a8bc
000003e0: 436f 1c3c 2731 953d 2fcb 8ebd 760b 27bd
000003f0: 43a1 623c 9743 783d ed37 f8bc 5514 8dbc

std.constant5 f4 [128, 128]
0.030178355 -0.002921497 0.060819037 -0.081824765 0.0036197247 -0.017703213 -0.0008198179 -0.0066889073
-0.018730778 -0.038113058 0.044437714 -0.067313984 0.046362225 0.06200709 -0.028892625 -0.044256676
0.016235892 0.0038947503 -0.10277738 0.064552106 0.028120436 -0.0093510505 0.002233968 -0.01758342
0.02359639 -0.0073441938 -0.025844906 -0.03880764 -0.059448734 -0.0054012425 -0.050780762 -0.010286117
-0.011553226 -0.047450688 0.021622138 -0.056288287 -0.00254382 -0.02454796 0.0106020775 -0.033303753
-0.00060990825 -0.016688611 -0.02105257 0.05778912 -0.029739574 -0.0026264451 0.004452862 -0.0084162
-0.0012138708 0.084894545 0.030991128 0.01266922 -0.026324809 0.06777121 -0.06961288 -0.069349356
-0.038265876 0.033907518 -0.0030037025 0.021516427 -0.05833181 -0.0073903142 -0.06325209 0.025604315
0.06576729 0.029532887 -0.053161852 -0.011221962 0.009984306 0.018053126 -0.0009471094 0.064467624
0.012822352 0.0719243 -0.037603617 -0.030133944 -0.086357415 -0.09531306 -0.009341296 0.06362171
-0.05443973 -0.02814028 0.061980896 0.03648844 0.008650079 -0.065937504 -0.011455027 -0.040441267
-0.015304358 0.09111029 -0.040036768 -0.008038985 0.045786146 0.012059778 -0.017586762 0.052334327
-0.0367058 -0.038784035 -0.019324986 -0.031748593 -0.03960994 0.03392156 -0.07221793 0.03035907
-0.045195583 -0.023410453 -0.015103247 0.071209684 0.064901695 -0.026226638 -0.032596275 0.011533983
0.03140071 0.014180269 0.0047142236 -0.00051937136 -0.030785194 0.03322088 0.007351387 0.006682057
0.059856173 0.020660993 -0.02326817 0.05671463 -0.012966028 -0.058784664 -0.011113994 0.07059719
-0.08719063 -0.036423407 -0.03976776 -0.008565175 -0.039970934 0.07615296 0.10104565 -0.04821341
-0.006246144 0.018820435 -0.016389566 -0.05570977 -0.009618119 0.0039031133 0.03459929 -0.062528364
0.010155553 0.023471775 0.0381275 0.07191835 0.022003273 0.035901703 0.017306656 0.02354995
0.03740909 0.0021125134 -0.023291085 0.032767955 0.01236443 -0.100517444 -0.052647315 0.027139269
0.027248036 0.027822783 -0.029462874 0.015006579 -0.043881882 0.032887027 -0.030772114 0.050489724
-0.052680083 0.0075670835 0.04070443 -0.012993267 0.034818627 0.010312533 -0.047804028 0.05238471
0.059729084 0.075445876 0.056513168 0.07981545 0.016742487 0.0193797 0.021803647 0.0556913
0.0072087618 -0.06374584 -0.007002172 -0.033586968 -0.052275814 0.0020744475 -0.009447895 0.020773549
-0.078073025 -0.04795009 -0.006140721 -0.019411068 -0.001591702 0.05239368 0.036924805 -0.034774844
-0.014585849 0.044675417 0.030626077 -0.045901038 0.0234637 0.022029087 -0.05354357 0.013150666
0.0241018 0.027912026 0.0073335255 0.07287704 -0.0020910455 0.0008659521 0.047237433 -0.0219956
-0.0414476 0.100700825 0.03124914 0.1005581 0.004782025 -0.087671675 0.026669051 0.019141285
-0.043931033 0.024544362 -0.080067135 0.030313818 -0.021756142 0.0065996572 0.022138372 -0.095970705
-0.018880095 0.07639922 0.030673591 -0.018497247 -0.0036824914 -0.042823773 -0.039104942 -0.012305298
0.0014703665 -0.07583807 -0.023004545 -0.018278852 -0.048464164 0.0036530574 -0.010381466 0.06779237
-0.04632608 -0.03226791 0.09043232 -0.00058460503 0.017865561 0.005616593 0.023183225 -0.085860796
00000000: 9938 f73c 9676 3fbb 621d 793d be93 a7bd
00000010: e738 6d3b 5406 91bc 0ce9 56ba 9f2e dbbb
00000020: 4a71 99bc 701c 1cbd 5204 363d eadb 89bd
00000030: 51e6 3d3d 25fb 7d3d 3ab0 ecbc 7d46 35bd
00000040: 2201 853c 113f 7f3b f27c d2bd e533 843d
00000050: d45c e63c 2635 19bc c467 123b 1b0b 90bc
00000060: 374d c13c 90a7 f0bb b2b8 d3bc c3f4 1ebd
00000070: 8480 73bd e8fc b0bb 7dff 4fbd 1a87 28bc
00000080: be49 3dbc a75b 42bd e920 b13c 8c8e 66bd
00000090: 38b6 26bb ce18 c9bc 56b4 2d3c 8469 08bd
000000a0: 40e2 1fba 8eb6 88bc 7076 acbc 49b4 6c3d
000000b0: 68a0 f3bc 7020 2cbb 50e9 913b 1ae4 09bc
000000c0: bf1a 9fba 31dd ad3d 1be1 fd3c 8f92 4f3c
000000d0: 20a7 d7bc a2cb 8a3d 3391 8ebd 0907 8ebd
000000e0: aebc 1cbd 9ce2 0a3d c4d9 44bb 3843 b03c
000000f0: 56ed 6ebd 732a f2bb 508a 81bd 24c0 d13c
00000100: 00b1 863d f4ee f13c 3ec0 59bd 52dc 37bc
00000110: 3795 233c 26e4 933c 7047 78ba 9a07 843d
00000120: d814 523c 0c4d 933d 4006 1abd 76db f6bc
00000130: 28dc b0bd 7e33 c3bd 3c0c 19bc 194c 823d
00000140: 32fc 5ebd 7286 e6bc aedf 7d3d e774 153d
00000150: 10b9 0d3c 3e0a 87bd dead 3bbc bea5 25bd
00000160: 21bf 7abc 0898 ba3d 98fd 23bd f2b5 03bc
00000170: 418a 3b3d 6096 453c 1d12 90bc 855c 563d
00000180: d258 16bd 02dc 1ebd 6f4f 9ebc d00a 02bd
00000190: 083e 22bd 55f1 0a3d fee6 93bd 96b3 f83c
000001a0: 011f 39bd 47c7 bfbc 9c73 77bc 62d6 913d
000001b0: 2eeb 843d 3fd9 d6bc ac83 05bd 08f9 3c3c
000001c0: 089e 003d 5c54 683c c679 9a3b 6c26 08ba
000001d0: 3b31 fcbc 9e12 083d e7e3 f03b 28f5 da3b
000001e0: bf2b 753d 3e41 a93c e49c bebc 9a4d 683d
000001f0: 776f 54bc 30c8 70bd 7817 36bc 4295 903d
00000200: 0091 b2bd b630 15bd 85e3 22bd f354 0cbc
00000210: 90b8 23bd 15f6 9b3d 06f1 ce3d 6d7b 45bd
00000220: 74ac ccbb 502d 9a3c 6943 86bc ee2f 64bd
00000230: 5195 1dbc 60cb 7f3b fcb7 0d3d df0e 80bd
00000240: 7a63 263c e147 c03c 952b 1c3d ee49 933d
00000250: 3540 b43c aa0d 133d b0c6 8d3c d3eb c03c
00000260: 463a 193d 1872 0a3b f2cc bebc b137 063d
00000270: 2e94 4a3c 17dc cdbd b6a4 57bd 2c53 de3c
00000280: 4637 df3c 9bec e33c 205c f1bc 28de 753c
00000290: 7dbd 33bd 8cb4 063d cd15 fcbc 50ce 4e3d
000002a0: 12c7 57bd 4cf5 f73b b0b9 263d b6e1 54bc
000002b0: fa9d 0e3d e6f5 283c 28ce 43bd 5a91 563d
000002c0: 7ca6 743d 5e83 9a3d 5a7a 673d 4876 a33d
000002d0: 8a27 893c 2dc2 9e3c 909d b23c 901c 643d
000002e0: 7a37 ec3b 2e8d 82bd 7a72 e5bb 7d92 09bd
000002f0: 2a1f 56bd 74f3 073b 58cb 1abc 4a2d aa3c
00000300: c0e4 9fbd 5067 44bd 1a38 c9bb f603 9fbc
00000310: a8a0 d0ba c19a 563d 773e 173d 1170 0ebd
00000320: 7cf9 6ebc 92fd 363d 8ae3 fa3c ba02 3cbd
00000330: f236 c03c 5876 b43c 8150 5bbd e475 573c
00000340: 2371 c53c c3a7 e43c 124e f03b 8f40 953d
00000350: ec09 09bb 1001 633a 0a7c 413d 1e30 b4bc
00000360: f5c4 29bd 3c3c ce3d 32fe ff3c 68f1 cd3d
00000370: 88b2 9c3b 358d b3bd 0e79 da3c 2fce 9c3c
00000380: 07f1 33bd 4211 c93c 3dfa a3bd af54 f83c
00000390: f039 b2bc f041 d83b 885b b53c 4a8c c4bd
000003a0: 6eaa 9abc 3277 9c3d 2f47 fb3c 8a87 97bc
000003b0: f455 71bb fb67 2fbd 812c 20bd 299c 49bc
000003c0: 50b9 c03a fd50 9bbd 0774 bcbc 88bd 95bc
000003d0: 5c82 46bd 2268 6f3b 0617 2abc bad6 8a3d
000003e0: 6ac0 3dbd 5b2b 04bd 9534 b93d 2e40 19ba
000003f0: cc5a 923c 660b b83b bfea bd3c c9d7 afbd

std.constant6 f4 [128, 128]
-0.006283045 -0.1028505 0.055589728 0.025469437 -0.089410156 -0.017544292 -0.106827274 -0.03996191
0.0117317 -0.022844248 -0.0036898237 -0.03282077 -0.04163316 -0.04716047 -0.0013669655 0.0667103
0.0020702556 0.032053497 0.032741122 -0.06512387 0.0668213 -0.124950394 0.051027287 -0.041515518
0.10430566 -0.083043694 -0.056360163 -0.0037282864 -6.83628e-05 -0.029395161 -0.0675977 0.023267455
0.00065486506 0.04520138 0.049471915 0.0032551303 -0.009644274 -0.12863827 -0.019615468 -0.026435908
0.0022633923 0.002794441 -0.046737522 -0.047844008 -0.078704074 -0.025326477 -0.024632089 0.0017717406
0.023614936 -0.03768231 0.016701069 -0.07410773 0.034816485 -0.042861547 -0.026171485 -0.0142872175
0.026085332 0.0673018 0.043258715 0.0034261243 -0.056080893 -0.041751273 -0.020461114 -0.0040917126
-0.033344008 -0.021916749 0.008629996 -0.038109478 -0.0927426 -0.06177176 0.017529445 -0.040856563
0.02093588 0.0016489327 -0.008900385 0.029830616 -0.006261601 0.038028937 0.045306206 0.036177725
-0.0057641566 0.057371203 -0.019953536 0.0066719223 -0.005670337 0.06822464 0.016552784 0.033569723
0.066115975 0.06963121 0.060943738 0.073348865 -0.0015204516 0.066588774 -0.01570277 0.027894294
-0.05631183 0.026587214 -0.024993977 0.004183272 -0.025003068 0.0016542887 -0.029309234 0.049978085
0.02849894 0.01839601 -0.001474922 0.05415455 0.07435139 0.011542983 0.010017209 0.09318753
0.004817954 0.053921342 -0.064091556 0.047294386 -0.07037925 0.09003328 0.04599555 0.06921147
0.018371118 0.058988567 0.03906326 0.00491265 -0.03378879 -0.10815025 0.075192995 0.025353698
0.122027725 0.08261919 -0.004511803 0.023089804 0.00059620384 0.045433193 0.015441253 0.08951154
0.014173023 -0.0024467972 -0.07220562 0.045018185 -0.030359758 -0.008811744 0.0072264355 -0.05881983
-0.03041903 0.009931315 -0.027270654 0.017572496 0.06795255 -0.036664113 0.015790133 0.091179475
0.07532733 -0.0265814 0.010163145 -0.0040080664 0.05868775 0.0126578715 -0.02335732 -0.031566735
0.0069029415 -0.04165902 0.01756642 0.004944594 -0.016772082 0.011207369 0.00860857 -0.024549909
-0.023766723 -0.002097989 0.045203935 0.031337216 0.032119878 0.04779012 0.065119475 0.009914848
-0.033042077 3.9171893e-05 0.06183 0.012108311 -0.024319215 0.014044557 -0.047197662 -0.008513875
0.055329584 -0.030752165 0.11873126 0.11685003 0.061778307 0.042124543 -0.06712026 -0.10099545
0.06196458 0.06934881 0.1031578 -0.027953869 -0.01017902 0.03352624 0.009310681 -0.010687729
0.05942078 -0.00955327 0.040162012 -0.004223276 -0.031850208 -0.032870196 0.009581365 0.060297403
-0.0063312817 0.0039480664 0.0085634645 0.056029737 -0.029306863 -0.02809801 -0.009737002 -0.037021812
0.041576724 -0.04675021 -0.032192603 0.04234146 0.009019961 -0.034458928 -0.021916905 -0.051354147
-0.0038557588 0.024645971 -0.002685815 -0.054607145 -0.026362978 -0.04912034 0.044407614 0.070398465
0.008167379 0.017248841 0.06827213 0.036053162 0.022383988 -0.020640863 -0.000530637 -0.01851587
-0.07382343 0.12902468 -0.0069660135 0.087439395 -0.03575128 -0.01026035 -0.02073169 0.06728311
-0.03225945 -0.050917897 0.04938512 0.095241114 0.0104407575 -0.004664501 -0.01029861 -0.013601661
00000000: 00e2 cdbb 48a3 d2bd 0eb2 633d 48a5 d03c
00000010: ac1c b7bd 0cb9 8fbc 42c8 dabd 1aaf 23bd
00000020: 5136 403c dc23 bbbc f8d0 71bb 126f 06bd
00000030: 8887 2abd 562b 41bd c02b b3ba 699f 883d
00000040: 20ad 073b 874a 033d 8e1b 063d aa5f 85bd
00000050: 9bd9 883d fee5 ffbd fd01 513d 2d0c 2abd
00000060: 359e d53d d012 aabd ead9 66bd 4456 74bb
00000070: 005e 8fb8 1fce f0bc aa70 8abd 649b be3c
00000080: 40ab 2b3a 1525 393d 10a3 4a3d 0654 553b
00000090: 0403 1ebc c0b9 03be 9eb0 a0bc 1e90 d8bc
000000a0: 6c55 143b f122 373b d86f 3fbd 14f8 43bd
000000b0: 9a2f a1bd 7979 cfbc 3cc9 c9bc c039 e83a
000000c0: 1c74 c13c c458 1abd aed0 883c cbc5 97bd
000000d0: bb9b 0e3d 978f 2fbd 9565 d6bc ef14 6abc
000000e0: e8b0 d53c 87d5 893d 0d30 313d d488 603b
000000f0: 14b5 65bd 6203 2bbd 119e a7bc c613 86bb
00000100: ba93 08bd c18a b3bc d464 0d3c af18 1cbd
00000110: d5ef bdbd 6304 7dbd e999 8f3c 3659 27bd
00000120: b981 ab3c 0021 d83a ecd2 11bc 565f f43c
00000130: 1e2e cdbb 3bc4 1b3d 0093 393d 182f 143d
00000140: 40e1 bcbb 11fe 6a3d 9975 a3bc 24a0 da3b
00000150: 3cce b9bb 5cb9 8b3d b499 873c 6880 093d
00000160: d067 873d cf9a 8e3d 24a0 793d ee37 963d
00000170: e449 c7ba b25f 883d 18a3 80bc 9382 e43c
00000180: 3ca7 66bd 6ecd d93c 2bc0 ccbc d413 893b
00000190: 3cd3 ccbc b8d4 d83a eb19 f0bc d2b5 4c3d
000001a0: 9c76 e93c 3bb3 963c 2c52 c1ba 29d1 5d3d
000001b0: 8b45 983d c81e 3d3c 381f 243c 1bd9 be3d
000001c0: eddf 9d3b a0dc 5c3d 6f42 83bd c2b7 413d
000001d0: ff22 90bd 5e63 b83d d465 3c3d bebe 8d3d
000001e0: 077f 963c ff9d 713d cc00 203d 4cfa a03b
000001f0: 1d66 0abd e17d ddbd c9fe 993d 8fb2 cf3c
00000200: ace9 f93d 4034 a93d bfd7 93bb d426 bd3c
00000210: 904a 1c3a 2818 3a3d 4ffd 7c3c d451 b73d
00000220: f835 683c 725a 20bb 8ae0 93bd fd64 383d
00000230: 07b5 f8bc 225f 10bc bccb ec3b 10ed 70bd
00000240: 5431 f9bc f4b6 223c b566 dfbc 32f4 8f3c
00000250: b52a 8b3d 1c2d 16bd 4f5a 813c 4ebc ba3d
00000260: 3745 9a3d 3cc1 d9bc 5283 263c 1956 83bb
00000270: 9162 703d f662 4f3c da57 bfbc 1f4c 01bd
00000280: 1232 e23b a6a2 2abd 74e7 8f3c 4306 a23b
00000290: 9b65 89bc 1d9f 373c f60a 0d3c e41c c9bc
000002a0: 6eb2 c2bc 6a7e 09bb c327 393d 745b 003d
000002b0: 2290 033d 93bf 433d 5c5d 853d e371 223c
000002c0: 2157 07bd 804c 2438 7441 7d3d f061 463c
000002d0: 1739 c7bc 241b 663c 5652 41bd c87d 0bbc
000002e0: 46a1 623d f7eb fbbc 6029 f33d 124f ef3d
000002f0: 400b 7d3d c98a 2c3d 5976 89bd b4d6 cebd
00000300: 92ce 7d3d c006 8e3d 6644 d33d 83ff e4bc
00000310: e8c5 26bc d052 093d d48b 183c 961b 2fbc
00000320: 3463 733d 5285 1cbc ec80 243d 6863 8abb
00000330: 5d75 02bd e6a2 06bd 28fb 1c3c 69fa 763d
00000340: a476 cfbb c85e 813b c64d 0c3c 707f 653d
00000350: f214 f0bc cc2d e6bc f287 1fbc 2fa4 17bd
00000360: 5b4c 2a3d 267d 3fbd 64dc 03bd 3d6e 2d3d
00000370: 75c8 133c ce24 0dbd 158b b3bc ba58 52bd
00000380: e6b0 7cbb 59e6 c93c 8004 30bb beab 5fbd
00000390: 2cf7 d7bc 6932 49bd c2e4 353d 122d 903d
000003a0: 78d0 053c 714d 8d3c 42d2 8b3d 7bac 133d
000003b0: a05e b73c 0717 a9bc 721a 0bba 98ae 97bc
000003c0: bd30 97bd 0c1f 043e 2843 e4bb 6d13 b33d
000003d0: ef6f 12bd 071b 28bc 81d5 a9bc bacb 893d
000003e0: 7c22 04bd 498f 50bd 0d48 4a3d c60d c33d
000003f0: b60f 2b3c acd8 98bb 80bb 28bc 80d9 5ebc

std.constant7 f4 [128]
0.07240025 -0.0071116057 0.03810372 -0.00816595 -0.0027487746 0.04126175 0.021404725 0.014645215
0.015026107 -0.008582474 0.029881664 0.031496495 0.12730332 -0.0019901218 0.10230955 0.08935011
0.008265161 0.040013127 0.026144804 0.033350196 0.014692832 0.014796316 0.029914694 0.06359955
-0.00311635 0.05256628 0.07823728 0.0959719 -0.005812336 -0.005243036 4.5605215e-05 -0.020867586
0.13334806 0.013689683 0.02588729 -0.0030623793 0.02596622 0.060764115 0.033706397 0.013352679
-0.0042012325 0.097966634 0.110162154 -0.018099193 -0.005944209 0.050214812 -0.004280569 0.029780166
0.034002706 0.02125702 0.022133762 0.016596647 0.0088885985 -0.0003446296 0.038061697 0.17305316
0.04124105 0.042060703 0.0021234534 0.016978404 0.038398046 -0.003704973 0.030247334 0.13231592
0.028444773 0.030288782 0.014994195 0.04222678 0.034990966 -0.014662961 0.16164933 0.007987676
0.018200183 0.013614112 0.09592901 0.051572967 0.035632566 -0.0058602733 0.0070293713 0.013068285
0.05382825 0.026408177 0.05825454 0.11575215 0.033462673 -0.004729702 0.03406471 0.03057029
0.035047695 0.019649057 0.023534276 0.010266413 0.009689969 0.02002149 -0.0023471988 -0.005593698
-0.017526874 0.027930517 0.012391626 0.030142054 -0.0028921152 0.026102057 0.18861806 0.01803569
0.0026251108 0.0032632798 0.030194167 0.03671734 0.0138638485 -0.006455155 0.030199794 0.08777134
-0.022937741 0.0014706103 0.08850542 0.037520804 -0.0075117694 0.064865425 0.024253452 0.0058725136
0.022849293 0.071666464 0.030406171 0.015075537 0.07906378 0.080766566 0.0213796 0.0010008898
00000000: 9546 943d 7908 e9bb a512 1c3d 7aca 05bc
00000010: c924 34bb 1502 293d f658 af3c 7cf2 6f3c
00000020: 1030 763c 819d 0cbc 64ca f43c 7802 013d
00000030: cd5b 023e b46c 02bb ab87 d13d 31fd b63d
00000040: 996a 073c cee4 233d a12d d63c 379a 083d
00000050: 34ba 703c 3f6c 723c a90f f53c 7b40 823d
00000060: ad3b 4cbb bd4f 573d de3a a03d ea8c c43d
00000070: 6975 bebb c6cd abbb 3a48 3f38 80f2 aabc
00000080: 658c 083e b14a 603c 9511 d43c 33b2 48bb
00000090: 1cb7 d43c cbe3 783d b80f 0a3d 32c5 5a3c
000000a0: 7eaa 89bb bba2 c83d b29c e13d c244 94bc
000000b0: a4c7 c2bb 0cae 4d3d 0444 8cbb 89f5 f33c
000000c0: 6c46 0b3d 3423 ae3c dd51 b53c b1f5 873c
000000d0: 7ca1 113c 67af b4b9 95e6 1b3d d934 313e
000000e0: 60ec 283d d847 2c3d a329 0b3b 4b16 8b3c
000000f0: 4547 1d3d 22cf 72bb 42c9 f73c d37d 073e
00000100: 0305 e93c 2e20 f83c 36aa 753c fdf5 2c3d
00000110: b052 0f3d ea3c 70bc 6787 253e bede 023c
00000120: 8d18 953c b90d 5f3c 6e76 c43d 2d3e 533d
00000130: 74f3 113d 8907 c0bb a456 e63b 5c1c 563c
00000140: 037b 5c3d f655 d83c 509c 6e3d 770f ed3d
00000150: 2810 093d 9efb 9abb 7087 0b3d 8b6e fa3c
00000160: 2c8e 0f3d 0ff7 a03c f4ca c03c 7534 283c
00000170: adc2 1e3c 1c04 a43c 76d3 19bb 574b b7bb
00000180: 8594 8fbc 8ace e43c 3f06 4b3c 78ec f63c
00000190: a489 3dbb fbd3 d53c 1825 413e 95bf 933c
000001a0: 0d0a 2c3b c0dc 553b c259 f73c ec64 163d
000001b0: 3225 633c c485 d3bb 8f65 f73c 76c1 b33d
000001c0: eee7 bbbc 7ec1 c03a 5442 b53d 6aaf 193d
000001d0: 4a25 f6bb 2ad8 843d 2daf c63c 376e c03b
000001e0: 712e bb3c dec5 923d 5d16 f93c 63ff 763c
000001f0: 31ec a13d f168 a53d 4524 af3c 4a30 833a

std.constant8 f4 [128]
-0.02072406 0.0034286904 -0.0036493135 0.00064369885 -0.002552472 -0.005363542 -0.0025557226 0.007956225
0.026891284 -0.023689693 0.00068067544 -0.010737204 -0.017002517 0.001921898 -0.0002502693 0.0023550398
-0.016271247 -0.017452955 -0.0037651476 0.0025243398 -0.0039400337 -0.023177555 -0.0038943742 -0.0012962375
-0.006160605 -0.010057737 -0.0064606834 0.0007262187 -0.0059266207 -0.0014942682 -0.000600593 -0.022796478
-0.028517373 0.0203077 0.004293382 -0.004955995 -0.0045369845 -0.0015013359 0.0009815744 -0.0025793044
0.004465313 0.012438132 0.017513603 0.028454881 -0.010211749 0.0027392094 0.0017040344 0.0017251654
-0.0006855718 0.0019128282 -0.00037410518 0.0048090667 -0.00335372 0.0089857485 0.0015124609 -0.0076723536
0.0027096134 0.029613791 0.0010575438 0.0022826858 -0.0037591767 0.0014650305 0.0018404177 0.03222986
0.0038032823 -0.00202434 -0.019442787 0.0023915614 0.019245435 -0.024891261 0.030054538 -0.0027398134
0.0048543066 0.0010543185 -0.008068782 0.0012781157 0.0026266887 -0.0031980497 -0.014683333 2.9536823e-05
-0.023537192 0.000113179165 0.0078066415 -0.017615674 0.0001080011 0.004238276 -0.002113247 -5.506465e-05
-0.0034189073 -0.0045877295 -0.0020521926 -0.004668957 -0.004401548 0.010095624 -0.025445 -0.0037748588
0.018174289 0.0023628525 0.00030019516 -0.004064254 -0.002779974 -0.00036032163 0.028337276 -0.0052150274
0.00285186 0.0006926458 0.0030185154 0.028554939 0.001865368 0.004694402 -0.010377951 -0.020890145
-0.027953837 -0.027470447 0.029075991 -0.0127687715 -0.0024723883 0.026402133 -0.026817694 0.030062301
0.019741168 0.005367663 -0.0013129967 0.0020146577 0.026945844 -0.0053060693 -0.025533075 0.0038330127
00000000: 81c5 a9bc e1b3 603b 5229 6fbb e6bd 283a
00000010: 6047 27bb a7c0 afbb e97d 27bb d45a 023c
00000020: 1c4b dc3c e310 c2bc 5b6f 323a 19eb 2fbc
00000030: dd48 8bbc 32e8 fb3a 9436 83b9 0357 1a3b
00000040: 474b 85bc 80f9 8ebc b2c0 76bb 656f 253b
00000050: 661b 81bb dbde bdbc c238 7fbb 83e6 a9ba
00000060: e6de c9bb 35c9 24bc 24b4 d3bb b65f 3e3a
00000070: 1934 c2bb 52db c3ba 1d71 1dba aebf babc
00000080: 449d e9bc 555c a63c 80af 8c3b e665 a2bb
00000090: fcaa 94bb 79c8 c4ba 2ca8 803a 8c09 29bb
000000a0: c351 923b 4fc9 4b3c b078 8f3c 361a e93c
000000b0: 2e4f 27bc 4f84 333b e859 df3a f21e e23a
000000c0: f2b7 33ba ddb7 fa3a 8c23 c4b9 6095 9d3b
000000d0: 16ca 5bbb f638 133c c43d c63a 5e68 fbbb
000000e0: c593 313b 9f98 f23c 489d 8a3a 1d99 153b
000000f0: 855c 76bb 4406 c03a 2c3a f13a 7503 043d
00000100: 7d40 793b caaa 04bb 7b46 9fbc bebb 1c3b
00000110: 9aa8 9d3c c2e8 cbbc ef34 f63c 718e 33bb
00000120: e010 9f3b 0f31 8a3a ed32 04bc 7286 a73a
00000130: 8624 2c3b 5f96 51bb 5d92 70bc d8c5 f737
00000140: 12d1 c0bc 9a5a ed38 dbce ff3b bf4e 90bc
00000150: a67e e238 3ce1 8a3b 677e 0abb 38f5 66b8
00000160: bf0f 60bb aa54 96bb 147e 06bb 0dfe 98bb
00000170: dc3a 90bb 1e68 253c 0872 d0bc 9f63 77bb
00000180: 3fe2 943c 16da 1a3b 8363 9d39 6f2d 85bb
00000190: 3930 36bb 8de9 bcb9 9323 e83c d2e2 aabb
000001a0: 45e6 3a3b ac92 353a 49d2 453b 0cec e93c
000001b0: 5d7f f43a 80d3 993b 4808 2abc cf21 abbc
000001c0: 72ff e4bc b409 e1bc c630 ee3c 1c34 51bc
000001d0: cb07 22bb 4949 d83c c8b0 dbbc 3745 f63c
000001e0: 3bb8 a13c 39e3 af3b dc18 acba 5908 043b
000001f0: 88bd dc3c 89de adbb bd2a d1bc 4833 7b3b

std.constant9 f4 [128]
1.0 1.0 1.0 1.0 1.0 1.0 1.0 1.0
1.0 1.0 1.0 1.0 1.0 1.0 1.0 1.0
1.0 1.0 1.0 1.0 1.0 1.0 1.0 1.0
1.0 1.0 1.0 1.0 1.0 1.0 1.0 1.0
1.0 1.0 1.0 1.0 1.0 1.0 1.0 1.0
1.0 1.0 1.0 1.0 1.0 1.0 1.0 1.0
1.0 1.0 1.0 1.0 1.0 1.0 1.0 1.0
1.0 1.0 1.0 1.0 1.0 1.0 1.0 1.0
1.0 1.0 1.0 1.0 1.0 1.0 1.0 1.0
1.0 1.0 1.0 1.0 1.0 1.0 1.0 1.0
1.0 1.0 1.0 1.0 1.0 1.0 1.0 1.0
1.0 1.0 1.0 1.0 1.0 1.0 1.0 1.0
1.0 1.0 1.0 1.0 1.0 1.0 1.0 1.0
1.0 1.0 1.0 1.0 1.0 1.0 1.0 1.0
1.0 1.0 1.0 1.0 1.0 1.0 1.0 1.0
1.0 1.0 1.0 1.0 1.0 1.0 1.0 1.0
00000000: 0000 803f 0000 803f 0000 803f 0000 803f
00000010: 0000 803f 0000 803f 0000 803f 0000 803f
00000020: 0000 803f 0000 803f 0000 803f 0000 803f
00000030: 0000 803f 0000 803f 0000 803f 0000 803f
00000040: 0000 803f 0000 803f 0000 803f 0000 803f
00000050: 0000 803f 0000 803f 0000 803f 0000 803f
00000060: 0000 803f 0000 803f 0000 803f 0000 803f
00000070: 0000 803f 0000 803f 0000 803f 0000 803f
00000080: 0000 803f 0000 803f 0000 803f 0000 803f
00000090: 0000 803f 0000 803f 0000 803f 0000 803f
000000a0: 0000 803f 0000 803f 0000 803f 0000 803f
000000b0: 0000 803f 0000 803f 0000 803f 0000 803f
000000c0: 0000 803f 0000 803f 0000 803f 0000 803f
000000d0: 0000 803f 0000 803f 0000 803f 0000 803f
000000e0: 0000 803f 0000 803f 0000 803f 0000 803f
000000f0: 0000 803f 0000 803f 0000 803f 0000 803f
00000100: 0000 803f 0000 803f 0000 803f 0000 803f
00000110: 0000 803f 0000 803f 0000 803f 0000 803f
00000120: 0000 803f 0000 803f 0000 803f 0000 803f
00000130: 0000 803f 0000 803f 0000 803f 0000 803f
00000140: 0000 803f 0000 803f 0000 803f 0000 803f
00000150: 0000 803f 0000 803f 0000 803f 0000 803f
00000160: 0000 803f 0000 803f 0000 803f 0000 803f
00000170: 0000 803f 0000 803f 0000 803f 0000 803f
00000180: 0000 803f 0000 803f 0000 803f 0000 803f
00000190: 0000 803f 0000 803f 0000 803f 0000 803f
000001a0: 0000 803f 0000 803f 0000 803f 0000 803f
000001b0: 0000 803f 0000 803f 0000 803f 0000 803f
000001c0: 0000 803f 0000 803f 0000 803f 0000 803f
000001d0: 0000 803f 0000 803f 0000 803f 0000 803f
000001e0: 0000 803f 0000 803f 0000 803f 0000 803f
000001f0: 0000 803f 0000 803f 0000 803f 0000 803f

std.constant10 f4 [128]
0.07221585 -0.0072389767 0.03822181 -0.008237236 -0.002929271 0.04122331 0.022132523 0.014308415
0.014773855 -0.008617089 0.02969785 0.0301152 0.12714177 -0.0019109639 0.10150571 0.08794806
0.0075471876 0.04001403 0.026525624 0.03282767 0.0144828 0.014730919 0.02925089 0.06304981
-0.0024985143 0.05179524 0.07751601 0.09566254 -0.0056436216 -0.0053081894 0.00088776654 -0.021140754
0.1328935 0.01269958 0.025119785 -0.0027412255 0.026191682 0.0616267 0.03274562 0.0142470645
-0.0042654327 0.09776331 0.10967259 -0.017907605 -0.00594041 0.049490657 -0.0039756745 0.029200185
0.035056435 0.019887205 0.021785732 0.016194649 0.008845669 -0.0022997546 0.037711523 0.17235269
0.041558042 0.042185616 0.0022686962 0.015727932 0.037602227 -0.0045775548 0.029533539 0.1325796
0.027816987 0.029810095 0.015417752 0.04376544 0.035132024 -0.014670554 0.16158867 0.008300768
0.01918182 0.014105705 0.09650861 0.05264225 0.03528829 -0.00553783 0.0069418945 0.013985145
0.0537276 0.02580251 0.056512967 0.11559508 0.03393796 -0.004885473 0.0336037 0.029743064
0.03503121 0.01882739 0.02402015 0.010797619 0.008887546 0.021166228 -0.0023435242 -0.0055542863
-0.018207895 0.028848998 0.0118886335 0.031001778 -0.0018918291 0.025279406 0.18945184 0.017255394
0.0028163388 0.003748697 0.02943571 0.036823854 0.013218952 -0.0064259926 0.02943753 0.08797581
-0.023080708 0.0016231749 0.08773246 0.03655004 -0.0072093285 0.065029316 0.023651974 0.006143796
0.023577945 0.069982 0.031015394 0.014930236 0.07905176 0.08070465 0.021644924 0.00026803333
00000000: e7e5 933d f034 edbb 798e 1c3d 79f5 06bc
00000010: 03f9 3fbb c6d9 283d 444f b53c d86d 6a3c
00000020: 0a0e 723c b12e 0dbc e848 f33c 27b4 f63c
00000030: 7431 023e 4f79 faba 3ae2 cf3d 1d1e b43d
00000040: 664e f73b c0e5 233d 444c d93c 4f76 063d
00000050: 4449 6d3c f459 713c 909f ef3c 4220 813d
00000060: 1dbe 23bb 3f27 543d b7c0 9e3d b9ea c33d
00000070: 21ee b8bb 52f0 adbb 01b9 683a 602f adbc
00000080: 3c15 083e e611 503c 02c8 cd3c 22a6 33bb
00000090: f08f d63c 476c 7c3d 4520 063d 856c 693c
000000a0: 0bc5 8bbb 2138 c83d 069c e03d f8b2 92bc
000000b0: c5a7 c2bb b7b6 4a3d 6046 82bb 3a35 ef3c
000000c0: 5697 0f3d 7eea a23c fe77 b23c a4aa 843c
000000d0: 6ded 103c 7bb7 16bb 6677 1a3d 397d 303e
000000e0: c438 2a3d d3ca 2c3d 68ae 143b ddd7 803c
000000f0: cb04 1a3d 50ff 95bb 52f0 f13c f2c2 073e
00000100: 73e0 e33c 4d34 f43c bd9a 7c3c 6443 333d
00000110: 99e6 0f3d c35c 70bc 8077 253e f2ff 073c
00000120: 3123 9d3c 9d1b 673c 4ea6 c53d 669f 573d
00000130: 748a 103d af76 b5bb d578 e33b f321 653c
00000140: 7911 5c3d c95f d33c 247a 673d 1dbd ec3d
00000150: 8802 0b3d 5116 a0bb 09a4 093d baa7 f33c
00000160: e37c 0f3d e63b 9a3c e8c5 c43c 7fe8 303c
00000170: 129d 113c cc64 ad3c d095 19bb bb00 b6bb
00000180: b928 95bc bc54 ec3c 8bc8 423c 71f7 fd3c
00000190: 40f7 f7ba c216 cf3c aaff 413e 2f5b 8d3c
000001a0: 5392 383b b3ac 753b 2823 f13c 9cd4 163d
000001b0: 4e94 583c 2291 d2bb fa26 f13c a92c b43d
000001c0: c113 bdbc b6c0 d43a 13ad b33d 7fb5 153d
000001d0: 3b3c ecbb 172e 853d c9c1 c13c e551 c93b
000001e0: 8926 c13c b952 8f3d ff13 fe3c f39d 743c
000001f0: e4e5 a13d 7b48 a53d b250 b13c d386 8c39

std.constant11 f4 [128, 7]
0.0610765 0.09902774 0.044499464 -0.049425278 0.09149316 0.12844905 -0.020240733 -0.03096926
-0.023230942 -0.05583818 0.08674327 0.110968836 -0.05221538 0.077919066 0.060597926 0.10169465
0.030793412 0.042573825 0.019838344 -0.064778194 0.10572805 0.09416697 0.0653758 0.05676854
-0.0359075 -0.035096116 0.022800712 0.09101121 -0.05464223 -0.095757574 0.070380144 -0.014672217
0.03501151 0.046737455 0.13098334 0.06165417 -0.037458193 -0.029290441 0.005659883 0.04549121
-0.046981424 0.13258803 0.032276712 -0.053945288 0.09401958 0.012807155 -0.03759785 0.11480532
0.07211469 0.035086066 -0.06373828 0.10391223 0.07989488 -0.06695369 0.09721319 0.02632024
-0.101086 0.04435055 -0.025616689 0.031196462 0.10614655 0.073248 -0.025281623 0.01781209
-0.041512836 -0.041602135 0.0076351515 -0.028894288 -0.021855878 -0.09168368 -0.01970288 -0.057360813
0.014328996 0.10539472 -0.06315618 -0.06577078 0.1515811 0.055990994 0.0071871947 0.0204976
-0.017394599 0.108460136 0.0017438004 -0.026490156 0.05249579 0.06711512 0.17285569 0.09272179
0.072856195 0.07518877 0.005627302 -0.034329433 0.107928164 0.10087392 -0.04181438 0.08298959
0.0140660405 0.013390603 -0.011854569 0.090446465 0.07700419 0.12178954 0.043476943 0.06593308
0.111525156 0.13624616 0.066138774 0.14018193 -0.020321505 -0.019282049 0.10146681 0.026978029
-0.04925408 0.086013556 -0.049113076 0.066553555 -0.10391502 0.104127295 -0.021264164 0.08457947
0.014323033 0.0943586 -0.040030915 -0.09456669 0.05114299 0.07184895 0.09968334 0.048377313
0.025149228 0.024377462 0.018313585 0.020867918 0.00516487 0.00981523 0.14576037 0.111854926
0.046892807 -0.05573393 0.11860403 0.12635508 0.10220282 0.036473837 0.028912768 -0.05933807
0.08530722 0.084579684 -0.03645968 -0.08259146 -0.0052489573 0.07834918 0.03277429 0.07659891
0.026916858 -0.058605973 0.04891087 -0.04317632 -0.027757023 0.062448036 0.118541 -0.06284395
-0.015681455 -0.0069306386 0.09902256 -0.0062368847 0.14864506 0.11930931 0.038416628 0.17089207
0.084387936 0.08864797 0.031288642 -0.03174313 -0.058647335 0.08181534 0.05072662 -0.04423594
0.079665326 0.078209125 0.0035395816 0.06570079 0.07239357 0.11819822 0.13078792 0.06579649
0.0242949 0.02346758 0.14663714 0.12544233 0.07052001 0.08870569 0.11159607 0.01740353
0.055619996 -0.037615813 0.026013697 0.17236295 0.010957417 -0.055173706 0.031174242 0.04969803
-0.06426595 0.08604978 0.10548393 -0.04275284 -0.068230435 -0.049739968 0.052459203 -0.08897507
0.093111575 0.09243084 -0.030208617 -0.0687054 -0.064136066 0.07069415 -0.027326414 0.003125273
0.15881744 -0.0472155 -0.076125756 0.046637613 0.07833999 -0.01774209 0.0057497043 -0.020816024
0.006970106 0.14995472 0.18082112 0.14871496 -0.0014881598 0.01958056 0.13463517 -0.014415105
0.044548716 -0.06552717 -0.013365397 0.08146582 0.061305296 0.101288676 0.1364747 0.021359157
-0.009936366 -0.0008449073 0.12728083 -0.006599826 0.046387114 0.024106372 0.04228091 0.08076742
0.03549778 0.039576728 -0.053329576 0.10852049 -0.052452184 -0.047821786 0.08384074 0.058872003
00000000: 5a2b 7a3d 0ecf ca3d 1245 363d 2972 4abd
00000010: c460 bb3d 2688 033e e5cf a5bc 3fb3 fdbc
00000020: d14e bebc 93b6 64bd 75a6 b13d a143 e33d
00000030: cbdf 55bd 0894 9f3d 8835 783d 4945 d03d
00000040: 7742 fc3c e461 2e3d 0684 a23c 6eaa 84bd
00000050: f387 d83d 9dda c03d bfe3 853d 2186 683d
00000060: be13 13bd f2c0 0fbd 8fc8 ba3c 1664 ba3d
00000070: 88d0 5fbd 8c1c c4bd 7723 903d bd63 70bc
00000080: 3b68 0f3d c66f 3f3d 7f20 063e 1589 7c3d
00000090: c36d 19bd 82f2 efbc 8a76 b93b fe54 3a3d
000000a0: 986f 40bd 28c5 073e 9634 043d bcf5 5cbd
000000b0: 568d c03d 1ad5 513c 3400 1abd 0d1f eb3d
000000c0: deb0 933d 68b6 0f3d 3789 82bd efcf d43d
000000d0: ed9f a33d 041f 89bd b517 c73d 8b9d d73c
000000e0: 2d06 cfbd eca8 353d 17da d1bc b98f ff3c
000000f0: 5d63 d93d 0c03 963d 681b cfbc a9ea 913c
00000100: 5d09 2abd 0067 2abd 4b30 fa3b b7b3 ecbc
00000110: 190b b3bc a7c4 bbbd ef67 a1bc 2cf3 6abd
00000120: 2ac4 6a3c 30d9 d73d 0758 81bd d5b2 86bd
00000130: 1338 1b3e d056 653d 8f82 eb3b 95ea a73c
00000140: 1e7f 8ebc 5920 de3d 3b90 e43a e201 d9bc
00000150: d305 573d a773 893d 1501 313e ece4 bd3d
00000160: a135 953d 92fc 993d 3b65 b83b 059d 0cbd
00000170: 7109 dd3d fc96 ce3d 8e45 2bbd 72f6 a93d
00000180: 4075 663c 4264 5b3c ab39 42bc ff3b b93d
00000190: 5fb4 9d3d cb6c f93d e114 323d ec07 873d
000001a0: 4d67 e43d 1d84 0b3e c473 873d da8b 0f3e
000001b0: 4979 a6bc 63f5 9dbc d5cd cf3d 0701 dd3c
000001c0: a5be 49bd e027 b03d cb2a 49bd 3b4d 883d
000001d0: 66d1 d4bd b140 d53d 2f32 aebc 0038 ad3d
000001e0: 28ab 6a3c 153f c13d 75f7 23bd 2eac c1bd
000001f0: 507b 513d 8b25 933d c726 cc3d 4a27 463d
00000200: c105 ce3c 3eb3 c73c 5f06 963c 32f3 aa3c
00000210: 123e a93b 0fd0 203c 3542 153e 3214 e53d
00000220: ac12 403d 4349 64bd abe6 f23d 3a63 013e
00000230: b64f d13d 9765 153d 78da ec3c 7a0c 73bd
00000240: 8db5 ae3d 1d38 ad3d bf56 15bd b625 a9bd
00000250: 72ff abbb 8975 a03d 553e 063d e4df 9c3d
00000260: be80 dc3c d10c 70bd c456 483d a7d9 30bd
00000270: b262 e3bc 83c9 7f3d a0c5 f23d 54b4 80bd
00000280: 6576 80bc 691a e3bb 57cc ca3d c85e ccbb
00000290: 6936 183e 7158 f43d c15a 1d3d 55fe 2e3e
000002a0: 95d3 ac3d 118d b53d 8528 003d 1605 02bd
000002b0: 3038 70bd cd8e a73d b7c6 4f3d bf30 35bd
000002c0: 9327 a33d 1b2c a03d 53f8 673b 238e 863d
000002d0: 1443 943d e911 f23d 45ed 053e 4fc0 863d
000002e0: 1906 c73c 153f c03c 0c28 163e f473 003e
000002f0: cc6c 903d 54ab b53d 7b8c e43d d991 8e3c
00000300: cbd1 633d 0a13 1abd ad1a d53c ea7f 303e
00000310: bd86 333c d3fd 61bd 2061 ff3c 2990 4b3d
00000320: de9d 83bd de3a b03d f507 d83d 9a1d 2fbd
00000330: 66bc 8bbd 23bc 4bbd 76df 563d 9038 b6bd
00000340: 48b1 be3d 614c bd3d 1078 f7bc 6bb5 8cbd
00000350: c559 83bd 18c8 903d a5db dfbc 61d1 4c3b
00000360: 0aa1 223e 0a65 41bd d2e7 9bbd 1507 3f3d
00000370: b770 a03d dc57 91bc 0468 bc3b 5e86 aabc
00000380: 7d65 e43b bb8d 193e 2c29 393e bc48 183e
00000390: 5b0e c3ba 6967 a03c cddd 093e 552d 6cbc
000003a0: b778 363d 1c33 86bd 8afa 5abc 8dd7 a63d
000003b0: 431b 7b3d 7070 cf3d 06c0 0b3e 66f9 ae3c
000003c0: 24cc 22bc c57c 5dba e855 023e 5a43 d8bb
000003d0: 6a00 3e3d ba7a c53c bf2e 2d3d 6469 a53d
000003e0: 1f66 113d 351b 223d 1d70 5abd fe3f de3d
000003f0: 1ad8 56bd c7e0 43bd b2b4 ab3d c523 713d

std.constant12 f4 [128, 7]
-0.054278955 0.08535811 -0.064909756 -0.09322382 0.051903114 0.058495913 0.14994814 -0.07935831
-0.028934086 0.09612626 0.10111918 -0.022797573 0.10479656 -0.027542891 0.060748387 -0.109885044
-0.08002324 -0.039908767 -0.006687662 0.0367501 -0.18322709 -0.06482595 0.014296166 -0.069340035
0.07990588 0.06089764 0.07455024 0.032466795 -0.028852394 -0.026632002 -0.050621495 0.060089268
-0.08423444 -0.11716883 0.017314987 0.0058973674 -0.011248547 0.03260103 0.035617765 -0.039366085
-0.027178572 -0.13527116 0.03537009 0.000100450095 0.027205842 -0.08989475 -0.08991986 -0.0184112
-0.11368758 0.0134503255 -0.013361448 -0.0451515 0.04378982 -0.082218826 0.0019613572 -0.10344943
-0.040458854 0.02991123 0.0020327123 0.056970708 -0.008512448 -0.05585056 -0.081654705 -0.017995635
-0.038848534 0.048112784 -0.022371087 -0.00080167386 0.08186249 0.03344112 -0.0048219976 0.0871564
0.04225793 0.046737764 0.08898549 0.088920675 0.17714576 0.09314586 -0.035458267 -0.06630321
-0.028470773 0.029812671 0.08214076 0.103673436 0.061237738 -0.08102894 0.06921425 0.017873524
-0.022813521 -0.091452695 0.15028976 -0.024555827 0.12048808 0.08477859 -0.01984582 0.086855866
0.024578447 -0.0010321968 -0.119309075 0.071357585 0.08114343 0.065221384 -0.041035276 0.051030315
-0.19314274 -0.06341282 -0.06342427 0.04769433 0.0801068 0.10496318 -0.08425063 -0.20941663
0.090560615 0.025817936 -0.04590469 -0.036933735 0.06611318 0.03839802 0.06756396 -0.043288387
0.10055267 -0.049676567 0.097415276 -0.04478143 0.05913721 0.13319284 0.039417293 -0.020444201
-0.07620235 0.070417054 0.10883307 0.0923828 -0.108306155 -0.07745077 0.099753335 0.031016625
0.11067758 0.041550048 0.01253771 0.17934519 -0.098847106 0.041785605 -0.0020464105 -0.07131516
-0.029573219 0.08436112 -0.076729 0.03195719 0.056989916 0.017514916 0.02644801 0.05338181
-0.01887851 -0.07012352 -0.12624481 -0.09811581 -0.10277685 0.008537115 -0.05528694 -0.053039543
-0.18080315 -0.09247555 0.04178325 0.04040873 -0.11611744 0.045523282 0.08092763 -0.17360698
-0.041565623 -0.014151978 -0.027578935 -0.110907175 0.051762473 -0.06978971 0.028592383 -0.094228625
0.015057096 0.053072132 0.080598295 -0.05046337 0.075917915 -0.134159 0.06832741 -0.053484824
-0.029756254 -0.09564163 0.0086405855 0.12025988 0.21544527 -0.09469461 -0.096699744 0.013203977
0.057372216 0.112237915 0.070748076 -0.2080585 -0.072098285 -0.11699707 -0.03720331 0.04794289
-0.082843594 -0.010369011 0.05360055 -0.11344426 -0.09530545 -0.07854438 0.075357415 -0.0040796376
-0.0198892 0.047217242 0.084866084 0.011335569 0.09293806 -0.068107285 0.012298756 0.098039865
0.012571037 0.032233793 0.07505569 0.057239976 0.064572416 -0.04858755 -0.0014350015 -0.004879009
0.10636391 -0.06608023 -0.020365527 -0.076831885 0.063845456 -0.04767714 0.18451078 -0.11510078
-0.081254184 -0.0115691 0.0070030103 -0.047004923 0.0056927986 -0.09213409 0.09875777 0.10371674
-0.0003472856 -0.08103816 0.10436975 0.00894057 0.116915256 0.116920836 -0.06800823 0.09301403
0.0608811 -0.047482997 0.07761226 0.0009584704 -0.12578195 -0.09561706 0.08191762 -0.0032586418
00000000: 9c53 5ebd 3cd0 ae3d 68ef 84bd 21ec bebd
00000010: 5c98 543d 6999 6f3d 018c 193e 9c86 a2bd
00000020: 2d07 edbc d8dd c43d 9317 cf3d fac1 babc
00000030: 949f d63d a1a1 e1bc 4dd3 783d 690b e1bd
00000040: 39e3 a3bd 6077 23bd 2d24 dbbb 4687 163d
00000050: e29f 3bbe 78c3 84bd 773a 6a3c 2602 8ebd
00000060: b2a5 a33d ce6f 793d ccad 983d e7fb 043d
00000070: db5b ecbc 5b2b dabc 7c58 4fbd 2a20 763d
00000080: 1b83 acbd 36f6 efbd 29d8 8d3c b43e c13b
00000090: d34b 38bc a888 053d efe3 113d 553e 21bd
000000a0: 99a5 debc 8684 0abe 3ae0 103d bca8 d238
000000b0: c9de de3c bd1a b8bd e727 b8bd 16d3 96bc
000000c0: 09d5 e8bd c15e 5c3c fae9 5abc c7f0 38bd
000000d0: f45c 333d 5862 a8bd 1d8a 003b 4bdd d3bd
000000e0: 2fb8 25bd 6508 f53c 4137 053b 1e5a 693d
000000f0: cb77 0bbc 8fc3 64bd 953a a7bd 956b 93bc
00000100: a41f 1fbd e911 453d 9243 b7bc 6c27 52ba
00000110: 85a7 a73d 8ef9 083d d901 9ebb 0e7f b23d
00000120: a716 2d3d 1970 3f3d 063e b63d 0b1c b63d
00000130: b365 353e 42c3 be3d b03c 11bd fac9 87bd
00000140: 8a3b e9bc b439 f43c 6a39 a83d bd52 d43d
00000150: 6cd4 7a3d 80f2 a5bd 33c0 8d3d 7f6b 923c
00000160: 6ce3 babc 8d4b bbbd 8fe5 193e 4d29 c9bc
00000170: 74c2 f63d 66a0 ad3d b393 a2bc 7de1 b13d
00000180: bd58 c93c c74a 87ba 5158 f4bd ed23 923d
00000190: 872e a63d ca92 853d 9b14 28bd 2a05 513d
000001a0: 36c7 45be 95de 81bd 95e4 81bd 215b 433d
000001b0: 090f a43d f0f6 d63d 988b acbd 5071 56be
000001c0: d877 b93d 2380 d33c 8e06 3cbd d447 17bd
000001d0: 5966 873d 3e47 1d3d f95e 8a3d 2a4f 31bd
000001e0: 8fee cd3d a879 4bbd a981 c73d bc6c 37bd
000001f0: dc39 723d b463 083e 0774 213d 997a a7bc
00000200: fa0f 9cbd d136 903d dfe3 de3d 3233 bd3d
00000210: 9ecf ddbd 829e 9ebd 7a4b cc3d 9416 fe3c
00000220: edaa e23d 6230 2a3d f86a 4d3c 44a6 373e
00000230: 5a70 cabd 6227 2b3d 121d 06bb af0d 92bd
00000240: 8943 f2bc 86c5 ac3d 1824 9dbd 8be5 023d
00000250: 426e 693d 717b 8f3c 7fa9 d83c e3a6 5a3d
00000260: 1ba7 9abc ec9c 8fbd 5246 01be f1f0 c8bd
00000270: ab7c d2bd 41df 0b3c 8f74 62bd fe3f 59bd
00000280: 7624 39be d263 bdbd ea24 2b3d a083 253d
00000290: fbce edbd 9f76 3a3d 63bd a53d 07c6 31be
000002a0: b740 2abd b3dd 67bc 38ed e1bc 4d23 e3bd
000002b0: e304 543d e8ed 8ebd 933a ea3c f0fa c0bd
000002c0: 0ab2 763c 2a62 593d b810 a53d aeb2 4ebd
000002d0: da7a 9b3d fa60 09be 3eef 8b3d e712 5bbd
000002e0: 63c3 f3bc c2df c3bd 3e91 0d3c d04a f63d
000002f0: af9d 5c3e 3fef c1bd 840a c6bd 7e55 583c
00000300: 21ff 6a3d fedc e53d 5ee4 903d 4a0d 55be
00000310: 44a8 93bd 299c efbd 7f62 18bd c45f 443d
00000320: e7a9 a9bd c9e2 29bc 408c 5b3d 7755 e8bd
00000330: 812f c3bd e0db a0bd fd54 9a3d 7bae 85bb
00000340: adee a2bc de66 413d 45ce ad3d d3b8 393c
00000350: 4f56 be3d d57b 8bbd b980 493c 20c9 c83d
00000360: c0f6 4d3c 9507 043d ccb6 993d 7774 6a3d
00000370: 8b3e 843d bd03 47bd a916 bcba 18e0 9fbb
00000380: 52d5 d93d 1255 87bd 9bd5 a6bc 095a 9dbd
00000390: 68c1 823d 1b49 43bd 65f0 3c3e f5b9 ebbd
000003a0: 9868 a6bd 538c 3dbc 8279 e53b 3c88 40bd
000003b0: a88a ba3b ccb0 bcbd 8441 ca3d 7169 d43d
000003c0: e213 b6b9 56f7 a5bd cfbf d53d 787b 123c
000003d0: 4471 ef3d 3174 ef3d e647 8bbd 247e be3d
000003e0: 765e 793d 887d 42bd 2df3 9e3d dc41 7b3a
000003f0: fccc 00be e1d2 c3bd 6dc4 a73d f08e 55bb
