AirQualityApp/AirQualityApp.Android/Assets/ParisShort.tflite (tflite, 814936 bytes, 24 tensors)

std.constant3 f4 [128, 128]
0.002628015 0.10615506 0.016608983 -0.027690575 0.02192846 0.035263676 -0.0792515 0.015987216
0.026904356 -0.084710956 0.08958289 -0.04428574 -0.053411104 0.018447991 0.025200173 0.03794868
0.032392066 -0.023082817 -0.07276615 -0.04853974 0.016275845 0.063897535 0.013675738 0.02260603
0.028598176 -0.053065483 -0.06917436 0.08240603 -0.035106592 -0.042189077 -0.04001577 0.06262099
-0.018599274 0.0040438375 0.004825256 -0.009365609 0.007399529 -0.007876879 -0.012136285 0.0023062616
5.5583427e-05 0.015104749 -0.007098973 0.01010683 -0.054533493 -0.05718695 0.013004169 -0.06654482
-0.079753645 0.052782 0.0071901344 0.0052839555 -0.06295839 0.0033077868 -0.011276132 -0.005488475
-0.035344604 -0.10399663 -0.061617687 -0.09201717 -0.02831002 -0.037486196 0.030398125 -0.035324566
0.018482465 0.059944257 0.04024349 0.009803079 0.037222836 0.037559643 0.014038984 -0.004497711
0.0076877503 0.0033262344 -0.046363737 0.042096864 0.011342714 -0.040300697 0.0011189915 0.013972551
0.016138684 -0.005766799 -0.02818745 0.013021406 0.029843252 -0.045782957 0.01883212 0.023078112
0.0641723 0.0048513776 -0.03532182 0.021395542 0.023370828 -0.039978042 -0.0019593704 -0.08418805
-0.0034394166 0.033038817 -0.022158684 0.034766734 -0.02965167 -0.06461925 0.0037051681 0.027287459
-0.032422535 0.056195278 -0.0013346886 -0.037610278 0.018392857 0.007915023 -0.04008318 0.043460358
-0.022529678 0.01643228 -0.0018314943 0.069704816 -0.00053478405 -0.06280645 -0.004560274 0.07251396
0.0032573277 -0.06016158 -0.005023161 -0.10104443 -0.050001167 0.006609073 0.05519523 -0.036421515
0.012685924 -0.014900717 -0.017004548 -0.009598071 0.025079347 0.037337393 -0.014883835 0.0077089164
0.08953336 -0.013725201 0.02827906 0.01724676 -0.015872568 0.010040013 -0.03653923 -0.022629937
-0.10189924 -0.0429217 -0.054091536 -0.071721874 0.02240682 -0.11147769 0.026281022 -0.020194292
0.021674668 0.014007557 -0.01895142 -0.0076956796 0.018608445 0.003872321 0.06714141 -0.012835275
0.020895317 -0.039229587 0.013286307 -0.013941426 -0.05513475 0.055851318 0.006876529 0.02044381
0.055319544 0.017539699 -0.0032402184 -0.032720264 0.035788685 0.01009492 -0.0027466472 0.018658806
-0.034797955 -0.028871657 0.025615545 -0.08194806 -0.03177906 0.015308395 0.007307247 0.02834681
-0.09433838 0.008873701 0.011454127 -0.014203966 0.029808937 0.09655447 0.05394144 -0.023994368
-0.022557843 -0.03903388 0.078751445 -0.05444515 9.8499004e-05 0.027531732 0.08096053 -0.006813147
-0.004382704 -0.00918105 0.017225508 0.028360968 -0.033551164 0.06548665 0.003748546 -0.046329383
-0.044743694 -0.07655466 -0.015151008 -0.03290848 -0.021850176 -0.014062003 -0.003328079 -0.040445153
0.016504351 -0.025826413 -0.022160525 0.072969556 -0.031724036 0.009697631 0.078268066 0.03861047
0.082149066 0.03682508 0.026815727 0.0020449264 0.041978866 0.003577631 0.030036 -0.07077458
-3.701914e-05 0.04582674 -0.0076425993 0.0635434 0.017393786 0.044868536 0.07050701 0.0037538242
0.072460145 -0.030054355 0.018744964 0.036926426 0.076908015 -0.011538867 0.020630665 -0.046369083
-0.060931925 -0.009728771 0.029955242 -0.03626278 0.08444132 0.010943331 -0.07165514 -0.07630913
00000000: c63a 2c3b d367 d93d 900f 883c 58d7 e2bc
00000010: 50a3 b33c a570 103d 9c4e a2bd 9ff7 823c
00000020: 8666 dc3c f07c adbd 3c77 b73d f764 35bd
00000030: 9ac5 5abd 3e20 973c 9870 ce3c 1370 1b3d
00000040: 8bad 043d 2d18 bdbc 6b06 95bd 9bd1 46bd
00000050: ec54 853c b6dc 823d 3410 603c 4830 b93c
00000060: b946 ea3c 315b 59bd 49ab 8dbd 7ec4 a83d
00000070: eecb 0fbd 74ce 2cbd 93e7 23bd 6f3f 803d
00000080: 815d 98bc 2b82 843b 2e1d 9e3b 3672 19bc
00000090: c077 f23b 060e 01bc 45d7 46bc a624 173b
000000a0: 4022 6938 e979 773c 809e e8bb 1e97 253c
000000b0: 835e 5fbd dd3c 6abd 700f 553c a748 88bd
000000c0: e155 a3bd f031 583d 389b eb3b 0825 ad3b
000000d0: 54f0 80bd 74c7 583b 87bf 38bc aad8 b3bb
000000e0: 81c5 10bd 2ffc d4bd d462 7cbd 7f73 bcbd
000000f0: 6aea e7bc 208b 19bd 7d05 f93c 7eb0 10bd
00000100: 8a68 973c 1c88 753d 5cd6 243d 189d 203c
00000110: f976 183d 24d8 193d c403 663c 8961 93bb
00000120: 86e9 fb3b f4fc 593b e7e7 3dbd c36d 2c3d
00000130: cad6 393c 5812 25bd 20ab 923a 20ed 643c
00000140: 4635 843c 6bf7 bcbb 5ee9 e6bc bc57 553c
00000150: d679 f43c e986 3bbd d145 9a3c 4f0e bd3c
00000160: c46c 833d 4ef8 9e3b 9dad 10bd b445 af3c
00000170: 2e74 bf3c 04c0 23bd c868 00bb c96a acbd
00000180: d667 61bb b653 073d 2186 b5bc 9067 0e3d
00000190: 0fe8 f2bc 1957 84bd 68d2 723b f389 df3c
000001a0: 7ecd 04bd 052d 663d b8f0 aeba 3c0d 1abd
000001b0: 9eac 963c 03ae 013c 432e 24bd 7d03 323d
000001c0: 2990 b8bc fd9c 863c c00e f0ba 66c1 8e3d
000001d0: c030 0cba aba0 80bd 5a6e 95bb 3382 943d
000001e0: e478 553b fd6b 76bd 5499 a4bb 62f0 cebd
000001f0: 06ce 4cbd ec90 d83b 6514 623d ba2e 15bd
00000200: 9fd8 4f3c 2322 74bc 1f4d 8bbc 3a41 1dbc
00000210: 3473 cd3c 18ef 183d 54db 73bc 149b fc3b
00000220: 445d b73d aadf 60bc 7da9 e73c 1449 8d3c
00000230: 3007 82bc de7e 243c 29aa 15bd 6b62 b9bc
00000240: 8cb0 d0bd aace 2fbd 168f 5dbd ebe2 92bd
00000250: 828e b73c 6a4e e4bd 4c4b d73c 806e a5bc
00000260: 138f b13c f47f 653c 0240 9bbc 0a2c fcbb
00000270: bd70 983c c4c6 7d3b 7081 893d 0c4b 52bc
00000280: a82c ab3c 34af 20bd d0ae 593c 946a 64bc
00000290: fad4 61bd 5ac4 643d 8254 e13b c779 a73c
000002a0: bf96 623d 6aaf 8f3c d859 54bb af05 06bd
000002b0: 2897 123d 2a65 253c 1801 34bb 5ada 983c
000002c0: 4d88 0ebd 4184 ecbc b1d7 d13c 62d4 a7bd
000002d0: c22a 02bd 10d0 7a3c a171 ef3b 9237 e83c
000002e0: 7b34 c1bd 0063 113c 17aa 3b3c c0b7 68bc
000002f0: df31 f43c 5abe c53d b3f1 5c3d d68f c4bc
00000300: 3acb b8bc fde1 1fbd 7048 a13d e101 5fbd
00000310: 4091 ce38 3a8a e13c a2ce a53d d240 dfbb
00000320: c99c 8fbb 1d6c 16bc 821c 8d3c 4355 e83c
00000330: f26c 09bd dd1d 863d 2aaa 753b e1c3 3dbd
00000340: 2a45 37bd b1c8 9cbd ef3b 78bc 0bcb 06bd
00000350: 24ff b2bc 5164 66bc e61b 5abb d1a9 25bd
00000360: 2234 873c ea91 d3bc fd89 b5bc 1071 953d
00000370: 10f1 01bd d0e2 1e3c 024b a03d 0326 1e3d
00000380: c53d a83d e5d5 163d a8ac db3c 2c04 063b
00000390: 08f2 2b3d b076 6a3b 0f0e f63c 43f2 90bd
000003a0: 0045 1bb8 d2b4 3b3d c56e fabb 0b23 823d
000003b0: 6a7d 8e3c 12c8 373d fb65 903d b802 763b
000003c0: fc65 943d 8d34 f6bc 0a8f 993c 2a40 173d
000003d0: f381 9d3d 840d 3dbc a401 a93c 82ed 3dbd
000003e0: c193 79bd 6c65 1fbc b264 f53c 4888 14bd
000003f0: 92ef ac3d a84b 333c eebf 92bd f647 9cbd

std.constant4 f4 [128, 128]
0.010988039 0.010858365 0.078941576 0.023335932 0.024142142 0.036601774 -0.014441511 0.06251452
0.024392582 0.03782976 0.018964479 0.020785678 -0.046753854 0.037535455 0.048080776 0.07482907
0.029871881 0.02658609 0.008885195 0.006772773 0.062395032 0.03406005 -0.0048665917 0.021260906
-0.03244344 0.003924184 -0.003057344 -0.038791034 -0.051069167 0.013177879 0.023604363 0.058376875
0.08539003 -0.021924872 0.02835794 -0.008351948 -0.040440876 0.101808116 -0.034893934 0.039711736
-0.04647556 -0.00033545005 0.060871847 0.036046572 -0.0076485137 0.024594346 -0.0034654345 -0.024828909
-0.023490919 -0.012623541 0.014218409 0.04416804 0.10448804 0.02928648 0.05285159 0.06390544
0.032633644 0.07044643 0.026959404 0.04391465 0.047624804 -0.02504409 0.03394775 0.04709769
0.013164519 0.027630419 0.040378023 -0.026501171 0.046129234 -0.014800131 0.03865502 0.01242824
0.009063835 0.014870467 0.077627845 -0.04204576 0.037466466 0.034061886 0.06916966 0.008966501
0.048801802 -0.016798658 0.030976782 0.02101681 0.045725286 0.009638321 0.06102844 -0.04116288
0.09204523 0.046730693 -0.059200786 0.013520241 0.033989534 -0.08202381 0.091154255 0.048990063
-0.013794705 0.027277237 -0.0308571 0.016207533 0.055693883 -0.043673486 0.014442375 -0.029613491
-0.08140291 0.08239725 -0.09078353 -0.017738357 -0.015835755 -0.026888 0.061308626 -0.01961497
-0.022978486 -0.076670974 0.058058113 0.024185207 0.008710651 -0.016380139 0.07627978 -0.029717954
-0.03311884 -0.03292078 0.065923646 -0.031348914 -0.004717567 0.0072479444 -0.035600252 0.026430473
-0.012920984 -0.048514586 0.034172833 0.058441333 0.0053849816 0.0034035179 0.0029402145 0.031174012
0.011657186 0.024190994 0.03934751 -0.010802741 0.063438356 -0.0030538747 0.07950579 0.05102972
0.058854084 -0.07327542 0.0010122319 0.008739374 0.09019602 0.049232922 -0.082739845 0.13142538
-0.047559723 -0.046781436 0.015175052 -0.022130454 -0.040541034 -0.0342164 0.036149587 -0.03258922
-0.015591512 0.029604174 -0.03728702 -0.0096484935 0.097045325 -0.008528568 0.013843866 -0.011037536
-0.018818842 -0.031236257 0.008555727 0.0101360995 -0.02934631 -0.0063601267 0.06205941 0.048835114
-0.028104905 -0.025107946 -0.062939666 0.08788196 -0.046156216 -0.06964304 0.031677928 -0.015182374
-0.051225677 0.016687764 0.03723067 0.05175839 0.02860983 0.071389295 0.030535739 -0.10317534
-0.024837673 -0.041921575 0.045592092 -0.0015458288 0.03607231 -0.020008052 0.059774514 0.051171735
-0.020640763 0.03929343 -0.030641267 0.075402424 0.011434776 -0.08634728 0.009361538 -0.0070215818
-0.0019373312 0.017692048 -0.028231822 0.054253984 -0.0088098105 -0.061305363 0.031257328 -0.014178972
0.022041446 0.04118647 0.0043635117 0.03378714 0.03579522 0.021537695 0.016628655 -0.09496869
0.0060102753 0.035904996 0.08306621 -0.0052809417 0.015329908 0.02242352 0.080684386 -0.023140695
-0.0045060925 0.008021674 -8.572079e-05 -0.06106898 0.009510351 -0.0077301245 0.0073801624 0.044334542
0.038511362 0.022132738 -0.028968014 0.05839575 0.010763422 -0.03965176 -0.030904476 0.04823655
0.027479095 -0.07890072 -0.020887509 -0.01825946 0.063749164 0.02830427 0.06623135 -0.06597048
00000000: 2d07 343c 49e7 313c 1fac a13d ff2a bf3c
00000010: bec5 c53c beeb 153d 169c 6cbc 9d07 803d
00000020: f4d2 c73c 61f3 1a3d 655b 9b3c ba46 aa3c
00000030: f880 3fbd c7be 193d 59f0 443d fc3f 993d
00000040: e0b5 f43c 12cb d93c 3593 113c 23ee dd3b
00000050: ef91 7f3d 8d82 0b3d ee77 9fbb 5a2b ae3c
00000060: 6ae3 04bd 7196 803b b85d 48bb 59e3 1ebd
00000070: e72d 51bd 08e8 573c f05d c13c 971c 6f3d
00000080: f8e0 ae3d ca9b b3bc e94e e83c 9cd6 08bc
00000090: 55a5 25bd c680 d03d f1ec 0ebd c6a8 223d
000000a0: 285d 3ebd 58df afb9 c254 793d 92a5 133d
000000b0: 62a0 fabb 157a c93c 581c 63bb ff65 cbbc
000000c0: 0770 c0bc f8d2 4ebc 54f4 683c 8ce9 343d
000000d0: d3fd d53d 33ea ef3c e97a 583d dbe0 823d
000000e0: dbaa 053d 3846 903d f8d9 dc3c d9df 333d
000000f0: 3a12 433d 4329 cdbc cc0c 0b3d 82e9 403d
00000100: ffaf 573c 3059 e23c 6d63 253d fc18 d9bc
00000110: 02f2 3c3d 407c 72bc ba54 1e3d d19f 4b3c
00000120: 7b80 143c 42a3 733c 59fb 9e3d 2d38 2cbd
00000130: 7076 193d 7a84 0b3d d3a8 8d3d 3be8 123c
00000140: 66e4 473d 579d 89bc 05c3 fd3c 722b ac3c
00000150: 704a 3b3d 0cea 1d3c f5f8 793d 689a 28bd
00000160: 3682 bc3d af68 3f3d 867c 72bd 0084 5d3c
00000170: 9c38 0b3d 19fc a7bd 15af ba3d cea9 483d
00000180: 3003 62bc 8374 df3c 07c8 fcbc a9c5 843c
00000190: 451f 643d f8e2 32bd b69f 6c3c fe97 f2bc
000001a0: 92b6 a6bd e4bf a83d b7ec b9bd 0850 91bc
000001b0: fcb9 81bc 3944 dcbc c11e 7b3d 93af a0bc
000001c0: 613d bcbc ac05 9dbd 58ce 6d3d 0e20 c63c
000001d0: 1eb7 0e3c a42f 86bc 9338 9c3d 1173 f3bc
000001e0: 9fa7 07bd f1d7 06bd fa02 873d b867 00bd
000001f0: d295 9abb 2a80 ed3b 92d1 11bd b884 d83c
00000200: 89b2 53bc 3bb7 46bd d0f8 0b3d 2e60 6f3d
00000210: 8074 b03b 8e0d 5f3b 9db0 403b a460 ff3c
00000220: c8fd 3e3c 312c c63c db2a 213d fbfd 30bc
00000230: f8eb 813d 8423 48bb eed3 a23d 8a04 513d
00000240: fb10 713d 6c11 96bd deac 843a 972f 0f3c
00000250: b1b8 b83d 76a8 493d 8273 a9bd 6094 063e
00000260: fccd 42bd e49d 3fbd c8a0 783c ed4a b5bc
00000270: 5b0e 26bd 7f26 0cbd 9711 143d 467c 05bd
00000280: 8b73 7fbc 7484 f23c 46ba 18bd b714 1ebc
00000290: b3bf c63d 68bb 0bbc 62d1 623c c8d6 34bc
000002a0: f929 9abc 2ee3 ffbc 522d 0c3c e211 263c
000002b0: ac67 f0bc 9c68 d0bb 0232 7e3d 5407 483d
000002c0: 423c e6bc 2eaf cdbc 83e6 80bd 75fb b33d
000002d0: 4d0e 3dbd 03a1 8ebd b7c0 013d 7ebf 78bc
000002e0: 04d2 51bd c7b4 883c 307f 183d 9b00 543d
000002f0: 2a5f ea3c 8d34 923d 1626 fa3c 984d d3bd
00000300: 6078 cbbc f5b5 2bbd c6be 3a3d 689d caba
00000310: 8fc0 133d ede7 a3bc 1fd6 743d 7499 513d
00000320: d116 a9bc 26f2 203d 6503 fbbc 966c 9a3d
00000330: ed58 3b3c d8d6 b0bd 2361 193c 4c15 e6bb
00000340: 0cee fdba eaee 903c 6c46 e7bc 6d39 5e3d
00000350: 0657 10bc 551b 7bbd af07 003d eb4e 68bc
00000360: 4390 b43c 25b3 283d cafb 8e3b 6264 0a3d
00000370: 029e 123d d26f b03c d138 883c f27e c2bd
00000380: d8f1 c43b 1e11 133d 9e1e aa3d c00b adbb
00000390: 4b2a 7b3c 88b1 b73c db3d a53d 8e91 bdbc
000003a0: d8a7 93bb 576d 033c 00c5 b3b8 7723 7abd
000003b0: 4ed1 1b3c fc4c fdbb 4ad5 f13b 2398 353d
000003c0: 17be 1d3d b74f b53c 544e edbc 6230 6f3d
000003d0: 1059 303c e269 22bd 622b fdbc b093 453d
000003e0: d71b e13c b396 a1bd 481c abbc dd94 95bc
000003f0: ec8e 823d 5bde e73c 4da4 873d 881b 87bd

std.constant5 f4 [128, 128]
0.026656618 0.020616258 -0.03487648 -0.026882172 0.0068382174 0.0013240171 0.023638336 -0.016742416
-0.052417338 0.013704415 -0.07738852 -0.020638952 -0.044518054 0.013149718 0.008408099 0.028217314
0.02696444 0.0036476995 -0.04389997 -0.017723992 0.023816656 0.014041097 0.04505902 -0.0035950746
-0.03025058 -0.017298078 -0.012757224 0.01168594 0.029725187 0.019552829 -0.0039292295 0.030906033
-0.00046653952 0.017550226 0.02806422 -0.02821309 -0.042334925 -0.09025475 0.016509235 -0.053523447
0.004698583 -0.053894736 0.034043647 -0.015425946 -0.032210402 -0.0059199985 -0.00860687 0.040087618
0.01859555 0.06748701 -0.051264163 0.018326776 -0.0061843013 -0.09033517 -0.0108160665 0.03460621
0.08876667 -0.0064559462 0.010431003 0.02884231 -0.027007088 -0.054756068 -0.02327643 -0.05104869
0.021416847 0.011702349 -0.0021991706 -0.0343748 -0.013719523 0.017634306 0.010936836 -0.02270322
0.041199986 0.05174723 -0.05487183 -0.026138477 0.052157827 0.010739237 -0.009274675 -0.06685177
0.024593115 0.0049838223 -0.028669793 -0.0953191 0.026179835 -0.0016640946 0.026372034 -0.08626198
-0.03587676 0.059911158 0.016944984 -0.046738643 -0.0033419847 -0.076513335 0.025361039 0.009885123
0.061815653 -0.08512247 -0.06122597 0.0143380035 -0.069558956 0.09013273 -0.064415455 -0.046142176
-0.050442092 0.05055184 -0.054664996 -0.084102064 0.05770218 -0.017927349 -0.04593952 0.061569437
0.058421586 0.049946822 0.024967669 0.025039058 -0.027254026 -0.06397838 0.09376913 -0.013710218
0.01919505 0.012522211 0.007930495 -0.019029137 -0.05470112 0.009742631 0.004778278 -0.045942362
0.089264065 -0.034320425 0.057102688 -0.03065642 0.075778775 -0.021087032 0.0039767944 -0.023292746
-0.030527031 -0.014626693 -0.047068965 0.0015199594 0.018138558 -0.019283244 0.0030762635 0.010751181
-0.005761793 -0.025522085 -0.08570803 -0.033789188 -0.04080169 0.013802406 -0.012345715 -0.008112542
0.0093749035 0.066596456 -0.12078827 0.022466574 -0.0212194 0.043581437 0.0052822437 -0.05459364
-0.01899691 0.063886866 -0.009741033 -0.079101965 0.0053960206 -0.030075796 -0.033112317 -0.0011964068
0.03580353 -0.000853695 -0.099138886 -0.06492505 -0.040670197 0.018504888 -0.0039177947 -0.03636185
0.09484681 0.0045701507 -0.05699072 0.018687682 0.02510099 -0.035161734 -0.0050390633 -0.05648076
-0.053053617 -0.067798816 -0.0054079746 0.0034692753 0.08772708 0.015324053 -0.038759515 0.053032406
-0.074466296 -0.0328271 -0.0051795095 0.0026522784 0.032257807 -0.004998749 0.051976386 -0.025731161
-0.0024016816 0.01768736 -0.0065211146 0.035823837 0.019709479 -0.026726646 0.017156757 0.05519761
-0.058928147 0.05133271 0.043118276 0.055404328 0.0385812 0.004356355 -0.035706338 0.06165615
-0.01947481 0.07403141 0.027796388 -0.0013963412 -0.008089017 -0.025567196 0.006631735 -0.03126363
-0.048546363 -0.009328101 0.04138833 0.034027446 -0.010178021 -0.05260746 -0.003452072 0.078015015
-0.04102326 0.074886106 -0.058502458 -0.053695183 -0.041849762 0.013904583 -0.00579866 0.03978251
-0.0054570576 -0.03078061 0.054342926 0.020616576 -0.009556406 -0.06478678 0.00028614793 -0.018995455
-0.041557554 0.045191083 -0.086688 0.06522387 0.023911033 -0.00053871796 -0.0820869 0.0070503205
00000000: fb5e da3c 6de3 a83c a4da 0ebd 0038 dcbc
00000010: 2013 e03b a48a ad3a 2fa5 c13c 6427 89bc
00000020: 90b3 56bd 7c88 603c df7d 9ebd 0513 a9bc
00000030: 9058 36bd ea71 573c 20c2 093c ff27 e73c
00000040: 87e4 dc3c 3e0e 6f3b 74d0 33bd e831 91bc
00000050: 261b c33c a10c 663c cf8f 383d 589b 6bbb
00000060: 10d0 f7bc b3b4 8dbc ad03 51bc 6376 3f3c
00000070: 3c82 f33c 412d a03c c4c0 80bb a62e fd3c
00000080: e099 f4b9 7ec5 8f3c efe6 e53c 231f e7bc
00000090: 6367 2dbd 7bd7 b8bd 603e 873c 673b 5bbd
000000a0: 92f6 993b bac0 5cbd 5a71 0b3d 1bbd 7cbc
000000b0: 0eef 03bd 8cfc c1bb d403 0dbc ea32 243d
000000c0: b255 983c a136 8a3d 5ffa 51bd 0922 963c
000000d0: aea5 cabb a501 b9bd df35 31bc 3ebf 0d3d
000000e0: 4dcb b53d 678c d3bb cce6 2a3c b546 ec3c
000000f0: f83d ddbc e647 60bd 36ae bebc 6e18 51bd
00000100: 6272 af3c 36bb 3f3c f61f 10bb 97cc 0cbd
00000110: dac7 60bc d275 903c 6a30 333c 1afc b9bc
00000120: 51c1 283d e7f4 533d 49c1 60bd 5c20 d6bc
00000130: 72a3 553d a0f3 2f3c cef4 17bc 95e9 88bd
00000140: 8077 c93c 554f a33b eadc eabc a936 c3bd
00000150: 1877 d63c c01d daba 2a0a d83c 1faa b0bd
00000160: 82f3 12bd 6765 753d 35d0 8a3c 0571 3fbd
00000170: 3305 5bbb 06b3 9cbd f4c1 cf3c 36f5 213c
00000180: 6932 7d3d b154 aebd 15c8 7abd f2e9 6a3c
00000190: ed74 8ebd 8297 b83d 40ec 83bd 94ff 3cbd
000001a0: 5e9c 4ebd 720f 4f3d 67e8 5fbd b43d acbd
000001b0: 1f59 6c3d 60dc 92bc 142b 3cbd 3c30 7c3d
000001c0: 794b 6f3d 0a95 4c3d ff88 cc3c b61e cd3c
000001d0: d643 dfbc 1907 83bd 080a c03d d2a0 60bc
000001e0: f03e 9d3c f629 4d3c e8ee 013c fee2 9bbc
000001f0: 480e 60bd 8e9f 1f3c 1a93 9c3b 0f2e 3cbd
00000200: 14d0 b63d 9393 0cbd 82e4 693d 2c23 fbbc
00000210: e731 9b3d b6be acbc c54f 823b 6ed0 bebc
00000220: d313 fabc cca4 6fbc 63cb 40bd 6039 c73a
00000230: 5097 943c e5f7 9dbc 239b 493b b925 303c
00000240: 6ccd bcbb b113 d1bc b187 afbd 8866 0abd
00000250: ac1f 27bd 7d23 623c af45 4abc 78ea 04bc
00000260: 3299 193c b963 883d d75f f7bd d20b b83c
00000270: 4fd4 adbc 7382 323d ac16 ad3b 959d 5fbd
00000280: 689f 9bbc 1ed7 823d db98 1fbc 3600 a2bd
00000290: 1ad1 b03b 8461 f6bc c8a0 07bd c0d0 9cba
000002a0: b9a6 123d 80ca 5fba 5409 cbbd 6df7 84bd
000002b0: cb95 26bd 9097 973c d860 80bb 2af0 14bd
000002c0: 0b3f c23d 34c1 953b 1a6f 69bd e916 993c
000002d0: 97a0 cd3c c005 10bd ba1e a5bb 5f58 67bd
000002e0: c04e 59bd 1bda 8abd 6135 b1bb c85c 633b
000002f0: 41aa b33d bd11 7b3c 4cc2 1ebd 8238 593d
00000300: c981 98bd b675 06bd e0b8 a9bb d9d1 2d3b
00000310: c320 043d 8ccc a3bb 31e5 543d 28ca d2bc
00000320: 8865 1dbb 15e5 903c 13af d5bb 04bc 123d
00000330: c675 a13c d7f1 dabc 548c 8c3c e416 623d
00000340: a45e 71bd 3f42 523d ca9c 303d a6ef 623d
00000350: 5207 1e3d c1bf 8e3b cf40 12bd 298b 7c3d
00000360: a389 9fbc c89d 973d 40b5 e33c 7005 b7ba
00000370: cc87 04bc 4c72 d1bc 064f d93b 4b0e 00bd
00000380: 8dd8 46bd e4d4 18bc cf86 293d 5d60 0b3d
00000390: b7c1 26bc ec7a 57bd 283c 62bb 56c6 9f3d
000003a0: 0208 28bd e35d 993d 46a0 6fbd 7bef 5bbd
000003b0: a86a 2bbd 0cd0 633c b002 bebb fcf2 223d
000003c0: 1ed1 b2bb 9e27 fcbc b096 5e3d 18e4 a83c
000003d0: 7992 1cbc eeae 84bd 2006 9639 5b9c 9bbc
000003e0: 4138 2abd 491a 393d 7a89 b1bd 1894 853d
000003f0: 12e1 c33c c038 0dba 2d1d a8bd 6006 e73b

std.constant6 f4 [128, 128]
0.044379234 -0.012466594 -0.034537777 -0.036811925 0.06746884 0.015690533 -0.0637348 -0.080875814
-0.027447606 0.046077006 0.055307243 -0.00015470292 0.023105215 -0.04824972 -0.05542105 0.115630835
0.06179884 -0.03142127 0.01574962 -0.0052919863 0.007892074 -0.073987216 0.0064381957 -0.030385386
0.030654442 0.021271555 -0.027564982 -0.0005777171 0.04118962 -0.08490928 0.11990407 -0.00794473
0.04412981 0.02974198 -0.049204558 0.020386979 0.08564199 0.0062762937 0.027053447 0.019274663
-0.054926526 0.015449038 -0.060386077 0.06564917 -0.052553214 -0.01562228 -0.03626956 0.010015067
-0.07471897 0.02378192 0.03129641 -0.033013288 0.029235313 -0.024535514 -0.051578604 0.04580517
0.032056622 -0.007994761 -0.011081844 0.020397272 -0.013038645 -0.0025978906 0.034342296 0.06779663
0.058919705 0.029550964 -0.031157058 0.0056738267 0.020150665 -0.047471445 -0.03813517 -0.0010908106
0.024812566 -0.08847168 0.010158342 0.0024480564 0.09129153 -0.006265889 0.039105833 -0.0022380408
0.012476891 0.018735193 0.02291774 -0.03194411 0.05829201 0.03686392 0.041188717 -0.046337705
0.011424367 0.050489772 0.04343645 0.08980783 -0.09541392 0.05286845 -0.008089956 -0.028977316
0.02833467 0.03789547 -0.033233795 0.003329597 0.037267122 0.022758197 -0.02021709 -0.02543192
-0.026274469 0.015405836 0.043232955 -0.059259396 0.0088889515 0.021795444 0.008242376 -0.012481362
-0.0056711007 -0.017859375 0.017375316 0.014154289 -0.005627794 -0.00050358847 -0.015564053 -0.007448515
-0.017104432 -0.053711116 0.06440252 0.05688402 0.026516419 -0.044332113 0.03975725 -0.04662176
-0.021261828 0.026242495 -0.04912409 -0.040281557 -0.01739754 0.05659809 0.038301814 -0.010090045
0.044918522 0.0512816 0.071361095 0.026201254 0.053444274 0.056402586 -0.027886204 -0.01642696
0.050075315 -0.016270224 -0.0061933254 0.022300933 0.06561936 -0.0017244456 0.009448156 -0.06435412
-0.08652085 0.015925694 -0.034440603 -0.049033266 0.015445239 0.047503907 -0.026999325 0.044711597
-0.028470041 -0.017029062 0.021866595 -0.02680363 -0.053804476 -0.007738071 -0.023404954 -0.015794143
-0.004727969 -0.03781933 -0.033873416 -0.033978447 -0.05608574 -0.0073074372 -0.016105529 0.028825406
-0.02009374 0.05967313 0.012299685 -0.042578302 0.0626984 -0.03625172 0.019152265 -0.042173292
0.023706127 0.050319873 0.008068245 -0.013430203 -0.033131786 0.0036837624 0.061858077 0.005670667
-0.054806817 0.026415765 -0.05395636 0.03243187 -0.016422795 -0.013091595 -0.005821414 -0.007045915
-0.0039599305 0.12356561 0.005746866 0.04930462 -0.0067655263 -0.010074958 0.029135758 0.051935602
-0.010309106 0.01744716 -0.061306573 0.010288383 0.021601409 -0.0021855761 0.025353564 0.022368781
-0.020791462 -0.01677267 -0.008166134 0.0041331737 -0.036006548 0.08167414 -0.004199824 -0.01944548
-0.041826643 0.07793505 0.07094391 -0.01535313 -0.010601666 0.017953668 0.050395206 -0.010103121
-0.050522935 -0.032769565 -0.052395083 0.020898046 0.030270545 -0.01382931 0.013727502 0.03813335
0.020604357 0.037833907 0.029204292 -0.0811805 -0.005409323 0.03993736 -0.053649165 -0.0370809
0.009779957 0.009618846 0.005438659 -0.06004387 0.019994799 -0.021636512 0.03958772 -0.07350253
00000000: 00c7 353d af40 4cbc 7c77 0dbd 1ac8 16bd
00000010: 1a2d 8a3d 6f89 803c 6487 82bd 38a2 a5bd
00000020: cdd9 e0bc 3ebb 3c3d d989 623d c037 22b9
00000030: 2647 bd3c 80a1 45bd 2f01 63bd dccf ec3d
00000040: c820 7d3d 97b3 00bd 5905 813c 6668 adbb
00000050: c24d 013c 9c86 97bd 80f7 d23b c6ea f8bc
00000060: 061f fb3c af41 ae3c f5cf e1bc f071 17ba
00000070: 72b6 283d ebe4 adbd 4490 f53d 9d2a 02bc
00000080: 76c1 343d 74a5 f33c b88a 49bd 9802 a73c
00000090: 1165 af3d 5ea9 cd3b 319f dd3c e6e5 9d3c
000000a0: a3fa 60bd f61d 7d3c 6457 77bd 1273 863d
000000b0: 0a42 57bd 97f4 7fbc 648f 14bd 3c16 243c
000000c0: 4206 99bd 4dd2 c23c aa30 003d f138 07bd
000000d0: e57e ef3c b4fe c8bc 1644 53bd 349e 3b3d
000000e0: ce4d 033d 75fc 02bc 9f90 35bc 2e18 a73c
000000f0: 0aa0 55bc 5f41 2abb 82aa 0c3d f6d8 8a3d
00000100: ca55 713d dd14 f23c 163d ffbc 82eb b93b
00000110: 0213 a53c 6b71 42bd a033 1cbd 88f9 8eba
00000120: b943 cb3c a430 b5bd 2d6f 263c 926f 203b
00000130: 0ef7 ba3d 1652 cdbb 702d 203d 18ac 12bb
00000140: e06b 4c3c 8c7a 993c fcbd bb3c d4d7 02bd
00000150: 9ac3 6e3d 9ffe 163d 80b5 283d 9bcc 3dbd
00000160: 452d 3b3c 5dce 4e3d 6bea 313d 2bed b73d
00000170: 6068 c3bd 968c 583d bc8b 04bc d661 edbc
00000180: 1c1e e83c 4838 1b3d 2920 08bd 5e35 5a3b
00000190: 69a5 183d 666f ba3c 509e a5bc 9a56 d0bc
000001a0: 8e3d d7bc c268 7c3c 0a15 313d fbb9 72bd
000001b0: f7a2 113c 5c8c b23c 080b 073c a07e 4cbc
000001c0: a4d4 b9bb d34d 92bc ae56 8e3c 64e7 673c
000001d0: 5c69 b8bb 4003 04ba 5f00 7fbc ac12 f4bb
000001e0: 981e 8cbc 3000 5cbd 78e5 833d 38ff 683d
000001f0: f638 d93c 9795 35bd 80d8 223d 75f6 3ebd
00000200: 492d aebc 80fa d63c 5736 49bd 46fe 24bd
00000210: 4985 8ebc 66d3 673d 5de2 1c3d b750 25bc
00000220: 7cfc 373d a80c 523d c425 923d 03a4 d63c
00000230: 62e8 5a3d 6606 673d 9c71 e4bc d591 86bc
00000240: c61b 4d3d 2249 85bc 61f1 cabb 72b0 b63c
00000250: 7163 863d cb06 e2ba 70cc 1a3c 18cc 83bd
00000260: d831 b1bd 9a76 823c 9711 0dbd 1bd7 48bd
00000270: 070e 7d3c 7593 423d b02d ddbc 8223 373d
00000280: 013a e9bc 8880 8bbc 9321 b33c 4993 dbbc
00000290: 1562 5cbd a58f fdbb bfbb bfbc b862 81bc
000002a0: 14ed 9abb 71e8 1abd dabe 0abd fc2c 0bbd
000002b0: 29ba 65bd 3a73 efbb beef 83bc 4223 ec3c
000002c0: a19b a4bc d06b 743d 9e84 493c 9666 2ebd
000002d0: 0568 803d af7c 14bd 36e5 9c3c e7bd 2cbd
000002e0: 5a33 c23c 361c 4e3d ac30 043c 5b0a 5cbc
000002f0: 32b5 07bd 476b 713b e55e 7d3d 01d1 b93b
00000300: 1d7d 60bd e065 d83c 5801 5dbd 48d7 043d
00000310: 1989 86bc 217e 56bc 8fc1 bebb 6be1 e6bb
00000320: 4ec2 81bb f70f fd3d 3550 bc3b a4f3 493d
00000330: 59b1 ddbb 7011 25bc 1dae ee3c 6dba 543d
00000340: 86e7 28bc 59ed 8e3c 9a1c 7bbd 9b90 283c
00000350: 70f5 b03c e23b 0fbb 47b2 cf3c bc3e b73c
00000360: db52 aabc d766 89bc 40cb 05bc 936f 873b
00000370: 9a7b 13bd c644 a73d ad9e 89bb 214c 9fbc
00000380: 6a52 2bbd 699c 9f3d 0a4b 913d b28b 7bbc
00000390: 9cb2 2dbc 9213 933c 346b 4e3d 9087 25bc
000003a0: 23f1 4ebd 6139 06bd 3a9c 56bd 6132 ab3c
000003b0: eff9 f73c 5594 62bc 51e9 603c b731 1c3d
000003c0: 78ca a83c baf7 1a3d d73d ef3c f641 a6bd
000003d0: b140 b1bb 5b95 233d 3abf 5bbd 24e2 17bd
000003e0: 1d3c 203c 5d98 1d3c c736 b23b 90f0 75bd
000003f0: 22cc a33c 0e3f b1bc bc26 223d 7f88 96bd

std.constant7 f4 [128]
0.005797767 -0.0018374908 -0.003871682 -0.00016625824 0.004816797 -0.012008255 -0.0015530101 -0.013156199
0.00046213937 -0.00726926 -0.002181372 -0.010384819 0.0033407803 0.012071007 -0.0146872485 0.06593288
0.008336734 0.0046274583 0.00014228019 -0.00016827669 0.004926685 -0.012234815 0.15618037 -5.914182e-05
-0.00063178316 -0.0028358914 -0.0021000556 0.021111757 0.08399924 0.06571823 0.07113294 -0.001540823
-0.0032573552 -0.008764712 -0.0052355733 0.05123366 -0.0044133943 0.07823611 0.011082859 0.016610218
0.05241794 0.026025876 -0.0017320962 -0.0064691533 0.02605321 0.014442225 4.5101886e-05 -0.00023169702
-0.006972453 5.9348415e-05 -0.0036407588 -0.015885975 -0.015563752 -0.0034036536 -0.004910293 -0.0019436143
-0.0057138433 -0.0034673437 -0.0009254856 -0.00793425 0.003316314 -0.008523619 0.027723296 0.02028594
0.11380334 0.0082900915 0.088300936 0.03345342 -0.0063553667 -0.0056774225 0.16290554 -0.00577688
-0.00585029 0.043724585 0.008040773 0.00023068517 -0.00081652997 0.0014801077 0.0010293211 0.0044242917
0.13875099 -0.0075734877 -0.0064739236 0.0036640053 -0.0012198825 0.0007317088 -0.011837429 0.025740491
0.021391273 -0.0015345543 -0.009828581 -0.006576386 -0.010442929 -0.004299499 0.0018125741 -0.002879483
-0.0036136366 0.0021385339 0.011378181 0.0054863608 0.0028796277 0.013469589 0.034753684 0.0016102415
-0.016107874 0.057771303 -0.0028116116 0.018108608 0.01055624 0.050744787 0.004329429 -0.014363051
-0.0034410714 0.05618787 0.02807223 -0.001117715 0.018856956 0.08683802 -0.010326693 -0.011592885
0.011986549 0.04941576 -0.0064599505 -0.011484375 0.008037853 0.112774566 -0.0028495297 0.05332915
00000000: 32fb bd3b f6d7 f0ba 0cbc 7dbb 9b55 2eb9
00000010: 39d6 9d3b 46be 44bc 5f8e cbba 198d 57bc
00000020: 4c4b f239 f932 eebb 59f5 0ebb 1625 2abc
00000030: fef0 5a3b 79c5 453c c9a2 70bc d107 873d
00000040: cc96 083c efa1 973b 0c31 1539 6e73 30b9
00000050: 0770 a13b 8974 48bc bfed 1f3e 0c0f 78b8
00000060: 409e 25ba 5dda 39bb 16a1 09bb 90f2 ac3c
00000070: cb07 ac3d 4897 863d 26ae 913d 71f5 c9ba
00000080: 5a79 55bb de99 0fbc 2c8f abbb 63da 513d
00000090: 3c9e 90bb 413a a03d e194 353c 2712 883c
000000a0: 32b4 563d 3834 d53c 8107 e3ba 31fb d3bb
000000b0: 8b6d d53c 159f 6c3c c82b 3d38 b2f3 72b9
000000c0: 2d79 e4bb e0ec 7838 cc99 6ebb 4e23 82bc
000000d0: 1bff 7ebc d50f 5fbb 86e6 a0bb e0c0 feba
000000e0: 313b bbbb 603c 63bb 4a9c 72ba a8fe 01bc
000000f0: 8456 593b a6a6 0bbc f71b e33c b32e a63c
00000100: ba11 e93d 2ad3 073c 1fd7 b43d 7406 093d
00000110: ae40 d0bb ac09 babb b6d0 263e fb4b bdbb
00000120: cab3 bfbb 8d18 333d 72bd 033c 14e4 7139
00000130: 660c 56ba 2c00 c23a 49ea 863a a6f9 903b
00000140: bd14 0e3e 052b f8bb 3523 d4bb cf1f 703b
00000150: 77e4 9fba 25d0 3f3a c7f1 41bc b9dd d23c
00000160: c03c af3c 1923 c9ba 0e08 21bc b97e d7bb
00000170: d218 2bbc d0e2 8cbb e593 ed3a b5b5 3cbb
00000180: c3d2 6cbb a526 0c3b 8d6b 3a3c eec6 b33b
00000190: 23b8 3c3b 8daf 5c3c e159 0e3d bd0e d33a
000001a0: a9f4 83bc 9aa1 6c3d 0443 38bb 8158 943c
000001b0: 14f4 2c3c c4d9 4f3d e2dd 8d3b 0153 6bbc
000001c0: 9983 61bb 4125 663d bcf7 e53c 4b80 92ba
000001d0: e779 9a3c 22d8 b13d 4a31 29bc 15f0 3dbc
000001e0: 3b63 443c 2e68 4a3d fead d3bb f628 3cbc
000001f0: 33b1 033c 5af6 e63d 2dbf 3abb ab6f 5a3d

std.constant8 f4 [128]
0.0038849036 -0.012640179 -0.012022529 0.0048765987 -0.0033920435 -0.007097165 -0.010592378 0.015371102
0.003168709 -0.0022133284 0.0020718602 -0.012913337 -0.012571526 -0.0016409191 0.015420319 -0.003374969
0.00258908 0.0002906517 -0.0028985569 0.0042875176 -0.0033653928 0.010403945 0.0065027284 0.003976781
-0.0014110634 0.0056592417 0.0017356607 0.012879022 0.0038074858 0.009409163 0.009066957 -0.01172565
-0.0004153397 0.009491819 -0.011233699 -0.010218434 -0.0003774939 -0.0070165424 -0.0015448838 -0.0046318234
-0.0025617732 0.0009446964 0.0027251788 -0.0006300575 0.00050290016 -0.0036487612 -0.010618575 0.0033953807
0.0047868635 -0.00010559015 0.0064415876 -0.016656544 0.0072502205 0.010518749 -0.00039563334 0.012254692
-0.0015834054 -0.0007462642 0.0076128193 0.004470932 -0.0125712585 0.00082183833 -0.0014981856 -0.002736853
-0.0036259904 0.006440025 0.006631692 -0.010664456 0.005780557 -0.004225576 0.002617188 0.006425936
0.00041581944 -0.0056280023 0.0018041015 0.005307522 -0.004254217 0.0031702167 0.0016339121 0.003162098
0.0058057676 0.0029147773 0.00081908744 -0.010772593 0.0015430801 -0.0034609174 -0.014346734 0.0032529929
0.0041431277 0.003871643 -0.01177829 -0.0038540922 0.01063583 -0.011714739 0.00415542 -0.010474245
0.0018397598 0.0041232198 0.013751819 0.0049102916 -0.0024951017 -0.0054995352 -0.0031708581 0.00056461705
0.013716068 0.017306838 -0.010853689 -0.0040003643 0.004716468 -0.012641991 0.0025866216 -0.009388486
0.001806186 0.002654537 -0.008602983 0.0061261663 -0.008123491 0.001959684 0.010169875 0.016753906
0.0048349635 0.0012890426 -0.00041533425 0.014093583 0.0052865786 0.0073110363 -0.012285097 0.012052944
00000000: de99 7e3b c118 4fbc 24fa 44bc e0cb 9f3b
00000010: 0c4d 5ebb 568f e8bb a78b 2dbc 13d7 7b3c
00000020: 1eaa 4f3b 7d0d 11bb 0cc8 073b 7692 53bc
00000030: cdf8 4dbc 1c14 d7ba 81a5 7c3c 952e 5dbb
00000040: 8ead 293b 9c62 9839 b7f5 3dbb 4e7e 8c3b
00000050: ec8d 5cbb 4f75 2a3c d714 d53b a84f 823b
00000060: 6ef3 b8ba 2971 b93b 1c7f e33a 8902 533c
00000070: 0387 793b e428 1a3c 938d 143c f11c 40bc
00000080: f3c1 d9b9 9383 1b3c 8c0d 38bc 386b 27bc
00000090: 60ea c5b9 06eb e5bb b37d caba 8dc6 97bb
000000a0: 6ce3 27bb 81a5 773a ea98 323b 712a 25ba
000000b0: 0fd5 033a 0e20 6fbb 88f9 2dbc 0985 5e3b
000000c0: 1fdb 9c3b 4870 ddb8 f413 d33b 4e73 88bc
000000d0: 4293 ed3b d556 2c3c 026d cfb9 e7c7 483c
000000e0: 458a cfba f1a0 43ba f574 f93b e580 923b
000000f0: aef7 4dbc a370 573a c45e c4ba c65c 33bb
00000100: 06a2 6dbb d806 d33b aa4e d93b f8b9 2ebc
00000110: d46a bd3b b376 8abb 2185 2b3b a890 d23b
00000120: 5702 da39 1b6b b8bb 9a77 ec3a b9ea ad3b
00000130: f566 8bbb 69c3 4f3b fe28 d63a 333b 4f3b
00000140: 4f3e be3b d905 3f3b 07b8 563a 887f 30bc
00000150: 2d41 ca3a 8fd0 62bb 900e 6bbc 2a30 553b
00000160: 13c3 873b 64bb 7d3b bbf9 40bc f094 7cbb
00000170: e841 2e3c 2def 3fbc 312a 883b 2b9c 2bbc
00000180: 1824 f13a 131c 873b 4f4f 613c 83e6 a03b
00000190: dc84 23bb 7235 b4bb 2cce 4fbb cf02 143a
000001a0: 5cb9 603c 12c7 8d3c acd3 31bc 7d15 83bb
000001b0: 9a8c 9a3b 5a20 4fbc 4f84 293b 2ad2 19bc
000001c0: 8cbd ec3a bef7 2d3b 87f3 0cbc 02be c83b
000001d0: 6418 05bc 0b6e 003b 8c9f 263c 7d3f 893c
000001e0: 9d6e 9e3b 18f5 a83a 38c1 d9b9 c6e8 663c
000001f0: 093b ad3b 6b91 ef3b 6e47 49bc b679 453c

std.constant9 f4 [128]
1.0 1.0 1.0 1.0 1.0 1.0 1.0 1.0
1.0 1.0 1.0 1.0 1.0 1.0 1.0 1.0
1.0 1.0 1.0 1.0 1.0 1.0 1.0 1.0
1.0 1.0 1.0 1.0 1.0 1.0 1.0 1.0
1.0 1.0 1.0 1.0 1.0 1.0 1.0 1.0
1.0 1.0 1.0 1.0 1.0 1.0 1.0 1.0
1.0 1.0 1.0 1.0 1.0 1.0 1.0 1.0
1.0 1.0 1.0 1.0 1.0 1.0 1.0 1.0
1.0 1.0 1.0 1.0 1.0 1.0 1.0 1.0
1.0 1.0 1.0 1.0 1.0 1.0 1.0 1.0
1.0 1.0 1.0 1.0 1.0 1.0 1.0 1.0
1.0 1.0 1.0 1.0 1.0 1.0 1.0 1.0
1.0 1.0 1.0 1.0 1.0 1.0 1.0 1.0
1.0 1.0 1.0 1.0 1.0 1.0 1.0 1.0
1.0 1.0 1.0 1.0 1.0 1.0 1.0 1.0
1.0 1.0 1.0 1.0 1.0 1.0 1.0 1.0
00000000: 0000 803f 0000 803f 0000 803f 0000 803f
00000010: 0000 803f 0000 803f 0000 803f 0000 803f
00000020: 0000 803f 0000 803f 0000 803f 0000 803f
00000030: 0000 803f 0000 803f 0000 803f 0000 803f
00000040: 0000 803f 0000 803f 0000 803f 0000 803f
00000050: 0000 803f 0000 803f 0000 803f 0000 803f
00000060: 0000 803f 0000 803f 0000 803f 0000 803f
00000070: 0000 803f 0000 803f 0000 803f 0000 803f
00000080: 0000 803f 0000 803f 0000 803f 0000 803f
00000090: 0000 803f 0000 803f 0000 803f 0000 803f
000000a0: 0000 803f 0000 803f 0000 803f 0000 803f
000000b0: 0000 803f 0000 803f 0000 803f 0000 803f
000000c0: 0000 803f 0000 803f 0000 803f 0000 803f
000000d0: 0000 803f 0000 803f 0000 803f 0000 803f
000000e0: 0000 803f 0000 803f 0000 803f 0000 803f
000000f0: 0000 803f 0000 803f 0000 803f 0000 803f
00000100: 0000 803f 0000 803f 0000 803f 0000 803f
00000110: 0000 803f 0000 803f 0000 803f 0000 803f
00000120: 0000 803f 0000 803f 0000 803f 0000 803f
00000130: 0000 803f 0000 803f 0000 803f 0000 803f
00000140: 0000 803f 0000 803f 0000 803f 0000 803f
00000150: 0000 803f 0000 803f 0000 803f 0000 803f
00000160: 0000 803f 0000 803f 0000 803f 0000 803f
00000170: 0000 803f 0000 803f 0000 803f 0000 803f
00000180: 0000 803f 0000 803f 0000 803f 0000 803f
00000190: 0000 803f 0000 803f 0000 803f 0000 803f
000001a0: 0000 803f 0000 803f 0000 803f 0000 803f
000001b0: 0000 803f 0000 803f 0000 803f 0000 803f
000001c0: 0000 803f 0000 803f 0000 803f 0000 803f
000001d0: 0000 803f 0000 803f 0000 803f 0000 803f
000001e0: 0000 803f 0000 803f 0000 803f 0000 803f
000001f0: 0000 803f 0000 803f 0000 803f 0000 803f

std.constant10 f4 [128]
0.005938369 -0.002316245 -0.0038885965 0.0017366005 0.0050322423 -0.012121571 -0.001017713 -0.013125039
0.00058452296 -0.0075446228 -0.0022678457 -0.010130912 0.0033227666 0.012486008 -0.01495777 0.06536626
0.00939919 0.0039215023 0.0014838887 -0.0009884151 0.004334807 -0.0118294805 0.15979552 -0.000856099
-0.0012080325 -0.003425784 -0.0010732218 0.021434199 0.08268425 0.06496825 0.0714959 -0.0014499788
-0.0030721324 -0.008711556 -0.0053345184 0.051620048 -0.0036354475 0.077719316 0.0105527975 0.01401675
0.0526379 0.024748286 -0.0019278758 -0.0061531626 0.024364654 0.013130883 8.1459686e-05 -0.00013419776
-0.0071797674 0.00020130395 -0.003451178 -0.016258799 -0.015355707 -0.0026117705 -0.0048913364 -0.0017774423
-0.005508624 -0.0038575027 -0.0021398521 -0.0087710265 0.0030412257 -0.008441658 0.027889982 0.019811751
0.11356842 0.008286115 0.08644357 0.03239221 -0.006433734 -0.0057029775 0.16401751 -0.00593072
-0.0060210046 0.042316597 0.008072185 0.00014603956 -0.0003227032 0.001456801 0.0016133816 0.004737272
0.14305376 -0.007598485 -0.0068172654 0.003915096 -0.0013455256 0.0008186824 -0.011686567 0.02471499
0.022483272 -0.0025016253 -0.009850775 -0.006190932 -0.010479187 -0.004058863 0.0016463203 -0.003719312
-0.0041479287 0.0037050678 0.010532049 0.0054289764 0.002571048 0.0142567875 0.03398275 0.0016194017
-0.016477449 0.05598147 -0.0024459204 0.017863428 0.010976803 0.050687127 0.004510409 -0.014482103
-0.0034133662 0.055729154 0.027835755 -0.00017451178 0.01656366 0.087197915 -0.010214123 -0.011636491
0.012413663 0.05115128 -0.006632286 -0.011409056 0.007934391 0.11567706 -0.0024439695 0.053612445
00000000: a696 c23b 25cc 17bb d3d7 7ebb a59e e33a
00000010: 82e5 a43b 8e99 46bc c864 85ba 670a 57bc
00000020: ac3a 193a e238 f7bb 23a0 14bb 20fc 25bc
00000030: c6c2 593b 1d92 4c3c 6f11 75bc bfde 853d
00000040: 0fff 193c f27f 803b 0b7f c23a b58d 81ba
00000050: ff0a 8e3b 70d0 41bc 70a1 233e d56b 60ba
00000060: d856 9eba 1e83 60bb 59ab 8cba c696 af3c
00000070: 5c56 a93d 130e 853d 716c 923d 370d beba
00000080: d455 49bb eaba 0ebc 2fcd aebb 8b6f 533d
00000090: b040 6ebb 4e2b 9f3d a4e5 2c3c 83a6 653c
000000a0: d79a 573d ebbc ca3c c7b0 fcba 78a0 c9bb
000000b0: 6298 c73c ea22 573c 56d5 aa38 70b7 0cb9
000000c0: 4144 ebbb 1e15 5339 292d 62bb 2c31 85bc
000000d0: 8196 7bbc 3d2a 2bbb 8147 a0bb 11f9 e8ba
000000e0: b081 b4bb 28ce 7cbb c33c 0cbb 5ab4 0fbc
000000f0: 4d4f 473b e14e 0abc 8879 e43c 414c a23c
00000100: 8f96 e83d 7cc2 073c 5409 b13d b2ad 043d
00000110: 13d2 d2bb 0be0 babb 35f4 273e 7c56 c2bb
00000120: d94b c5bb 2b54 2d3d 3341 043c 3222 1939
00000130: 7e30 a9b9 21f2 be3a 1a78 d33a 1e3b 9b3b
00000140: af7c 123e b6fc f8bb 5e63 dfbb 354a 803b
00000150: 595c b0ba d99c 563a 0479 3fbc 1777 ca3c
00000160: d72e b83c 4ff2 23bb 2565 21bc 4ddd cabb
00000170: e5b0 2bbc 3600 85bb 58c9 d73a b3bf 73bb
00000180: 59eb 87bb b9d0 723b 9e8e 2c3c 8ee5 b13b
00000190: 077f 283b 4d95 693c 7f31 0b3d 1b42 d43a
000001a0: b7fb 86bc d34c 653d bc4b 20bb 5356 923c
000001b0: 0cd8 333c 4e9d 4f3d 0ecc 933b 5846 6dbc
000001c0: c8b2 5fbb 4144 643d cf07 e43c 26fd 36b9
000001d0: 83b0 873c d294 b23d 2359 27bc fba6 3ebc
000001e0: ad62 4b3c 0184 513d a653 d9bb 0ded 3abc
000001f0: 3fff 013c 18e8 ec3d 012b 20bb b998 5b3d

std.constant11 f4 [128, 9]
0.116848566 -0.018114256 0.048598435 0.009024263 -0.11653036 0.039201714 0.10903152 -0.053356476
0.047271006 -0.019997638 -0.10441945 -0.090807594 -0.05705503 0.007795402 -0.050873067 -0.05480646
0.00021103297 -0.054689284 -0.06325787 -0.01074721 -0.07700418 -0.10442322 0.02508692 0.045844536
-0.04340446 0.08356439 -0.09301384 0.069194175 -0.08932666 0.10008423 -0.12423178 -0.055036593
-0.014270675 -0.072105855 -0.10861337 -0.08287821 0.13974056 0.10438011 -0.07636596 0.0039197183
0.061490443 -0.06756644 -0.03001113 0.031794365 -0.08636493 0.046528358 0.01957153 -0.05071652
-0.0459279 0.005746723 -0.044040404 -0.012905318 0.0106903 -0.11920921 -0.015384759 0.089303136
0.102781504 -0.10435494 0.022740474 0.09898139 -0.08214651 -0.052398875 -0.029078899 -0.027332384
-0.056549862 0.09613868 0.0842234 -0.059067007 -0.11754796 0.004004725 -0.045696646 -0.0597473
0.018065516 0.035804246 0.013257049 0.0023793357 0.106538594 0.03737046 0.04841016 0.03733716
-0.014228879 0.106661625 0.051744834 -0.045777265 -0.06989908 -0.006146671 0.011367396 -0.099340014
-0.10578336 -0.059116933 0.049576167 -0.025686335 -0.057086293 0.0219169 -0.09554868 0.05388373
-0.100326695 -0.02056339 -0.10509341 0.065586954 0.087333985 0.06095975 -0.10817545 -0.0950721
0.045724217 -0.077120945 -0.028936824 0.09035551 0.03151909 -0.06999979 0.05764381 -0.014109634
-0.084492475 0.009816553 0.058048375 0.053896513 0.048576225 0.13666722 0.06503039 -0.014933249
0.0017296487 0.087769195 0.0527057 -0.050928887 -0.05295714 -0.042475604 -0.09136558 -0.044866286
-0.08994597 0.05815428 -0.0957985 0.009819198 -0.055673752 -0.042846385 -0.023801377 0.12208112
0.06541147 0.12883721 0.13553368 0.08832218 0.03960834 0.15474077 -0.0013882037 -0.061564486
0.16897918 0.06562141 0.07364124 0.029191636 -0.06882564 -0.07780453 -0.04778889 -0.09313949
-0.059645176 0.034623116 0.078331046 0.0352846 0.08426218 -0.08260712 -0.004615623 -0.005430885
0.07190141 -0.0046523353 0.11310722 -0.029554697 0.083783045 -0.110129565 -0.03464599 0.038401924
-0.05832115 0.021693416 -0.13361812 -0.027394222 0.04757117 -0.042225014 0.08991565 -0.1112927
-0.08958786 -0.06062496 -0.004646307 -0.13259093 -0.020137323 0.077357695 -0.04229979 -0.0042025554
-0.005022707 -0.015523013 0.10331563 0.075452015 0.019955043 0.13314995 -0.058368094 -0.02250886
-0.08139636 -0.10715379 0.049602337 0.037524242 0.019847605 -0.085408084 0.03415949 0.1294638
0.15430315 0.14800917 -0.072403155 0.23790796 0.2567501 0.05196119 0.079599805 0.03598114
0.039289486 -0.09911518 0.05141442 -0.11403735 0.0941217 -0.08032817 0.01360147 0.054082964
0.023105958 -0.06800985 0.049611244 0.091967024 0.021925826 -0.039814807 0.05591187 -0.020448575
0.0029854695 0.06860365 0.08690825 -0.03277188 0.0789964 0.030988218 0.07640606 0.024560045
0.04540697 -0.052699037 0.16696587 -0.0565244 0.098201945 -0.058100663 -0.041297227 -0.011148075
-0.050455462 0.025634507 -0.08129944 -0.10014179 0.11031185 0.04805771 0.13031113 -0.042906076
-0.042760454 -0.081296295 0.077911764 -0.05063349 0.17014264 0.01841042 0.016095582 0.1275386
00000000: 4d4e ef3d 5964 94bc 270f 473d 81da 133c
00000010: 78a7 eebd fa91 203d eb4b df3d 528c 5abd
00000020: 3e9f 413d 16d2 a3bc ddd9 d5bd 55f9 b9bd
00000030: 89b2 69bd 9270 ff3b 4760 50bd bd7c 60bd
00000040: bb48 5d39 df01 60bd 588d 81bd 1115 30bc
00000050: 5eb4 9dbd d7db d5bd 1683 cd3c 7bc7 3b3d
00000060: e0c8 31bd cf23 ab3d 0a7e bebd adb5 8d3d
00000070: e5f0 b6bd f6f8 cc3d 3b6d febd 0d6e 61bd
00000080: 8dcf 69bc 3cac 93bd b070 debd 0dbc a9bd
00000090: 2618 0f3e 3dc5 d53d c265 9cbd fb70 803b
000000a0: 67dd 7b3d 4660 8abd e7d9 f5bc cf3a 023d
000000b0: 19e0 b0bd 8594 3e3d 7954 a03c 20bc 4fbd
000000c0: e51e 3cbd 024f bc3b b663 34bd d470 53bc
000000d0: 5e26 2f3c f523 f4bd 5b10 7cbc 90e4 b63d
000000e0: 1c7f d23d 0bb8 d5bd 3b4a ba3c c1b6 ca3d
000000f0: 6e3c a8bd 34a0 56bd df36 eebc 2ae8 dfbc
00000100: d4a0 67bd 5be4 c43d 517d ac3d 3ff0 71bd
00000110: fcbc f0bd 113a 833b 682c 3bbd 96b9 74bd
00000120: 22fe 933c 79a7 123d 1834 593c a1ee 1b3b
00000130: e830 da3d c411 193d bb49 463d daee 183d
00000140: 3e20 69bc 6971 da3d 64f2 533d f180 3bbd
00000150: 4027 8fbd 036a c9bb 513e 3a3c c772 cbbd
00000160: f2a4 d8bd 9924 72bd 6110 4b3d 266c d2bc
00000170: 51d3 69bd 128b b33c 07af c3bd 30b5 5c3d
00000180: 1578 cdbd 8e74 a8bc 373b d7bd 7452 863d
00000190: 29dc b23d eeb0 793d 178b ddbd 29b5 c2bd
000001a0: 5149 3b3d 96f1 9dbd eb0c edbc 4f0c b93d
000001b0: 291a 013d 0d5c 8fbd ea1b 6c3d 182c 67bc
000001c0: 640a adbd 9cd5 203c 22c4 6d3d 97c2 5c3d
000001d0: ddf7 463d 7ef2 0b3e a72e 853d 96aa 74bc
000001e0: 61b5 e23a 56c0 b33d efe1 573d cf9a 50bd
000001f0: 96e9 58bd e6fa 2dbd e11d bbbd b6c5 37bd
00000200: 9835 b8bd 2f33 6e3d 0132 c4bd b4e0 203c
00000210: 290a 64bd b17f 2fbd 1bfb c2bc ab05 fa3d
00000220: 73f6 853d e7ed 033e 57c9 0a3e 42e2 b43d
00000230: 5b3c 223d 5d74 1e3e 63f4 b5ba 0b2b 7cbd
00000240: e108 2d3e 8564 863d 38d1 963d 4c23 ef3c
00000250: 75f4 8cbd fb57 9fbd 48be 43bd ebbf bebd
00000260: 804e 74bd f8d0 0d3d 076c a03d 9686 103d
00000270: a691 ac3d ec2d a9bd a73e 97bb 91f5 b1bb
00000280: 0c41 933d 9e72 98bb c2a4 e73d b11c f2bc
00000290: 7296 ab3d 9c8b e1bd f4e8 0dbd 564b 1d3d
000002a0: 28e2 6ebd 64b6 b13c 30d3 08be d969 e0bc
000002b0: fdd9 423d 23f4 2cbd b225 b83d 6ded e3bd
000002c0: d779 b7bd e151 78bd 0c40 98bb ebc5 07be
000002d0: 07f7 a4bc b66d 9e3d 8b42 2dbd 97b5 89bb
000002e0: 8595 a4bb 3c54 7ebc 2597 d33d 9686 9a3d
000002f0: c278 a33c 7658 083e 6213 6fbd 8064 b8bc
00000300: 23b3 a6bd 7273 dbbd d22b 4b3d 05b3 193d
00000310: 7297 a23c 6fea aebd d2ea 0b3d 2992 043e
00000320: a501 1e3e b78f 173e 1b48 94bd 259e 733e
00000330: c074 833e 42d5 543d 3905 a33d f660 133d
00000340: 03ee 203d e6fc cabd ed97 523d 6a8c e9bd
00000350: e1c2 c03d 1883 a4bd b3d8 5e3c 1986 5d3d
00000360: b548 bd3c c048 8bbd 2935 4b3d 3559 bc3d
00000370: ca9d b33c da14 23bd d803 653d c583 a7bc
00000380: dea7 433b 1280 8c3d f4fc b13d cf3b 06bd
00000390: ddc8 a13d 01db fd3c c87a 9c3d 2632 c93c
000003a0: a9fc 393d f2da 57bd 1af9 2a3e 2186 67bd
000003b0: 1a1e c93d f6fa 6dbd 4827 29bd 6aa6 36bc
000003c0: 63aa 4ebd 75ff d13c 5280 a6bd 2417 cdbd
000003d0: 2eeb e13d 29d8 443d 4870 053e 48be 2fbd
000003e0: 9625 2fbd ac7e a6bd 3490 9f3d 1065 4fbd
000003f0: df39 2e3e 73d1 963c e2da 833c 7b99 023e

std.constant12 f4 [128, 9]
0.1837104 0.018870575 -0.026405703 0.0347626 -0.012590925 0.09655473 -0.018722808 0.059674215
-0.16145937 0.12646553 0.077673644 0.06317632 0.031745754 -0.14503193 -0.053904217 0.032809388
-0.083262816 -0.05250369 0.07534836 0.043260098 0.062613636 -0.084086224 -0.1456266 -0.08457331
0.08497159 0.03634078 -0.012725585 0.0126199685 0.00065415935 0.09234566 -0.07789108 0.034364853
0.09174369 -0.00898503 -0.04794074 -0.10176301 -0.1500942 -0.0636941 0.016858205 -0.001687743
0.08264737 0.04368515 -0.07157801 -0.09563747 -0.022596097 -0.02221087 -0.021586528 0.031715896
0.011508625 -0.043731198 0.04218438 0.016625028 0.067517325 0.01729241 0.13630423 0.051564798
0.048844684 -0.059737537 0.028900003 0.03861629 0.045160774 -0.06788452 -0.16337565 0.06555548
-0.024450697 0.03471355 -0.050687324 -0.006117951 -0.049608767 0.0058135735 -0.0039378535 -0.032241274
0.10818491 0.025751911 0.05241547 0.0010508981 -0.070642024 -0.10708646 0.045011 -0.032591224
0.0039441376 -0.0029063472 0.02458694 0.088184796 0.06892113 -0.06954399 -0.07299243 -0.05322911
0.06289122 0.031059522 0.10142976 0.074775435 -0.07499336 0.00047298238 -0.054341283 0.07144269
-0.0086306725 0.025625937 -0.014580937 0.08793481 -0.023834774 0.08862754 0.016739158 0.018292623
0.03381975 -0.012434157 0.015464446 -0.017019024 -0.17399783 0.028487366 0.070056975 -0.065776825
-0.019630872 0.08759995 -0.05257911 -0.0038479369 0.05886807 -0.13417245 -0.027912952 -0.07128811
0.054149047 -0.01918087 0.044081062 -0.041536737 -0.017292896 0.011413946 -0.045033008 -0.05837953
-0.060798068 -0.03574984 0.07795842 0.04756366 -0.028355785 0.04828827 -0.03577893 -0.21128304
0.07379985 -0.06382168 0.0398216 0.0125094615 0.0017513677 0.013063671 -0.06691048 0.04909266
0.15170139 0.028085241 -0.049068782 -0.048119523 -0.0832042 0.04020057 0.04195012 0.08891424
-0.1313845 0.068381645 -0.10842269 0.048271377 -0.055010956 -0.0066840947 0.05988466 0.10180455
0.058351193 -0.011818879 -0.071702875 -0.09231029 -0.00689507 0.038517047 -0.0051896498 -0.0666818
-0.040547617 0.06593863 0.056176167 0.015308812 0.08352174 0.09221733 0.086624235 -0.06424891
0.08391218 0.08041953 -0.010426546 0.02600003 0.21190296 -0.10511963 0.025402231 0.08643993
-0.15014955 0.09239813 -0.008796574 0.08615314 -0.122136764 -0.07075037 -0.07916078 -0.0067770155
0.053748503 0.071387194 -0.041244656 -0.069816545 -0.013904365 0.032326575 0.25938898 -0.0024123467
-0.081015795 -0.061096292 -0.21167067 0.054872226 0.09742706 -0.05829739 -0.23495191 -0.18000394
0.0067698713 -0.07940345 -0.067137994 0.0066452753 -0.00954002 0.053027455 -0.07885883 0.1464276
-0.07122726 -0.08942003 -0.06156174 0.005484244 0.13482633 -0.03655187 -0.008605338 0.075868815
-0.0150517635 -0.07012188 0.0328421 -0.04134205 -0.086288616 0.08209028 0.08285988 -0.0011362826
-0.03503811 0.16671884 0.08122838 0.038014263 0.082574815 0.08793203 -0.05212869 -0.027773555
0.016523637 0.098712355 -0.15432599 0.22052185 -0.06486993 0.024274867 -0.09712495 -0.14121541
-0.050902337 0.05299079 0.007950363 -0.16545957 0.23685929 -0.0076117553 0.06812787 -0.0010501018
00000000: 941e 3c3e 7796 9a3c c650 d8bc 3a63 0e3d
00000010: 2b4a 4ebc 7cbe c53d 9360 99bc f36c 743d
00000020: 9b55 25be 2e80 013e 5c13 9f3d 9662 813d
00000030: d607 023d 4083 14be abca 5cbd 2363 063d
00000040: b285 aabd 1c0e 57bd 3e50 9a3d 8031 313d
00000050: 943b 803d 6635 acbd 241f 15be c634 adbd
00000060: 9605 ae3d 12da 143d f97e 50bc fcc3 4e3c
00000070: e47b 2b3a b91f bd3d 5c85 9fbd 29c2 0c3d
00000080: 1ee4 bb3d f335 13bc 825d 44bd 2069 d0bd
00000090: 4bb2 19be 0d72 82bd 381a 8a3c 4237 ddba
000000a0: 0643 a93d 33ef 323d 7e97 92bd 94dd c3bd
000000b0: 731b b9bc 92f3 b5bc 3bd6 b0bc 87e8 013d
000000c0: ac8e 3c3c 7c1f 33bd 87c9 2c3d 3631 883c
000000d0: 8646 8a3d d0a8 8d3c 5693 0b3e 9c35 533d
000000e0: 5d11 483d 59af 74bd b3bf ec3c 1d2c 1e3d
000000f0: 81fa 383d 0a07 8bbd f24b 27be f441 863d
00000100: d44c c8bc cc2f 0e3d 839d 4fbd 1879 c8bb
00000110: 9032 4bbd ca7f be3b 1c09 81bb 6d0f 04bd
00000120: 0d90 dd3d acf5 d23c 9bb1 563d 4abe 893a
00000130: c4ac 90bd 2550 dbbd 745d 383d 607e 05bd
00000140: d33d 813b 6a78 3ebb 8d6a c93c 3b9a b43d
00000150: 8526 8d3d 146d 8ebd 0e7d 95bd c406 5abd
00000160: 1dcd 803d 8a70 fe3c 68ba cf3d dd23 993d
00000170: 1e96 99bd 9ffa f739 f794 5ebd 8c50 923d
00000180: aa67 0dbc 7ced d13c e2e4 6ebc 2a17 b43d
00000190: 2541 c3bc 5b82 b53d 8f20 893c 69da 953c
000001a0: 9486 0a3d a2b8 4bbc 965e 7d3c 7b6b 8bbc
000001b0: 7d2c 32be 565e e93c 087a 8f3d 00b6 86bd
000001c0: ecd0 a0bc 9a67 b33d 315d 57bd ab2d 7cbb
000001d0: a51f 713d 8164 09be b4a9 e4bc 80ff 91bd
000001e0: 64cb 5d3d 3321 9dbc 588e 343d 6d22 2abd
000001f0: d5a9 8dbc 8f01 3b3c 8874 38bd 601f 6fbd
00000200: 6507 79bd 6d6e 12bd aaa8 9f3d 1dd2 423d
00000210: 644a e8bc ecc9 453d ed8c 12bd 955a 58be
00000220: 6024 973d f1b4 82bd f91b 233d 7cf4 4c3c
00000230: 268e e53a 0209 563c 5d08 89bd 6315 493d
00000240: 9c57 1b3e 0513 e63c 59fc 48bd fa18 45bd
00000250: f766 aabd 5aa9 243d e4d3 2b3d ab18 b63d
00000260: a989 06be ad0b 8c3d b70c debd 35b8 453d
00000270: 2b53 61bd 4006 dbbb 9e49 753d e77e d03d
00000280: a901 6f3d f9a3 41bc f5d8 92bd 2d0d bdbd
00000290: 0af0 e1bb 0dc4 1d3d f00d aabb 7890 88bd
000002a0: 4215 26bd d50a 873d fb18 663d d0d1 7a3c
000002b0: 720d ab3d 71dc bc3d 0c68 b13d ef94 83bd
000002c0: 26da ab3d ffb2 a43d 1bd4 2abc 04fe d43c
000002d0: 17fd 583e f648 d7bd 5718 d03c 6b07 b13d
000002e0: cec0 19be 3b3b bd3d 811f 10bc 0f71 b03d
000002f0: d722 fabd 92e5 90bd 0c1f a2bd ba11 debb
00000300: 6427 5c3d 7333 923d 28f0 28bd fafb 8ebd
00000310: 22cf 63bc df68 043d a2ce 843e 7618 1ebb
00000320: 9ceb a5bd 1b40 7abd 32c0 58be b3c1 603d
00000330: d787 c73d 3ec9 6ebd 3c97 70be f452 38be
00000340: ccd5 dd3b 479e a2bd a57f 89bd 9cc0 d93b
00000350: be4d 1cbc 5133 593d bd80 a1bd 1ef1 153e
00000360: 99df 91bd d921 b7bd 2a28 7cbd 2cb5 b33b
00000370: ea0f 0a3e 6ab7 15bd 67fd 0cbc 1c61 9b3d
00000380: ac9b 76bc 0f9c 8fbd 7085 063d 4856 29bd
00000390: 16b8 b0bd f31e a83d 71b2 a93d 51ef 94ba
000003a0: 1f84 0fbd 58b8 2a3e 115b a63d d8b4 1b3d
000003b0: fc1c a93d b515 b43d e584 55bd 5e85 e3bc
000003c0: 945c 873c b429 ca3d a207 1ebe 7bd0 613e
000003d0: 87da 84bd 16dc c63c 72e9 c6bd c69a 10be
000003e0: f87e 50bd df0c 593d 3d42 023c 3c6e 29be
000003f0: 3e8b 723e 086c f9bb a086 8b3d 92a3 89ba
