AirQualityApp/AirQualityApp.Android/Assets/ParisLong.tflite (tflite, 810852 bytes, 24 tensors)

std.constant3 f4 [128, 128]
00000000: a69e bb3b 9884 debd 206d f3bc e7d2 c73c
00000010: c2ed 14bd 59e1 943c ab73 7a3d 946b 92bc
00000020: 4f8e 4c3d 342d 38bd 0400 fd3c 026a 38bd
00000030: e10a 8a3c f45d 8dbc 0b78 9ebc 9474 d43c
00000040: fa8c b93b caac e23c 7235 fbbc 404a dfbc
00000050: b98a 893c f320 083d 8a30 e3bc 863e 623d
00000060: fbdd 32bd e748 a9bd f5ac 1d3d bb40 3ebd
00000070: d216 24bd cb65 763c 7d82 db3c 3941 623c
00000080: 6918 28bd 6033 6a3d d4c0 68bd b76a 71bd
00000090: 0770 36bd 34c9 5bbb 70f2 1039 60f2 ac39
000000a0: 9575 813c c0e3 6dbb a480 4f3d 789b 6bbd
000000b0: ad96 ef3c 441a 523d 61ee d33c ac38 96bc
000000c0: e443 413c e63f 2a3d c4ff 50bd bdca acbd
000000d0: a8c8 00bc 5023 133c 52d6 a1bc ce4d 7c3c
000000e0: cc11 a7bd e886 983c 2b0e 9cbc 193b e83b
000000f0: a833 91bd 0745 09bd 8273 01bd b8bf e83c
00000100: 7c3a a6bd b5d5 7b3d 8062 423c 981e 78bd
00000110: 470a 643c a79b 51bd 325d 0d3c 98b9 5dbd
00000120: 4cba 833b 6d76 98bb 450e 2fbd cacf 883d
00000130: 00fa 9fbc c4c4 27bc e862 283d a19a 293c
00000140: 73bc 8a3c 9309 663d 816a 5abd d52a 853b
00000150: 14ea a3bb b2ac 56bd 1e6e ed3c eae2 eabc
00000160: 9544 02bd 4853 1cbd 30f2 fc3b 606b c3bd
00000170: 52f5 4ebd 4043 e0b9 504d 73bd 32b6 673d
00000180: 4edc f03d 6a50 31bd 9b11 28bd f4b4 64bd
00000190: 8fcc 063d c07e c53c fd7b 3e3d 3673 583c
000001a0: 6e65 0a3c 1a7b ffbc 68e2 14bd 75fb 253d
000001b0: 1d2c 53bd 2a60 45bc b480 6bbd e8b9 65bd
000001c0: fad2 a8bd 96f7 1ebd b8ed 66bd 52b2 76bb
000001d0: b7c9 d53c a996 a33c 3434 543c 8025 eab9
000001e0: bed2 2b3d 9baa 653d 48ad 47bb 10a8 47ba
000001f0: 006b 313d 31c5 24bd 4f30 ecbc 5611 123d
00000200: 35bd ef3c 82e2 febc 390a 693d f26a a93d
00000210: 0acc ccbc c501 b73c 200c cabd e509 a5bc
00000220: 780e ba3a 307b 0d3c ea97 c13b c5f7 29bd
00000230: 21ff 23bd b80c e33b 3e92 8b3d f2b1 08bc
00000240: 3ae7 0e3c 0016 963c 62c3 7f3c 4531 2dbd
00000250: d86d 69bc 28b3 9c3c 8e3f 39bd 764d a13a
00000260: 98c0 46bd a244 aebc 8fd5 12bd a453 dabc
00000270: 6698 09bd 998c 3c3d 7479 203d 9da9 35bd
00000280: f022 003d 2c31 81bd d601 75bb 4ce5 c8bc
00000290: 7a6a 1b3c f177 9d3d 42e1 6b3d 36a4 febc
000002a0: 6c43 163d e549 a5bc 3736 7abc 4867 203d
000002b0: fabc e43c a353 91bd 1cd5 b33b 8e4a 8bbc
000002c0: 9495 78bd 0181 71bd 57da a13c 79f9 bc3c
000002d0: bac5 983c c656 b93c 9873 a43c 024c 053c
000002e0: 54e9 87bd 3e10 9a3c deaf 143d 8655 643b
000002f0: 08fc 8dbc 45ec ff3b f435 513d 5634 793c
00000300: ccf4 413c 0873 853c 6ab8 56bc 8e42 c7bc
00000310: 28b0 573d 56d4 29bd 273f e63c 7c45 53bd
00000320: 3fb2 4ebc d195 843d 4274 333d af70 2f3d
00000330: 69c3 b1bd eeec bd3c cacb 4cbc 456f 12bd
00000340: d5c3 303d 50e8 19bd b400 57bc 735a 22bd
00000350: 8152 59bd 2d2e cebc c97d b9bc 3103 e9bd
00000360: a288 3f3d 3851 60bd 372c 1fbc 8cbb 97bc
00000370: 4a80 fd3b c27f 60bd f9cd 93bd f011 ccbc
00000380: ac07 063d cab1 9f3d d80c 58bc 33d1 003d
00000390: 0628 bdbc e936 d6bb 88b0 fd3c e795 2abd
000003a0: e111 9f3c c25d 7e3d b793 32bd 0cf4 fcbc
000003b0: f2c2 ba3b bc1c 83bd 10e4 c73b 0218 69bd
000003c0: 6883 ea3b 0caf 5abc a7c3 353c c7ed 613d
000003d0: 309b fc39 067c 4e3c b11e 203d c8b6 e2bc
000003e0: 0ab6 48bd f6ca 6abd 431f 83bc 692f 10bc
000003f0: 3585 ad3d 4605 fcbd 97ae df3c 0ca0 35bb
0.0057256995 -0.10865134 -0.02971512 0.024392558 -0.036359556 0.01817386 0.061145466 -0.017873563
0.049940404 -0.044964984 0.030883797 -0.045022972 0.01685089 -0.017256714 -0.01934435 0.025934495
0.0056625577 0.027670283 -0.030665133 -0.027257085 0.01678978 0.033234548 -0.027733106 0.05523541
-0.04366873 -0.08265858 0.038495023 -0.04644845 -0.040060826 0.015038918 0.02679562 0.013809496
-0.041038904 0.0571779 -0.05682452 -0.05893966 -0.04454043 -0.0033536674 0.00013823225 0.0003298698
0.015803138 -0.003629908 0.05065979 -0.057521313 0.029246652 0.05129458 0.025870504 -0.01833757
0.011795972 0.041564845 -0.051025167 -0.08437107 -0.00786034 0.008980587 -0.019755516 0.015399409
-0.08157691 0.018619016 -0.019049725 0.007087123 -0.07089931 -0.033513095 -0.031604297 0.028411731
-0.08116624 0.061483104 0.011864305 -0.06057605 0.013918466 -0.051173832 0.0086281765 -0.054132074
0.004020011 -0.0046527893 -0.042738218 0.066802576 -0.019528389 -0.010239784 0.04110995 0.010351808
0.016935563 0.056161474 -0.053324226 0.004063944 -0.0050022695 -0.05241079 0.028983172 -0.028672654
-0.031803686 -0.03816536 0.0077193007 -0.095419645 -0.050526924 -0.00042774715 -0.059399903 0.05657024
0.1176077 -0.04328958 -0.041032415 -0.055836633 0.032909926 0.02410829 0.046504963 0.013211062
0.008447034 -0.03118663 -0.03634873 0.04052301 -0.05155574 -0.012046853 -0.057495788 -0.056085497
-0.082433656 -0.038810335 -0.05637905 -0.0037642908 0.026097162 0.019969301 0.012951899 -0.00044659898
0.041949026 0.056070905 -0.0030468274 -0.0007616291 0.043314934 -0.04022712 -0.02883163 0.035661064
0.029265026 -0.031113867 0.056894515 0.08272351 -0.024999637 0.022339711 -0.09865594 -0.02014632
0.0014194986 0.008635327 0.005908002 -0.041496057 -0.04003823 0.0069290064 0.06815003 -0.008343207
0.008722121 0.018321037 0.015610548 -0.042283315 -0.01424738 0.019128397 -0.045226626 0.001230641
-0.048523515 -0.021272961 -0.035848197 -0.026651211 -0.033592604 0.046032522 0.039178327 -0.04435121
0.03128332 -0.06308207 -0.0037385128 -0.0245234 0.009485835 0.07688893 0.05758787 -0.031084161
0.036685392 -0.020176837 -0.015271715 0.039160997 0.027922142 -0.070960306 0.005488051 -0.017003324
-0.060689524 -0.05896092 0.019757433 0.023068177 0.01864897 0.022624385 0.02007465 0.008135797
-0.06636301 0.018806573 0.036300533 0.0034841015 -0.017332092 0.007810148 0.051076844 0.015210232
0.011838149 0.016290203 -0.013105491 -0.024323728 0.05265823 -0.041462265 0.028106285 -0.051579937
-0.012615739 0.06473888 0.043812044 0.042832073 -0.0867985 0.023184266 -0.012499759 -0.035750646
0.04315551 -0.037575066 -0.013122726 -0.03963704 -0.053057197 -0.025168503 -0.022642987 -0.11377562
0.046761163 -0.054764956 -0.0097151315 -0.018522047 0.0077362405 -0.05480934 -0.072170205 -0.024910897
0.03272216 0.077975824 -0.013186656 0.031449508 -0.023090374 -0.0065373075 0.030967966 -0.041646864
0.019417705 0.062101133 -0.043597903 -0.03087809 0.005699509 -0.06401965 0.006100185 -0.05690766
0.007156778 -0.0133473985 0.01109401 0.055158403 0.0004818081 0.012602812 0.03909177 -0.027675048
-0.04900173 -0.057322465 -0.016006118 -0.008800366 0.08472673 -0.12305693 0.02730493 -0.0027713804

std.constant4 f4 [128, 128]
00000000: 8483 623d 10e3 953d b6c6 ca3d ede1 163d
00000010: 5cb9 c4bd 6dda 303d 7e7c 103b 0150 9bbd
00000020: 115a 8bbd cea1 473d f47d 21bc 20ec b43d
00000030: fcc5 f83d 181d acbc 10fd d639 7b01 d23d
00000040: 56a1 a9bc 1647 033d e248 ee3c 3f9f fe3c
00000050: 081d 223d de68 90bc f63a cfbc 5ac2 133d
00000060: 3b92 8b3d a193 3b3d 210b 293d 684a 6c3d
00000070: 6487 c93d 3980 fc3d 2c7d c2bb 73b0 3a3c
00000080: 5a45 1f3c 6eb1 4c3c c5e9 a73c 1a57 533c
00000090: 9d91 2f3d 7c1f 8d3c c3e5 093d fcbb 47ba
000000a0: 550b 29bd 37be fc3c f199 e33b b487 fdbc
000000b0: 4fd5 bcbd 0703 afbc bc23 0dbd 2438 17bd
000000c0: 447b 75bc 6add 9c3c e162 2f3d 5a21 2ebd
000000d0: 3a3f 363d ba85 2bbc 147c 403d e838 873d
000000e0: be8a d63c aff4 b7bc 46db cb3c 702f 42bd
000000f0: 13aa 9bbc 17a8 25bc 6d17 123c 9859 683c
00000100: e4bd d73c 399b 393d 1aa1 4abd a6bd 9bbd
00000110: 6167 5f3d aac0 683d ec33 02bd 4228 053d
00000120: 8045 913d c23c b03d ec13 f8bc d2e9 153d
00000130: 86ed 483c 18d9 f6bc 088e cfbc f6b7 673b
00000140: b75a c3bd 2298 e0bc 1d4d b73d 3a51 313c
00000150: 3245 2cbc cacc 72bc c565 923c d0bc 9abb
00000160: bace cfbc eac9 b8bb 117f 35bd bc2a 233d
00000170: ac45 423c 514a 243c a5c2 9f3c 7049 72bd
00000180: 4ae5 f43b b842 023d 89cf cb3d 97e5 8dbd
00000190: 405e b9bb 0170 9f3c a806 b7bc de07 1a3b
000001a0: 4c9c a53c 29da 2dbd 482d e3bd 12c6 053c
000001b0: 2493 353d 2ae8 97bc 0f4d 883d ea22 3cbc
000001c0: dc62 263b 8f60 62bd d0c3 9fba 61f2 8bbc
000001d0: 60d2 033d c894 25bd c65e d83a d72b 833c
000001e0: 9416 9fbc c8f2 3e3c cc52 53bd fcd2 abbd
000001f0: f48c 893a c083 9dbc bcb6 c1bc 9605 2f3c
00000200: c59e 3ebd a47c 0c3d f4a1 b1bd 3046 833d
00000210: 420e 9d3d 27be aebc 3922 85bc b534 e0bc
00000220: 9b3e 9b3d 3a26 ff3c 2166 1e3c 3b7d 9d3d
00000230: dc80 1c3d 33d1 c3bc 3425 b8bb 4439 c73c
00000240: 3021 c73c f6ad 3ebc 6d30 673d e29e c4bc
00000250: f862 3b3b e1dc ab3d 1a11 1cbd 48a5 7abc
00000260: 52ea 7c3d d060 0b3d 993a 47bc 535d 92bd
00000270: 28ba ec3a 1e58 ec3c aa3e 5abd b1c1 28bd
00000280: 90fd 0bbd d83c a3bc 013c 4abd 996c 5abd
00000290: 96e1 543d a144 733d 1aee 4abd 30ce 6f3c
000002a0: eea6 00bc a356 eebc 06a0 d8bc 7457 933d
000002b0: ef5d 1dbd eae1 66bd ccb0 c73c 394a 99bd
000002c0: aeee c53c dd67 acbc f734 b13c 014d dcbd
000002d0: daa4 1fbd a397 7ebd 3093 a93c 6cd3 613d
000002e0: 05da 03bd aea0 11bd 1a59 a83c 8cd9 d5bb
000002f0: f877 353c 5077 9c39 f1a4 a4bd c425 fb3b
00000300: 6eec f73c 9ce7 313c 721b 09bd 200d 2e3c
00000310: cfb8 34bd ec6e a83c e94d 76bd e607 80bc
00000320: 609d 8dba 5379 613d 9aac eb3d b426 263b
00000330: 8223 373d 0023 613a 600e 7a3d 9128 b03d
00000340: 641e e2bc e075 53ba 8515 1ebd e6db cebc
00000350: 7609 22bd 1c89 743c b5d8 89bd 74cb fbbc
00000360: 82c2 953c 4e74 7dbc 2d50 a7bc 39e2 0d3d
00000370: 3a1d 803c b937 58bd 38c3 a7bd e3d4 1a3e
00000380: 1f68 6fbc 1ea9 093e 7c59 b8bb 2603 5c3d
00000390: 1542 263b bc00 ad3c 2e51 27bc 5e59 7ebc
000003a0: a0cd c43c 8556 babb c20b 6f3d 61b0 83bd
000003b0: 0245 8d3c 7089 5fbd 74df 34bb 5a45 23bc
000003c0: 3b6e 2cbd be78 903d f024 2e3d 3ad7 8bbb
000003d0: 1e3d ef3c 88c9 333d 4ead cdbc 0056 ff39
000003e0: ef89 02bc 8b5d 09bc ce31 11bd 6cda 22bd
000003f0: 0c17 e5bd cf74 97bd 7e5d f3bd 776c 6ebc
0.055301204 0.07318699 0.09901182 0.036836553 -0.09605667 0.043177057 0.002204686 -0.07583619
-0.06804288 0.048738293 -0.00985669 0.088341 0.121471375 -0.021009967 0.00041005807 0.102541886
-0.020706814 0.032050215 0.029087488 0.031081794 0.039578468 -0.01762813 -0.02529667 0.03607402
0.068150006 0.045795087 0.04127038 0.057688147 0.09840277 0.12329144 -0.005935332 0.011394608
0.009721125 0.012493474 0.020497212 0.012899185 0.042863477 0.017226927 0.033666383 -0.00076192594
-0.041270573 0.03085242 0.0069458415 -0.030948497 -0.09220373 -0.021363748 -0.034457907 -0.036918774
-0.014983002 0.019148547 0.042818908 -0.042512275 0.04449389 -0.010468895 0.04699333 0.06602651
0.026189204 -0.022455541 0.024884831 -0.04740852 -0.019001996 -0.0101108765 0.008916718 0.014181517
0.026335664 0.045314047 -0.049470045 -0.07604532 0.05454195 0.056824364 -0.031787798 0.032509096
0.07093334 0.08605339 -0.030282937 0.03659994 0.012263661 -0.030132815 -0.02533628 0.0035357452
-0.09538787 -0.027416293 0.08950255 0.010822589 -0.010514544 -0.014819333 0.017870793 -0.0047222152
-0.02536713 -0.0056393044 -0.044310633 0.039835677 0.011857431 0.010027484 0.019501993 -0.059152067
0.0074736224 0.03180191 0.099516936 -0.069285564 -0.0056569874 0.019462587 -0.022342041 0.0023503224
0.02021613 -0.042444382 -0.11092621 0.008164899 0.044329777 -0.018543322 0.06655323 -0.011482934
0.0025388515 -0.055267867 -0.0012189094 -0.017083349 0.03218305 -0.040425092 0.0016507737 0.016012115
-0.019419946 0.011654563 -0.051592633 -0.083898515 0.0010494278 -0.019227862 -0.023646705 0.010682484
-0.046538133 0.034298554 -0.08673468 0.064098716 0.07668735 -0.021330906 -0.01625167 -0.027368883
0.075803004 0.031146158 0.009667904 0.076899014 0.038208827 -0.023903465 -0.0056196693 0.024319299
0.024307817 -0.011638155 0.056442667 -0.024001542 0.0028592926 0.08391739 -0.038102247 -0.015298195
0.061746903 0.034027874 -0.012159967 -0.071467064 0.001806085 0.028850611 -0.053282417 -0.041200344
-0.034177363 -0.019926473 -0.04937363 -0.053326223 0.051972948 0.05939162 -0.049543478 0.014636561
-0.007852299 -0.029094046 -0.026443493 0.07194415 -0.03841966 -0.056367792 0.024376296 -0.0748486
0.024161663 -0.02104562 0.0216317 -0.10756875 -0.038975574 -0.06215633 0.020700067 0.05513327
-0.03219034 -0.035553627 0.0205503 -0.0065261777 0.011075966 0.00029843533 -0.080392726 0.007664414
0.030264106 0.010858443 -0.03347344 0.010623246 -0.04412156 0.020560704 -0.060132895 -0.015628766
-0.0010804348 0.055047344 0.115075305 0.0025352659 0.044711597 0.0008588284 0.061048865 0.086014874
-0.027602382 -0.0008066576 -0.03859474 -0.02525134 -0.039559804 0.014925268 -0.06730787 -0.030736662
0.018281225 -0.015469624 -0.020423973 0.03463957 0.015638936 -0.052787516 -0.08191532 0.15120272
-0.014612227 0.1344342 -0.0056259017 0.05371394 0.0025368978 0.021118514 -0.010212226 -0.0155242365
0.02402383 -0.0056865835 0.058360822 -0.06430126 0.01724482 -0.05457443 -0.0027599009 -0.009965265
-0.04209731 0.0705428 0.042515695 -0.0042676004 0.029203948 0.043893367 -0.025107052 0.00048701465
-0.007967456 -0.008384119 -0.035447888 -0.039759085 -0.111860365 -0.07395326 -0.118830666 -0.014552227

std.constant5 f4 [128, 128]
00000000: bc53 b83d fbbc d3bc 6ef0 debc ddea c23d
00000010: 0014 c23b 1c07 09bc d272 a1bc 9686 c03d
00000020: f864 183c bc21 9bbc aa84 4fbc eeea 283d
00000030: cc17 cebc 54ef 64bd 2293 353d 4ce4 4abd
00000040: 8ffa b0bd 79fc 0d3d 7f07 8d3d 8865 1dbc
00000050: 8fd1 17bc 7c82 26bc c144 293c ce93 15bc
00000060: d891 c13c dcc1 d23b c668 0bbd 2b12 7f3d
00000070: 3b94 763c 0bcb 86bd 2c98 b4bc 2ad7 8a3b
00000080: 5a6f ecbc b69a 243c e9bc a23d 27d9 ddbc
00000090: cade 3b3d 9f97 873c ea72 0d3d 21f7 b5bc
000000a0: fb9e 853d 713e dabb 1903 e23c 581d ecbc
000000b0: 38ba 48bb 46d2 043d 296a 953d 828c a43d
000000c0: 9ec4 dd3c 3d13 0ebd b660 953d 16bc 2f3d
000000d0: 8884 e5bc 7a31 e53d 75bf 323d c253 e93c
000000e0: 635c d7bc 26e1 413d 762c e73b 8f92 b4bd
000000f0: ba75 82bd 6cdf aa3d f7e5 4bbd 2208 b73c
00000100: 2d46 a8bd 1520 d3bc 510f 87bc 70cc ddbc
00000110: 397f 5a3c b3b0 093d 7c6f 8a3c bec9 b93c
00000120: f20e 823a c716 10bd d336 b0bc 60a9 20bb
00000130: 9068 a1ba 9aa8 ecbc db89 8b3b 8086 863a
00000140: 0a05 63bd 251a ca3c 679f 6bbc 1074 2abd
00000150: 8def 6b3c 585f 2f3c 8867 1d3d e6b6 8d3c
00000160: 49b2 023d a901 0cbd 5d9e 80bd 5af6 8e3d
00000170: d235 023d 643e a7bc 10d9 97bc 70f4 5f3d
00000180: 6f5b 7a3d 3851 c838 112a d9bc a8b5 15bd
00000190: 4976 5ebd f746 8f3d fd1b d43c b929 343b
000001a0: b1ea b3bc 13e6 f23c ce54 00bd 1978 6c3d
000001b0: fef8 18bd 1b84 0ebd b789 11bd 9268 0d3c
000001c0: 156b cbbc 2226 9e3d da8b 03bd f44b 9f3d
000001d0: d805 38bd 4ea8 a3bc e86b 8e3a 219d 3f3c
000001e0: 820b b93b 400a 23bd 6e09 eb3c 1c64 4a3d
000001f0: 29fd 22bc 5f25 653d cd5b 373d 8474 623d
00000200: c3b1 08bd 6e2f 053c 6634 a4ba b0df e33c
00000210: 672d a4bc 16eb c13d 4af0 933c a6c5 733d
00000220: 0fb6 27bd 28f2 1a3d 88ab 18bc 1742 a53c
00000230: f144 01bd 9daf 41bd 143a b93c 988b 583d
00000240: 9106 d4bc 5a61 b33c 20ef fbbb bee8 9ebc
00000250: 0c27 b5bb cf1f 333d f3e8 12bd b074 a03c
00000260: 3ed1 fbbc 82a2 3ebd 75e9 f8bc 6e5d 4d3d
00000270: 7d77 2f3c 4a1c 5abc 9c0d 213d f4cd 71bd
00000280: 020c 17bd aac6 00bc 95ca 143d 8e3d 853c
00000290: 87aa c73b 669f a03c d0c1 13bc 4f01 943d
000002a0: f52d 48bd d70a 9dbc 62f9 0dbd 3c67 893c
000002b0: f98e 01bd ab73 84bb 7587 0a3c c057 be3b
000002c0: 8339 763d e569 8cbc 6c82 743d 9bb8 20bd
000002d0: d21a b7bd abff 1ebd 5fa4 203d 318e a7bd
000002e0: dc7e 6c3d a89c 56bc d6ce 4bbd cfa7 ecbd
000002f0: f415 ec3b 8632 173d c4ef 853d e937 3c3b
00000300: 4b69 7abd 6db7 353d 07e3 1abd 5626 19bd
00000310: a024 c3ba de96 d1bb a31a 84bd b17b 983c
00000320: 8159 00bd 881e f9bc 8982 a83c 1c4e bb3d
00000330: 1526 183c 2a69 d9bc d2ae f4bc ad51 88bd
00000340: c019 48b9 e87b db3b 4636 003d 1cd0 283d
00000350: a8b1 98bb 1ac6 6b3d 8098 0d3d 305a 21bd
00000360: 424a 55bb 050d 87bd 59a6 35bd 30b2 8d3b
00000370: 9075 84bd 9744 84bd 3d76 3bbd aa1a 8f3c
00000380: 7fb5 a5bb e0a5 e83b dfce 513d 046d f93c
00000390: e8c5 5dbd 6a18 13bd 42fd 68bd dca5 8cbd
000003a0: fc19 71bd 4c7e 2e3c 9047 9c3a 81d7 68bd
000003b0: f0fe 013d 4066 85bd a634 953c 9a66 c8bc
000003c0: 8cf9 31bd 47a7 3cbd 0c63 ad3c c28c 603d
000003d0: fe57 583d 4146 06bc c60c 363c d212 c33d
000003e0: c30e 3abd 695f e1bc ea34 a0bc 9480 6bbb
000003f0: a156 e2bc fc5d 34bc 00fb b5b9 d103 bcbd
0.09000346 -0.025846949 -0.027214255 0.09517453 0.0059227943 -0.008363511 -0.01970807 0.0940067
0.009301417 -0.018936984 -0.012665907 0.04123967 -0.025157832 -0.055892304 0.04432977 -0.049534127
-0.0864154 0.034664605 0.068861954 -0.0096067265 -0.009266271 -0.010162946 0.010331334 -0.009129478
0.023629114 0.0064318012 -0.034035467 0.062273186 0.015049989 -0.06581696 -0.022045217 0.0042370753
-0.02886169 0.010046652 0.07946188 -0.027081085 0.045866765 0.01655179 0.03453342 -0.022212567
0.06524464 -0.0066602756 0.027589368 -0.028822586 -0.0030628573 0.032427095 0.07295639 0.08034612
0.027071293 -0.034686316 0.07293837 0.042903982 -0.028017297 0.111910775 0.04363962 0.028482322
-0.02628917 0.04733386 0.0070548607 -0.08817016 -0.06370111 0.083433956 -0.04977986 0.022342745
-0.0821651 -0.025772134 -0.016486796 -0.027075022 0.013335996 0.03361578 0.016898863 0.022679206
0.0009922667 -0.035177972 -0.021510517 -0.0024515018 -0.0012314487 -0.02888899 0.004258377 0.0010263473
-0.055424727 0.02467067 -0.014381266 -0.041614592 0.014400375 0.010703884 0.038428813 0.017299127
0.031908307 -0.03418127 -0.062802054 0.069805816 0.03178961 -0.020415492 -0.01853612 0.054676473
0.061122354 9.551871e-05 -0.026509317 -0.036550194 -0.054312024 0.06995957 0.025892252 0.002749069
-0.021962496 0.029650724 -0.031330876 0.05773172 -0.037346832 -0.034793954 -0.035531726 0.008630889
-0.024831334 0.07722117 -0.032115795 0.07778159 -0.044927448 -0.019977715 0.0010865899 0.011695177
0.005647124 -0.039804697 0.02869102 0.049411878 -0.009948053 0.055943843 0.044765282 0.0552869
-0.03337265 0.008128984 -0.0012527823 0.027816623 -0.02004118 0.09468667 0.018058915 0.059514664
-0.04094511 0.037828594 -0.00931824 0.020173116 -0.03155989 -0.04728662 0.022610702 0.052867502
-0.025882037 0.021897007 -0.007688418 -0.01939809 -0.0055283364 0.043731507 -0.03586669 0.019586891
-0.030739423 -0.0465417 -0.030384758 0.05013793 0.010709641 -0.013312409 0.03931962 -0.059034303
-0.036876686 -0.007859865 0.03632601 0.016264703 0.0060933265 0.019607257 -0.0090183765 0.07226812
-0.048871953 -0.019170208 -0.034661658 0.016772859 -0.03163049 -0.004042109 0.008455147 0.0058088005
0.06011344 -0.017140338 0.059694692 -0.039238553 -0.089406624 -0.038818043 0.039219256 -0.08181418
0.05773817 -0.013098873 -0.0497578 -0.115554444 0.0072047655 0.036913417 0.06539872 0.0028719848
-0.06113557 0.04436438 -0.037814166 -0.037390076 -0.0014888234 -0.0063961586 -0.06450393 0.018613668
-0.031335358 -0.030410066 0.020570057 0.091457576 0.009286423 -0.026539404 -0.029868517 -0.066562034
-0.00019083079 0.0066981204 0.03130176 0.041214094 -0.00465985 0.05756197 0.034569263 -0.03939265
-0.0032545482 -0.0659428 -0.044348095 0.00432422 -0.06467736 -0.06458395 -0.045767058 0.01746877
-0.0050570364 0.007099852 0.05122268 0.03044749 -0.054143816 -0.035911955 -0.05688215 -0.06867573
-0.05886267 0.010650229 0.0011923183 -0.056846146 0.031737268 -0.06513643 0.018213581 -0.024462987
-0.043450877 -0.046057966 0.021165393 0.054821737 0.05281829 -0.008195461 0.011111444 0.09525074
-0.045424234 -0.027511315 -0.019556481 -0.0035934793 -0.027629199 -0.011008736 -0.0003471002 -0.091804154

std.constant6 f4 [128, 128]
00000000: 202e 463d 86af 8dbd c18b 973d 83c0 b1bd
00000010: 8006 99bb b5fc fcbc 7c51 23bc 099b 38bd
00000020: 8253 20bc 7e97 99bc 9d32 783d 4606 823d
00000030: f24f 913d e4bb 46bd 5e16 9c3c fdb8 323d
00000040: 08f7 463c e7d0 323d 84c0 5abc 280a cdbb
00000050: 0938 fc3c 752d 1e3c 6472 7a3b c0dc 1a3c
00000060: 1818 29bd fd77 16be 54e9 c6bc dc70 87bd
00000070: 791a 4e3d ac8c ec3c dc10 573c c4b0 713d
00000080: b7da 55bc b987 5ebd b611 743d fd92 013d
00000090: b67d a83c 8cdd dd3b f191 963d 6841 0abd
000000a0: e052 acbc 5a13 4b3d 4eb8 0bbd f59c 943d
000000b0: b0b3 03bd a0c4 f3b9 5f6e b93d 66a7 9cbc
000000c0: 78bf be3b b9b4 8dbc b807 983d 6137 b03d
000000d0: bcbe 6fbd b70f 65bc 89a8 1fbc e55e bb3c
000000e0: a0c5 13bd 898c 9bbc 9050 c83d 87a8 86bd
000000f0: 388d 823b 930d b53c c235 30bd 7dd7 92bc
00000100: 7332 f0bc 8058 52bd 7067 5c3d b078 6cbb
00000110: abdd 0bbd 2247 b63c a362 8dbc 554a a8bd
00000120: 00ba 0cbd 196d b4bb 6936 c33d 23f1 db3d
00000130: 3585 1e3d b0d5 383c e998 c7bc 160e 363d
00000140: 14a5 c03c d44d 7bbd 4e4a ecbc 3072 293d
00000150: 2b4e 05bd 3c7f 26bd c8d2 48bd 506d 563d
00000160: 154d f73c 273a 87bd 2a12 9f3c 1145 4b3d
00000170: d022 973a 9676 d93c f3b8 36bd 7a01 863c
00000180: da31 4c3d 4a77 9abd 2c9a 443d 65db 933d
00000190: 50ef d4bc a70f bbbd 5a97 86bc d66e 0d3d
000001a0: 9831 4e3d 901a c6bb 6ea9 283d 1ce7 c13d
000001b0: c814 923b fcb7 12bc 600b 8ebc 625a a3bc
000001c0: 57b9 70bb fe2b d03b d159 70bd 383d 0a3c
000001d0: 5410 0cbd 60c6 f7bc a8dd 50bd a43e 123d
000001e0: cba8 0c3d 7b12 ec3b f2b4 493d 68d1 0f3c
000001f0: 22f4 ab3c 4e35 bbbc cfa7 7abd 36c4 153d
00000200: 26d0 993c 8035 2dbc 665b 3abd eb08 fa3c
00000210: 75a8 4cbd eeff 23bd 70d0 563d 46f7 cebc
00000220: bd86 d23b 74a2 ad3d ffd2 3fbd 61cf d23b
00000230: d391 dfbb 0ad8 d23b ef6b cbbd 6b53 02bd
00000240: bd77 ebba d0b7 1fbd ffe5 993b 62ed 6bbd
00000250: 2375 b5bb a692 9abc dc6f 693c e644 443d
00000260: 0022 45bd 657f 00bd 54b0 833d d565 7d3c
00000270: db7b 903c c88e a2bb 686c 28bd c660 3b3d
00000280: 3687 c3bc d521 8cbc abb4 36bd 2c72 9c3c
00000290: bf88 17bd 7580 4a3c cef6 c73c 2a06 c6bd
000002a0: 5c17 b93d 978b 1f3d 3847 82bd aab5 a83d
000002b0: 4fb3 a83c bb3d 6c3d ce36 273d a64c 8a3d
000002c0: cb6b c73c 450c 953d a1fd 47bd 023a 28bd
000002d0: 9022 49bc 44ba 8bbc 0b40 733d 2458 27bb
000002e0: 3d6f 923c 20a3 2b3c e4e5 ddbb bc61 3fbd
000002f0: 0e0f 20bb 3b81 a43c 7541 babc 2cdb 7a3d
00000300: 5b20 cf3d a825 883c eb9f ce3c 901f 18bd
00000310: d2a3 02bd 1004 30bc 77c5 0e3d d042 2d3d
00000320: 12bd 05bd 4817 d13c c6c8 293b b4eb 393c
00000330: 0644 ab3c d2fc 0dbd 61e9 b4bc 6960 13bc
00000340: 6f8b 07bd 8791 f63c 3aec 183d d2f7 1e3d
00000350: 8479 9abb a2a7 1cbd adfd 833d abae 913c
00000360: 0724 43bd f41a cbbb 0cf8 a4bd fb93 d33d
00000370: d57a dcbd 92e1 7c3d 853c 9b3c 4538 3fbd
00000380: 0dc9 533c 1839 c63d 9781 cdbc 42bc 763d
00000390: 030d 1c3d ea57 813c bb3f 8c3b db87 4bbd
000003a0: dbd5 033d 2c00 053d 8350 233d dcbe 52bd
000003b0: b8a8 00bd cfea 033a 350c f33c 04d4 073d
000003c0: 3d6d 5cbd 960e 8db9 293e 503d c416 7c3d
000003d0: 1f66 373d f887 bcbc bae8 89bc 6c12 bd3c
000003e0: eb87 8c3b d0cc 9c3d b2d8 883d 5e89 653b
000003f0: 2cb3 4e3d f059 18bb a8e7 37bb fbbb 1f3d
0.048383832 -0.06918244 0.07399703 -0.08679297 -0.0046699643 -0.030882219 -0.009968158 -0.045069728
-0.009785535 -0.018748995 0.060595144 0.06348853 0.070953265 -0.04851903 0.019053634 0.04363345
0.012143858 0.043656256 -0.013351563 -0.0062573142 0.030788438 0.0096543925 0.0038215155 0.009452045
-0.041282743 -0.1469421 -0.024281181 -0.06613323 0.050318215 0.028875671 0.013126578 0.059006467
-0.013052634 -0.054328654 0.059587203 0.03163432 0.020567756 0.006770795 0.07352055 -0.033753783
-0.021035612 0.049579002 -0.034111314 0.072565 -0.032153785 -0.0004649507 0.09054255 -0.01912279
0.0058211647 -0.01729809 0.07423347 0.08604313 -0.058531508 -0.0139807975 -0.009744772 0.022872398
-0.03607714 -0.01898791 0.09780991 -0.06575113 0.0039841197 0.0221012 -0.043020017 -0.017925018
-0.029320931 -0.05135393 0.053809583 -0.0036082678 -0.034146946 0.022250716 -0.017258948 -0.08217303
-0.03435707 -0.0055061695 0.09531862 0.107393526 0.038701255 0.011281416 -0.024364905 0.044447027
0.023516215 -0.06135352 -0.028844025 0.041368663 -0.03254525 -0.040648684 -0.04902914 0.052350342
0.030188123 -0.066028886 0.019417841 0.049626414 0.0011530761 0.026545804 -0.044609975 0.016358126
0.04985223 -0.07542284 0.047998592 0.072195806 -0.02599302 -0.09133845 -0.016429592 0.03452953
0.050340265 -0.006045647 0.041177206 0.09467909 0.0044580437 -0.008954998 -0.017339408 -0.019940559
-0.0036731565 0.0063529005 -0.058679406 0.008437447 -0.03419526 -0.03024596 -0.050992638 0.03570427
0.03434066 0.0072043515 0.04924483 0.008777954 0.020990435 -0.022852566 -0.06119519 0.036564074
0.01877601 -0.010571837 -0.04549732 0.03052183 -0.04996534 -0.040038995 0.052444875 -0.025264394
0.0064247535 0.08478251 -0.04683208 0.006433413 -0.0068228035 0.0064344453 -0.09932696 -0.031817835
-0.0017964762 -0.038993657 0.004696607 -0.057599433 -0.0055376454 -0.018868756 0.014247861 0.04791727
-0.048128128 -0.031371493 0.06430116 0.015466173 0.017637184 -0.0049608685 -0.04111901 0.045746587
-0.023868185 -0.017105976 -0.044605892 0.01909741 -0.036995646 0.012359728 0.024409678 -0.096691445
0.090376586 0.038951483 -0.0636124 0.08237775 0.020593314 0.05767606 0.04082375 0.06752901
0.024343392 0.07277731 -0.048825864 -0.041070946 -0.012276307 -0.017056592 0.059387248 -0.0025534714
0.017875308 0.010475904 -0.00677179 -0.046724066 -0.0024423036 0.020081153 -0.02273629 0.061244175
0.10113593 0.016619518 0.02522274 -0.037139475 -0.031894512 -0.010743156 0.034856286 0.042300045
-0.032651015 0.025523797 0.0025907024 0.0113477 0.02090646 -0.034664936 -0.02208394 -0.008995154
-0.03309196 0.03009869 0.03733466 0.03881056 -0.004714193 -0.038245805 0.06444869 0.017783483
-0.04764178 -0.0061982814 -0.08055124 0.103309594 -0.10765616 0.061738558 0.018949756 -0.046684522
0.012926352 0.096788585 -0.025086207 0.06023813 0.038098346 0.015788991 0.004280058 -0.04969011
0.03218637 0.032470867 0.039871704 -0.05145155 -0.031410903 0.00050322426 0.029668907 0.03316118
-0.053815115 -0.00026904483 0.05084053 0.06154515 0.044775125 -0.023014054 -0.016834605 0.023080073
0.0042886636 0.076562524 0.06681956 0.0035024504 0.05046384 -0.0023246966 -0.0028061662 0.03899763

std.constant7 f4 [128]
00000000: 60c2 ad3d dd89 1c3d 555f 1a3d f0cd 363d
00000010: 055e d7bb d1c8 923d 6d01 fd3d fe2b 103d
00000020: bebc 79ba c8bc 503d fe8d dcb9 7d57 9e3d
00000030: 7dd3 c3bb 4787 0e3b 81be 8e3d bf5f 71bc
00000040: 8475 bebb e07b 80bc ff7d e13b 2310 413d
00000050: 6669 583c ae9b a33b a0cc 253c 0598 033d
00000060: 6f6e 133e a12a 243c c5ed 42ba ef45 bf3c
00000070: 518c 993c 0ff0 aa3b b1b3 893c d114 2a3d
00000080: 4ae8 c33b e45d e83c b8aa 693d c553 a43b
00000090: a3cc 103e 5b51 633d 98c5 fc3d 1d54 62bc
000000a0: 5481 fe3d 542f de3c a286 afbb cce7 ed3c
000000b0: dfab 0abc 2a8a 9d3c 6081 643d cbea 083b
000000c0: b50c f23d 3782 313c 0ba2 10bc c6ac f43d
000000d0: 735f 253c 8fc7 a73d 032e 073b 4796 aa3c
000000e0: 42c2 493d 45a4 cc3d 0744 823c 8113 223d
000000f0: a2f6 423d 74ec b7bb a484 c33c c025 963d
00000100: fb84 c83d bb58 6f3a 8287 de3c 2d4e 65bb
00000110: f8b7 b63d 470e 2c3e 933c d53c 5598 cb3c
00000120: 55fd 90bb 985e d63d 7b30 343d 5f3c c33d
00000130: d15d bebb 9e02 793d ca1a 6b3d fa9a 433d
00000140: 7a91 ec3c 72c6 553c 774e 293d dc54 cf3c
00000150: e52e e53d c09e 9e3c f3c8 c8ba d3b6 e0bb
00000160: 9bd7 65b9 e009 f43c 1caf f13c 1979 d63c
00000170: 3f14 573d 781f 0b3d 0059 393d 0b01 333d
00000180: 1a96 c53b b14b d73c 1c60 d43d 8b6d 4a3d
00000190: add4 dc3c 47d2 bfbb c277 693d 17b9 4abb
000001a0: 6083 d53c b0f0 a63d f6f8 823c e8d5 873d
000001b0: 5619 2b3d 9bbe 183d 1385 a83d 85e8 ab3c
000001c0: 5a44 d23c e93b 273d ade8 153d 85f6 e7bb
000001d0: 08cf f8bb 0e7b 70bc c469 c13c 6e42 ce3a
000001e0: 52b3 9dbb 3d6d e83c 5568 b53c 0ffe 1d3d
000001f0: 47ae a93c c578 39ba e09a 0f3b 42cf dd3b
0.0848434 0.038217414 0.037688572 0.04462999 -0.0065724873 0.07167209 0.123537876 0.035198204
-0.0009526721 0.050961286 -0.00042067462 0.07731531 -0.005976139 0.0021748112 0.069699295 -0.0147323
-0.005812349 -0.015684068 0.006881475 0.04713453 0.013208723 0.0049929237 0.010119587 0.0321274
0.14397596 0.010019929 -0.0007435943 0.023348777 0.018743666 0.0052166055 0.016809316 0.04152376
0.0059786187 0.028365083 0.057047576 0.005014869 0.14140563 0.05549751 0.123423755 -0.0138139995
0.12427011 0.027122177 -0.0053566257 0.029041193 -0.008463829 0.01923092 0.055787444 0.00208919
0.1181883 0.010834268 -0.008827697 0.119470164 0.010093558 0.0819236 0.002062679 0.020823611
0.049257524 0.099922694 0.015901579 0.03956938 0.04759849 -0.005612904 0.023866959 0.07331419
0.09790989 0.00091303483 0.027164225 -0.0034989223 0.08921808 0.16802321 0.02602986 0.024852911
-0.004424731 0.10467261 0.043991547 0.09532999 -0.0058095236 0.06079351 0.057398595 0.04775522
0.028877962 0.013047801 0.041334596 0.025309019 0.11190585 0.019362807 -0.0015318677 -0.006857732
-0.00021919461 0.029789865 0.029502444 0.02618079 0.052509543 0.033965558 0.045250893 0.043702167
0.0060298564 0.02628121 0.10369894 0.049420875 0.02695688 -0.0058539244 0.056998976 -0.0030933076
0.026063621 0.08151376 0.015987854 0.06632596 0.04177221 0.03729115 0.08228507 0.020984897
0.025667358 0.04082862 0.03659885 -0.007078948 -0.0075930394 -0.014677776 0.023610003 0.001573635
-0.0048126364 0.028372401 0.022144476 0.038572367 0.020712985 -0.0007075186 0.002191238 0.006769092

std.constant8 f4 [128]
00000000: 6f4a 883c 1d0e 263b 0961 2e3b f378 24bb
00000010: de31 823b bd2b 593b e033 33bc a2a8 ae3a
00000020: a0af a0bc 9e5e 20bb 2d28 c6bb b507 723a
00000030: 0a59 dcbb 48ec 503b a7bd 9bbc 1fbc 363c
00000040: ed51 a8bc 9d30 9b3c 8eaa e03b 4df7 cfbb
00000050: 23fd 683c 0ff3 3dbc 1d53 67bc 7226 bfba
00000060: 5f0f 8bbb 17c3 34bb 29cf eebb 0343 983b
00000070: a108 4dbb bfa1 063b f81f 7f3b 0ed8 833b
00000080: 65a6 92bb c90f 0b3b 45ca dabc d9dc 103c
00000090: a94c e03c bdc7 86bb d166 e5bb 82b2 88bc
000000a0: 30b5 ce3b 4c47 c43b 8ff8 dbbb a453 8abc
000000b0: 28b2 11bc b981 4d3c 3a08 94bc dfc3 703b
000000c0: 4cd2 d73c 7c20 bb3a 83b9 0f3c fd78 9ebc
000000d0: f0c8 c43c 4759 9abc eb4a ddbb 4bd5 eebb
000000e0: f083 55bc 3fba bfbc d22a c5bb 0adb 4fb9
000000f0: 71b7 5abc b480 993b 3f08 91bb fa7e f2bb
00000100: ac2b b9bc 9f40 873b fc5d f2bb ad08 263b
00000110: 3f96 89bb 2dc9 583c b46f c4bb bb08 98bb
00000120: fce3 9fbb 57c8 cbbc dd82 153c 4bc7 9c3c
00000130: 9a54 e83b 2a15 473c 4607 88ba 4b8d ec3a
00000140: 3b14 6ebb 1727 86bc edc5 71bc bcd8 36bb
00000150: 4050 e23c 117c fb3b 2fe9 bc3c e6ce 8fbb
00000160: bb86 353c 4e72 b43b b9f2 973b c4b0 babb
00000170: 87d0 aabc 0204 6eba 3c51 1c3a b1ab c93c
00000180: b5a1 b3bb 6328 4dbb fe31 cf3c 3d0d c93a
00000190: 781c c5bc 9e7b c0bb ea6c 3dbb 4d69 febb
000001a0: 16ce 8fbb 4bd2 99bc 6dfe 32bc af71 c3bc
000001b0: 98b4 03bb f5c4 9d3b e683 b43c 57b5 483c
000001c0: 666b e7bb 02e1 0f3c 97c2 b8bc 6838 023b
000001d0: d45e cf3b 2531 963c fa9d 363b 29af 1cbb
000001e0: 066d fc3a 9c35 fbbb 2eb8 82bb 2131 6c39
000001f0: df4f a6bc b883 dabb d6c5 ad3b 3322 69bb
0.016637055 0.0025338002 0.002660813 -0.0025096505 0.00397323 0.0033137642 -0.010937661 0.0013325403
-0.019614995 -0.0024470459 -0.00604727 0.0009232716 -0.0067244815 0.0031879116 -0.019011332 0.01115325
-0.020546878 0.018944079 0.006856269 -0.006346619 0.014220509 -0.011593594 -0.014118937 -0.0014583601
-0.0042437757 -0.0027582103 -0.007287879 0.0046466603 -0.003128566 0.0020543186 0.0038928967 0.0040235585
-0.004475402 0.0021219125 -0.026707778 0.008841717 0.027380304 -0.004113166 -0.007000782 -0.016686682
0.0063082203 0.0059899446 -0.00671298 -0.016885586 -0.008892573 0.012543135 -0.018070329 0.0036737842
0.026345395 0.0014276649 0.008772257 -0.019344801 0.024021596 -0.018841399 -0.0067533157 -0.00728861
-0.013031945 -0.023404239 -0.0060170675 -0.00019822657 -0.0133494 0.004684532 -0.004426032 -0.0074003907
-0.022603832 0.0041275765 -0.0073964577 0.002533476 -0.004198819 0.013231558 -0.0059947614 -0.0046397126
-0.004879473 -0.024875803 0.0091254385 0.019137999 0.0070901634 0.012151042 -0.0010378144 0.001804748
-0.0036327976 -0.016376061 -0.014756662 -0.002790018 0.027626157 0.007674702 0.02306041 -0.004388678
0.0110794855 0.0055067902 0.004637089 -0.0056973416 -0.020851387 -0.00090795767 0.00059630326 0.024618002
-0.0054819235 -0.003130459 0.025292393 0.0015339028 -0.024061427 -0.0058741113 -0.002890403 -0.0077640177
-0.004388581 -0.018777033 -0.010924918 -0.02385792 -0.0020096656 0.004814739 0.02203555 0.012250266
-0.0070623634 0.008781673 -0.022553725 0.0019870047 0.006328443 0.01833398 0.0027865157 -0.0023908115
0.0019258566 -0.007666303 -0.003989241 0.00022525016 -0.020301757 -0.006668534 0.005303125 -0.0035573363

std.constant9 f4 [128]
00000000: 0000 803f 0000 803f 0000 803f 0000 803f
00000010: 0000 803f 0000 803f 0000 803f 0000 803f
00000020: 0000 803f 0000 803f 0000 803f 0000 803f
00000030: 0000 803f 0000 803f 0000 803f 0000 803f
00000040: 0000 803f 0000 803f 0000 803f 0000 803f
00000050: 0000 803f 0000 803f 0000 803f 0000 803f
00000060: 0000 803f 0000 803f 0000 803f 0000 803f
00000070: 0000 803f 0000 803f 0000 803f 0000 803f
00000080: 0000 803f 0000 803f 0000 803f 0000 803f
00000090: 0000 803f 0000 803f 0000 803f 0000 803f
000000a0: 0000 803f 0000 803f 0000 803f 0000 803f
000000b0: 0000 803f 0000 803f 0000 803f 0000 803f
000000c0: 0000 803f 0000 803f 0000 803f 0000 803f
000000d0: 0000 803f 0000 803f 0000 803f 0000 803f
000000e0: 0000 803f 0000 803f 0000 803f 0000 803f
000000f0: 0000 803f 0000 803f 0000 803f 0000 803f
00000100: 0000 803f 0000 803f 0000 803f 0000 803f
00000110: 0000 803f 0000 803f 0000 803f 0000 803f
00000120: 0000 803f 0000 803f 0000 803f 0000 803f
00000130: 0000 803f 0000 803f 0000 803f 0000 803f
00000140: 0000 803f 0000 803f 0000 803f 0000 803f
00000150: 0000 803f 0000 803f 0000 803f 0000 803f
00000160: 0000 803f 0000 803f 0000 803f 0000 803f
00000170: 0000 803f 0000 803f 0000 803f 0000 803f
00000180: 0000 803f 0000 803f 0000 803f 0000 803f
00000190: 0000 803f 0000 803f 0000 803f 0000 803f
000001a0: 0000 803f 0000 803f 0000 803f 0000 803f
000001b0: 0000 803f 0000 803f 0000 803f 0000 803f
000001c0: 0000 803f 0000 803f 0000 803f 0000 803f
000001d0: 0000 803f 0000 803f 0000 803f 0000 803f
000001e0: 0000 803f 0000 803f 0000 803f 0000 803f
000001f0: 0000 803f 0000 803f 0000 803f 0000 803f
1.0 1.0 1.0 1.0 1.0 1.0 1.0 1.0
1.0 1.0 1.0 1.0 1.0 1.0 1.0 1.0
1.0 1.0 1.0 1.0 1.0 1.0 1.0 1.0
1.0 1.0 1.0 1.0 1.0 1.0 1.0 1.0
1.0 1.0 1.0 1.0 1.0 1.0 1.0 1.0
1.0 1.0 1.0 1.0 1.0 1.0 1.0 1.0
1.0 1.0 1.0 1.0 1.0 1.0 1.0 1.0
1.0 1.0 1.0 1.0 1.0 1.0 1.0 1.0
1.0 1.0 1.0 1.0 1.0 1.0 1.0 1.0
1.0 1.0 1.0 1.0 1.0 1.0 1.0 1.0
1.0 1.0 1.0 1.0 1.0 1.0 1.0 1.0
1.0 1.0 1.0 1.0 1.0 1.0 1.0 1.0
1.0 1.0 1.0 1.0 1.0 1.0 1.0 1.0
1.0 1.0 1.0 1.0 1.0 1.0 1.0 1.0
1.0 1.0 1.0 1.0 1.0 1.0 1.0 1.0
1.0 1.0 1.0 1.0 1.0 1.0 1.0 1.0

std.constant10 f4 [128]
00000000: 3bf3 ad3d 7431 1c3d d7fa 1c3d 6ce4 343d
00000010: 046f d6bb 398a 943d 5fcf fc3d 33c3 103d
00000020: b11a 42ba ccbe 503d c71e 2aba df45 9d3d
00000030: 1718 c0bb dc96 dc3a ab1f 8f3d 078b 6fbc
00000040: c5cb bebb 6a8e 80bc 4082 f03b fe6c 423d
00000050: 25bb 553c c173 a13b 1824 1f3c 1e9c 043d
00000060: a465 133e f25f 223c bcdc 4dba 4219 be3c
00000070: 12e2 953c aee0 933b 1f10 853c 385f 2a3d
00000080: 9407 b23b de50 e63c 114d 693d bae6 a43b
00000090: 5433 113e ba8d 653d d787 fd3d 8371 62bc
000000a0: 978b fe3d c1ca dd3c f27e b4bb 6241 ed3c
000000b0: 8cd7 0bbc 8330 9d3c db16 623d 480b 1b3b
000000c0: d817 f43d 0971 2f3c 08f8 11bc 5bdc f33d
000000d0: 4b12 1e3c 1fa0 a73d babe 103b 38a0 ab3c
000000e0: 5497 483d 96d4 cc3d 2d01 893c 1552 213d
000000f0: 4fa2 403d 9322 bbbb 78b5 c63c 3aaa 953d
00000100: 77ba c83d d1d8 7b3a 0c2e de3c 5d03 57bb
00000110: 3449 b63d 4e42 2c3e babd da3c a91a cc3c
00000120: 4743 94bb 34b8 d53d d950 343d 1ec3 c33d
00000130: de16 bcbb 2f9f 793d 7002 6b3d d5b0 413d
00000140: a276 ee3c b50c 5d3c 2757 273d 9881 cb3c
00000150: 7083 e63d 9ef4 9b3c 3b43 c1ba a698 d9bb
00000160: 3612 9db9 d347 f33c c720 ee3c e901 d53c
00000170: bae4 573d 175e 0b3d 4e8d 3b3d ae82 333d
00000180: 9362 db3b 64bf d83c b474 d33d 9c5c 483d
00000190: 730f df3c 6637 bcbb d085 6b3d b234 33bb
000001a0: de8e d83c d2e7 a63d 89bc 813c d097 863d
000001b0: 8ef6 263d 2bb0 1a3d dfca a83d df2a af3c
000001c0: 94b8 d53c c50e 263d e6d2 163d f73a e9bb
000001d0: b211 fbbb 6b60 75bc ad27 bc3c 8b26 d33a
000001e0: 3809 9bbb d5ce e73c 7c61 b83c b0e1 1f3d
000001f0: 36b9 ab3c 9a64 bdb9 c776 163b 2c77 d83b
0.08493658 0.0381331 0.038325157 0.044163153 -0.006543996 0.072529264 0.123442404 0.035342406
-0.000740449 0.050963208 -0.00064895715 0.076793425 -0.0058622467 0.0016829628 0.06988462 -0.014620549
-0.005822631 -0.015692908 0.0073397458 0.047467224 0.013045107 0.004927129 0.009713195 0.032375447
0.14394242 0.00991057 -0.00078530214 0.023205403 0.018296275 0.004512868 0.016243039 0.041594714
0.0054330323 0.028114732 0.056958262 0.0050323876 0.14179736 0.056043364 0.12379425 -0.013821009
0.124289684 0.02707422 -0.005508297 0.028961841 -0.008535277 0.019188171 0.055197578 0.0023657847
0.1191861 0.010708102 -0.008909233 0.11907264 0.009647916 0.081848375 0.0022086338 0.020950422
0.048972443 0.10001485 0.016724193 0.03938492 0.04702979 -0.0057109087 0.024256453 0.07307859
0.0980119 0.00096071983 0.027121566 -0.00328084 0.08900681 0.16822168 0.026701797 0.024915056
-0.0045246216 0.104355246 0.044022415 0.095587 -0.0057400307 0.060942825 0.05737537 0.04728778
0.029109303 0.013491799 0.0408546 0.024842069 0.112555385 0.019037541 -0.0014744768 -0.0066405116
-0.00029958942 0.029697334 0.029068364 0.026001887 0.052708365 0.034025278 0.045789056 0.043825798
0.0066951006 0.02645845 0.10324994 0.048916444 0.027229046 -0.0057439087 0.05750066 -0.0027344641
0.026435312 0.08149685 0.01583697 0.06571925 0.040762477 0.037765663 0.082418196 0.021382747
0.02608899 0.04054143 0.036822222 -0.007117625 -0.0076620216 -0.014976601 0.022968138 0.0016109509
-0.0047313236 0.028296867 0.022507422 0.03903359 0.020962339 -0.00036123843 0.002295898 0.0066060033

std.constant11 f4 [128, 7]
00000000: 3aa8 32bc cf05 e33d 9d50 2dbc e066 063d
00000010: 844b 833c 2aba cebc 7053 e83c 7717 bfbd
00000020: 3778 d6bb 560b 8b3d ffe2 90bc 0e71 95bd
00000030: 929d a8bd 7a4b 4e3d 8a0d 6e3d 5e7f b0bd
00000040: de0b e53d c157 af3d 6571 24bd 4f78 733d
00000050: 46d2 f73d 55d8 8e3d cd9c 3a3d 4627 d33d
00000060: b9bf 47bd 1fb4 02bd a11c aabd 7d50 f53b
00000070: 9ca6 d9bd 209b 06bd 6b49 c8bd 8852 9abd
00000080: be71 b9bc c1ec 883d 8937 7c3d d6c5 b93d
00000090: 89d1 f53d 7d52 6bbd fe0f 1dbc fedd eb3d
000000a0: d95a e0bc c497 233e 59aa de3d 9ba6 da3d
000000b0: 882f 263d 0423 d8bc be24 063e cdaa 83bb
000000c0: 2328 083d 89b7 843d 602b 40bd bcfc 73bc
000000d0: fa37 823d 7bd0 64bc 193a 9a3c 4a64 c43d
000000e0: 3ece 09bd de65 bc3d a6bb 243c 3b2f b2ba
000000f0: a0d5 c1bb 8c7c b93d 8768 23bd d76c d93d
00000100: a7fc 983d 9a38 68bd f7f3 773d 1133 4a3b
00000110: 2b1a b13b da7a 85bb da3f 4c3c 591e c8bd
00000120: f7a4 c63c 927a 8fbd b84d 603d d71e 7e3d
00000130: 50b0 6ebc d3a5 e13a 37e6 7dbd 2064 d1bc
00000140: 6723 c83d 86c3 3b3c 71dc a33d 1cda 433d
00000150: 9a78 7b3d d2af 103d 9600 283d ecdc 833c
00000160: 9ae3 a5bd 5040 ddbd 07ac 9e3d 4c97 cc3d
00000170: 5d58 b3bb 32ae afbd 3835 a8bd b00c 773c
00000180: 0da0 9abb d657 87bc 650c 5dbd e223 85bd
00000190: 7bd6 8fbd 5960 bfbb f41e 9fbd 6e58 a83d
000001a0: 5b83 66bd 7b4d 32bd 7df6 17bd 9e00 37bb
000001b0: 2bfc 763d 380c b23d 6b58 a93d d5dc 773d
000001c0: 1df3 4e3b 29ac a03d 6e67 87bc 7140 ab3c
000001d0: db12 29bd e1e0 a8bd b689 a4bd 7ee5 8d3d
000001e0: 6639 1bbc 3f03 64bc 5ca4 b33b ff56 85bd
000001f0: d588 0a3c 89cb 0bbc cbf7 d73d 14c8 bb3d
00000200: ba40 a93d 053c 3e3d 9002 6bbb 24fc 03bd
00000210: c59c cc3d 8cac ba3d 36e5 11bb b229 aa3c
00000220: 3aa2 bf3d 3b0d ba3c a7d4 983c 638d a83d
00000230: 10df 3bbd 52ea 383d b7f3 07be 0021 d1bd
00000240: c96c 90bb e9ed d4bc cd80 fcbc 23e2 ce3d
00000250: 6635 2d3d f41f 9dbc 3dc6 2c3d 8437 613d
00000260: 5474 c1bd 316d b83b eaee 2bbd 15c2 8a3d
00000270: a5bf e0bc 3316 803d ed68 19bb 57e2 e43c
00000280: 538e be3d 59ff 6cbb 2cef c83d 5633 b3bd
00000290: ff02 1d3d 082d 19bd 7e4b e0bc 22dc b33d
000002a0: bf07 9e3c 53a9 96bc 0d4c 8d3d 1328 703d
000002b0: 95b7 0d3d 15da 3f3c 1f90 8f3d bbce 043d
000002c0: 1a2e 3aba bd1c a83d 04d0 693d f0b7 be3c
000002d0: 60e4 5fbc 1290 a1bd a960 3e3d b688 c13d
000002e0: 5f9c b33d c52e b73d f8e3 513d 4814 a13c
000002f0: 2080 d93c 4113 b93d be5f 36bd d196 9e3d
00000300: 92d7 2abc 7954 9fbd 805b b5bc 8067 063d
00000310: 0890 86bd f969 83bd 083c d7bc a168 9d3d
00000320: 3deb 74bc 6b7a df3d fa38 913d 2346 fcbc
00000330: ef9b 06bd 491d 9bbd a8ab 75bb dfe4 cd3d
00000340: d276 9fbd c650 5e3c a674 3a3d a9e9 0bbd
00000350: baff 193d e254 253c da6e aebd 46cf 6bbd
00000360: 8bfa 24bc 8051 7d3d 3a44 67bd 32e3 62bd
00000370: 1079 0f3e f9aa babc 3e79 86bd b259 8d3c
00000380: 4eb4 a2bd ae79 5abd 39a1 afbd 2ab3 90bd
00000390: 9abc c2bd 5690 8ebd 6e08 d9bb 1ce8 b13d
000003a0: f896 373d 9b5c 1d3c 8d9c c43d 01c4 a43d
000003b0: ed66 61bd a86e 423c 8907 e63d ee5c b33c
000003c0: e3e1 9abd 03f8 09bd 1926 b13d 6083 c8bb
000003d0: dd1c 0f3d 2d96 8b3d 55be 5cbd 9df6 27bd
000003e0: 0b3f 29bd ebf9 863d 2d67 e83c 631b 973c
000003f0: 06cd 8cbd 2f00 cb3d 6b45 683d c4eb f63d
-0.010904366 0.11085092 -0.010578302 0.032812953 0.01602722 -0.025235254 0.028360099 -0.093306474
-0.0065450924 0.067892715 -0.017686365 -0.07296954 -0.08233179 0.05036495 0.05811838 -0.08618043
0.11183904 0.085616596 -0.040147204 0.059440907 0.12100653 0.06974856 0.045559693 0.10310225
-0.048766825 -0.031910058 -0.08306242 0.0074864016 -0.10627481 -0.032862782 -0.09779628 -0.07535273
-0.022637244 0.06685782 0.0615764 0.09070937 0.12002856 -0.057451714 -0.009586332 0.11516951
-0.02738707 0.15975863 0.10872335 0.10676309 0.040572673 -0.026383884 0.13099954 -0.004018164
0.033241402 0.06480319 -0.046916366 -0.0148918 0.06358333 -0.013965721 0.018826531 0.09589441
-0.033643954 0.09199117 0.0100545045 -0.0013594398 -0.0059153587 0.090569586 -0.039894607 0.10616463
0.074700646 -0.056694604 0.060535397 0.0030853192 0.005404731 -0.004073483 0.012466395 -0.09771413
0.024248583 -0.070058 0.05476162 0.06204113 -0.014568403 0.0017215557 -0.061987128 -0.025560439
0.097723775 0.011460191 0.0800103 0.047815427 0.06139431 0.035323925 0.041016184 0.016096555
-0.08100052 -0.10803282 0.07747655 0.09989795 -0.00547318 -0.08578147 -0.08213276 0.0150787085
-0.0047187866 -0.016521376 -0.0539669 -0.06500985 -0.07023331 -0.005840343 -0.07769576 0.082199916
-0.056277614 -0.043530922 -0.037100304 -0.0027923952 0.06029908 0.08693737 0.082688175 0.060513336
0.0031578012 0.07845337 -0.016528811 0.020904751 -0.041277748 -0.08246017 -0.08034079 0.06928538
-0.009474134 -0.01391679 0.0054822396 -0.06510734 0.008455475 -0.008532413 0.1054531 0.09169021
0.08264299 0.046443958 -0.0035859682 -0.032222882 0.09990839 0.09114942 -0.0022261865 0.020771835
0.09357114 0.022711387 0.018656088 0.082300924 -0.045867026 0.04514534 -0.13276564 -0.102113724
-0.0044074995 -0.02599235 -0.030823136 0.10101726 0.042287253 -0.019180275 0.042181242 0.054984584
-0.09446016 0.005628251 -0.041975893 0.067752995 -0.027435133 0.06254234 -0.0023408488 0.027939958
0.0930449 -0.0036162941 0.098112434 -0.08750026 0.038332935 -0.03739646 -0.027379747 0.087822214
0.019290803 -0.018391287 0.06899271 0.058631968 0.034598906 0.01170971 0.07009911 0.032423716
-0.00071022066 0.082086064 0.057083145 0.023281068 -0.013665289 -0.07888807 0.0464789 0.09449904
0.0877006 0.089444675 0.0512428 0.019662991 0.026550353 0.090368755 -0.0445249 0.0774361
-0.0104273725 -0.07779784 -0.022138357 0.03281355 -0.065704405 -0.06416697 -0.026273742 0.07685972
-0.014948663 0.10912021 0.070909455 -0.030795163 -0.032863554 -0.07573945 -0.0037486348 0.10053419
-0.07786335 0.013569063 0.0455214 -0.034158383 0.037597395 0.010091038 -0.08517237 -0.05757072
-0.0100695 0.061845303 -0.05646155 -0.05539245 0.14011025 -0.022786604 -0.06566094 0.017254684
-0.07944547 -0.0533387 -0.08575673 -0.07065423 -0.09508629 -0.06961124 -0.0066233194 0.086868495
0.04482171 0.009604598 0.09600172 0.08045197 -0.0550298 0.011867203 0.11231906 0.021894898
-0.07562616 -0.033683788 0.08649845 -0.0061191767 0.034939636 0.06815753 -0.053892452 -0.041006673
-0.041319888 0.06590637 0.02836951 0.018445676 -0.068750426 0.099121444 0.056706827 0.120566875

std.constant12 f4 [128, 7]
00000000: edbb e9bc 6082 aebd ec07 40bb 2c4b 53bd
00000010: ad33 5f3d 85de 843d 74f4 4fbe 34cd a4bd
00000020: 1231 e0bd c62d d03d e3f4 b23d df29 cbbc
00000030: c9b5 ce3d 637d fbbd a825 933d 8bae 993d
00000040: 017e 05bd 9cd4 98bd dee8 743d fd24 a63c
00000050: ddb0 353e 9f30 483d ec18 d6bc 4c3b 183d
00000060: c8cb aabd f7ce 4b3b e25b 02be 9b56 38be
00000070: 7f0d 2c3d 3483 32bd 0f86 c53c cab9 13bc
00000080: a0c4 d33d d1ff d03c 73e3 2fbb e7c0 333d
00000090: f47c 61bc 9575 73bd 2b34 cdbc e372 b8bd
000000a0: 628c f53d 9b41 353e a916 79bd bbf3 7cbd
000000b0: 52e3 17bd decc 0cbd 608c 493d 0419 4e3c
000000c0: b8e0 593e 7962 3d3d 32f8 20bd 599c ff3c
000000d0: 2a65 873d ffe5 9d3d e55e b63d a94c 483e
000000e0: a2a5 89ba 9727 cabd 6988 183d dfa1 603d
000000f0: 798f 953c fda2 263d d9ca 583d c819 ddbd
00000100: 397b 4abc f763 c83d 0ad4 b1bc df88 913d
00000110: b33d e3bd e993 35be d261 dcbb c717 63bd
00000120: 4ce5 d5bd f061 72bd 202c 9ebd 025e 6abd
00000130: d0fe 2a3c f207 433d 4fb8 983b 7b22 5e3d
00000140: ab5c b8bd e871 c2bb 4bfb 333d 6a44 59be
00000150: 235f 29bd 0fd3 7e3d 4f26 c13d 7813 cf3d
00000160: 8a5a 873d ad48 a33d 098a ad3c fb49 aebd
00000170: d78d 53bd d2c9 e7bc 1dad cdbd 6bbc 92bd
00000180: ea67 fdba a9e6 75bd a225 c13d 03a7 5f3d
00000190: fa7e 86bd 201b 24bd 0922 55bb ad93 5ebd
000001a0: 6399 003e 9768 3f3c 01d6 a2bd b79c acbd
000001b0: ebe1 8abd 97aa 423d b578 74bc f1b0 cc3c
000001c0: 5b2d 413d 1fce a6bd fc08 6a3d 69f8 bb3d
000001d0: ef5e a63c b939 4bbd c0bb 1c3d 461e 87bd
000001e0: 3ca2 a6bd c5a7 16bd 8951 b3bd a797 b3bc
000001f0: 650c b2bb 3c4c 723d 06e1 83bc 59fd 4e3d
00000200: cfe3 b83c 40dd 0f3d a219 26bc 1087 8b3d
00000210: 6ea4 313d 92ef b73d 98f5 27bd e722 f2bb
00000220: 4007 a1bc ed1f 5a3d 0992 77bd 9c6a 09be
00000230: a6ca 753d 6a33 99bc e617 ba3d 86c8 123d
00000240: acd0 b7bd 56f9 d2bd e365 bebd dc3f a0bd
00000250: 47ec b03d 61b0 9c3d 57a8 973d 63f9 0bbc
00000260: af3d d93d 223e 9b3d 8787 5e3d f10c 86bd
00000270: ee1c 273d fa6f eabc cd97 25bb f66d e63c
00000280: 66ad 993d 5ba2 cb3c 327d 22bc a92f 983d
00000290: 8708 66bd 2ef7 403d 2b40 febd 77ad e8bd
000002a0: 00f0 173d 82a3 9cbd 3615 cdbd bc8d aa3d
000002b0: 7fd8 87bd 485c 0bbd 2f33 703e c0a3 4ebd
000002c0: dee9 39bd dfdb d5bd 1a21 623d 86f3 a43d
000002d0: c5ae 873d 5f66 c5bd 367f 193c b764 f0bd
000002e0: 4579 ba3d 83bf e5bd 2fcc c4bc 2260 b0bd
000002f0: fb0e 673c ae1d 4abd 3f90 c33c b2c7 55bd
00000300: 86c8 d13c e4bb 3ebd 16e6 84bd b5b2 06be
00000310: 4bbb 41bd cdaa 30bd 2a8e d1bd f350 a63d
00000320: cbaa 26bd 135a dcbd d20f edbd 0cb9 31bd
00000330: 63f9 b83c 894d 463c 5f56 9e3d c570 873d
00000340: 378e ef3d ed66 473d 26e8 a3bd dc9a cb3b
00000350: 9a7d d7bc a5bc ecbc 0012 bc3d 8969 0e3d
00000360: 9173 c93d d961 1abc 8421 3fbd cfcb a03d
00000370: db81 673d a88d 063d 46de 513d 6cd1 4b3e
00000380: e181 99bd d47d 4f3c 7a61 a8bd 487a aabc
00000390: 02c3 c3bc 5ffa f7bd 8084 13bd 32ed fa3c
000003a0: 1c1a babc f8fb 83bd b159 33bd 6c1d d93d
000003b0: 8c05 c63d 733c fd3d cdca ddbb c189 3cbd
000003c0: 509d 763d 1bb3 57bd bfdd 933d cf13 ac3d
000003d0: 361a 403e 5147 f33c 4a09 8fbb 2329 0bbc
000003e0: 9c0f 55bd 9117 90bd 789a 72bd 8044 9dbd
000003f0: 9524 81bd deae c33d bde9 f23d 5a88 9bbc
-0.028531993 -0.08520961 -0.0029301597 -0.05158536 0.05449264 0.06487755 -0.20308095 -0.08046952
-0.109468594 0.101649806 0.08738115 -0.02480024 0.100932665 -0.12279775 0.07184917 0.075039946
-0.03259087 -0.07462427 0.059792392 0.02028131 0.17743249 0.048874494 -0.02613493 0.037165925
-0.083396494 0.0031098702 -0.12730363 -0.18001787 0.04200506 -0.043582156 0.024111776 -0.0090164635
0.103402376 0.025512608 -0.002683845 0.043885138 -0.013762701 -0.059438307 -0.02504929 -0.09006288
0.119896665 0.17700808 -0.060812626 -0.061755877 -0.037082024 -0.034375064 0.049206138 0.012579206
0.2127713 0.04623649 -0.039299197 0.031202482 0.066110924 0.07709884 0.089048184 0.19560494
-0.0010501633 -0.098708324 0.037239466 0.054841872 0.01825689 0.04068278 0.052927826 -0.10795933
-0.01235848 0.09784692 -0.021707553 0.07106184 -0.110957526 -0.17732204 -0.0067255283 -0.055442598
-0.104441255 -0.05917543 -0.0772326 -0.05721856 0.010436729 0.047615 0.004660643 0.054232102
-0.0900205 -0.005933989 0.043940824 -0.21217504 -0.041350495 0.062213 0.09431135 0.10111135
0.06609066 0.07972846 0.021183984 -0.085102044 -0.05164894 -0.028294478 -0.10042784 -0.07164844
-0.0019333337 -0.060034428 0.09431006 0.054602634 -0.065671876 -0.04006493 -0.0032521507 -0.054340053
0.12558512 0.011682651 -0.07950974 -0.084283285 -0.06781372 0.04752597 -0.014921357 0.024986716
0.047162395 -0.08144783 0.057137474 0.0917824 0.02030894 -0.049615595 0.03826499 -0.06597571
-0.081364125 -0.03678109 -0.08755786 -0.0219229 -0.0054336064 0.059154734 -0.01609851 0.05053458
0.022569565 0.03512311 -0.010137947 0.068128705 0.043369703 0.08981241 -0.0410057 -0.0073894146
-0.019656777 0.053253103 -0.060442004 -0.13419574 0.060007714 -0.018701274 0.090865895 0.035835765
-0.08975348 -0.10301463 -0.09296777 -0.0782468 0.08638816 0.07650829 0.07405155 -0.008543345
0.10607468 0.0758021 0.054328468 -0.06545437 0.040799074 -0.028617848 -0.0025267482 0.028128605
0.07503776 0.02485769 -0.009917544 0.074309655 -0.056160476 0.04711073 -0.12414583 -0.11361211
0.037094116 -0.07648374 -0.10013811 0.08327815 -0.0663309 -0.034023553 0.23457025 -0.050449133
-0.04538905 -0.10442328 0.05520735 0.08054261 0.066251315 -0.09638666 0.009368708 -0.1173796
0.091051616 -0.112181686 -0.024023144 -0.08612086 0.014102693 -0.04934471 0.023872493 -0.052192397
0.025608312 -0.046565905 -0.06489198 -0.13154109 -0.047297757 -0.04313164 -0.10232194 0.081209086
-0.040690225 -0.10759368 -0.11575283 -0.043389365 0.022579854 0.012103447 0.07731318 0.06613306
0.11697047 0.048682142 -0.08003263 0.006213529 -0.026305009 -0.028898546 0.09183121 0.034768615
0.09836496 -0.009422743 -0.046662822 0.078513734 0.056520324 0.032849938 0.051237367 0.19904107
-0.074954756 0.012664277 -0.08221717 -0.020810261 -0.023896698 -0.12108301 -0.036015034 0.030630682
-0.022717528 -0.064445436 -0.04378671 0.10601315 0.09669027 0.123650454 -0.0067685605 -0.04602981
0.06020862 -0.052661043 0.07220029 0.08402216 0.18759999 0.029697092 -0.004365121 -0.0084936945
-0.05201684 -0.07035745 -0.059229344 -0.07679081 -0.063058056 0.09554838 0.11860988 -0.018985916
