AirQualityApp/AirQualityApp.Android/Assets/PragueLong.tflite (tflite, 810852 bytes, 24 tensors)

std.constant3 f4 [128, 128]
-0.00029925015 0.015758205 0.00111382 -0.009514707 -0.004186987 -0.03756358 0.0005274252 -0.018623477
0.04600569 -0.0061136396 -0.049673293 -0.0072104027 -0.059133947 -0.034681756 -0.0016964986 -0.010595737
0.060406577 -0.025227401 -0.07275321 -0.062360384 -0.039929874 -0.03357305 0.0692469 -0.048252903
0.019323193 0.040556584 0.037317023 0.070904136 0.054272827 -0.028491694 0.045343436 -0.0036830911
-0.041532136 0.057850204 -0.027751977 0.02005787 0.018684335 0.001887925 0.036248907 -0.040071905
0.0441359 -0.04159867 0.09356972 -0.06270682 -0.046436094 -0.014734823 -0.054609258 -0.03156349
-0.021285798 0.06495533 0.013620978 0.05911517 0.048750684 0.0009809975 -0.01730986 -0.11687257
0.0036197694 0.017911661 0.057406895 0.06986893 0.052063435 -0.004145962 -0.045734614 -0.089471504
0.0056626704 0.017639574 0.06141945 -0.064010724 0.055704318 -0.022507885 0.009313073 0.039570544
-0.0026690082 -0.0013716528 0.004826084 -0.038402528 0.024468731 0.007993466 -0.0117531745 0.028661514
-0.023291185 -0.09712067 -0.02906335 -0.025209721 0.03550683 -0.055703755 -0.043568835 0.06325829
0.032969788 -0.031441778 -0.05137193 -0.005843681 -0.009613955 -0.0025891797 -0.048361994 0.022884807
-0.034057666 -0.02494435 -0.05947203 0.014407944 -0.055203404 0.014891482 -0.0427626 -0.07253085
-0.024968287 -0.040432733 0.01498992 -0.03762871 -0.036595188 0.008977844 -0.021367254 0.0047062775
0.06359126 -0.051465504 0.015422059 0.01129703 -0.047542773 -0.057617098 0.05540586 0.03479954
-0.07392326 0.022068389 0.009462588 0.016490858 0.032566782 -0.046498217 0.011054351 -0.094517045
0.053588983 -0.020295871 0.04291421 0.049622186 0.04135584 0.017678065 -0.07003953 -0.0095267575
-0.016554995 0.056960106 0.012075764 -0.034807734 0.007937094 -0.05030831 -0.02175253 0.0589006
0.03435857 -0.01335881 0.03312089 0.08469449 -0.030177444 0.09597799 -0.08563113 -0.14663781
0.04161064 -0.036523428 -0.011033323 0.05163522 -0.02412015 -0.002353071 0.0038476996 -0.009324
-0.0430408 -0.01574086 -0.011982599 0.101177506 -0.0104967365 0.062091824 0.025314396 0.0010319186
0.04138703 0.05837536 -0.0520699 0.04898658 0.09989352 0.017986057 0.01807884 0.030875608
-0.035241462 0.018596718 0.020588217 0.045801442 -0.05593731 -0.004919488 -0.06522381 0.031004539
0.006748137 0.03574753 0.03221231 0.01652966 -0.042442173 0.00934966 0.009895368 0.030517727
-0.03130696 -0.029348243 0.060879704 0.018419027 0.0025147912 -0.0030261313 0.018164905 -0.021487609
-0.07192223 0.030715642 0.021501627 -0.08166351 0.009129339 -0.042123467 0.004168749 0.013593941
-0.036867112 0.053740874 -0.029726015 -0.033016898 0.011869057 0.018199606 -0.020863215 0.04512478
-0.042277683 -0.02456321 0.050349653 0.05841806 0.009128096 0.046871547 -0.0067462907 0.040797938
0.036173277 -0.08904785 0.0564721 -0.011060624 0.027393885 -0.062473234 -0.062421262 -0.021680836
0.013998007 0.046350304 0.005333281 -0.030950677 -0.030288411 0.0034136851 -0.088789955 0.0224537
-0.048459567 -0.0077490024 0.015685914 0.004204029 -0.020412067 -0.014149874 -0.02905459 -0.014036765
-0.027227864 -0.053639576 -0.06366171 0.006319429 -0.060066618 -0.02069108 -0.062404007 -0.012901471
00000000: ade4 9cb9 5a17 813c 99fd 913a 93e3 1bbc
00000010: fe32 89bb 45dc 19bd e842 0a3a 4390 98bc
00000020: 7670 3c3d ed54 c8bb 3976 4bbd 3e45 ecbb
00000030: 7036 72bd 750e 0ebd 0c5d deba be99 2dbc
00000040: e36c 773d b2a9 cebc a3ff 94bd 9a6d 7fbd
00000050: 828d 23bd e583 09bd 52d1 8d3d d6a4 45bd
00000060: ac4b 9e3c a91e 263d bcd9 183d 3036 913d
00000070: 2f4d 5e3d 6a67 e9bc 0aba 393d 0460 71bb
00000080: 9a1d 2abd 56f4 6c3d 1d58 e3bc 6750 a43c
00000090: e40f 993c 4074 f73a bc79 143d 7022 24bd
000000a0: d8c7 343d 5e63 2abd 7ba1 bf3d 6f6c 80bd
000000b0: c633 3ebd 546a 71bc f5ad 5fbd b848 01bd
000000c0: 8e5f aebc 4d07 853d 862a 5f3c c022 723d
000000d0: ccae 473d d094 803a 68cd 8dbc e35a efbd
000000e0: a739 6d3b 7abb 923c 7e23 6b3d 7117 8f3d
000000f0: 7840 553d dada 87bb 3854 3bbd d63c b7bd
00000100: ec8d b93b de80 903c f692 7b3d 0e18 83bd
00000110: 362a 643d 7562 b8bc dc95 183c b914 223d
00000120: 87ea 2ebb 08c9 b3ba 2024 9e3b f84b 1dbd
00000130: a672 c83c 07f7 023c 6390 40bc 8dcb ea3c
00000140: 28cd bebc 34e7 c6bd 4316 eebc 9e84 cebc
00000150: 9c6f 113d 9f29 64bd 3c75 32bd 908d 813d
00000160: 540b 073d 18c9 00bd 5f6b 52bd 597c bfbb
00000170: da83 1dbc 3aaf 29bb 3a17 46bd eb78 bb3c
00000180: 0d80 0bbd 1858 ccbc f198 73bd 4c0f 6c3c
00000190: f71c 62bd 67fb 733c d627 2fbd 0e8b 94bd
000001a0: 4b8a ccbc cb9c 25bd 4898 753c 9020 1abd
000001b0: d6e4 15bd cf17 133c 610a afbc 1e37 9a3b
000001c0: 223c 823d 7ecd 52bd ceac 7c3c 2e17 393c
000001d0: 36bc 42bd e8ff 6bbd 41f1 623d f689 0e3d
000001e0: 1465 97bd c4c8 b43c f808 1b3c d617 873c
000001f0: bf64 053d ea74 3ebd 4f1d 353c 2792 c1bd
00000200: 1f80 5b3d 8743 a6bc d0c6 2f3d a240 4b3d
00000210: be64 293d 97d1 903c e370 8fbd 1e16 1cbc
00000220: 579e 87bc 004f 693d 6dd9 453c 8e92 0ebd
00000230: 960a 023c 1610 4ebd 5d32 b2bc c141 713d
00000240: 92bb 0c3d e9de 5abc c5a9 073d 4e74 ad3d
00000250: b036 f7bc 1c90 c43d 605f afbd 3928 16be
00000260: eb6f 2a3d 9799 15bd 1cc5 34bc 747f 533d
00000270: 9f97 c5bc fb35 1abb b029 7c3b b1c3 18bc
00000280: 8d4b 30bd faf2 80bc aa52 44bc 2736 cf3d
00000290: 81fa 2bbc ff53 7e3d 2360 cf3c 7141 873a
000002a0: 7285 293d 001b 6f3d 3f47 55bd 27a6 483d
000002b0: f994 cc3d 7f57 933c 131a 943c d8ee fc3c
000002c0: 5a59 10bd 2558 983c 9fa8 a83c 4b9a 3b3d
000002d0: 851e 65bd a833 a1bb 1094 85bd 3bfd fd3c
000002e0: 7a1f dd3b 016c 123d 0ef1 033d 3669 873c
000002f0: d8d7 2dbd 512f 193c 2e20 223c 5000 fa3c
00000300: ba3b 00bd ba6b f0bc ff5c 793d 80e3 963c
00000310: 32cf 243b 0f52 46bb 91ce 943c c806 b0bc
00000320: f64b 93bd 5f9f fb3c 2e24 b03c 333f a7bd
00000330: 3993 153c a889 2cbd 009a 883b 1fb9 5e3c
00000340: f801 17bd 641f 5c3d f983 f3bc ba3c 07bd
00000350: 6f76 423c 5717 953c 55e9 aabc c3d4 383d
00000360: 5d2b 2dbd c938 c9bc 703b 4e3d c747 6f3d
00000370: 028e 153c 61fc 3f3d fd0f ddbb bd1b 273d
00000380: 6e2a 143d b85e b6bd 4a4f 673d 9f37 35bc
00000390: 2469 e03c efe3 7fbd 70ad 7fbd 029c b1bc
000003a0: e657 653c d1d9 3d3d cec2 ae3b 468c fdbc
000003b0: 671f f8bc 22b8 5f3b 82d7 b5bd d2f0 b73c
000003c0: 8a7d 46bd 58eb fdbb bf7f 803c f4c1 893b
000003d0: 3537 a7bc e0d4 67bc e403 eebc 76fa 65bc
000003e0: f80c dfbc 2cb5 5bbd 1261 82bd 3613 cf3b
000003f0: 6a08 76bd 5780 a9bc 589b 7fbd b160 53bc

std.constant4 f4 [128, 128]
0.029978488 0.0017860361 0.11425715 0.01922949 -0.01988891 0.003576898 -0.044935077 -0.01360045
0.025562104 0.019069318 -0.012363073 -0.035779662 0.017034758 -0.043802317 0.0053024096 0.08772315
0.031244457 -0.06723861 0.037440654 0.024347328 0.008491634 -0.045078635 -0.008247329 0.015836425
-0.01093577 0.056694362 0.06773286 0.017006563 -0.09131431 -0.040764753 0.02037393 0.008220881
-0.025614893 0.0030875956 -0.00430665 -0.08427767 0.028500134 0.0439967 -0.030675659 -0.014069593
0.04321918 -0.08505077 0.0738859 0.0060992693 0.02900995 -0.016171012 -0.018588124 -0.07280852
0.023597578 0.07555524 -0.019390162 -0.004871804 -0.08608877 -0.051037706 0.01409169 -0.0326086
-0.041863628 0.07190573 -0.018886503 -0.031858396 0.055066828 0.036004283 -0.007357352 -0.06094204
-0.01237932 -0.027856942 -0.0024506273 -0.030340198 -0.12374558 0.020202372 -0.042424254 0.02989308
-0.05388347 0.10650168 -0.0016082181 0.066496715 0.072803706 0.015203769 -0.05250994 -0.100110695
0.0074117193 -0.037498564 0.0814638 -0.08412517 0.0050753476 -0.056560658 0.026855947 -0.002834709
0.037926223 0.02377263 0.08339428 -0.023983069 -0.06526098 0.03640341 0.1412145 0.030820366
-0.032115445 -0.0012478988 0.02503676 -0.00038088672 -0.03246475 0.12266822 0.006323319 -0.017403666
0.05092457 0.0015924387 0.10866862 0.007938681 0.059815418 0.05206395 0.06812935 0.00051456224
0.03356011 0.02221802 0.0012875423 -0.017137825 -0.007362685 -0.015098771 0.01666891 0.0632765
-0.021943638 -0.030583253 -0.029326223 0.0381082 -0.06399554 -0.07362648 0.10509374 0.08776492
-0.086302914 0.09655644 0.11021319 0.029512586 0.04244504 -0.018201 -0.04262445 0.0061533544
0.014918268 0.04777075 0.022929806 0.025310421 -0.011994388 0.08007634 -0.03767606 -0.054107178
0.032841362 -0.04691404 -0.0077564884 0.005300706 0.03706211 0.027301144 0.057540264 -0.0090305675
0.04461914 -0.018544925 -0.047148712 0.024756644 0.03648069 0.01185516 -0.01390828 -0.031300347
0.042562746 -0.064813234 -0.008437862 -0.02447912 -0.08374537 0.08525212 -0.02029477 -0.036343068
-0.02094906 -0.03377308 -0.0101834815 0.019960782 0.06371644 -0.056625847 -0.008685954 -0.021031426
0.020053577 -0.0006817803 -0.016744325 -0.0023307302 -0.017849939 -0.031073702 0.021072675 0.0592332
0.0099810315 -0.0036676328 0.02514618 -0.002315084 0.07700265 -0.07536084 -0.0036100247 0.0049342234
-0.009186132 -0.022908317 -0.037247684 0.031866137 0.026062982 -0.00954666 -0.035903048 -0.04760548
0.024081333 0.055873886 0.024621554 -0.048992015 -0.017391607 0.031273898 -0.037544776 -0.0473082
0.01765956 -0.11584932 0.0049525555 -0.03668381 -0.026383009 0.007269241 0.021423018 0.034764268
-0.010430103 -0.00785765 0.053179584 -0.00018423144 0.01623566 0.046460945 -0.047450196 0.010468173
0.048627436 -0.011471558 0.011395674 -0.05467765 -0.038135495 0.036699537 -0.051672805 -0.025102926
0.061230227 0.059346594 0.034803208 0.012352268 0.023436826 0.02500787 0.0010269033 -0.012460226
-0.08253064 0.0067400364 0.060419478 -0.012906405 -0.004011702 0.072719075 -0.03576384 -0.0056340955
0.011439068 0.09025032 -0.0040470613 0.08357198 -0.010978181 0.016029194 0.09908219 -0.020848196
00000000: 7295 f53c 6d19 ea3a a7ff e93d 2a87 9d3c
00000010: 11ee a2bc 646a 6a3b d80d 38bd 6cd4 5ebc
00000020: 9e67 d13c 4237 9c3c 7d8e 4abc b28d 12bd
00000030: 7a8c 8b3c 0f6a 33bd d6bf ad3b 32a8 b33d
00000040: 60f4 ff3c 65b4 89bd 5f5b 193d 0c74 c73c
00000050: 7f20 0b3c 60a4 38bd ce1f 07bc 64bb 813c
00000060: f22b 33bc 5938 683d 87b7 8a3d 5951 8b3c
00000070: ff02 bbbd f1f8 26bd 3ae7 a63c e0b0 063c
00000080: 53d6 d1bc 4259 4a3b cc1e 8dbb c599 acbd
00000090: 1d79 e93c e235 343d 854b fbbc 2684 66bc
000000a0: 9806 313d 192f aebd 7e51 973d 61dc c73b
000000b0: 46a6 ed3c 1279 84bc 1f46 98bc a21c 95bd
000000c0: b54f c13c b5bc 9a3d 1ed8 9ebc a7a3 9fbb
000000d0: 4f4f b0bd ea0c 51bd d5e0 663c 9890 05bd
000000e0: 3279 2bbd 5043 933d deb7 9abc f37d 02bd
000000f0: c18d 613d 3a79 133d f115 f1bb 5c9e 79bd
00000100: a2d2 4abc 3e34 e4bc b49a 20bb 028c f8bc
00000110: 536e fdbd 727f a53c 0ec5 2dbd 55e2 f43c
00000120: eab4 5cbd 8e1d da3d d8ca d2ba 6e2f 883d
00000130: 1c1a 953d 3b19 793c aa14 57bd d606 cdbd
00000140: 02de f23b 1898 19bd 7ed6 a63d d149 acbd
00000150: 1a4f a63b 26ac 67bd 0101 dc3c 86c6 39bb
00000160: 8758 1b3d d2be c23c 9fca aa3d 2478 c4bc
00000170: 8ca7 85bd be1b 153d 899a 103e fe7a fc3c
00000180: 7c8b 03bd 8990 a3ba e419 cd3c c0b1 c7b9
00000190: c2f9 04bd 7a39 fb3d d833 cf3b 2292 8ebc
000001a0: 4896 503d 60b9 d03a a78d de3d 3e11 023c
000001b0: 0301 753d 0241 553d 6787 8b3d b0e3 063a
000001c0: 5376 093d 9102 b63c c0c2 a83a a064 8cbc
000001d0: ae42 f1bb d660 77bc 3d8d 883c 1c97 813d
000001e0: 25c3 b3bc bb89 fabc 8c3d f0bc 5817 1c3d
000001f0: 1810 83bd 7bc9 96bd 633b d73d 18be b33d
00000200: 95bf b0bd 62bf c53d 74b7 e13d 61c4 f13c
00000210: dada 2d3d 431a 95bc fa96 2ebd 14a2 c93b
00000220: c06b 743c 43ab 433d 4ad7 bb3c cd57 cf3c
00000230: 1c84 44bc 10ff a33d 3652 1abd 7d9f 5dbd
00000240: aa84 063d f028 40bd 242a febb 8bb1 ad3b
00000250: 70ce 173d a6a6 df3c 57af 6b3d f2f4 13bc
00000260: 8fc2 363d 87eb 97bc 021f 41bd 72ce ca3c
00000270: c76c 153d 253c 423c 8edf 63bc cb34 00bd
00000280: 4656 2e3d cdbc 84bd f53e 0abc 6f88 c8bc
00000290: b182 abbd aa98 ae3d 3841 a6bc 78dc 14bd
000002a0: 5d9d abbc a455 0abd 9ed8 26bc cb84 a33c
000002b0: c47d 823d 81f0 67bd 884f 0ebc 194a acbc
000002c0: 6647 a43c 80b9 32ba 652b 89bc 2abf 18bb
000002d0: 093a 92bc 478e febc 9aa0 ac3c 839e 723d
000002e0: 7b87 233c ab5c 70bb 5dff cd3c aab8 17bb
000002f0: 91b3 9d3d c956 9abd 2a96 6cbb 44af a13b
00000300: 6e81 16bc 39aa bbbc 0791 18bd 1186 023d
00000310: 0982 d53c 9869 1cbc 130f 13bd f7fd 42bd
00000320: 3746 c53c 04dc 643d 24b3 c93c daab 48bd
00000330: d878 8ebc 0f19 003d 8dc8 19bd 3ec6 41bd
00000340: c8aa 903c 6942 edbd 0c49 a23b c341 16bd
00000350: 2e21 d8bc d032 ee3b 537f af3c fa64 0e3d
00000360: 06e3 2abc 5fbd 00bc d6d2 593d 402e 41b9
00000370: a600 853c d54d 3e3d 235b 42bd b382 2b3c
00000380: 902d 473d 34f3 3bbc ecb4 3a3c acf5 5fbd
00000390: f733 1cbd 4152 163d dda6 53bd a7a4 cdbc
000003a0: 8ccc 7a3d 6a15 733d cf8d 0e3d 2b61 4a3c
000003b0: 96fe bf3c 4edd cc3c 2899 863a fa25 4cbc
000003c0: d305 a9bd 86db dc3b 6a7a 773d 6375 53bc
000003d0: 9874 83bb bded 943d 1b7d 12bd 389e b8bb
000003e0: ee6a 3b3c 29d5 b83d 369d 84bb c927 ab3d
000003f0: d4dd 33bc a84f 833c 9aeb ca3d d6c9 aabc

std.constant5 f4 [128, 128]
-0.005023333 0.0749846 0.04123694 -0.028477881 0.10366921 0.00938316 0.052826777 -0.009972436
0.03798062 -0.008044053 -0.089338474 -0.011515349 -0.032655824 0.09594442 0.019713897 0.023052916
0.045292024 0.031116905 0.022495072 0.078034185 -0.02619842 0.048563525 0.08204334 -0.10535147
0.021984732 -0.05986976 0.03844521 -0.045036007 -0.044570066 0.017000005 0.0053794696 0.04260735
0.040803444 -0.01984464 0.008095359 0.054092214 -0.004416303 0.0035741152 0.04822487 0.0058489535
-0.012398897 -0.08404143 -0.022626933 -0.06276011 -0.01339689 -0.024536641 -0.026813852 -0.0471659
0.016088577 -0.02221642 -0.0798946 0.04697675 -0.05115092 -0.013763804 -0.030242952 -0.031082235
0.05685745 -0.035636216 -0.04057364 -0.06300522 0.06628059 0.07881609 -0.0276732 0.016220365
0.05311824 -0.055800848 -0.052753665 0.0072399974 0.022090953 0.022413854 0.036841005 0.05276326
-0.003461537 -0.0009483099 -0.041780867 0.036183238 -0.066170536 0.04538744 -0.008424209 -0.07858176
0.124415204 0.0058930377 0.08108202 -0.030876348 0.040269367 -0.10231717 0.031184204 -0.06259581
0.008526187 0.07758863 0.036329813 -0.08139876 0.041003626 0.060541134 -0.038495045 -0.0031008832
-0.032268375 -0.0012784521 0.007967012 0.034027576 0.0623203 -0.06400986 -0.012293475 0.012852596
-0.047095265 0.0412471 0.0010733578 0.05162037 0.007736953 -0.05097165 -0.05802663 -0.055977397
0.010041221 -0.049188737 -0.08906627 -0.051907413 0.010693626 -0.028942801 -0.07718116 -0.027882367
-0.0011239806 -0.033037335 -0.017501827 -0.008327148 -0.029653631 0.052173138 -0.047350746 -0.030195666
-0.009393183 -0.059760716 0.0124479905 0.049210735 -0.008864756 -0.03138326 0.041656382 -0.07176433
0.026590757 0.02122165 -0.08734203 -0.03246908 -0.04917116 0.019264882 0.103803284 -0.023917094
-0.004845847 0.0041334135 0.041288957 0.016776765 -0.028088761 -0.08593731 -0.04395455 -0.09426445
-0.05257135 -0.062990636 0.029657718 0.029871028 -0.033620805 -0.038954705 -0.08477467 0.029761607
-0.011525199 -0.017334696 0.03216019 0.07290399 -0.054163676 -0.06764914 0.012580575 -0.063931376
-0.06907322 0.0040777763 -0.010524681 -0.039432008 0.01758691 0.041859247 0.058207 -0.056302797
0.057122298 0.050402243 0.0011554128 -0.006396645 0.08099134 -0.009656713 0.010244448 0.04239304
-0.0108171385 0.04764944 -0.026247717 -0.068106696 -0.029827485 0.00013244525 0.04538093 -0.105328195
0.029165206 -0.02364707 0.0022553129 -0.06786794 -0.018690847 0.008977104 0.039005727 0.03258559
-0.031255316 -0.018127322 -0.036492158 0.013376877 -0.016986925 0.07126482 0.03328443 0.014832731
-0.014886841 -0.016061734 0.047447532 0.016050776 -0.01819429 0.05143813 -0.048437055 0.03336865
-0.044031948 0.057189915 0.071648076 0.034469232 -0.045952298 -0.0025430173 0.03390124 0.0035936357
-0.025008705 -0.027901504 0.018641226 -0.02964107 -0.0046142503 0.027499057 0.062282477 -0.04520059
-0.005806031 0.01768801 -0.055853248 0.06389054 0.011693759 -0.022741135 -0.03190133 0.06916654
0.03293461 0.0957289 0.0022797089 -0.016142212 0.0044557964 -0.098824784 -0.017276626 0.027375128
-0.036338016 -0.015853204 0.0009767651 -0.03216312 0.06007242 0.047551163 -0.049695447 0.011961754
00000000: c59a a4bb 8791 993d 11e8 283d 724a e9bc
00000010: 8650 d43d d3bb 193c e460 583d 6e63 23bc
00000020: 9191 1b3d 34cb 03bc 17f7 b6bd e0aa 3cbc
00000030: 1dc2 05bd 827e c43d 0a7f a13c 78d9 bc3c
00000040: 2184 393d e1e8 fe3c 9647 b83c 63d0 9f3d
00000050: 129e d6bc 8cea 463d 5706 a83d 83c2 d7bd
00000060: 5319 b43c fe39 75bd b978 1d3d ad77 38bd
00000070: 1a8f 36bd 9843 8b3c 4346 b03b 0b85 2e3d
00000080: 8321 273d 3a91 a2bc 66a2 043c cc8f 5d3d
00000090: a2b6 90bb b43b 6a3b 7187 453d 94a8 bf3b
000000a0: be24 4bbc ea1d acbd 1e5c b9bc 5f88 80bd
000000b0: a17e 5bbc 1101 c9bc b9a8 dbbc 0831 41bd
000000c0: 31cc 833c 36ff b5bc c89f a3bd b16a 403d
000000d0: a183 51bd 9481 61bc 11c0 f7bc 2ca0 febc
000000e0: 5ce3 683d 48f7 11bd 8c30 26bd e108 81bd
000000f0: 1ebe 873d 556a a13d e8b2 e2bc 92e0 843c
00000100: 8392 593d 6e8f 64bd 3a14 58bd 803d ed3b
00000110: 16f8 b43c 429d b73c 98e6 163d 4a1e 583d
00000120: f4da 62bb 0098 78ba 6a22 2bbd e034 143d
00000130: 6b84 87bd 2ee8 393d b205 0abc 79ef a0bd
00000140: 66cd fe3d 621a c13b 550e a63d 65f0 fcbc
00000150: 7ef1 243d aa8b d1bd 0476 ff3c 3b32 80bd
00000160: 6cb1 0b3c cae6 9e3d 92ce 143d 65b4 a6bd
00000170: 6bf3 273d fbf9 773d fbac 1dbd 3038 4bbb
00000180: d82b 04bd bc91 a7ba 1288 023c 8060 0b3d
00000190: 9243 7f3d 9a17 83bd 926a 49bc b293 523c
000001a0: f7e6 40bd b8f2 283d e9af 8c3a e26f 533d
000001b0: 4486 fd3b a6c7 50bd 55ad 6dbd 8e48 65bd
000001c0: ef83 243c 217a 49bd 6068 b6bd de9c 54bd
000001d0: 5134 2f3c 7419 edbc 2811 9ebd 9069 e4bc
000001e0: 8852 93ba 2852 07bd fe5f 8fbc 976e 08bc
000001f0: 2cec f2bc 80b3 553d dbf2 41bd e75c f7bc
00000200: dde5 19bc a7c7 74bd a8f2 4b3c 3291 493d
00000210: 7b3d 11bc bc8b 00bd e29f 2a3d 2df9 92bd
00000220: dcd4 d93c 07d9 ad3c 61e0 b2bd 4cfe 04bd
00000230: b367 49bd 63d1 9d3c d196 d43d c8ed c3bc
00000240: e9c9 9ebb 9671 873b 9c1e 293d 6d6f 893c
00000250: 671a e6bc e6ff afbd b009 34bd b80d c1bd
00000260: 0e55 57bd 3c01 81bd bef4 f23c 16b4 f43c
00000270: f8b5 09bd f88e 1fbd 589e adbd 9dce f33c
00000280: 30d4 3cbc 7e01 8ebc 67ba 033d b04e 953d
00000290: bbda 5dbd a28b 8abd c21e 4e3c 74ee 82bd
000002a0: 4376 8dbd de9e 853b b66f 2cbc 7583 21bd
000002b0: 6c12 903c 9a74 2b3d 776a 6e3d c39d 66bd
000002c0: 12f9 693d 9572 4e3d 3871 973a f39a d1bb
000002d0: cade a53d 3137 1ebc 54d8 273c 53a4 2d3d
000002e0: 5e3a 31bc 0f2c 433d 7405 d7bc 867b 8bbd
000002f0: c558 f4bc 00e1 0a39 5be1 393d 4fb6 d7bd
00000300: dfeb ee3c 80b7 c1bc dfcd 133b 59fe 8abd
00000310: 8c1d 99bc b414 133c 78c4 1f3d 7878 053d
00000320: 9305 00bd c07f 94bc cd78 15bd b02a 5b3c
00000330: 2a28 8bbc 4af3 913d 4155 083d fc04 733c
00000340: f0e7 73bc e693 83bc 5858 423d eb7c 833c
00000350: 310c 95bc cab0 523d ef65 46bd 91ad 083d
00000360: d85a 34bd f93f 6a3d 3abc 923d 9c2f 0d3d
00000370: 7a38 3cbd c0a8 26bb 07dc 0a3d 3483 6b3b
00000380: 0edf ccbc b291 e4bc 7cb5 983c d4d1 f2bc
00000390: 2333 97bb b445 e13c e91b 7f3d 4124 39bd
000003a0: 8540 bebb 72e6 903c 60c6 64bd 0bd9 823d
000003b0: 2e97 3f3c 9e4b babc f8aa 02bd 30a7 8d3d
000003c0: 71e6 063d 830d c43d 2b67 153b ac3c 84bc
000003d0: ee01 923b a664 cabd b687 8dbc ce41 e03c
000003e0: 2cd7 14bd 94de 81bc cc06 803a 7abd 03bd
000003f0: 7f0e 763d 02c5 423d 748d 4bbd 3cfb 433c

std.constant6 f4 [128, 128]
-0.03260231 -0.0016946904 -0.016578056 -0.010111177 -0.0026797932 0.032473296 -0.073282 -0.025950253
-0.020939097 -0.046746776 0.10963577 -0.0018017069 0.0046631154 0.065439306 0.074878156 0.043318238
0.035161488 0.008026272 -0.0006644421 7.14818e-05 -0.07962472 -0.037473522 -0.05109579 0.018628374
0.07799134 -0.0059947427 0.03501132 -0.013512168 -0.008441763 0.0046899943 0.021950874 0.06415853
-0.07830287 0.03978691 -0.011015699 0.02191946 0.071309105 -0.07462326 -0.028040145 0.04023177
-0.092625245 0.002249774 0.06655705 -0.028113738 0.019763643 -0.02720621 -0.10311997 -0.042710975
0.03402693 0.046137694 0.052084424 0.014825213 -0.052693024 -0.07024368 0.030341452 -0.0382053
-0.011467113 0.03491339 -0.03462687 0.06261082 -0.022511143 -0.049700975 -0.082956985 -0.031984743
-0.053497333 -0.001784971 -0.0072531505 0.018602246 -0.047293507 -0.082052805 -0.053132243 -0.01821787
-0.03506808 -0.03235468 0.029097635 0.017619094 0.05734533 0.073111266 0.028400995 -0.02277063
0.0051038093 0.038155854 0.04006642 -0.055890083 0.026594825 0.014466457 -0.055305116 0.07913887
-0.05851416 -0.00050791586 0.028912384 -0.008810778 0.026455441 0.05232201 0.023006517 -0.011239662
-0.08819503 0.025687734 -0.038650524 -0.072133906 0.015555877 0.015340732 0.049247973 -0.02643584
-0.0060037896 0.014359502 0.033493564 -0.0035534184 -0.09214522 0.031529218 0.05686344 -0.026671158
0.0069579566 0.021970507 -0.058075868 0.01043779 0.013808676 -0.0017861039 -0.032851283 -0.08281109
-0.110726245 0.008622761 0.090294875 0.0062640216 0.05247297 0.022339799 0.004053563 0.09667432
-0.061569925 0.08339119 0.009713612 0.0009395825 0.011681234 0.020339664 -0.04507678 0.051767714
-0.0036971346 0.019358143 0.048357964 0.066827975 0.00163228 0.041695945 -0.08510579 0.066130534
0.0026882754 -0.019426068 0.04727086 -0.037572548 -0.030040769 0.04799601 -0.09420614 0.03684451
-0.01658656 0.0036760932 -0.017371405 -0.013434655 0.028427852 0.061187733 0.02276667 0.047219254
-0.013136152 -0.025339248 -0.0035981024 -0.030545205 0.038078677 -0.055595182 -0.04955012 -0.018529017
0.02339325 -0.034487896 0.018185774 0.059300914 -0.007357795 0.01949074 -0.029015053 0.03470211
-0.05520525 0.0019641595 0.022208994 -0.015735216 0.02218978 -0.0010282726 -0.03001701 0.06545833
-0.018780822 0.0010641606 0.020829622 -0.008887242 -0.06802773 0.057004128 0.0124998875 0.03904843
0.00538274 -0.05694213 0.0016774326 -0.0029574614 -0.056361042 -0.008076357 -0.04320167 -0.006732541
-0.002655093 0.01643737 0.061245553 0.023509813 0.01177655 0.046382345 -0.008795219 0.056760937
-0.02737281 0.030660119 0.07290569 0.04812704 0.026339898 -0.050818115 -0.028567547 0.024429955
-0.035131764 0.081743166 0.0063667493 0.011091395 -0.019108964 0.0020156563 0.03152483 0.01820289
-0.05545387 -0.02905937 0.01737671 -0.034897618 0.055609625 -0.050944686 0.095092595 -0.02961789
-0.039045785 -0.0938498 -0.022058524 -0.004531949 0.048857704 -0.03135451 -0.012623097 0.0100399
0.019654917 -0.007912144 -0.03003833 0.014066372 -0.03552594 -0.04591605 0.033117723 -0.047653448
0.037587862 -0.032424897 -0.04627403 -0.033813916 0.00554193 0.08633126 0.071846254 0.041447967
00000000: 008a 05bd 6020 deba b4ce 87bc 5aa9 25bc
00000010: 789f 2fbb b802 053d e014 96bd a095 d4bc
00000020: 7888 abbc 8c79 3fbd b888 e03d 4027 ecba
00000030: 0ccd 983b 0b05 863d b859 993d 776e 313d
00000040: 7e05 103d a080 033c f42d 2eba 80e8 9538
00000050: 4912 a3bd d67d 19bd d249 51bd 889a 983c
00000060: ecb9 9f3d 8c6f c4bb 0868 0f3d 2462 5dbc
00000070: 524f 0abc 86ae 993b 52d2 b33c 8c65 833d
00000080: 415d a0bd 99f7 223d 317b 34bc 7090 b33c
00000090: 820a 923d 14d4 98bd 72b4 e5bc 12ca 243d
000000a0: 4eb2 bdbd f270 133b 104f 883d c84e e6bc
000000b0: 5de7 a13c 8fdf debc 9030 d3bd b4f1 2ebd
000000c0: d25f 0b3d e1fa 3c3d 7a56 553d 73e5 723c
000000d0: a4d4 57bd ebdb 8fbd a38e f83c 297d 1cbd
000000e0: 8fe0 3bbc 5801 0f3d e8d4 0dbd 1a3a 803d
000000f0: 4a69 b8bc 4093 4bbd 5ae5 a9bd 6f02 03bd
00000100: 0520 5bbd b0f5 e9ba d6ab edbb bd63 983c
00000110: d6b6 41bd 4d0b a8bd 32a1 59bd a43d 95bc
00000120: 8ca3 0fbd 5786 04bd 2a5e ee3c eb55 903c
00000130: f0e2 6a3d 5cbb 953d 34a9 e83c 7989 babc
00000140: db3d a73b 5049 1c3d b01c 243d 00ed 64bd
00000150: 64dd d93c b804 6d3c 9e87 62bd 8f13 a23d
00000160: 8bac 6fbd a825 05ba aad9 ec3c 155b 10bc
00000170: 15b9 d83c 9b4f 563d 2a78 bc3c 8f26 38bc
00000180: 999f b4bd 156f d23c 0350 1ebd f1ba 93bd
00000190: 14de 7e3c b257 7b3c 3eb8 493d fa8f d8bc
000001a0: 70bb c4bb 1e44 6b3c 8c30 093d 78e0 68bb
000001b0: a2b6 bcbd c824 013d a3e9 683d 797d dabc
000001c0: 92ff e33b 7efb b33c f6e0 6dbd 4403 2b3c
000001d0: c93d 623c b41b eaba 118f 06bd dc98 a9bd
000001e0: 71c4 e2bd 7b46 0d3c 85ec b83d 6c42 cd3b
000001f0: e6ed 563d f401 b73c c0d3 843b 30fd c53d
00000200: bf30 7cbd 00c9 aa3d d725 1f3c 504e 763a
00000210: a662 3f3c 5e9f a63c 6ea2 38bd 620a 543d
00000220: a04b 72bb f894 9e3c 0013 463d 1bdd 883d
00000230: 3af2 d53a 5ec9 2a3d f24b aebd 726f 873d
00000240: c72d 303b 6b23 9fbc 179f 413d ace5 19bd
00000250: 0f18 f6bc 7797 443d 26ef c0bd 45ea 163d
00000260: 8ae0 87bc 9cea 703b 7a4e 8ebc 071d 5cbc
00000270: 87e1 e83c fd9f 7a3d 2b81 ba3c fa68 413d
00000280: 0439 57bc 4194 cfbc 24ce 6bbb f039 fabc
00000290: 63f8 1b3d c6b7 63bd 11f5 4abd 2aca 97bc
000002a0: 33a3 bf3c 2e43 0dbd 55fa 943c 84e5 723d
000002b0: a819 f1bb 0bab 9f3c fab0 edbc cd23 0e3d
000002c0: e61e 62bd 21b9 003b a3ef b53c 24e7 80bc
000002d0: 57c7 b53c 1ac7 86ba 3ce6 f5bc 040f 863d
000002e0: 3dda 99bc 4e7b 8b3a e2a2 aa3c cb9b 11bc
000002f0: 1f52 8bbd 297d 693d 54cc 4c3c 3ff1 1f3d
00000300: b261 b03b 273c 69bd 4cdd db3a f8d1 41bb
00000310: d6da 66bd b252 04bc 3cf4 30bd a69c dcbb
00000320: 1201 2ebb aaa7 863c 9edc 7a3d a797 c03c
00000330: 6ef2 403c 6afb 3d3d d219 10bc 287e 683d
00000340: f13c e0bc ee2a fb3c 944f 953d dc20 453d
00000350: c5c6 d73c a826 50bd 7d06 eabc 5421 c83c
00000360: 53e6 0fbd f668 a73d 2aa0 d03b afb8 353c
00000370: 678a 9cbc 1a19 043b 2e20 013d 3a1e 953c
00000380: 9923 63bd ea0d eebc 9a59 8e3c cef0 0ebd
00000390: ebc6 633d 60ab 50bd e8bf c23d 38a1 f2bc
000003a0: 79ee 1fbd 5334 c0bd 14b4 b4bc be80 94bb
000003b0: 041f 483d 966d 00bd 1bd1 4ebc 657e 243c
000003c0: 5903 a13c f0a1 01bc f212 f6bc a476 663c
000003d0: a683 11bd 7812 3cbd 73a6 073d 4330 43bd
000003e0: bbf5 193d f8cf 04bd d689 3dbd 7680 0abd
000003f0: 1499 b53b 72ce b03d 2124 933d 58c5 293d

std.constant7 f4 [128]
-0.0037541995 0.006609859 0.012613496 0.092903815 0.01259615 0.084952965 -0.018818706 0.00096251245
0.0032586188 0.025152052 0.017316667 0.054030865 0.011897356 0.08002626 0.055858664 0.038684346
0.08960451 0.06880571 0.010632781 0.030559372 -0.005955147 0.057804544 0.025185794 0.022726666
-0.0066828886 0.05922409 0.026119022 0.07588856 0.02358336 0.050224114 0.008878576 0.07767898
0.016196335 0.020683896 0.08950096 0.06086967 0.056010187 0.034265835 0.0011089729 0.09335451
0.040001243 0.051599532 -0.009775358 -0.0045654145 -0.0038620776 0.013987166 0.022532973 0.040759694
0.07464306 -0.0052614016 0.069683984 -0.013178937 0.15789132 0.020781288 -0.004670461 -0.0044513
-0.0066059427 0.0043952516 0.028770637 0.031867553 -0.0053953873 0.0017774386 0.013675316 -0.005337998
-0.00058549474 0.043565545 0.07120654 0.019475678 0.07708221 0.120251745 0.0713125 -0.0008363906
-0.0046293153 0.0018047914 0.11135407 0.036937665 -0.015284857 0.011230911 -0.0133710075 -0.0129637
0.07100571 0.0007283465 0.0461055 0.059484754 -0.003083198 0.02712934 0.0012413505 0.04542873
0.0657855 0.024860313 0.035688967 0.13110371 0.15015768 0.098322205 0.070686854 0.10133546
0.009040042 0.028538657 0.1340007 -0.010009919 0.06774714 0.024999443 0.096679956 0.07332726
0.037598208 0.034459677 0.034164652 0.10941251 0.038396027 0.07365552 0.040683918 -0.01759595
0.09523263 0.040713146 0.017266307 0.08978757 -0.008139086 0.04578998 0.06528401 0.07957263
-0.0018594435 0.060080383 0.03482649 0.05452325 -0.008837538 0.037841015 0.015525162 0.064815775
00000000: 0409 76bb 8497 d83b d6a8 4e3c 5b44 be3d
00000010: 1560 4e3c d2fb ad3d b029 9abc 1e51 7c3a
00000020: 8d8e 553b ad0b ce3c afdb 8d3c 784f 5d3d
00000030: 21ed 423c cfe4 a33d 0ecc 643d 7a73 1e3d
00000040: 9282 b73d 02ea 8c3d 1e35 2e3c a657 fa3c
00000050: 6523 c3bb 75c4 6c3d 7052 ce3c 462d ba3c
00000060: 22fc dabb f694 723d 8ff7 d53c 766b 9b3d
00000070: e431 c13c cdb7 4d3d 7277 113c 2816 9f3d
00000080: 2dae 843c 4671 a93c 484c b73d 7a52 793d
00000090: f06a 653d 555a 0c3d f55a 913a a630 bf3d
000000a0: 58d8 233d 085a 533d d328 20bc 7999 95bb
000000b0: e91a 7dbb 6d2a 653c 1297 b83c a3f3 263d
000000c0: 76de 983d d667 acbb 7ab6 8e3d 78ec 57bc
000000d0: 43ae 213e 853d aa3c ab0a 99bb 36dc 91bb
000000e0: aa76 d8bb 0b06 903b 66b0 eb3c 8d87 023d
000000f0: cacb b0bb f1f8 e83a 6f0e 603c 5fea aebb
00000100: e37b 19ba c971 323d bcd4 913d 758b 9f3c
00000110: 47dd 9d3d 8c46 f63d 4a0c 923d 3941 5bba
00000120: 83b1 97bb c08e ec3a 9a0d e43d f34b 173d
00000130: 566d 7abc db01 383c 1212 5bbc b365 54bc
00000140: 716b 913d 82ee 3e3a 1fd9 3c3d 49a6 733d
00000150: 7b0f 4abb 5a3e de3c d0b4 a23a 7a13 3a3d
00000160: 8cba 863d dba7 cb3c 982e 123d 0d40 063e
00000170: efc2 193e 275d c93d 45c4 903d f788 cf3d
00000180: af1c 143c e7c9 e93c 7b37 093e a500 24bc
00000190: 03bf 8a3d a2cb cc3c 2400 c63d 9a2c 963d
000001a0: 9400 1a3d 9725 0d3d 3cf0 0b3d ab13 e03d
000001b0: 2745 1d3d b5d8 963d 2ea4 263d 6225 90bc
000001c0: 5309 c33d d4c2 263d 1272 8d3c 8ce2 b73d
000001d0: cd59 05bc 468e 3b3d 9fb3 853d faf6 a23d
000001e0: 92b8 f3ba d916 763d 39a6 0e3d c553 5f3d
000001f0: 52cb 10bc 2eff 1a3d 405d 7e3c 22be 843d

std.constant8 f4 [128]
-0.0067560035 -0.019718667 0.00069020386 0.0030507627 -0.0010193989 -0.0025967292 0.019635195 0.023554608
-0.0046182377 -0.00432524 0.0055091456 -0.015299822 -0.0007757426 0.027494293 -0.0030297209 0.0036417015
0.0015219457 -0.006636552 -0.016759567 0.0025813417 0.009163303 0.0011441119 -0.008101972 0.00047835405
0.0060485364 0.020368606 0.01193483 0.0057007046 -0.0010610301 0.0032941503 -0.00528746 0.0021176615
0.015854973 0.007404575 -0.029959055 0.0008886667 -0.0017302453 -0.0029603876 0.017168757 -0.0053900704
0.0007186869 0.020198995 -0.022422886 0.0036924346 0.005753342 0.012776524 -0.00043251406 -0.0017071652
-0.011511716 -0.0031275575 -0.004919761 -0.018425595 0.0066967043 -0.0027744342 -0.0062806844 0.006060643
0.005001848 -0.0025238195 -0.0037898102 -0.023749692 0.005104181 0.0040869615 -0.0042999135 0.00415707
0.001851645 0.020578185 0.00319848 0.0030437992 0.014002954 0.0012609139 -0.019986166 0.0062989667
0.0012307384 0.002365503 -0.020185148 -0.004107713 -0.019147377 0.021072842 -0.014872202 0.017296653
0.017744012 0.011342798 0.0028308912 -0.017307675 -0.0041791517 0.0040061446 -0.0038479336 -0.0014994922
0.011758218 -0.0013223271 -0.026107 -0.027519211 0.03236076 -0.0028511877 -0.0075704604 0.013812892
-0.0023827737 -0.003308941 0.0136683155 0.009150054 0.0034172707 0.0057460754 0.009746994 0.0012254273
0.015091387 0.00037541456 0.0028244075 -0.02575884 -0.0024702903 -0.0021583238 -0.025175376 -0.017961562
0.0015301943 -0.0017611014 -0.0030018152 0.017062 -0.02017935 0.01888611 0.015494023 0.0068970867
0.007864837 0.0012061953 0.0065024355 0.0037466972 0.016729858 -0.0019322963 -0.004204268 0.0022048429
00000000: 7761 ddbb 0b89 a1bc ccee 343a 4eef 473b
00000010: 5a9d 85ba e32d 2abb fdd9 a03c 98f5 c03c
00000020: 9654 97bb beba 8dbb 1086 b43b 1bac 7abc
00000030: 345b 4bba b63b e13c 488e 46bb 9da9 6e3b
00000040: 067c c73a 6f77 d9bb 5c4b 89bc ba2b 293b
00000050: ae21 163c 06f6 953a 22be 04bc 98cb fa39
00000060: cd32 c63b 10dc a63c 4e8a 433c facc ba3b
00000070: 4312 8bba ace2 573b 6e42 adbb 77c8 0a3b
00000080: 4ae2 813c 14a2 f23b b16c f5bc 6af5 683a
00000090: 66c9 e2ba 1003 42bb 7ea5 8c3c 309f b0bb
000000a0: 4366 3c3a 5d78 a53c 33b0 b7bc c6fc 713b
000000b0: 8886 bc3b a054 513c 0ec3 e2b9 f5c2 dfba
000000c0: a39b 3cbc b5f7 4cbb f235 a1bb 46f1 96bc
000000d0: 0770 db3b 48d3 35bb 33ce cdbb 5c98 c63b
000000e0: 8be6 a33b aa66 25bb 775e 78bb b78e c2bc
000000f0: f940 a73b ebeb 853b 4ae6 8cbb 0838 883b
00000100: e5b2 f23a 9593 a83c 979d 513b 7a7a 473b
00000110: a56c 653c 4045 a53a 07ba a3bc 9067 ce3b
00000120: ba50 a13a 8e06 1b3b 535b a5bc fe99 86bb
00000130: f6da 9cbc f4a0 ac3c 89aa 73bc b6b1 8d3c
00000140: e45b 913c 25d7 393c 7986 393b d3c8 8dbc
00000150: 44f1 88bb fa45 833b 9d2d 7cbb 9c8a c4ba
00000160: 8aa5 403c ef51 adba 59de d5bc f86f e1bc
00000170: b78c 043d feda 3abb a011 f8bb 784f 623c
00000180: 4f28 1cbb d1da 58bb 12f1 5f3c 1cea 153c
00000190: 4af4 5f3b 9349 bc3b dbb1 1f3c 849e a03a
000001a0: dd41 773c 4ad3 c439 b219 393b 3404 d3bc
000001b0: 98e4 21bb aa72 0dbb 973c cebc 2024 93bc
000001c0: cd90 c83a c2d4 e6ba 1aba 44bb 9cc5 8b3c
000001d0: 2a4f a5bc 0bb7 9a3c a5da 7d3c f500 e23b
000001e0: 84db 003c 3319 9e3a 6212 d53b 268b 753b
000001f0: 0e0d 893c 1b45 fdba f5c3 89bb 207f 103b

std.constant9 f4 [128]
1.0 1.0 1.0 1.0 1.0 1.0 1.0 1.0
1.0 1.0 1.0 1.0 1.0 1.0 1.0 1.0
1.0 1.0 1.0 1.0 1.0 1.0 1.0 1.0
1.0 1.0 1.0 1.0 1.0 1.0 1.0 1.0
1.0 1.0 1.0 1.0 1.0 1.0 1.0 1.0
1.0 1.0 1.0 1.0 1.0 1.0 1.0 1.0
1.0 1.0 1.0 1.0 1.0 1.0 1.0 1.0
1.0 1.0 1.0 1.0 1.0 1.0 1.0 1.0
1.0 1.0 1.0 1.0 1.0 1.0 1.0 1.0
1.0 1.0 1.0 1.0 1.0 1.0 1.0 1.0
1.0 1.0 1.0 1.0 1.0 1.0 1.0 1.0
1.0 1.0 1.0 1.0 1.0 1.0 1.0 1.0
1.0 1.0 1.0 1.0 1.0 1.0 1.0 1.0
1.0 1.0 1.0 1.0 1.0 1.0 1.0 1.0
1.0 1.0 1.0 1.0 1.0 1.0 1.0 1.0
1.0 1.0 1.0 1.0 1.0 1.0 1.0 1.0
00000000: 0000 803f 0000 803f 0000 803f 0000 803f
00000010: 0000 803f 0000 803f 0000 803f 0000 803f
00000020: 0000 803f 0000 803f 0000 803f 0000 803f
00000030: 0000 803f 0000 803f 0000 803f 0000 803f
00000040: 0000 803f 0000 803f 0000 803f 0000 803f
00000050: 0000 803f 0000 803f 0000 803f 0000 803f
00000060: 0000 803f 0000 803f 0000 803f 0000 803f
00000070: 0000 803f 0000 803f 0000 803f 0000 803f
00000080: 0000 803f 0000 803f 0000 803f 0000 803f
00000090: 0000 803f 0000 803f 0000 803f 0000 803f
000000a0: 0000 803f 0000 803f 0000 803f 0000 803f
000000b0: 0000 803f 0000 803f 0000 803f 0000 803f
000000c0: 0000 803f 0000 803f 0000 803f 0000 803f
000000d0: 0000 803f 0000 803f 0000 803f 0000 803f
000000e0: 0000 803f 0000 803f 0000 803f 0000 803f
000000f0: 0000 803f 0000 803f 0000 803f 0000 803f
00000100: 0000 803f 0000 803f 0000 803f 0000 803f
00000110: 0000 803f 0000 803f 0000 803f 0000 803f
00000120: 0000 803f 0000 803f 0000 803f 0000 803f
00000130: 0000 803f 0000 803f 0000 803f 0000 803f
00000140: 0000 803f 0000 803f 0000 803f 0000 803f
00000150: 0000 803f 0000 803f 0000 803f 0000 803f
00000160: 0000 803f 0000 803f 0000 803f 0000 803f
00000170: 0000 803f 0000 803f 0000 803f 0000 803f
00000180: 0000 803f 0000 803f 0000 803f 0000 803f
00000190: 0000 803f 0000 803f 0000 803f 0000 803f
000001a0: 0000 803f 0000 803f 0000 803f 0000 803f
000001b0: 0000 803f 0000 803f 0000 803f 0000 803f
000001c0: 0000 803f 0000 803f 0000 803f 0000 803f
000001d0: 0000 803f 0000 803f 0000 803f 0000 803f
000001e0: 0000 803f 0000 803f 0000 803f 0000 803f
000001f0: 0000 803f 0000 803f 0000 803f 0000 803f

std.constant10 f4 [128]
-0.0033011606 0.006954604 0.012697319 0.09335035 0.012384192 0.08482908 -0.018711615 0.0011577825
0.003157588 0.024419684 0.017854322 0.054014202 0.011781081 0.08056298 0.0560254 0.038496405
0.089477904 0.06828083 0.010787098 0.030725338 -0.0059149694 0.056589924 0.02468895 0.023368267
-0.006590052 0.059684925 0.02616966 0.07674778 0.02386038 0.049336817 0.008950857 0.076688334
0.016052494 0.020651205 0.08926162 0.060282283 0.05539219 0.03443902 0.0009351573 0.093290284
0.039482865 0.051497743 -0.009450882 -0.004749043 -0.0037218302 0.014232434 0.023171343 0.039498523
0.07444408 -0.005208859 0.06946586 -0.013256598 0.15807305 0.021807773 -0.004726035 -0.004168818
-0.0066543217 0.0045737084 0.029399345 0.03214921 -0.005488421 0.0018881451 0.01318362 -0.0051318333
-0.00055803184 0.043522198 0.07185671 0.018703958 0.0777035 0.12099504 0.070994824 -0.0009405458
-0.0049768067 0.0014174083 0.11112183 0.037337262 -0.014978454 0.0113692 -0.013357056 -0.012935577
0.071210854 0.00034211954 0.04663333 0.058036525 -0.003806893 0.025901787 0.001036663 0.045965653
0.06571909 0.02475402 0.035841387 0.13079582 0.14978513 0.098156765 0.070551015 0.101404786
0.009158822 0.028367078 0.13375145 -0.009879274 0.068843275 0.025467308 0.09681674 0.07289413
0.037437584 0.033920866 0.03422177 0.10904541 0.039502036 0.07352953 0.040551744 -0.017402673
0.095481716 0.03978519 0.01657594 0.08935265 -0.00690874 0.04562535 0.06474676 0.07931572
-0.0016808299 0.06010852 0.03573281 0.053725712 -0.008883274 0.03731167 0.014929695 0.06462066
00000000: 4958 58bb 72e3 e33b 6a08 503c 782e bf3d
00000010: 11e7 4a3c deba ad3d 1a49 99bc bcc0 973a
00000020: 89ef 4e3b ca0b c83c 3a43 923c ff3d 5d3d
00000030: 6f05 413c 34fe a43d e47a 653d 68ae 1d3d
00000040: 3140 b73d d2d6 8b3d 5ebc 303c b4b3 fb3c
00000050: 5cd2 c1bb d6ca 673d 7b40 ca3c cf6e bf3c
00000060: 5df1 d7bb 2e78 743d c161 d63c f12d 9d3d
00000070: d876 c33c 6715 4a3d 9ea6 123c c60e 9d3d
00000080: 8580 833c b72c a93c ccce b63d 8eea 763d
00000090: ece2 623d ee0f 0d3d 5825 753a fa0e bf3d
000000a0: c9b8 213d 4cef 523d dfd7 1abc dc9d 9bbb
000000b0: f3e9 73bb 282f 693c d4d1 bd3c 34c9 213d
000000c0: 2376 983d 14af aabb 1e44 8e3d 3432 59bc
000000d0: e7dd 213e 37a6 b23c dbdc 9abb 949a 88bb
000000e0: 7f0c dabb 0cdf 953b e5d6 f03c e4ae 033d
000000f0: 36d8 b3bb a37b f73a 1c00 583c f028 a8bb
00000100: e248 12ba 5544 323d 9c29 933d 0b39 993c
00000110: 0323 9f3d 3fcc f73d bc65 913d f68e 76ba
00000120: 7b14 a3bb 55c8 b93a d893 e33d f5ee 183d
00000130: 3168 75bc e245 3a3c 8ed7 5abc beef 53bc
00000140: ffd6 913d 825e b339 9702 3f3d b5b7 6d3d
00000150: 117d 79bb fc2f d43c a3e0 873a 7b46 3c3d
00000160: bb97 863d f1c8 ca3c 6bce 123d 57ef 053e
00000170: 4661 193e 6a06 c93d 0d7d 903d 50ad cf3d
00000180: e20e 163c 1362 e83c 24f6 083e aedc 21bc
00000190: b4fd 8c3d d1a0 d03c db47 c63d 8549 953d
000001a0: 2758 193d 9bf0 0a3d 202c 0c3d 3353 df3d
000001b0: e3cc 213d a696 963d 9619 263d 0d90 8ebc
000001c0: eb8b c33d ccf5 223d 44ca 873c 86fe b63d
000001d0: b662 e2bb a6e1 3a3d f399 843d 4870 a23d
000001e0: 4b4f dcba 5a34 763d 915c 123d 7e0f 5c3d
000001f0: 278b 11bc 1fd4 183d ae9b 743c d657 843d

std.constant11 f4 [128, 7]
-0.09315342 0.0828103 0.078819685 -0.10279972 0.077670515 0.02713811 0.085599825 0.022557642
0.087867424 0.02374337 -0.03170521 0.07823911 0.01277803 -0.06310662 0.047344178 0.01250841
0.034187127 0.0044792765 -0.0029777493 0.027741477 0.022947837 -0.007506973 -0.038283505 0.11971885
-0.06771343 0.059841894 -0.0034765215 0.21080935 -0.04998648 -0.101168916 -0.045217622 -0.002378509
0.00473192 0.018165626 -0.025040202 0.1080332 0.01095805 -0.06833761 -0.08005708 0.04091268
-0.043429796 0.08738374 -0.11052274 -0.035881277 -0.02060932 -0.06904175 -0.022237193 0.09599867
0.062250406 0.0035204706 0.011277001 -0.034333896 -0.029528398 0.0015896163 -0.06261574 0.08555759
0.09993077 -0.08265681 -0.05249146 0.07098462 -0.0005187948 0.08104544 0.0286946 0.010408154
-0.046618544 0.05689829 0.08252879 -0.05386014 0.0487166 -0.02224247 -0.03142078 -0.08924513
0.034687225 -0.059986223 -0.051615812 0.040977597 0.0978161 -0.025829578 -0.06512189 0.08272396
0.028740535 -0.06485228 0.12789993 0.13121462 -0.082809545 -0.05976532 0.03153025 0.0001927623
-0.0834921 0.020914108 -0.015233525 -0.06702413 0.02987391 -0.024175972 -0.031815443 0.04639955
0.16555677 -0.06975754 -0.0049192626 0.04077023 -0.07886096 -0.024082556 0.12731619 0.000115837815
0.13221653 -0.084535085 0.0605512 0.012140662 0.08102441 0.11089801 -0.010608776 0.069899336
-0.00014944447 0.04879848 0.035081867 -0.033927552 -0.049656127 -0.008322415 -0.008539704 -0.041306138
0.1015668 -0.05038948 0.06456091 0.092355065 -0.011932363 0.09295829 0.11260174 0.048668537
-0.01101488 0.0019489392 0.08320527 0.050278343 -0.01344072 -0.015531366 -0.03885254 -0.010643001
-0.020780383 0.039537597 -0.020820316 0.07696165 0.040494 -0.04724093 -0.03383261 0.022837741
0.020544326 0.10111811 -0.028712595 -0.04443726 0.039394 0.08772898 0.008736064 0.03540571
0.07744148 -0.022907909 0.07997813 -0.09861699 0.073031634 0.038723726 -0.043122735 -0.02674229
-0.064078964 0.024668908 0.09798976 0.09488145 -0.063853286 -0.075030066 0.037060723 0.1488283
-0.03246763 -0.08435562 0.04561053 0.020069271 -0.030333953 0.06322283 0.0767923 -0.087777555
0.080415994 0.042334676 0.09300057 0.020553786 -0.057527773 0.13683173 0.058637854 0.06830981
0.026195621 0.06581704 -0.028684782 0.054397013 -0.003237091 0.059810106 0.015339609 -0.081910506
0.04685124 0.10715337 -0.036658823 0.16011913 0.09177756 0.08361752 -0.022486813 0.07421991
0.08292313 0.09874405 0.11952371 -0.031373523 0.019810805 0.098177165 -0.08797393 0.0857165
-0.030287182 0.031492416 -0.09584338 0.018099867 0.012218371 -0.09817487 0.097502336 0.0032257373
0.053696536 0.12666357 -0.06383167 -0.016245948 0.09732567 0.109523654 0.09597523 0.020188503
0.04895899 -0.027578447 0.05921827 -0.057110026 -0.04788124 -0.09249433 0.10155961 0.10569042
-0.074294746 0.045250956 -0.046038806 0.044144057 0.036343034 0.101447284 0.027345 0.06236285
-0.06908162 -0.031864125 -0.03063372 0.044077154 0.11554155 0.035541322 0.038148265 0.082112856
0.030404253 -0.019599196 0.02565653 0.073243454 -0.032368384 -0.077670194 0.02297268 0.009163206
00000000: 38c7 bebd 7298 a93d 376c a13d a988 d2bd
00000010: b811 9f3d be50 de3c f64e af3d ceca b83c
00000020: d6f3 b33d 7581 c23c 53dd 01bd d43b a03d
00000030: f15a 513c 0b3e 81bd f8eb 413d 13f0 4c3c
00000040: cd07 0c3d e5c6 923b 5826 43bb 1842 e33c
00000050: 1afd bb3c 0efd f5bb 2acf 1cbd 282f f53d
00000060: 57ad 8abd c61c 753d 5ad6 63bb 68de 573e
00000070: a0be 4cbd a631 cfbd 1d36 39bd c2e0 1bbb
00000080: 390e 9b3b 14d0 943c 1c21 cdbc 8340 dd3d
00000090: 6589 333c 97f4 8bbd f7f4 a3bd 0e94 273d
000000a0: 71e3 31bd 3ff6 b23d bf59 e2bd 3ff8 12bd
000000b0: e0d4 a8bc c365 8dbd c62a b6bc f39a c43d
000000c0: 48fa 7e3d b2b7 663b 2cc3 383c b3a1 0cbd
000000d0: 8ae5 f1bc ac5a d03a ae3c 80bd d138 af3d
000000e0: 81a8 cc3d f947 a9bd 4901 57bd 6260 913d
000000f0: bbff 07ba 27fb a53d f010 eb3c f686 2a3c
00000100: 16f3 3ebd 2e0e 693d db04 a93d 739c 5cbd
00000110: 0f8b 473d d735 b6bc 13b3 00bd 27c6 b6bd
00000120: 3114 0e3d 1db4 75bd 1a6b 53bd 20d8 273d
00000130: cf53 c83d 8d98 d3bc a05e 85bd 2e6b a93d
00000140: 4571 eb3c 46d1 84bd 33f8 023e 205d 063e
00000150: 0d98 a9bd 7bcc 74bd dd25 013d 3c20 4a39
00000160: e8fd aabd 1054 ab3c 0996 79bc f243 89bd
00000170: 21ba f43c b00c c6bc e950 02bd 740d 3e3d
00000180: b787 293e 0bdd 8ebd c431 a1bb affe 263d
00000190: db81 a1bd c848 c5bc 2d5f 023e f4ed f238
000001a0: c563 073e bb20 adbd 8904 783d a1e9 463c
000001b0: 20f0 a53d 7f1e e33d 6ed0 2dbc 6227 8f3d
000001c0: 32b4 1cb9 eae0 473d 01b2 0f3d 9ef7 0abd
000001d0: 3964 4bbd bd5a 08bc 1dea 0bbc a030 29bd
000001e0: 4102 d03d 3365 4ebd 8338 843d a724 bd3d
000001f0: f57f 43bc ea60 be3d be9b e63d a958 473d
00000200: c177 34bc 8c73 ff3a 8667 aa3d aaf0 4d3d
00000210: 7736 5cbc 4577 7ebc d723 1fbd fb5f 2ebc
00000220: 9f3b aabc 2df2 213d 5e8f aabc 129e 9d3d
00000230: 09dd 253d b57f 41bd 1094 0abd 3716 bb3c
00000240: 934c a83c 0317 cf3d ad36 ebbc d803 36bd
00000250: 9a5b 213d 40ab b33d b521 0f3c 9405 113d
00000260: a399 9e3d 5ea9 bbbc 93cb a33d b4f7 c9bd
00000270: 9c91 953d c59c 1e3d 77a1 30bd a612 dbbc
00000280: d53b 83bd 7316 ca3c dbae c83d 3551 c23d
00000290: 83c5 82bd 5da9 99bd fccc 173d 7266 183e
000002a0: c7fc 04bd a4c2 acbd 1bd2 3a3d 5068 a43c
000002b0: e97e f8bc f97a 813d 4845 9d3d b8c4 b3bd
000002c0: 24b1 a43d 2067 2d3d 1577 be3d 6a60 a83c
000002d0: 3ea2 6bbd 9e1d 0c3e 3f2e 703d 03e6 8b3d
000002e0: 3398 d63c 16cb 863d 59fc eabc 67cf 5e3d
000002f0: 6025 54bb 71fb 743d fc52 7b3c b2c0 a7bd
00000300: 16e7 3f3d 3a73 db3d 9027 16bd 45f6 233e
00000310: e0f5 bb3d aa3f ab3d 4436 b8bc 9c00 983d
00000320: 9ad3 a93d 523a ca3d d9c8 f43d 8681 00bd
00000330: 454a a23c 1c11 c93d ad2b b4bd 228c af3d
00000340: d31c f8bc 31fe 003d 8949 c4bd 2c46 943c
00000350: 902f 483c e80f c9bd 4eaf c73d e466 533b
00000360: e6f0 5b3d 18b4 013e 2eba 82bd 3916 85bc
00000370: ae52 c73d f04d e03d a98e c43d 5c62 a53c
00000380: 3989 483d 32ec e1bc db8e 723d 34ec 69bd
00000390: 1e1f 44bd ab6d bdbd 7cfe cf3d 3874 d83d
000003a0: d827 98bd 1159 393d 3093 3cbd 66d0 343d
000003b0: 6fdc 143d 98c3 cf3d 9f02 e03c 3070 7f3d
000003c0: aa7a 8dbd f583 02bd 91f3 fabc 3f8a 343d
000003d0: 0ca1 ec3d c793 113d 5b41 1c3d c92a a83d
000003e0: 5712 f93c 7e8e a0bc a52d d23c aa00 963d
000003f0: b694 04bd 8d11 9fbd 3431 bc3c 4621 163c

std.constant12 f4 [128, 7]
-0.004811662 -0.11401692 -0.11411742 -0.08104792 -0.020787796 -0.09176216 0.04097161 0.016664468
0.042113315 0.06608681 -0.02070275 0.055591907 -0.061718863 0.071439646 -0.059495248 -0.02072391
0.09800022 0.07018917 0.08580847 0.03307486 0.102094986 -0.041079126 0.021053659 0.095233455
0.11080979 -0.060573224 -0.062431037 -0.21541837 0.060338944 -0.021342644 0.06840786 0.019266404
-0.09001776 -0.11629501 -0.06947523 0.09579331 -0.015815364 -0.07260755 -0.07112829 0.062099997
-0.05345161 0.20356274 -0.013443434 -0.0856571 -0.046884153 -0.070464484 -0.037277713 -0.08775105
-0.0057565994 -0.02807152 0.02279873 0.049340587 0.032398168 -0.046118945 -0.090703316 -0.05505818
-0.10724071 0.08613203 -0.027941395 -0.075761564 0.026828265 -0.030888602 -0.0554072 -0.015182146
-0.04555784 -0.115470625 -0.09778269 0.008463219 -0.052910343 -0.14467907 -0.01996271 0.06039916
-0.06561919 0.08429726 0.05002552 0.08720113 0.08557489 -0.029762728 0.010392081 0.083860025
-0.10045361 0.080172405 0.11062428 0.1643528 0.061674297 -0.10927345 -0.11387618 0.07668524
0.10962518 -0.047420673 -0.07075072 0.016103221 -0.039820455 0.037374467 0.119247004 -0.01631398
-0.036304567 -0.12465742 0.064722724 -0.07016384 -0.0038973559 -0.022724168 0.021427594 -0.024298655
-0.17254238 0.057260603 -0.05514164 0.10729412 -0.036771048 0.09415387 0.034721766 0.1727311
-0.08509532 -0.011728434 0.07947764 0.05993352 0.017263653 0.12750266 -0.16548218 -0.03952724
0.04924399 0.08182284 -0.04344516 0.027550628 0.06247777 -0.15878692 -0.007146151 0.075327665
0.048410863 0.046135686 -0.06623889 -0.091155596 0.06823508 0.071760416 -0.0032141032 0.03351667
0.09586533 0.092277735 0.018832834 0.18544436 -0.0034476847 0.09138587 0.07915534 0.07830935
0.1089457 -0.07242657 -0.06398966 -0.05261676 0.03789501 -0.066469625 -0.025477704 -0.016009383
0.068069935 0.13238348 -0.033334628 -0.03792116 0.047232173 0.020992266 -0.0403291 -0.12298026
0.10099806 0.089622915 0.04969649 0.11022619 0.095116936 -0.0059202714 0.117732346 0.15741941
0.08842987 0.02154006 -0.0007600786 0.009171141 0.10468896 -0.07665123 -0.012749266 -0.046713263
-0.046891373 0.06955053 -0.063496426 -0.05974176 0.08512567 -0.1593368 0.088549346 0.043202586
-0.048252985 0.010370392 -0.03388135 0.09080795 -0.105067596 -0.042211525 -0.0009882108 -0.05081876
0.07816126 0.045881078 -0.07117083 -0.20879723 -0.03780896 0.096189395 0.0040881513 -0.100772716
0.01851351 0.047309976 0.09834938 0.11009756 -0.08948908 -0.016068378 0.0029756548 0.09850868
0.02562623 0.19971207 0.04778089 0.035723135 0.013421573 -0.0049042706 -0.10904236 -0.10277077
0.04981654 0.050987303 0.078565925 -0.11286415 -0.0645127 0.08464252 0.006936336 -0.20639272
-0.007473945 0.12131964 -0.071341425 -0.055198718 -0.024886506 -0.101078495 0.06001041 -0.08495942
0.01616008 -0.03828143 0.12463183 0.13845013 -0.01184669 -0.0768704 -0.11699346 0.02726076
-0.09301809 0.026530765 -0.008549477 0.07921167 0.16594684 -0.022566414 0.011894691 0.059438545
-0.04693844 -0.0071125673 0.12479217 0.20812118 -0.012001772 -0.08693132 0.030571025 -0.09396578
00000000: 25ab 9dbb b481 e9bd 65b6 e9bd 74fc a5bd
00000010: 2b4b aabc cded bbbd d9d1 273d ec83 883c
00000020: 037f 2c3d 8558 873d d098 a9bc 57b4 633d
00000030: ebcc 7cbd f34e 923d 4ab1 73bd 30c5 a9bc
00000040: 57b4 c83d 57bf 8f3d 5abc af3d 8179 073d
00000050: 2d17 d13d 9642 28bd b978 ac3c c209 c33d
00000060: 3ef0 e23d a11b 78bd b0b7 7fbd a296 5cbe
00000070: f825 773d c5d6 aebc 6c19 8c3d 94d4 9d3c
00000080: 3b5b b8bd 142c eebd 0849 8ebd 482f c43d
00000090: 398f 81bc 44b3 94bd b5ab 91bd 915c 7e3d
000000a0: 13f0 5abd c072 503e d941 5cbc fd6c afbd
000000b0: 9909 40bd af4f 90bd 84b0 18bd d3b6 b3bd
000000c0: dba1 bcbb 3ff6 e5bc 67c4 ba3c 5b19 4a3d
000000d0: f1b3 043d 38e7 3cbd a9c2 b9bd b084 61bd
000000e0: 04a1 dbbd fd65 b03d 5ae5 e4bc e128 9bbd
000000f0: f3c6 db3c 180a fdbc a9f2 62bd 89be 78bc
00000100: dc9a 3abd dd7b ecbd 4a42 c8bd 50a9 0a3c
00000110: 84b8 58bd c026 14be d688 a3bc 1c65 773d
00000120: 5b63 86bd 0ba4 ac3d 8fe7 4c3d 8296 b23d
00000130: e341 af3d f7d0 f3bc 8c43 2a3c cebe ab3d
00000140: 9fba cdbd 6e31 a43d fc8e e23d 1a4c 283e
00000150: 309e 7c3d c2ca dfbd ea37 e9bd 270d 9d3d
00000160: 2b83 e03d 2e3c 42bd c1e5 90bd e7ea 833c
00000170: c61a 23bd f815 193d c637 f43d e5a4 85bc
00000180: 19b4 14bd 644c ffbd 598d 843d 0fb2 8fbd
00000190: c86a 7fbb 0928 babc ec88 af3c f90d c7bc
000001a0: f3ae 30be 188a 6a3d 33dc 61bd 05bd db3d
000001b0: 3d9d 16bd bfd3 c03d 6938 0e3d 6ce0 303e
000001c0: 7546 aebd 9e28 40bc 2cc5 a23d da7c 753d
000001d0: 816c 8d3c 0f90 023e 2974 29be 51e7 21bd
000001e0: 11b4 493d bc92 a73d 8df3 31bd dbb1 e13c
000001f0: b1e8 7f3d 0a99 22be 422a eabb 6445 9a3d
00000200: 784a 463d c6f8 3c3d 41a8 87bd c9af babd
00000210: d5be 8b3d 20f7 923d b4a3 52bb c748 093d
00000220: 0b55 c43d 1cfc bc3d 5147 9a3c 20e5 3d3e
00000230: 8df2 61bb 8428 bb3d 321c a23d a760 a03d
00000240: ec1e df3d 6254 94bd 030d 83bd ac84 57bd
00000250: cc37 1b3d 3a21 88bd 9eb6 d0bc 1c26 83bc
00000260: 4068 8b3d 898f 073e e489 08bd 3853 1bbd
00000270: 8676 413d f9f7 ab3c 2030 25bd 13dd fbbd
00000280: 12d8 ce3d 388c b73d 8c8e 4b3d 45be e13d
00000290: abcc c23d d6fe c1bb a81d f13d 8e32 213e
000002a0: b81a b53d c874 b03c 0340 47ba 8e42 163c
000002b0: 2a67 d63d 52fb 9cbd 4ce2 50bc 6856 3fbd
000002c0: 2b11 40bd 8270 8e3d 6a0a 82bd c7b3 74bd
000002d0: 5e56 ae3d 3029 23be 5c59 b53d 32f5 303d
000002e0: eca4 45bd 94e8 293c 2cc7 0abd 85f9 b93d
000002f0: ae2d d7bd fee5 2cbd da86 81ba 5527 50bd
00000300: 0313 a03d cced 3b3d 03c2 91bd f1ce 55be
00000310: 91dd 1abd f2fe c43d e6f5 853b ed61 cebd
00000320: a5a9 973c 1bc8 413d 666b c93d d47a e13d
00000330: 0d46 b7bd d5a1 83bc 3403 433b ebbe c93d
00000340: 19ee d13c 5281 4c3e e5b5 433d 6c52 123d
00000350: 28e6 5b3c 01b4 a0bb 9a51 dfbd 7b79 d2bd
00000360: 6e0c 4c3d 10d8 503d 2ce7 a03d 5225 e7bd
00000370: 3c1f 84bd 0f59 ad3d 344a e33b 9d58 53be
00000380: ffe7 f4bb 6e76 f83d 741b 92bd 0d18 62bd
00000390: c9de cbbc 3e02 cfbd 7acd 753d 34ff adbd
000003a0: 2562 843c fdcc 1cbd f93e ff3d dfc5 0d3e
000003b0: 9f18 42bc 3a6e 9dbd 449a efbd f551 df3c
000003c0: 4580 bebd 0c57 d93c 1b13 0cbc ba39 a23d
000003d0: f8ed 293e 33dd b8bc f3e1 423c d575 733d
000003e0: 8642 40bd 8a10 e9bb 0a93 ff3d b81d 553e
000003f0: 15a3 44bc 0c09 b2bd 1670 fa3c 2271 c0bd
