AirQualityApp/AirQualityApp.Android/Assets/PragueShort.tflite (tflite, 814948 bytes, 24 tensors)

std.constant3 f4 [128, 128]
000000 92 41 20 3d bc 83 c5 3d 96 04 32 bd 9d 7b 30 3d
       0.039125033 0.09644267 -0.043461405 0.043086637
000010 3c 6a 19 bc 5a 7f 86 bc 9e fd 35 bd 3f 09 24 3d
       -0.009363707 -0.016418148 -0.04443132 0.04004788
000020 f2 be 8f bd 92 b0 1c 3c 69 d0 40 3c 1f c4 9d 3c
       -0.07018842 0.009563582 0.011768439 0.019258557
000030 e6 0b 41 3d a0 05 4f 3d 9b 2a 19 3d 9d 5e 8e bd
       0.047130488 0.050542474 0.037394147 -0.0695164
000040 0a ac 35 3d fd c9 36 bd c4 85 8c 3c 5e 76 af bc
       0.044353522 -0.044626225 0.017153628 -0.021418747
000050 6a 49 91 bb d9 aa f0 bc fe a0 00 bc 20 c4 d6 bb
       -0.0044338005 -0.029378342 -0.0078508835 -0.0065541416
000060 a7 2d 57 3c cb f0 b1 bd 1e cb 43 3b 99 af 8f 3c
       0.013133443 -0.08688506 0.0029875706 0.017539786
000070 b7 c7 92 bd d7 f8 81 3b c1 c0 b6 bd ba b2 8a 3c
       -0.07166999 0.0039664316 -0.08923484 0.016930927
000080 b5 cc 13 3d c3 96 63 3c 28 9e d5 3c 6e fb 59 3d
       0.036083896 0.013890925 0.026076391 0.053218298
000090 e4 75 4e bd 24 65 b2 bb 56 9d a0 bd 72 43 ff bc
       -0.050405398 -0.005444186 -0.078425094 -0.03116009
0000a0 94 ea 5e bd f2 e0 5a bd 0a 19 53 3c c5 52 c3 3c
       -0.05442293 -0.05343718 0.012884388 0.023843179
0000b0 a6 f7 e2 3b bc 35 d7 bb 1a 0a b0 bb 11 6b 31 bc
       0.0069264947 -0.006567685 -0.005372298 -0.010828749
0000c0 5e b8 00 3d 34 f6 8a 3d 64 a0 37 3d f4 7f 34 bd
       0.031425826 0.06785241 0.044830695 -0.044067338
0000d0 f8 5d 5e bd 2b 95 0e 3d 09 6a 67 bd 94 53 a1 3c
       -0.054288834 0.034810226 -0.056497607 0.019693173
0000e0 de 62 4a 3d c4 77 6c 3d 24 3c 0f bc bd 0c 3c bd
       0.049410693 0.057731405 -0.008742366 -0.045910586
0000f0 4c d3 33 3c 9c c9 04 bc 83 20 31 3c 94 ec f5 bc
       0.01097567 -0.008104708 0.010810974 -0.030020036
000100 75 74 2f bb 21 73 7d 3d a2 25 e2 3c f2 99 97 bd
       -0.0026772295 0.061877374 0.027605835 -0.074024096
000110 e8 a4 18 3d e6 66 8f 3b 97 47 ed bc ba 2c cd 3c
       0.03726664 0.00437628 -0.0289648 0.025045741
000120 2a b2 2f 3d 27 d2 be 3c b0 ef c8 bb 46 00 76 bc
       0.04289452 0.023293568 -0.0061320886 -0.015014714
000130 74 2e 84 bd f4 a3 e6 3c ec b7 70 bc 4f df de bc
       -0.06454173 0.02815435 -0.014692288 -0.027206091
000140 0a eb fd 3d 57 7e 20 3d 82 ba 27 bd 8d 3c a1 3d
       0.12398346 0.039182987 -0.040949352 0.07872877
000150 52 4c cd bc 33 c5 89 bd c0 b0 07 bd 21 60 02 bd
       -0.025060806 -0.06727066 -0.033127546 -0.031829957
000160 85 ce 64 3d 02 bb 30 bd ee c5 01 bd c8 14 ab 3b
       0.055861015 -0.043147095 -0.0316829 0.005220983
000170 88 4a 08 3c 82 b2 81 3d 40 10 24 3b b6 29 29 bd
       0.008318551 0.06332876 0.00250341 -0.041299544
000180 1a 85 c0 3c 80 82 21 3c 6d 1c 36 bd 80 e7 80 3b
       0.023500968 0.009857774 -0.044460703 0.003933847
000190 b0 e7 4e bb 3d ff 83 3d cc 92 24 bd fa 9f 97 3d
       -0.0031571202 0.06445167 -0.04017906 0.0740356
0001a0 c8 05 8a 3d 03 90 0d bc 32 98 97 3d 08 87 c0 bc
       0.06739384 -0.008640292 0.07402076 -0.023501888
0001b0 ff 5d 38 bd bc b7 99 3d 52 b7 9b 3d 24 1e 5b bd
       -0.045011517 0.07505748 0.07603325 -0.05349554
0001c0 6e 9b 9e bd eb de 37 3d 84 c8 7b 3d 73 2c 7b bd
       -0.077444896 0.044890326 0.061470523 -0.061321687
0001d0 a0 a8 26 bd f6 a5 8c bd 8c 82 03 bb ee e7 0a 3d
       -0.040688157 -0.06867592 -0.0020066826 0.03391259
0001e0 3f 67 47 bc bc 18 e0 3d f9 2e 04 bd 30 84 67 3a
       -0.012170612 0.10942218 -0.03227136 0.0008831648
0001f0 45 48 0a bd 98 5a 97 bc 3d f0 89 bd 60 56 8c 3b
       -0.033760328 -0.018475816 -0.06735275 0.0042827576
000200 e5 c8 8a 3d 11 2b 34 3d a1 48 84 3d 55 7c 54 3c
       0.06776599 0.043986384 0.06459165 0.012969096
000210 11 c8 1f bd 23 bb d7 3a 6d dc 66 3d 8a 41 a6 3d
       -0.039009158 0.0016458969 0.05636256 0.08117969
000220 a7 f0 26 3c 84 54 3f 3d 3a d8 a2 3c f6 13 eb 3b
       0.010189212 0.04671146 0.019878495 0.0071740104
000230 32 13 3b bc b3 15 f6 bb fa 00 94 bc 90 4b b4 3b
       -0.011418151 -0.007509911 -0.018066872 0.005502172
000240 e1 02 5b 3d 12 85 d1 3d ac 0d 09 3d df 8e 32 bd
       0.053469542 0.10230459 0.033460304 -0.043593284
000250 ce 85 83 3b 80 0c ba 3b 8a 21 b3 bc 6f f0 17 3d
       0.0040137535 0.0056777596 -0.021866579 0.03709453
000260 4c e1 81 bd 4e ea 59 bb 76 ed e3 3b dc 98 74 3b
       -0.063418 -0.0033251229 0.006955798 0.0037322557
000270 b7 d0 26 bc 96 ad ac 3b 86 ad b3 bc ce 21 38 bd
       -0.010181597 0.0052697165 -0.021933328 -0.044954114
000280 9a 92 f4 3d 5f 05 19 bd 1f 8f 60 3d f5 52 56 bd
       0.119420245 -0.037358638 0.05482399 -0.052325208
000290 23 7c a7 bd 40 50 72 3a dc c0 a4 bb c7 4d 37 bd
       -0.08177974 0.00092435256 -0.0050278734 -0.04475191
0002a0 af f3 a2 3d d8 93 8d 3d 9d 0b ff 3c 26 c8 24 3d
       0.07956635 0.069129646 0.031133467 0.04022994
0002b0 41 1b 28 3d 63 22 02 3d 24 aa 57 bc 0c 51 63 bd
       0.041041616 0.031771075 -0.013163123 -0.055497214
0002c0 d5 1b 79 3d 2e d7 47 3d 05 9f c3 3d 5a fc 18 bc
       0.06081756 0.048789196 0.09551815 -0.009337509
0002d0 74 06 b1 bd 7c dc e9 3c 6f 6d db 3b af 6d dc bc
       -0.08643809 0.028547518 0.006696395 -0.02690777
0002e0 7a 54 4f bd f3 f2 81 bc 92 2d e8 3b d5 d5 af bd
       -0.050617673 -0.015862918 0.0070855105 -0.08585707
0002f0 3c 68 a2 3d a0 d9 88 3d ea eb 75 bd 18 8b 66 3a
       0.079300374 0.06682134 -0.06003944 0.00087945303
000300 b3 30 16 3d 2d 1c 5b 3d e5 7a c3 3d 2c 8f 4c bd
       0.036667537 0.053493667 0.09544925 -0.049941227
000310 9b 85 16 bc cf 17 65 3c e6 77 80 3c df 8d ca 3c
       -0.009187127 0.013982727 0.015682172 0.024725853
000320 fc ff d2 bb 87 b1 fa bc 18 6f da bc 48 67 a9 3c
       -0.006439207 -0.03060223 -0.026664302 0.020679131
000330 27 7a 80 bd fd 19 e3 bd ec ac 56 bc 6e ba 1b bb
       -0.06273299 -0.11088941 -0.013102751 -0.0023762244
000340 50 b8 25 bd bd c2 3c 3d 00 95 a7 3d 3e 0b bb bb
       -0.040458977 0.046084154 0.08182716 -0.0057081273
000350 2a 05 4b 3b 6a 15 89 3d 9a 1b 1a 3d 7c da e9 bc
       0.003097842 0.066935375 0.03762398 -0.028546564
000360 cd 0b 7b 3d e0 6e 19 bd 7b 6c 87 3d 4f 24 98 bd
       0.06129055 -0.037459254 0.06612488 -0.074288
000370 21 d1 e8 bc e3 3d 6c 3c 64 b4 dd bc ea 13 03 bc
       -0.028420033 0.014419052 -0.027063556 -0.008000353
000380 ae 02 a0 3d 10 ba 2d bd ac 86 8e 3c db 84 9d bc
       0.07813011 -0.04241377 0.0173982 -0.01922839
000390 00 28 ad 37 e4 01 68 bd 44 25 56 bd c7 09 2b 3d
       2.0641834e-05 -0.056642428 -0.052281633 0.04175737
0003a0 97 99 93 3d ed a1 1a 3d 56 2c 3b bd 45 26 3d bd
       0.07207029 0.03775208 -0.04569658 -0.046179075
0003b0 c2 15 ca 3c a4 20 12 bd 4a 11 96 3c b7 99 94 bc
       0.024668578 -0.03567566 0.018318791 -0.018139703
0003c0 c1 d7 1c 3d 5f de f9 bc 00 aa 93 bb 93 45 8e bc
       0.038291696 -0.030501543 -0.0045063496 -0.01736716
0003d0 29 7c 23 bc 2a 7b 5f 3b 6c fc 07 bd 3c c2 dd bb
       -0.009978333 0.003410051 -0.033199713 -0.0067675393
0003e0 80 01 9c 3c 80 01 85 3c 12 b5 93 3d 24 c0 7c 3d
       0.019043684 0.016236067 0.07212271 0.061706677
0003f0 7a 55 64 3d 19 07 3c bd b0 fb a3 3d 15 53 31 3b
       0.05574558 -0.045905206 0.0800699 0.0027057577

std.constant4 f4 [128, 128]
000000 41 c4 19 bd 0c 84 34 bd 7f 4a 46 bd 2a 7d 8b bc
       -0.037540678 -0.044071242 -0.04841089 -0.017027456
000010 36 73 8b bd 83 26 7a bd 07 ef de bb 3c 75 ec 3c
       -0.06809084 -0.061071884 -0.0068033966 0.028864495
000020 b8 40 99 3d 82 06 d3 3c 3a b3 98 bd 27 51 d9 bc
       0.07483047 0.02575994 -0.0745606 -0.026527954
000030 92 da 4e bd 87 c8 99 bd fa bc 1d 3d 20 b8 87 3c
       -0.050501414 -0.07508951 0.0385103 0.01656729
000040 b3 80 67 bd 9e d0 6c bd 88 d1 70 bd 72 d6 f4 3c
       -0.05651922 -0.05781614 -0.058793575 0.029887412
000050 48 ad 45 3d 6d 17 c7 3d a3 c7 09 bd 5e 6b a7 3d
       0.048260957 0.09721265 -0.033637654 0.081747755
000060 3f 3e 88 bc 31 b4 d7 3d 34 9c 8c 3b b1 60 89 3d
       -0.016631244 0.10532416 0.004291082 0.067078955
000070 6e c0 6c bd ca d6 a5 3c 05 f8 c5 bb 30 92 6b bb
       -0.057800703 0.020244021 -0.006041529 -0.003594529
000080 7a cf 8d bc ef 16 27 bc dc 7f ce bc af 65 9b bc
       -0.017310847 -0.010198339 -0.025207452 -0.018969385
000090 e6 22 a5 3c e2 ca 1a 3c 41 59 66 3d 9b 18 4a 3d
       0.020158242 0.009447785 0.056237463 0.04933987
0000a0 88 f6 a3 ba 15 cc af 3c 30 80 26 bd d6 53 a7 3c
       -0.0012509385 0.021459619 -0.040649593 0.020425718
0000b0 b6 ac 37 3d 02 cb 8b bd cb 13 63 3d 4d 25 37 bd
       0.044842444 -0.0682583 0.055438798 -0.044713307
0000c0 c7 b0 81 bd 30 e7 83 3d 0e 99 4c bd 52 61 db 3c
       -0.06332546 0.0644058 -0.04995065 0.026779804
0000d0 4e 62 c1 bc 48 61 5c 3d f8 11 ec 3c d8 fa e6 3c
       -0.023606446 0.053803712 0.028817162 0.028195783
0000e0 1c 89 26 3d 76 78 fa 3c 01 c8 57 3d 20 23 e3 bc
       0.0406581 0.030575018 0.052680973 -0.02772671
0000f0 24 0d 3c 3d 92 1f 9d bc 58 31 53 3d c0 08 a2 b9
       0.04591097 -0.019180093 0.05156073 -0.00030905567
000100 d5 c3 a0 3d 10 9e 1d 3d a0 eb 0d 3d 0f b8 76 3c
       0.07849852 0.03848082 0.034648538 0.015058531
000110 cf b1 4d 3c a6 5d 76 bc 9c 45 3e 3d 3f c2 7a bd
       0.0125546 -0.015036976 0.046453103 -0.061220404
000120 5e 1b 18 bd 44 41 ab bc d0 d5 4f 3c 27 1a 46 bc
       -0.037135474 -0.020905145 0.012685254 -0.012091196
000130 fc be 0c bc 9d 58 87 bc 37 1f 46 bd 7c d1 55 3d
       -0.008590456 -0.016521746 -0.048369613 0.052201733
000140 70 10 56 b9 e8 e1 41 3b 06 9d 70 3d 63 a4 84 3d
       -0.00020414754 0.0029584114 0.0587435 0.06476667
000150 2c 90 87 3c 49 d8 11 3d 44 09 4a 3d 78 53 2c bd
       0.016548239 0.035606656 0.049325243 -0.04207179
000160 57 16 83 3d 5c 58 89 3c a8 b5 f4 ba e0 df 11 bd
       0.06400745 0.016765766 -0.001866986 -0.035613894
000170 4f 61 1d bd 89 4f ad 3c ca 3a af 3c 7a 78 6b bd
       -0.03842288 0.02115609 0.021390337 -0.057487942
000180 22 88 49 3c 47 57 cd bb 15 4b c9 bc 6c ed 5b 3b
       0.012300523 -0.006266508 -0.024571935 0.0033558263
000190 3e 8d a1 3d d3 11 8c 3d 37 8b da 3b 18 cd ae bc
       0.07888268 0.06839337 0.0066694277 -0.02133803
0001a0 bc e8 e5 3b 78 6d d7 3c c7 37 15 bd bf db f1 3c
       0.0070162695 0.026297316 -0.036430147 0.029523728
0001b0 f0 83 53 3d ba f9 c3 3d 98 4a 0b 3d af 2b 6f 3c
       0.051639497 0.09569116 0.034006685 0.014597817
0001c0 ac 3d 9e bc 90 94 0e bd 15 80 09 3d 34 d7 8a 3d
       -0.019316517 -0.03480965 0.033569414 0.06779328
0001d0 86 91 0f 3d 73 d9 62 3d f8 b5 32 bc 4d 91 e3 bc
       0.03505089 0.055383157 -0.010907643 -0.027779246
0001e0 00 f4 e7 37 dc dc 4f bd 0c c8 85 3d 3b 0e 59 bd
       2.7650967e-05 -0.050747737 0.065322965 -0.052992087
0001f0 e0 7b b4 3b 28 01 d6 bb b0 87 27 3c 96 d7 f0 3c
       0.005507931 -0.0065308996 0.0102252215 0.029399674
000200 d6 75 5b bc cc 94 c7 3d f2 0a 75 bd 69 b8 76 3d
       -0.0133947935 0.097451776 -0.05982489 0.06023446
000210 e7 76 44 bd 80 c8 3f 3c b1 43 d1 bd 06 80 47 bd
       -0.047964957 0.011705518 -0.10217989 -0.048706077
000220 40 c8 df bd 9d 06 c4 bc e5 1a d7 3c 94 05 e2 bb
       -0.109268665 -0.023928935 0.026257941 -0.0068976376
000230 ac cf 42 bc 48 59 b4 bc 67 82 27 bc 00 cc 83 bc
       -0.011890333 -0.022015229 -0.010223961 -0.016088486
000240 3c 1c 86 bb 7a 33 3b 3c 1c 6d 5c 3c 90 4c bb bc
       -0.0040927213 0.011425847 0.013453748 -0.022863656
000250 23 8d 82 bd 3d 2e 16 3d fd 1f 80 bc a5 8c cb bc
       -0.06374576 0.03666519 -0.015640253 -0.024847338
000260 93 b4 61 bc ba 59 98 bd 1e 45 0c 3c 4e d4 10 bd
       -0.013775962 -0.07438989 0.008561401 -0.03535872
000270 c7 8a 70 3d 08 3b 5f 3d 6a f3 3f bc 2b ab 37 3d
       0.0587261 0.054499656 -0.011715749 0.044840973
000280 68 15 ac bc 82 32 94 bc 84 95 bb bc 46 9b dd 3c
       -0.021006301 -0.01809049 -0.022898443 0.02705158
000290 29 f6 bb 3c ac 69 97 3b 56 1e 04 bb 54 36 37 3d
       0.022944527 0.0046207514 -0.0020159683 0.044729546
0002a0 3c cf 80 bc 40 2a 75 bd 4e 30 f9 bc 31 9a 3f 3d
       -0.015723817 -0.059854746 -0.030418541 0.046777908
0002b0 76 03 2b 3d 08 30 48 bc 95 5a 60 bd a9 c5 64 bb
       0.041751347 -0.012218483 -0.054773886 -0.0034907854
0002c0 fa b3 47 3c 20 7a f3 3a 17 9b c3 3d 6d 51 39 3d
       0.012188906 0.0018575825 0.095510654 0.04524367
0002d0 4d 3c 0b bd 47 49 28 3c bf 10 f0 bd ab 8c 09 3d
       -0.033993054 0.010271377 -0.11721944 0.033581417
0002e0 04 29 2b bd 30 4a 41 3d d0 90 d4 bc ae 08 72 3d
       -0.041787162 0.04718989 -0.025947958 0.05909031
0002f0 a0 a4 c4 3b 1d 37 87 bd 22 97 b6 bc a0 de d0 bb
       0.00600107 -0.06602309 -0.022288863 -0.006374195
000300 c2 fb ff bc a5 bc c9 bc c9 0c b6 bc be 2b 93 bd
       -0.031247977 -0.024626086 -0.022222893 -0.071860775
000310 6a df 22 bd c9 e2 a3 bc 44 93 db bc 15 38 45 bd
       -0.039763846 -0.0200056 -0.02680362 -0.048149187
000320 ae d2 06 3d 2c 82 4c bd b2 d1 1b bd 0d fb 06 3c
       0.032915764 -0.04992883 -0.038041778 0.008238566
000330 96 f4 32 bc b9 9d 3b bd f8 1b 90 3c 8f 19 18 bd
       -0.010922572 -0.045804713 0.017591462 -0.03713375
000340 3a 61 9f 3b c3 91 6e bd 99 36 03 bd a7 b3 3f bd
       0.004863885 -0.058244478 -0.03203449 -0.04680219
000350 e4 c1 31 3d 7c eb 23 3d 2a a8 c0 bb 43 c6 92 3d
       0.0433978 0.040019497 -0.0058794217 0.07166722
000360 94 6a 01 bc 4b bb d9 3c c8 a1 b3 bc 82 cc 06 bc
       -0.007898945 0.026578566 -0.02192773 -0.008227469
000370 5f 44 b6 3d c8 6f 70 3d e5 2b 2a bd 8f 73 0e 3d
       0.088997595 0.058700353 -0.041545767 0.034778174
000380 24 15 d2 bc b1 56 02 bd 9f 3a 9c 3b 0e 13 fe 3c
       -0.025644846 -0.031820957 0.0047677304 0.031014945
000390 41 4d 35 3d 16 f0 e2 bc a7 f4 33 3d 25 f0 60 3d
       0.04426313 -0.027702373 0.04393449 0.05491652
0003a0 5a 55 6a bd 46 55 b6 3c 44 45 c7 bd b0 20 9c bd
       -0.057210304 0.022257458 -0.09730008 -0.07623422
0003b0 ca d3 63 3c 1a 67 86 3c 64 b0 04 bd 93 8c 65 bd
       0.013905475 0.016406585 -0.03239478 -0.056042265
0003c0 89 ff 91 3c 0b 09 51 bd a8 cc e7 3a 00 04 7a 3a
       0.017822044 -0.051034015 0.0017684894 0.0009537339
0003d0 a6 07 20 3d bb 8f 40 bd c8 4f 99 bd 1a 0b fc bc
       0.039069794 -0.047012072 -0.0748592 -0.030767012
0003e0 c0 7e 86 3d 7a 38 84 bc 55 85 ec 3d 7d 3f 91 bb
       0.065671444 -0.016140211 0.115488686 -0.004432617
0003f0 59 d5 53 bd 5b 14 14 bd 42 20 f7 bc 76 fd ae bc
       -0.051717136 -0.036152225 -0.030166749 -0.021361094

std.constant5 f4 [128, 128]
000000 7b 60 f9 bc 69 66 9d 3d 01 23 60 bd 23 79 64 3c
       -0.030441513 0.07685549 -0.054720882 0.013944897
000010 2a 52 a5 3c 39 a1 c4 bc 2e 96 fe 3c 9d 15 30 3d
       0.02018078 -0.024002658 0.03107747 0.042989362
000020 48 f6 4d bc 08 c9 37 bd 41 60 8f bd 0f e9 36 3c
       -0.012570925 -0.044869453 -0.07000781 0.011163964
000030 75 22 d2 3b 29 1c 82 bc f6 c0 6e bd 51 48 b8 bc
       0.006412799 -0.015882568 -0.05828949 -0.02249542
000040 5b d8 33 bd f6 20 80 bc 7f 93 d2 bc fe e1 a7 3c
       -0.043907505 -0.015640717 -0.025705097 0.020493504
000050 8a 7f fd 3c b8 9d 9d bd 32 55 bb 3b 43 96 ca 3b
       0.030944604 -0.07696098 0.005716943 0.0061824634
000060 5c ab 85 3c df d9 68 3b b3 13 30 3c 27 7c af bd
       0.016317062 0.0035530252 0.010746884 -0.08568602
000070 20 ad a5 3c c5 dc ab 3c a2 be 1c 3d ee d2 17 3d
       0.020224154 0.020979295 0.03826774 0.037066393
000080 08 3e 83 bd 16 bf 17 bd 24 36 08 3d 91 b9 fd 3c
       -0.06408316 -0.037047468 0.033254758 0.030972274
000090 6b 44 85 3d 80 12 35 b9 04 0e b7 bb d8 65 15 bd
       0.0650719 -0.00017268397 -0.0055863876 -0.03647408
0000a0 5c c5 68 3d 73 1a 9c 3c 00 59 a6 b7 dc 63 13 3d
       0.05682884 0.01905558 -1.9830186e-05 0.035983905
0000b0 f7 1c 0c 3d cc bf 09 bd 08 d0 0d 3d f3 3f 99 3c
       0.03420731 -0.033630177 0.034622222 0.018707251
0000c0 f8 20 94 ba d7 a3 0f 3d 79 a8 06 3c 55 b7 f3 3b
       -0.0011301329 0.03506836 0.008218878 0.0074376264
0000d0 f8 43 c6 bc 89 56 dd 3c 3c 0a f0 3c 5d 86 9c bd
       -0.024202332 0.027018802 0.029301755 -0.07642815
0000e0 c1 8f fe 3b 7c a6 9d 3b b9 cd aa bc f4 be 60 3c
       0.0077686016 0.0048111062 -0.02085005 0.013717402
0000f0 f3 b9 88 3d 36 e3 bb 3d 7d 43 95 3b e4 5e 82 3d
       0.06676092 0.091741964 0.0045551644 0.06365755
000100 1b 15 41 bd 87 8b a2 bc 68 10 b7 3d b3 f1 26 3d
       -0.04713927 -0.019841922 0.08938676 0.040757846
000110 36 12 4d bd 68 39 b5 bb ce 8f 7b 3d 46 7e 97 3d
       -0.050066195 -0.005530525 0.06141644 0.073971316
000120 f6 24 a3 3d cf b5 53 bd 6a ba 0a bd 90 25 40 bd
       0.07966034 -0.051687058 -0.033869185 -0.046910822
000130 9a 69 fa 3d b7 0b 59 bd a4 4c ad 3c 09 19 45 bd
       0.12227173 -0.052989688 0.02115471 -0.04811958
000140 d0 93 56 bc 76 b4 b7 3b 4e 81 8d 3d ed 57 9d bd
       -0.013096765 0.0056062294 0.069094285 -0.07682786
000150 8f f2 3b 3d cf 41 aa bb eb 2d 67 3d 91 8a 61 3d
       0.04588562 -0.0051958333 0.056440275 0.055063788
000160 74 d2 f4 bc b2 27 93 3b 48 26 ac bd b4 42 dc 3c
       -0.029885508 0.004490816 -0.08405739 0.026887275
000170 15 03 06 3d bc 6a 43 3b cc 79 54 bc f8 07 8d 3c
       0.032717783 0.0029818257 -0.012968492 0.017215714
000180 04 1c 69 3d fd 93 a5 3c 84 82 59 bd 87 9d da bc
       0.056911483 0.020212168 -0.053102985 -0.026686443
000190 ec a1 c9 bc e3 3e 97 3c fb 59 16 3d 90 65 05 3d
       -0.024613343 0.018462604 0.036706906 0.03256756
0001a0 8e 85 b9 3c 28 66 2f bd 31 14 45 3d f6 79 91 bd
       0.022646692 -0.042822033 0.04811496 -0.0710334
0001b0 e8 97 fe bc 8c e2 49 bd 68 3d 98 bc aa c8 19 bc
       -0.031078294 -0.049288318 -0.018583968 -0.009386221
0001c0 48 f1 2a bd ec 88 d5 3c 4b f4 43 3c 63 75 38 3d
       -0.04173401 0.026066266 0.011960099 0.045033824
0001d0 90 23 0f bd 56 d6 51 3d 53 fe 6b bd 26 87 f7 3c
       -0.034946024 0.051229797 -0.05761559 0.030215811
0001e0 4e 5a 4b bd cc cc 44 3c 70 bd ba 3c b1 b5 fe bc
       -0.049646668 0.012011718 0.022795409 -0.031092497
0001f0 e2 38 49 bc e8 05 95 bd 29 b9 0f bd 91 2f 86 bc
       -0.012281628 -0.07276517 -0.03508869 -0.016380103
000200 b2 6b 2e 3d 9f 34 30 bd bc 82 44 bc 03 93 b1 3d
       0.042583175 -0.043018933 -0.01199406 0.086706184
000210 f1 2c 7d 3d e6 cf 12 3d 1b 2c 62 3d 78 ab c0 3a
       0.061810438 0.0358428 0.055217844 0.0014699539
000220 8a df a7 bb 1d 88 f2 3b e2 a6 de bc b7 f4 1b bd
       -0.0051230835 0.00740148 -0.027179185 -0.038075175
000230 74 18 00 3d 9e 30 b5 3d 70 8b 79 3d 6e 18 a2 bd
       0.03127332 0.088471636 0.060923994 -0.07914816
000240 bf f7 62 bc 32 50 6e 3c f6 96 b3 3d c4 a5 2b bd
       -0.013853013 0.014545487 0.08769028 -0.041906133
000250 b0 22 9b bd 6a f2 2b 3d 7c 6b d7 bb df c9 c4 bc
       -0.075749755 0.04197923 -0.0065740924 -0.02402204
000260 9c 25 26 bc 47 82 4f 3c 89 ce bb 3c e0 7a 8b b9
       -0.010140803 0.012665338 0.022925632 -0.00026603695
000270 de ae 5d bd 86 48 7e bd 30 03 b5 3d 55 08 24 bd
       -0.054121844 -0.062080882 0.088384986 -0.04004701
000280 d0 3b 67 3d 70 41 70 3b 5a 2b 92 bc ac cd 18 3d
       0.056453526 0.0036660098 -0.017842937 0.03730552
000290 d8 ce e1 3a af 6e 05 3d 42 67 3b bc ae 5d 4d bd
       0.0017227782 0.03257626 -0.011438193 -0.050138168
0002a0 3e e3 2d 3d 82 e0 54 bd 62 c1 44 3d ad 1c 8c bc
       0.042453043 -0.05197192 0.048035987 -0.017103517
0002b0 65 dc 90 3d d8 a6 7a 3d a2 3e a4 bd d1 39 b1 3c
       0.07073287 0.06119427 -0.08019759 0.021634014
0002c0 1d 72 82 3d d9 e1 99 bb 4d 8b aa 3d fe d8 43 3b
       0.06369422 -0.0046961126 0.08327351 0.0029883976
0002d0 64 c1 fb 3d f6 16 ee bc 3d 7b f6 bc 2d fd a0 3d
       0.12292746 -0.029063683 -0.030088061 0.078607894
0002e0 3b 48 80 bd 8c e1 c8 bc 19 5e ad 3c bc dd c6 ba
       -0.06263777 -0.024521612 0.021163033 -0.0015172283
0002f0 10 7f fc 3b 08 db 79 3d 4c 08 1b bc bc f5 8d 3d
       0.0077055767 0.0609999 -0.009462427 0.06931636
000300 b2 22 b7 3d fc b7 50 bd 00 7c c4 37 0e fb 0d bd
       0.089421645 -0.05095671 2.3422763e-05 -0.034663253
000310 98 1f cc bb 68 46 f8 3c 84 94 e1 3b e6 3d 23 bd
       -0.006229352 0.03030701 0.0068841595 -0.039853953
000320 ce 6c 72 3d 79 d7 22 bd b7 0c b2 3c 47 dc 56 bc
       0.059185795 -0.039756272 0.021734579 -0.013114042
000330 34 ad 20 bc 8a 99 34 bc 75 1c 85 bd da 98 47 bc
       -0.00980692 -0.011022935 -0.064995684 -0.012182439
000340 08 7d 53 3b 82 11 cb bd 70 1a f4 ba 98 23 c3 bc
       0.003227057 -0.09915449 -0.0018623602 -0.023820683
000350 9b f5 4b 3d 48 a5 62 bd 3e 2e 94 3c b9 fb 8d 3d
       0.049794775 -0.055333406 0.018088456 0.06932778
000360 e6 e8 98 3b 68 52 15 3b 9d 70 a6 bb 52 0f 3e bd
       0.0046664355 0.0022784714 -0.0050793425 -0.04640133
000370 92 c8 2b 3c cb c5 00 be 50 66 95 3c 34 82 8a 3c
       0.010484831 -0.12575452 0.018237263 0.016907789
000380 28 50 d7 3b 46 54 e3 bc d0 7a 25 3d d3 aa e8 bc
       0.0065708347 -0.027750146 0.040400326 -0.028401768
000390 cd 88 7c 3c 6e 1f 2f bd 85 ee 95 bd 69 1d 63 3d
       0.015413475 -0.042754583 -0.073208846 0.05544797
0003a0 cc 26 57 3d bb 97 26 bc 4d 5e 44 bc 87 ce 54 3d
       0.052527234 -0.010168011 -0.011985374 0.051954772
0003b0 59 00 c9 bd ee d1 8f 3d b8 f0 27 bc 54 de b0 bc
       -0.098145194 0.07022463 -0.010250263 -0.02159039
0003c0 83 70 5d bd b2 a9 1f bd 94 50 35 3d e0 ca cb ba
       -0.054062378 -0.038980193 0.0442663 -0.0015548132
0003d0 b6 0d 6d bd 80 86 1c 39 94 59 94 3d ff 81 94 bc
       -0.057874404 0.00014927424 0.07243648 -0.018128393
0003e0 93 03 f3 3c 0f 57 aa bc bd 0b 96 bc ca d5 34 bc
       0.02966479 -0.020793466 -0.018316144 -0.011037299
0003f0 04 4b 2d 3c 0e 85 29 3d 85 8c 25 bd d3 70 17 bc
       0.010576967 0.041386656 -0.040417213 -0.009243208

std.constant6 f4 [128, 128]
000000 20 f5 3a 3d 51 d1 e9 bc 21 3f 09 3d 34 b0 05 bd
       0.045643926 -0.028542193 0.03350747 -0.032638744
000010 73 d3 46 3d 00 b9 f5 3a 9c 6f 07 3d 55 c7 08 3d
       0.048541497 0.0018747151 0.033065423 0.033393223
000020 40 23 14 3d b1 ff ec bb 0e 1b 7a 3d a8 53 78 bb
       0.03616643 -0.007232629 0.061060958 -0.003789166
000030 5a 44 a6 3c 68 c9 0a 3d 46 8c c5 3c ba c9 19 3d
       0.020296264 0.033883482 0.02411474 0.037545897
000040 f7 1a 88 bd 88 8a 35 3d 71 37 49 3c 95 ef 0b bd
       -0.06645768 0.044321567 0.012281285 -0.03416403
000050 b2 5c 59 bd ff 41 fb bc 64 db 84 3c 92 e5 e4 bc
       -0.053066917 -0.030671118 0.016217895 -0.027941499
000060 44 90 30 3d 90 70 37 bc 5f 12 0a bd 94 b7 17 3d
       0.043106332 -0.011196271 -0.033708926 0.037040308
000070 f3 35 18 3d 00 84 9b b8 0b 28 df 3c 8a c9 32 3d
       0.037160825 -7.415563e-05 0.027240774 0.043649234
000080 da fd 54 3d 07 fb 3e bd e2 91 3f 3c 67 90 f6 3c
       0.051999904 -0.046626117 0.011692496 0.030098153
000090 32 9e d9 3c 4a de 7d 3d ba 14 1d bd 90 7a 75 3c
       0.026564691 0.06197957 -0.038349845 0.014982834
0000a0 54 77 b3 bd a4 a3 1c 3b 58 21 ce 3b 55 2b d1 3b
       -0.087629944 0.0023901248 0.006290596 0.0063833394
0000b0 d0 de c3 bd 8c 8e ac 3d 65 37 04 3d c2 ad 79 3c
       -0.095639825 0.08425626 0.03227939 0.015239181
0000c0 30 b0 08 3c 67 2d c2 bc d4 79 cf bb 34 44 7b 3d
       0.008342788 -0.02370329 -0.0063316617 0.06134434
0000d0 d2 89 c3 bc dd 49 8c 3d 70 6f ad 3a ad b8 21 bd
       -0.023869429 0.06850026 0.0013232064 -0.03948276
0000e0 81 e6 24 bb 9e ee a2 3b 4e ad fc 3c 97 fa c0 bc
       -0.0025161805 0.004972293 0.030844357 -0.02355699
0000f0 25 89 7b bd 19 c8 74 3d cb bf 87 bb 16 62 f7 3c
       -0.061410088 0.05976114 -0.0041427366 0.030198138
000100 20 78 80 bd 76 8d 18 be 75 bc 49 bc 08 65 eb bb
       -0.06272912 -0.14897713 -0.012312998 -0.0071836747
000110 34 5e b7 3d 87 2e 2e 3d fa 4f 76 3c 5b 40 4b 3d
       0.08953515 0.04252484 0.015033716 0.04962192
000120 c3 c2 7d bd c4 54 28 bd 6a 2d 80 3c 4a 45 42 bd
       -0.061953317 -0.041096464 0.015646655 -0.04742936
000130 3e 1f 3b ba 22 c2 4e 3c 76 c4 86 3c 2c 7c d5 bc
       -0.00071381393 0.012619527 0.016451102 -0.026060186
000140 f9 3e b0 bc 86 c6 9b 3c 00 8d 96 bd 7a 2a 7b 3b
       -0.021514403 0.019015562 -0.07351112 0.0038324879
000150 38 5d 65 3d 5c e9 d7 3b 2e 67 d4 bc fa 78 f7 bc
       0.055997103 0.006589098 -0.025928106 -0.030209053
000160 ce 85 45 bd 08 1e 8a 3c be 17 98 3d 95 f1 35 bd
       -0.04822331 0.016860023 0.074264035 -0.044419844
000170 c8 45 bd 3d 0c 47 2a 3d 5d 4a 54 3c 76 21 3a bd
       0.09241825 0.04157166 0.012957183 -0.045442067
000180 4f b4 8a bd e5 68 82 3d 8e 4c e4 3c 54 67 98 3c
       -0.067726724 0.06367663 0.027868535 0.018603958
000190 6e 29 bd bc 75 c0 51 3d 85 c0 ef 3c 88 53 c7 3c
       -0.023091044 0.051208932 0.029266605 0.024331823
0001a0 e5 95 58 3d b6 e5 73 bc f6 7e 9e bd 4f e2 59 3d
       0.052877326 -0.01488631 -0.077390596 0.05319434
0001b0 a8 06 39 bc dd 12 d9 bc e8 2c f5 ba 13 74 c0 3c
       -0.011293091 -0.026498253 -0.00187054 0.023492849
0001c0 88 cb 7e bd b6 ea b5 bd 03 49 57 bc c3 53 00 3d
       -0.06220582 -0.08882658 -0.013139966 0.03132988
0001d0 2d 65 e8 bd 8e ef 3e bc 9e cb d4 ba e8 cf 2a 3d
       -0.11347423 -0.011653794 -0.0016234999 0.04170218
0001e0 25 77 e6 3b da 4c 7e bd 0c a6 e8 3c da 18 94 3c
       0.007033246 -0.06208501 0.02839949 0.018078256
0001f0 f9 91 ad bd 14 63 98 bc 62 61 dc 3b a6 9d 49 3d
       -0.08475108 -0.018601932 0.006725476 0.04922261
000200 c3 52 e1 3c 80 17 b8 bc 4f 80 9b 3d 0d f5 7d bc
       0.027505284 -0.022472143 0.07592832 -0.015500319
000210 ac 2b e1 3c ce 57 87 3c 49 aa 78 3c f6 d7 fc 3a
       0.027486645 0.01652136 0.015177318 0.0019290436
000220 38 87 2f bd b5 0d 84 3c fc d6 9f bd a7 90 87 bd
       -0.042853564 0.016119817 -0.07804677 -0.06619387
000230 c4 23 91 3c 59 ee e1 3c 7b 8d 6f bd 32 f9 ba bd
       0.01771725 0.027579473 -0.058484536 -0.091295615
000240 d7 e7 e0 bc 1f 27 a5 bd 96 3e 3c bc 92 3c 17 bd
       -0.0274543 -0.080641024 -0.011489531 -0.036923
000250 eb 04 af 3c 56 bd 9a bb dd 08 42 bd 18 9a 2b bd
       0.02136465 -0.0047222776 -0.047371734 -0.041895002
000260 aa c7 25 bc 60 6e 62 bc 43 6e b5 bc 43 52 7a bc
       -0.010118404 -0.013820261 -0.022147303 -0.015278402
000270 a2 2e 10 3d 34 4a 18 bd 0f de 54 3c bd 9d 86 3c
       0.035200723 -0.03718014 0.012992396 0.016432637
000280 96 f7 03 ba 17 e9 a1 3c 72 34 3a bb aa ae e5 bb
       -0.00050341466 0.019764466 -0.0028412607 -0.007009347
000290 80 6a 4d bd 35 49 5c 3d 92 26 4d bd d6 4f 71 3d
       -0.050150394 0.053780753 -0.05008561 0.058914028
0002a0 95 db 15 be a8 df 96 3d 3c 7a e3 bc 1d b7 a8 bd
       -0.14634545 0.07366878 -0.027768247 -0.08238051
0002b0 c8 49 6e 3d 87 34 9c bc da 50 1c 3d 76 2c d7 bc
       0.058175832 -0.019068016 0.038163044 -0.026266318
0002c0 4d 65 77 3c a5 16 79 bc 11 c8 01 3d 57 eb c9 3c
       0.015099836 -0.015203153 0.03168494 0.024648352
0002d0 cb 6d 80 bc 0b 71 30 bc 3e 6c 2b 3d 68 ab 2d 3a
       -0.015677353 -0.010769139 0.041851275 0.0006624968
0002e0 a8 b3 72 3c e0 06 54 bd 4d 6e ce bc 4f 90 e2 3b
       0.014813341 -0.05176437 -0.02519908 0.0069141756
0002f0 40 c4 cc b8 a5 d0 50 3d 9a 66 3c 3d b6 e5 2b bd
       -9.7640324e-05 0.05098023 0.045996286 -0.041967116
000300 81 a2 82 3d b0 2b 80 bd 98 b0 5a 3d 07 c0 ac bb
       0.063786514 -0.06258333 0.05339107 -0.005271915
000310 b8 30 a7 3b a0 a2 bd 3c b7 f0 3f bd ef 0c 05 3c
       0.0051022433 0.023148835 -0.046860423 0.008120759
000320 5a 14 4f bc 8a 3d 1c bd 54 07 21 3d 54 21 12 bd
       -0.01263913 -0.038144626 0.03931363 -0.035676315
000330 30 4e 85 bc a6 66 91 3d c3 70 5e bd a6 bf bb 3b
       -0.016272634 0.07099657 -0.054306757 0.0057296334
000340 b1 0f 57 3d f0 58 18 3d 28 20 2b 3b d9 53 86 bd
       0.0525052 0.037194192 0.0026111696 -0.065589614
000350 0c 7e 4e 3c f0 90 39 bd aa e4 8a 3d 26 9c 12 bc
       0.012603294 -0.04530424 0.067818955 -0.0089483615
000360 f6 ef cd 3c d6 95 48 bb 0a d2 83 bc 0d 61 d0 bb
       0.025138836 -0.0030606887 -0.016091365 -0.0063592256
000370 3e 09 12 bd 48 b6 e8 3b a7 83 93 bc df 57 97 bd
       -0.035653345 0.0071018077 -0.018007113 -0.07389807
000380 e2 19 4d 3d 9e b6 2e 3b 73 da 44 bd b9 03 64 bc
       0.050073512 0.0026659141 -0.048059892 -0.013916903
000390 ca cd e2 3d 0a 7b 0c bd f8 30 f3 bc bb fb 23 3d
       0.110744074 -0.034297027 -0.029686436 0.04003499
0003a0 24 07 93 3d a7 75 f3 3c b4 3f 2b 3c 10 35 5e bd
       0.07179096 0.029719187 0.0104522 -0.054249823
0003b0 47 0d 8a bd 77 1e 0d bd 46 f2 f3 bc 43 8d 35 bb
       -0.06740814 -0.03445288 -0.02977861 -0.0027702607
0003c0 a9 3e a1 3c 8b c1 5f bd b4 ff 29 3d c0 4f 90 bd
       0.019683199 -0.054627936 0.041503623 -0.07046461
0003d0 aa ec be bd 41 29 61 3c 22 53 ae 3a 8f 7d 85 3c
       -0.09322484 0.013742746 0.0013299922 0.016295223
0003e0 42 f4 96 bb 77 4e 00 bd 31 0d a1 bc a1 72 d1 bc
       -0.0046067545 -0.03132483 -0.01965961 -0.025567355
0003f0 6b 57 32 3d d1 30 05 3d 96 6e 51 3b e6 2c 1b bc
       0.0435404 0.032517258 0.0031956783 -0.009471154

std.constant7 f4 [128]
000000 77 d5 96 3a ba 20 41 38 8b d1 a3 3c 62 0c 6a 3c
       0.0011507709 4.6045265e-05 0.019997379 0.014285179
000010 83 76 b7 3c c8 0f a6 3c 19 ea ae 3d 9c 0f 05 bc
       0.022395378 0.020271197 0.08540744 -0.008121397
000020 33 32 09 3d 40 43 9d 3b 66 01 42 3c 91 1d 2d 3c
       0.03349514 0.0047992766 0.011841154 0.010566131
000030 bd f2 f6 bb f0 4e b9 3d 0b e1 1e 3c b8 17 ea bb
       -0.007536261 0.09048259 0.009697209 -0.007143941
000040 3e 2f 9c ba 7c 05 eb 3d 62 57 a8 ba 43 93 97 39
       -0.0011915935 0.114756554 -0.0012843425 0.00028910683
000050 1d d5 47 bc df 4b 6a ba 0d 2a 1c bc b7 6d e6 3c
       -0.012196806 -0.0008937697 -0.00953151 0.028128488
000060 f9 13 29 bc f1 36 78 bc 41 a1 bc 3b c4 f2 d0 3c
       -0.010319703 -0.015149818 0.0057565277 0.025506385
000070 c2 cf b6 3d 0c 54 49 3d 82 58 7d bc c1 a5 33 bc
       0.089263454 0.04915242 -0.015462996 -0.010964812
000080 79 62 38 bc 64 28 1d bb 13 cd 6c 3d 14 95 4d bc
       -0.011253946 -0.0023980374 0.05781276 -0.01254775
000090 82 6f 12 3c 3a 73 56 3c 36 bc b4 b7 1c 80 4a 3c
       0.008937718 0.013088996 -2.1545315e-05 0.012359645
0000a0 08 d3 ac 3d 77 91 1d 3d f0 d2 02 bc 56 71 53 bc
       0.084386885 0.038468804 -0.007984862 -0.012905439
0000b0 a9 cc 42 bb 0c 0f 27 bb 57 25 8a 3c 4d bf 44 bb
       -0.0029724038 -0.0025491146 0.016863508 -0.003002125
0000c0 99 56 72 3d 45 b1 5a 3c d9 fd 0c 3d e1 2e d5 3c
       0.059164617 0.013347928 0.034421775 0.02602333
0000d0 0a 31 19 3c 3c 42 9e 3c ea ca 13 bc 1b 29 ff 3d
       0.009350071 0.019318692 -0.009020546 0.12459012
0000e0 0a b1 4f 3a 12 bf 80 3a 78 92 3d 3b e8 2e b9 bb
       0.0007922804 0.0009822568 0.0028926414 -0.0056513436
0000f0 48 a7 83 3c 9c 6b a7 ba 82 45 49 3b d9 51 9b bb
       0.016070977 -0.0012773159 0.0030711596 -0.0047399816
000100 69 a2 da bb 26 91 e3 bb cb 7d 88 bc 86 f5 58 bc
       -0.006672193 -0.0069447933 -0.016661545 -0.013242131
000110 29 e3 06 3d 80 66 e8 3c 93 be b0 3b df 78 35 bc
       0.03293148 0.028369188 0.005393812 -0.011076181
000120 19 80 9d 3d f0 02 2e bc 1d 2a 48 3c 80 0a 4b bc
       0.07690448 -0.010620818 0.012217072 -0.01239264
000130 0a 07 6e bb d8 92 95 b9 44 0e 61 3b d2 42 ec 3b
       -0.0036320114 -0.00028528902 0.0034340778 0.007210114
000140 b2 f1 9b 3d 00 71 fa bb 01 5d 1d bc 92 85 97 bb
       0.07614459 -0.007642865 -0.009604693 -0.004624077
000150 44 78 f4 bb 42 eb 99 3d 00 9e 0c 3e e5 19 06 3c
       -0.007460626 0.07515575 0.13732147 0.008184885
000160 c4 5f 68 3d fc 7e 7b bb 92 67 36 bc ff 66 b6 3c
       0.056731954 -0.003837525 -0.0111330915 0.02226591
000170 ea d3 5c 3c 9b f4 91 3d 1b 9d bf bb 43 1d df 3c
       0.013478259 0.07126733 -0.005847586 0.027235633
000180 f6 09 3c bc 8c e3 04 bc c6 a4 48 3d 33 b8 51 3c
       -0.011476984 -0.008110892 0.048985265 0.012800264
000190 3e 94 dc bb 7e 41 9f bb 9f 32 65 3c 5a 1e 20 bc
       -0.006731539 -0.004860102 0.01398912 -0.009772861
0001a0 40 85 db bb 9e d5 d2 3a 33 ab 9b 3d 7d 0b 70 3c
       -0.0066992342 0.0016085391 0.07601013 0.0146511765
0001b0 52 01 a3 3d 83 46 22 bc 5a 5d 96 3d 27 02 f3 3d
       0.07959236 -0.009904507 0.07342024 0.11865645
0001c0 3c f0 49 3d d9 5d cf 3b 37 12 9a 3d cc 53 87 ba
       0.04930137 0.006328326 0.075230055 -0.0010324656
0001d0 cb c1 05 bc b9 73 a5 3b bf b2 e7 3d e4 13 94 bb
       -0.00816388 0.0050491956 0.1131339 -0.0045189727
0001e0 16 1e 1e 3e 89 47 e9 3c 54 c1 ad bb 5a d7 22 bc
       0.15441164 0.028476493 -0.0053025875 -0.009939039
0001f0 90 84 a4 3d c5 d7 34 bc 42 e4 1d 3d b5 64 f0 bb
       0.08033097 -0.011037772 0.03854776 -0.007336224

std.constant8 f4 [128]
000000 79 0a b1 bb 98 be 97 bb 16 b6 88 3c 1d b6 8b ba
       -0.0054028598 -0.004630875 0.016688388 -0.0010659132
000010 16 89 13 bb f2 71 cf ba 8b 7f 8e 3a 15 3c 74 3c
       -0.002251213 -0.0015826805 0.0010871751 0.014906903
000020 fb 33 fb ba 16 66 84 3c a7 14 c9 38 15 e1 7a bc
       -0.0019165272 0.01616196 9.588274e-05 -0.015312453
000030 8d 8d 91 3b be bc 34 bc 51 06 96 3b c5 b2 2b 3c
       0.004441923 -0.011031328 0.0045783897 0.010479634
000040 00 b2 70 3b 77 39 0a 3c 89 f3 24 3b 95 83 37 3c
       0.003672719 0.008436552 0.0025169572 0.011200805
000050 47 9f 76 3c 13 93 61 bb 31 92 8a 3c 4f 33 99 bb
       0.015052623 -0.0034419938 0.016915413 -0.004675306
000060 62 61 6f bc 21 94 7f 3c 9e f3 70 ba 1d 62 96 3b
       -0.01461062 0.0155992815 -0.0009191575 0.0045893327
000070 7a 84 38 3b fb ac ce 3a a9 c8 60 3c 4c 92 45 bc
       0.0028155134 0.0015768105 0.013719716 -0.012058806
000080 7b 6d 58 3c ce 59 4f bc 2a 37 95 ba eb c0 58 bc
       0.013209696 -0.012655688 -0.0011384238 -0.013229589
000090 01 ad 10 3c 3b 6b 96 3b d9 53 4b bb 52 84 53 3b
       0.00883031 0.0045904196 -0.003102532 0.0032274914
0000a0 a2 24 7f bc 5c 6d 9a 3b c6 36 78 bc 00 e5 6d 3c
       -0.015572699 0.0047127437 -0.015149778 0.01451993
0000b0 e9 a2 9b ba 98 a1 17 3c ce a0 78 3b 93 e8 13 bc
       -0.0011874113 0.009254836 0.0037937644 -0.009027618
0000c0 88 d9 ed ba 2a 14 95 ba 97 50 81 bc cc 06 f0 ba
       -0.0018146494 -0.0011373807 -0.015785499 -0.0018312573
0000d0 41 20 3f ba f6 cd 88 3b df fc 1a bc a1 59 be 3b
       -0.0007290878 0.004174943 -0.009459703 0.0058090244
0000e0 ff 44 a0 b9 2c 7d 47 3a 5b bd 61 3b de 5d 53 3b
       -0.00030568984 0.00076098996 0.003444514 0.0032251994
0000f0 ea 5b 3b bc 97 62 0f 3b 6b c8 8d 3b cd 6d 3e bb
       -0.011435488 0.0021878832 0.00432687 -0.0029057146
000100 c9 99 80 3c 16 7f 2e 3c 5a d1 5b 3c 05 e6 0b 3c
       0.01569833 0.010650417 0.0134166125 0.008538728
000110 e3 51 be bb 2d 32 78 3a 78 82 80 bb e1 5c 42 bc
       -0.0058081015 0.0009467926 -0.003921803 -0.011862964
000120 3f 72 8a 3a 90 ff 45 3c 1d 52 30 bc b4 73 54 bc
       0.0010562612 0.012084857 -0.010761765 -0.012967039
000130 16 7d 2f 3c 2e 54 3f ba 58 8e 57 bb 04 75 d8 3a
       0.010710975 -0.00072986155 -0.003289124 0.0016514366
000140 ac 2e 3a bc 0d a5 36 bc 21 d3 53 bc ee 94 1d 3a
       -0.0113636665 -0.01114775 -0.012928755 0.0006011267
000150 e2 48 12 bb b1 c3 bf 3b 26 7a a3 b9 e3 ee 29 bb
       -0.0022321274 0.0058521857 -0.0003118079 -0.002592974
000160 41 83 6b bc a4 41 0c bc 63 df 3a bc 1e 7d 8c 3b
       -0.014374555 -0.008560572 -0.011405799 0.004287376
000170 e1 01 88 3b 20 4f 2a bc fa bf 0f 3a 07 8e d2 3a
       0.0041506146 -0.010394841 0.0005483624 0.0016064056
000180 28 1d 5d 3c d9 72 66 3c ef 04 26 bb 8f 54 67 bb
       0.013495721 0.014065468 -0.002533253 -0.0035298204
000190 fa 68 31 3c 04 aa 76 3c 90 41 64 3b 85 09 30 3c
       0.010828251 0.015055183 0.0034829117 0.010744457
0001a0 d5 3b 63 bc 9d 3f a2 bb f0 fe ab 3a c8 ec 5d 3b
       -0.013869246 -0.004951431 0.0013122242 0.0033863056
0001b0 c7 de e2 bb 6f 68 35 bc 64 84 65 bc 8c 7f a4 3b
       -0.00692353 -0.011072262 -0.014008615 0.0050200876
0001c0 d3 57 67 3b 99 76 32 ba 77 9a 3c bc bf 91 53 bb
       0.003530015 -0.00068078336 -0.011511437 -0.0032282916
0001d0 ff b1 87 3a 60 33 59 3b 74 81 36 3c 64 23 83 bb
       0.001035273 0.0033142194 0.0111392625 -0.0040020216
0001e0 86 33 b2 bb 44 c0 af bb cc fd 83 ba 69 0b 44 3c
       -0.005438271 -0.005363496 -0.0010070144 0.011965611
0001f0 ca b3 82 3a c4 cc 47 bc ed b8 cc 3a c4 32 31 bb
       0.0009971794 -0.012194816 0.0015619077 -0.0027038315

std.constant9 f4 [128]
000000 00 00 80 3f 00 00 80 3f 00 00 80 3f 00 00 80 3f
       1.0 1.0 1.0 1.0
000010 00 00 80 3f 00 00 80 3f 00 00 80 3f 00 00 80 3f
       1.0 1.0 1.0 1.0
000020 00 00 80 3f 00 00 80 3f 00 00 80 3f 00 00 80 3f
       1.0 1.0 1.0 1.0
000030 00 00 80 3f 00 00 80 3f 00 00 80 3f 00 00 80 3f
       1.0 1.0 1.0 1.0
000040 00 00 80 3f 00 00 80 3f 00 00 80 3f 00 00 80 3f
       1.0 1.0 1.0 1.0
000050 00 00 80 3f 00 00 80 3f 00 00 80 3f 00 00 80 3f
       1.0 1.0 1.0 1.0
000060 00 00 80 3f 00 00 80 3f 00 00 80 3f 00 00 80 3f
       1.0 1.0 1.0 1.0
000070 00 00 80 3f 00 00 80 3f 00 00 80 3f 00 00 80 3f
       1.0 1.0 1.0 1.0
000080 00 00 80 3f 00 00 80 3f 00 00 80 3f 00 00 80 3f
       1.0 1.0 1.0 1.0
000090 00 00 80 3f 00 00 80 3f 00 00 80 3f 00 00 80 3f
       1.0 1.0 1.0 1.0
0000a0 00 00 80 3f 00 00 80 3f 00 00 80 3f 00 00 80 3f
       1.0 1.0 1.0 1.0
0000b0 00 00 80 3f 00 00 80 3f 00 00 80 3f 00 00 80 3f
       1.0 1.0 1.0 1.0
0000c0 00 00 80 3f 00 00 80 3f 00 00 80 3f 00 00 80 3f
       1.0 1.0 1.0 1.0
0000d0 00 00 80 3f 00 00 80 3f 00 00 80 3f 00 00 80 3f
       1.0 1.0 1.0 1.0
0000e0 00 00 80 3f 00 00 80 3f 00 00 80 3f 00 00 80 3f
       1.0 1.0 1.0 1.0
0000f0 00 00 80 3f 00 00 80 3f 00 00 80 3f 00 00 80 3f
       1.0 1.0 1.0 1.0
000100 00 00 80 3f 00 00 80 3f 00 00 80 3f 00 00 80 3f
       1.0 1.0 1.0 1.0
000110 00 00 80 3f 00 00 80 3f 00 00 80 3f 00 00 80 3f
       1.0 1.0 1.0 1.0
000120 00 00 80 3f 00 00 80 3f 00 00 80 3f 00 00 80 3f
       1.0 1.0 1.0 1.0
000130 00 00 80 3f 00 00 80 3f 00 00 80 3f 00 00 80 3f
       1.0 1.0 1.0 1.0
000140 00 00 80 3f 00 00 80 3f 00 00 80 3f 00 00 80 3f
       1.0 1.0 1.0 1.0
000150 00 00 80 3f 00 00 80 3f 00 00 80 3f 00 00 80 3f
       1.0 1.0 1.0 1.0
000160 00 00 80 3f 00 00 80 3f 00 00 80 3f 00 00 80 3f
       1.0 1.0 1.0 1.0
000170 00 00 80 3f 00 00 80 3f 00 00 80 3f 00 00 80 3f
       1.0 1.0 1.0 1.0
000180 00 00 80 3f 00 00 80 3f 00 00 80 3f 00 00 80 3f
       1.0 1.0 1.0 1.0
000190 00 00 80 3f 00 00 80 3f 00 00 80 3f 00 00 80 3f
       1.0 1.0 1.0 1.0
0001a0 00 00 80 3f 00 00 80 3f 00 00 80 3f 00 00 80 3f
       1.0 1.0 1.0 1.0
0001b0 00 00 80 3f 00 00 80 3f 00 00 80 3f 00 00 80 3f
       1.0 1.0 1.0 1.0
0001c0 00 00 80 3f 00 00 80 3f 00 00 80 3f 00 00 80 3f
       1.0 1.0 1.0 1.0
0001d0 00 00 80 3f 00 00 80 3f 00 00 80 3f 00 00 80 3f
       1.0 1.0 1.0 1.0
0001e0 00 00 80 3f 00 00 80 3f 00 00 80 3f 00 00 80 3f
       1.0 1.0 1.0 1.0
0001f0 00 00 80 3f 00 00 80 3f 00 00 80 3f 00 00 80 3f
       1.0 1.0 1.0 1.0

std.constant10 f4 [128]
000000 a9 fc 83 b9 b5 ce 6d 3a f7 1e b4 3c f4 7c 66 3c
       -0.00025174514 0.0009071634 0.021987421 0.014067877
000010 47 ad ae 3c 6a e6 a6 3c 7e 96 ab 3d f9 45 06 bc
       0.02132286 0.020373542 0.083783135 -0.008195394
000020 42 61 09 3d f2 e3 9e 3b 91 62 40 3c 32 9c 2c 3c
       0.033540018 0.0048489505 0.01174225 0.010535287
000030 58 36 06 bc 62 47 bd 3d d6 14 2c 3c a1 00 fa bb
       -0.0081916675 0.09242131 0.010503015 -0.0076294695
000040 cc f1 0c bb 6b 08 e5 3d bc db 83 ba 07 b5 5f b9
       -0.0021506427 0.11183246 -0.0010059993 -0.00021334375
000050 cd a9 44 bc d2 4c d1 ba cd da 29 bc 18 e6 de 3c
       -0.012003374 -0.0015968329 -0.010367108 0.027209327
000060 6a 98 26 bc 19 1e 78 bc 06 ad c0 3b 6f 12 d1 3c
       -0.010168174 -0.015143895 0.005880001 0.025521485
000070 4d 18 bb 3d 01 d8 48 3d d1 d2 76 bc 32 b4 33 bc
       0.091354944 0.049034122 -0.015064911 -0.010968255
000080 cd e6 36 bc 47 72 12 bb 65 53 6a 3d 10 d5 4f bc
       -0.011163426 -0.0022345947 0.057208437 -0.012685075
000090 2a 98 17 3c 32 04 3f 3c d8 a6 db b8 40 e1 41 3c
       0.009252587 0.011658715 -0.00010473811 0.011833489
0000a0 3c a6 aa 3d a0 db 1e 3d 40 ad ff bb 9c 57 53 bc
       0.08332488 0.03878367 -0.0078026354 -0.012899306
0000b0 9d c4 5c bb ab 5d 40 bb da 15 97 3c 40 c5 52 bb
       -0.0033686527 -0.0029352705 0.018443037 -0.0032161027
0000c0 fd c4 75 3d 47 31 72 3c 5a 00 0b 3d 64 1e cb 3c
       0.060002316 0.014782256 0.033935882 0.024794765
0000d0 74 19 1f 3c 5a 21 96 3c 73 30 0f bc 39 78 ff 3d
       0.009710658 0.01832645 -0.008739579 0.124741025
0000e0 09 72 ab 3a ba 33 89 3a ab 9d 19 3b 1b 33 b4 bb
       0.001308025 0.0010467686 0.0023439925 -0.0054992563
0000f0 40 59 82 3c 5d 7a d5 ba c2 fc 68 3b 3c 24 98 bb
       0.015911698 -0.0016287077 0.0035551046 -0.0046429913
000100 8d 7c d3 bb 7d 28 e9 bb 52 ad 89 bc 67 f6 56 bc
       -0.0064540566 -0.0071154223 -0.016806278 -0.01312027
000110 b7 79 04 3d 4c 35 e2 3c ff 44 9f 3b 6e f3 34 bc
       0.03234264 0.027613305 0.00486052 -0.011044366
000120 fb d2 9d 3d 1b 31 2e bc db 81 45 3c 1d 5d 4b bc
       0.07706257 -0.010631825 0.012054886 -0.012412337
000130 a2 ef 56 bb 73 c4 1e ba 25 62 39 3b c8 b7 ed 3b
       -0.003279664 -0.0006056495 0.0028287258 0.0072545744
000140 f8 62 98 3d 38 5f fc bb b8 21 1d bc 33 db 95 bb
       0.07440752 -0.0077017806 -0.009590559 -0.0045732497
000150 24 d2 00 bc a7 ac 97 3d 15 36 0c 3e 60 2a 01 3c
       -0.007862601 0.07405978 0.13692506 0.007883638
000160 01 4a 66 3d 38 73 85 bb a8 a6 34 bc 9a 15 b3 3c
       0.05622292 -0.004072573 -0.011026062 0.021860886
000170 c7 c5 56 3c 95 dd 93 3d df 06 c2 bb cf ef e8 3c
       0.013108677 0.07219998 -0.0059212293 0.028434662
000180 6f cf 39 bc 88 77 08 bc e8 2f 49 3d 65 79 4e 3c
       -0.01134096 -0.00832928 0.049117953 0.012602185
000190 75 52 e1 bb a4 58 9f bb a6 2d 61 3c 1d da 20 bc
       -0.0068762847 -0.0048628617 0.013743794 -0.009817627
0001a0 0f 11 e8 bb 64 52 07 3b 7e dd 9b 3d b7 0d 75 3c
       -0.0070821117 0.0020648474 0.07610606 0.014956883
0001b0 a9 7c 9a 3d 3a b8 20 bc 99 49 95 3d 6c 99 f4 3d
       0.07543308 -0.009809548 0.07289428 0.119433254
0001c0 b0 39 51 3d 55 19 b3 3b 94 f0 94 3d 64 5f 34 ba
       0.051080406 0.0054656663 0.07272449 -0.00068806694
0001d0 46 75 08 bc 38 46 82 3b 9c 6d e5 3d 63 9a 81 bb
       -0.008328741 0.003975656 0.11202547 -0.003955172
0001e0 5d 91 1e 3e a3 f6 e5 3c 85 45 b2 bb 18 7a 23 bc
       0.15485139 0.028071707 -0.0054404163 -0.00997784
0001f0 71 59 a3 3d 9b 78 32 bc 53 c1 1d 3d c5 8a f1 bb
       0.07976044 -0.010893012 0.038514446 -0.007371279

std.constant11 f4 [128, 9]
000000 d1 37 bd 3d f8 9c 91 bd 4c ad ce bd f3 9c 79 3d
       0.09239162 -0.071100175 -0.100916475 0.060940694
000010 ec 1f 7f bd 83 d8 79 3c bb 21 ec ba b8 d0 86 bd
       -0.062286302 0.015249374 -0.0018015424 -0.06582779
000020 fb 7c 56 bb 5a e2 1c 3e ff 36 85 bc 72 09 d8 3d
       -0.0032728303 0.15320721 -0.016261576 0.105486766
000030 58 bc 94 3c 1a c7 a1 bd 4f 40 a1 3c 16 21 1c bc
       0.018156216 -0.07899304 0.019683985 -0.009529373
000040 94 6a 56 3d 30 26 f6 bd 62 a8 d8 3d b2 4e fe 3d
       0.052347735 -0.120190024 0.105789915 0.12417354
000050 bb e6 dc 3d 83 e3 cc 3d 4a f0 69 b9 3a 6d bb 3d
       0.10786196 0.10004332 -0.00022310126 0.09151693
000060 91 b3 62 bd 11 ab e3 bd fd 90 d1 bb 6f 96 c9 3d
       -0.05534703 -0.11116613 -0.006395458 0.09843146
000070 ef 70 a8 3d 02 98 b8 bb e7 ec 29 bd d9 fc aa bd
       0.082246654 -0.005633355 -0.041485693 -0.08349008
000080 be a8 a7 3c 0d 79 0f bd ca a4 79 bd 35 d0 c8 3c
       0.020466205 -0.035027552 -0.06094817 0.024513343
000090 94 6b 99 3c 10 3b 02 3d 73 78 8a 3d e6 f7 96 3c
       0.018728055 0.031794608 0.06761255 0.018428754
0000a0 d1 1f ef bd 12 25 5c 3d da 1f 93 3d e9 9a 4d 3d
       -0.116759904 0.05374629 0.071838096 0.050196562
0000b0 1a 2d ed bd 8d 35 81 3d 7f 1d c0 3c fc 6b 2b 3d
       -0.11580868 0.06309042 0.023451565 0.04185103
0000c0 0f 18 1d bc 6a d4 61 bd b3 ad c6 3d ed 8f a0 3d
       -0.009588256 -0.055134214 0.09701099 0.07839952
0000d0 fc 38 00 3d 55 85 c2 bd 51 19 16 3e 91 cf e4 3b
       0.031304345 -0.09498087 0.14658095 0.0069827517
0000e0 03 af 92 3d ed 1e 12 3d a4 e4 44 3d 8e 1b 8d 3d
       0.07162287 0.035674024 0.04806961 0.06890021
0000f0 73 94 3c 39 68 4a 06 3e d9 a1 2b bd a9 cd 89 bd
       0.00017984379 0.13114321 -0.041902397 -0.0672868
000100 f8 75 de bd 37 7f ca 3b 2e 9e 90 bd 0e 3e 8d bb
       -0.108623445 0.006179716 -0.070614204 -0.004310376
000110 56 cc 30 bd 01 8e e5 bb 1d f0 4f 3d 77 fa 72 bd
       -0.04316362 -0.0070054536 0.0507661 -0.059320893
000120 66 b7 6c 3c e9 5f 84 bd d9 72 fa 3b 0a c4 9d 3d
       0.0144480225 -0.06463606 0.0076430854 0.07703407
000130 fa 21 88 bc 2d 1b e8 3b b0 33 8e 3c de e5 86 bd
       -0.016617764 0.0070833177 0.01735863 -0.065868124
000140 aa 66 9b bc 27 55 9d 3d 2e 99 7d bd 5e b0 c1 3c
       -0.018969852 0.07682257 -0.06191366 0.023643669
000150 f6 e2 36 bc 2d 0f 53 bd 3b 10 ba bc e7 fe c0 3d
       -0.01116251 -0.051528145 -0.022712817 0.09423619
000160 f1 41 ea bb 30 54 28 ba 1b d4 ae 3d 3d e9 5a bd
       -0.007148974 -0.00064212363 0.0853655 -0.05344509
000170 57 5c 8e bc d0 86 8a bd 63 08 3a 3b 74 2b 94 3d
       -0.017378015 -0.06763995 0.0028386347 0.072348505
000180 ad c6 24 bd 43 44 a8 3d 4d a3 21 3b 0b f3 67 bc
       -0.040228534 0.08216145 0.0024663985 -0.014157067
000190 c1 6b 09 3d 6d 2e a3 bd 64 0f 87 3d 43 0d e3 bd
       0.033550028 -0.079678394 0.065947324 -0.11086514
0001a0 ea 4a d6 3d 21 bf 35 bd 35 a6 a2 bc 56 b2 22 bd
       0.104635075 -0.044371728 -0.019854644 -0.039720856
0001b0 dd b0 82 bd 29 ef 1b 3d b1 6a df bd b9 a7 49 bd
       -0.0638139 0.038069878 -0.10909022 -0.04923222
0001c0 d0 94 06 3d 5b 03 bd 3d 72 dc 88 bd 62 a2 91 bd
       0.032856762 0.09229156 -0.066826716 -0.0711105
0001d0 4f 32 4f bd c1 d0 d4 bd 53 c5 ee 3d 88 9f a3 3d
       -0.050585087 -0.10391379 0.1165873 0.079894125
0001e0 25 83 8c ba 1b 3a bc bc d2 e1 53 3e 29 a8 45 3e
       -0.0010720236 -0.022976926 0.20691612 0.1930243
0001f0 26 48 af 3d 47 f7 e6 3d 53 4c 1c 3e c7 00 89 bd
       0.08558683 0.11277633 0.1526349 -0.066896014
000200 8f b2 4b bc 18 5e e5 3d 03 69 fd 3c 76 af bb bd
       -0.012432708 0.111995876 0.030933863 -0.09164326
000210 1a ba 45 3d f2 84 94 3d d3 64 d3 bd 81 c7 c1 bd
       0.048273183 0.0725192 -0.10321965 -0.094618805
000220 f4 de 0d 3d 11 d2 9f bd 5d c6 8a 3d 73 aa 3f 3d
       0.034636453 -0.07803739 0.06776116 0.046793412
000230 81 3e 2a bd 10 c0 b6 bd b1 c2 3f 3d d8 f5 27 3b
       -0.041563515 -0.08923352 0.04681653 0.0025628712
000240 a3 a4 e2 bc ca 6c e1 3c 85 58 aa bd cf 3a 84 bd
       -0.027666396 0.027517695 -0.08317665 -0.06456529
000250 b6 24 08 3d 28 af 81 3d 28 ef 56 3d db 29 57 bd
       0.033238135 0.063322365 0.05247417 -0.05253015
000260 7f 24 85 bd 5b 5c b0 3d fd 3b 8a 3d 60 69 11 3e
       -0.06501102 0.086113654 0.06749723 0.14200354
000270 e4 4a 12 3e 95 ca e7 bc 84 6b 1d 3e f7 0e e8 3d
       0.14286381 -0.02829484 0.15373045 0.11330979
000280 a4 48 80 bc ff 1c 02 3e 98 d1 35 3b af 66 b7 3d
       -0.015659638 0.12706374 0.0027743336 0.08955132
000290 06 d9 9b 3d d5 eb 40 bd 9f ca 07 be 1a 0e a6 bd
       0.07609753 -0.047099907 -0.13260888 -0.081081584
0002a0 f8 46 af bd 3a 50 d9 bc 16 34 44 bd 7b e1 b2 3c
       -0.08558458 -0.026527513 -0.047901236 0.021836033
0002b0 c9 e1 d2 3d 0f 7d 73 bc 77 76 a1 3d c6 ad 58 bd
       0.10296971 -0.014861359 0.078839235 -0.0529001
0002c0 16 45 b9 3d ab 11 ec 3c 39 df 30 3a d7 57 83 bd
       0.0904638 0.028817018 0.000674713 -0.064132385
0002d0 91 c4 f4 3d dc 84 32 3d 72 c2 1d 3d 3c f5 f0 bc
       0.119515546 0.043583736 0.038515516 -0.029413812
0002e0 a4 96 8f 3d 5d 83 e5 bd a6 c7 46 bc 8d 7b 80 bd
       0.07011154 -0.11206696 -0.012132561 -0.062735654
0002f0 b8 ee ed 3b 3c b0 0c bc 96 66 8a 3d 60 b5 91 3d
       0.0072611235 -0.008586939 0.06757848 0.07114673
000300 4d 6d 89 3d 4f 31 a2 bd df 75 b6 bd 29 88 c1 bd
       0.067103006 -0.07919561 -0.08909201 -0.094497986
000310 90 6e 96 3d e5 bf 76 bd 80 18 09 3d a4 87 fe bc
       0.07345307 -0.0602416 0.03347063 -0.031070538
000320 6a 12 d6 bd 4c 17 e5 bd f5 87 05 bc a9 38 6a bd
       -0.10452731 -0.11186084 -0.00815009 -0.05718294
000330 43 da 22 bd 62 1e 95 3d 7c 12 39 bc e9 98 e3 3b
       -0.03975893 0.07281186 -0.011295911 0.0069457185
000340 6d ac 00 3d 84 50 80 3c 78 e7 e2 3d e3 ee 8e 3d
       0.031414438 0.015663393 0.110793054 0.06979158
000350 86 43 c7 3d 90 7f a3 3d d2 33 c5 3d 4a 3b 22 3c
       0.09729676 0.07983315 0.096290246 0.009901831
000360 53 3d 34 3c 1d 13 97 bd 32 ff 8d bd d2 f2 43 3d
       0.011000949 -0.073766924 -0.0693344 0.047838993
000370 a6 9c 8f 3d 7b 7c 6e 3d 2f fe a0 bd 49 c5 e1 bc
       0.070123 0.058224183 -0.07860982 -0.027559893
000380 e3 a4 9d 3d 89 7a 02 3d 56 cc b2 3d 14 2a 8b bd
       0.07697465 0.03185514 0.0873038 -0.06795135
000390 c1 7a be bd e6 34 bb bd 97 f0 60 b9 e0 30 95 bc
       -0.09300757 -0.09140949 -0.00021451931 -0.018211782
0003a0 e3 02 ef ba a4 ed e6 bd bc 9a d5 3d d6 c0 71 bb
       -0.0018235113 -0.11275795 0.10429904 -0.003688862
0003b0 25 4b cd bb d8 c4 4b bc e4 dd 74 3c ef 6e 8c 3d
       -0.0062650614 -0.012437068 0.014945481 0.068570964
0003c0 d9 49 2c bd cc 21 89 bd cd 6b f1 3c ce a0 2d 3e
       -0.042062614 -0.06695899 0.029470349 0.16955873
0003d0 76 61 47 bd 49 24 7b bd cb b4 c2 3d df 68 d4 bc
       -0.04867693 -0.0613139 0.0950714 -0.025928913
0003e0 28 fa 56 bd 5b ae 93 3d f7 da df bc f5 e2 5c bb
       -0.05248466 0.0721099 -0.02732609 -0.0033704613
0003f0 05 52 31 bc 27 63 4a 3e 70 bc 3c 3e 06 7b 9a 3d
       -0.010822778 0.19764386 0.18431258 0.07542996
