AirQualityApp/AirQualityApp.Android/Assets/RomeShort.tflite (tflite, 814936 bytes, 24 tensors)

std.constant3 f4 [128, 128]
000000 a7 dd cd bc 97 33 89 3b c2 70 3b 3c a8 d7 50 bd
       -0.025130106 0.004187058 0.011440458 -0.050986916
000010 bd 5c 35 bd 3b 11 24 3d 9e bb aa 3c b0 41 d0 3c
       -0.044277895 0.040055495 0.020841416 0.025421947
000020 c4 e3 48 3d 30 6c 0e 3d 29 97 57 bd 46 ca 65 3d
       0.04904534 0.034771144 -0.052634392 0.056101106
000030 c2 45 23 3c ca 8c 2f bc 8c 09 5d 3d 42 95 c4 3c
       0.009965362 -0.010714719 0.053964183 0.023996953
000040 d7 1e ed 3c f0 2d d4 bc 41 91 b2 bc 07 b1 4c 3d
       0.02894537 -0.025900811 -0.021797778 0.049973514
000050 c5 54 8b bc 20 a2 a2 3d b4 0c 9e 3d f1 4a a0 3d
       -0.017008195 0.07941079 0.07717267 0.07826794
000060 e8 a3 26 3c fd e8 78 bd 53 3f 0e bd 96 f9 23 bd
       0.010170914 -0.06076907 -0.03472836 -0.040032946
000070 d0 19 80 bc 63 e6 15 3d 30 e5 7d 3d 3e 2f 99 bd
       -0.015637308 0.036596667 0.06198615 -0.07479714
000080 35 48 f3 3c 58 bd c9 bb 7f b0 d1 3c 4b 6e b8 3c
       0.029697517 -0.0061566047 0.025596855 0.02251353
000090 94 3b 85 3c 09 c0 69 3d 75 58 b9 3a 38 65 53 3d
       0.01626376 0.057067905 0.0014140742 0.0516102
0000a0 0e 26 fa bb 55 73 8f 3c c0 ba f1 3b b1 15 a2 bc
       -0.007633931 0.01751105 0.0073769987 -0.019785734
0000b0 d7 a3 1f 3b a0 07 98 3c b2 b2 24 bc f0 4e 8f bc
       0.002435913 0.018558323 -0.01005237 -0.017493695
0000c0 65 d0 39 3d f4 c0 1c 3d be c5 c7 bc 3e 44 17 bd
       0.045364756 0.038269952 -0.024386283 -0.036930315
0000d0 4d 51 63 3c e2 a0 a3 bd c4 7d 99 bc 39 f3 83 3c
       0.013874364 -0.0798967 -0.018736728 0.016107189
0000e0 72 3c a6 bc dc a8 37 3d 71 6a 58 bd a1 87 f2 3b
       -0.020292494 0.04483877 -0.052835885 0.007401422
0000f0 c1 29 14 bc 57 17 b1 3c 32 19 95 bc 07 e2 01 bd
       -0.009043158 0.021617575 -0.01820049 -0.031709697
000100 62 33 35 bd 54 ad e5 3c 20 b3 5a bd b8 dc 8c bb
       -0.044238456 0.02803675 -0.053393483 -0.0042987727
000110 10 a9 f5 bc 6a ee 3f bc 2c 5e b5 bc 30 e8 58 3d
       -0.029987842 -0.011714557 -0.022139631 0.052955806
000120 00 42 63 3a d4 67 88 ba 9c 7f b1 3d 73 10 c2 bc
       0.00086691976 -0.001040692 0.08666918 -0.023689484
000130 10 28 31 3b 1c a1 20 3d a3 c1 44 3d 84 99 01 bd
       0.0027031936 0.039216146 0.04803623 -0.031640545
000140 a6 af df 3d 29 7b 02 3d 84 9e 12 3d 7d 3d 80 3d
       0.10922174 0.031855736 0.035795704 0.06261728
000150 9c 0f 51 bd 4a 09 07 3d 60 c4 cc 3c e5 78 58 3d
       -0.051040277 0.032967843 0.024995983 0.05284967
000160 f6 06 6a 3c 0f a8 7a bd de ce 8d 3d 87 22 23 bd
       0.014283886 -0.06119543 0.069242224 -0.03982785
000170 96 e4 cc 3c 1c 53 41 bc db 67 0e bc 7f 0c 9a bb
       0.025011342 -0.0117996 -0.008691753 -0.0047011967
000180 ca 83 2e bd df 89 a1 3d fd c1 2a bb 97 79 fe 3c
       -0.042606153 0.07887625 -0.0026055567 0.031063838
000190 c6 35 cd bc d5 6a 79 3c a7 3a 83 3b 51 60 c0 bc
       -0.025050055 0.015223225 0.0040047946 -0.023483427
0001a0 e5 1b 38 3c 38 d1 7e 3d fa 88 17 bd a3 4d db bc
       0.011237119 0.062211245 -0.036995865 -0.026770419
0001b0 27 dd 99 bc d0 9f a0 bd 64 18 dc 3b 82 95 23 3d
       -0.018782211 -0.07842982 0.006716775 0.039937504
0001c0 d0 ad 83 3d c0 e0 c7 39 2c 3e b7 bc d8 e7 17 3b
       0.064296365 0.0003812369 -0.022368513 0.002317896
0001d0 dc 6d 4f 3d 52 b8 67 3d 05 6d dd bc 32 26 44 3d
       0.05064188 0.056572266 -0.027029524 0.04788799
0001e0 7d cc 98 3d 6f 0b 3b 3d 4c 8d c9 bc 1a 24 ad 3d
       0.07460878 0.0456652 -0.024603508 0.084541515
0001f0 14 7f c0 3c f8 2c 8f 3c f6 8a e4 bc a7 98 f2 bb
       0.023498096 0.017477497 -0.027898293 -0.0074034515
000200 ff 17 bc bc 8e f0 a8 bd 6f 88 4d 3b 09 fe ea ba
       -0.022960661 -0.08249007 0.0031361838 -0.0017928492
000210 f0 14 44 bd 36 04 4f bd c7 a9 3c bd a4 74 3f bc
       -0.04787153 -0.050541125 -0.04606035 -0.011685524
000220 e3 1a 04 3c 1e 79 0c 3d da 4a 01 3d 4c d1 99 bc
       0.008063051 0.034295194 0.031565525 -0.018776558
000230 4c a4 d7 3b fa ab 4e 3d 3c e0 8e 3c d6 4a 97 bc
       0.006580865 0.05045698 0.017440908 -0.018468302
000240 01 a7 7b bc f4 32 c7 3b 14 21 d3 3c 18 5a d7 3c
       -0.015359641 0.006079072 0.025772609 0.026288077
000250 89 ce bf bc a3 52 86 3d 70 f4 7f 3a e6 fd d9 3c
       -0.023413913 0.065587305 0.0009763902 0.026610326
000260 b7 78 28 bd 05 c5 b5 3c fa 47 20 3c e1 3d 2e 3d
       -0.041130748 0.022188673 0.009782786 0.04253948
000270 78 25 39 bd e1 48 ab 3d 5a 87 8d 3b d2 20 15 3d
       -0.04520175 0.0836351 0.0043191137 0.036408253
000280 2c 59 1f 3d 64 ea 77 bd 39 e4 1a 3d ce 60 1d bc
       0.0389034 -0.060526267 0.037815306 -0.0096056
000290 f2 97 31 3c 41 5d 54 bd d2 43 fe bc 8e 33 36 3c
       0.010839449 -0.051846746 -0.031038199 0.01112069
0002a0 0f 59 b5 bd a4 5f b8 3b 1f 85 88 bc 03 4b 5a bd
       -0.08854877 0.0056266356 -0.01666504 -0.053294193
0002b0 0b 20 17 3c 23 05 cb bc 98 8b d7 bd 92 25 8b bc
       0.009223948 -0.024782723 -0.10524672 -0.016985688
0002c0 a0 ab a4 39 e8 14 b8 bd 78 96 79 3d e0 ec ba 3b
       0.00031408388 -0.089883626 0.060934514 0.005704507
0002d0 e5 76 a8 bd f2 bb 89 bc 34 19 81 3c 74 94 b2 bd
       -0.08225802 -0.016813252 0.015759088 -0.087197214
0002e0 20 c5 b0 39 7c 0a 34 ba 88 63 2c ba 22 c8 32 bd
       0.00033716206 -0.00068680174 -0.00065761106 -0.043647893
0002f0 8a bf 17 3d 0e a0 b7 3b ee 70 07 3c ed 30 77 bd
       0.0370479 0.005603797 0.008266671 -0.060349394
000300 2c a8 08 3d 25 5a 0b 3d a0 d5 ce 3c 91 e6 bf bd
       0.033363506 0.034021515 0.025248349 -0.09370149
000310 65 c9 90 bd ea ce b3 bc 06 0f 10 bd 44 c5 ba bc
       -0.07069663 -0.02194925 -0.035170577 -0.022799142
000320 86 e6 b7 bb 66 76 40 3c 4e e4 d8 bc d6 fe 7f ba
       -0.0056121973 0.011746978 -0.026476052 -0.00097654515
000330 17 62 0b be 42 bc 37 bc 6a 58 2a bc 24 7a 27 3d
       -0.13611637 -0.011214318 -0.010397056 0.040887967
000340 eb 14 b5 3c 9f 74 8c 3d 84 fa 15 3d c5 5b b2 bd
       0.022104701 0.06858181 0.036615863 -0.0870891
000350 52 6a 1b 3c bc e4 05 3d c0 9c ae bc b2 e7 92 bd
       0.009485798 0.03268884 -0.021314979 -0.071730986
000360 bd 21 a2 bd 99 d0 a5 3c b4 7b 5f bc 7c 22 fc bc
       -0.07916591 0.020241069 -0.013640333 -0.030778162
000370 1d 20 d8 bd 19 af 81 3d 0d de 2d 3d 9e 63 9d bb
       -0.10553 0.06332225 0.042448092 -0.004803135
000380 70 bf d6 3b 91 6c 26 3d ee 5b 11 3c 63 b7 09 be
       0.006553583 0.04063088 0.008872015 -0.13448863
000390 87 37 6c 3d 41 4e 89 3d 10 15 8d bd 89 87 a9 bb
       0.057670143 0.06704379 -0.06888783 -0.0051736278
0003a0 cb ac 22 bc 56 a6 64 bd 8e 76 29 bd 64 13 42 3d
       -0.009928892 -0.055822693 -0.04137283 0.047381774
0003b0 f0 fc ee 3c 4d 1e 18 bc 6a 43 05 bb 68 db 32 bd
       0.029173344 -0.009284568 -0.0020334371 -0.043666273
0003c0 cc 9a 25 3c e9 dd 9d 3b 28 3a b3 ba 1a 97 20 3d
       0.010107707 0.0048177135 -0.0013673948 0.0392066
0003d0 17 90 16 3d ec 74 2c bd 10 4e 96 3b 7a 29 cf 3c
       0.03675851 -0.042103693 0.0045869425 0.025288332
0003e0 18 1f 93 3c 9a 1e f7 3b a2 69 4a bd c8 fd 15 3a
       0.017959163 0.00754149 -0.049417146 0.0005721715
0003f0 40 d9 21 bd aa 99 6d 3c 36 76 6c 3d bb 31 3d bd
       -0.039513826 0.014501968 0.057729922 -0.046190005

std.constant4 f4 [128, 128]
000000 38 4b 85 bd a8 a7 1b bd 4f f1 ab bc 29 76 5d 3d
       -0.065084875 -0.038001686 -0.020989088 0.054067764
000010 42 2d 78 3d 0e 93 4c bd 72 ee 5b bb 90 0a c8 3b
       0.060590036 -0.04994493 -0.0033558873 0.006104775
000020 36 06 6c 3c 13 1e e6 3c 52 03 65 3d 9c ef bb bb
       0.014405778 0.028090512 0.05591137 -0.005735351
000030 49 1a 26 3c ff 76 13 3c 60 b2 ff 3c e5 47 f2 bc
       0.010138103 0.009000539 0.031212986 -0.029575298
000040 9a 68 bd 3c 46 f9 1d bc 44 6b 06 3d 5a a3 7f bd
       0.023121167 -0.009641951 0.03281714 -0.062411644
000050 a8 2f c4 b9 2f ff e1 bc a2 b9 da 3c a1 69 53 3d
       -0.0003741954 -0.027587501 0.026699845 0.051614407
000060 2a 41 88 3d b9 30 b8 3c d2 d9 86 3d c1 df 71 bd
       0.06653054 0.02248417 0.06584515 -0.05905128
000070 31 91 04 bd d0 53 4d bb 1b 0d 23 bc ca a5 d7 bc
       -0.032365028 -0.0031330474 -0.009951855 -0.026324172
000080 f2 e9 95 bc de d9 8f 3b ac af 2b bd 06 93 2f 3c
       -0.01830003 0.0043899855 -0.04191558 0.010716205
000090 66 d9 03 bc a4 b8 33 3c 03 0f 0e 3c 44 5e c2 3c
       -0.008047437 0.010969315 0.008670571 0.02372659
0000a0 3f 1f ad bd 64 69 b0 3d 5a dc e1 bc 54 d0 8b 3d
       -0.08453225 0.08613852 -0.027570892 0.06826845
0000b0 08 ce 3c 3c 13 df d1 3c 4a 73 10 3d 5f 31 b1 bd
       0.011523731 0.025619065 0.0352662 -0.08651995
0000c0 c8 25 d2 bc a2 79 f6 bc 5d f7 35 bd 4c d6 9c 3c
       -0.025652781 -0.030087296 -0.044425357 0.019145153
0000d0 45 3d f5 3c fe 6b 38 bd 02 2e 1d bd 55 51 92 bd
       0.029936442 -0.045024864 -0.038373955 -0.07144419
0000e0 80 06 44 bd 7e 92 69 3c 74 f9 11 3d fb 98 df 3c
       -0.04785776 0.014256118 0.035638288 0.027294626
0000f0 c9 c5 a2 bd 82 c5 8a 3d 08 66 4a bb d1 2e b7 bc
       -0.07947881 0.06775953 -0.003088357 -0.022361191
000100 2a da 81 bc d8 52 5f bd 28 b7 a6 3a 31 66 f1 3c
       -0.015851099 -0.054522365 0.001271938 0.029467674
000110 17 c3 63 3d 40 dc 5c b9 50 23 31 3d 64 8a 77 3c
       0.055605974 -0.00021062884 0.043246567 0.0151086785
000120 ad b2 21 3d e2 5e 80 bc 6b 65 36 bd 77 66 b2 bd
       0.03947704 -0.015670244 -0.044530313 -0.0871095
000130 76 94 0b bd 22 a9 3f 3c 5f fb 19 bd 36 71 f4 bc
       -0.03407713 0.011698039 -0.03759324 -0.02983914
000140 d6 c2 05 3d 67 27 22 3d 5c f3 4e bb 98 f1 c9 bc
       0.032656513 0.03958836 -0.003157816 -0.024651334
000150 3b 3b 16 bc 74 10 18 3d 98 12 80 3d 9f 5c 18 bc
       -0.009169395 0.037125066 0.062535465 -0.009299426
000160 23 39 fa bc 44 1a a1 bb 6a 55 01 bd 08 0d ba bc
       -0.030544823 -0.004916461 -0.031575598 -0.022711292
000170 86 cb 57 3d bf 97 8d bd c4 ec b0 bc 1c da e3 3c
       0.05268433 -0.06913709 -0.021597274 0.027813964
000180 dd a2 84 bd 00 ee 29 3b 82 7d 05 3d 4a 37 c6 3c
       -0.06476376 0.0025929213 0.032590397 0.024196286
000190 3e db 7e 3d 10 68 68 bd 79 ea 1e bd 42 bf 2e 3c
       0.062220804 -0.056739867 -0.03879783 0.010665717
0001a0 da 6b 40 bc 30 aa ff 3b 80 87 b9 bd 7c e6 1d bc
       -0.011744464 0.0078022704 -0.09059048 -0.009637471
0001b0 47 71 14 bc 13 4c 61 bd a8 14 47 bc 1e a4 6f 3c
       -0.009060211 -0.05500419 -0.012150921 0.014626531
0001c0 8f 8c 64 bd 94 64 62 3d 2f 4e 1d bd 97 ec d9 bc
       -0.05579811 0.0552717 -0.03840464 -0.026602073
0001d0 b8 a5 ad bc 91 cb b9 bb 82 31 7c 3c bc 3d cc bd
       -0.021197185 -0.005670019 0.015392663 -0.099727124
0001e0 3f 6b b9 3c 8c b1 25 bc e3 6a 0a 3d a6 d3 10 3c
       0.022634147 -0.010113131 0.03379334 0.008839523
0001f0 c3 3b 2a 3c 84 50 b9 3b ab 7e 11 3d 06 76 9f bd
       0.010390225 0.00565535 0.03552119 -0.07786183
000200 24 76 ac 3b 3b d9 a7 3d 5c e8 39 3c 18 a6 ab 3d
       0.005263107 0.0819573 0.011346903 0.08381289
000210 9d ac 3b bd d6 2d 3d 3d e6 9f 59 bd 30 c6 89 3d
       -0.045818914 0.04618629 -0.053131007 0.067272544
000220 cb 43 08 bd a6 0a 62 bc b9 15 8e 3d eb 86 02 3d
       -0.033267777 -0.013796484 0.06937737 0.03186695
000230 5a 90 02 3d 94 b7 55 3c 42 38 98 3c f3 3f fe 3c
       0.031875946 0.013044257 0.018581513 0.031036353
000240 6a b9 c2 bc ee 3f b4 3c eb 15 85 bd f8 27 89 3c
       -0.023770053 0.02200314 -0.06498321 0.016742691
000250 9c 7e 9c 3c b8 28 85 bd 05 e0 27 bd 59 6b db bc
       0.01910334 -0.06501907 -0.040985126 -0.026784586
000260 a5 2b b2 3c c0 8d dc 3c aa a9 d5 3c 0a 8b d5 3c
       0.021749327 0.02692306 0.026081879 0.026067276
000270 d2 04 a2 3d a2 80 9f bd 09 0a 8c 3d b6 6c 0b be
       0.07911076 -0.07788207 0.068378516 -0.13615689
000280 c9 4d 4b bd ca cb 66 bd 6a a7 62 3d 50 d7 b6 3a
       -0.04963473 -0.056346692 0.05533544 0.0013949666
000290 f0 0c f2 bc 84 68 ad bd f9 f2 a9 bd 31 bd 9f 3d
       -0.029547185 -0.084672004 -0.082982965 0.07799757
0002a0 c9 8b cd bd 3c 4b 91 3c 60 31 4a 3b f7 db 21 3d
       -0.100364275 0.01773607 0.0030852184 0.039516415
0002b0 38 09 93 bd e1 98 9d bd 7e fb cd 3b d4 6d ab 3d
       -0.07179493 -0.07695175 0.0062860837 0.083705574
0002c0 14 7d 8d 3c 20 de 86 bb 6d f8 d6 3d 20 6b 61 3c
       0.017271556 -0.004115835 0.10496602 0.013758451
0002d0 38 1c d9 3c 5e 8a 3b 3d 60 39 15 ba aa 9e 14 3d
       0.026502714 0.045786254 -0.00056924485 0.036284126
0002e0 86 ef 21 3d 84 7b 6c bb c9 0a 93 bc 1a 9e b1 bd
       0.039535068 -0.0036084363 -0.017949479 -0.086727336
0002f0 38 17 94 3c b1 3e 72 3d d6 64 88 bb 79 a2 8f 3d
       0.018077478 0.05914182 -0.004162411 0.07013411
000300 6a 50 0c bd 59 19 10 bd 3b fc 90 3d b1 24 2b 3d
       -0.034256376 -0.035180423 0.07079359 0.04178304
000310 61 62 01 bd 0d 27 27 3d 9c 87 2b bc 72 3f 24 3d
       -0.031587962 0.040808726 -0.0104693435 0.04009957
000320 8d d1 06 bd 6c a7 e5 bb f8 0e cc bc 7f c2 4f bb
       -0.032914687 -0.0070084836 -0.024909481 -0.0031701622
000330 ec a9 3f bd 2b 6c 26 bc cb bd 6e bd 5d 47 e6 3c
       -0.04679291 -0.010157625 -0.05828647 0.0281102
000340 3c 68 0d bd ea 8e 0b bd fc e8 82 bd 70 9c 52 bd
       -0.034523234 -0.03407184 -0.063920945 -0.05141872
000350 ee 84 38 bd f6 6e 80 bd a0 f1 1c bc ca fd 14 3c
       -0.045048647 -0.06271164 -0.009579092 0.009093711
000360 df 5f 89 3c b0 8e 3f bb 56 0f 56 3c eb 42 5e bd
       0.016769348 -0.0029229335 0.01306518 -0.054263037
000370 cd af 9a bc 76 8e 8c bd 02 58 ed 3d 78 5d b2 3c
       -0.018882656 -0.0686311 0.11589052 0.021773085
000380 f8 c0 5e bc 79 77 50 bd 40 a8 54 bc 16 ac ce 3c
       -0.013595812 -0.050895188 -0.012979567 0.025228541
000390 be ac 2b 3c c0 8f 3c 3a 6b 70 85 bb 41 7e b0 3d
       0.010478197 0.0007193051 -0.004072239 0.08617831
0003a0 6b aa de bd 8a 31 8d 3b 70 e9 7e bb 4a e7 5d bd
       -0.108723484 0.004308884 -0.0038896464 -0.054175653
0003b0 8a 4a dc 3c 48 b3 32 3b 6a 97 d9 3c d2 89 8c bd
       0.026891012 0.0027267504 0.026561458 -0.06862225
0003c0 44 b2 e8 bc e7 0c 13 3c e0 84 ba ba 70 f2 0f 3c
       -0.028405316 0.008975244 -0.0014230274 0.008785829
0003d0 71 0a be 3c 60 de d5 3d fa cb 9e 3b e1 48 93 bd
       0.023198338 0.10442805 0.0048460932 -0.07191635
0003e0 f2 d9 5e 3d 68 9b 6e 3d 2a fb 99 bd 5e 7e 45 3d
       0.054407068 0.058253676 -0.07518609 0.048216216
0003f0 3c b9 dd bc a1 08 69 bd c0 c4 4d 3d 16 fd d3 3c
       -0.027065866 -0.056892995 0.050236464 0.025877517

std.constant5 f4 [128, 128]
000000 d9 00 7d bd 0b 1e 06 bd 10 9c 99 bd c4 0b 5a bd
       -0.061768387 -0.032743495 -0.0750047 -0.053233877
000010 e9 ef b3 bc 3d 77 15 bd 21 d1 8b 3d 44 06 e0 3a
       -0.021964984 -0.036490668 0.068269975 0.0017091711
000020 0a 50 b4 bb 40 db 44 bc 02 4f 8b 3c 82 b3 2d bd
       -0.0055027055 -0.012015164 0.017005447 -0.04240752
000030 48 17 4c bc 72 05 ac ba f9 ec 95 3d 08 83 b1 bd
       -0.012456723 -0.0013124181 0.073205896 -0.0866757
000040 24 d8 4f 3d a4 fd da 3c e0 ac 78 b9 5c 96 0c bc
       0.050743237 0.026732273 -0.00023715524 -0.00858077
000050 d4 41 a4 bd b0 54 93 bd 10 4c 95 3c 75 f9 66 3d
       -0.08020368 -0.07193887 0.018224746 0.056390245
000060 b4 15 0f 3d 57 74 80 bd f9 e3 0b bd 64 22 5b 3b
       0.034932807 -0.0627219 -0.03415296 0.0033437246
000070 1c 14 fa bb a4 de e9 bc c9 a6 00 3d e8 cc 31 bc
       -0.0076317918 -0.028548546 0.03140906 -0.010852076
000080 90 90 7f bd 00 bd ca bc 1e e4 c6 3c 99 d0 3a bd
       -0.062393725 -0.024748325 0.024278697 -0.04560909
000090 90 2f d9 bb 8b fe a0 bd ac fc b4 3b 04 dd 1e bd
       -0.0066279843 -0.0786105 0.005523285 -0.038784996
0000a0 e4 ba c2 3c d7 c3 62 bd 64 49 77 bd e7 c9 29 3c
       0.023770757 -0.05536255 -0.060372725 0.010363079
0000b0 b5 d7 19 3d 13 0a 4d 3b 24 a5 a3 3c 95 37 17 3d
       0.03755923 0.0031286522 0.019976206 0.03691824
0000c0 70 b8 4e bc 4a 12 83 bc b5 8f 66 3d 12 55 16 bd
       -0.0126172155 -0.015999932 0.056289393 -0.036702223
0000d0 80 9c 3a 39 3b 3c a2 3c ad f6 6e 3d 01 7b 77 3d
       0.00017796643 0.01980411 0.058340717 0.06042004
0000e0 5c 04 0a 3d a1 89 bc 3c 83 4f ea 3d d2 8a 2a 3c
       0.033695564 0.023014845 0.11440947 0.010409074
0000f0 61 99 d4 bc 17 8b 96 bd 1e be 8b 3c 9d cb db bc
       -0.025952043 -0.07350748 0.017058428 -0.026830489
000100 2b 07 06 3d 39 cf 97 bd b8 0e 3e bd 82 22 27 bd
       0.03272168 -0.074125715 -0.046400756 -0.040804394
000110 3a c4 bd bd 68 f1 ba bb 8c f7 34 3c ed 76 19 3d
       -0.09265943 -0.0057050474 0.011045348 0.037466932
000120 95 3e 6e 3c 1d 2d 0d bd 91 eb b0 3c ba 7a 03 3c
       0.014541288 -0.03446685 0.021596702 0.008024866
000130 1c 29 04 3b 6b 35 04 3c 52 14 9d bc 0b cf b2 bc
       0.0020166105 0.008069376 -0.019174729 -0.021827241
000140 bd 37 f7 bc 67 e2 9c bc 64 b0 f1 bc 87 ac 3a 3d
       -0.030177945 -0.019150926 -0.029503055 0.04557469
000150 6b be c4 3d a9 aa b0 3d 0c 1f 20 ba 70 1e 54 bd
       0.09606632 0.08626301 -0.0006108142 -0.05178684
000160 2d 3c f0 3b d7 cc 42 3d e9 4e de bc a5 9e a3 3d
       0.0073313923 0.04755863 -0.027137237 0.079892434
000170 c7 da c0 bc 86 84 d3 3b 09 24 d4 bc 71 c3 89 bd
       -0.023541821 0.006455007 -0.02589609 -0.067267306
000180 57 75 4d bc 6a 96 af bc 25 9d 70 3c d3 a4 f6 bc
       -0.012540183 -0.021434028 0.014685904 -0.030107891
000190 98 a2 d0 bd d4 10 d5 3c 6a 88 a9 3b 2d 6f 5a bd
       -0.10187262 0.026009 0.0051737325 -0.05332868
0001a0 04 82 a0 bc 00 0b 89 bd 02 85 09 bc 70 93 2f 3d
       -0.019593246 -0.06691551 -0.008393528 0.042865217
0001b0 90 28 4b ba 57 7f c5 bc a0 85 17 bb b2 3f 00 bd
       -0.000774988 -0.024108572 -0.0023120418 -0.031310745
0001c0 6c 72 a9 bd f8 86 8c bd f9 ce 68 3c 81 5b 66 bd
       -0.08273777 -0.06861681 0.014209502 -0.05623961
0001d0 7e 5f ae bd 04 54 a5 3c be 46 67 bc c1 e3 2e bd
       -0.085143074 0.020181663 -0.014115987 -0.04269767
0001e0 dd 4f d1 3c cc 44 1b bd 22 cd a0 bc d4 83 72 bb
       0.025550777 -0.037907407 -0.019629065 -0.0037004845
0001f0 12 49 6a 3d d6 d7 86 bd 2c 7b ff bb ec 29 73 bc
       0.05719859 -0.06584136 -0.0077966657 -0.014841538
000200 02 b9 21 bd 7d 55 1b bd 31 f1 f5 3a 8f d5 5f 3b
       -0.039483078 -0.037923325 0.0018763897 0.003415439
000210 df cb bd bd 63 9b fe bc f2 27 0d be 10 52 37 3a
       -0.09267401 -0.031079954 -0.13784769 0.0006993124
000220 ac 33 d1 bc 22 21 0e 3d 64 6c 20 3d d5 0e 91 bd
       -0.025537334 0.034699567 0.03916587 -0.07082907
000230 4e 2d 98 bd e2 86 2f bd ba 3e 82 bc 2f 15 88 bd
       -0.07430516 -0.042853244 -0.015899051 -0.066446654
000240 97 fa bb 3d f6 c7 49 bc 00 b6 31 b9 69 28 cc bc
       0.091786556 -0.012315741 -0.00016947836 -0.024921613
000250 9a aa 2c 3b 06 86 6e 3d 59 c6 c3 3c 16 b1 b5 bc
       0.0026346804 0.058233283 0.02389829 -0.022179168
000260 f0 c1 04 bd e2 83 8a 3d 39 12 df bd b2 0f 2f bd
       -0.032411516 0.06763436 -0.108921476 -0.042739578
000270 d6 2d 64 3c 27 15 7a bd ae f6 1a 3c 61 bf 59 bc
       0.013926944 -0.06105533 0.009458227 -0.013290257
000280 35 c8 c9 bc 10 24 e9 bb ff 7a d5 3d 76 49 d9 3c
       -0.024631599 -0.0071148947 0.1042385 0.026524287
000290 94 53 0f 3c 6a d5 df 3c de 7d cf 3c c5 34 2d bd
       0.008747954 0.027323443 0.025328573 -0.042286653
0002a0 74 49 96 bc 6e 6e 02 3d 86 0f 65 bd 94 7b 17 bb
       -0.018345572 0.031843595 -0.055923007 -0.002311443
0002b0 a5 d9 56 bd e7 b0 74 bd 76 e4 db 3b 07 a6 49 3d
       -0.052453656 -0.05973902 0.0067105843 0.0492306
0002c0 20 d0 a6 bc e0 fd 2b 3d 3f ef ea bc 8e a4 79 bb
       -0.020362914 0.04199016 -0.028678535 -0.0038092467
0002d0 61 5d 33 bd 38 ee 44 bd 5b 69 1b bc 0d 09 40 bd
       -0.043790225 -0.048078746 -0.009485568 -0.04688363
0002e0 52 a5 58 bd 52 a8 2a 3d 46 52 b8 bb 80 89 4b bb
       -0.052892037 0.04166443 -0.005625042 -0.0031057298
0002f0 60 90 8d 3d b4 fe 20 3d d7 24 a8 3c be 54 92 3b
       0.06912303 0.039305404 0.02052538 0.0044656685
000300 ad ff e3 bc 7c 70 fa bb f7 f1 a7 3c 35 38 97 3d
       -0.027831877 -0.0076428037 0.02050112 0.073837675
000310 a6 cf 4f 3d a4 8f 5c bd 3d fa 5c 3d d0 fa 84 bc
       0.05073514 -0.053847924 0.053949583 -0.016232878
000320 1c 85 d3 3c 3d 4b ef bc bc 0a e6 3c e2 95 70 3b
       0.025820307 -0.029210681 0.02808129 0.003671043
000330 b0 67 d9 3c f9 26 48 bc 41 b8 b5 bd 70 48 12 bd
       0.0265387 -0.012216323 -0.08873034 -0.035713613
000340 dc fc c7 bb ff 9b 3e bd 52 7f 56 bd b2 e1 0b bd
       -0.0061031412 -0.04653549 -0.052367516 -0.034150787
000350 00 3a 07 b8 48 c5 ad 3c 93 b7 9b 3d 20 ad 14 bb
       -3.2240525e-05 0.021212235 0.076033734 -0.0022686198
000360 9c 3c ab bb d6 ed 68 bb f8 54 c0 bb db fc 3b 3d
       -0.005225731 -0.0035542152 -0.005869504 0.04589544
000370 bc 18 b7 3b 61 14 56 bd f2 78 0d bd b0 fa 40 bc
       0.0055876654 -0.05226553 -0.03453917 -0.011778519
000380 21 2f a1 3d 94 fb b5 bc 80 7d 62 3c ae 6f be 3c
       0.07870317 -0.022214688 0.013823867 0.023246612
000390 72 5e 08 bd 15 4d 87 3d d4 74 34 3d 11 24 73 3c
       -0.033293195 0.06606499 0.04405673 0.014840142
0003a0 18 b4 1c 3d 1c cb 76 bc 98 a0 04 bd c4 0d e0 bd
       0.03825769 -0.0150630735 -0.032379717 -0.109401256
0003b0 7f 8e 17 3c 8e f3 b5 3d e0 c3 05 bd 78 d7 f8 3b
       0.009250282 0.08884345 -0.032657504 0.0075940453
0003c0 38 6d 7c 3d 32 72 f7 3b 87 0e 84 bb 43 d4 84 3c
       0.061627597 0.007551455 -0.004030052 0.016214496
0003d0 a2 94 e4 bc 5e fb 9a 3d 40 f7 fe 3c 42 eb 66 bd
       -0.027902905 0.07567476 0.031123757 -0.056376703
0003e0 01 b2 05 3d 58 5f dd bc 8f 68 13 bd 43 da c4 bc
       0.03264046 -0.027023003 -0.035988387 -0.024029857
0003f0 87 d2 e3 bc c4 d9 a7 3c b9 85 2c 3d 1d d9 2c bc
       -0.027810348 0.02048958 0.042119715 -0.010549811

std.constant6 f4 [128, 128]
000000 00 58 d0 3a 33 c6 f4 bc 94 65 26 bd 0a 99 b1 bc
       0.0015895367 -0.029879665 -0.040624216 -0.02167942
000010 96 f7 54 bd fe 72 15 3c af c1 96 bd 04 c6 9d 3c
       -0.05199393 0.009121655 -0.07361161 0.01925946
000020 86 ea 56 3d 42 3f b9 bd 3e 5c 28 3c a8 a7 ec 3b
       0.052469753 -0.090452686 0.0102758985 0.0072221346
000030 d6 b1 d8 bd fa ae b0 3c f8 3d c6 bc d7 e3 3c 3d
       -0.105807945 0.02156781 -0.02419947 0.046115723
000040 ec cb 50 bd 4f e8 b0 3d 90 3b d1 3c 20 df 3d 3d
       -0.050975725 0.08638059 0.025541097 0.046355367
000050 fa ee fd bd 84 f9 c1 bc 90 a5 b0 bc 0c f2 1c 3c
       -0.12399097 -0.023678549 -0.021563321 0.009579193
000060 16 c1 2d 3c 14 c6 ad bd 70 17 51 bb 42 6f 94 bc
       0.010605117 -0.08485046 -0.003190484 -0.018119458
000070 78 d1 e7 bb 06 27 14 bd 7f 2d 43 bd 96 4f bd bd
       -0.007074531 -0.03617003 -0.04765081 -0.092436954
000080 18 80 1c bd a8 55 00 ba ec ff 2f bb be 8c 50 bc
       -0.038208097 -0.0004895576 -0.0026855422 -0.012728868
000090 70 d9 a4 bd 80 06 1a b9 4a 87 14 3d b8 2e c2 bd
       -0.080492854 -0.00014689006 0.036261834 -0.09481567
0000a0 e0 9f 25 bd 6d 14 e0 bd 24 d4 06 bd ee 26 0d bd
       -0.04043567 -0.10941396 -0.032917157 -0.034460954
0000b0 37 74 a6 3d fc 23 01 bc d8 69 b0 bd c2 c3 ac 3c
       0.08127635 -0.0078821145 -0.08613938 0.021089438
0000c0 37 52 ca 3d 54 1f 25 bd d1 87 36 bd de 44 40 bd
       0.098789625 -0.04031308 -0.04456312 -0.046940677
0000d0 73 0b 26 bc f8 ed f6 3a 12 3c 19 3d 06 8a 20 3d
       -0.010134566 0.0018839231 0.037410803 0.03919413
0000e0 fc 48 ea 3c 42 d1 64 3d b5 76 31 3d 3d c6 09 3b
       0.028599255 0.055863626 0.0433261 0.00210227
0000f0 74 ac 28 bd d9 70 1a bd 80 65 84 3c 9e 57 ff bc
       -0.04118009 -0.037705276 0.01616168 -0.031169709
000100 13 fc 3b 3c 24 b5 24 3b 9a cb fe bc 78 ea c6 bc
       0.011473673 0.0025132382 -0.031102944 -0.024281725
000110 67 c8 d9 3c 52 a2 78 3d 50 b0 7c ba 3e c6 85 3d
       0.026584817 0.060701676 -0.000963931 0.06531952
000120 3f 2a 12 bd bb c5 40 bd 9f 8b c3 bc f9 43 86 bc
       -0.03568482 -0.04706357 -0.023870287 -0.016389834
000130 9a 35 94 3c f8 9c 78 bd ed 6c 08 bd d9 02 aa 3c
       0.018091965 -0.060696572 -0.033307005 0.020753311
000140 4e 56 18 bc 43 4e 03 3d 4e f8 bc 3d 35 e6 b4 bc
       -0.00929792 0.032057058 0.09227048 -0.022082428
000150 5c 61 c8 3b 34 b9 af bb 64 8f 02 3c 6b 23 9a 3c
       0.0061151218 -0.005362654 0.007968757 0.018815717
000160 71 18 26 3d f9 08 93 bd 4d 73 06 bd 82 d8 07 3c
       0.040550653 -0.07179446 -0.032824803 0.008291366
000170 34 d3 20 3c d9 8e f5 bc d8 69 c4 bc 3c 39 2a bd
       0.00981598 -0.029975342 -0.023976251 -0.04155849
000180 13 85 93 bd 46 10 c2 3c fd 31 34 bc 20 75 df bc
       -0.07203116 0.0236894 -0.010998246 -0.02727753
000190 ec 9c a5 3d 2c dc 17 3c ff a2 0c 3d eb 2b 69 3d
       0.08086571 0.009268802 0.034335133 0.05692665
0001a0 02 07 8a 3b 73 75 91 3d 06 32 ee bc d8 c1 ea 3c
       0.004212261 0.0710248 -0.029076587 0.028656885
0001b0 68 54 0f bb fc 7a e3 bd fc 1d 22 3c 58 d5 16 3d
       -0.0021870378 -0.11107442 0.009894844 0.036824554
0001c0 d2 ef 7f bc fd 85 6b bd ec d3 04 3c 92 15 86 bd
       -0.015621142 -0.057500828 0.008107167 -0.06547083
0001d0 d7 b9 32 bd 45 ab d5 bc ee d9 ca bc 70 cf 88 bc
       -0.043634262 -0.026082644 -0.02476212 -0.016700476
0001e0 a0 fe 92 3a 7e 28 b8 bd 65 90 6a bd 40 04 45 3d
       0.00112148 -0.08992098 -0.05726661 0.048099756
0001f0 0e 02 36 bd 6e be aa bc 3a e0 e4 bc 3a c3 38 3d
       -0.044435553 -0.020842757 -0.02793895 0.045108058
000200 b3 d6 8f bc c0 a3 a6 3c 4a 90 1a bc 41 2c d5 3b
       -0.017558431 0.020341754 -0.009433815 0.0065055196
000210 dd bb bd bb 1a 4e 4f ba d6 1a 02 3b 32 03 89 bd
       -0.0057902173 -0.00079080614 0.0019852421 -0.066900626
000220 06 58 8e 3d 35 0a 71 3d 1c f7 be 3c 96 b8 3a bd
       0.06950383 0.058847625 0.02331119 -0.04558619
000230 2f 70 01 3c a2 3a d8 3c 2c 99 c7 3b cc 18 f5 bb
       0.007900282 0.026395146 0.0060912576 -0.0074797627
000240 12 4d d4 bb 82 c7 6a 3d fc a7 64 ba 2a 41 2a 3d
       -0.006478914 0.05731917 -0.00087225414 0.04156605
000250 7d 14 21 3d c6 43 a0 bc e8 32 fa 3c b2 62 26 3d
       0.03932618 -0.019563567 0.030541852 0.040621467
000260 7b 44 3f 3d 9d 70 e7 3c f4 76 87 3d 00 82 aa 3a
       0.046696167 0.02825194 0.066144854 0.0013008714
000270 4c 8c 00 bd 1f 55 c1 bd 55 92 d6 3c d9 6a 33 3b
       -0.031383798 -0.09440064 0.026192823 0.0027376919
000280 28 01 be 3a fa bd 35 bd f3 30 60 bc eb b5 a1 3a
       0.0014496194 -0.04437063 -0.013683545 0.0012337541
000290 bf 65 cd bc 89 d9 49 3c d2 7e 01 bd 27 18 78 3d
       -0.02507293 0.012319931 -0.031615086 0.06056991
0002a0 64 d1 f6 3c e3 81 27 bc 17 1a 75 3c f5 31 69 3c
       0.030129142 -0.0102238385 0.014959834 0.014233102
0002b0 bf 95 7d bc 76 46 ed 3c 79 98 12 bd 3a c4 64 bd
       -0.015477597 0.028964262 -0.03578994 -0.0558512
0002c0 32 f9 8f 3d d1 79 a9 3d cc 95 e6 3b 77 1f 0e bd
       0.07029952 0.08275188 0.0070369 -0.034697976
0002d0 ce 67 34 3d 77 f2 61 bd c2 d3 25 bd ff 65 8b 3d
       0.04404431 -0.055162873 -0.04048515 0.068065636
0002e0 6c e8 b9 bc 61 d7 00 bd c1 6a 37 3d eb c0 39 3d
       -0.022693835 -0.0314554 0.044779543 0.045349997
0002f0 74 01 73 3d d9 67 20 bd d9 c5 32 bc b6 1c a8 ba
       0.059327558 -0.039161537 -0.010911428 -0.0012825939
000300 35 83 7c 3d b6 a9 30 bd a1 52 2e bd c6 93 d5 bb
       0.061648566 -0.0431306 -0.04255927 -0.00651786
000310 47 3f 87 3b ff b6 f5 bc 76 df 97 bc f5 de 08 3c
       0.0041274163 -0.029994486 -0.018539172 0.008353938
000320 cf 02 90 3b 4f 17 3d 3d 37 ce d8 bb 10 ea af bc
       0.004394866 0.046164807 -0.0066163796 -0.021473914
000330 a5 65 00 3c 89 78 b5 3b d9 66 13 3d 88 d4 7e 3c
       0.007836734 0.0055380506 0.035986755 0.015553601
000340 2a 92 02 be 75 63 11 3c d1 51 32 bd 95 31 43 3d
       -0.1275107 0.00887381 -0.043535057 0.047654707
000350 0e 2e 18 bc d0 bf c8 bd 42 eb 29 3d 4a 3e 3b bc
       -0.009288324 -0.0980221 0.041484125 -0.011428425
000360 0d c0 8e bc a8 fe d8 3a a5 b3 cf 3d fe cf 44 3d
       -0.017425561 0.0016555386 0.10141686 0.04804992
000370 36 3b e3 bd 6c 95 2d bd 2e de 70 bc 7a c5 07 bc
       -0.11095278 -0.042378828 -0.014701409 -0.008286828
000380 0f ea f3 3b 5b 19 55 3d ce 4b 02 bd e2 76 8e 3d
       0.0074436734 0.052026134 -0.031810574 0.06956269
000390 db ef b1 3c aa c5 03 3d e6 aa ac bd ba 8e e8 bb
       0.021720817 0.03217093 -0.08431034 -0.0070970925
0003a0 54 dd 9f 3c 5e b7 09 3d 23 50 d2 bc 90 47 c2 bc
       0.019514717 0.03362214 -0.025672978 -0.023715764
0003b0 16 20 f4 bb 0d ce 60 3d d1 80 de 3c d9 25 58 bb
       -0.007450114 0.054884005 0.027161034 -0.0032981543
0003c0 ce 95 5a 3d b8 d3 aa bc d5 f7 02 3e 00 5e b2 bd
       0.05336552 -0.020852908 0.12789853 -0.08709335
0003d0 0c c1 0c 3c fb 31 47 bd 9e 81 ce 3c 6e c7 0f bd
       0.008590948 -0.04863165 0.02520829 -0.0351023
0003e0 5c 87 f6 3a 98 cd 0d bb 26 56 d3 3d 88 32 a9 bc
       0.0018808651 -0.0021637436 0.10319166 -0.020653978
0003f0 54 77 f8 3c 80 d2 06 3d 34 c5 1e bd db dd 92 3c
       0.030330338 0.032915592 -0.038762286 0.017928055

std.constant7 f4 [128]
000000 f3 f4 3c bc 2a 57 9c bc 4b e1 e6 ba 12 56 01 3c
       -0.01153301 -0.019084532 -0.001761475 0.007894056
000010 c0 3c c9 3c 5f 38 8c 3c c8 1d 47 bc 96 8f 20 3b
       0.0245651 0.017116724 -0.0121530965 0.0024499646
000020 0a b3 90 3d 2c a3 02 3c a8 c5 65 bb 9a 85 b8 bb
       0.07065399 0.0079734735 -0.003506044 -0.005631161
000030 b9 1d b8 3c f4 ba 99 bc cd 94 4a bc a8 cb 95 3c
       0.02247511 -0.018765904 -0.012364578 0.018285587
000040 0e 85 0b 3d 68 ec 9f 3a 9c 9c 98 bb b8 1f f8 3c
       0.034062438 0.0012201192 -0.004657341 0.030288562
000050 e1 70 f1 3c e7 a6 8c 3d 42 1d 82 bc 6e 96 a4 3b
       0.02947277 0.068677716 -0.015883092 0.0050228154
000060 0d bb 8f bb 92 d4 ce bb 44 06 80 ba 0b 11 80 bb
       -0.004386312 -0.0063119614 -0.0009767492 -0.0039082817
000070 08 0c 6d 3a 52 24 70 bc 7c 7d 2f bc 0c a6 9c 3c
       0.00090426253 -0.014657097 -0.01071107 0.019122146
000080 34 e9 21 bc 93 cd 16 39 23 b3 4a bc 5d 22 f4 3d
       -0.00988226 0.00014381697 -0.012371811 0.11920617
000090 cc ee ac 3d 46 a6 44 ba b7 95 64 bc 1f 36 4c bc
       0.084439844 -0.00075015833 -0.01395171 -0.012464075
0000a0 7f cc 1b 3e d0 f0 18 3d 6b 06 89 bc 86 52 93 3b
       0.15214728 0.03733903 -0.016726693 0.0044959215
0000b0 07 1f 55 bc 10 84 09 bb 2f fc 32 bc f8 02 95 3b
       -0.013007886 -0.0020983256 -0.010924383 0.004547473
0000c0 d9 7a 16 3c 59 39 da 3d 69 fa fd bb 6e c3 c0 bb
       0.009184563 0.106554694 -0.0077507985 -0.005882672
0000d0 ad 5e 55 3c 18 c5 92 3b 06 f9 39 bb fd 2d 46 bc
       0.013023061 0.004479062 -0.002837719 -0.012095925
0000e0 f5 43 ec ba 75 81 95 bb a3 90 8b ba 09 fb b0 3d
       -0.0018025624 -0.0045625516 -0.0010647963 0.08641631
0000f0 94 02 ed bb a6 8d 45 bb 25 1a 02 3d d8 cb 98 3d
       -0.0072329734 -0.0030144244 0.031763215 0.07460755
000100 ee 3f 09 bc 5f 84 1a 3d bf 58 f8 bb 87 3e 6b 3c
       -0.008377058 0.037723895 -0.0075789387 0.014358169
000110 91 18 0a 3b 1b 75 47 bb 2f a2 ba 3a d4 be 0b 3d
       0.0021071772 -0.003043479 0.0014239008 0.034117535
000120 d0 d2 85 bc b9 57 1c bb 77 67 52 bc b4 f5 b9 3c
       -0.016335875 -0.0023855998 -0.012842051 0.022700168
000130 47 d9 20 3c 50 37 38 3c 22 99 02 3e 7d b2 ef 3d
       0.009817428 0.011243656 0.12753728 0.11703966
000140 ce e3 80 bc 68 ce ec bb 7a b9 a3 37 d8 b2 8a 3b
       -0.015733626 -0.007226754 1.9517483e-05 0.0042327456
000150 ca 6d f5 b9 93 ff 40 bc 61 a9 2c bb f6 bf 47 3c
       -0.0004681184 -0.011779684 -0.0026346075 0.012191763
000160 e8 da dc 3c 3c 68 2f bc 36 4c 27 bc e9 25 fa bb
       0.026959851 -0.010706004 -0.010211041 -0.007633914
000170 75 e9 b6 3d 69 0c c1 3d ec d2 05 3e 74 06 dc 3b
       0.08931247 0.09426195 0.13068742 0.0067146365
000180 24 2f 24 bc 6b 76 24 3d a1 6b 3c bb 90 75 c0 3b
       -0.010021005 0.040151995 -0.0028750675 0.0058733895
000190 25 55 39 3d f8 7d 64 3b 64 4d e6 b9 e3 92 f0 bb
       0.045247216 0.0034865122 -0.0004392668 -0.007341729
0001a0 b7 2e f5 3c f9 18 1d 3e fb cf 70 3a 2e 06 04 bb
       0.029929502 0.15341558 0.0009186265 -0.0020145285
0001b0 7c 86 72 3c 4c 7b 76 3b 8d d8 28 b9 3e 28 20 bc
       0.014802571 0.0037610112 -0.000161024 -0.0097752195
0001c0 8a 1d a4 3d 3a d3 dd 3c 59 0d 11 3c 4e 12 32 3c
       0.08013447 0.02707826 0.00885328 0.010868622
0001d0 73 8c fb 3b fa ad 91 3d b3 f6 bb 3b fa 03 2b 3d
       0.007676655 0.071132615 0.005736196 0.04175184
0001e0 bb c7 04 bc 83 8a a2 3c 7a 26 05 3c 33 e9 3b 3d
       -0.00810426 0.019841438 0.008126849 0.045876693
0001f0 a0 12 aa 3c 9a e9 a2 bc 77 00 a9 ba f9 59 b2 bb
       0.020760834 -0.01988678 -0.0012893815 -0.0054428545

std.constant8 f4 [128]
000000 b0 16 81 bc 4b 10 76 3c 2d f0 ba 3a 81 0a 51 bb
       -0.015757889 0.015018533 0.0014262252 -0.003189713
000010 56 8b ac 3a 63 24 54 bc fa 35 54 3c 19 1c 96 ba
       0.0013164084 -0.012948128 0.012952322 -0.0011452466
000020 42 1f 35 38 85 0e 56 3c 2b 4a eb 3a 6a b2 e5 ba
       4.3182874e-05 0.013064985 0.0017951181 -0.0017524485
000030 40 7c 95 3c 25 4f 72 bc 9f 59 5d 3c aa 68 42 ba
       0.018247724 -0.014789377 0.013510137 -0.0007416109
000040 b1 d6 e2 ba c6 d5 a3 3c 0f c0 f5 3b 40 cb 92 bc
       -0.0017306415 0.019999396 0.007499702 -0.017919183
000050 f4 aa 7f ba 68 ab b0 bb e8 ad 82 3c 5f f2 3a 3b
       -0.0009752952 -0.005391527 0.015952066 0.0028525812
000060 a0 60 9e 3a bd 21 e3 ba 69 c4 7a bc bd 7e f3 ba
       0.001208324 -0.001732878 -0.015305617 -0.00185772
000070 ea ac 4c 3b 43 2e 80 3c 77 4f 32 3c b4 f4 13 bb
       0.0031230995 0.01564706 0.010883204 -0.0022576274
000080 ad 04 db 3b eb bf 2f 3b 6e 1f 34 bc 6f bb 7d 3c
       0.006683907 0.0026817273 -0.010993822 0.015486582
000090 17 8b bc 3b 92 59 e8 bb 6e a4 7b bc ac 56 3e 3c
       0.0057538855 -0.0070907557 -0.015359027 0.011617344
0000a0 d1 c6 8f ba 7b 62 ab 3b 67 db f5 3b cd 0d f1 3b
       -0.0010969286 0.0052302456 0.0075029614 0.0073563815
0000b0 07 af 58 3c 8a ee 7f 3a 34 c2 05 bc 27 7e 0b 3c
       0.0132253235 0.0009763023 -0.008163977 0.008513964
0000c0 e5 59 0b bb 5d 32 53 bc 53 6f b0 bb e4 81 87 bc
       -0.0021263298 -0.0128904255 -0.0053843646 -0.016541429
0000d0 9b ae 91 3a a1 f8 94 3c 7d 58 6e 3b f8 88 81 3c
       0.0011114659 0.018184962 0.003636866 0.015812382
0000e0 04 2e 6c 3b 60 db 9f bb d4 d3 0f bb 1d 0b e5 3a
       0.003603817 -0.0048784465 -0.0021946328 0.0017474625
0000f0 17 fe b5 3b bc 37 c4 3b 42 fd 42 39 3c ba 0f bb
       0.0055539715 0.0059880894 0.00018595628 -0.0021931073
000100 62 44 09 3c 0b 21 10 3a f0 d3 19 bc 46 71 40 3b
       0.00837812 0.0005498088 -0.009388909 0.0029364391
000110 7e be 82 3b 7c 2b ca 3b 4d b0 b0 ba 62 87 a3 3b
       0.0039899936 0.0061697345 -0.0013480276 0.004990504
000120 d1 4c 1b 3c 52 37 e8 ba 3e c3 75 3c 77 bb 95 ba
       0.009478764 -0.0017716682 0.015000163 -0.0011423667
000130 7a 3d 3e ba 06 48 73 3a 7c 84 5d bc e0 15 fc ba
       -0.00072570855 0.00092804467 -0.013520356 -0.0019232593
000140 64 09 6b 3c 90 cd c8 3b d6 3d a7 bc 1d 33 3a 3c
       0.014345501 0.0061280206 -0.020415228 0.011364725
000150 5b fa 18 3b be 1b 81 bb 37 7f 3b 3a ae c1 c3 38
       0.0023342583 -0.0039400747 0.00071524404 9.3344e-05
000160 d0 fd fb 3b 77 90 36 3c 66 d9 34 3c d1 ce 2c 3c
       0.007690169 0.011142842 0.01103816 0.010547356
000170 64 f1 b4 3b 10 dd 75 3c 85 a3 62 bc ff 73 c5 ba
       0.00552194 0.015006319 -0.013832931 -0.0015064477
000180 1b f7 91 bc 42 37 8e 39 92 7d 63 bb 98 ab 8f ba
       -0.017818024 0.0002712552 -0.0034712297 -0.0010961173
000190 94 83 aa 3c 24 ae c0 3a d6 bd 11 3b 7d a4 4f 3c
       0.020814694 0.0014700335 0.0022238395 0.012673494
0001a0 93 7c 91 ba bb cd f0 ba cc 9d 6d bc 8c b8 1e bb
       -0.0011099748 -0.0018371859 -0.014502954 -0.0024218885
0001b0 f6 a7 44 3b 49 2b 07 3c d6 a7 94 3c 67 3d 67 bc
       0.003000734 0.008250066 0.018146437 -0.014113761
0001c0 e5 c7 1f bc 5a 9a a1 bb 87 64 ef 3a 82 ac 80 3b
       -0.009752248 -0.00493173 0.0018264212 0.0039268145
0001d0 61 dd cf ba 11 a9 f4 3b cd 0b 8e 3b 70 44 27 ba
       -0.0015858823 0.0074664433 0.004334903 -0.00063807424
0001e0 11 59 7f 39 97 23 89 bc b0 8e 8b 3c bb fe 5a bb
       0.00024351875 -0.016740603 0.017035812 -0.0033415991
0001f0 dd f9 d7 bb 9e 1c 55 3c 8d a3 1f 3b e0 f9 c2 bb
       -0.0065910653 0.013007311 0.0024358958 -0.0059501976

std.constant9 f4 [128]
000000 00 00 80 3f 00 00 80 3f 00 00 80 3f 00 00 80 3f
       1.0 1.0 1.0 1.0
000010 00 00 80 3f 00 00 80 3f 00 00 80 3f 00 00 80 3f
       1.0 1.0 1.0 1.0
000020 00 00 80 3f 00 00 80 3f 00 00 80 3f 00 00 80 3f
       1.0 1.0 1.0 1.0
000030 00 00 80 3f 00 00 80 3f 00 00 80 3f 00 00 80 3f
       1.0 1.0 1.0 1.0
000040 00 00 80 3f 00 00 80 3f 00 00 80 3f 00 00 80 3f
       1.0 1.0 1.0 1.0
000050 00 00 80 3f 00 00 80 3f 00 00 80 3f 00 00 80 3f
       1.0 1.0 1.0 1.0
000060 00 00 80 3f 00 00 80 3f 00 00 80 3f 00 00 80 3f
       1.0 1.0 1.0 1.0
000070 00 00 80 3f 00 00 80 3f 00 00 80 3f 00 00 80 3f
       1.0 1.0 1.0 1.0
000080 00 00 80 3f 00 00 80 3f 00 00 80 3f 00 00 80 3f
       1.0 1.0 1.0 1.0
000090 00 00 80 3f 00 00 80 3f 00 00 80 3f 00 00 80 3f
       1.0 1.0 1.0 1.0
0000a0 00 00 80 3f 00 00 80 3f 00 00 80 3f 00 00 80 3f
       1.0 1.0 1.0 1.0
0000b0 00 00 80 3f 00 00 80 3f 00 00 80 3f 00 00 80 3f
       1.0 1.0 1.0 1.0
0000c0 00 00 80 3f 00 00 80 3f 00 00 80 3f 00 00 80 3f
       1.0 1.0 1.0 1.0
0000d0 00 00 80 3f 00 00 80 3f 00 00 80 3f 00 00 80 3f
       1.0 1.0 1.0 1.0
0000e0 00 00 80 3f 00 00 80 3f 00 00 80 3f 00 00 80 3f
       1.0 1.0 1.0 1.0
0000f0 00 00 80 3f 00 00 80 3f 00 00 80 3f 00 00 80 3f
       1.0 1.0 1.0 1.0
000100 00 00 80 3f 00 00 80 3f 00 00 80 3f 00 00 80 3f
       1.0 1.0 1.0 1.0
000110 00 00 80 3f 00 00 80 3f 00 00 80 3f 00 00 80 3f
       1.0 1.0 1.0 1.0
000120 00 00 80 3f 00 00 80 3f 00 00 80 3f 00 00 80 3f
       1.0 1.0 1.0 1.0
000130 00 00 80 3f 00 00 80 3f 00 00 80 3f 00 00 80 3f
       1.0 1.0 1.0 1.0
000140 00 00 80 3f 00 00 80 3f 00 00 80 3f 00 00 80 3f
       1.0 1.0 1.0 1.0
000150 00 00 80 3f 00 00 80 3f 00 00 80 3f 00 00 80 3f
       1.0 1.0 1.0 1.0
000160 00 00 80 3f 00 00 80 3f 00 00 80 3f 00 00 80 3f
       1.0 1.0 1.0 1.0
000170 00 00 80 3f 00 00 80 3f 00 00 80 3f 00 00 80 3f
       1.0 1.0 1.0 1.0
000180 00 00 80 3f 00 00 80 3f 00 00 80 3f 00 00 80 3f
       1.0 1.0 1.0 1.0
000190 00 00 80 3f 00 00 80 3f 00 00 80 3f 00 00 80 3f
       1.0 1.0 1.0 1.0
0001a0 00 00 80 3f 00 00 80 3f 00 00 80 3f 00 00 80 3f
       1.0 1.0 1.0 1.0
0001b0 00 00 80 3f 00 00 80 3f 00 00 80 3f 00 00 80 3f
       1.0 1.0 1.0 1.0
0001c0 00 00 80 3f 00 00 80 3f 00 00 80 3f 00 00 80 3f
       1.0 1.0 1.0 1.0
0001d0 00 00 80 3f 00 00 80 3f 00 00 80 3f 00 00 80 3f
       1.0 1.0 1.0 1.0
0001e0 00 00 80 3f 00 00 80 3f 00 00 80 3f 00 00 80 3f
       1.0 1.0 1.0 1.0
0001f0 00 00 80 3f 00 00 80 3f 00 00 80 3f 00 00 80 3f
       1.0 1.0 1.0 1.0

std.constant10 f4 [128]
000000 26 c3 3e bc d4 ba 9d bc f2 19 8c ba 58 27 03 3c
       -0.011643207 -0.019254126 -0.0010688885 0.008004986
000010 c5 8c c4 3c f1 c0 8a 3c 60 ef 46 bc aa b4 5b 3b
       0.023992905 0.016937705 -0.012142032 0.0033524432
000020 46 22 91 3d a7 9e e8 3b 2a 6c 71 bb a2 5f b5 bb
       0.07086615 0.007098991 -0.0036838152 -0.005535082
000030 c5 12 b6 3c b8 e2 9e bc 71 c6 49 bc de 64 97 3c
       0.022225747 -0.019395217 -0.0123153785 0.018480714
000040 db 8c 07 3d 3b ee ad 3a e4 ad 92 bb 21 4a fe 3c
       0.033093315 0.0013269851 -0.004476296 0.031041207
000050 87 9c ee 3c b6 f4 8a 3d e9 6e 85 bc d0 71 a2 3b
       0.029127372 0.06784956 -0.016288238 0.004957415
000060 3c ef 92 bb 0d 11 d3 bb 66 f1 d7 b9 90 47 a4 bb
       -0.0044840854 -0.0064412416 -0.00041187851 -0.0050134137
000070 f0 8f e5 38 c4 43 6d bc 92 ad 2f bc dd 49 95 3c
       0.000109463814 -0.014481489 -0.010722535 0.018223697
000080 04 d4 23 bc ad c2 92 b9 2c b3 4a bc 24 60 f4 3d
       -0.009999279 -0.00027992335 -0.0123718195 0.119324
000090 86 be ab 3d 68 16 9f ba e3 02 63 bc be 98 46 bc
       0.08385949 -0.0012137415 -0.013855669 -0.0121213775
0000a0 6e 90 1a 3e b9 36 1a 3d e4 60 8d bc 82 ff 96 3b
       0.15094158 0.037649844 -0.017258115 0.0046080956
0000b0 cc 25 56 bc e9 a1 13 bb 2f 40 37 bc a9 3f 9b 3b
       -0.013070535 -0.0022526926 -0.011184736 0.0047378135
0000c0 5c 33 0a 3c a7 40 db 3d 9a 5e f5 bb 4a 0b c0 bb
       0.008435097 0.10705691 -0.007488084 -0.0058607208
0000d0 85 50 64 3c ad de 93 3b 14 63 3d bb 46 a9 45 bc
       0.013935213 0.004512629 -0.0028898166 -0.012064284
0000e0 c9 4d 2f bb 46 e5 84 bb dd 27 b5 ba a1 cc af 3d
       -0.0026749244 -0.004055652 -0.0013821084 0.08583952
0000f0 87 a7 ed bb 2c e2 6a bb a5 27 00 3d fc a6 92 3d
       -0.007252637 -0.0035840375 0.031287808 0.07160756
000100 68 0e 07 bc 7b 86 1c 3d 91 3c 08 bc 2f cc 79 3c
       -0.008243181 0.038214188 -0.008315221 0.015246435
000110 f8 4b d4 3a 20 c6 2b bb fa 19 ca 3a 96 90 09 3d
       0.0016196957 -0.002621062 0.0015419119 0.033585154
000120 d7 23 87 bc 7a 60 fb ba 95 7c 51 bc 68 8c b8 3c
       -0.016496582 -0.0019178533 -0.01278605 0.022527888
000130 31 c6 17 3c 35 4e 18 3c 71 bf 04 3e ca de ed 3d
       0.009263561 0.00929599 0.12963654 0.11614759
000140 82 b7 7c bc 75 e1 f9 bb 42 01 0f 3a 20 90 7e 3b
       -0.015424611 -0.0076257535 0.00054552045 0.003884323
000150 b0 f9 60 b9 66 46 41 bc b3 b6 32 bb 92 9c 47 3c
       -0.0002145532 -0.011796569 -0.0027269542 0.012183325
000160 30 15 de 3c 41 04 30 bc ad 3a 27 bc ac 11 f2 bb
       0.027109712 -0.010743202 -0.0102068605 -0.0073873606
000170 6d 84 b8 3d 83 ec bd 3d 9b f2 03 3e 48 90 ec 3b
       0.09009633 0.09273627 0.12885515 0.007219348
000180 aa 45 1f bc 50 c8 26 3d 27 13 3a bb 6b bf c3 3b
       -0.009721199 0.040718377 -0.0028392763 0.0059737465
000190 4d 65 3b 3d 85 ae 9e 3b 5b 79 09 b8 67 f5 ec bb
       0.045750905 0.0048425817 -3.2776366e-05 -0.0072314027
0001a0 15 8f f3 3c d6 80 1d 3e 32 b3 79 3a 7c ac 03 bb
       0.029731313 0.15381178 0.00095252984 -0.0020091822
0001b0 bd 89 76 3c 81 0f 66 3b b9 ba 1f 3a 1e e1 1b bc
       0.015047488 0.0035104456 0.00060931925 -0.009514121
0001c0 f8 44 a4 3d a8 f8 d3 3c 20 11 22 3c 49 07 30 3c
       0.08020967 0.025875404 0.009891778 0.010743924
0001d0 e3 b3 ea 3b 2d bc 8f 3d 1c c1 b3 3b 96 de 28 3d
       0.0071625574 0.070183136 0.005485667 0.0412279
0001e0 81 c2 f4 bb dd 2b 9e 3c 6f 0a 01 3c 47 a9 36 3d
       -0.0074694757 0.019308025 0.007876023 0.04459503
0001f0 28 71 aa 3c d4 6c a1 bc fc 55 e2 ba 0a 9d b0 bb
       0.02080591 -0.019705214 -0.0017268057 -0.0053898143

std.constant11 f4 [128, 9]
000000 2f fa 8d bd 47 cd 28 bd 16 50 5c 3d 7a 25 a4 bc
       -0.06932484 -0.041211393 0.053787313 -0.020037401
000010 18 33 af 3d 10 ea 93 bd 06 53 72 bc 96 9d 2f 3d
       0.08554667 -0.07222378 -0.014790302 0.042874895
000020 f2 5a d0 bd b7 9a 8a 3d 3f c0 74 3a e8 96 07 bc
       -0.101735964 0.06767791 0.0009336508 -0.008275725
000030 a9 99 22 3c 45 76 42 3c 4e 27 f8 bd 0d 36 53 bd
       0.009924331 0.011869018 -0.12116872 -0.05156522
000040 34 b4 64 bb 70 1d a6 bd 21 af 09 3e 07 b0 c8 3d
       -0.0034897448 -0.081110835 0.13445713 0.097991996
000050 0c 4a a3 3d 46 48 bf bd dc 26 97 3d 52 22 f9 bc
       0.07973108 -0.09339957 0.07380459 -0.030411873
000060 c9 78 b1 bd 89 23 ae 3d 16 4d 63 bd b1 ac 8b 3d
       -0.08665616 0.085028715 -0.055493437 0.06820048
000070 b1 01 83 3d e2 84 47 bd 15 56 58 3c 1e d6 d1 bd
       0.06396807 -0.04871071 0.013204117 -0.10245918
000080 c5 ca be bd cf 9d 42 bd 35 6a 84 3d 47 d5 03 be
       -0.09316019 -0.04751378 0.0646557 -0.12874328
000090 bd 70 0a 3e 2a 86 01 3d 1a b1 30 3d db 80 5e bd
       0.13519569 0.03162209 0.043137647 -0.054322105
0000a0 3e 51 a5 3d 7d 80 c4 bc 65 b4 18 3d 3c a5 e4 3d
       0.08072136 -0.02398705 0.037281413 0.111643285
0000b0 48 2d 29 3d 34 a6 40 3e 04 48 a1 bd 05 d8 3b bd
       0.04130295 0.18813401 -0.07875064 -0.04586031
0000c0 7c 28 b8 3d 81 4c bb bd 8a 0a 81 3c fe 06 5b ba
       0.08992097 -0.09145451 0.015752096 -0.0008355229
0000d0 ef cb 9b bd 89 90 1b bd 16 8b fa bc a5 bd e8 bb
       -0.076072566 -0.037979636 -0.0305839 -0.0071026855
0000e0 f7 54 67 3d 9a 48 9e ba bd b7 14 bd b2 ee 72 3d
       0.056477513 -0.001207608 -0.03630804 0.05930967
0000f0 aa 0d db bd d4 44 52 3d fd 10 8c 3c 0c dc 2c 3e
       -0.106959656 0.05133517 0.017097944 0.16880816
000100 9a c8 97 3d 8f be 0a 3d 6a 77 2b bd 1e cb 81 bd
       0.074113086 0.033873137 -0.04186193 -0.0633757
000110 e8 a2 21 3c 34 2f 42 bd 14 48 8c bc 90 37 63 3b
       0.0098655 -0.047408298 -0.017124213 0.003467057
000120 e6 df 25 3e 20 06 dd 3d 81 b5 2a 3e 7d 2b 55 bd
       0.16198692 0.10792184 0.16670801 -0.052043427
000130 e7 42 74 3d b8 28 bc 3d f6 96 d1 3c de 9c 94 3d
       0.059634116 0.09187454 0.02558468 0.072564825
000140 05 76 c6 bd 55 55 ac 3d 2b 4f dc bb bf 92 42 3d
       -0.09690479 0.08414713 -0.0067233047 0.04750323
000150 91 dc 8b 3d 97 83 30 3d ee e3 55 3c 90 2b f7 bc
       0.06829179 0.043094244 0.013054831 -0.03017214
000160 ce c2 1c 3d 2c 86 b3 bd f6 3c 11 3e 45 85 af 3d
       0.038271718 -0.08765826 0.14183411 0.08570341
000170 b6 56 db 3c 6e e8 28 3d 93 36 93 3d 8c 69 ef bc
       0.026774745 0.041237287 0.071881436 -0.029225133
000180 6e 06 58 bd 80 ce ce bc 52 e5 e4 bb 66 eb c2 3c
       -0.052740507 -0.025244951 -0.006985345 0.023793887
000190 b3 07 6d bd 7e 65 8a 3d c6 4f d1 bc a0 3d 93 bc
       -0.05786867 0.06757639 -0.025550734 -0.017973721
0001a0 44 17 34 bd 5b ae b3 bd ba c7 29 3d 16 15 aa 3d
       -0.0439675 -0.0877349 0.04145024 0.08304803
0001b0 fe d6 15 3e 9d bb c9 3d 52 8f 46 3d 48 89 b6 3d
       0.14632794 0.098502375 0.048476525 0.08912903
0001c0 80 31 86 bd c9 ef 00 3d 47 89 1a 3d 20 bd ec 3d
       -0.0655241 0.031478677 0.037728574 0.1155951
0001d0 27 4b 90 bd ef 6c 9c bd 99 03 1b 3d c7 4f 85 3d
       -0.07045584 -0.07637965 0.037845228 0.06509357
0001e0 84 da d3 bd 35 30 94 3d 86 78 cb bb 3b 00 9b bd
       -0.10344413 0.07235757 -0.006209436 -0.07568403
0001f0 c9 97 62 3d c0 99 35 3b 75 88 00 bd 6f 8b aa bd
       0.055320535 0.002771005 -0.031380136 -0.08327376
000200 b9 8f e8 bb f3 00 96 bd ef 6a c3 3d 08 05 f0 bd
       -0.007097211 -0.073244 0.0954188 -0.1171971
000210 0f 3c 3d bd ec 9b a1 3d d4 52 e5 bd c5 61 d5 3d
       -0.046199854 0.07891068 -0.11197439 0.10419039
000220 4e f3 ae 3d d3 a4 4c bc 60 7e 2c bc 50 ce e2 bd
       0.085425004 -0.012490469 -0.010528177 -0.11074507
000230 fc 41 41 3d 6b 7a 8c 3d b9 54 39 bd fe 99 a3 3d
       0.04718207 0.06859287 -0.045246813 0.07988356
000240 eb dd f3 3b 41 c5 38 3d 45 2b 8c 3b 13 30 f6 3d
       0.007442226 0.04510999 0.004277619 0.12020888
000250 37 a4 c4 3d 98 66 75 bc 60 3f 00 bd d9 5c da 3d
       0.09601634 -0.014978074 -0.03131044 0.106622405
000260 bc 97 9f bd fc 04 b2 3c 77 8e d6 ba f5 89 a1 bc
       -0.07792613 0.021730892 -0.0016369362 -0.019719103
000270 72 64 a0 3c a8 3b 05 bd 98 2f 82 3d 9a aa 40 bb
       0.019579146 -0.032527596 0.06356734 -0.0029398561
000280 c8 2c 87 3d 02 e5 c3 bd 8a 1b ec 3d a3 ef 4f bd
       0.06600338 -0.09565164 0.1152869 -0.050765645
000290 2f aa 30 bd 9b b6 df 3b 76 70 6e bd ea 1b 1e 3c
       -0.04313105 0.006827188 -0.05821272 0.00965021
0002a0 34 ec 2e bd 4b c9 cf 3c 65 ed 9e 3d bf f8 eb bd
       -0.04270573 0.025364539 0.07760123 -0.11522054
0002b0 cd 0e 02 3e a0 aa df 3d 05 3f 40 3d 84 f4 44 bd
       0.12700959 0.10921216 0.0469351 -0.04808475
0002c0 dc 31 8c bd 0c 1f 15 bc fc 0e 0a 3e 8d e9 6f 3d
       -0.068454474 -0.00910164 0.13482279 0.05857234
0002d0 d0 60 3f 3d 15 7d c3 3d b3 93 40 3d d3 49 41 3d
       0.046723187 0.09545342 0.047015857 0.047189545
0002e0 2f ab 32 bd b7 f7 b7 3c 9e a0 e5 3d 41 30 37 bd
       -0.043620285 0.022456987 0.11212276 -0.044723753
0002f0 fe 3e df bd 01 f7 09 3d c8 af 2f 3e a4 fe 27 3e
       -0.10900687 0.033682827 0.17156899 0.16405731
000300 37 ef e5 3d dc db 3f bd d6 38 d3 3d 36 75 a4 bc
       0.11227267 -0.046840534 0.10313575 -0.020075422
000310 77 4e 15 3e 30 39 95 bd 5b ed 9a bc bb 54 bb bd
       0.14580713 -0.07286298 -0.018912008 -0.091470204
000320 69 06 d2 bd d3 32 31 3c 45 f1 6b 3c 2e de 9e 3d
       -0.10255129 0.01081534 0.014400785 0.07757221
000330 3b 69 02 3c a7 8d ef bd 6a 82 98 bd 8a c9 23 3e
       0.007959659 -0.1169694 -0.074467495 0.1599485
000340 df 3e 71 bd 13 f9 a1 3b d9 e9 9c 3d 73 79 35 3b
       -0.05889785 0.004943022 0.076617904 0.0027690798
000350 da bf 52 b8 0f d5 83 3d 67 5a ca bd 47 56 8f bd
       -5.0246577e-05 0.06437122 -0.09880524 -0.06998878
000360 ba c2 2f bc 63 82 8b 3d 0e 58 c0 3d 15 a9 68 bc
       -0.010727579 0.06811979 0.09391795 -0.014200469
000370 68 ef 46 3d 00 cc 7c bd 6d fd 3c bd 01 4e c7 3c
       0.04856816 -0.061717987 -0.046140123 0.024329187
000380 88 67 ae 3d 1a 12 e6 bc 07 b3 1f 3d c3 72 6c bd
       0.08515841 -0.028084803 0.038989093 -0.057726633
000390 ae 99 6e 3c 99 1c 87 3d 15 9e cb 3d af 67 ca bd
       0.014563007 0.065972514 0.09942261 -0.09883057
0003a0 be ba dd bc 79 a2 76 bd a8 09 88 bd 39 4d d1 3d
       -0.027066585 -0.06021354 -0.06642467 0.10219807
0003b0 6d 34 02 3c f6 4a ab bc c9 bc be 3d 32 56 39 3d
       0.00794707 -0.020909768 0.09313352 0.045248218
0003c0 ff 7c bb bd 77 f4 fa bc a4 da 54 bd 5f d2 2a bd
       -0.091547005 -0.030634148 -0.051966324 -0.04170453
0003d0 4a b6 ca 3c ee 03 4b 3d ae c9 9b 3d fc a3 6c bd
       0.024745125 0.049564295 0.07606827 -0.057773575
0003e0 dc 2d 7f 3d 79 c3 79 bd a7 1a c2 3c bf 81 fe 39
       0.062299594 -0.060977433 0.02369435 0.00048543324
0003f0 29 55 87 3c 0c 2e 86 3c e6 3c 72 3d a7 49 42 3d
       0.0165201 0.016379379 0.05914011 0.04743352
