AirQualityApp/AirQualityApp.Android/Assets/RomeLong.tflite (tflite, 810852 bytes, 24 tensors)

std.constant3 f4 [128, 128]
0.023028279 0.0017040657 -0.058395613 0.07508038 0.0754856 0.0033946196 -0.0033665337 0.035645705
-0.05240879 -0.043126687 0.00043576257 0.0011160458 0.012356734 -0.08729023 -0.07396835 0.07079885
0.063011065 -0.047943395 0.0056201117 -0.0072995266 0.023773046 0.026081553 0.069128044 0.00495185
0.056119177 0.10216586 -0.05685013 0.068251744 -0.024828464 -0.037887316 -0.039023183 -0.02478993
-0.02631386 0.04882465 -0.022911042 -0.026721038 -0.0016426146 0.028268887 0.03284975 -0.05617794
0.0508268 0.0642761 0.035415716 -0.0026910622 0.025198536 -0.025584865 -0.034575045 -0.062307395
-0.09820405 0.046263494 -0.14290744 0.07575342 -0.0012716157 0.00085618603 -0.105595425 0.025966663
-0.0066396976 0.045282558 0.024566803 -0.023178305 0.036527842 -0.017003953 0.053934626 0.03903218
0.04427679 0.002084725 -0.0032162871 -0.036218897 0.0539758 -0.013458869 0.06488704 -0.028737068
0.016381202 0.03808179 0.08608022 0.096172534 0.034170773 -0.044676993 -0.008361515 -0.09598496
-0.009756718 -0.0049322573 -0.053267937 0.02123338 -0.04269594 -0.020381693 0.06352915 0.053637356
-0.008884784 -0.053607114 -0.08481624 0.039600834 0.06819595 -0.015393051 -0.0179897 -0.030219723
-0.05386376 0.0013418184 0.046599403 0.056240883 -0.010142002 0.0010089613 0.079490796 -0.029453482
-0.032052968 0.015647836 -0.0110663725 -0.011965191 -0.0021568332 -0.07279254 0.05080945 0.002653493
0.07780465 0.034409784 -0.024525037 0.029802933 -0.021924593 -0.0279527 0.01907858 -0.014273904
-0.013347071 -0.028251313 -0.012730933 -0.010171008 -0.06447125 -0.028081408 0.0083391955 0.03616621
-0.048396874 0.030543849 0.03983568 0.045606647 -0.019858954 0.082880564 0.017730074 -0.022033464
0.008217771 0.046647787 -0.041414592 -0.04247054 -0.013186089 0.0524999 0.044656347 -0.030754419
0.018161507 0.029614972 -0.023096604 0.0016758004 0.031236902 -0.071123555 -0.045246728 0.08290763
-0.039580792 0.009559896 -0.004502604 0.03261419 0.08637393 -0.01381574 0.04904656 0.059399694
-0.038855422 0.094388045 0.027595717 -0.017461037 -0.1389904 -0.032855332 0.03568483 -0.01591027
0.014832847 -0.015290638 0.021079965 0.008538783 -0.055879507 -0.007515604 0.0071095126 -0.00041179731
0.059428707 0.06875066 0.07073681 -0.073382035 0.002784878 -0.020572532 -0.051373065 0.014547966
-0.02936094 -0.015174414 -0.004575056 -0.050999563 0.11522257 -0.022361334 -0.037719246 0.0554372
-0.06924874 -0.024680441 0.002894543 -0.059356853 0.014011362 0.061316937 -0.029573908 0.024816068
0.010067346 0.024021724 0.009421272 0.04245985 -0.012654886 -0.027359145 -0.012390269 -0.014245037
-0.040756505 0.06585175 -0.026986482 0.026098311 -0.09063994 0.012442144 -0.0952515 -0.0068851076
-0.10311267 0.085735604 -0.043454196 -0.04997218 -0.0024644993 0.03217639 0.06762639 0.05926463
0.06587538 0.002841251 -0.052150145 -0.007414979 0.034885924 0.00015776441 0.03536223 -0.023940569
0.003266762 0.03926454 0.03526367 0.01478892 -0.099403925 -0.08155228 0.016976409 -0.03606397
-0.021110468 0.030939419 -0.024362776 0.098582335 -0.03340695 -0.035752673 -0.029168706 0.0037175296
0.01074719 0.025871985 -0.051559843 -0.055274907 0.0758729 0.045576666 0.01328919 -0.017464176
00000000: cda5 bc3c f55a df3a 3d30 6fbd bec3 993d
00000010: 3298 9a3d 4478 5e3b 10a1 5cbb 3b01 123d
00000020: 99aa 56bd 9ca5 30bd 1077 e439 4848 923a
00000030: e673 4a3c 38c5 b2bd b87c 97bd fdfe 903d
00000040: f20b 813d 4b60 44bd ea28 b83b de30 efbb
00000050: b1bf c23c fba8 d53c 0193 8d3d 2143 a23b
00000060: 39dd 653d 563c d13d afdb 68bd 92c7 8b3d
00000070: 1065 cbbc bb2f 1bbd c6d6 1fbd 4014 cbbc
00000080: 2a90 d7bc 5bfc 473d f0af bbbc 14e6 dabc
00000090: 004d d7ba 2794 e73c 768d 063d d71a 66bd
000000a0: c32f 503d 30a3 833d 1210 113d 885c 30bb
000000b0: 296d ce3c 5a97 d1bc 909e 0dbd 0a36 7fbd
000000c0: 341f c9bd ca7e 3d3d 5456 12be 9c24 9b3d
000000d0: 58ac a6ba ac71 603a 6a42 d8bd 0ab8 d43c
000000e0: d291 d9bb 347a 393d 5240 c93c 6ee0 bdbc
000000f0: 389e 153d e04b 8bbc 8eea 5c3d 35e0 1f3d
00000100: 945b 353d e29f 083b 58c8 52bb 445a 14bd
00000110: ba15 5d3d 9782 5cbc 7fe3 843d 006a ebbc
00000120: df31 863c a7fb 1b3d d44a b03d 1bf6 c43d
00000130: a7f6 0b3d 39ff 36bd bcfe 08bc c393 c4bd
00000140: a4da 1fbc c69e a1bb 7b2f 5abd a0f1 ad3c
00000150: f0e1 2ebd 82f7 a6bc 921b 823d d8b2 5b3d
00000160: 7c91 11bc 2293 5bbd 23b4 adbd 7c34 223d
00000170: 51aa 8b3d 2333 7cbc 235f 93bc 5a8f f7bc
00000180: 3fa0 5cbd f4df af3a 04df 3e3d d75c 663d
00000190: a42a 26bc 203f 843a 12cc a23d 6e48 f1bc
000001a0: f949 03bd e42f 803c bb4f 35bc a609 44bc
000001b0: a859 0dbb 4114 95bd 921d 503d 3ae6 2d3b
000001c0: 0b58 9f3d 46f1 0c3d bbe8 c8bc 4825 f43c
000001d0: 349b b3bc 10fd e4bc af4a 9c3c 18dd 69bc
000001e0: acad 5abc 4c6f e7bc 6795 50bc 4da4 26bc
000001f0: 8109 84bd fb0a e6bc 1fa1 083c 0523 143d
00000200: cd3b 46bd 1837 fa3c bd2a 233d 09ce 3a3d
00000210: 3faf a2bc 49bd a93d a93e 913c 867f b4bc
00000220: d4a3 063c c011 3f3d 59a2 29bd 97f5 2dbd
00000230: 770a 58bc 230a 573d 93e9 363d b1f0 fbbc
00000240: 71c7 943c 199b f23c 1735 bdbc 88a6 db3a
00000250: 88e4 ff3c 3aa9 91bd a254 39bd 7acb a93d
00000260: 781f 22bd 1ca1 1c3c 948a 93bb 7596 053d
00000270: d1e4 b03d 6a5b 62bc 0ce5 483d 184d 733d
00000280: dd26 1fbd 854e c13d 6a10 e23c 730a 8fbc
00000290: 8053 0ebe 5093 06bd 422a 123d 4156 82bc
000002a0: 7805 733c 9685 7abc e4af ac3c 40e6 0b3c
000002b0: e9e1 64bd 7545 f6bb eaf6 e83b 80e6 d7b9
000002c0: 846b 733d 25cd 8c3d 76de 903d 5249 96bd
000002d0: 8082 363b ba87 a8bc 906c 52bd 985a 6e3c
000002e0: 5b86 f0bc 1b9e 78bc 5aea 95bb ebe4 50bd
000002f0: d0f9 eb3d 1e2f b7bc 7f7f 1abd 1e12 633d
00000300: 49d2 8dbd a32e cabc 60b2 3d3b 2c20 73bd
00000310: e98f 653c 7827 7b3d fb44 f2bc 114b cb3c
00000320: 82f1 243c 35c9 c43c ae5b 1a3c 61ea 2d3d
00000330: 7056 4fbc 4920 e0bc 8e00 4bbc 0464 69bc
00000340: 4bf0 26bd 48dd 863d c112 ddbc 20cc d53c
00000350: 6fa1 b9bd 22da 4b3c 3813 c3bd 789c e1bb
00000360: bc2c d3bd 2696 af3d 07fd 31bd a1af 4cbd
00000370: 7083 21bb 64cb 033d b47f 8a3d 78bf 723d
00000380: ace9 863d 4834 3a3b 649b 55bd 5af9 f2bb
00000390: 8be4 0e3d 906d 2539 fcd7 103d 031f c4bc
000003a0: 2c17 563b dbd3 203d a370 103d 3a4d 723c
000003b0: 4994 cbbd e204 a7bd 1c12 8b3c d0b7 13bd
000003c0: dcef acbc aa74 fd3c 7294 c7bc 89e5 c93d
000003d0: bad5 08bd 6571 12bd 36f3 eebc cca1 733b
000003e0: fb14 303c 7cf1 d33c 6a30 53bd f167 62bd
000003f0: 4063 9b3d 99ae 3a3d e7ba 593c 0811 8fbc

std.constant4 f4 [128, 128]
0.014696686 -0.0020664488 0.012339948 0.048369087 -0.040677644 -0.073387764 -0.00067533064 -0.031078907
0.0051623965 0.03263555 -0.0032008872 0.029750932 -0.037612498 0.07073279 -0.0018872991 -0.05695599
0.023633702 -0.011505138 -0.04155276 0.011178755 0.030926408 0.05536241 0.015354155 -0.043901272
-0.01978957 0.04815508 -0.010314709 0.053164266 0.010834022 -0.06006085 0.038731344 -0.05473192
-0.074483454 0.066240996 -0.095403716 0.056717448 -0.02365103 -0.03192957 0.028324539 -0.020759491
-0.018363565 -0.026203861 0.0092098 0.028554102 0.014267296 0.04920814 -0.024521053 -0.038155444
0.023026913 0.020856906 -0.060276143 0.0141072245 0.032143354 0.08279479 0.00949811 -0.022155836
-0.053044464 0.035432298 -0.002187929 -0.02593805 0.052206915 -0.009951545 -0.070581645 0.05371251
0.06401484 -0.01627341 -0.09149904 -0.044090644 0.029585384 -0.007930281 0.041460313 0.0032533663
0.0153061 0.0072548036 0.013003712 0.07320787 -3.4579076e-05 -0.05744116 -0.00289594 -0.041652683
-0.089518204 0.08640271 0.08119519 -0.008326512 -0.03673491 0.12230429 -0.04435863 0.050458007
0.006092917 -0.044802636 0.018502679 -0.034939542 -0.022618452 0.043647632 0.008268062 -0.06794608
-0.037902582 0.037901167 -0.028217457 -0.01889525 8.578552e-05 -0.050040662 -0.049797073 -0.030535182
-0.009199852 0.060551 -0.02690836 -0.03168542 -0.018680409 -0.056888092 -0.009004791 -0.024464566
0.041712537 0.0074566724 0.0108875055 -0.026524812 0.012056932 -0.0411646 -0.0559895 -0.04215499
-0.037417494 -0.022391688 -0.025613388 -0.0048613753 0.017151931 0.003965794 0.0130172465 0.08133983
0.014802967 -0.005635875 0.0019864792 0.056740385 0.0033889897 0.046894927 -0.038611285 -0.026826173
0.00040218327 -0.057437602 0.0048314165 -0.084223315 0.08559516 -0.012169612 -0.043317072 -0.03695835
-0.06369565 0.03580157 0.024783919 0.018613271 0.008823949 0.011926271 0.0011405617 0.015891517
-0.017136926 0.0031071734 -0.01813829 -0.02298155 -0.035273336 0.013883134 0.047582086 -0.04525569
0.03572893 0.00342687 -0.0014940472 0.112482205 -0.053405106 0.035403334 -0.0154200345 0.01549286
-0.047699943 -0.046580628 0.01379844 0.045364745 -0.058955207 0.041025706 -0.028351283 -0.07347113
0.09648114 -0.023521561 -0.0023024343 -0.09092982 0.048208073 0.083599344 -0.092555456 -0.040796693
0.049189936 0.0018391856 0.015937611 -0.009682795 -0.007819255 -0.026310101 0.007304682 0.0134636
-0.031413842 -0.008170845 -0.06938233 0.103111364 0.016566513 -0.010028397 0.051720854 0.022939362
0.025359124 0.0064767096 0.034857057 0.09008409 0.015029458 -0.031567357 0.043995656 0.11265317
-0.005372201 0.018291105 0.017270714 -0.023108222 -0.0014920533 -0.051078424 0.020271456 0.05100142
-0.027251173 0.07072817 0.085399725 -0.008685166 0.029358862 0.046751633 -0.07299629 -0.06060117
0.03492697 -0.0073750513 -0.004154211 -0.05789456 0.015129197 0.08247986 -0.031066945 0.035627153
-0.028139085 -0.018581107 -0.019318918 -0.045619596 0.016063867 -0.017612671 0.042481165 0.016523661
-0.067463025 0.0053352537 -0.009017572 0.026308555 -0.015215064 0.03373645 -0.028139988 -0.0005191169
0.005075165 0.030559752 -0.037062842 -0.0411703 0.0015497488 -0.008847688 -0.049262233 -0.054269914
00000000: 5eca 703c 426d 07bb 7e2d 4a3c aa1e 463d
00000010: 9a9d 26bd 534c 96bd ac08 31ba 3199 febc
00000020: 5229 a93b dbac 053d fac5 51bb 3ab8 f33c
00000030: 900f 1abd 5adc 903d 405f f7ba af4a 69bd
00000040: 779b c13c 0c80 3cbc 3a33 2abd 1927 373c
00000050: 6159 fd3c b2c3 623d fe8f 7b3c d2d1 33bd
00000060: bc1d a2bc 433e 453d 06ff 28bc c6c2 593d
00000070: 2f81 313c 5e02 76bd c2a4 1e3d 942e 60bd
00000080: c88a 98bd 5ca9 873d 0663 c3bd 8e50 683d
00000090: cebf c1bc 95c8 02bd dd08 e83c cf0f aabc
000000a0: 306f 96bc 7ba9 d6bc b3e4 163c 4bea e93c
000000b0: 60c1 693c 798e 493d 60e0 c8bc e248 1cbd
000000c0: f0a2 bc3c 1adc aa3c 1ee4 76bd fd21 673c
000000d0: c0a8 033d 5190 a93d f69d 1b3c 2880 b5bc
000000e0: 2745 59bd 7521 113d 5c63 0fbb 097c d4bc
000000f0: ebd6 553d ce0b 23bc 1c8d 90bd a601 5c3d
00000100: 361a 833d d04f 85bc d963 bbbd 6498 34bd
00000110: 0c5d f23c 02ee 01bc 4ad2 293d 6e36 553b
00000120: 70c6 7a3c b4b9 ed3b 850d 553c 02ee 953d
00000130: 0009 11b8 6c47 6bbd d0c9 3dbb 019c 2abd
00000140: 5255 b7bd e7f3 b03d aa49 a63d ec6b 08bc
00000150: 5877 16bd ac7a fa3d 65b1 35bd 0ead 4e3d
00000160: 18a7 c73b f882 37bd ee92 973c c41c 0fbd
00000170: 554a b9bc dcc7 323d c476 073c 5027 8bbd
00000180: bd3f 1bbd 413e 1b3d 4c28 e7bc 36ca 9abc
00000190: c0e7 b338 70f7 4cbd 04f8 4bbd eb24 fabc
000001a0: faba 16bc 5304 783d ec6e dcbc 92c8 01bd
000001b0: a807 99bc 7d03 69bd d588 13bc ea69 c8bc
000001c0: c4da 2a3d 1a57 f43b 8261 323c 904a d9bc
000001d0: 708a 453c 369c 28bd 3f55 65bd b6aa 2cbd
000001e0: 1643 19bd c66e b7bc 2bd3 d1bc 2c4c 9fbb
000001f0: 3582 8c3c 7ef3 813b 4a46 553c 7f95 a63d
00000200: 2588 723c 25ad b8bb 972f 023b 9b68 683d
00000210: d019 5e3b e514 403d de26 1ebd 90c2 dbbc
00000220: 20dc d239 b143 6bbd dc50 9e3b 467d acbd
00000230: 844c af3d 0d63 47bc 3e6d 31bd a461 17bd
00000240: dd72 82bd aba4 123d a507 cb3c dc7a 983c
00000250: 5392 103c 6866 433c e67e 953a ed2e 823c
00000260: bd62 8cbc b8a1 4b3b c096 94bc ce43 bcbc
00000270: c67a 10bd 1676 633c 6fe5 423d 085e 39bd
00000280: 8058 123d 5795 603b e8d3 c3ba 125d e63d
00000290: 50bf 5abd 1603 113d 50a4 7cbc c4d5 7d3c
000002a0: 0461 43bd 54cb 3ebd da12 623c 62d0 393d
000002b0: 047b 71bd 920a 283d f340 e8bc 0878 96bd
000002c0: e797 c53d 4ab0 c0bc 70e4 16bb 6a39 babd
000002d0: d475 453d 2236 ab3d b78d bdbd 6f1a 27bd
000002e0: 637b 493d d410 f13a 988f 823c 96a4 1ebc
000002f0: 551c 00bc 4888 d7bc 1d5c ef3b 6e96 5c3c
00000300: cdab 00bd 02df 05bc 5318 8ebd 0d2c d33d
00000310: 7fb6 873c 254e 24bc 3fd9 533d 54eb bb3c
00000320: f0bd cf3c 943a d43b 46c6 0e3d 027e b83d
00000330: 1e3e 763c c64c 01bd ca34 343d b5b6 e63d
00000340: 4a09 b0bb 3ad7 953c 507b 8d3c 744d bdbc
00000350: 0091 c3ba 9c37 51bd 5310 a63c dde6 503d
00000360: da3d dfbc eed9 903d 0de6 ae3d 3a4c 0ebc
00000370: ff81 f03c a47e 3f3d 147f 95bd ef38 78bd
00000380: 950f 0f3d 6aaa f1bb 0c20 88bb d922 6dbd
00000390: 74e0 773c 33eb a83d 1b80 febc c7ed 113d
000003a0: f083 e6bc 6837 98bc b542 9ebc 9ddb 3abd
000003b0: 5f98 833c 7348 90bc bb00 2e3d a15c 873c
000003c0: 0e2a 8abd 5ad3 ae3b 70be 13bc 0a85 d73c
000003d0: 9b48 79bc 3b2f 0a3d d585 e6bc 5815 08ba
000003e0: 924d a63b 7258 fa3c 35cf 17bd 30a2 28bd
000003f0: f120 cb3a e5f5 10bc 32c7 49bd 214a 5ebd

std.constant5 f4 [128, 128]
-0.029710513 -0.12058054 -0.0027849255 -0.005092321 -0.018110365 0.036759283 -0.08585741 0.04109247
0.030571327 -0.043585945 -0.033892184 0.042082034 0.02556217 -0.0077308696 0.06532351 -0.0105359275
-0.027430853 0.03652203 -0.013087926 0.007978473 0.018677708 0.074552715 -0.014928818 -0.004774532
-0.016141508 -0.014662018 -0.042514354 -0.028980395 -0.12235549 -0.045181237 -0.09202765 -0.04476718
-0.08534929 -0.104707055 -0.06577088 0.04503451 -0.016491689 0.033251878 0.114574306 0.011753889
0.046894286 0.005826423 -0.016188921 0.011157252 -0.030854627 0.011430683 -0.0700173 -0.013136318
-0.041605216 -0.010760541 -0.024894245 -0.02114721 -0.0009581428 -0.0014090128 -0.011117364 -0.03399284
-0.043075774 0.08150743 0.03643117 0.028712314 -0.015460874 -0.03146092 0.021123378 -0.043464378
0.04094612 -0.071449265 0.03287626 -0.023121046 -0.027384307 -0.054080874 -0.023876581 0.06656728
0.043896504 -0.02498931 -0.018348804 -0.019544076 -0.047137775 -0.030549148 -0.040267393 0.09691025
0.022446746 0.03399337 -0.040594563 -0.02047604 -0.031132683 0.024445308 -0.0061933575 -0.11823828
-0.0137472395 0.017633086 -0.004741963 -0.015534744 0.06282711 -0.002199201 -0.04439304 -0.018782403
0.013703195 -0.03752342 0.00797711 -0.012248873 0.05635237 -0.09271059 -0.0194207 -0.0469068
0.025495656 -0.025170114 0.06179948 0.017430848 -0.053445544 0.018482845 0.090817526 0.102268726
0.054989055 -0.014596915 0.091427945 0.06576398 0.0066284416 -0.05439998 0.071639106 0.09329422
-0.011053165 0.09740096 -0.017149288 -0.040894818 -0.021973472 0.03733411 -0.0030354122 0.10006555
0.008645012 -0.026973268 0.0049381987 0.0043381345 -0.04308233 -0.018988183 -0.037761834 0.0049584396
0.09585545 0.0022780923 -0.027441422 0.008092392 -0.008432272 -0.11860504 0.07816848 0.050470542
-0.032499325 -0.026771175 0.022407223 0.0012464733 -0.05181077 0.040423125 -0.06636188 0.029859984
-0.06281557 -0.040246278 0.027456572 -0.022672582 -0.01589632 -0.047243956 -0.0076245824 0.036291122
0.020784551 0.0015812386 0.03634831 0.006960037 -0.016598213 -0.008312924 -0.05434085 -0.07209819
0.06009236 -0.01733346 0.023667183 -0.038734797 0.02477345 0.053722262 0.054942384 -0.04528644
0.039765146 -0.05900228 0.06717562 -0.023962714 0.10458441 -0.004826866 0.03654712 -0.063152365
-0.022807382 -0.03068469 0.034856997 0.018431302 -0.025080767 -0.08743876 0.08452872 0.008361261
0.11883893 0.0056814114 -0.067117445 0.009555656 0.02525751 -0.039281618 -0.013749875 -0.0017097942
-0.10580079 -0.016630169 -0.01826566 0.07239085 0.0023166249 -0.012679761 -0.010903211 -0.03812051
-0.0793515 -0.09321928 -0.009660724 -0.056591175 0.015910987 -0.067160636 0.007074573 0.06338197
-0.055470154 -0.04254309 -0.020589475 0.014219295 -0.0021056067 0.08586632 0.0966389 -0.018658977
0.014998592 -0.030966941 0.01897733 0.026612392 0.009639615 -0.022641597 -0.066907115 -0.02964817
-0.008238792 -0.06143035 0.025672775 -0.031061681 -0.021273026 -0.020672146 -0.06111943 -0.033031903
-0.062514484 0.014131282 -0.024430718 -0.07064767 -0.09015777 0.053115953 0.016137809 -0.010990037
-0.039144073 0.011990989 0.055833947 0.030315522 0.014850362 0.036833145 -0.030352864 -0.0055228113
00000000: 7663 f3bc eef2 f6bd 4c83 36bb 7cdd a6bb
00000010: 305c 94bc e790 163d 03d6 afbd 9450 283d
00000020: b870 fa3c 2d87 32bd 88d2 0abd 365e 2c3d
00000030: c267 d13c 3c53 fdbb 55c8 853d e29e 2cbc
00000040: abb6 e0bc 2098 153d be6e 56bc 24b8 023c
00000050: fe01 993c 18af 983d 0098 74bc ad73 9cbb
00000060: 323b 84bc f638 70bc 8823 2ebd 4b68 edbc
00000070: 8495 fabd f60f 39bd fe78 bcbd ca5d 37bd
00000080: 9ccb aebd a770 d6bd e2b2 86bd 1b76 383d
00000090: 9419 87bc 1f33 083d efa5 ea3d 6293 403c
000000a0: 3914 403d 94eb be3b a19e 84bc e8cc 363c
000000b0: d8c2 fcbc c247 3b3c 3b65 8fbd b639 57bc
000000c0: 3b6a 2abd fb4c 30bc 04ef cbbc ea3c adbc
000000d0: e02b 7bba a0ae b8ba 9b25 36bc 143c 0bbd
000000e0: 3970 30bd 5eed a63d da38 153d 1636 eb3c
000000f0: 9b4f 7dbc 2add 00bd ef0a ad3c b407 32bd
00000100: 1eb7 273d fe53 92bd 42a9 063d 5968 bdbc
00000110: 0e55 e0bc e883 5dbd d298 c3bc 6d54 883d
00000120: d2cc 333d 62b6 ccbc 3b50 96bc e61a a0bc
00000130: 8a13 41bd 3542 fabc 6cef 24bd e278 c63d
00000140: 3de2 b73c a23c 0b3d 7c46 26bd 5ebd a7bc
00000150: f809 ffbc 8741 c83c a6f1 cabb e926 f2bd
00000160: 1a3c 61bc 4373 903c 7862 9bbb 7085 7ebc
00000170: 80ab 803d 7820 10bb 7ad5 35bd 8edd 99bc
00000180: 5e83 603c 28b2 19bd 6db2 023c 7faf 48bc
00000190: bed1 663d 0ddf bdbd 2918 9fbc 5821 40bd
000001a0: 44dc d03c 8e31 cebc 7421 7d3d 23cb 8e3c
000001b0: b7e9 5abd 5669 973c 8afe b93d 4472 d13d
000001c0: 343c 613d e627 6fbc 933e bb3d 44af 863d
000001d0: 6633 d93b 83d2 5ebd 86b7 923d 0a11 bf3d
000001e0: 5618 35bc 287a c73d aa7c 8cbc 5381 27bd
000001f0: b601 b4bc a7eb 183d c4ed 46bb 2bef cc3d
00000200: cfa3 0d3c 0bf7 dcbc 9dd0 a13b e926 8e3b
00000210: 1977 30bd 1b8d 9bbc 27ac 1abd 687a a23b
00000220: dd4f c43d 0c4c 153b d5cc e0bc f495 043c
00000230: 8327 0abc 33e7 f2bd cc16 a03d 33ba 4e3d
00000240: 031e 05bd 394f dbbc 5a8f b73c b460 a33a
00000250: 8837 54bd b892 253d bde8 87bd ed9c f43c
00000260: 73a5 80bd 48d9 24bd 9bec e03c dabb b9bc
00000270: 0039 82bc e182 41bd a2d7 f9bb 00a6 143d
00000280: 5d44 aa3c 9041 cf3a f7e1 143d 0611 e43b
00000290: faf8 87bc ee32 08bc 8394 5ebd 37a8 93bd
000002a0: 6823 763d e6fe 8dbc aee1 c13c 61a8 1ebd
000002b0: b1f1 ca3c e00b 5c3d 440b 613d 467e 39bd
000002c0: c7e0 223d 60ac 71bd 5f93 893d 744d c4bc
000002d0: 5a30 d63d b02a 9ebb 6fb2 153d 0756 81bd
000002e0: 8cd6 babc 765e fbbc 36c6 0e3d 3efd 963c
000002f0: 2e76 cdbc 1813 b3bd 651d ad3d acfd 083c
00000300: d361 f33d 222b ba3b df74 89bd 548f 1c3c
00000310: d6e8 ce3c c3e5 20bd 2847 61bc 2c1b e0ba
00000320: 16ae d8bd fe3b 88bc dea1 95bc a741 943d
00000330: 84d2 173b c6be 4fbc 62a3 32bc 4024 1cbd
00000340: 0a83 a2bd c0e9 bebd 0348 1ebc 26cc 67bd
00000350: c257 823c 848b 89bd d2d1 e73b 68ce 813d
00000360: ac34 63bd aa41 2ebd 42ab a8bc 0cf8 683c
00000370: 38fe 09bb aeda af3d 9eea c53d b6da 98bc
00000380: a8bc 753c 62ae fdbc 5876 9b3c 3b02 da3c
00000390: 7aef 1d3c df7a b9bc 9906 89bd b8e0 f2bc
000003a0: 00fc 06bc 649e 7bbd b64f d23c 1175 febc
000003b0: c544 aebc a258 a9bc 5e58 7abd 764c 07bd
000003c0: 9807 80bd e586 673c ee22 c8bc baaf 90bd
000003d0: a3a4 b8bd 1d90 593d 7033 843c 8e0f 34bc
000003e0: 8955 20bd da75 443c 23b2 643d 4258 f83c
000003f0: ef4e 733c 5ade 163d 92a6 f8bc b3f8 b4bb

std.constant6 f4 [128, 128]
-0.030931473 0.028802821 -0.08840784 0.09652927 -0.00774315 0.12682001 -0.0038201148 0.01332546
-0.08382275 0.04286181 -0.012128901 0.06852779 0.029364306 -0.017005216 -0.045923427 0.008857636
-0.035445526 0.081199415 -0.006041784 -0.013204733 0.031951346 0.097067595 0.06670001 0.018349368
0.022937905 -0.045104735 0.042707447 -0.089340374 -0.09563771 0.1183902 -0.010745283 -0.03717813
-0.029559333 -0.018047493 -0.0042842347 -0.029814392 -0.020071289 -0.044229776 -0.023554444 -0.012974637
-0.017165972 -0.025802985 0.011446077 0.045046367 -0.035338894 0.034953736 0.008706044 0.051849894
0.004747526 -0.02267711 0.017502313 0.012627985 0.01725411 -0.008239867 0.04566734 0.030650895
0.069296174 0.04215604 0.010821808 -0.031525124 -0.035438865 -0.07687636 -0.062969595 0.015187607
0.036447816 0.00986899 0.029735561 -0.07110712 -0.05197132 -0.08102995 -0.009056074 -0.011348985
-0.073620975 0.054393347 -0.031392302 0.05154852 0.017637502 -5.2247196e-06 -0.07264618 0.03546943
-0.012634124 -0.0027383105 0.01447371 -0.04813519 0.119685695 0.027329065 -0.09027602 0.06170481
-0.06182125 -0.0072226226 0.028363636 -0.030369446 -0.065144405 -0.05976566 -0.007282284 -0.013487447
-0.0043865386 -0.013457994 0.051465422 -0.027015757 0.049260356 -0.029399898 0.07447741 -0.014107738
-0.012004675 -0.06712168 0.063320674 0.06972198 -0.017982852 0.004077563 -0.018458884 0.03134383
0.029427446 -0.04623835 0.042369865 -0.07375085 -0.022987302 -0.0055649998 -0.06860111 -0.026600664
0.044513185 -0.015603373 0.06474361 -0.034453217 0.005126863 0.030342527 0.026010504 -0.07835581
-0.0015007576 -0.030656338 0.015302297 0.06675018 -0.056215204 0.08774496 0.0026893364 -0.050848544
0.032562617 -0.008681223 0.029834392 -0.013284838 -0.038851652 -0.039313857 -0.032336533 0.033128124
-0.045234557 -0.025210178 0.036787894 0.042768795 0.025841562 -0.066854976 -0.059466496 -0.020086678
-0.033962347 -0.035506234 -0.061909914 -0.03596523 -0.011910961 -0.024630615 0.04272618 -0.028765785
-0.03334215 -0.004725751 -0.047686838 -0.08224752 0.039075196 -0.028686829 -0.016554428 0.001472165
-0.046689216 -0.052681092 0.11047281 0.029399166 -0.037946258 0.031517938 0.028345348 -0.025723627
-0.06083042 -0.036209695 0.008049606 0.0398535 0.03144287 0.032366272 0.005023503 -0.018578298
0.022856645 -0.1000227 -0.014720003 0.04427429 -0.004212581 0.033259463 -0.029393654 0.011932657
0.05801956 -0.012985245 0.06875102 0.008067753 -0.004720012 -0.028131058 -0.0028859945 0.009185915
-0.03070642 -0.058198188 -0.02988835 -0.050995186 -0.039412983 -0.013532251 0.025881873 -0.06909517
-0.09757072 -0.040089548 0.063571066 -0.036095213 -0.022392688 0.023160785 0.019200286 -0.013034676
-0.04614258 -0.05396757 0.01871677 0.03148152 0.02079177 -0.020238448 -0.01901377 -0.03369653
0.036026046 -0.024178125 0.036632646 0.020570476 -0.04644777 -0.017991863 -0.08185792 -0.05830429
-0.0013332895 -0.061545927 -0.00583053 0.024209078 -0.03133558 -0.05000713 -0.027996784 0.034790684
-0.048412334 -0.03724729 0.0048157996 0.06526627 -0.025562782 -0.006776649 -0.0036001136 0.05277727
0.019400375 -0.008811666 -0.0041341786 -0.024770362 0.041194115 -0.013042343 -0.022519208 0.06857143
00000000: 0064 fdbc e5f3 eb3c 2b0f b5bd 23b1 c53d
00000010: 40ba fdbb 1bdd 013e e45a 7abb 0853 5a3c
00000020: 43ab abbd de8f 2f3d 4cb8 46bc 4c58 8c3d
00000030: 6a8d f03c 864e 8bbc 341a 3cbd 9e1f 113c
00000040: 542f 11bd e14b a63d 28fa c5bb aa58 58bc
00000050: 6adf 023d 60cb c63d 049a 883d 6a51 963c
00000060: 46e8 bb3c bebf 38bd 01ee 2e3d 16f8 b6bd
00000070: b4dd c3bd 9076 f23d fc0c 30bc 1848 18bd
00000080: 6a26 f2bc 56d8 93bc c462 8cbb 503d f4bc
00000090: 8b6c a4bc 482a 35bd 40f5 c0bc 9293 54bc
000000a0: a79f 8cbc c860 d3bc 5488 3b3c 8a82 383d
000000b0: 84bf 10bd a62b 0f3d cca3 0e3c 8e60 543d
000000c0: 2291 9b3b 59c5 b9bc 0361 8f3c 9ce5 4e3c
000000d0: 7e58 8d3c 8200 07bc ad0d 3b3d 9617 fb3c
000000e0: 27eb 8d3d d0ab 2c3d f44d 313c 7d20 01bd
000000f0: 5828 11bd 5a71 9dbd 34f6 80bd 71d5 783c
00000100: 4e4a 153d 8bb1 213c fe97 f33c 9ca0 91bd
00000110: e1df 54bd 08f3 a5bd ed5f 14bc 18f1 39bc
00000120: 98c6 96bd 8fcb 5e3d 3795 00bd 8a24 533d
00000130: 867c 903c 0050 afb6 85c7 94bd 6548 113d
00000140: 5bff 4ebc 3a75 33bb 2423 6d3c 6829 45bd
00000150: c61d f53d 34e1 df3c a2e2 b8bd 2fbe 7c3d
00000160: 4738 7dbd c0ab ecbb db5a e83c 58c9 f8bc
00000170: 6e6a 85bd d6cc 74bd 3aa0 eebb 74fa 5cbc
00000180: f4bc 8fbb eb7e 5cbc 68cd 523d 2650 ddbc
00000190: 3ac5 493d 0ed8 f0bc 9d87 983d 2424 67bc
000001a0: 42af 44bc 1777 89bd 45ae 813d 66ca 8e3d
000001b0: c650 93bc 149d 853b 1637 97bc 6362 003d
000001c0: d411 f13c 6d64 3dbd 068c 2d3d b00a 97bd
000001d0: de4f bcbc 9a5a b6bb bd7e 8cbd a3e9 d9bc
000001e0: 7553 363d 4aa5 7fbc 4c98 843d d11e 0dbd
000001f0: 3eff a73b e490 f83c fb13 d53c 0379 a0bd
00000200: 12b5 c4ba 0023 fbbc 7cb6 7a3c 52b4 883d
00000210: ea41 66bd a1b3 b33d 943f 303b 9046 50bd
00000220: 6160 053d b03b 0ebc 4167 f43c a6a8 59bc
00000230: e922 1fbd 9107 21bd 5073 04bd 5bb1 073d
00000240: df47 39bd 9385 cebc e7ae 163d 552e 2f3d
00000250: afb1 d33c 43eb 88bd 2493 73bd d18c a4bc
00000260: 1a1c 0bbd fc6e 11bd 4095 7dbd 4750 13bd
00000270: 3126 43bc 25c6 c9bc a601 2f3d 39a6 ebbc
00000280: c791 08bd 79da 9abb 4653 43bd 6371 a8bd
00000290: 500d 203d a400 ebbc 279d 87bc a9f5 c03a
000002a0: 313d 3fbd 21c8 57bd 923f e23d 85d6 f03c
000002b0: 896d 1bbd f418 013d 8134 e83c 5bba d2bc
000002c0: 5229 79bd 9e50 14bd 7fe2 033c 6c3d 233d
000002d0: 3dca 003d 7f92 043d 339c a43b 8431 98bc
000002e0: dc3d bb3c b4d8 ccbd 2b2c 71bc f558 353d
000002f0: b109 8abb 133b 083d f6ca f0bc 3181 433c
00000300: eba5 6d3d 11c0 54bc 56cd 8c3d 9c2e 043c
00000310: 55aa 9abb 1b73 e6bc f422 3dbb 8580 163c
00000320: 088c fbbc 3961 6ebd 6ad8 f4bc 54e0 50bd
00000330: 826f 21bd 60b6 5dbc 3906 d43c c581 8dbd
00000340: 28d3 c7bd f034 24bd 8c31 823d 93d8 13bd
00000350: df70 b7bc b0bb bd3c eb49 9d3c 658f 55bc
00000360: 0100 3dbd 190d 5dbd e953 993c c4f2 003d
00000370: 8153 aa3c 1acb a5bc c4c2 9bbc 5f05 0abd
00000380: 0c90 133d 3411 c6bc 1d0c 163d 6a83 a83c
00000390: 0440 3ebd ac63 93bc 20a5 a7bd 7bd0 6ebd
000003a0: c6c1 aeba 9517 7cbd 080e bfbb 1e52 c63c
000003b0: bd59 00bd 47d4 4cbd 8359 e5bc ad80 0e3d
000003c0: 034c 46bd 9d90 18bd dbcd 9d3b 52aa 853d
000003d0: 0a69 d1bc a70e debb e2ef 6bbb fb2c 583d
000003e0: 89ed 9e3c ce5e 10bc 0178 87bb 37eb cabc
000003f0: 29bb 283d 8daf 55bc 347a b8bc 2e6f 8c3d

std.constant7 f4 [128]
-0.017224696 0.01318676 0.029453417 0.010021774 0.026023142 0.0038588184 0.014481219 0.14099349
-0.0004928546 0.00081379444 0.030717008 0.035479877 0.013834046 0.013266816 0.042824537 -0.011991848
0.09114385 -0.0021224222 0.12143296 0.06786691 0.056374814 0.03420757 0.10033206 0.013896916
0.06340619 -0.016060371 -0.014068652 0.03249469 0.18157591 -0.0021812588 0.088841125 0.01676815
0.0019370252 -0.0051677213 0.007973186 0.045059204 0.055172868 0.010129186 0.018896766 0.00047670532
0.14461014 0.016035244 0.010313369 0.011299859 0.028955244 0.011687694 -0.012606762 0.0215613
0.02469 0.024513297 0.19048676 -0.004521262 0.08197461 0.026194027 0.02846165 0.10976307
0.09504691 0.07567437 0.12575859 0.11935545 0.06941013 0.004797324 0.004313278 0.048512045
0.016048908 0.039747216 -0.0088589 0.021147132 0.011922434 0.011040149 0.036119603 0.033685755
0.04068082 0.0050318856 0.053635493 0.0040829903 0.07497123 -0.011446004 0.05887226 0.030490687
0.030410541 0.02762581 0.024430584 0.016190238 -0.0053401343 0.101295546 0.022432052 0.035448015
0.043367885 0.060330827 -0.007827226 0.08167023 0.0055820523 0.038559146 0.035290144 0.029954894
0.01063071 -0.017304253 -0.015564589 0.037235897 0.043311793 0.04049113 0.02128748 0.014976282
0.0154556325 -0.0005615201 0.16633494 0.02240261 0.0152877355 0.0025467346 0.00972907 -0.017366504
0.04448133 0.18085356 0.099743225 0.03383849 0.14938802 0.016506502 0.027666342 0.03132379
-0.0059051346 -0.005655148 0.06016064 -0.006841259 0.024205653 0.0008285857 0.0037415107 0.030186776
00000000: ce1a 8dbc 480d 583c 4b48 f13c 5e32 243c
00000010: 7c2e d53c 3be4 7c3b a342 6d3c 9960 103e
00000020: ea32 01ba d254 553a 3ca2 fb3c 5953 113d
00000030: 32a8 623c 0f5d 593c c868 2f3d 7579 44bc
00000040: a0a9 ba3d 5618 0bbb d8b1 f83d cefd 8a3d
00000050: 47e9 663d 3d1d 0c3d e57a cd3d e4af 633c
00000060: 1bdb 813d 0a91 83bc 3480 66bc 2719 053d
00000070: 09ef 393e 73f3 0ebb 56f2 b53d 5c5d 893c
00000080: c8e3 fd3a fd55 a9bb f7a1 023c 0090 383d
00000090: f2fc 613d e3f4 253c 64cd 9a3c 4eee f939
000000a0: ae14 143e 585c 833c 68f9 283c 0b23 393c
000000b0: 8c33 ed3c be7d 3f3c 988c 4ebc 53a1 b03c
000000c0: af42 ca3c 1cd0 c83c f60e 433e 1827 94bb
000000d0: 4ee2 a73d db94 d63c 6828 e93c 76cb e03d
000000e0: f4a7 c23d 2afb 9a3d dcc6 003e a170 f43d
000000f0: e626 8e3d df32 9d3b 6656 8d3b 91b4 463d
00000100: 0079 833c facd 223d eb24 11bc c03c ad3c
00000110: 5056 433c bee1 343c 26f2 133d 13fa 093d
00000120: eea0 263d 84e2 a43b e4b0 5b3d 9bca 853b
00000130: 848a 993d 0588 3bbc 0a24 713d 9bc7 f93c
00000140: 871f f93c 864f e23c a622 c83c 64a1 843c
00000150: 4bfc aebb 0a74 cf3d 6cc3 b73c f031 113d
00000160: 86a2 313d 751d 773d c43d 00bc b942 a73d
00000170: a6e9 b63b 32f0 1d3d 668c 103d f763 f53c
00000180: 6e2c 2e3c a6c1 8dbc 9e02 7fbc ab84 183d
00000190: b567 313d 07da 253d 1563 ae3c 145f 753c
000001a0: 9f39 7d3c fa32 13ba b553 2a3e ae85 b73c
000001b0: 6979 7a3c 1ee7 263b ad66 1f3c 3344 8ebc
000001c0: 0e32 363d ad31 393e 2d46 cc3d 3a9a 0a3d
000001d0: 2cf9 183e a538 873c 86a4 e23c 604d 003d
000001e0: dc7f c1bb d24e b9bb 016b 763d a42c e0bb
000001f0: ef4a c63c 7235 593a 2234 753b 424a f73c

std.constant8 f4 [128]
-0.022212582 0.0039987178 -0.0018464474 -0.0069930763 0.003265288 -0.012218703 -0.0017607299 0.024124192
0.0022087507 0.017475609 -0.019319836 -0.015148494 -0.00470662 0.008021823 -0.01630589 0.010349829
0.022185165 -0.004632963 0.0251026 0.0022046114 -0.00082943804 -0.001531157 -0.029468305 -0.0042188386
-0.006120904 0.016303925 -0.015544331 -0.0034850806 0.008450957 0.0029909487 -0.03072386 0.0063535417
0.003286279 -0.00096605753 -0.0051133884 0.013137411 -0.0033738373 0.0015461938 0.004880414 0.006610412
0.015169638 -0.0025512981 -0.024679758 0.0043377746 -0.0062133796 -0.0184376 0.018712038 -0.00013432509
-0.01976605 -0.0013260177 0.018100549 -0.0059465333 0.022632524 -0.0021116587 0.004832486 0.018304985
0.020236919 0.026749652 -0.03253822 0.0049142176 0.012437733 -0.0027849018 -0.0017471311 0.0028473805
0.004570307 -0.0016023833 0.011271787 -0.0023337072 0.0010423458 0.0031451257 -0.0051828464 -0.018087873
0.0024098742 -0.0032497942 0.0086170565 -0.0033279117 -0.015553463 -0.016369823 -7.911261e-05 -0.01842918
-0.0013527535 -0.0042603156 -0.003457322 -5.1038216e-05 -0.004193021 0.028598139 0.0006492373 0.023348836
0.0038793483 -0.012416926 -0.0058672186 -0.0058803544 0.007082148 0.0038122903 0.003190748 -0.0039561223
0.022183564 0.024716545 -0.023217406 0.0015790494 0.0018846369 -0.00026961835 0.0046673333 0.001421726
0.0036500483 0.025631454 -0.025418092 -0.0039242185 -0.017167898 0.0028215407 0.0035965284 0.023678726
-0.0042627743 -0.026265103 0.020461574 0.0011943724 0.028828232 -0.0017874729 0.006428532 -0.0020205413
0.015444865 0.0010693085 -0.0014829622 -0.001966724 0.007867078 -0.0015703343 0.004204777 -0.013104773
00000000: 29f7 b5bc ad07 833b 7e04 f2ba 2d26 e5bb
00000010: 71fe 553b f430 48bc 4bc8 e6ba 19a0 c53c
00000020: b0c0 103b 0229 8f3c a244 9ebc 6431 78bc
00000030: fd39 9abb f76d 033c ee93 85bc 5492 293c
00000040: aabd b53c 1cd0 97bb f8a3 cd3c 3e7b 103b
00000050: a56e 59ba 1ab1 c8ba 8467 f1bc 2f3e 8abb
00000060: dd91 c8bb cf8f 853c a6ad 7ebc f365 64bb
00000070: e275 0a3c cb03 443b 9bb0 fbbc 5f31 d03b
00000080: 9d5e 573b 063f 7dba 368e a7bb 4c3e 573c
00000090: 991b 5dbb a8a9 ca3a e1eb 9f3b 289c d83b
000000a0: 138a 783c ae33 27bb 342d cabc e423 8e3b
000000b0: 9b99 cbbb 730a 97bc fd49 993c 9ed9 0cb9
000000c0: 69ec a1bc c5cd adba 9a47 943c 23db c2bb
000000d0: d867 b93c c163 0abb d559 9e3b 56f4 953c
000000e0: e5c7 a53c 1622 db3c cc46 05bd 7207 a13b
000000f0: a2c7 4b3c e682 36bb feff e4ba 1e9b 3a3b
00000100: 84c2 953b 1007 d2ba 4dad 383c 1cf1 18bb
00000110: 529f 883a 741e 4e3b ded4 a9bb 052d 94bc
00000120: fbee 1d3b 80fa 54bb 8e2e 0d3c 1819 5abb
00000130: f4d3 7ebc 021a 86bc 42e9 a5b8 cbf8 96bc
00000140: e04e b1ba 1e9a 8bbb 3d94 62bb de11 56b8
00000150: 9c65 89bb a546 ea3c 9431 2a3a 0f46 bf3c
00000160: aa3c 7e3b 5d70 4bbc cc41 c0bb fdaf c0bb
00000170: 5d11 e83b 9ed7 793b de1b 513b 5ca2 81bb
00000180: 4eba b53c 5a7a ca3c 6e32 bebc 1bf8 ce3a
00000190: ec05 f73a 905b 8db9 6ef0 983b 3559 ba3a
000001a0: a635 6f3b 0ef9 d13c 9a39 d0bc bb96 80bb
000001b0: b1a3 8cbc 99e9 383b bcb3 6b3b e3f9 c13c
000001c0: beae 8bbb ea29 d7bc 089f a73c 7d8c 9c3a
000001d0: 2f29 ec3c a349 eaba 6fa6 d23b 0f6b 04bb
000001e0: 760c 7d3c 0a28 8c3a f45f c2ba 27e4 00bb
000001f0: ebe4 003c add3 cdba 3ac8 893b 67b5 56bc

std.constant9 f4 [128]
1.0 1.0 1.0 1.0 1.0 1.0 1.0 1.0
1.0 1.0 1.0 1.0 1.0 1.0 1.0 1.0
1.0 1.0 1.0 1.0 1.0 1.0 1.0 1.0
1.0 1.0 1.0 1.0 1.0 1.0 1.0 1.0
1.0 1.0 1.0 1.0 1.0 1.0 1.0 1.0
1.0 1.0 1.0 1.0 1.0 1.0 1.0 1.0
1.0 1.0 1.0 1.0 1.0 1.0 1.0 1.0
1.0 1.0 1.0 1.0 1.0 1.0 1.0 1.0
1.0 1.0 1.0 1.0 1.0 1.0 1.0 1.0
1.0 1.0 1.0 1.0 1.0 1.0 1.0 1.0
1.0 1.0 1.0 1.0 1.0 1.0 1.0 1.0
1.0 1.0 1.0 1.0 1.0 1.0 1.0 1.0
1.0 1.0 1.0 1.0 1.0 1.0 1.0 1.0
1.0 1.0 1.0 1.0 1.0 1.0 1.0 1.0
1.0 1.0 1.0 1.0 1.0 1.0 1.0 1.0
1.0 1.0 1.0 1.0 1.0 1.0 1.0 1.0
00000000: 0000 803f 0000 803f 0000 803f 0000 803f
00000010: 0000 803f 0000 803f 0000 803f 0000 803f
00000020: 0000 803f 0000 803f 0000 803f 0000 803f
00000030: 0000 803f 0000 803f 0000 803f 0000 803f
00000040: 0000 803f 0000 803f 0000 803f 0000 803f
00000050: 0000 803f 0000 803f 0000 803f 0000 803f
00000060: 0000 803f 0000 803f 0000 803f 0000 803f
00000070: 0000 803f 0000 803f 0000 803f 0000 803f
00000080: 0000 803f 0000 803f 0000 803f 0000 803f
00000090: 0000 803f 0000 803f 0000 803f 0000 803f
000000a0: 0000 803f 0000 803f 0000 803f 0000 803f
000000b0: 0000 803f 0000 803f 0000 803f 0000 803f
000000c0: 0000 803f 0000 803f 0000 803f 0000 803f
000000d0: 0000 803f 0000 803f 0000 803f 0000 803f
000000e0: 0000 803f 0000 803f 0000 803f 0000 803f
000000f0: 0000 803f 0000 803f 0000 803f 0000 803f
00000100: 0000 803f 0000 803f 0000 803f 0000 803f
00000110: 0000 803f 0000 803f 0000 803f 0000 803f
00000120: 0000 803f 0000 803f 0000 803f 0000 803f
00000130: 0000 803f 0000 803f 0000 803f 0000 803f
00000140: 0000 803f 0000 803f 0000 803f 0000 803f
00000150: 0000 803f 0000 803f 0000 803f 0000 803f
00000160: 0000 803f 0000 803f 0000 803f 0000 803f
00000170: 0000 803f 0000 803f 0000 803f 0000 803f
00000180: 0000 803f 0000 803f 0000 803f 0000 803f
00000190: 0000 803f 0000 803f 0000 803f 0000 803f
000001a0: 0000 803f 0000 803f 0000 803f 0000 803f
000001b0: 0000 803f 0000 803f 0000 803f 0000 803f
000001c0: 0000 803f 0000 803f 0000 803f 0000 803f
000001d0: 0000 803f 0000 803f 0000 803f 0000 803f
000001e0: 0000 803f 0000 803f 0000 803f 0000 803f
000001f0: 0000 803f 0000 803f 0000 803f 0000 803f

std.constant10 f4 [128]
-0.016822843 0.012512254 0.030865416 0.009966509 0.026581554 0.0031840855 0.014499875 0.14101322
-0.000510381 0.0006592651 0.030916525 0.035443846 0.01367163 0.013271248 0.04295345 -0.012013165
0.092284285 -0.0023244957 0.121450715 0.067308426 0.057002574 0.034321155 0.100300595 0.014381089
0.06391108 -0.016018918 -0.013890394 0.033422768 0.18210328 -0.001940108 0.08844702 0.0171722
0.0013156196 -0.0052473852 0.008174045 0.044157997 0.055663392 0.010232195 0.018359015 0.0006790764
0.14553007 0.015728453 0.010398719 0.012027406 0.02884396 0.010682122 -0.0128671 0.021368435
0.024900662 0.024302755 0.18949002 -0.0044505433 0.081797145 0.025945129 0.029302826 0.108918816
0.09486025 0.0757402 0.12526196 0.11933567 0.06951757 0.004947365 0.0048398823 0.047722355
0.016429631 0.039215423 -0.009141968 0.022036878 0.011770278 0.010414199 0.036462136 0.033798754
0.0404605 0.004723878 0.054627847 0.0040075765 0.07488785 -0.011519222 0.05865043 0.030997574
0.030014154 0.027292676 0.024264913 0.016645286 -0.0053631673 0.1012449 0.02180974 0.035357777
0.042821154 0.06018544 -0.007871291 0.0811053 0.0055709365 0.038417965 0.035805833 0.030134087
0.010330071 -0.017074645 -0.015595729 0.037279278 0.0434144 0.041524053 0.021165635 0.01489376
0.015478442 -0.0007113551 0.1656761 0.02269175 0.015344528 0.0025792082 0.00897916 -0.017485932
0.043589424 0.18085581 0.09906749 0.03365928 0.14969115 0.015466476 0.027449794 0.03183773
-0.005871081 -0.0056357775 0.061773937 -0.006890595 0.023887087 0.0006847824 0.003956253 0.029931555
00000000: 0fd0 89bc 3200 4d3c 78d9 fc3c 924a 233c
00000010: 8fc1 d93c 17ac 503b e290 6d3c c565 103e
00000020: 17cb 05ba 88d2 2c3a a744 fd3c 912d 113d
00000030: f9fe 5f3c a66f 593c f5ef 2f3d ded2 44bc
00000040: 8bff bc3d 9156 18bb 27bb f83d 00d9 893d
00000050: 887b 693d 5794 0c3d 666a cd3d a99e 6b3c
00000060: d0e3 823d 1b3a 83bc 8994 63bc 50e6 083d
00000070: 4879 3a3e 394b feba b623 b53d b7ac 8c3c
00000080: de70 ac3a 42f2 abbb 6eec 053c 04df 343d
00000090: 4cff 633d f0a4 273c a565 963c 0c04 323a
000000a0: d605 153e f5d8 803c 645f 2a3c 990e 453c
000000b0: 2b4a ec3c 1104 2f3c 87d0 52bc db0c af3c
000000c0: 79fc cb3c 9216 c73c ac09 423e ddd5 91bb
000000d0: 4385 a73d e18a d43c 7b0c f03c d410 df3d
000000e0: 1746 c23d ae1d 9b3d ac44 003e 4266 f43d
000000f0: 3a5f 8e3d 811d a23b e097 9e3b 8478 433d
00000100: 6f97 863c 5aa0 203d 31c8 15bc af86 b43c
00000110: 20d8 403c 51a0 2a3c 5259 153d 9070 0a3d
00000120: e9b9 253d c3ca 9a3b 73c1 5f3d fd51 833b
00000130: cd5e 993d 1ebb 3cbc 6f3b 703d a0ee fd3c
00000140: 3ee0 f53c e494 df3c 36c7 c63c b25b 883c
00000150: 82bd afbb 7c59 cf3d 57aa b23c 51d3 103d
00000160: 3c65 2f3d 0285 763d 96f6 00bc 891a a63d
00000170: 678c b63b 285c 1d3d 23a9 123d c3db f63c
00000180: 753f 293c 20e0 8bbc 3b85 7fbc 28b2 183d
00000190: 4cd3 313d 2015 2a3d 8e63 ad3c f504 743c
000001a0: 4b99 7d3c 3c7a 3aba ffa6 293e 0de4 b93c
000001b0: 9d67 7b3c ef07 293b 541d 133c a83e 8fbc
000001c0: d38a 323d 4432 393e e5e3 ca3d 50de 093d
000001d0: a348 193e 1a67 7d3c 64de e03c 4868 023d
000001e0: 3262 c0bb 54ac b8bb ab06 7d3d 80ca e1bb
000001f0: daae c33c f882 333a 75a3 813b 0533 f53c

std.constant11 f4 [128, 7]
-0.08510383 0.04721167 -0.046612762 -0.088970974 0.089331605 -0.09337478 -0.104865886 -0.033758055
0.048974246 -0.06220923 -0.025094977 0.0036639867 0.0626043 -0.02950197 0.06745201 0.06791297
-0.026147403 0.05291425 0.012630056 0.098589525 0.17654909 0.10532371 -0.05123348 0.042818196
0.019240916 0.030307872 0.10866451 0.12303825 0.011683191 0.037719104 -0.044885155 0.11595631
0.05090432 0.06958963 0.16829577 0.06040226 -0.050320033 0.013348564 0.10039525 -0.07910665
0.011970841 -0.029453086 0.0030764106 0.023134602 0.10161455 -0.022057788 0.052378904 0.10173371
0.08758705 0.08603552 -0.021724317 0.10989993 0.12732275 0.1337918 0.049047507 -0.015584401
0.11256153 0.09431509 -0.038741004 0.0014565538 -0.006922681 -0.063110754 0.0737064 0.0064740214
-0.04802045 0.093946196 0.033197455 0.093026385 0.0253197 -0.029634211 -0.0010218297 -0.018894646
0.10346173 -0.08429483 0.06654043 -0.028518347 -0.05260604 -0.0072387587 0.064265296 -0.089519344
0.021371037 -0.041976217 0.016362786 0.04044353 0.04238564 0.044594374 0.068550624 0.04658298
0.025642788 -0.020467743 -0.016578041 -0.081141934 0.0911772 0.04777262 -0.0339865 -0.017329453
0.07427798 -0.088809766 0.05194862 -0.044487096 -0.0039753052 -0.020591967 0.06316706 0.078801885
-0.103126645 0.026032638 -0.035114575 -0.07830564 -0.0421059 0.070388354 0.09982738 0.033274155
0.06164753 0.14451559 0.02466294 0.108478196 0.10058281 0.10986195 0.021974197 -0.006417252
-0.009646045 -0.072862014 -0.00839118 0.07903384 0.05087435 0.08595479 -0.022560677 0.040850766
0.12405811 0.12015474 0.15239438 0.00077804155 0.1317933 0.108762935 0.009808021 0.08598292
0.074509345 -0.051169787 0.13533264 0.051487796 0.09270711 0.100059584 -0.025853701 0.105581135
0.096695565 0.12297458 0.17029925 -0.06493281 0.013718139 0.0049508424 0.018802153 -0.08051244
-0.06723263 0.07886107 0.115754575 -0.025393188 -0.038570866 0.038455244 0.14998397 0.14336978
0.12575996 -0.028701719 0.02689453 0.089994565 -0.043482482 -0.01988865 -0.050786294 0.12357941
0.11234523 -0.073300876 0.045210753 0.042340588 0.015540116 0.07443145 0.08727396 -0.039899964
0.0870605 -0.022996563 -0.009057136 0.014272914 0.063242555 0.10165056 0.008986853 -0.020179056
0.014036132 0.09717019 -0.07828624 0.08651773 0.09052039 0.14211449 0.08258432 -0.0009688629
-0.032972433 -0.08679021 0.033756927 0.17815392 0.046092663 0.07063855 0.15980388 0.13480082
0.010003581 0.13717648 0.074735 -0.0018809921 0.042363234 0.08941534 -0.021038374 0.0654898
0.08034297 0.039243553 -0.03116821 0.1169433 0.06680141 -0.051343393 0.14226134 -0.043769464
0.037562948 0.063901395 0.13214283 -0.006859038 -0.08137798 0.10559078 -0.086041875 0.1299655
-0.06283725 0.07596737 -0.012548528 0.102571696 0.055632524 -0.03997883 -0.011641001 -0.09310533
0.02108118 0.089578025 -0.0023390283 0.10413097 -0.07825376 -0.044451524 -0.07893986 0.042461973
-0.043838076 -0.06493301 -0.049462732 0.010323898 0.15932177 0.088272564 0.041376736 -0.02959969
0.013200078 0.108478636 0.0777355 0.01626373 -0.02431059 -0.03227665 0.12753676 0.03099958
00000000: eb4a aebd 0661 413d 06ed 3ebd 6a36 b6bd
00000010: 7df3 b63d 473b bfbd edc3 d6bd e345 0abd
00000020: 3899 483d 1bcf 7ebd fb93 cdbc 7f1f 703b
00000030: af36 803d 1eae f1bc 4824 8a3d f515 8b3d
00000040: 1433 d6bc 9dbc 583d 4bee 4e3c 4ee9 c93d
00000050: 49c9 343e f5b3 d73d 33da 51bd 2262 2f3d
00000060: 209f 9d3c 3748 f83c 808b de3d 7afb fb3d
00000070: db6a 3f3c 597f 1a3d 7fd9 37bd 807a ed3d
00000080: 0c81 503d 0285 8e3d ba55 2c3e 5c68 773d
00000090: 611c 4ebd efb3 5a3c 069c cd3d ab02 a2bd
000000a0: 5921 443c 9947 f1bc 9b9d 493b c784 bd3c
000000b0: 4a1b d03d 89b2 b4bc 438b 563d c359 d03d
000000c0: d760 b33d 6433 b03d 32f7 b1bc 3713 e13d
000000d0: e560 023e b800 093e 0ae6 483d b755 7fbc
000000e0: a986 e63d 4528 c13d e3ae 1ebd d6e9 be3a
000000f0: a8d7 e2bb 3640 81bd 62f3 963d 0724 d43b
00000100: 17b1 44bd dd66 c03d 0efa 073d 9e84 be3d
00000110: 426b cf3c 72c3 f2bc eaee 85ba f2c8 9abc
00000120: bee3 d33d c5a2 acbd 5946 883d 4f9f e9bc
00000130: 6e79 57bd 1c33 edbb 869d 833d eb55 b7bd
00000140: 5012 af3c 41ef 2bbd 400b 863c 1da8 253d
00000150: 919c 2d3d 97a8 363d 4564 8c3d cbcd 3e3d
00000160: d310 d23c f8ab a7bc acce 87bc be2d a6bd
00000170: 1dbb ba3d 39ad 433d 6e35 0bbd 7ff6 8dbc
00000180: 0e1f 983d e5e1 b5bd 13c8 543d 1a38 36bd
00000190: 4743 82bb 7cb0 a8bc bb5d 813d e262 a13d
000001a0: 1034 d3bd 6642 d53c 4dd4 0fbd b55e a0bd
000001b0: 3c77 2cbd c527 903d 4c72 cc3d 7b4a 083d
000001c0: 1f82 7c3d e5fb 133e ef09 ca3c d129 de3d
000001d0: 5cfe cd3d 4dff e03d 3b03 b43c d047 d2bb
000001e0: 720a 1ebc ae38 95bd 297b 09bc 7edc a13d
000001f0: 9f61 503d 1109 b03d 2bd1 b8bc 2253 273d
00000200: 2e12 fe3d b013 f63d 460d 1c3e 7cf5 4b3a
00000210: d3f4 063e 1abf de3d d2b1 203c d017 b03d
00000220: 5b98 983d 6997 51bd a494 0a3e dee4 523d
00000230: 3add bd3d 0aec cc3d 24cb d3bc ec3a d83d
00000240: 5308 c63d 19da fb3d ed62 2e3e 7efb 84bd
00000250: 0cc2 603c ad3a a23b f906 9a3c b5e3 a4bd
00000260: 43b1 89bd ea81 a13d bc10 ed3d 6005 d0bc
00000270: 7cfc 1dbd 3f83 1d3d 6695 193e 87cf 123e
00000280: 38c7 003e de1f ebbc eb51 dc3c 124f b83d
00000290: b01a 32bd 86ed a2bc 4a05 50bd 3417 fd3d
000002a0: 4215 e63d c51e 96bd e92e 393d 536d 2d3d
000002b0: f89b 7e3c 846f 983d b1bc b23d 256e 23bd
000002c0: c74c b23d 4a63 bcbc 6264 14bc f1d8 693c
000002d0: 5085 813d 2b2e d03d 983d 133c 8c4e a5bc
000002e0: cef7 653c 2a01 c73d 8954 a0bd 3530 b13d
000002f0: c162 b93d 7686 113e f821 a93d 4afb 7dba
00000300: 1a0e 07bd 11bf b1bd b444 0a3d fb6d 363e
00000310: a9cb 3c3d f2aa 903d a1a3 233e 3a09 0a3e
00000320: 0fe6 233c fe77 0c3e aa0e 993d 9f8b f6ba
00000330: 1285 2d3d 641f b73d ab58 acbc 841f 863d
00000340: db8a a43d d9bd 203d 7954 ffbc f87f ef3d
00000350: 2dcf 883d 734d 52bd f5ac 113e 9c47 33bd
00000360: 9bdb 193d bcde 823d 7350 073e c8c1 e0bb
00000370: 80a9 a6bd fb3f d83d b936 b0bd ad15 053e
00000380: d1b0 80bd c894 9b3d 5798 4dbc 1c11 d23d
00000390: eede 633d d7c0 23bd e6b9 3ebc 02ae bebd
000003a0: 70b2 ac3c af74 b73d 624a 19bb 9e42 d53d
000003b0: 8243 a0bd cd12 36bd 39ab a1bd 9bec 2d3d
000003c0: 8e8f 33bd 99fb 84bd 6f99 4abd 9125 293c
000003d0: 3f25 233e 3fc8 b43d a77a 293d 0d7b f2bc
000003e0: 2445 583c 0c2a de3d ca33 9f3d 843b 853c
000003f0: 0127 c7bc 8534 04bd ff98 023e d5f2 fd3c

std.constant12 f4 [128, 7]
0.09394402 0.05005207 -0.068365596 0.045101147 0.017546246 0.016391203 -0.027082194 -0.048694666
0.027201058 0.08962307 0.0012514769 0.0139520215 0.104163006 0.06424499 -0.111716226 -0.02216376
0.019539023 0.029729696 -0.062381465 0.020826617 -0.13303053 -0.048146587 0.031605832 -0.022789609
-0.06255257 0.0717043 -0.037349943 -0.060707703 0.011747252 0.028784137 -0.029178752 0.094763204
-0.0002390926 0.11580892 0.12621807 0.09493591 0.1044318 0.10452775 -0.0017433271 -0.01858601
0.08424905 0.042064387 0.032604355 -0.10227692 -0.020097896 0.032478616 -0.08167199 0.04252317
-0.102299266 -0.056169007 0.027502008 -0.0061077033 0.04575041 -0.007718498 0.019735249 -0.20242941
-0.03796918 0.10226452 0.02639964 0.09150497 0.11059643 0.072122835 -0.004362887 0.014173144
-0.07584704 0.0154998675 0.042019542 -0.03350003 -0.110122 0.056666873 -0.04136031 0.023728188
0.094276756 -0.045556806 -0.07820812 0.07976025 0.08092267 -0.015307885 -0.04325892 0.08925363
0.054963764 0.06354117 0.03888807 -0.122304626 -0.0056195376 -0.091422535 -0.075432085 -0.081315584
0.05877356 -0.06586093 -0.056301054 -0.04122783 0.022158809 0.03470792 -0.10806855 -0.11451617
-0.015299385 0.09038046 0.08634415 -0.07272662 0.026470566 0.045183163 -0.06677422 -0.11378598
0.1069828 -0.04268043 -0.006408914 -0.037184805 -0.07383042 -0.036065474 0.09292379 -0.0095769
-0.05209608 -0.024172153 0.04317042 -0.059181076 0.07163782 -0.006975479 -0.14061768 -0.048258234
-0.0077921515 -0.08211856 -0.09095184 -0.06940593 -0.063576385 0.039472 -0.11000667 -0.047279786
0.04846329 0.023363013 0.049547292 0.028591271 -0.1572352 0.071201295 -0.0635719 -0.060214203
-0.01848456 -0.009958258 0.05515196 0.1784677 -0.12020793 -0.022481263 -0.018525627 -0.029310595
0.09911953 0.014634159 -0.20203619 0.041637525 -0.085175864 -0.02207438 0.011932088 0.022304717
0.0923237 0.14594914 0.06429441 -0.07247822 0.06053457 -0.050143708 -0.075084485 0.08964823
0.17334259 0.025699055 -0.06981037 0.026482476 0.042029757 -0.0734764 0.06671634 -0.09967848
-0.04018782 0.020427587 0.047015462 0.025236558 -0.048475303 -0.07264174 0.16853863 0.0038812065
-0.09095249 -0.08978795 -0.04123933 0.018544719 0.010308282 0.0033486576 0.087823726 0.0526174
0.08306277 0.074437 -0.016774852 -0.027814286 -0.0019415118 -0.1221589 0.053930327 -0.06483828
0.0024074265 -0.0031988155 -0.001186439 -0.13847108 -0.06319155 0.05863295 0.045935195 -0.07189835
0.12375226 0.06978592 -0.21765214 0.015145506 0.07866888 -0.054943435 0.0077724475 0.0044270824
0.033688128 0.033893343 0.08151853 -0.0681516 -0.10831981 0.021529805 -0.015932204 0.056920167
0.16537865 -0.09636737 -0.11828092 -0.10440132 0.012903972 -0.094166934 0.07486689 -0.12302217
-0.02411291 0.076850295 0.0919161 0.11300512 0.091510795 0.0899002 -0.01378341 0.054884035
-0.105471164 -0.038809307 -0.07199991 0.061210897 -0.07212008 0.005840984 -0.014168069 0.07896755
-0.08655593 0.06986946 -0.102627546 -0.046315804 -0.06262102 -0.0622398 0.08481861 -0.028443031
-0.037418094 -0.08491319 -0.062257282 -0.20837556 0.06299536 0.026573433 -0.042842854 -0.07659819
00000000: b965 c03d 6603 4d3d 4303 8cbd fbbb 383d
00000010: 25bd 8f3c d846 863c 7adb ddbc 0f74 47bd
00000020: c1d4 de3c 4d8c b73d 9908 a43a 0597 643c
00000030: 6a53 d53d e192 833d 7acb e4bd c690 b5bc
00000040: 4d10 a03c b18b f33c b583 7fbd 959c aa3c
00000050: 2839 08be 5b35 45bd 1e75 013d 46b1 babc
00000060: 901b 80bd b4d9 923d 41fc 18bd a4a8 78bd
00000070: 8c77 403c b6cc eb3c 4708 efbc 3613 c23d
00000080: eeb4 7ab9 3a2d ed3d 4f3f 013e c26d c23d
00000090: 57e0 d53d a512 d63d 5a80 e4ba b041 98bc
000000a0: c48a ac3d b54b 2c3d 258c 053d 9076 d1bd
000000b0: 58a4 a4bc 4c08 053d a543 a7bd c72c 2e3d
000000c0: 4782 d1bd 7911 66bd e44b e13c 2123 c8bb
000000d0: c864 3b3d 74eb fcbb d1ab a13c a849 4fbe
000000e0: 9285 1bbd 1070 d13d 0f44 d83c f566 bb3d
000000f0: 6280 e23d 23b5 933d 8cf6 8ebb 7936 683c
00000100: b155 9bbd 28f3 7d3c af1c 2c3d 5437 09bd
00000110: a587 e1bd 861b 683d 6e69 29bd 9e61 c23c
00000120: 2c14 c13d c699 3abd 942b a0bd 5859 a33d
00000130: c9ba a53d eccd 7abc 4430 31bd 9bca b63d
00000140: af21 613d df21 823d 1949 1f3d d97a fabd
00000150: 1924 b8bb bd3b bbbd 237c 9abd c988 a6bd
00000160: 8bbc 703d 18e2 86bd ef9b 66bd 83de 28bd
00000170: 6486 b53c e429 0e3d 0b53 ddbd 7487 eabd
00000180: 46aa 7abc 6419 b93d 34d5 b03d b2f1 94bd
00000190: cdd8 d83c fb11 393d ecc0 88bd a008 e9bd
000001a0: cc19 db3d add1 2ebd de01 d2bb 184f 18bd
000001b0: 6734 97bd 64b9 13bd d44e be3d 6ee8 1cbc
000001c0: b362 55bd ae04 c6bc 77d3 303d db67 72bd
000001d0: d9b6 923d 8f92 e4bb 15fe 0fbe 6daa 45bd
000001e0: 4e55 ffbb c72d a8bd f544 babd b224 8ebd
000001f0: 5634 82bd 64ad 213d 2d4b e1bd 73a8 41bd
00000200: 7181 463d ca63 bf3c 1af2 4a3d 3e38 ea3c
00000210: 4402 21be fcd1 913d fc31 82bd 2ba3 76bd
00000220: ef6c 97bc f627 23bc 06e7 613d 3dc0 363e
00000230: 932f f6bd a02a b8bc 0ec3 97bc c61c f0bc
00000240: 2eff ca3d 1dc4 6f3c 93e2 4ebe 1c8c 2a3d
00000250: af70 aebd 55d5 b4bc ce7e 433c 62b8 b63c
00000260: 3514 bd3d b173 153e caac 833d 766f 94bd
00000270: 19f3 773d 7d63 4dbd e5c5 99bd 7e99 b73d
00000280: b880 313e d386 d23c bdf8 8ebd c7f1 d83c
00000290: 6527 2c3d cb7a 96bd 94a2 883d 3b24 ccbd
000002a0: fc9b 24bd c157 a73c 4993 403d e6bc ce3c
000002b0: 0a8e 46bd 31c5 94bd 6495 2c3e d75b 7e3b
000002c0: 4d45 babd bfe2 b7bd 92ea 28bd 18eb 973c
000002d0: 12e4 283c 2775 5b3b eddc b33d 5885 573d
000002e0: d01c aa3d 6d72 983d 6a6b 89bc c9da e3bc
000002f0: 537a feba 722e fabd 0ce6 5c3d efc9 84bd
00000300: eac5 1d3b 38a3 51bb 4982 9bba 5dcb 0dbe
00000310: 926a 81bd 1b29 703d 8b26 3c3d 713f 93bd
00000320: d371 fd3d eceb 8e3d 34e0 5ebe db24 783c
00000330: 261d a13d 5e0c 61bd 04b0 fe3b 0f11 913b
00000340: 90fc 093d bfd3 0a3d 30f3 a63d 1193 8bbd
00000350: c7d6 ddbd 465f b03c 4184 82bc 1f25 693d
00000360: 0559 293e 415c c5bd 443d f2bd 5cd0 d5bd
00000370: 2e6b 533c 98da c0bd d053 993d 0cf3 fbbd
00000380: 7088 c5bc b063 9d3d 823e bc3d 3a6f e73d
00000390: 036a bb3d 991d b83d d0d3 61bc 15ce 603d
000003a0: 4401 d8bd 82f6 1ebd b074 93bd 47b8 7a3d
000003b0: b1b3 93bd ba65 bf3b 3021 68bc bdb9 a13d
000003c0: 3c44 b1bd b817 8f3d 642e d2bd a4b5 3dbd
000003d0: 733f 80bd 29ef 7ebd 61b5 ad3d 5c01 e9bc
000003e0: b743 19bd f7e6 adbd 7e01 7fbd 6760 55be
000003f0: b603 813d 87b0 d93c fd7b 2fbd 83df 9cbd
