AirQualityApp/AirQualityApp.Android/Assets/TurkuLong.tflite (tflite, 810852 bytes, 24 tensors)

std.constant3 f4 [128, 128]
00000000: 65dc f23b 4838 803b c3a0 483d d8ab 41bc
00000010: ce0f 22bd b1f2 85bd e0f2 fc3b 0f59 10bd
00000020: 9db6 0cbd de76 8e3d 5052 fc3b 4c0b 0abd
00000030: b690 b8bd 76f9 2cbd 9bac 313c a6b0 d33b
00000040: d464 4f3d 90fc ef3b c788 4bbd 8263 d1bc
00000050: be01 023d 2407 9f3c e15a 86bd d14f 4a3d
00000060: 1d9f 793c fec0 37bc 9196 abbc 5a37 e7bc
00000070: fc76 543d 6825 f13c d090 fdb9 3a14 3abd
00000080: 502e 0f3c fa25 713d b0e2 1fbd 46a3 83bc
00000090: 00c0 1439 112c e8bb a863 05bc 740c 35bd
000000a0: ec00 fd3c 641f ee3c 1b40 4cbd 1177 00bd
000000b0: 5828 c13c 5bc5 c33d 1cc8 b8bd c40c 8c3c
000000c0: be44 bdbc d6ab 073c 722e 553c d735 083c
000000d0: 9036 60ba efee e6bc bb71 883c 4aec 57bd
000000e0: bbd7 983d 8292 893c 2e28 3a3c c44c 7b3c
000000f0: 2d1f 4f3d 5e37 4f3d 0cb3 9cbd 9afb be3c
00000100: 5b9e 57bb 39eb 9ebc 9e7a 36bd 3cf8 393c
00000110: 6091 40bd e25f f7bc f4e1 6dbc dac3 1c3d
00000120: d1e6 d4bd c6d9 20bc 4a13 a03c 27c7 4f3d
00000130: 5a15 41bd c10d bc3b bfc8 0cbd 5614 21bd
00000140: 1ac4 a4bb 33d7 0c3d e2dd 4e3b 29f7 eebc
00000150: 44d4 103d c45d 873c 11ca b13c 0ef5 48bd
00000160: 70c5 113d baff 9b3d 1aec 16bd 71e0 56bd
00000170: 2147 a6bc 0b52 ef3b e8b9 d9bb cd6f 5dbd
00000180: 71a3 903c 9a7e e6bb aa20 f53c e64d f0bb
00000190: 522f ba3d 8f53 853d 5659 9f3d b2c9 48bd
000001a0: a423 d9bc 78ad a73c 0a88 45bd 5474 9f3c
000001b0: 7f50 383d df30 cbbc 0088 49bc 1024 89bd
000001c0: 50dd 7e3b c1e4 393c eef9 203d c8e0 9e3b
000001d0: f220 e43c e2f4 8f3c ec74 85bc 3269 b1bc
000001e0: 712d 91bc b067 c03d e67a 303d 460f 53bd
000001f0: 41a0 c6bc 55e2 f8bc 29d7 193d d60e 6d3d
00000200: dd1f 6c3d 7359 b7bc d4ba 8ebd 7d55 66bc
00000210: b7bc 31bd b0b8 02bd 3682 7d3d 5084 1e3a
00000220: d8e7 acbb 997e 383d 96a2 fbbc 85ab be3d
00000230: ee57 15bc 44c1 843b 2786 0abd ee37 87bd
00000240: fa46 a53c aa87 27bd 3179 853c 2cb1 463c
00000250: ebc4 143c 9f96 153c 8c51 1a3d bf1d 42bc
00000260: b077 7e3c 98c5 ab3b e834 ffbc 40a5 30bd
00000270: 7898 d8bc ce6c 71bd 5aff 363c cc95 3cbd
00000280: a2cb 143d c5fc c7bc fdc6 65bd 612f 203d
00000290: 8614 a5bc 61bd d1bc d89b b1bc 0db6 21bd
000002a0: 720c f23c ef27 69bd 28f4 073d ce4d 63bd
000002b0: 7ce7 7a3c e841 9b3c be13 bc3c 62cf 85bb
000002c0: 2a90 053e 5817 a5bd af9a 0f3d 6675 e6bd
000002d0: b85b 68bd 8403 f63b ccc3 673d e125 0bbc
000002e0: 6e8e 35bd b08d 4d3d a515 9dbd b8f3 333c
000002f0: 544e 83bd a043 923c 9d6b 843d 0b88 5ebb
00000300: 4e44 87bc 8634 423d 8743 79bd 3e1a 1ebc
00000310: 1b7b 11bd 8212 6dbc 34d7 8e3d ed73 fb3c
00000320: 148f ea3a 9c04 31bc 5895 d63a e2fd 00be
00000330: e080 c4ba 2ec5 2cbd 809c 36bc e43d 3e3d
00000340: a076 67bd 0a15 07bd 957c 98bc 85ea 233c
00000350: f08e 38bc 6d65 33bd 14a8 39bd 0f03 fd3c
00000360: 9717 213d c387 393c d08d 4ebd 9c61 8abc
00000370: 55ee 07bd 0422 71bc 9dae 103c 24e7 473d
00000380: 33ee 9ebd 2d19 40bd 2377 8e3d 7a08 bdbd
00000390: 2026 6fbd 0f53 09bc b033 7f3c a9a8 e3bd
000003a0: a85d 4dbb 12c9 8c3d 4c18 03bd 0780 b93d
000003b0: 96b1 883d b375 ae3d 5d83 df3b f460 ddbc
000003c0: c843 ddbd 3072 953c dda9 5b3d fe19 c83c
000003d0: 22a8 b5bb b48d 09bd f17e 41bc e180 94bc
000003e0: 378a d6bc 2652 3f3c 043b 7c3d bcb9 3bbd
000003f0: 1ac0 a0bc 8c18 c3bc 38d2 e9bb ef60 6a3d
0.007411527 0.0039129592 0.04898144 -0.011820756 -0.039565854 -0.0654043 0.0077193826 -0.035241183
-0.03435384 0.06956266 0.007700242 -0.03370218 -0.090119764 -0.042230092 0.010844375 0.006460267
0.050633267 0.007323809 -0.049690988 -0.025560144 0.031739943 0.019412585 -0.065603025 0.049392525
0.0152356895 -0.0112154465 -0.02094582 -0.028224636 0.051871285 0.029436782 -0.00048363814 -0.045429446
0.008739069 0.058874108 -0.039034545 -0.016069066 0.00014185905 -0.0070853312 -0.008141436 -0.04420133
0.030884229 0.029067703 -0.049865823 -0.03136355 0.023578808 0.09559127 -0.09022543 0.01709593
-0.023104068 0.008280715 0.013011562 0.008313618 -0.00085530523 -0.028190104 0.016655793 -0.052715577
0.07463022 0.016793493 0.011362119 0.015338127 0.05056684 0.05058991 -0.07651338 0.023313332
-0.0032900784 -0.019399272 -0.04455053 0.011350688 -0.04701364 -0.030197088 -0.014519203 0.038272716
-0.10395587 -0.009817546 0.019540448 0.050727036 -0.047139503 0.0057389443 -0.034371134 -0.039326034
-0.00502826 0.034384917 0.0031565358 -0.02917059 0.035358682 0.016524203 0.021702798 -0.049061827
0.03558868 0.07617135 -0.036846258 -0.052460138 -0.020297589 0.0073034815 -0.006644476 -0.0540617
0.01765606 -0.007034135 0.029922802 -0.007333505 0.09091057 0.06510078 0.07780711 -0.049020477
-0.026506253 0.020468459 -0.04822544 0.01946465 0.044998642 -0.024803577 -0.012300491 -0.066963315
0.0038889237 0.011346043 0.03930085 0.0048485734 0.02784774 0.017572824 -0.016291104 -0.021656606
-0.017721863 0.09394777 0.043085955 -0.051528238 -0.024246337 -0.030381361 0.03755871 0.057875477
0.057647575 -0.02238152 -0.069692284 -0.014058468 -0.043392863 -0.031914413 0.061891757 0.0006046938
-0.0052766614 0.045042608 -0.030717175 0.093100585 -0.009115202 0.0040513594 -0.033819344 -0.066024646
0.020175446 -0.040900864 0.01629314 0.012127202 0.009080152 0.009130149 0.037675425 -0.011847912
0.015531465 0.005242061 -0.031153157 -0.043126345 -0.02643989 -0.058941655 0.011169279 -0.046041295
0.036327012 -0.024412522 -0.056097973 0.039107684 -0.020151388 -0.025602998 -0.021680757 -0.039480258
0.02954695 -0.05692285 0.03319183 -0.055494122 0.015313979 0.018952325 0.022958633 -0.00408356
0.13043275 -0.08061093 0.035059627 -0.11252861 -0.056728095 0.0075077433 0.05658321 -0.008492918
-0.044325285 0.05018395 -0.07670144 0.0109834 -0.06411424 0.017854512 0.06465838 -0.00339556
-0.016512062 0.04741337 -0.060855415 -0.009649811 -0.035517793 -0.014469745 0.069746405 0.030694926
0.0017895424 -0.010804322 0.0016371412 -0.12596849 -0.0014992021 -0.042180233 -0.011145711 0.046445742
-0.056509614 -0.03297905 -0.018614093 0.010004644 -0.011264548 -0.0437979 -0.045326307 0.030885248
0.039329138 0.011323872 -0.05042821 -0.016892247 -0.033186276 -0.014717583 0.008830694 0.048804417
-0.07760277 -0.04689901 0.06956317 -0.092301324 -0.05838597 -0.008381619 0.015576288 -0.11116154
-0.003133634 0.068742886 -0.032005593 0.090576224 0.06674497 0.08518543 0.0068210796 -0.02702377
-0.10803944 0.018242925 0.05362879 0.024426457 -0.0055437246 -0.033582404 -0.01181005 -0.01812786
-0.026188953 0.011677301 0.06157972 -0.045831427 -0.019622851 -0.023815416 -0.0071356557 0.05722135

std.constant4 f4 [128, 128]
00000000: 03e5 cc3c 6fd9 29bc a716 30bc 4e21 d6bc
00000010: b0fa 6bbc 3104 6bbb 731d 6c3d 491f 053d
00000020: 48b0 1b3c ceb2 55bc 9c08 a93d 7f27 fabc
00000030: 4a89 673c badc d03c d889 a33c a298 18bd
00000040: 2e5c 1abd 3018 9abb ba3a 0ebc 99ad 003c
00000050: 08c6 61bc 9253 97bc 454c 563c 3bbd 9ebd
00000060: f1f4 70bb 0e73 e33c 275b c9bc 765e 86bc
00000070: 51a7 26bd 62bf 833d 0948 983c 06b0 a3bc
00000080: a204 73bc 38d9 7e3d 076a 863b 34cb 9e3d
00000090: 44a0 abbc f12b 1e3d 30ae dcbc 900c a33c
000000a0: f91e 393d 6030 af3b 4217 0abd cbcc 643d
000000b0: dfe9 893d 036a 3d3d 643d aa3c 58f7 5e3b
000000c0: d193 2c3d 002e 81bc 3c62 8c3c d321 07bd
000000d0: 9ca7 773d d5d9 a0bd 4c5c f73c b770 3f3c
000000e0: ab20 213d 93b7 a23d 6caf 673c 48fd 47bd
000000f0: dad8 9fbc 24ce febc 9780 8bbd 886d 033d
00000100: 7e7a 733b 5632 ccbc 9f5c 8b3d 9ad2 ad3b
00000110: 4b6c 9dbd bcfa 6d3c cd3a 8ebc 3968 893d
00000120: e9a6 0abd dbde 883b 7a92 6d3d 1aa1 de3c
00000130: 01d8 b93d d71b 18bc c026 9cbd 79ae 06bd
00000140: c0c3 bc38 c856 563d 388d 323d d0ce 6ebc
00000150: 6c2c 123d d1e6 9e3c 6614 06bd 4cad 2a3d
00000160: 7c94 18bc d20b d03d 3cf0 423d 9ca7 3cbb
00000170: 7708 c03d 9649 f23c b893 7c3d 82b1 ba3c
00000180: fb53 b9bc 06b5 a33c b316 e73d a376 33bd
00000190: 6616 5cbd 02e0 95bc 8055 7a39 051b a2bb
000001a0: 1dfd 7d3d 9405 f43c 4e50 f0bc 1670 b83b
000001b0: e259 aabc b1b0 7b3c 5194 3b3b 5822 0fbd
000001c0: 2ca1 393d ee14 15bd 05ee 56bc 72d6 e4bc
000001d0: a043 463d a478 213d 9ee9 6b3d 864d 97bd
000001e0: d4bf 0fbc d3c3 d1bc d655 d33c 2f96 dcbc
000001f0: 82ed b93c e8f7 48bd ff69 93bb e159 023d
00000200: 159c bfbd d354 97bd f0d1 bfbd 9497 723d
00000210: 187b 1c3c 70e5 2e3d 5e29 303d eea5 8e3d
00000220: 6236 c73d 8832 8c3c 567b 14bd dae6 5abd
00000230: 8895 033d 3a23 e33b b444 59bd 66c3 77bd
00000240: d051 1ebd 6542 c33c 1999 00bd dd69 8f3c
00000250: 53c6 3cbd 96be 453d 1eda a73b d266 afbc
00000260: 9838 26bd 0044 653c a954 cbbd 96b9 233d
00000270: 9828 26bd 7b28 2f3c b88f 743b 2085 f3ba
00000280: 9429 05be 06a0 843d bc4a 123d b024 22bb
00000290: 6a3d 66bc 9ba6 b2bc bce8 c5bc 6294 573d
000002a0: 3e2f 3c3d c874 9bba 61ec 1abd d0d7 96bc
000002b0: 24f6 80bc ed6e b93c bc44 c13b 8820 2fbd
000002c0: 7533 8ebc 30f4 2ebd aa4e edbb 8cf0 2bbd
000002d0: c015 b73d c048 33bc 169a cf3c 2493 9cbd
000002e0: ae45 393c 6c8b e83c 1be2 8bbd 18f9 4cbd
000002f0: 659f cb3b c460 223d 7073 88bd 018c 6e3d
00000300: 8c5b 7f3d 6281 073c 53e0 49bd 436c 823d
00000310: 6a57 13bd 9477 51bd c30c 93bc c63e 80bc
00000320: 1e20 e03c 809c 18bc d733 683d df39 9fbd
00000330: 95f4 dbbc f133 843d 4e31 63bd daab 52bc
00000340: f469 c93c dbb7 8a3d b4ee 90bc fab6 4ebd
00000350: c07b 33ba 786b edbc c04d 3fbd 200a 38bb
00000360: b5f8 313d f79f f1bc 92a5 933d c400 9d3c
00000370: 0123 b9bc 03c8 703c 269e 5b3d 01e2 923d
00000380: 1825 e7bb 9c65 64bc aae3 dc3c 09cb c03d
00000390: be94 02bd d1ec fcbb c27c ea3c 18b5 7fbd
000003a0: 61fa 48bd 6d81 923d b391 1dbd 724f 9abc
000003b0: 993e 5cbc dc2d 8abd 51fc 493c 9ae5 363c
000003c0: bad1 d13c 74f7 54bd fa18 d33c a31f 81bc
000003d0: c604 35bd b01a d2bd c6e4 103d b0a3 663c
000003e0: 84a4 963d 3cb5 fabb d394 963b 9925 0a3b
000003f0: 9f67 9ebc 507d 10bc 826c b4bc 29d0 843d
0.025011545 -0.010366782 -0.010747588 -0.026138928 -0.01440303 -0.0035860653 0.057645272 0.03250054
0.009502478 -0.013043119 0.08253595 -0.030536411 0.014131853 0.025495876 0.01996319 -0.037254937
-0.037685566 -0.0047025904 -0.008680994 0.007853889 -0.0137801245 -0.018472467 0.0130797075 -0.077509366
-0.003676709 0.027764823 -0.024579598 -0.016402464 -0.04068691 0.06432988 0.018589037 -0.019981395
-0.0148326475 0.062218875 0.004101995 0.07753602 -0.020950444 0.038616125 -0.026938528 0.019903451
0.045195553 0.005346343 -0.033713587 0.05585937 0.067340605 0.04624368 0.020781226 0.003402194
0.042133156 -0.015769005 0.017136686 -0.03299124 0.06046258 -0.07854048 0.030195378 0.011684588
0.039337795 0.0794517 0.014140945 -0.048825532 -0.019512583 -0.031104155 -0.06811636 0.03208688
0.0037151868 -0.024926346 0.068047754 0.0053046467 -0.07686671 0.014525112 -0.017362023 0.06709332
-0.033850584 0.004176957 0.05800102 0.027176429 0.090744026 -0.009283981 -0.076245785 -0.032881234
9.001e-05 0.052328855 0.043591708 -0.014575675 0.035686895 0.019397171 -0.032734297 0.041669175
-0.009312745 0.101585045 0.047592387 -0.0028786426 0.093766145 0.029576104 0.061664313 0.02278972
-0.022623053 0.01998378 0.112836264 -0.043814313 -0.0537323 -0.018295292 0.00023873709 -0.0049470686
0.062008966 0.029787816 -0.029335167 0.005628596 -0.020794813 0.015361951 0.002862234 -0.034944862
0.04531972 -0.036396913 -0.013118272 -0.027934287 0.048404336 0.039421692 0.05759584 -0.07387833
-0.008773763 -0.025606072 0.025797766 -0.026927082 0.02269626 -0.049064547 -0.0044987197 0.031823996
-0.09355942 -0.07389226 -0.09366214 0.059226587 0.009550832 0.042699277 0.0430082 0.06965242
0.097271696 0.017113939 -0.036250435 -0.053442813 0.032125026 0.0069316896 -0.053044036 -0.06048908
-0.03865224 0.02383537 -0.031396005 0.017506534 -0.046087574 0.04827746 0.005122437 -0.021411333
-0.040581316 0.013993263 -0.09928257 0.03997191 -0.040566057 0.010690804 0.0037317108 -0.0018579103
-0.13004142 0.064758345 0.035715804 -0.0024741106 -0.014052728 -0.02180796 -0.024158828 0.052631743
0.04594349 -0.0011860365 -0.037823085 -0.018413454 -0.015742369 0.022635901 0.0058980864 -0.042755634
-0.017358521 -0.042713344 -0.0072420435 -0.04197745 0.08939695 -0.010942638 0.025342029 -0.07645252
0.011308117 0.028386794 -0.068302356 -0.05004224 0.0062140697 0.039643064 -0.06662643 0.058238987
0.062343165 0.008270593 -0.049286198 0.063683055 -0.035972036 -0.05113943 -0.017950421 -0.015654933
0.027359065 -0.009314656 0.056690063 -0.0777471 -0.026850024 0.064552195 -0.055466942 -0.012858355
0.024586655 0.06773349 -0.017691948 -0.05046747 -0.00068467483 -0.02898191 -0.046705008 -0.0028082207
0.043450076 -0.029495222 0.072093144 0.019165404 -0.022599699 0.014696124 0.05361762 0.07172013
-0.0070539825 -0.013940241 0.026964027 0.09413726 -0.031880133 -0.0077186604 0.028623942 -0.062428564
-0.049066905 0.07153592 -0.038469028 -0.01883671 -0.013442659 -0.06747028 0.012328223 0.01116314
0.0256127 -0.051993802 0.025768746 -0.015762156 -0.044194005 -0.102589965 0.035374425 0.014077112
0.073555976 -0.0076509994 0.004595378 0.002107954 -0.01933652 -0.008818939 -0.022024397 0.06485016

std.constant5 f4 [128, 128]
00000000: de12 9ebc da5b 15bd b2a7 533d a0b9 b938
00000010: 7c36 c43a aedd 83bc 7376 97bd 565c 0cbc
00000020: cf1a f03c b290 4d3c a737 9c3c b443 d63c
00000030: ecc5 bebd 5141 56bd 1e84 83bc 2c4b f2bc
00000040: 9318 73bd 2cad ee3c a422 99bd 264e fbbc
00000050: 24fa 9ebd 0b6c dabc bbb7 8e3c 0aa8 363c
00000060: ad4f 91bb 8ab9 5a3c 5602 653d f292 47bc
00000070: e075 9dbd 0b74 713c c869 ce3c 8669 22bd
00000080: 332a 2a3d 54da 923d 1b66 cb3c 1bf9 143d
00000090: 7f3e b7bd 88d4 0c3b 7b2f a5bc 1eba a73c
000000a0: 877d 5c3c 8fa0 be3c 2263 3a3d 049a 633d
000000b0: 48f9 b7bd 1446 b53c fa11 28bd 3b45 5bbc
000000c0: 65d8 253d f065 d7bc 813c 21bd 6486 52bd
000000d0: 2c66 053c df98 94bb acd4 afbc 2f0a cabc
000000e0: b4b5 123c b4bd 4cbd 6742 a93c 015c 05bc
000000f0: 0891 0f3d 02fc 433d e166 dbbd a5fe e2bc
00000100: 7353 9ebd f831 123c 1a19 f0bb f218 253d
00000110: 20de a139 e818 98bd d4ec 9e3c af45 a0bb
00000120: aa70 90bc 82ee bcbd 550d c83c c2fc 59bd
00000130: cc1d a73c 3634 7ebc 0992 83bd 42d6 a3bd
00000140: d133 d7bc 1649 893c 18df c3bc 52e6 dbbc
00000150: c33f 9abd fcdb b8bc a5be ab3c b1d0 d7bc
00000160: 8a04 1bbc 64ae 5bbd ba06 5b3d 766c 143c
00000170: 9c95 283d 2b8d 15bd 0f3d 4f3d 2881 fa3b
00000180: bc73 62bd 2db1 9e3d 66d3 ae3d 5a57 413c
00000190: 2b3e 2ebc 2e04 8cbc 806c 61bd 9689 29bd
000001a0: f045 253d 9035 ca3c a5c2 a9bc e114 543c
000001b0: 05ad e43b aa2a 07bc 6266 1fbc baec a2bd
000001c0: 75ae 8ebc b6e3 4d3c 9378 25bc aa0b f03c
000001d0: 20de 1dbd cef6 40bd 4ad2 a13c f9ee 30bc
000001e0: a9c8 773c 6466 cdbc b2d5 0bbd 92a7 0f3d
000001f0: 18cb cc3c 646b 453c 4645 53bd 88b8 073c
00000200: c592 ca3c 07b6 603d 5c58 aa3c 284f debb
00000210: ce5c d33c e1bd acbb 0a09 573d 9e10 753d
00000220: 6217 c23b d5c3 0bbd 4913 273d aa23 363c
00000230: dc46 90bb cd7e 6c3c 88f7 0bbb a791 133d
00000240: d75f 33bd 765b 2b3d 7c02 d03c 8fa3 d0bc
00000250: 661b dd3c 8457 e3bd cdd1 083d c8b6 3cbd
00000260: e36a 05bd 6c05 a0bc bed3 2dbd 369c 74bd
00000270: a1d4 fabc a04d f7b9 d8c7 15bd f8eb d6bc
00000280: 1a51 56bd faf8 053d 0d3f 9dbd 74d4 20bd
00000290: 15d8 f9bc 0f63 d0bc 2246 bbbc 3a57 85bc
000002a0: 2a8e 7a3d 96e6 4cbc 5245 c83c 7aee 22bd
000002b0: a228 4a3d 70a0 8bb9 94de 1d3b 78da 2ebd
000002c0: df5f 8f3c ac8f 32bc f22c e33c 8654 b6bc
000002d0: aa53 b0bd 207b aeba f186 953c c565 833d
000002e0: 0c42 8e3d 4c72 003d d079 fabb 4280 703d
000002f0: bdf1 70bc 9caf 06bb 0ae2 833d d5ae 47bd
00000300: 730d 503d 2b90 c03d c932 7fbc 5b3d 513d
00000310: aca9 8bbc 705f b03b d4d2 023b cb26 073d
00000320: 4328 0abd 3aec d23c 9128 84bb 06a5 273d
00000330: 3321 133c 8041 b6bc c05a 69bd 7a41 0abc
00000340: 4028 d1ba 7cb9 7c3d a33e bbbb 7cc4 01bd
00000350: 2462 9cbb a543 a63d 46c2 123d 51ef f43c
00000360: 3cab 333b 3ee4 36bd f13c ab3c 39eb 303d
00000370: f3af 35bc 77ee c9bc a4f5 33bd f552 5f3d
00000380: c806 3dbd e5c4 65bd 8a6e d4bc 15e3 6e3d
00000390: 0080 0837 2fc7 7e3d 9a93 9cbd efef 223c
000003a0: fc8f a9bc add8 d1bb 8c7a 063d da13 2f3d
000003b0: 8cea 4fbc 3931 a83c 3c58 d53a ac33 893d
000003c0: 0f98 933d cc2c 393c 5d5f 163d cad0 a7bc
000003d0: 89f4 19bd b541 58bd 3012 583a d23a 6d3d
000003e0: 80af 2339 8edb e83c 61e0 e43c 40d2 a43c
000003f0: ca71 bfbc 5829 abbc d68c b23c 0ca0 15bd
-0.019296106 -0.03646455 0.0516736 8.856063e-05 0.0014969851 -0.016096916 -0.07395639 -0.0085669365
0.029309658 0.012546705 0.019069506 0.02615533 -0.09315094 -0.052308384 -0.01605421 -0.02957686
-0.059349608 0.02913531 -0.0747731 -0.030676913 -0.07762554 -0.026662847 0.017421594 0.011148462
-0.004434547 0.0133499 0.05591043 -0.012181031 -0.076884985 0.014737139 0.025196925 -0.039651416
0.04154415 0.07170549 0.024828961 0.036370378 -0.08947467 0.0021488983 -0.020164242 0.02047449
0.013457662 0.02326992 0.045504697 0.055566803 -0.089830935 0.022128142 -0.04103277 -0.013383205
0.040489573 -0.026293725 -0.03936434 -0.051397696 0.008142035 -0.004534825 -0.021463715 -0.024663059
0.008954454 -0.049985602 0.020661546 -0.008139611 0.035050422 0.047847755 -0.10712982 -0.027709315
-0.077307604 0.008923046 -0.007327211 0.040306993 0.0003087381 -0.074266255 0.019400038 -0.0048911194
-0.017631847 -0.09225179 0.02442042 -0.053219564 0.02039995 -0.015515378 -0.06424338 -0.07999851
-0.026269825 0.016758483 -0.02391009 -0.026843224 -0.07531693 -0.022565834 0.02096493 -0.026344629
-0.009461531 -0.05363311 0.05347321 0.009059062 0.041158304 -0.03651158 0.05059534 0.007644791
-0.055286154 0.07748637 0.08536415 0.011800611 -0.010634939 -0.017091837 -0.055035114 -0.041390978
0.0403499 0.024683744 -0.020722697 0.012944431 0.0069786333 -0.008249918 -0.009729 -0.07955308
-0.017417172 0.012566498 -0.010099548 0.029302437 -0.038541913 -0.04711037 0.019753594 -0.010799163
0.015123525 -0.025073238 -0.034139343 0.035071917 0.024999186 0.01204953 -0.051579736 0.008283742
0.024728188 0.054861095 0.020794086 -0.0067843385 0.025801089 -0.0052716588 0.052498855 0.0598303
0.0059231976 -0.034122307 0.040789876 0.011116901 -0.0044029783 0.014434529 -0.0021357257 0.036027577
-0.043792572 0.04183527 0.02539181 -0.025468616 0.026990604 -0.11100677 0.033403207 -0.04607275
-0.03257264 -0.019533835 -0.04243826 -0.059719287 -0.030618967 -0.00047169346 -0.03656754 -0.026235566
-0.05232344 0.032708146 -0.076780416 -0.03926511 -0.030498544 -0.02543786 -0.02286059 -0.016276944
0.061170734 -0.012506148 0.024447117 -0.03977821 0.049355157 -0.0002663168 0.0024088966 -0.042688817
0.01750177 -0.010898512 0.027731393 -0.0222571 -0.08609708 -0.0013311841 0.018252822 0.064158954
0.06946191 0.031359002 -0.0076439157 0.058716066 -0.014706072 -0.0020551449 0.06439598 -0.048750717
0.050794076 0.09402498 -0.015576073 0.051083904 -0.01704868 0.005382471 0.001996209 0.03299598
-0.033729803 0.025747407 -0.004033156 0.040928863 0.008980083 -0.02224803 -0.05697131 -0.008438462
-0.001595743 0.06170033 -0.005714254 -0.031681523 -0.0047724415 0.08118371 0.035829805 0.029899271
0.0027415296 -0.044651262 0.020903083 0.043193076 -0.011089313 -0.024649842 -0.043935433 0.054522473
-0.046149045 -0.056095976 -0.025931615 0.05832203 8.136034e-06 0.062201675 -0.0764534 0.0099449
-0.02069854 -0.0064040036 0.032831714 0.04274354 -0.012690198 0.020531284 0.0016276906 0.06699309
0.07206737 0.011302184 0.03671204 -0.0204853 -0.037586723 -0.052797038 0.0008242456 0.057917424
0.0001561027 0.028425004 0.027939023 0.020119786 -0.023369689 -0.020893738 0.021795671 -0.036529586

std.constant6 f4 [128, 128]
00000000: 00a0 74bc 8c37 353d 2430 34bd 4271 06bd
00000010: 0f2b 8a3c 1301 1dbd c17d c9bd 8869 683c
00000020: 3d45 5f3c e20c 6e3d 411f ac3d 9cae ce3d
00000030: bb97 22bc b0e0 98bb 0c92 d5bc f896 3a3d
00000040: 3abd 8c3d 1776 0b3d fbbd 94bd 3226 afbd
00000050: d9e3 92bd 9d76 29bc 40c7 e13c f880 f83c
00000060: 491c 0cbe e3b6 1e3d f012 46bb 65ca 80bd
00000070: 969f 553c 2442 513d 2469 95bd 3823 75bd
00000080: a12a 1e3d 28db 39bc 7015 313a b1db 82bc
00000090: 62a0 a43d 9b23 053d 25be bc3c 0048 5cbc
000000a0: 3b0d 293d bcbd a2bc 42f1 ef3b 3ff2 823d
000000b0: 16c1 f9bc 4647 48bc e5dc ba3c 5208 013d
000000c0: a5fa 71bc d468 dcbc ccc3 2bbd b143 14bd
000000d0: 27a2 bdbc 29a8 54bd 0c1e 903d b922 3c3d
000000e0: 4c4f a43c be5d b03b 28b3 673b 2297 1abd
000000f0: b0c7 d2bc 446a 583d b083 643c 3215 0bbc
00000100: a2f0 64bc bfde 81bd e09d 4abd ff86 b13d
00000110: 42ec 80bc 4c75 483d 8d6d acbd 7f2e e63c
00000120: c0da 8e3c 0e09 333d 7a84 16bd 7156 473c
00000130: 6658 fa3c 64e0 5ebd a466 25bd 78b9 1dbc
00000140: 5b83 48bd 4ca7 e33c 969b 993c 85df 793d
00000150: cdc5 19bd b6cb cd3b 8848 d83b 7a7d ea3c
00000160: ae02 4fbd 0f6d 9ebd bd6a b9bb 7ca4 17bc
00000170: 0049 f1ba eceb 7dbc 6157 f43c 50db 5cbd
00000180: cee9 f33b 6023 a43d 926b 72bd 5d8e 733d
00000190: 366d 93bc 3434 b0bb 9008 2b3d 67c6 943d
000001a0: f461 bc3d 3cf6 bdbb 58a0 f63c 2be5 0fbd
000001b0: b0f1 0f3d 9bb8 11bd 910a 9c3d a8c9 a1bd
000001c0: 92df 27bd af08 9a3c 7904 70bc 2527 26bd
000001d0: 8c25 90bd 60d4 5c3d 5f9f 0fbc 1411 803c
000001e0: f02f 653d 13c2 ea3c 26aa d13c 6de3 d03c
000001f0: 79f1 b7bc 6369 67bd 4693 0fbd f059 983d
00000200: 4a55 b5bd 206f 733d 168d ff3c 7743 493d
00000210: 8e7f 50bd 4c12 0c3d 5f77 853d 95ee aabc
00000220: df26 9ebd de26 a9bd 34b6 57bd d008 29bb
00000230: 80a1 983d 1025 56bc fd9f cabc 0c00 b23d
00000240: 24ea a1bb fe6a 803b 5054 0ebc f060 8d3b
00000250: bea9 543d b87c c43c a1d9 4dbb 7c6c 853d
00000260: 1490 563d c04f f639 056d 82bd 8de8 973d
00000270: b58c 603d 5005 b9bc 591d bf3c e7b5 d23c
00000280: 27b0 7cbd 75c9 dabc b22c dcbc cdfb 24bc
00000290: 8d47 6abd 90e4 893b 2f0d 253d a66e c5bd
000002a0: 9262 003d 14ad af3c 3c89 993c 9da5 c03d
000002b0: 655b 133d 1142 733c a780 71bc 358d 2d3c
000002c0: e5e0 e93c bdf4 9f3c 21df f5bc 5506 7ebd
000002d0: 0df9 1cbd f0b3 e8bc 25c0 63bd 79ca a23b
000002e0: 5661 9ebc 08ba cebc 6141 0b3d 1503 933d
000002f0: 6518 4abd 319b b63b 2c6d c7bc 0bb1 84bd
00000300: a583 3abc d4f1 7f3c 76f9 2f3d e8c2 4abb
00000310: 7279 adbc 62b9 1fbc dab5 a33b 20a0 493c
00000320: 3739 aabd 96a5 e3bb 8d47 e83c adac 6fbd
00000330: cb4c 03bd 26de c7bd 49e7 013d 2cc2 83bc
00000340: 503a 14bc 9297 a1bb 7df0 5e3d b126 6c3d
00000350: 7291 61bd 4575 523d b055 173d 1eb4 e5bb
00000360: ccfe 463d 24f9 4c3d c630 013d bcce 25bd
00000370: d534 ec3c 5707 993d 542b 2fbc 78af 0ebc
00000380: 2668 4a3d b117 993d 8039 b138 ec28 e43b
00000390: 2009 313c 581f 133c 110d bbbc cc60 3e3c
000003a0: 2e9b 19bd 47d7 75bd decf 3e3c 5826 2d3a
000003b0: a815 4c3c 13c2 0bbd 3afd ce3c 2c24 a33a
000003c0: 549c 29bd 5ca8 4b3c 6a61 fcbc 78d2 84bd
000003d0: 5ce7 4e3c ae21 863d f618 ba3d 9cdc 59bd
000003e0: 9c7f a23b 9547 3abc 0f04 8a3c b428 babb
000003f0: fa06 86bd 6dae 133d ff74 3fbd 9162 54bd
-0.014930725 0.044242427 -0.043991223 -0.032822855 0.016866235 -0.038331103 -0.09838439 0.014185317
0.013627348 0.058117755 0.08404399 0.10091898 -0.009923871 -0.0046654567 -0.026070617 0.04555413
0.068720296 0.034048166 -0.072627984 -0.08552207 -0.07172365 -0.010343221 0.02756083 0.030334935
-0.13682665 0.038748633 -0.003022369 -0.06288604 0.0130385365 0.051088467 -0.072954446 -0.05984804
0.038614873 -0.011343755 0.00067552086 -0.015973898 0.08038403 0.03250466 0.023039887 -0.0134449005
0.041272383 -0.019865863 0.0073224613 0.06393861 -0.030487578 -0.012224024 0.022810409 0.031502075
-0.014769231 -0.026905455 -0.041934773 -0.036197368 -0.02314861 -0.051918183 0.07036981 0.04593155
0.020057343 0.0053822687 0.0035354588 -0.037741788 -0.025729984 0.052835718 0.013947412 -0.00848894
-0.013973387 -0.063413136 -0.049466968 0.086683266 -0.015737657 0.048939988 -0.08419333 0.028098343
0.017438293 0.043709807 -0.036747433 0.012166605 0.03055973 -0.054413214 -0.04038109 -0.009626739
-0.048953395 0.027789734 0.018750947 0.06100418 -0.037542153 0.0062803878 0.0066004433 0.028624285
-0.050539665 -0.07735645 -0.005658476 -0.009255525 -0.0018408597 -0.015498143 0.029826822 -0.05392009
0.007443643 0.0801456 -0.05918462 0.05946194 -0.017996412 -0.005377317 0.041756213 0.07264405
0.091983706 -0.0057971757 0.030105755 -0.03513066 0.0351426 -0.035576444 0.07619203 -0.07899791
-0.040984698 0.018802969 -0.014649504 -0.040564675 -0.070384115 0.053913474 -0.008766024 0.015633143
0.05595392 0.028656995 0.025593828 0.02549907 -0.02245401 -0.05649699 -0.03505256 0.07439029
-0.08854158 0.05943215 0.031195205 0.049136605 -0.050902896 0.034197137 0.06516909 -0.020865718
-0.07722258 -0.082593665 -0.052663997 -0.0025792606 0.07452679 -0.01307036 -0.024734491 0.08691415
-0.004941242 0.0039190045 -0.008687094 0.0043145344 0.05191969 0.023985252 -0.0031410235 0.065148324
0.052383497 0.00046980195 -0.0636845 0.074174024 0.05482169 -0.022585541 0.023329424 0.025721503
-0.06169143 -0.02670739 -0.026876781 -0.0100698 -0.057197142 0.004208155 0.040295776 -0.09640245
0.031344004 0.021444835 0.018742196 0.09406588 0.035975832 0.014847294 -0.014740146 0.010592748
0.02854962 0.01952588 -0.030013623 -0.062017757 -0.03832345 -0.028406113 -0.055603165 0.0049679843
-0.019333523 -0.025235191 0.033997897 0.07178322 -0.04933967 0.0055726995 -0.02434405 -0.06479081
-0.011383926 0.015621621 0.042962514 -0.0030938927 -0.021176074 -0.009748789 0.0049960436 0.012306243
-0.08311694 -0.0069472296 0.02835443 -0.058514286 -0.032055657 -0.09759168 0.03171471 -0.0160838
-0.009047106 -0.0049313987 0.054428566 0.057654087 -0.055070348 0.05138137 0.036946952 -0.007009997
0.048582837 0.050042287 0.031540655 -0.04048036 0.028833786 0.07472103 -0.010691483 -0.008708827
0.04941573 0.07475222 8.450728e-05 0.006962886 0.010805398 0.008979641 -0.022833379 0.011619758
-0.037501507 -0.060019758 0.011646239 0.000660514 0.012456335 -0.03412063 0.025267232 0.0012446693
-0.04140885 0.012430277 -0.03080817 -0.06485456 0.012628403 0.06549393 0.09086792 -0.053188905
0.00495906 -0.011369606 0.016847638 -0.0056811217 -0.065442994 0.036055017 -0.046742436 -0.051851813

std.constant7 f4 [128]
00000000: ab3d acbb 1a81 423d c82d 083b 72c4 90bb
00000010: f94c 263d 7e35 bd3c ce64 a93c 821e 373d
00000020: fa7a 71bb 95cc 19ba e0b1 c0ba b1b3 9b39
00000030: 8b33 4c3d f0bf c8ba 11a1 753d 4073 193c
00000040: 671d 89bb e3d5 003d bbf7 94bb a440 813d
00000050: c6b0 d73c d519 8a3d 28c0 5a3d 7552 653b
00000060: 9988 6c3c d92d b53c 01e9 14ba 5e8c fb3c
00000070: 557e 1e3d da2e c83c 4e7f e33c e25e 2a3d
00000080: df70 2a3d 792e 6e3c 7999 133d e4ae 123d
00000090: 9844 dc3c 834b 923c ec54 193c 8038 dc3c
000000a0: 3362 903d ed92 d63b 545a 4f3d 3965 4c3d
000000b0: 1ea5 2e3d ca46 053c cfed 433d d69f 333d
000000c0: 854c 123d 00bd 613d 4f77 a83d 5eb1 193d
000000d0: 32bd 383d 5568 723b 41fb e7ba eafc 62bb
000000e0: 03d0 303c 5b78 093d db88 fd3b 01b5 b13b
000000f0: 6f22 6d3d 4f3f 783c fadb 57bb b323 a3bb
00000100: ca7e 873d 7d72 9a3d 5223 5a3d 8c0b 053a
00000110: e2f5 f13c 279e d33a 2830 ef3c 5a40 5b3c
00000120: df21 053b a2cc ba3c f726 4e3d b036 6b3d
00000130: 823c b23c b198 623d 18ed 7f3d 882f 923d
00000140: 3250 0b3d 7d3d 713d e07c e13b f9a1 5fbb
00000150: fccc 59bb fc03 50bb 5f7a c23c 3f4d 9f3d
00000160: a84f 593d 80cf bd3c 8d2b 1a3d 688e 833d
00000170: d8b1 273c 591c 1b3d 5d62 7b3d 6fe5 a03c
00000180: bff9 693c 9421 433c 1162 673c c0ad a23d
00000190: 5fcc 2b3c fbd7 813d eb8d 463c 0716 933d
000001a0: 4050 8f3d 77a1 8d3d fb0e e63c e866 ae3c
000001b0: 4c90 e93c 1bc8 7b3d b385 a23b df38 9bbb
000001c0: 9331 b7bb a552 093c e378 ce3c c352 893d
000001d0: eb43 8a3c 5d71 47bb 8840 513d 1ae6 9cbb
000001e0: 701f ba3d ee4c 1e3d 9fe3 2e3d 470f 623d
000001f0: 4ad9 253d d1c9 303d bd36 d03c c961 693b
-0.005256375 0.047486402 0.002077924 -0.0044179494 0.04060075 0.023096796 0.02067795 0.04470683
-0.0036846981 -0.0005866972 -0.0014701448 0.00029697784 0.049853843 -0.0015315991 0.059968058 0.009365857
-0.0041844132 0.03145398 -0.0045461333 0.06311157 0.02632941 0.06743208 0.05340591 0.0034991775
0.014436864 0.022116588 -0.0005680472 0.03070658 0.0386947 0.024436403 0.027770665 0.041594394
0.04161155 0.014537447 0.036035035 0.03581132 0.026888177 0.017858272 0.009358626 0.02688241
0.0704998 0.0065482766 0.050623253 0.04990122 0.042637937 0.008134553 0.047834214 0.043853603
0.035717506 0.055111885 0.08225881 0.037522666 0.045102306 0.0036988456 -0.0017698781 -0.0034635612
0.010791781 0.033562046 0.0077372617 0.0054231887 0.057894167 0.015151813 -0.0032937513 -0.004978621
0.0661598 0.07541368 0.05325634 0.0005075268 0.029536191 0.0016145156 0.029197767 0.013382042
0.0020314378 0.022802655 0.05033013 0.0574252 0.021757368 0.0553214 0.06248197 0.07137972
0.034012027 0.05889653 0.0068813413 -0.0034123643 -0.0033233752 -0.0031740656 0.023739992 0.077784054
0.05305448 0.023170233 0.03763919 0.06423646 0.010235272 0.03786883 0.061373103 0.019640652
0.0142807355 0.011909861 0.014122502 0.079432964 0.010485738 0.06340023 0.012118797 0.07181936
0.06997728 0.069155626 0.028083315 0.021289304 0.028511189 0.061470132 0.004959786 -0.004737004
-0.0055906265 0.00838152 0.025204128 0.06705239 0.016878089 -0.003043256 0.051086932 -0.0047881724
0.090880275 0.038647585 0.042697545 0.05519035 0.040490426 0.043161217 0.025416726 0.0035611263

std.constant8 f4 [128]
00000000: 45b0 ffbb aee7 973a e52a 5ebc f3ff 11bc
00000010: 362d 753c ceb0 b2b9 de31 5d3b 4cbc 8f3a
00000020: 52a2 d7bb d6de 62ba 11e5 97bb 0018 c5bb
00000030: f45e 103b bd39 28bb ecee f1ba e872 623a
00000040: 1964 1a3c 82d7 913c 06f2 0abc 80af 2a3c
00000050: 7c74 cf38 f1d0 213c 3037 853b e3f5 363b
00000060: e460 8c3b 2a80 373c 2087 2fbb 4b23 713a
00000070: eb43 88b9 051c d93a d2fc 473b d5d2 68bb
00000080: c7c8 303c 7fb6 863c 0e7e 843b 26e0 aebb
00000090: f9ef 863c 8222 60bb ff64 82ba faec c1bb
000000a0: 13e5 f339 7dd6 febb 6191 eeba 9a82 963c
000000b0: f3d0 82bb e607 073c 1419 433c dd05 f33a
000000c0: 73df f6bb 27bc a0bc a54d 993c 89af 1bba
000000d0: 6069 4b3c e520 89bb 0196 96bb af83 b6b9
000000e0: 933c 15ba 940f 57ba ae11 653b 51bd 23bb
000000f0: 7348 ef3b 026c 993a 6a82 143b c379 0a3a
00000100: a4e0 983c a2ad d8bb 5339 ddbb f514 2abc
00000110: cf7b 6dbc 0665 9a3b 2d30 2f3b 3aee 9439
00000120: 1ed4 66bb 7946 8bbb e0e5 f1bb 2626 213c
00000130: 00b9 93ba 48c6 913b 9aaa 193b be83 8dbc
00000140: f569 2fbc 2837 9d3c 96ed 5a3a 4c82 643c
00000150: 788a 273c fdb0 493c 2fe4 9bba 2f64 35bc
00000160: 1741 a03b e0f9 713a 41a6 ba3b ec61 9fbc
00000170: eadb c939 e44c c339 9f5e 0f3c 8ef5 59bb
00000180: 8abc 253b 8928 16bc 2453 c7b9 f223 64bc
00000190: 0d68 1a3b 04fe 2c3b bf26 833c c02a 7a37
000001a0: 747c 983c 47a9 af3b aff9 203b 780c abba
000001b0: 1411 583c 5f16 c43b d3f9 f73a 208a 0abb
000001c0: 61b4 e3bb c712 19bc 7e75 553c f0ac 1abc
000001d0: c5d5 813b 70a6 08bb dff5 b5ba adf4 0cbb
000001e0: 6981 803c 777d 8abb 6c18 79ba 0763 46bc
000001f0: be39 0f3b b7c8 6f3b a2c7 7a3c d950 5d3b
-0.0078029954 0.0011589432 -0.013560032 -0.008911121 0.014964392 -0.00034082535 0.0033751647 0.0010966151
-0.0065806294 -0.0008654421 -0.004635461 -0.006014824 0.0022029253 -0.002566918 -0.0018458045 0.0008638338
0.009423279 0.017802957 -0.008480554 0.010417819 9.892226e-05 0.009876476 0.0040654168 0.0027917556
0.004284011 0.01119999 -0.0026783422 0.00091986795 -0.00025990544 0.0016564137 0.0030515683 -0.0035526056
0.010790057 0.016444443 0.004043347 -0.005336779 0.01647185 -0.0034200256 -0.0009948312 -0.0059181424
0.00046519245 -0.007777034 -0.0018201285 0.018372823 -0.003992194 0.008241629 0.011907835 0.0018541176
-0.0075339614 -0.019620968 0.018713782 -0.00059389375 0.01241526 -0.0041848295 -0.0045955186 -0.00034811857
-0.0005692925 -0.00082039204 0.0034953165 -0.0024984668 0.007302338 0.0011705162 0.002266074 0.0005282426
0.018661804 -0.0066124955 -0.0067512183 -0.010380973 -0.01449485 0.00471175 0.0026731596 0.00028406252
-0.0035221647 -0.0042503444 -0.0073821396 0.009835755 -0.0011270344 0.004448686 0.0023447634 -0.017274734
-0.0107064145 0.01919134 0.0008351443 0.013947081 0.010225885 0.012310264 -0.0011893566 -0.011071249
0.004890572 0.00092306547 0.0056960885 -0.019455872 0.00038501556 0.00037250586 0.008750587 -0.0033257934
0.002528938 -0.009164938 -0.00038018182 -0.013924586 0.0023560554 0.0026396522 0.016009687 1.4911115e-05
0.018614031 0.0053607556 0.0024562886 -0.0013049981 0.0131876655 0.005984112 0.0018919058 -0.0021139458
-0.006948993 -0.009342856 0.013028501 -0.009440646 0.003962251 -0.0020851158 -0.0013882479 -0.0021508143
0.015686708 -0.0042263824 -0.00095022353 -0.012108571 0.0021854485 0.0036588141 0.015306385 0.0033770113

std.constant9 f4 [128]
00000000: 0000 803f 0000 803f 0000 803f 0000 803f
00000010: 0000 803f 0000 803f 0000 803f 0000 803f
00000020: 0000 803f 0000 803f 0000 803f 0000 803f
00000030: 0000 803f 0000 803f 0000 803f 0000 803f
00000040: 0000 803f 0000 803f 0000 803f 0000 803f
00000050: 0000 803f 0000 803f 0000 803f 0000 803f
00000060: 0000 803f 0000 803f 0000 803f 0000 803f
00000070: 0000 803f 0000 803f 0000 803f 0000 803f
00000080: 0000 803f 0000 803f 0000 803f 0000 803f
00000090: 0000 803f 0000 803f 0000 803f 0000 803f
000000a0: 0000 803f 0000 803f 0000 803f 0000 803f
000000b0: 0000 803f 0000 803f 0000 803f 0000 803f
000000c0: 0000 803f 0000 803f 0000 803f 0000 803f
000000d0: 0000 803f 0000 803f 0000 803f 0000 803f
000000e0: 0000 803f 0000 803f 0000 803f 0000 803f
000000f0: 0000 803f 0000 803f 0000 803f 0000 803f
00000100: 0000 803f 0000 803f 0000 803f 0000 803f
00000110: 0000 803f 0000 803f 0000 803f 0000 803f
00000120: 0000 803f 0000 803f 0000 803f 0000 803f
00000130: 0000 803f 0000 803f 0000 803f 0000 803f
00000140: 0000 803f 0000 803f 0000 803f 0000 803f
00000150: 0000 803f 0000 803f 0000 803f 0000 803f
00000160: 0000 803f 0000 803f 0000 803f 0000 803f
00000170: 0000 803f 0000 803f 0000 803f 0000 803f
00000180: 0000 803f 0000 803f 0000 803f 0000 803f
00000190: 0000 803f 0000 803f 0000 803f 0000 803f
000001a0: 0000 803f 0000 803f 0000 803f 0000 803f
000001b0: 0000 803f 0000 803f 0000 803f 0000 803f
000001c0: 0000 803f 0000 803f 0000 803f 0000 803f
000001d0: 0000 803f 0000 803f 0000 803f 0000 803f
000001e0: 0000 803f 0000 803f 0000 803f 0000 803f
000001f0: 0000 803f 0000 803f 0000 803f 0000 803f
1.0 1.0 1.0 1.0 1.0 1.0 1.0 1.0
1.0 1.0 1.0 1.0 1.0 1.0 1.0 1.0
1.0 1.0 1.0 1.0 1.0 1.0 1.0 1.0
1.0 1.0 1.0 1.0 1.0 1.0 1.0 1.0
1.0 1.0 1.0 1.0 1.0 1.0 1.0 1.0
1.0 1.0 1.0 1.0 1.0 1.0 1.0 1.0
1.0 1.0 1.0 1.0 1.0 1.0 1.0 1.0
1.0 1.0 1.0 1.0 1.0 1.0 1.0 1.0
1.0 1.0 1.0 1.0 1.0 1.0 1.0 1.0
1.0 1.0 1.0 1.0 1.0 1.0 1.0 1.0
1.0 1.0 1.0 1.0 1.0 1.0 1.0 1.0
1.0 1.0 1.0 1.0 1.0 1.0 1.0 1.0
1.0 1.0 1.0 1.0 1.0 1.0 1.0 1.0
1.0 1.0 1.0 1.0 1.0 1.0 1.0 1.0
1.0 1.0 1.0 1.0 1.0 1.0 1.0 1.0
1.0 1.0 1.0 1.0 1.0 1.0 1.0 1.0

std.constant10 f4 [128]
00000000: 72db acbb 6838 443d 2238 093b 7595 8fbb
00000010: d5f8 253d 7486 bf3c 5489 a73c b138 3a3d
00000020: d69c 73bb 7254 19ba 57b7 c2ba 8e27 9839
00000030: 5b72 4c3d c12b dbba 4318 763d 8186 133c
00000040: 48fc 88bb 3e42 013d bd39 95bb d018 813d
00000050: 2b6e d63c cefe 883d f67c 5b3d 4394 643b
00000060: 9e05 6e3c dc7e b43c 24f4 06ba 56bf fe3c
00000070: d55e 1f3d 312f c93c 2e56 e53c cb87 2b3d
00000080: c23f 2a3d 91c6 6e3c 011b 143d de96 123d
00000090: 1023 dd3c 3687 923c 35ac 153c 394f dd3c
000000a0: 0be1 903d ab83 d63b 98ce 4e3d 1699 4c3d
000000b0: a2bb 2f3d 0caa 033c 9731 443d 4967 343d
000000c0: 8607 123d de3b 623d 37c7 a83d 1f1a 1a3d
000000d0: db7f 383d 0180 723b 092b 01bb 62c9 62bb
000000e0: 9834 2b3c 72a8 093d 28c4 fb3b f2da b53b
000000f0: 5841 6e3d 02c1 763c 7ce5 57bb ec3b a9bb
00000100: c146 883d 471f 9a3d 6131 593d 9ef0 9239
00000110: 5b11 f13c 50bc ca3a 0791 ee3c cfaa 5b3c
00000120: db97 073b 154a bc3c faf3 4e3d 6dd3 6b3d
00000130: f105 b23c f789 653d 4c20 7f3d 8f0a 923d
00000140: 9827 0c3d 8242 703d be26 df3b 7a06 5bbb
00000150: 75f7 5cbb e44b 4cbb e530 c03c 883a 9f3d
00000160: 8169 593d 8790 bd3c 68fb 183d e3b7 833d
00000170: 78a0 293c 2cfe 1a3d 1826 7b3d e57d a03c
00000180: 808d 6e3c 9ea9 433c 2e5c 683c 7caf a23d
00000190: 672a 273c 4608 833d fcf8 463c 11b4 933d
000001a0: 34eb 8f3d 1d07 8e3d 4f4c e23c 5e43 ae3c
000001b0: 28f4 e73c 8dd6 7a3d 159d aa3b 4cd0 9cbb
000001c0: 07dd b6bb fabb 073c 484b ce3c cf41 893d
000001d0: 38d8 8a3c 0ed2 46bb 5606 503d 85b5 9ebb
000001e0: 7217 ba3d 705f 1d3d 4dd3 2c3d 6f15 633d
000001f0: b977 263d 15c7 323d 298a d03c 17da 673b
-0.0052751834 0.047905356 0.0020937999 -0.0043818303 0.040520508 0.023379542 0.020451225 0.04546422
-0.003717234 -0.000584907 -0.0014855665 0.0002902117 0.049913745 -0.0016721414 0.06008173 0.009004236
-0.004180465 0.031557314 -0.004554002 0.06303561 0.026175579 0.06689225 0.05358597 0.003487841
0.014527706 0.022033148 -0.0005148074 0.031097095 0.0389088 0.024558635 0.027995195 0.04187755
0.04156471 0.014573709 0.036158565 0.03578841 0.026994258 0.01788674 0.009135296 0.027015315
0.070741735 0.0065464578 0.050489992 0.04995068 0.04290355 0.008036148 0.047898855 0.044043813
0.035651706 0.055232875 0.08241122 0.037622567 0.045043807 0.0037002566 -0.001970949 -0.0034604897
0.010449551 0.033607908 0.0076832958 0.005549782 0.058167785 0.015060665 -0.003294318 -0.005164614
0.0665412 0.07525497 0.053025607 0.00028026564 0.029427221 0.0015467498 0.029121889 0.013407423
0.0020689878 0.022984544 0.050525643 0.05757468 0.021731349 0.056039777 0.06228666 0.0713092
0.034217447 0.058657177 0.0068100384 -0.0033420608 -0.0033716832 -0.0031173164 0.023460815 0.07774836
0.053079132 0.023140205 0.037349135 0.06431558 0.0103532 0.037840053 0.061315626 0.019591281
0.014560103 0.011942295 0.014182134 0.07943627 0.010202981 0.063980624 0.012144323 0.07212079
0.07027283 0.069349505 0.027624277 0.021272358 0.028314665 0.061239768 0.005206714 -0.004785573
-0.0055805477 0.008284563 0.025182381 0.06702005 0.016948804 -0.0030337605 0.050787292 -0.004843416
0.09086503 0.038421094 0.0421937 0.055440363 0.04064152 0.04364689 0.025456505 0.0035377794

std.constant11 f4 [128, 7]
00000000: 1669 1e3d 9024 f8bc ff91 9bbd 68e6 5d3c
00000010: 0607 a7bd bd38 fdbc cc97 ee3c ece7 62bd
00000020: f646 d33d 31df e23d 50fa 073d 89b1 7fbc
00000030: a262 03bd ad09 c13d ed7f 8c3d 6b7b b5bd
00000040: 7ad5 5fbd c034 7ebb 77eb 4ebd 479b 763d
00000050: c01f 3cbd dd97 503d 82dc 453d a2da c03c
00000060: b777 b9bd 8877 b6bd 4818 893d 7112 9c3d
00000070: b469 96bd cd52 063d ab4c 893d 343a 2439
00000080: c9ee d3bd 753d c33a 4120 163b 8047 c1bd
00000090: c206 b53d c1df 5c3d 633c a8bd dae1 b7bd
000000a0: 8d65 a5ba 304a 653c 3daf e83c b96a 6cbd
000000b0: 8a95 e9bc 4541 9fbd c2ab d33c 957d 73bd
000000c0: 1800 8ebc 2ff3 743d fe36 d13d f683 acbd
000000d0: 78c5 db3c 733b db3d fcad d93d 3927 a73d
000000e0: 3a62 5f3d 2d28 c03d 16b6 38bd 3726 88bc
000000f0: db6b 223d e5e6 c33d 03ad 933c aaf7 263d
00000100: dc94 903d d003 94bd 2386 543d bfe3 13bd
00000110: 39af 673d 8e0f 993c b106 f03c 2aef c83d
00000120: a5b2 933d 89c0 5d3a 187a b63d 5eaa 5dbd
00000130: 103a cabd 82d8 ee3c b3ab 9d3d 6e1a 1ebd
00000140: bfc3 31bc e9fe 15bd d023 10bd 9e57 97bc
00000150: e967 b23d 0611 423d cd64 bf3d 3bcb a53c
00000160: b387 9bbd 0a3a 863c bbce 94bb d10b ac3d
00000170: 05eb 9d3b 9afb 183c e4dd 48bd baa6 823d
00000180: 905c 26bd d159 233d 0f74 6fbd bab5 033b
00000190: d6f5 7f3d cf06 123c 6634 7bbc 7060 d33d
000001a0: a0c5 3a3d 6737 5a3d d423 923d b426 8d3c
000001b0: a96d 78bd 9809 0f3d e939 a0bc bbc3 c4bd
000001c0: c007 953d 215b c0bd 6a82 65bc 2c3c b53c
000001d0: af9b 0fbd e8af 1ebc ea6c 81bc 67bf de3c
000001e0: 74bb 873d 6378 9fbc baaf c43c 476c 333c
000001f0: 8078 aa3c 81b2 d23d 55c3 393d 1db1 a13d
00000200: 0cf9 d6bb 299d 68bd 1f51 a1bd 022c b5bc
00000210: ea43 c33d 7d9b 90bd 4876 9fbb cf4f 16bd
00000220: e656 dc3d 9c77 c9bd 11fa 443d 6621 cb3d
00000230: e22c a93c 2596 da3d f3be a93d af6e c5bd
00000240: 2c62 8cbd 4345 1dbd 1f4a 9bbc 10e2 3ebc
00000250: fa47 a4bd c0bf 203c a8a1 01bd 2173 f93c
00000260: b1f1 353d 98fc 7dbd eaf6 0bbd e867 d93d
00000270: 3bb4 92bd c30a 65bc 3ea7 743d 5060 a83d
00000280: 6305 003d 4aea b93c 67df adbd b1e9 aabd
00000290: 90d1 9dbd 393e 91bd a403 753d d5e8 8bbd
000002a0: b8ea 173d c3e6 c6bd b16d 2b3d fc92 c13d
000002b0: 54d9 653d 399c f83c de1d 90bd ef68 6cbd
000002c0: aaea 8abd 115c c53d 1ce9 2cbd 3ed9 9cbd
000002d0: 67fb b8bd 83e5 cfbd 1562 82bc c1ff 4bbb
000002e0: 8e26 c43d f3af 133c 65d7 b73d c2e8 2ebd
000002f0: 5a6a d2bd f1c0 723d bf18 9e3d ff6e 1f3c
00000300: 4956 b33d fac4 0dbc 3f67 323d 2e80 893d
00000310: 6040 dabc d99e cbbd ecff 57bc 31c9 ac3d
00000320: e956 55bd d8cd 743d 6a70 c83d af67 a53d
00000330: 9ad5 ab3d 45f0 0ebc 7142 b13d 8ce9 f8bc
00000340: 5821 26bd 3c49 eebc 5f96 8c3d dbb1 c13d
00000350: 51b2 303c 3383 d2ba 4c80 0ebc ceb2 183d
00000360: a4d6 47bc dd16 813d a248 573c c5c1 11bb
00000370: 1d1a 843d 7e1a a83b 6549 933d e01f c93d
00000380: 01c7 8b3d e1f5 4f3c 55ed 923d f8e0 2cbd
00000390: 729f de3d b938 003d 81a3 8a3d bd23 b33d
000003a0: 0cc4 7a3d f945 b8bd a3fe 093d 3d40 74bd
000003b0: 815b c13c f86a 2dbd c757 a1bd c24f b13d
000003c0: e436 86bc 331b 15bb dda7 a73d 2881 543d
000003d0: 2659 863d 9c11 d93c f3c5 e13b cf61 2bba
000003e0: bb91 08bc 60dc 5e3d 6bd3 ad3d ff59 2a3d
000003f0: 333e 6a3d 7bac 463d 1c76 0b3d a4b8 8fbd
0.038674437 -0.030290872 -0.07596206 0.013543703 -0.081556365 -0.030910844 0.029125117 -0.05539696
0.10316269 0.11077727 0.0331977 -0.0156062925 -0.032076485 0.09425674 0.068603374 -0.08861431
-0.054646946 -0.0038788766 -0.050517526 0.060206678 -0.045928717 0.050926078 0.048305996 0.023541752
-0.09056037 -0.089095175 0.066940844 0.07620705 -0.0734438 0.03279381 0.067040764 0.00015661941
-0.10348279 0.0014895635 0.0022907408 -0.09437466 0.088391796 0.053924326 -0.08214643 -0.08978625
-0.0012618765 0.013994738 0.028403873 -0.057718966 -0.028513689 -0.07776121 0.025838736 -0.059445936
-0.01733403 0.05980223 0.10215567 -0.08423607 0.026827559 0.107046984 0.10628888 0.08161778
0.054537036 0.09382663 -0.045095526 -0.016619785 0.03965364 0.09565524 0.018026834 0.040763535
0.07059643 -0.0722729 0.051885735 -0.036105867 0.05656359 0.018684175 0.029300066 0.09811242
0.07211808 0.0008459171 0.08910006 -0.054117553 -0.09874356 0.029155973 0.07698765 -0.038599424
-0.010849892 -0.036620054 -0.035190403 -0.018474396 0.087112255 0.047379516 0.09345398 0.02023851
-0.07594242 0.016385097 -0.0045412458 0.08400691 0.0048192763 0.00933733 -0.049039736 0.06379457
-0.04061562 0.039880577 -0.05846029 0.002009733 0.062490307 0.008912756 -0.015332317 0.10321128
0.045598626 0.053275492 0.0713574 0.01723037 -0.060651455 0.03492126 -0.019558864 -0.09607645
0.07276869 -0.093923815 -0.014008144 0.022123419 -0.03506058 -0.009685494 -0.015799005 0.027190877
0.06627551 -0.019466585 0.024009574 0.010951108 0.020809412 0.10287953 0.0453523 0.0789511
-0.0065604504 -0.056790505 -0.07876801 -0.022115711 0.09534438 -0.07060907 -0.004866395 -0.036697205
0.10758762 -0.09837267 0.048090044 0.099184796 0.020651285 0.10673169 0.08288374 -0.09640252
-0.06854662 -0.03839613 -0.018956242 -0.011650577 -0.08021541 0.009811342 -0.031648308 0.030450406
0.044419948 -0.06200847 -0.034171022 0.10615522 -0.071632825 -0.013979617 0.059729807 0.08221495
0.031255137 0.022694726 -0.08489876 -0.08345354 -0.077059865 -0.07091946 0.059817925 -0.068315186
0.03708908 -0.09711983 0.041852657 0.09451863 0.056115463 0.03034793 -0.07036947 -0.05771726
-0.0678304 0.09636701 -0.042214498 -0.07658623 -0.09032326 -0.10151198 -0.01591591 -0.0031127783
0.09577666 0.0090141175 0.0897663 -0.042702444 -0.10274191 0.059266035 0.07719564 0.009731053
0.08756692 -0.00865292 0.043555494 0.067139015 -0.026642025 -0.09942407 -0.013183575 0.08436812
-0.052084837 0.05976662 0.09787066 0.08076417 0.08390351 -0.008724277 0.08655251 -0.030384801
-0.040559143 -0.029087655 0.068646185 0.09457751 0.010784701 -0.0016060829 -0.008697581 0.037279896
-0.01219717 0.06303189 0.013139876 -0.002224074 0.06450293 0.0051301112 0.07191733 0.09820533
0.06825066 0.012692899 0.07174174 -0.042206734 0.108702555 0.031304095 0.06769467 0.08747051
0.06122212 -0.08997721 0.033690106 -0.059631575 0.023603203 -0.04233834 -0.0787807 0.08657791
-0.016383596 -0.0022751808 0.08186314 0.051880985 0.065599725 0.026497655 0.0068900525 -0.0006537707
-0.008335526 0.054409385 0.084875904 0.041589733 0.057188224 0.048504334 0.034048185 -0.07017639

std.constant12 f4 [128, 7]
00000000: b043 633d 15a3 c53d f27b 73bd afc7 c33c
00000010: cf89 653d 7741 003e a176 8c3c 139b 84bd
00000020: 30a8 d13d f8cb 663d 0420 c5bc 4129 06bd
00000030: 892c db3d fa58 523e 8c38 d03d 3929 6abd
00000040: 68f6 e23c 94d0 b73d f37e 3abb 21d7 153d
00000050: 4549 983d 9b1f 2a3d af5e dbbd 570f 513d
00000060: 9251 443d 7d4f 763d ecd8 89bc fc7b d13d
00000070: d4e6 d43c 5043 3abd d956 99bc b9fa f13c
00000080: 4328 fcbc 9fe3 c7bd ec19 25be 2541 0fbd
00000090: 5050 b7bd 7800 9cbd 15ea 05bd 63c1 afbc
000000a0: bb03 8ebd 6585 16be abf4 cf3c 7220 aabd
000000b0: af79 09bd d5d1 a33d 6c68 0ebd 141d 58bd
000000c0: 6170 08be 2e1b 8bba 296b 2b3d 3856 a23d
000000d0: 57dd 40bd 07e2 d3bd fbc4 153d 8f09 313e
000000e0: 016d 263d eb20 c33d a3d6 e9bc 4da3 c2bd
000000f0: 132d 653c 2bc6 123d 512b 9e39 211b b0bd
00000100: 0aa7 85bd 3981 163c 6449 0b3d 214e 333d
00000110: 6d86 76bd 5cee 533d 9920 7b3c d93b 863d
00000120: 7db1 5dbc a3eb b83c 46cd b1bd af39 893c
00000130: 6bd7 75bd bdef bd3b 763e a63c 93af 5abb
00000140: 749a 473d eb87 a33c be83 0bbd 05b3 6abd
00000150: 812a 513c de79 11bb 59e3 7c3c 6326 be3d
00000160: b6cd adbd 27e6 e0bc 6e69 4d3e f760 29bd
00000170: 41b5 7ebd aa6c 27bd 9163 78bd 9dcd c3bd
00000180: 4e78 abbd 1115 68bc 3b3e 6e3c 5796 94bb
00000190: dfa1 3cbd 9d01 593c 38cf de3d 9316 d33c
000001a0: 0d65 5cbe 722e 543d 49bc 92bd 866c 10bd
000001b0: 03db a63b a8ac 6ebc b35f e63d 7fae bb3d
000001c0: f708 c5bd 952f dc3d 4a21 e8bc 2808 52bc
000001d0: adf3 adbc d8db e1bd 90b5 9c3c 489d b0bd
000001e0: cea4 c23c 8de1 32bd e071 f5bc 295f 97bd
000001f0: 3493 21bd 0873 1fbe 60ac f43b 4ec0 03b9
00000200: 9b27 b63c 33d6 003d 04d7 a53d f964 afbc
00000210: 655d 88bc d549 a63d 70f0 82bd a860 cd3d
00000220: b3ac 5b3d ef40 05bd bf4e 24bd 4047 4dbe
00000230: 4450 01bd 3efe 113d 7e7b 23bd d9c4 8cbd
00000240: cc88 d93b 5e24 203d 5789 22be a6d1 d63c
00000250: fb7c 653d df19 973d d660 c0bd 3f5b 46bd
00000260: 6da0 cebd 9cb1 73be 19e7 e1bd 6f57 8f3d
00000270: 66f3 cfbd 7e46 d5bb d5f5 b73d 6ff9 e43c
00000280: 2443 57be 0377 b83d 0898 15bc 12e1 813d
00000290: c70c 94bd 142e 763d 2879 e23d 6853 babd
000002a0: dea7 ccbd 2963 a8bc 1078 e43a fc89 c7bc
000002b0: 766b d1bb ead9 09be d0b4 063e 993d ddbd
000002c0: 736b 983d a559 a73d d6dd 9dbd 229c 5cbc
000002d0: b0c1 9abc f679 0ebe 8cdf 3dbd 9daa dc3c
000002e0: 7f98 04bd 079b 75bd d263 283a e779 0bbe
000002f0: 7ebf 833d 70cc 843d c91d b33c 68a6 8f3d
00000300: 7bca c3bd 8235 4ebd 129a 03bd 6393 153e
00000310: 9346 ddbd c5e1 84bd f8c4 e3bd 83ad c83d
00000320: 6bab e83d f2f9 f23c 118b 2cbe a113 a9bd
00000330: bf6e a7bd 0ad3 7ebc 309e b73c 05f2 45bc
00000340: f677 adbd 7e9e 16be aa83 78bd 3a0c 9dbc
00000350: 83a7 f43b 126f c13d 6dd6 503c cf73 64bd
00000360: 70cf 11be 58e0 d03d a182 16bd 84bd 0abd
00000370: e9aa 30bd fb37 8dbd 8dc9 fb3d f43c 2a3e
00000380: 8c10 073b f1cd 5ebd edae db3a d7fb 043e
00000390: 9816 55bc 6647 7fbd 3360 14be d86c c23c
000003a0: 5bfb 42bd 791c db3b ef9b abbd a8e7 4c3d
000003b0: 43b7 a6bd 9082 cdbd 8576 773c be8f 2c3d
000003c0: 014a a0bd 85d8 2abd c3d1 03be cf31 b3bc
000003d0: b6e8 163e 214c ae3d ca4d 25bd 5483 0fbc
000003e0: 88f3 75bd acf6 b13d e439 dd3d 0bef 323e
000003f0: be76 0ebd 4cdd 233d 2aa2 57bd f1eb a9bc
0.055484474 0.09650246 -0.059444375 0.023898927 0.056039628 0.12524973 0.01714641 -0.064748906
0.10237157 0.056346864 -0.024063118 -0.032754187 0.10701854 0.20541754 0.101670355 -0.05716822
0.027705386 0.0897533 -0.0028457015 0.036582116 0.0743585 0.041534048 -0.10711419 0.05104002
0.047929354 0.0601344 -0.01682707 0.10228726 0.025988974 -0.04547435 -0.01871817 0.0295385
-0.030780917 -0.09760212 -0.1612317 -0.034974236 -0.08950865 -0.07617277 -0.03269394 -0.021454519
-0.06934305 -0.14699323 0.025385221 -0.0830697 -0.033563312 0.07999007 -0.034767553 -0.052762106
-0.13324119 -0.0010612959 0.041850243 0.07926601 -0.047086086 -0.10345846 0.03656481 0.17288803
0.040631298 0.09527763 -0.02854473 -0.095038034 0.013987797 0.03583352 0.00030168382 -0.085989244
-0.06526001 0.0091860825 0.034005538 0.04377568 -0.060186792 0.05174099 0.015327596 0.06554384
-0.013531086 0.022573298 -0.08681731 0.016751138 -0.06001989 0.0057964013 0.020293456 -0.003336881
0.048731282 0.019962272 -0.034061186 -0.057299633 0.012766481 -0.0022197883 0.015435063 0.092846654
-0.08486502 -0.027453495 0.2005975 -0.04135224 -0.062184576 -0.040875115 -0.06064183 -0.09560702
-0.08372556 -0.014165179 0.014541204 -0.0045345235 -0.04605281 0.013245014 0.108793676 0.0257676
-0.21522923 0.051802106 -0.07164819 -0.035259746 0.005092026 -0.014567532 0.11248722 0.09164142
-0.096208505 0.10751263 -0.028336186 -0.012819327 -0.021234358 -0.1102826 0.019129544 -0.08623749
0.023760226 -0.043672133 -0.029961526 -0.07391197 -0.039447024 -0.15571225 0.0074668378 -0.00012564773
0.022235682 0.031454276 0.080976516 -0.021410452 -0.016646096 0.08119551 -0.06393516 0.10028201
0.053631496 -0.03253263 -0.04011416 -0.20046711 -0.031570688 0.035642855 -0.039912693 -0.06873483
0.006638622 0.039097182 -0.15872703 0.026223015 0.056027394 0.073779814 -0.0939347 -0.048426863
-0.100891925 -0.23798221 -0.110304065 0.069990985 -0.101538464 -0.0065086475 0.089824356 0.02795097
-0.21021706 0.09007075 -0.009130485 0.06341757 -0.072289996 0.060102537 0.11058265 -0.0909794
-0.099929556 -0.020555096 0.0017430801 -0.024357788 -0.006390984 -0.13462034 0.13154912 -0.108027644
0.07442369 0.08171395 -0.077083275 -0.013464959 -0.018891186 -0.13913712 -0.04635577 0.026936824
-0.032371994 -0.0599623 0.0006423566 -0.13620721 0.064330086 0.06484306 0.021864789 0.07014161
-0.095601045 -0.050343998 -0.032129355 0.14607005 -0.108044766 -0.064883746 -0.11121553 0.0979872
0.113608204 0.029660199 -0.16849925 -0.08255697 -0.0817542 -0.015553245 0.022414297 -0.012081628
-0.08470146 -0.14708897 -0.06067244 -0.01917087 0.007466258 0.09445013 0.012746436 -0.055774506
-0.14239287 0.1019904 -0.03674567 -0.033872142 -0.043131743 -0.06895443 0.12294302 0.16624814
0.0020609228 -0.05439562 0.0016760506 0.12986694 -0.013005875 -0.06232395 -0.14489822 0.023733541
-0.047602993 0.006686744 -0.08379351 0.050025612 -0.08140423 -0.100346684 0.015103941 0.04212927
-0.07826615 -0.041710395 -0.12872986 -0.021874337 0.1473721 0.08510614 -0.04035739 -0.008759338
-0.060046703 0.08689627 0.108020574 0.17474 -0.03478121 0.040005967 -0.052644886 -0.020742388
