AirQualityApp/AirQualityApp.Android/Assets/TurkuShort.tflite (tflite, 814948 bytes, 24 tensors)

std.constant3 f4 [128, 128]
000000 90 93 89 bc fd 8d 3e 3b 74 40 8d 3c 1b 0e 28 bd
       -0.016793996 0.002907633 0.017242648 -0.041029077
000010 3b 62 5f 3d b9 2d 6c 3c 03 53 a8 3d 10 ec 06 3d
       0.05453704 0.014415198 0.08218958 0.03293997
000020 ae 3f 7e 3c 5f 2f bf 3b 63 0f 9b 3c 78 6f e2 3c
       0.015518112 0.0058345045 0.018928235 0.027641043
000030 be d5 52 bd 35 4d 83 3c 05 49 a5 3d f3 b7 15 bd
       -0.05147337 0.016028026 0.08070568 -0.03655238
000040 98 54 af 3c d0 b5 08 bb 78 4c 9e bc a9 57 e5 bb
       0.021402642 -0.0020860322 -0.019323573 -0.0069989753
000050 82 45 64 bd 94 da 0f bc 7e c7 5f 3c a0 d6 ba 3c
       -0.05573035 -0.00878014 0.0136584025 0.02280742
000060 b0 e2 2e bd 2e 16 8f 3d a1 b1 16 bc c4 bd bb 3d
       -0.042696655 0.06986652 -0.0091976235 0.09167054
000070 4c 97 0d ba ca 2f bf 3c 0d d8 7e bd c2 ee 39 3c
       -0.0005401268 0.023338217 -0.06221776 0.011348428
000080 30 45 73 bc b0 b3 25 3d 13 d6 20 3d ab 96 18 bd
       -0.014848039 0.040454566 0.039266657 -0.037253063
000090 44 76 90 3c 79 c0 71 3c 7c 86 87 3d 84 17 d3 3b
       0.017634518 0.014755362 0.06617448 0.0064420123
0000a0 4a 59 3a bd 8b cc 2f bd ee 0c 0e bd a2 10 ed 3c
       -0.04549531 -0.042919677 -0.0346803 0.028938595
0000b0 4b 9b 2e bc 15 62 85 bd 10 fb 02 bb d4 9d 82 3d
       -0.010657142 -0.06512848 -0.001998607 0.063777596
0000c0 6f 77 ea bc 2c c4 3e 3d 84 35 e0 bb c8 c7 72 bc
       -0.028621404 0.046573803 -0.006842317 -0.014818139
0000d0 69 34 34 bc 2c aa 61 bd 72 a0 7e bd 58 42 e8 bc
       -0.010998824 -0.05509393 -0.06216473 -0.028351948
0000e0 1d 65 34 bd aa fc 16 bd 64 e2 cf bc a6 9c b6 bc
       -0.04404174 -0.036862053 -0.025376506 -0.022291493
0000f0 20 61 f0 3c e8 d2 6b bc 9b 93 af 3c 95 ad 94 bc
       0.029343188 -0.014393546 0.021432688 -0.018149177
000100 69 4f 04 be ae b3 9e bd 87 2d 0c 3e a0 4b 50 bc
       -0.12920918 -0.07749115 0.13689242 -0.012713343
000110 c0 ec bc 38 f2 35 d0 bc 50 92 37 3c 0e e0 88 bd
       9.008637e-05 -0.025416348 0.011204317 -0.0668336
000120 a5 56 b1 bc 6e f5 6a bd 18 6c 34 bd fa e2 07 3d
       -0.02164776 -0.057362966 -0.0440484 0.033175446
000130 58 1f 33 3c f5 38 15 bd fc cd 34 bd f7 15 1c 3d
       0.010932766 -0.03643127 -0.044141755 0.038106885
000140 1f 39 82 bd 9c f5 4b 3d 56 84 86 3c d6 6e be 3d
       -0.06358551 0.04979478 0.016420525 0.09298484
000150 22 b3 a0 bc f7 b5 a2 3b c0 ac 30 bd e0 19 6e bb
       -0.019616667 0.0049655396 -0.043133497 -0.003633134
000160 20 f7 16 3a 27 41 2c bc f4 1f 24 bd 5c 73 eb 3c
       0.00057588704 -0.01051358 -0.040069535 0.028741531
000170 de 34 7a 3c 37 27 d4 3c 44 6e 63 3b a2 e4 85 bb
       0.015271394 0.025897605 0.0034703175 -0.004086093
000180 1e 9d c2 bc 2e ee ea 3c b1 eb 86 bd 50 57 a3 bc
       -0.02375656 0.028678026 -0.06587923 -0.019939095
000190 fb 08 87 bd 00 7a 51 3d 83 6c 86 bd 67 58 8e bd
       -0.0659351 0.05114174 -0.06563666 -0.06950455
0001a0 e9 08 e8 bc c0 8f b4 39 38 c5 a5 bc f1 09 09 3c
       -0.028324561 0.00034439377 -0.020235643 0.008364187
0001b0 7b 00 81 3d d5 79 ae bc c2 a8 66 3d e8 34 54 bc
       0.0629892 -0.021298328 0.056313284 -0.012952067
0001c0 1d 06 71 bd 32 89 c9 3c 0e c0 e4 bc 02 71 43 bc
       -0.05884372 0.024601553 -0.02792361 -0.011928799
0001d0 e4 d6 76 3d fb 35 8e bc 66 a6 19 bd 26 c8 91 3c
       0.06026353 -0.017359724 -0.037512206 0.017795634
0001e0 36 eb 2e bd 96 1e 19 3b 0e 11 d1 3b 92 ec db 3c
       -0.042704783 0.0023364178 0.006380207 0.026846204
0001f0 ce 7e cb bc 6f f1 66 3d 7e 94 d4 3c 09 08 42 3d
       -0.024840739 0.056382593 0.025949713 0.047370944
000200 71 f5 49 bd a6 9d 08 bc 44 95 02 bc fb 21 80 3c
       -0.049306337 -0.008338368 -0.007970158 0.015641203
000210 79 9a 02 3d 40 40 e1 b9 b0 d4 e5 3c 79 0f 79 3d
       0.031885598 -0.00042963214 0.028055519 0.06080577
000220 47 88 d4 bc fe 46 95 3c 53 c1 f9 bc c8 c3 71 bd
       -0.025943888 0.018222328 -0.030487692 -0.059024602
000230 4e dc 87 bc fe f2 03 3c 96 32 6d bd e9 ba c3 3c
       -0.016584542 0.008053539 -0.05790957 0.023892837
000240 6e 00 fa 3c 2c c9 a6 bd a4 23 e1 ba c8 7b 56 bd
       0.030517783 -0.08143839 -0.001717676 -0.05236414
000250 21 f7 c4 3d 79 71 b0 bc 30 f6 37 3d 92 1a 78 3d
       0.096174486 -0.021538483 0.044912517 0.060572214
000260 8f 1b 89 3c ce 90 97 3c 14 6b 9a ba c2 e6 5a bd
       0.016736774 0.018501665 -0.0011781179 -0.053442724
000270 3d 9e e3 bd 0f 6b 7a bd 0a 22 e7 bc 02 52 33 bc
       -0.11114166 -0.061137255 -0.028214473 -0.010944845
000280 08 2e 20 3d b2 c7 12 bd 90 56 3e 3d d5 b2 c3 3d
       0.0391064 -0.035834976 0.04646927 0.09555594
000290 38 fb e3 bc 34 c1 78 3d 7e c8 e8 bc 12 85 54 3d
       -0.027829751 0.060731128 -0.028415915 0.05188472
0002a0 92 bb f9 bc fc 5c 5f bd c8 45 96 3d 1d ef 1a bc
       -0.030484948 -0.054532036 0.073375285 -0.009456423
0002b0 2c 05 52 3d 9c 82 51 3b 46 de aa 3b 70 21 5b 3c
       0.051274464 0.0031968718 0.0052144853 0.013374671
0002c0 34 57 9d 3d ca 6c 87 bd 77 92 6d bc 37 bb 84 bc
       0.07682648 -0.06612547 -0.014500252 -0.016202552
0002d0 ba a2 1f 3c 8f a1 70 3d 81 ed 2a 3d ee 7b 08 3d
       0.009743387 0.058747824 0.041730408 0.033321314
0002e0 9c 71 35 bd 6a 0b 30 3c 0e 79 83 bd c8 ad fd bc
       -0.0442978 0.010744909 -0.06419574 -0.030966654
0002f0 9f 54 54 bc 40 3e f1 bb 71 e6 78 bd 8d 8c 52 3d
       -0.012959628 -0.007362157 -0.06076664 0.05140357
000300 6d 75 8d 3d ba 77 d7 bc 32 94 9b bc 22 c6 9c 3c
       0.06907163 -0.026302207 -0.018991563 0.019137446
000310 53 86 36 bd a1 78 0b bd ff bb b3 bc 58 e0 e4 3c
       -0.044561695 -0.034050588 -0.02194023 0.027939007
000320 4e e9 94 3c 0f 76 3d bd 76 c9 53 bd 98 4e bb bc
       0.018177655 -0.046255168 -0.0517058 -0.022864625
000330 02 82 00 bd 4c bc 66 3d 3e 5e 38 bd e0 6b d9 3c
       -0.031373985 0.056331918 -0.04501175 0.026540697
000340 2c 46 5f bd f3 d8 29 bd cc 39 9b bc b0 05 67 3d
       -0.05451028 -0.041466665 -0.018948458 0.05640191
000350 26 f0 a1 3d 67 ec 1c bd da c5 d9 bc ac fc d3 3c
       0.07907133 -0.03831139 -0.0265836 0.02587732
000360 90 18 47 bc 68 42 37 3d a2 ba 3d 3c 61 cf a2 3d
       -0.012151852 0.044741064 0.011580141 0.07949711
000370 08 fc 19 3c 6d 9b 80 3d 9e 41 85 bd 10 40 6e bd
       0.009398468 0.06279645 -0.06506656 -0.058166564
000380 da ea 86 3d 54 d0 54 bb 33 18 92 bd de 85 d2 3d
       0.06587763 -0.0032472806 -0.07133522 0.102794394
000390 42 4a 03 3d bd 4b ab 3d 00 08 ae 3c c0 5d 23 3a
       0.03205324 0.08364055 0.02124405 0.00062319264
0003a0 d9 9e 68 3d 1a 80 21 3c 48 d2 a5 bd a0 30 bb 3d
       0.056792114 0.009857202 -0.080967486 0.09140134
0003b0 48 c3 ac bc 72 d5 e4 3c 9f 7e 32 3d fa 6e 19 3d
       -0.021089211 0.02793381 0.043577787 0.03745935
0003c0 e9 6c a8 3d 64 3f 64 bd 52 ab 0c 3c 24 d2 f4 3c
       0.08223898 -0.055724517 0.008585768 0.02988536
0003d0 9e d4 af 3c 44 b1 cf 3b 37 91 ac bc 69 b1 70 bc
       0.021463688 0.0063382704 -0.021065338 -0.014690735
0003e0 c3 98 74 bd f5 2e 4a 3d e5 7c 72 bd 50 43 a3 bc
       -0.059715997 0.049361188 -0.05920114 -0.019929558
0003f0 36 7d fa bc aa 0b 90 bd 10 bf b5 bc 1e f3 ab 3d
       -0.030577283 -0.07033475 -0.022185832 0.0839598

std.constant4 f4 [128, 128]
000000 3b d7 06 3c 74 74 99 3d e8 ba 82 3d 92 6d d5 3c
       0.008230026 0.07492915 0.06383306 0.026053224
000010 24 91 ca 3c de d2 b9 bb 0e f7 dd 3c 86 13 6f bc
       0.024727412 -0.0056708893 0.027095344 -0.014592057
000020 85 9e 63 bd 57 1d 30 bd 3e bd 04 bd af c0 f1 3a
       -0.055571098 -0.04299673 -0.032407038 0.0018444265
000030 82 8e 43 bb 02 68 20 bd 00 3f ca bd 28 16 b1 3c
       -0.002983958 -0.03916169 -0.098752975 0.02161701
000040 f4 d1 aa 3c 68 25 7f 3d 02 56 d0 3c 04 58 2a bd
       0.020852067 0.062291533 0.025431637 -0.041587844
000050 b4 16 83 bd 60 01 12 3b 00 a5 f2 3a 67 37 d8 3c
       -0.06400815 0.0022278652 0.0018512309 0.026393605
000060 46 b8 3d 3c 0e 55 52 bc 33 15 06 3d 9e f8 97 bb
       0.011579579 -0.012837661 0.03273506 -0.004637792
000070 54 45 8d 3b 2f b7 1b bc 3c ea bf bb fa c0 31 3d
       0.004311243 -0.009504124 -0.0058567803 0.043396927
000080 3a 04 d8 3b e9 09 fe 3c 72 af cc 3d bb b2 dd bc
       0.0065923007 0.031010585 0.09994401 -0.027062764
000090 2a 74 20 bc 38 b4 a9 3b bf 1c 98 3d 49 f9 1b bd
       -0.009793321 0.0051789545 0.07427358 -0.038079534
0000a0 f6 bb 68 bd 7c 37 4f 3d 99 a1 37 bd 97 19 b6 3d
       -0.05681988 0.050590023 -0.044831846 0.088915996
0000b0 da 8c 2d bc 89 3b 51 3d de 60 b4 3d fb de 86 3c
       -0.010592664 0.051082168 0.088075384 0.016463747
0000c0 9c 4f 9d bb 96 88 f4 bc fc cb 05 be c8 c1 a7 bb
       -0.00480075 -0.029850286 -0.13066095 -0.005119536
0000d0 2e f6 71 bc 40 75 83 bd 04 85 b8 bd 9e 90 5d bd
       -0.0147681665 -0.06418848 -0.09009746 -0.054092996
0000e0 6e e3 07 3c 0e 09 ff 3b e6 30 3b bd 59 4e c2 bd
       0.00829397 0.007783062 -0.04570093 -0.094876
0000f0 74 96 ba bc 78 6f 05 3b d8 22 5d 3d 65 aa a3 3d
       -0.02277682 0.002036063 0.053988308 0.079914846
000100 28 9f 96 3d 80 7d b9 bc e0 31 57 3b c4 16 70 bd
       0.073545754 -0.02264285 0.0032836124 -0.05861546
000110 8b 37 93 3c 3b d5 57 bd 72 01 92 bd 76 f4 70 3b
       0.01797082 -0.052693587 -0.07129182 0.0036766804
000120 65 14 d3 3c 4c 29 bc 3b 7d 28 c2 3c f5 6a 50 bb
       0.02576656 0.0057422277 0.023700947 -0.0031802033
000130 40 c1 12 bc 34 a3 f3 bb cd e1 34 3c c5 7d 1a bc
       -0.008957207 -0.007435227 0.011040163 -0.0094294
000140 db 1b 9e 3d 3d 34 52 bc 21 cb 98 bd 2b 40 da bc
       0.07720157 -0.012829837 -0.07460619 -0.026641926
000150 90 7a 06 be 63 61 9f bb e0 66 97 3d 1c e9 18 bd
       -0.13132691 -0.0048639043 0.07392669 -0.037331685
000160 98 91 c5 bd 07 4d c6 3c 0f 06 c7 3d 07 99 51 bd
       -0.096469104 0.024206651 0.097179525 -0.05117133
000170 0e c9 d2 bc d9 b3 bf bd 97 07 36 bd 77 11 54 bd
       -0.025730636 -0.09360475 -0.044440832 -0.05177447
000180 fc 07 d8 3b 5c 42 01 3d bc 6b 62 bd 1e e2 92 bd
       0.0065927487 0.031557426 -0.055278525 -0.07172035
000190 c8 90 07 bd 0b 71 10 3d b4 d8 4a 3c 68 b6 57 3b
       -0.03309706 0.035264056 0.012380768 0.003291512
0001a0 a9 1e 46 bd df 8a e0 bc 32 d4 e1 bb 17 b1 11 bd
       -0.048369084 -0.027409969 -0.0068917507 -0.035569277
0001b0 9b da 40 3d 38 40 6c 3d d8 00 18 bd 23 d1 27 bc
       0.04708348 0.05767843 -0.03711018 -0.010242733
0001c0 60 12 b1 3d 4c 11 2b 3d 34 7b bc bc 48 df 03 bd
       0.08646083 0.041764542 -0.023007967 -0.03219536
0001d0 06 d7 9c bc 27 e7 de bc a4 75 40 bd 72 72 8c bc
       -0.0191455 -0.027209831 -0.04698719 -0.017144416
0001e0 c0 ad ac bc a4 5e ee 3c ca 83 f5 bc f2 b0 48 bd
       -0.021078944 0.029097863 -0.029970068 -0.048996873
0001f0 e2 bd 61 bd 15 a7 55 3c 12 d1 43 bd 13 19 2c 3d
       -0.055112727 0.013040324 -0.047806807 0.0420161
000200 2e c5 fd bc 3c 5e a9 3c 4c de 93 bc c5 67 86 bd
       -0.030977812 0.020674817 -0.018050335 -0.06562761
000210 b6 5b ca 3c af 47 b1 3c 5e d3 3d 3d 5b 70 1a 3d
       0.024701934 0.021640627 0.046344154 0.037704807
000220 79 0e 69 bd 7b 9c 56 bd 30 a4 43 bd 12 8b f3 3c
       -0.056898568 -0.052395325 -0.047764003 0.0297294
000230 4f c0 04 3d 62 77 1c bd 5c ea d7 bc 13 b0 13 3d
       0.032409962 -0.03819979 -0.026356868 0.03605659
000240 b3 c0 28 3d 1f 1c 48 bd 14 8c 80 bd 88 9f cf 3d
       0.041199397 -0.048854943 -0.06276718 0.1013785
000250 7c f7 88 bd 76 c9 60 3c 5a 52 4a bd d4 76 2a 3c
       -0.06687829 0.013719907 -0.049394943 0.010404307
000260 81 26 9b bc 27 33 33 3d dc ac 81 bc c8 6b 4b 3d
       -0.018939259 0.043749955 -0.015829496 0.049663335
000270 13 d6 16 3d 00 13 15 3b a4 49 a5 3d 86 18 cc 3c
       0.03682525 0.002274692 0.080706865 0.024914037
000280 26 ec 58 3b b6 26 5f 3d 12 45 b7 3c 00 73 5d bc
       0.003309974 0.054480277 0.022371802 -0.013516188
000290 3e 2b 1e bd 23 ef 1a 3c 6d 19 dc bc dd af 33 bc
       -0.038615458 0.009456429 -0.026867593 -0.010967222
0002a0 80 8f df 3b de 16 06 bc 7b 9e 0a bc 9e 9a 66 bb
       0.0068225265 -0.008184163 -0.008460636 -0.0035187374
0002b0 6c ae 7d 3b f2 4a 37 bd 57 d2 a0 bb 4c c9 5b 3d
       0.00387087 -0.044749208 -0.004907887 0.05365877
0002c0 c7 3f f3 bb a8 b1 c0 3b 40 3f 7f b9 65 6d 12 bc
       -0.0074233743 0.0058805533 -0.00024342258 -0.0089372145
0002d0 f6 18 b4 bc 28 08 eb 3c 81 60 2f 3d 5e b4 0f 3d
       -0.021984559 0.028690413 0.042816643 0.03508412
0002e0 a7 f4 cd 3d 51 1e 04 bd 38 e4 75 3c d6 00 85 3c
       0.10056429 -0.032255474 0.015008025 0.01623575
0002f0 5b ba 49 bc 18 af 64 3d 3b d1 8a bd 9c 31 3b bd
       -0.012312497 0.055831045 -0.06778189 -0.045701608
000300 69 7a e0 3d a8 2c 96 bb 85 97 c6 bd 41 f0 ac 3b
       0.10960848 -0.00458296 -0.09696869 0.005277664
000310 78 a1 fe 3c 60 3b a6 3d 1a 1e d8 bc 5a 23 8c bd
       0.031082854 0.08116794 -0.026381541 -0.0684268
000320 8c db ab 3c 56 e0 45 3d 5d da a5 bd f3 54 06 bd
       0.020978712 0.048309647 -0.0809829 -0.032795858
000330 e6 c7 96 3d 18 5f 6f bd 72 21 12 3d ae b7 a3 bc
       0.07362346 -0.058440298 0.035676427 -0.019985046
000340 5a 37 09 3d e7 07 b4 3c eb ad 0b bc ce 40 56 bd
       0.033500053 0.021976424 -0.008525352 -0.052307896
000350 da 93 75 3d 14 d5 3c bd 6c 0f e4 3b 34 0f 73 bc
       0.059955455 -0.046101645 0.0069598462 -0.014835168
000360 e0 59 b0 bc b0 a8 14 3c 50 5a a1 bc f4 e0 fc bc
       -0.02152723 0.009073421 -0.019696385 -0.030868985
000370 ec dd df bc f8 ac 55 bd 1f af 89 3d ed b2 f7 3b
       -0.0273275 -0.05216691 0.06722855 0.0075591714
000380 53 4a f0 bd ae 66 d5 bc 90 e7 b9 bb 64 0c 50 3b
       -0.11732926 -0.026049938 -0.0056733564 0.0031745667
000390 2c 52 02 bd 07 dd 80 bd b7 72 5c 3c be 8d 1f bc
       -0.031816646 -0.062921576 0.0134550845 -0.009738384
0003a0 30 25 28 bc 0a 64 56 3c 6f 7f ab bc 91 69 e0 bc
       -0.010262772 0.013085375 -0.020934789 -0.027394088
0003b0 9e db 4b bc d0 fe 62 bc 4e a1 25 3d bc 16 2f 3d
       -0.012442498 -0.013854697 0.040437035 0.04274629
0003c0 cc 1d f4 bc 07 c5 fb 3c af d5 4d bd b1 db 32 bd
       -0.029799365 0.030733598 -0.050252613 -0.043666545
0003d0 34 da 51 bc ff d0 6d bd 36 bc 04 3d 60 e1 f2 3c
       -0.012808371 -0.058060642 0.032406054 0.029648483
0003e0 14 79 c4 3c 56 a4 97 bc f1 d8 81 3d 44 a5 10 3d
       0.023983516 -0.018510979 0.063402064 0.03531386
0003f0 18 6c 3a 3d 3a 76 ce 3c 40 e5 f2 39 3a f2 51 3d
       0.045513242 0.02520286 0.00046328641 0.051256396

std.constant5 f4 [128, 128]
000000 4e a2 33 3d 13 74 32 3d 1c 13 a1 3c 72 60 51 bc
       0.043855958 0.04356773 0.019662432 -0.012779342
000010 2e 89 b5 bd a7 12 33 3d d6 53 2c bc 99 be 57 3d
       -0.088640556 0.04371896 -0.010518035 0.052672002
000020 4e 48 54 3d de 73 c0 bc 2c 45 93 3d 48 95 15 3d
       0.051826768 -0.02349275 0.07190928 0.03651932
000030 00 07 02 3d ee c3 1a 3c aa a3 ee 3c ef 57 09 3d
       0.031744957 0.009446127 0.029130775 0.033531126
000040 a3 cc 4a bd c0 d0 c4 bc 3a e8 86 bd f4 0d d6 bc
       -0.049511563 -0.024025321 -0.065872625 -0.0261297
000050 59 28 df bc ee 16 9b 3c 49 f7 78 3c c9 54 9a 3d
       -0.027240919 0.018931832 0.015195676 0.07535703
000060 e2 51 76 3c f0 d2 1a bc a7 ba 12 bd 10 8b 77 bb
       0.015034171 -0.0094497055 -0.035822537 -0.0037772097
000070 0a 3a ff bc 7b fc ae bc f2 d5 5f 3d 3c 5d 99 bb
       -0.031155605 -0.021360626 0.054647394 -0.004680304
000080 f8 c4 3b ba 6a d9 e2 bc 25 b0 8c 3d 70 b8 09 b9
       -0.00071628345 -0.027691562 0.068695344 -0.00013134046
000090 80 af f2 bc 2a a3 b3 bd 9f 83 8e bd 40 52 d9 3c
       -0.0296247 -0.087713555 -0.069586985 0.026528478
0000a0 c0 e3 33 3c ce 87 c6 3b 44 72 88 bc c0 29 06 be
       0.010979593 0.0060586696 -0.016656049 -0.13101864
0000b0 b1 af 89 bc 7b 18 dc 3c 69 4a ea bc 48 e7 d2 3b
       -0.016807409 0.026867142 -0.028599935 0.0064362623
0000c0 fa 44 04 bd bc 4b d5 3d fd e5 03 bc 28 85 2a 3d
       -0.032292344 0.10414836 -0.008050439 0.041630894
0000d0 df 23 2b 3d f8 9c 24 3d 34 f5 9f 3d 48 52 f6 3c
       0.041782256 0.04018876 0.07810441 0.030068532
0000e0 19 9c 00 3d c0 e7 dc bc 64 39 3b bd 19 3d 18 bd
       0.031398866 -0.026965976 -0.04570903 -0.037167642
0000f0 b0 47 bb 3c f0 f0 0e bd df bb 91 bc a4 09 7e bd
       0.022861332 -0.034897745 -0.01778978 -0.062020913
000100 32 fa 34 bd 39 c4 c5 bc 4f 87 9f 3d 40 cf 39 3d
       -0.044183917 -0.024141418 0.0778948 0.045363665
000110 c4 57 b1 3c 02 16 bb bb 4a 2d 48 bc 88 a2 7b 3d
       0.021648295 -0.0057094106 -0.012217829 0.0614343
000120 1d ab 01 bc bb 84 19 3d 43 dc fc bc 39 36 02 bd
       -0.007914332 0.037480097 -0.030866748 -0.031789992
000130 4c 5b 90 3d d4 77 85 ba e7 2d 76 bc a4 df 01 bb
       0.070486635 -0.0010182806 -0.015025592 -0.0019817138
000140 f1 51 48 3d 77 76 a1 bc 7d e0 9d bd 7b 4c 47 3c
       0.04890627 -0.019709809 -0.07708833 0.01216423
000150 9a 67 b5 3c d2 8d 10 bd 8e 5c fe bc 2a 96 05 3d
       0.022144128 -0.0352915 -0.031049993 0.03261391
000160 cf b4 31 3d 58 44 f7 bc 6b 5e ff 3c f9 59 a1 bd
       0.043385323 -0.030183956 0.031172952 -0.07878489
000170 c0 28 a1 3d 10 8a 85 3d 62 60 56 bd 60 64 92 bd
       0.078691006 0.06520474 -0.05233801 -0.07148051
000180 5f 09 67 3d e6 59 62 bd 1f 22 1f 3d 77 6c 74 bd
       0.05640542 -0.055261515 0.0388509 -0.059673753
000190 8c a2 f8 bc 2b 6b 5b 3c 13 86 3d 3d e0 16 ad ba
       -0.030350946 0.01339225 0.04627044 -0.001320567
0001a0 f9 00 b0 bd 2a 73 d8 3c 6b 33 4f bd e6 8c 9c bc
       -0.085939355 0.026422102 -0.050586145 -0.019110154
0001b0 ce 18 9a 3c b4 e9 25 3d 42 99 21 3b ef 5f a2 3c
       0.018810656 0.04050608 0.0024658 0.019821135
0001c0 07 8c 81 bd bb 36 a3 bd 78 16 3f bc af 00 c0 3c
       -0.06325536 -0.079694234 -0.011663072 0.023437826
0001d0 e4 23 9f bc cf 01 96 3d 83 e7 3c 3c 15 dd 52 bc
       -0.019426294 0.07324564 0.011529806 -0.012870093
0001e0 45 7a 59 3d 55 e8 d1 3c 0f 90 56 3d b1 f3 49 3d
       0.05309512 0.02562348 0.05238348 0.049304668
0001f0 bb e4 a5 bc 57 d9 7a bd cc 35 89 3d a8 cf 5e bd
       -0.020250669 -0.061242428 0.06699714 -0.054397255
000200 fb 65 08 bb 7e a2 85 bc 91 9c 2a 3c 83 ce 2e 3d
       -0.0020812738 -0.016312834 0.010413305 0.042677414
000210 9b 17 5d bd 02 36 7b 3c 40 70 43 bc 37 a9 9b bb
       -0.05397759 0.015332701 -0.011928618 -0.0047503966
000220 29 78 65 3d 3a 28 e4 3b 45 e1 d6 bb 0f 16 bb 3d
       0.056022797 0.006962803 -0.006557616 0.09135067
000230 70 d8 94 3d 63 3c 64 3c 08 d9 cc ba c4 0b 85 bd
       0.07267845 0.013930413 -0.0015628645 -0.06496385
000240 00 4a 7f 3c 1b d0 83 3d 44 e9 09 3d 12 46 83 3c
       0.015581608 0.06436177 0.033669725 0.016024623
000250 4f 5d 11 bd cd 0d 11 bc 04 89 85 3a 61 af 70 bd
       -0.035489377 -0.008853388 0.0010187929 -0.058761004
000260 31 6e 5c 3d 80 05 46 3c 1d 31 07 3d 34 47 a7 bb
       0.053816024 0.012086272 0.033005822 -0.0051049236
000270 65 7e dd bc 2e e0 0e 3d 31 3c 23 3d b6 9c 3d bd
       -0.027037809 0.034881763 0.039852325 -0.04629203
000280 21 e4 3a 3d 7c cb f5 bc 9e 53 dc 3c 92 0b 37 bd
       0.045627717 -0.030004255 0.02689534 -0.04468877
000290 b2 ae ae bb ab 03 1a bd 71 65 e8 3c 00 c1 bd 3b
       -0.005330884 -0.037601154 0.028368684 0.0057908297
0002a0 00 1d e3 bc 74 25 41 3d b8 1e 7f ba ae 5f 85 3d
       -0.02772379 0.04715486 -0.00097320555 0.0651239
0002b0 1e 45 71 bc 54 ad 3d 3d c7 3f d5 bc 78 22 ce bc
       -0.0147259515 0.046307877 -0.026031388 -0.02516292
0002c0 00 81 9b 3d b1 f6 b2 3d a8 51 cd bd 40 92 19 3d
       0.07592964 0.08738459 -0.1002534 0.03749299
0002d0 b4 77 d5 3b cc b8 16 3c c4 30 a1 bd f6 0a fa 3b
       0.006514514 0.009199332 -0.078706294 0.007630701
0002e0 1c 2d b7 3d 94 f3 a7 bc 7a 09 d8 b9 97 62 92 bb
       0.08944151 -0.02050189 -0.0004120579 -0.004467319
0002f0 7d 63 9a bc 7b c4 06 bd d4 6a b3 bc 44 7a 17 bd
       -0.018846268 -0.032902222 -0.021901526 -0.036981836
000300 c0 77 5d bd 55 95 3e 3d f4 99 ae bd f7 79 08 bc
       -0.05406928 0.046529133 -0.08525458 -0.00832986
000310 66 65 a3 bd 01 23 81 3d 80 a4 7f b9 03 11 95 3c
       -0.079783246 0.063055046 -0.00024379976 0.018196588
000320 ff 59 d1 ba 9c 78 f6 bb c8 d9 bd 3c f4 65 20 3d
       -0.0015972255 -0.007521702 0.023175135 0.03915973
000330 00 88 02 bd 9a 29 0a 3d 53 24 4a 3d b6 bd 5c 3d
       -0.03186798 0.03373108 0.049351048 0.05389186
000340 01 65 15 3d 90 f9 8b bc 2b 26 95 bc 73 58 bc 3c
       0.036473278 -0.017086774 -0.018206676 0.022991395
000350 95 86 3d bc be 19 98 3c 8d dd 9e bd 41 e7 cb 3c
       -0.011567731 0.018566962 -0.07757101 0.024890544
000360 5f 26 b0 3d ce f4 2c bd 2a 18 09 3d 82 c6 9e 3d
       0.08601069 -0.04222565 0.03347031 0.07752706
000370 06 00 29 bd 86 e6 e5 bc 0e eb a8 bc 5e f6 1b bd
       -0.041259788 -0.028064024 -0.020619895 -0.03807675
000380 cc f7 b7 ba bd 1d 17 bd e3 94 18 bd 2a 27 3f 3d
       -0.0014035641 -0.036893595 -0.037251364 0.04666821
000390 60 07 87 3c 72 5a fe 3d d2 ca a2 bd b5 92 09 3d
       0.016483009 0.12419595 -0.07948841 0.033587176
0003a0 22 a6 c1 3c 3e 48 cc 3c 46 e6 7e bd 96 4f 5a 3d
       0.023638789 0.024936792 -0.062231325 0.053298555
0003b0 3b 46 7b bc 26 e1 e5 3c f9 3a 9e 3c 8a d7 39 3d
       -0.0153365685 0.02806146 0.01931523 0.04537157
0003c0 a0 ad 9e bc f0 0f d2 bc 1e dc d4 3b 30 91 35 ba
       -0.0193699 -0.025642365 0.0064959666 -0.00069262367
0003d0 ec 0f 9c ba 1d ab ff 3c 05 7c b5 bc 94 15 84 3c
       -0.00119066 0.031209523 -0.022153864 0.01612357
0003e0 64 d7 41 bb 8c 8a ea ba 30 98 8d 3d b4 be 2c 3d
       -0.0029577846 -0.0017894073 0.06913793 0.042174056
0003f0 8d d1 a9 3d e8 14 00 bd a0 8d 38 3c 74 ba 17 bd
       0.08291922 -0.031269938 0.011264235 -0.03704305

std.constant6 f4 [128, 128]
000000 00 13 4c 3c 30 d0 35 3b 32 66 62 3d 6a 20 11 bd
       0.012455702 0.0027742498 0.055273242 -0.035431303
000010 60 f5 56 bc 09 5b 8d bd ec b8 92 bc 30 31 3a 3c
       -0.013120025 -0.06902129 -0.017910443 0.011364266
000020 54 da 84 3d 3a f7 72 3c 18 d4 39 bd 90 00 13 bc
       0.06486955 0.014829451 -0.045368284 -0.008972302
000030 cc 0f a3 3d 00 24 bc 39 60 83 62 3b 3c fe b9 bc
       0.079619974 0.00035884976 0.003456317 -0.022704236
000040 7c 83 8d bc 98 d8 1d bc 36 7d 02 bd 40 09 2b bc
       -0.01727461 -0.0096341595 -0.03185769 -0.010439217
000050 ff 32 60 bd 54 34 ac bc 2d 56 77 3d 2a 3a af 3c
       -0.054736134 -0.021021046 0.060384918 0.02139004
000060 ea 45 8f 3c dc 21 3e bd a8 23 62 3d 6a 94 c7 3c
       0.017489392 -0.04641901 0.055209786 0.024362762
000070 89 75 a7 bc 9c 28 fc bc 44 60 ed 3b c2 30 73 3d
       -0.020441787 -0.030781083 0.007244142 0.05937267
000080 f0 9b a5 bc 04 19 f8 bc 44 d9 23 3b 5c 32 2c 3a
       -0.020215958 -0.030285366 0.0025001327 0.00065687834
000090 ff 5f ee 3d 1e a3 f0 bc 5f db 71 3d f9 4c 51 3d
       0.116394036 -0.029374655 0.0590471 0.051098797
0000a0 c9 32 8b 3d f9 ec ab bc 1a d0 30 bd 4e 51 4d bc
       0.06796796 -0.02098702 -0.04316721 -0.012531592
0000b0 12 bc 22 3c ed e2 94 bd b2 05 da bd 75 83 6e 3c
       0.009932535 -0.07269845 -0.106456175 0.014557709
0000c0 8c 60 e9 bc 54 6e c1 3c a0 e3 18 bc 7c d3 23 bd
       -0.02848842 0.023612179 -0.009331614 -0.03999661
0000d0 a1 6f 3b bd ee 7e d5 bd 83 c9 3c 3c ac 55 3a bd
       -0.045760754 -0.104246005 0.0115226535 -0.04549186
0000e0 4c 9f 86 bc fd 7b 0d bd 31 6d 4e bb 82 f8 d1 3c
       -0.01643338 -0.034542073 -0.0031498189 0.025631193
0000f0 95 e8 d3 3c 00 76 b0 3a 06 6e a0 3d e6 e2 16 3c
       0.02586774 0.0013462901 0.07833485 0.00920937
000100 50 53 02 3c 92 98 6f bd 41 c5 39 3d 3e 8c 87 bc
       0.007954434 -0.05849511 0.04535413 -0.016546365
000110 2b 7e 24 bc 08 0d ba bd 7c 14 24 bc 9c 16 fa 3c
       -0.010039846 -0.09084517 -0.0100146495 0.03052836
000120 cc 30 82 3d 48 ff d5 3a 08 24 5c bd d5 5f d7 3c
       0.063569635 0.001632669 -0.0537453 0.026290813
000130 e8 b0 59 bc dc e9 6f 3d 94 70 28 3d 02 74 d8 bc
       -0.013286807 0.058572635 0.041122988 -0.026422504
000140 57 04 d2 bc ba e0 5f 3d b4 ca 37 bb ed c7 31 bd
       -0.025636835 0.054657675 -0.0028044404 -0.043403555
000150 69 6a a2 3d b4 3f 6b 3b 74 fb 23 3d 68 80 04 bb
       0.079304524 0.0035896124 0.040034726 -0.0020218138
000160 83 aa a2 bc da 6c 36 bd 3d 5c 9e 3d 02 8e c1 3d
       -0.019856697 -0.044537403 0.07732437 0.09450914
000170 82 db f8 bc 3e 31 68 3d 73 12 53 3d 9e 99 65 bb
       -0.030378107 0.056687586 0.051531266 -0.003503419
000180 e4 36 a1 bc a6 98 49 bd f3 39 92 bc 8b 18 01 3c
       -0.019679494 -0.049217843 -0.017849898 0.007879387
000190 48 eb 81 bd d0 13 3a bb ac 3f 1d 3c c4 ae 7b bd
       -0.063437045 -0.0028393157 0.0095977 -0.061445966
0001a0 f8 98 95 bc f8 1b c0 3a e4 9c a9 3c a8 bc 41 3b
       -0.018261418 0.0014656773 0.020704694 0.002956191
0001b0 92 12 8d bd 12 de 8b bb ad 16 db bc b1 ce a5 3d
       -0.06888308 -0.004268416 -0.026744211 0.08096064
0001c0 54 bc 69 3d f3 df 29 bd 45 17 1c 3d ee d1 0d bc
       0.05706437 -0.04147334 0.03810813 -0.008656008
0001d0 2c 83 02 3b 10 a9 19 3d aa c7 6e 3b 82 63 77 bc
       0.001991461 0.037514746 0.0036434927 -0.015099408
0001e0 92 25 c8 3c 10 ad c9 bc 5c d6 9a bc 30 74 01 bc
       0.024431977 -0.024618655 -0.018901043 -0.007901236
0001f0 a7 f1 9e 3d c8 d4 12 3d 8a 9f 5c 3d 04 ac 41 3c
       0.07760935 0.035847455 0.053863086 0.011820797
000200 8a fb c0 bc e0 bf 74 3d 9e 02 d7 3a a3 47 f4 3d
       -0.023557443 0.0597533 0.0016403978 0.11927726
000210 d8 4f db bd f4 32 af 3c 28 5e da bc 7e 01 21 bd
       -0.10708588 0.021386601 -0.026656225 -0.039308064
000220 9d 31 04 3d a6 ec 4b 3c 9f 47 19 3d 8e bd 5c 3a
       0.032273877 0.012446558 0.03742182 0.000842058
000230 6a dc ce 3c 7a 3c 7c bd 0f cd 87 3b 0e a1 84 bc
       0.025251586 -0.061581112 0.004144318 -0.016190078
000240 fd 3c 26 bd ea 5d 42 3c 24 2c 58 bd 3c f4 39 3d
       -0.040585507 0.011863211 -0.05277647 0.045398936
000250 0e 49 ba bc 88 61 52 3d 3a e0 31 bd 49 d4 97 3d
       -0.022739913 0.051362544 -0.04342673 0.07413537
000260 2a 1a 9d bd be e8 67 3c 9a 2c 6c 3c 9b 49 ff 3c
       -0.07671006 0.014154611 0.014414931 0.031163028
000270 68 f3 2b bd 2c 53 37 bd ad 29 04 3d 0d b0 42 3d
       -0.041980177 -0.044757053 0.032266308 0.047531176
000280 98 82 2b 3b d7 dd 52 bd 27 5e 05 bd 4a 55 09 3c
       0.002617037 -0.051481094 -0.032560494 0.008382151
000290 67 c6 1b 3d 14 aa fa bc ae ee 84 bb 80 a5 6c 3d
       0.038031008 -0.030598678 -0.004056773 0.05777502
0002a0 99 34 4a bd 82 c6 d5 3c 6f 6b 8f 3c f4 5f f9 bc
       -0.049366567 0.026095632 0.017507283 -0.030441262
0002b0 1f 33 3c bc 41 47 a6 3d 74 cd 44 bc 3c b7 ac bc
       -0.011486798 0.08119059 -0.0120118745 -0.021083467
0002c0 7d 80 94 3d fe 1f 3b 3d 5c 94 84 3d f9 6f 07 3c
       0.0725107 0.045684807 0.0647361 0.008266442
0002d0 06 c4 f4 bd 1e 63 ab bb 1d 7a cd bd 41 df d0 bc
       -0.11951451 -0.0052303215 -0.10033057 -0.02549708
0002e0 b6 a4 9b 3d 22 81 cf bb cc 4e 87 bc a8 72 1d bd
       0.075997755 -0.0063325325 -0.016517065 -0.038439423
0002f0 40 15 ba bc c0 35 89 bd 61 2d dc 3d d9 e4 c6 3d
       -0.02271521 -0.06699705 0.10750843 0.09711618
000300 f4 df 64 bd e6 32 6e bc 6c 00 86 3d c8 ea 37 3d
       -0.05587764 -0.014538502 0.06543049 0.04490164
000310 e7 f5 ac 3c 18 5a 82 3d 4d 59 c7 bc a5 6a 4a 3c
       0.02111335 0.0636484 -0.024334574 0.012354528
000320 f5 48 52 bd d7 8d 4c 3d 92 1c e4 bc af 75 51 bd
       -0.05133911 0.049939957 -0.027845655 -0.051137622
000330 c4 d1 44 3c 05 d4 ee 3c dc 71 bb 39 16 3b 90 bd
       0.012012903 0.029153833 0.0003575225 -0.0704252
000340 bb c7 5f bd e0 47 2a 3d 38 2d 50 3c f1 ba 0b 3d
       -0.054633837 0.04157245 0.0127060935 0.034113828
000350 4b 64 63 bb fc 7b 5c 3d 4a 99 45 bd 3c 6b 2e 3d
       -0.003469723 0.05382918 -0.04824189 0.042582735
000360 13 7e c3 bc 65 59 e4 bc b2 63 e9 bc d8 f0 9d 3c
       -0.023863828 -0.027874658 -0.028489921 0.019279882
000370 4d 44 0d 3d f2 6c 83 bd b6 d4 b6 3c 38 55 c1 3d
       0.034488965 -0.06417264 0.022318225 0.09440082
000380 9f 3c c4 bd ea 96 b6 bd 51 5e 1f bd a8 39 34 bc
       -0.09581875 -0.08915503 -0.038908307 -0.011000074
000390 c3 30 66 3b c4 e6 63 3d 05 75 9f 3d c2 cc 2d 3b
       0.003512428 0.055639997 0.077859916 0.002651975
0003a0 de 73 2a bc 89 81 39 bd 7c 50 81 bc b0 1a 62 3d
       -0.010403601 -0.04528955 -0.015785448 0.055201232
0003b0 9e fe e0 3c 96 33 f1 bc 26 b3 0f 3d a9 74 7a 3d
       0.027465161 -0.029443543 0.03508296 0.061146412
0003c0 d6 e9 f6 bc 6b 37 0b bd 8f 9c 59 bc 06 1e 6e bd
       -0.030140799 -0.033988398 -0.013281955 -0.0581341
0003d0 86 fc 09 3c 63 7c 00 3d df a2 f1 3c bb 63 12 3c
       0.008422023 0.031368624 0.029496608 0.00893491
0003e0 da e3 59 3d 32 40 68 3d 06 51 69 3c 29 ac 44 3d
       0.05319581 0.056701846 0.014240509 0.048015747
0003f0 29 25 ac bb 3f ef 5c 3d 6f 33 1d bd 96 c9 b5 bc
       -0.0052534533 0.0539391 -0.03837913 -0.02219085

std.constant7 f4 [128]
000000 68 49 eb 3b b1 cd 15 3b 87 64 c4 3c cd c5 f8 3b
       0.0071803816 0.0022858197 0.023973716 0.007591939
000010 c1 4b a4 3c 57 e2 73 3c f8 f5 02 bc 27 c3 ec bb
       0.020055654 0.014885507 -0.007993214 -0.0072254124
000020 18 3f 2e 3b 54 2f e2 bb 6a 58 32 bb c4 f5 90 3c
       0.00265879 -0.0069026146 -0.0027213343 0.017695315
000030 d4 11 e4 3c 09 18 d9 bb 56 f7 31 3d 01 26 9a bb
       0.027840532 -0.0066251797 0.04344877 -0.0047042374
000040 f0 5e 1f 3b ac 9f 53 3d 95 39 ef ba d0 de 87 bb
       0.0024318062 0.051665947 -0.0018251414 -0.0041464344
000050 20 e6 8d bb 5a 4b b2 bb 02 05 e2 ba 38 c1 f7 bb
       -0.0043304116 -0.0054411115 -0.0017243924 -0.0075608753
000060 49 b9 d8 bb 90 09 2b bb 98 f2 9a 3b 66 6d 30 bb
       -0.0066138846 -0.002609823 0.0047286265 -0.0026920675
000070 25 6e 84 bb bc 37 23 3c bb 69 b3 bb 57 25 d5 3d
       -0.0040414506 0.009962019 -0.0054752505 0.10407513
000080 68 72 a4 3b a6 31 a3 ba c9 ca 81 3b 67 b6 8f bb
       0.005018521 -0.001245071 0.0039609415 -0.0043857577
000090 f8 19 11 3e 27 c3 fa bb 04 e8 24 3b 92 90 62 3a
       0.14170063 -0.0076526585 0.0025162706 0.00086427585
0000a0 47 9b cd ba 3d d6 9c 3a 98 61 ee 3d 68 36 43 bb
       -0.0015686535 0.0011965703 0.11639708 -0.0029787067
0000b0 a9 ce db 39 eb 90 5d 3d ba 86 03 bc 17 c2 e4 39
       0.0004192491 0.054093283 -0.008027727 0.00043632157
0000c0 1b ab cb bb 20 98 0c 3a 54 cb 4b bb ea 72 c6 bb
       -0.0062154657 0.00053632446 -0.0031096535 -0.0060561793
0000d0 30 0e e4 3d 66 6f 84 3b 33 99 31 bc 39 13 da bb
       0.111355186 0.0040416 -0.010839748 -0.0066551236
0000e0 09 41 a5 bb 49 84 82 3c 02 9d de 3b ea c8 66 bb
       -0.005043153 0.01593222 0.006793619 -0.003521497
0000f0 fc e9 6f b9 0b 71 f0 3b 30 4e ef 3b 27 8e ca bb
       -0.00022879982 0.0073376945 0.007303022 -0.0061814967
000100 27 fe 1b 3b 63 fb 2f 3d 9f 66 87 bb 96 d5 30 3d
       0.002380261 0.04296435 -0.0041321064 0.04317244
000110 74 1a 34 3c d8 d8 69 3c d1 e1 5d 3c 6d 87 08 bb
       0.010992635 0.014272891 0.013542608 -0.0020832673
000120 f9 46 91 bb 38 fe df 3b c7 a6 52 bb d0 af 25 3c
       -0.0044335094 0.006835725 -0.0032142864 0.010112718
000130 47 2a 63 bc 98 3e ab bb 02 d9 56 3b fd 65 35 3d
       -0.01386506 -0.0052259676 0.0032783155 0.044286717
000140 48 3a 47 bc 5a 7f db bb d0 dc 00 3c 85 d7 1d bc
       -0.012159891 -0.006698531 0.007865146 -0.009633903
000150 1f fa ac 3b d9 81 12 3c 89 da 50 ba a4 97 fd bb
       0.00527884 0.008942091 -0.00079671346 -0.0077390242
000160 ae 7e 54 bb fc 97 81 3c 0e ae 9f 3d 60 cb 97 bb
       -0.003242414 0.015819542 0.0779687 -0.0046323985
000170 cc 8f 87 3d a1 0b 90 3c 22 ac 4d bb e8 a6 0d 3d
       0.06619224 0.01758367 -0.0031383117 0.034583002
000180 4d d7 e9 bb 74 fd b1 bb 93 3a 36 3d ab 2a 40 bb
       -0.0071362616 -0.0054318253 0.044489454 -0.0029322307
000190 64 b8 ab ba 58 36 9a 3d 38 20 03 3c 6d fa ac bb
       -0.0013101217 0.075298965 0.008003287 -0.0052788765
0001a0 ce 21 6c bb f9 7f 48 3d 92 51 32 ba db f8 2d bc
       -0.0036030891 0.04895017 -0.0006802316 -0.010618414
0001b0 8d db 08 3d 2e 87 8f 3b 87 d3 ae bb 22 19 13 3e
       0.033412505 0.0043801283 -0.0053352746 0.14365056
0001c0 e3 8b 85 3b bf 38 8b 3b 38 92 66 bb 22 df 53 bb
       0.0040755137 0.004248708 -0.0035182368 -0.0032329042
0001d0 99 6f 07 bb 2f 10 82 3b 0d 49 05 3c 45 db 02 bc
       -0.0020665883 0.0039692144 0.008135092 -0.007986848
0001e0 c2 1e 51 3c 76 e7 04 bc 70 0a a0 bb bc be e9 3d
       0.012763681 -0.008111825 -0.0048840567 0.11413333
0001f0 33 72 2b bb 84 02 be 3b 4c 42 62 3c 6d db c9 bb
       -0.0026160597 0.0057986397 0.013809752 -0.006160191

std.constant8 f4 [128]
000000 55 3a fa 3a e2 86 6e bc f8 41 f3 bb 3c 45 d0 bb
       0.0019090871 -0.014558526 -0.0074236356 -0.0063559096
000010 49 b2 77 3a 2d 00 05 3c 9a a3 14 bc 30 d2 5d 3c
       0.0009448869 0.008117718 -0.009072209 0.013538882
000020 e9 6e a0 3b e4 de 94 bb 4d 61 65 bb ee 64 24 3a
       0.004896034 -0.004543172 -0.0035000623 0.0006271143
000030 ee f7 17 3b 0d 70 bd bb bd d2 b2 bb c2 0a 21 bc
       0.002318855 -0.0057811798 -0.005457251 -0.009829225
000040 4b 8a aa bb 4a 35 8c bc b8 01 05 3c 28 ea be 3b
       -0.005204474 -0.017115254 0.008118086 0.0058262534
000050 40 bf 83 ba 10 56 38 3c ed aa 6d bb 0a 47 40 3c
       -0.0010051504 0.011250988 -0.003626521 0.011735687
000060 9c 90 1f bb 40 cf 40 3b f6 19 b0 bb 40 68 52 3c
       -0.0024347669 0.0029420406 -0.0053741885 0.012842238
000070 73 bf 26 bb 82 fe 97 bb 62 b4 0d 3c 85 7c d6 bb
       -0.0025443702 -0.004638494 0.008648964 -0.0065456056
000080 3e ab 2f bc 1d 11 3a 3c 17 3b 3c bc 90 25 9e 3b
       -0.01072198 0.011356619 -0.0114886975 0.004826255
000090 41 12 46 bc 8e a2 23 bc b7 df f7 3b 3d d1 a7 3b
       -0.012089313 -0.0099874865 0.0075645107 0.0051213787
0000a0 e1 c8 ed 3b bb 51 bc bb eb 2b bd 3b 80 43 c7 bb
       0.0072566126 -0.0057470477 0.0057730577 -0.0060810447
0000b0 2e 2a 45 3b 11 be 96 bb 72 a2 11 3c 8e 7e 05 3c
       0.0030084956 -0.0046002944 0.008888828 0.008147849
0000c0 be 18 dd 3b be 61 2d 3b 10 cf 7e bb 6e 6d 96 3b
       0.0067473343 0.0026455964 -0.0038880743 0.0045906818
0000d0 3d 78 11 bc 30 cb 88 3b 9a 6e 91 bc 65 00 4b 3c
       -0.008878765 0.0041746125 -0.017752934 0.012390231
0000e0 2a a1 d1 bb 5a 12 50 3b 33 c0 44 bb c8 1f 69 bb
       -0.006397386 0.003174922 -0.0030021786 -0.0035571922
0000f0 4f cf 58 3b b0 b6 f4 bb 93 20 27 bb 3f 00 13 3c
       0.003308255 -0.007468067 -0.0025501593 0.008972227
000100 5e b0 bc bb 12 b2 14 bb 49 d6 68 3c 0c 10 81 3c
       -0.0057583293 -0.0022689146 0.014211246 0.015754722
000110 98 28 38 bb 4a 4d 8a 38 b4 5a 57 bb 49 71 16 3b
       -0.0028100368 6.594749e-05 -0.003286046 0.0022955707
000120 5c 1c f7 3b 2e f4 c8 bb 39 d3 9c 3b 65 81 9c 3b
       0.0075412225 -0.006132624 0.004785922 0.004776167
000130 2c fb 8c 3c e1 7c b3 3a b2 28 03 bc 6b 23 7b bc
       0.017209612 0.0013693833 -0.008005308 -0.0153282685
000140 02 11 90 3c 25 59 ec 3b e4 cd 2d 3b 06 41 c1 bb
       0.017586235 0.0072127753 0.0026520425 -0.005897644
000150 6b 44 20 3b 59 c9 43 bc 1e 43 89 bb 00 74 7a 3c
       0.0024454843 -0.0119498605 -0.004188909 0.015286446
000160 db 9a 37 3c e0 68 2b bb 52 7d 4d bc 78 e0 fd 3b
       0.011206354 -0.002615504 -0.012542086 0.007747706
000170 b4 62 54 3a ee 10 83 bc e0 93 a7 3b d4 b9 42 bb
       0.0008101866 -0.015999284 0.0051140636 -0.0029712813
000180 82 e7 c1 39 82 35 b0 bb c6 7f b6 bb e4 07 ae 3a
       0.00036984315 -0.0053774724 -0.005569431 0.0013277498
000190 2f 51 11 3b b8 6e 89 ba 3a c2 05 bc 86 a9 fe bb
       0.0022173633 -0.0010485267 -0.008163983 -0.0077716736
0001a0 7f de 54 3b ab 2d b4 3b bb 96 9c 3a ea 0b 94 bc
       0.003248125 0.005498608 0.0011946777 -0.018072087
0001b0 fa 9b 9a bc f8 02 41 3c c0 a0 ee bb 2b dd e3 3b
       -0.018873204 0.011780493 -0.0072823465 0.0069538555
0001c0 d7 ce a6 3b dc e2 30 3b e8 c2 4a bb 0b 67 f0 3b
       0.005090575 0.0026990687 -0.0030938927 0.0073365024
0001d0 44 51 b2 3a d2 7d 0c 3b e4 bc 4a bb 96 83 87 3c
       0.0013604541 0.00214373 -0.0030935341 0.016542237
0001e0 27 0f 00 3c 50 80 ed 3b dd 73 27 3c bc 9e 1c 3c
       0.007816113 0.007247962 0.010220495 0.00955933
0001f0 c5 f2 74 3c 85 ed df ba 2a a1 2d 3c bc 67 8a bc
       0.014950459 -0.0017084336 0.010597507 -0.016895168

std.constant9 f4 [128]
000000 00 00 80 3f 00 00 80 3f 00 00 80 3f 00 00 80 3f
       1.0 1.0 1.0 1.0
000010 00 00 80 3f 00 00 80 3f 00 00 80 3f 00 00 80 3f
       1.0 1.0 1.0 1.0
000020 00 00 80 3f 00 00 80 3f 00 00 80 3f 00 00 80 3f
       1.0 1.0 1.0 1.0
000030 00 00 80 3f 00 00 80 3f 00 00 80 3f 00 00 80 3f
       1.0 1.0 1.0 1.0
000040 00 00 80 3f 00 00 80 3f 00 00 80 3f 00 00 80 3f
       1.0 1.0 1.0 1.0
000050 00 00 80 3f 00 00 80 3f 00 00 80 3f 00 00 80 3f
       1.0 1.0 1.0 1.0
000060 00 00 80 3f 00 00 80 3f 00 00 80 3f 00 00 80 3f
       1.0 1.0 1.0 1.0
000070 00 00 80 3f 00 00 80 3f 00 00 80 3f 00 00 80 3f
       1.0 1.0 1.0 1.0
000080 00 00 80 3f 00 00 80 3f 00 00 80 3f 00 00 80 3f
       1.0 1.0 1.0 1.0
000090 00 00 80 3f 00 00 80 3f 00 00 80 3f 00 00 80 3f
       1.0 1.0 1.0 1.0
0000a0 00 00 80 3f 00 00 80 3f 00 00 80 3f 00 00 80 3f
       1.0 1.0 1.0 1.0
0000b0 00 00 80 3f 00 00 80 3f 00 00 80 3f 00 00 80 3f
       1.0 1.0 1.0 1.0
0000c0 00 00 80 3f 00 00 80 3f 00 00 80 3f 00 00 80 3f
       1.0 1.0 1.0 1.0
0000d0 00 00 80 3f 00 00 80 3f 00 00 80 3f 00 00 80 3f
       1.0 1.0 1.0 1.0
0000e0 00 00 80 3f 00 00 80 3f 00 00 80 3f 00 00 80 3f
       1.0 1.0 1.0 1.0
0000f0 00 00 80 3f 00 00 80 3f 00 00 80 3f 00 00 80 3f
       1.0 1.0 1.0 1.0
000100 00 00 80 3f 00 00 80 3f 00 00 80 3f 00 00 80 3f
       1.0 1.0 1.0 1.0
000110 00 00 80 3f 00 00 80 3f 00 00 80 3f 00 00 80 3f
       1.0 1.0 1.0 1.0
000120 00 00 80 3f 00 00 80 3f 00 00 80 3f 00 00 80 3f
       1.0 1.0 1.0 1.0
000130 00 00 80 3f 00 00 80 3f 00 00 80 3f 00 00 80 3f
       1.0 1.0 1.0 1.0
000140 00 00 80 3f 00 00 80 3f 00 00 80 3f 00 00 80 3f
       1.0 1.0 1.0 1.0
000150 00 00 80 3f 00 00 80 3f 00 00 80 3f 00 00 80 3f
       1.0 1.0 1.0 1.0
000160 00 00 80 3f 00 00 80 3f 00 00 80 3f 00 00 80 3f
       1.0 1.0 1.0 1.0
000170 00 00 80 3f 00 00 80 3f 00 00 80 3f 00 00 80 3f
       1.0 1.0 1.0 1.0
000180 00 00 80 3f 00 00 80 3f 00 00 80 3f 00 00 80 3f
       1.0 1.0 1.0 1.0
000190 00 00 80 3f 00 00 80 3f 00 00 80 3f 00 00 80 3f
       1.0 1.0 1.0 1.0
0001a0 00 00 80 3f 00 00 80 3f 00 00 80 3f 00 00 80 3f
       1.0 1.0 1.0 1.0
0001b0 00 00 80 3f 00 00 80 3f 00 00 80 3f 00 00 80 3f
       1.0 1.0 1.0 1.0
0001c0 00 00 80 3f 00 00 80 3f 00 00 80 3f 00 00 80 3f
       1.0 1.0 1.0 1.0
0001d0 00 00 80 3f 00 00 80 3f 00 00 80 3f 00 00 80 3f
       1.0 1.0 1.0 1.0
0001e0 00 00 80 3f 00 00 80 3f 00 00 80 3f 00 00 80 3f
       1.0 1.0 1.0 1.0
0001f0 00 00 80 3f 00 00 80 3f 00 00 80 3f 00 00 80 3f
       1.0 1.0 1.0 1.0

std.constant10 f4 [128]
000000 02 81 f0 3b f9 b7 17 3b d4 c7 b8 3c fd 73 ee 3b
       0.0073395977 0.0023150428 0.022556223 0.0072770105
000010 f2 ca a5 3c 88 29 78 3c f5 e1 00 bc 40 32 e4 bb
       0.020238373 0.015146621 -0.007866372 -0.006963998
000020 7d 8c 10 3b c2 eb df bb 68 52 08 bb 3a a9 6d 3c
       0.0022056394 -0.0068335244 -0.002080107 0.014505679
000030 91 54 e5 3c cf b2 ca bb 95 be 30 3d 88 b0 96 bb
       0.027994426 -0.0061858664 0.043150503 -0.004598681
000040 e1 b7 30 3b 25 b7 4e 3d 5a cf 19 bb b8 d4 8b bb
       0.002696507 0.05046763 -0.0023469538 -0.0042673014
000050 53 f6 8a bb 04 97 b5 bb fe 9b e2 ba 43 bd fe bb
       -0.00424079 -0.005541684 -0.0017288921 -0.0077740266
000060 0c 0f db bb 77 c3 29 bb f9 ea 91 3b b1 80 5c bb
       -0.0066851433 -0.002590386 0.0044530598 -0.0033646042
000070 91 e8 82 bb c7 ee 2b 3c 98 46 bd bb e6 cb d4 3d
       -0.003995009 0.010493941 -0.0057762377 0.10390453
000080 79 60 a4 3b 89 33 a2 ba 1b 55 6c 3b b5 7a 8f bb
       0.0050163832 -0.0012374978 0.003606147 -0.0043786415
000090 46 71 0f 3e 6d 68 09 bc ad 8b 2c 3b 29 68 6d 3a
       0.14008054 -0.008386713 0.002632837 0.00090563536
0000a0 ce b0 b2 ba 4e b3 7b 3a cc 70 ea 3d 6a 47 3f bb
       -0.0013633014 0.00096016086 0.114472955 -0.0029186853
0000b0 8e 2c ea b8 30 7a 5b 3d 9a 96 01 bc 62 88 68 38
       -0.000111662885 0.053583324 -0.007909441 5.5440127e-05
0000c0 9b 1f c4 bb b0 e9 1a 39 77 5a 48 bb 07 0b c0 bb
       -0.005985213 0.0001477364 -0.00305715 -0.0058606896
0000d0 d0 22 e8 3d aa 91 98 3b 54 23 2e bc 11 f3 e0 bb
       0.11334765 0.0046560364 -0.01062854 -0.0068649133
0000e0 15 5b ab bb a1 e3 86 3c 66 95 d8 3b 39 42 63 bb
       -0.0052293637 0.016465964 0.0066096066 -0.0034676923
0000f0 06 30 01 ba 00 6d fa 3b 45 a5 fb 3b ed 7e c6 bb
       -0.00049281155 0.0076423883 0.007679614 -0.006057611
000100 e8 2d 09 3b 1f bc 2c 3d f4 9b 82 bb 08 a7 2f 3d
       0.0020931903 0.042171594 -0.003985876 0.042883903
000110 1b 4a 2e 3c ef f2 68 3c 30 9a 5c 3c 93 aa f0 ba
       0.010637785 0.014218076 0.013464496 -0.0018361382
000120 fc 05 91 bb 4c 8a e7 3b 6c 17 67 bb ab c5 43 3c
       -0.004425762 0.007066047 -0.0035261763 0.011948983
000130 1b c2 5f bc 75 ca ac bb 39 4c 3a 3b 4e 0a 32 3d
       -0.013657118 -0.005273158 0.002842678 0.04346686
000140 55 90 48 bc cf e6 db bb 34 95 05 3c f0 b6 1c bc
       -0.012241443 -0.006710864 0.008153249 -0.0095651
000150 e4 01 9d 3b 38 4a 11 3c e5 a4 7d ba a5 6c fe bb
       0.004791485 0.008867793 -0.0009675755 -0.0077644163
000160 dc 45 6a bb d2 4c 86 3c 3b 8d 9e 3d c6 14 92 bb
       -0.0035747206 0.016394053 0.07741781 -0.004458043
000170 fc 39 88 3d a8 f4 92 3c 28 30 40 bb cd a6 10 3d
       0.06651685 0.017938927 -0.0029325578 0.035315324
000180 84 fd e1 bb 0a b9 a9 bb dc 4c 35 3d 32 b3 48 bb
       -0.0068966765 -0.005179529 0.044262752 -0.0030624387
000190 29 4d 69 ba 62 d3 91 3d 32 1f 09 3c 89 f2 b2 bb
       -0.00088997424 0.07120396 0.008369254 -0.0054610413
0001a0 9b 72 4f bb 03 78 52 3d f3 83 26 ba 12 aa 36 bc
       -0.0031654004 0.051383983 -0.00063520594 -0.011148946
0001b0 0b 1d 0b 3d 0c 57 8d 3b d3 2c a8 bb 92 91 14 3e
       0.033963244 0.0043133553 -0.0051322966 0.14508656
0001c0 0e ff 7e 3b 9c ba 8e 3b 83 d5 71 bb 98 e5 84 bb
       0.0038909349 0.0043557417 -0.0036900945 -0.00405569
0001d0 93 c7 ff ba d1 7a 78 3b 01 5b 04 3c 0e 3a 01 bc
       -0.0019514434 0.0037915 0.008078338 -0.0078873765
0001e0 e6 9b 53 3c a8 60 04 bc 5c c8 9e bb e3 84 e8 3d
       0.012915587 -0.008079685 -0.004845662 0.11353471
0001f0 a4 80 2e bb 19 69 c9 3b 23 d9 64 3c 05 6f c5 bb
       -0.0026626969 0.006146562 0.013967785 -0.0060251975

std.constant11 f4 [128, 9]
000000 35 6b 07 be c3 5d 0b 3c d9 01 45 3d 6a a4 53 bd
       -0.1322449 0.008506241 0.048097465 -0.05167047
000010 6f a0 81 bd a4 9f 37 3c b4 cf aa bd 79 09 b4 3c
       -0.063294284 0.011207495 -0.083403975 0.021977173
000020 92 f1 95 bd 73 60 0a 3d 61 86 6a bd d6 23 c5 bd
       -0.073214665 0.033783387 -0.05725706 -0.09625976
000030 b3 7e d2 3d 75 a8 a1 3c 6a 6a ca bd 2d 18 a0 bd
       0.10278072 0.019733647 -0.09883578 -0.07817111
000040 07 5e a0 bd f4 fa c0 3d 54 86 9d 3c d9 f3 9f bd
       -0.07830434 0.094228655 0.019229092 -0.07810182
000050 6a 28 a1 bc 83 56 75 bd 5b 40 a2 bb b7 ea 39 3d
       -0.019672591 -0.059896957 -0.0049515194 0.045389857
000060 d5 b5 22 3c 02 91 7a bd 8e 7c d9 3d b8 ed ba 3c
       0.009931047 -0.061173446 0.1061946 0.022818431
000070 b4 7b 21 3d ed ea c2 bd fd cd 03 3d d3 c8 03 bc
       0.039424613 -0.09517465 0.032178868 -0.008043486
000080 88 09 76 bd 66 ea a8 bd 8e 37 cc 3d f3 5b 7a 3d
       -0.060067683 -0.08247833 0.09971534 0.061122846
000090 5a ca dc 3b a3 8b e9 bb 0f 44 82 3d a4 cd 9f 3d
       0.0067379894 -0.0071272417 0.063606374 0.07802895
0000a0 80 b4 cc 3d ae 45 73 bc ba f5 7a 3d 0a 99 5b 3d
       0.09995365 -0.014848156 0.0612695 0.053612746
0000b0 04 68 46 bd f9 75 8c bd 78 1b af 3c 85 db 38 bd
       -0.04843904 -0.06858439 0.021375403 -0.045131225
0000c0 d9 3e 4e bd a9 ce 47 bd 88 49 0e bd 7e f5 81 3c
       -0.050352905 -0.04878107 -0.034738094 0.01586413
0000d0 98 44 b8 bc ee 1e 86 bd 39 39 99 3d ca 72 2a 3d
       -0.022493646 -0.06548868 0.074816175 0.041613378
0000e0 61 10 b1 3d 27 6b 89 3d 55 50 eb 3c 76 47 e2 bc
       0.08645702 0.06709891 0.028724829 -0.027621966
0000f0 c4 60 94 3d f5 2f d4 bd 18 a3 a0 3d b1 3b a8 bd
       0.07245019 -0.103607096 0.07843608 -0.0821451
000100 fc 2b 7f 3d 16 71 7f bc 0f 05 7b bd d4 ad 90 3d
       0.062297806 -0.015590927 -0.06128412 0.07064405
000110 fa d0 da bd cf 5a 1d bd 31 3f d0 bd 39 1b 9e 3c
       -0.1068439 -0.03841668 -0.10168303 0.01930009
000120 d8 7f 06 3e 2b 06 8b bd af 4b 4f 3c 5d 9d d0 3d
       0.13134706 -0.06788286 0.012652322 0.10186265
000130 08 fd 60 3d 77 d5 8a bd ae 65 81 bc 78 e0 d3 3d
       0.05492881 -0.067789964 -0.015795555 0.103455484
000140 f2 a5 39 3d c7 ad 86 3d ba fc 80 bc 7a 5b 88 3d
       0.045324273 0.06576114 -0.01574551 0.06658073
000150 b8 b7 f1 bb 6e 4e da bd 80 26 ad 3b ca ab 99 3c
       -0.0073766373 -0.106594905 0.0052841306 0.018758673
000160 dd de e9 3c be 7b 50 bd 74 52 de 3d da dc c4 ba
       0.028548652 -0.05089926 0.108555704 -0.0015019432
000170 7f 31 41 3d fb c9 62 bd 26 d8 bd 3d 0b 97 87 bd
       0.047166344 -0.055368405 0.09269743 -0.06620606
000180 48 02 8e 3d b5 ee b9 3d 77 a9 99 3d ff ee 82 3d
       0.06934029 0.09078733 0.07503026 0.06393241
000190 c6 3c 9a 3d 49 b8 05 bd 5d 8d 84 bd a0 d4 13 bd
       0.07531123 -0.03264645 -0.064722754 -0.036091447
0001a0 92 1e d8 3c a0 c8 d0 3b 31 1c 04 bd 1f b7 f8 3c
       0.026381765 0.0063715726 -0.032253448 0.030360756
0001b0 66 5f d8 3c 82 42 ce 3d 1e 6a b6 3b 6a 96 33 bc
       0.026412677 0.10071279 0.0055668494 -0.0109611545
0001c0 ff 02 27 3c 92 d4 89 bd 60 db 68 bd 16 fc 06 3c
       0.010193585 -0.06729998 -0.056849837 0.008238813
0001d0 dc 7e 69 3d dc f3 1a be bb 98 88 3d 24 b7 4f 3d
       0.05700575 -0.15132087 0.06669756 0.050711766
0001e0 1b c1 64 bc 04 e0 ca bd 57 ad 80 bd e6 29 69 bc
       -0.013962056 -0.09906009 -0.06283062 -0.014231181
0001f0 b8 f7 1b 39 6c b7 6a bd a6 a8 87 3c 0a ca ae 3d
       0.00014874234 -0.05730383 0.01655991 0.0853463
000200 27 a0 30 bc 15 4d 95 3d a4 cc 38 bd 6a 22 81 bd
       -0.010780371 0.07290093 -0.045117036 -0.06305392
000210 b5 bf f0 3c bb bf 9f 3c f1 b3 a0 bd 7d 1b 6e bd
       0.029388288 0.019500604 -0.07846821 -0.058131684
000220 36 4e f9 bb b8 f3 a3 3d 91 57 3e 3d 81 ce 81 3b
       -0.0076082004 0.0800547 0.04647023 0.0039613848
000230 f9 c5 04 3d f6 77 c9 bc d2 e4 1b bd 77 69 97 bc
       0.032415364 -0.024593335 -0.038060017 -0.018482907
000240 47 3a 7e bd 0c 85 d8 bd 2a 67 95 bc 03 ff da 3d
       -0.062067296 -0.10572252 -0.018237669 0.10693171
000250 87 a8 c6 bd 25 e7 a6 3d 06 e1 be bd 31 cf 3e bd
       -0.09700113 0.08149556 -0.093202636 -0.046584312
000260 c1 00 37 3d f2 cb 10 bd 72 14 11 3d 43 e3 76 bd
       0.044678453 -0.035350747 0.03541989 -0.060275327
000270 a3 13 66 3d 18 7b 09 3d 4f e6 28 bb bc d7 c0 3b
       0.05617107 0.033564657 -0.002577204 0.0058850925
000280 87 07 48 3d 92 ba 8a 3b e0 dc 25 3e db b6 48 bc
       0.048835304 0.0042336667 0.16197538 -0.012250627
000290 0d 13 bb bd 63 3f 9a bd 00 3e 80 3d 56 10 98 bd
       -0.09134493 -0.07531621 0.062618256 -0.07424991
0002a0 a5 3d bf bd 34 35 b5 bd c2 42 e0 bc 6e 47 45 3d
       -0.0933793 -0.08848038 -0.027375583 0.048163824
0002b0 52 c1 99 3d 8e d2 4e 3d 98 52 b0 bd f0 e3 58 3d
       0.07507576 0.05049377 -0.086095035 0.052951753
0002c0 a5 f2 50 bd d5 7d 26 3d 99 1b 51 3d f3 fd c1 3b
       -0.051012654 0.040647347 0.05105171 0.0059201657
0002d0 49 f7 96 3d 15 35 32 bc d0 a6 07 bd 5c 30 cd bc
       0.07371385 -0.010876914 -0.03311807 -0.025047474
0002e0 11 64 c9 3d 80 c0 e7 3c 8d e6 0d 3d d8 bd 31 3d
       0.09833539 0.028290033 0.0346437 0.04339394
0002f0 9f 49 c9 3c 05 11 68 bb 5b 0e 00 3d 90 83 83 3c
       0.024571238 -0.0035410535 0.03126369 0.016053945
000300 c8 de 19 bc 52 44 9c bd da 19 83 bc 22 f0 78 bc
       -0.009391494 -0.076302186 -0.016003538 -0.015193971
000310 a0 15 f5 3c 7a ba 3a 3d e3 fc 6f bd 97 7d e8 3c
       0.029917538 0.045587994 -0.05859078 0.028380198
000320 eb d4 ba bd 64 36 9a bd 77 11 a3 bd 44 f4 1a 3c
       -0.09122642 -0.075299054 -0.079623155 0.0094576515
000330 d6 5b 25 3d 00 30 27 bb 5f 4b cc 3d 93 e3 30 bd
       0.040370785 -0.0025510788 0.099753134 -0.04318578
000340 bf 46 f5 bc 14 f2 8a 3d 93 30 cc bb 27 e0 b5 3d
       -0.02994096 0.06784454 -0.0062313764 0.08880644
000350 6a 4c b9 3d 37 26 87 bb 02 51 1a bd 79 41 14 bd
       0.09047778 -0.0041244286 -0.03767491 -0.036195252
000360 41 ef 35 bd 92 d6 51 bd 3d 90 8e 3b 5f f2 b8 bd
       -0.044417623 -0.05123002 0.0043506906 -0.090306036
000370 9a b0 3f bd 8e a0 ab bd 10 5c a3 3c 27 cb 4e 3d
       -0.04679928 -0.08380233 0.01994136 0.05048671
000380 f6 3b bc bd 45 ac 1c 3e 72 60 c3 bc 1a 62 cf 3c
       -0.09191124 0.1530009 -0.0238497 0.025315333
000390 5f 99 68 bc e4 2c 27 bd 44 86 ae bd 52 af 81 3c
       -0.014196723 -0.040814295 -0.08521703 0.01583067
0003a0 43 54 85 3d de 28 a3 bd 21 7d 37 3d 5c 97 f4 bc
       0.06510212 -0.07966779 0.044797067 -0.02985733
0003b0 61 a6 ea bb 02 ad 4e bd 1f 5a 37 bd 55 c1 af 3d
       -0.007160947 -0.05045796 -0.04476368 0.08581797
0003c0 a4 77 e4 bc 89 35 c9 bb 0c 54 ba bd 0e 1e 8a bd
       -0.02788908 -0.006140415 -0.09098062 -0.06744014
0003d0 9c c7 b5 3d 91 8a 48 3d b7 c6 9d bb 0d b0 fe 3c
       0.08875963 0.048960272 -0.0048149484 0.031089807
0003e0 e3 35 34 3d de 38 cf 3d d7 9b 16 3d b6 16 98 3d
       0.043996703 0.101182684 0.036769714 0.07426207
0003f0 14 19 fb 3c d1 7e 81 bd 3e 1f 9e bd c2 6f 77 bd
       0.030651607 -0.063230164 -0.07720803 -0.060409315
