AirQualityApp/AirQualityApp.Android/Assets/ViennaLong.tflite (tflite, 810852 bytes, 24 tensors)

std.constant3 f4 [128, 128]
-0.022362677 0.017813945 0.012975488 0.056629483 0.032459967 -0.028427266 0.013024222 0.020060176
-0.039363265 -0.024768027 0.060767137 0.05258154 0.043432742 -0.006474318 -0.010935829 -0.013209165
-0.02172102 0.015386245 0.0913896 0.028583841 0.0035882695 -0.0055478234 -0.051892366 -0.0076844953
0.073440865 -0.016427333 0.019196019 0.011312315 0.057788506 0.010568121 0.058833778 -0.04762415
-0.0026577604 -0.008565097 -0.02840741 -0.017856326 0.01838411 0.022213537 -0.04192524 0.028993698
-0.03396102 -0.037401892 0.041638754 0.04092091 -0.09769652 -0.0033150534 0.017702492 -0.046519917
0.11059831 0.00010223314 0.021410313 -0.095785834 -0.0052401097 0.045806326 0.032408245 0.007772021
-0.023330236 0.01921961 0.04190806 0.021739567 0.03966993 0.043848008 -0.046750396 0.037767313
-0.053806975 0.031747032 -0.07938498 0.07344624 -0.0029967802 -0.067462504 0.02167271 0.012071587
0.011053886 -0.008841395 0.020358905 -0.022205358 -0.01145588 0.08832451 0.044372827 -0.01603772
0.037293836 -0.034361877 -0.054114647 -0.058033228 0.038248144 -0.0072028716 -0.037690606 -0.024229838
0.03318755 0.009032685 -0.07194382 -0.00986545 0.068333805 -0.014313861 -0.01808511 -0.004421239
-0.00033788662 0.044785462 -0.05925034 -0.11554628 0.09857608 0.005569307 0.0038989277 -0.00409452
0.027400684 0.024942726 -0.08707759 -0.020690069 0.032089535 -0.04392141 -0.0930706 -0.05411676
0.031140719 -0.018503947 -0.0732224 -0.017418275 0.07325523 -0.010977725 0.034035746 -0.0007160837
-0.031443443 -0.040297367 0.056100402 -0.063335344 0.019050326 0.059077643 0.034385014 0.040655654
-0.045106426 -0.043521807 0.01041301 0.08139906 -0.067417644 0.052070435 0.023921823 0.0074193263
0.0034535711 -0.048378244 -0.08736307 0.033943053 0.034403022 -0.05442217 -0.0097283535 -0.05188693
-0.005698389 0.071380675 -0.0035300842 0.02062063 -0.022659486 0.022650696 -0.03392446 0.00038617392
0.018840495 0.09077478 -0.030636704 0.016980605 0.003968328 0.052447993 0.063781366 -0.018822117
0.079100646 0.037601396 0.013135834 0.012291626 0.08004136 -0.09556121 0.056262285 -0.072073355
-0.022241075 -0.028060658 -0.056590613 -0.054916397 0.036060292 0.031007929 -0.0055944007 0.018785503
0.0049419217 -0.0016113896 0.019315721 0.007721868 0.03346002 -0.04296661 0.05294645 0.066615455
-0.033883013 -0.03191131 -0.007257538 0.02238936 -0.017395347 0.08714708 0.034139596 0.007380802
-0.0037075542 -0.018709457 -0.07956462 -0.058036108 0.019545458 -0.017806191 0.017833583 -0.0101610795
0.016309699 0.0030653048 0.06046638 -0.081124306 -0.025951352 -0.0030517224 0.013798562 -0.012466386
0.0023350753 0.09871128 -0.031847034 -0.07783681 0.018387722 -0.043209158 0.0088526625 -0.0010617087
-0.04173173 0.106997736 -0.017516542 0.006104088 -0.03293662 -0.049385674 0.0074870735 0.024585556
-0.014796305 0.068327025 0.038641978 0.041720103 0.054617174 -0.07010214 0.0011801524 -0.11477021
0.035913926 0.045288354 -0.03463867 0.06200238 0.018157642 -0.016954964 0.04717508 -0.06772844
0.014371338 0.035873506 0.05065131 -0.003459705 -0.04373383 0.04377089 0.0105085 0.007005495
0.024582358 0.00825203 -0.009632023 0.0055118613 -0.07142454 0.053434912 0.09945509 0.04582693
00000000: ef31 b7bc 8dee 913c 2497 543c 51f4 673d
00000010: bef4 043d 4ce0 e8bc 8c63 553c 3d55 a43c
00000020: 603b 21bd 51e6 cabc f6e6 783d be5f 573d
00000030: 88e6 313d 8426 d4bb 312c 33bc 416b 58bc
00000040: 48f0 b1bc 9716 7c3c 782a bb3d a928 ea3c
00000050: 2c29 6b3b 84ca b5bb 178d 54bd 38ce fbbb
00000060: 2a68 963d 9d92 86bc f840 9d3c 4a57 393c
00000070: a4b3 6c3d ea25 2d3c b0fb 703d 8a11 43bd
00000080: d22d 2ebb 9f54 0cbc a8b6 e8bc 6e47 92bc
00000090: 469a 963c 2af9 b53c cdb9 2bbd 3184 ed3c
000000a0: b61a 0bbd ba32 19bd 668d 2a3d af9c 273d
000000b0: 1d15 c8bd 5e41 59bb d104 913c ab8b 3ebd
000000c0: 5e81 e23d 0066 d638 ae64 af3c 5d2b c4bd
000000d0: 3ab5 abbb 6a9f 3b3d 82be 043d 70ac fe3b
000000e0: 0d1f bfbc 7272 9d3c c9a7 2b3d 2d17 b23c
000000f0: f07c 223d f899 333d 587d 3fbd e6b1 1a3d
00000100: b464 5cbd 2d09 023d 9894 a2bd fb6a 963d
00000110: a165 44bb c829 8abd f88a b13c e8c7 453c
00000120: 5c1b 353c 80db 10bc b8c7 a63c 03e8 b5bc
00000130: 71b1 3bbc 7be3 b43d 48c0 353d 8961 83bc
00000140: 6cc1 183d 0abf 0cbd 52a7 5dbd 40b4 6dbd
00000150: 16aa 1c3d 1106 ecbb 7761 1abd a77d c6bc
00000160: abef 073d d4fd 133c 4857 93bd b2a2 21bc
00000170: 98f2 8b3d af84 6abc 3927 94bc 0ae0 90bb
00000180: 6026 b1b9 f670 373d 7cb0 72bd 87a3 ecbd
00000190: 41e2 c93d bc7e b63b 2785 7f3b 532b 86bb
000001a0: 6677 e03c b054 cc3c bc55 b2bd 387e a9bc
000001b0: 5170 033d f0e6 33bd cc9b bebd 89a9 5dbd
000001c0: d21a ff3c 9795 97bc a0f5 95bd c5b0 8ebc
000001d0: d706 963d eadb 33bc 1169 0b3d 90b7 3bba
000001e0: d7ca 00bd da0e 25bd 89c9 653d f6b5 81bd
000001f0: 6e0f 9c3c 66fb 713d 4dd7 0c3d 8b86 263d
00000200: 84c1 38bd ec43 32bd 549b 2a3c 8db4 a63d
00000210: 4312 8abd cf47 553d b3f7 c33c d21d f33b
00000220: 4f55 623b 4428 46bd 69eb b2bd df07 0b3d
00000230: 2fea 0c3d c8e9 5ebd ac63 1fbc 6487 54bd
00000240: 8db9 babb 0830 923d fc58 67bb 98ec a83c
00000250: 63a0 b9bc f48d b93c 60f4 0abd 6377 ca39
00000260: 6257 9a3c 21e8 b93d d3f9 fabc e91a 8b3c
00000270: bf08 823b b5d3 563d ce9f 823d d730 9abc
00000280: 85ff a13d ec03 1a3d ae37 573c d162 493c
00000290: b9ec a33d 98b5 c3bd 4873 663d 329b 93bd
000002a0: ea32 b6bc 77df e5bc 8fcb 67bd 04f0 60bd
000002b0: f5b3 133d 5704 fe3c 3c51 b7bb 0ee4 993c
000002c0: d8ef a13b 4335 d3ba 013c 9e3c b907 fd3b
000002d0: 600d 093d c2fd 2fbd 60de 583d af6d 883d
000002e0: eac8 0abd 6fb5 02bd a4d0 edbb e469 b73c
000002f0: b080 8ebc 2b7a b23d f6d5 0b3d a8da f13b
00000300: 70fa 72bb 9344 99bc c7f2 a2bd 45b7 6dbd
00000310: cc1d a03c 4ade 91bc bc17 923c a87a 26bc
00000320: eb9b 853c 48e3 483b 98ab 773d 8024 a6bd
00000330: ee97 d4bc 68ff 47bb 5d13 623c d03f 4cbc
00000340: 1008 193b 2429 ca3d 0972 02bd e868 9fbd
00000350: d9a1 963c 16fc 30bd c20a 113c 0829 8bba
00000360: e4ee 2abd a121 db3d da7e 8fbc cd04 c83b
00000370: 8de8 06bd a248 4abd 2056 f53b a667 c93c
00000380: 346c 72bc 0aef 8b3d 0d47 1e3d b3e2 2a3d
00000390: 42b6 5f3d b691 8fbd 58af 9a3a a50c ebbd
000003a0: 7b1a 133d 4880 393d 47e1 0dbd 35f6 7d3d
000003b0: 56bf 943c 23e5 8abc a83a 413d 35b5 8abd
000003c0: c375 6b3c 19f0 123d bf77 4f3d 38bc 62bb
000003d0: 3f22 33bd 1b49 333d d82b 2c3c 5a8e e53b
000003e0: f160 c93c 8633 073c a2cf 1dbc d89c b43b
000003f0: 0747 92bd 91de 5a3d 1caf cb3d 05b5 3b3d

std.constant4 f4 [128, 128]
-0.024089595 -0.008479682 0.010381723 0.021202845 0.0013269056 -0.046901647 -0.022989478 0.0038118348
0.029635197 0.01479038 -0.07963097 0.07260408 0.033466913 0.050387114 -0.042055234 0.047985367
0.017207079 0.06996428 -0.08736897 0.012127504 -0.06097416 -0.030285686 0.043777578 0.046966895
-0.03621797 -0.022184681 -0.036904763 0.011487747 0.027639927 0.001159224 0.10092496 -0.0141242575
-0.053500265 -0.03121323 0.026549201 0.061802812 -0.08409815 0.06205414 -0.020586852 0.06036394
0.046125688 -0.02045526 -0.03345172 0.035325058 -0.04082245 -0.0012097331 0.0007640515 -0.016326196
0.014857793 0.02339379 0.022448761 -0.011072412 -0.009269874 0.07516889 0.0077963956 0.015234677
0.009188481 -0.015948892 -0.008964151 0.023001915 0.0008124132 0.037538603 0.069628395 0.019842593
0.009251326 -0.041694954 0.0113030225 -0.063723825 0.002851658 -0.07601192 -0.0063609546 -0.030494127
0.020560702 -0.0023059193 -0.006126468 0.058214717 0.064411774 0.045607712 -0.008860794 0.0065164347
-0.021084752 0.004185986 -0.03108413 -0.068822086 0.0067335614 -0.049899418 -0.03216907 0.012813729
0.0058765076 0.010355687 0.018156953 -0.05797115 -0.053110857 -0.013096954 -0.024978088 -0.08625279
-0.019973204 0.059419546 0.0396311 -0.021643786 0.03836615 -0.0604646 -0.08437019 0.03773218
0.028799236 0.07486612 -0.009357464 0.058662895 -0.026533937 0.12058477 -0.061343715 0.021826103
-0.017115124 0.012486012 0.07652694 0.012769204 -0.099806055 -0.041854396 0.012070935 0.06204273
-0.056058787 -0.005538838 0.00885427 0.0664111 -0.009597821 -0.054507922 0.054716714 -0.016603
0.016615102 -0.016976612 0.051256433 0.0060279393 -0.0863424 -0.013600739 -0.032517858 -0.05523382
-0.048669208 -0.024889097 -0.008417816 0.016864631 0.028243005 -0.050154023 -0.04917061 0.01696378
0.07404945 -0.08604112 0.017921958 -0.032362714 -0.006211171 -0.0040507186 -0.014893644 -0.0006305361
0.116973795 -0.0013590353 0.029093117 -0.021762334 0.09574055 -0.051993944 -0.044074096 -0.067499354
0.014816192 0.015814288 0.08601523 -0.051133446 -0.02733214 -0.00071472954 -0.05223427 0.042514846
-0.056009114 0.06797324 0.10193905 -0.00085848337 -0.04756875 0.010485331 -0.03295421 -0.027299851
0.03619186 0.013591404 0.035615552 0.01636018 0.03505482 0.025142634 0.035750553 -0.0125258975
0.0848653 0.02700368 0.047003925 0.05512867 0.022497043 0.058767088 -0.026381627 0.058012687
0.016452877 0.08054638 0.009926965 -0.010094339 0.026723789 -0.017369555 -0.030185323 -0.07460036
0.0083765425 -0.010166841 -0.044934615 0.020452484 -0.050382566 -0.01747249 -0.060512383 -0.046295926
-0.08355768 0.0134982765 -0.08316138 0.020742677 -0.065267764 -0.0061034965 0.02260197 -0.03641135
-0.024296343 0.04953352 0.0013390416 0.02748533 0.0014301636 -0.023382822 0.050915636 -0.085219644
0.03265727 0.038048208 0.06394939 -0.017188266 -0.104190394 -0.035818797 0.008228463 0.0115458835
0.0035977587 -0.07004821 0.04442348 -0.00024728663 0.019969376 -0.04384984 -0.0032193377 0.08814425
-0.03624986 0.026266035 0.020300519 -0.10987784 -0.10575015 0.029865004 0.057666887 0.068685405
-0.03889104 0.032509755 0.03128995 0.019836128 0.019632597 0.026483694 0.063410856 -0.026177853
00000000: 8b57 c5bc 5dee 0abc 1a18 2a3c 97b1 ad3c
00000010: 90eb ad3a f11b 40bd 6e54 bcbc facf 793b
00000020: 83c5 f23c 5a53 723c 9015 a3bd 73b1 943d
00000030: 9a14 093d b862 4e3d 1c42 2cbd 4e8c 443d
00000040: dcf5 8c3c 6f49 8f3d 81ee b2bd 70b2 463c
00000050: 0ac0 79bd b019 f8bc 1e50 333d 5c60 403d
00000060: 4b59 14bd a6bc b5bc 7329 17bd 1a37 3c3c
00000070: 216d e23c 1af1 973a bfb1 ce3d 6e69 67bc
00000080: 1823 5bbd e3b2 ffbc b67d d93c f224 7d3d
00000090: a73b acbd 7b2c 7e3d c2a5 a8bc 2e40 773d
000000a0: 4aee 3c3d ca91 a7bc ac04 09bd 02b1 103d
000000b0: 7135 27bd e88f 9eba a14a 483a 84be 85bc
000000c0: 1a6e 733c 55a4 bf3c 77e6 b73c 1069 35bc
000000d0: abe0 17bc 26f2 993d e878 ff3b de9a 793c
000000e0: 488b 163c 40a7 82bc 60de 12bc 836e bc3c
000000f0: 20f8 543a 14c2 193d 5599 8e3d ef8c a23c
00000100: e092 173c 54c8 2abd 5030 393c a381 82bd
00000110: e2e2 3a3b 23ac 9bbd 8e6f d0bb d2ce f9bc
00000120: eb6e a83c e81e 17bb 8ac0 c8bb 8e72 6e3d
00000130: 52ea 833d 27cf 3a3d dd2c 11bc d187 d53b
00000140: eeb9 acbc 982a 893b 25a4 febc 98f2 8cbd
00000150: 35a5 dc3b 5563 4cbd b7c3 03bd adf0 513c
00000160: b88f c03b e6aa 293c e4bd 943c 2873 6dbd
00000170: c58a 59bd 9b94 56bc d99e ccbc 4ea5 b0bd
00000180: d89e a3bc e961 733d 3854 223d 4f4e b1bc
00000190: d325 1d3d baa9 77bd 47ca acbd 0f8d 1a3d
000001a0: 60ec eb3c 6953 993d 0c50 19bc 8148 703d
000001b0: b35d d9bc 26f5 f63d 8c43 7bbd a8cc b23c
000001c0: 0435 8cbc 2192 4c3c 28ba 9c3d ec35 513c
000001d0: 1e67 ccbd 846f 2bbd 2cc5 453c 8520 7e3d
000001e0: e69d 65bd 247f b5bb 8011 113c 8b02 883d
000001f0: 2e40 1dbc b343 5fbd a21e 603d 0403 88bc
00000200: 651c 883c 8912 8bbc 44f2 513d 0586 c53b
00000210: 49d4 b0bd a2d5 5ebc 7231 05bd dc3c 62bd
00000220: 5d59 47bd 38e4 cbbc e1ea 09bc b227 8a3c
00000230: e05d e73c 4e6e 4dbd 1f67 49bd a0f7 8a3c
00000240: 3da7 973d 5436 b0bd 12d1 923c c48e 04bd
00000250: 1487 cbbb e4bb 84bb 7804 74bc 904a 25ba
00000260: f58f ef3d a821 b2ba b054 ee3c ec46 b2bc
00000270: 9f13 c43d 9af7 54bd 0a87 34bd 1a3d 8abd
00000280: 9dbf 723c f78c 813c c128 b03d 4e71 51bd
00000290: a7e7 dfbc b05c 3bba 9af3 55bd 0c24 2e3d
000002a0: d069 65bd 8e35 8b3d 6cc5 d03d d80b 61ba
000002b0: 73d7 42bd aaca 2b3c fefa 06bd f0a3 dfbc
000002c0: ea3d 143d 7bae 5e3c 9de1 113d c905 863c
000002d0: a595 0f3d edf7 cd3c 2c6f 123d 6c39 4dbc
000002e0: dccd ad3d d236 dd3c 3087 403d 9ace 613d
000002f0: b84b b83c c2b5 703d 481e d8bc b69e 6d3d
00000300: 2fc8 863c 80f5 a43d b6a4 223c ba62 25bc
00000310: d9eb da3c 994a 8ebc 3647 f7bc 13c8 98bd
00000320: c43d 093c d292 26bc 5c0d 38bd f88b a73c
00000330: f35d 4ebd 7822 8fbc d5db 77bd cca0 3dbd
00000340: 4a20 abbd e027 5d3c 8350 aabd 8cec a93c
00000350: 1bab 85bd d7ff c7bb c427 b93c 1124 15bd
00000360: 2009 c7bc a9e3 4a3d c882 af3a ea28 e13c
00000370: 5474 bb3a 558d bfbc ea8c 503d a387 aebd
00000380: a1c3 053d 70d8 1b3d e6f7 823d 68ce 8cbc
00000390: c661 d5bd bbb6 12bd add0 063c f22a 3d3c
000003a0: 60c8 6b3b 7075 8fbd 65f5 353d 40a6 81b9
000003b0: d196 a33c e49b 33bd 86fb 52bb f984 b43d
000003c0: bc7a 14bd de2b d73c 464d a63c a207 e1bd
000003d0: 8993 d8bd 74a7 f43c 1d34 6c3d efaa 8c3d
000003e0: 364c 1fbd f328 053d e429 003d 607f a23c
000003f0: 8ad4 a03c 55f4 d83c 8ddd 813d f072 d6bc

std.constant5 f4 [128, 128]
-0.05403387 0.14119042 -0.04822492 -0.06339567 -0.012288684 0.0066317553 -0.033420663 0.021873876
0.007018294 -0.009132276 0.007415052 -0.04451608 -0.055898126 -0.104671694 0.03972747 0.011768814
0.05235048 0.0067820754 0.03297584 -0.054914 0.007489804 -0.026023805 0.060440335 0.04270573
0.011705438 -0.015024079 -0.0215074 -0.018308071 -0.039984673 0.0061729434 0.04633414 0.011500674
-0.026394278 -0.025309104 0.088453405 -0.005618047 -0.022597015 0.061075933 -0.047893405 0.041653283
0.023470022 -0.039015554 0.031231571 -0.010639612 0.112351075 -0.0074178297 0.027212692 -0.033980474
0.015273345 0.050994128 -0.05220973 -0.029719714 -0.05362097 -0.031002896 0.04912246 0.009108386
0.00027889106 -0.021434272 -0.008279621 0.0009597796 -0.008933248 0.09239956 0.008964723 0.0011373274
0.012975192 0.005448703 0.010725813 -0.020442521 -0.04632238 0.03893625 -0.011665497 0.036534853
0.010480711 0.016990952 0.01954949 -0.04894466 -0.07920036 0.059171923 0.0003477186 0.026802925
-0.06295195 0.010790924 -0.059834782 0.015093109 -0.057405133 -0.033830553 0.041407105 0.029578853
0.05615441 -0.08460205 -0.02157267 0.0067920852 -0.042625573 0.091970995 0.024924848 -0.0038358103
-0.0020340392 -0.036388956 -0.019225938 0.04463608 0.0073878 -0.044915766 -0.02114535 0.07001264
-0.016287586 -0.018190563 0.030754212 0.008345577 -0.014929917 -0.02585717 -0.12744069 0.06470038
-0.08538042 0.018649938 0.06444665 0.022064816 -0.03676279 -0.15020135 0.03324487 -0.05560088
0.035984863 -0.0028890353 0.07282988 -0.060701262 0.06767138 -0.063224286 0.058461405 -0.021857498
0.0035719427 0.00011078871 0.0788738 0.018426063 -0.08899193 0.005218903 -0.00854094 0.030798847
-0.04562311 0.088028386 -0.0025722715 0.018186372 0.0076441364 0.014261536 0.037299994 -0.050878588
-0.04119352 -0.09480664 0.0823214 0.025760833 0.056250617 -0.027792266 0.013192606 -0.032854047
-0.026139196 -0.09122197 -0.07633217 0.011045203 -0.060409397 -0.009686591 -0.065324716 0.045171183
0.020589972 -0.03823793 -0.087050624 0.014200634 -0.010083761 -0.11627567 0.09055621 -0.06073132
0.027442934 0.06972316 -0.062057085 -0.030150598 -0.045460433 -0.036595903 -0.076500155 0.053268634
-0.017189147 -0.046395496 -0.10187134 0.06846848 -0.015285859 0.12101723 0.00010668184 -0.023425484
-0.061362483 0.007806019 0.036627363 -0.043443736 -0.015232606 -0.012918996 -0.057300836 -0.049246505
-0.029613331 0.012501006 -0.031416964 -0.050815865 0.039352432 0.041521512 0.020261377 -0.01337783
0.041089892 -0.038271673 0.0142960055 0.0032423818 0.027614627 -0.0075060306 0.0093311835 -0.035954203
-0.049236167 -0.032115474 0.02188002 0.036525577 -0.0015588482 0.004824775 0.012499606 -0.00057460973
0.008485026 0.0005317377 -0.054105908 0.06000589 0.004004489 -0.009900274 -0.027705455 0.04452741
0.026134282 0.017991178 0.06048857 -0.042415816 0.0077595375 0.021253973 -0.012009641 0.0030329935
-0.03131377 0.0327005 -0.0015767133 0.023186019 -0.011126557 0.023792043 -0.024149194 0.075319946
0.009890526 -0.024469307 0.017366663 0.032580454 0.03506677 0.010467524 -0.012243684 -0.011072456
-0.041898455 0.009014697 0.037130903 -0.099787295 0.024177464 0.0212349 0.046439633 0.016482417
00000000: 9f52 5dbd 3994 103e 7e87 45bd 97d5 81bd
00000010: 7a56 49bc 324f d93b 1be4 08bd d830 b33c
00000020: b8f9 e53b 8b9f 15bc f7f9 f23b 7e56 36bd
00000030: 6ff5 64bd 1d5e d6bd 46b9 223d fcd1 403c
00000040: 756d 563d 2c3c de3b ad11 073d 81ed 60bd
00000050: 086d f53b e02f d5bc 4990 773d 34ec 2e3d
00000060: 2ac8 3f3c 8e27 76bc 4930 b0bc cffa 95bc
00000070: f8c6 23bd 6746 ca3b dec8 3d3d 536d 3c3c
00000080: d038 d8bc 0a55 cfbc 0f27 b53d 9817 b8bb
00000090: 601d b9bc c22a 7a3d e02b 44bd a29c 2a3d
000000a0: 3444 c03c c6ce 1fbd 5ad9 ff3c c451 2ebc
000000b0: 5218 e63d 4411 f3bb 27ed de3c 1c2f 0bbd
000000c0: 0d3d 7a3c 38df 503d dfd9 55bd c276 f3bc
000000d0: aaa1 5bbd c9f9 fdbc a234 493d 573b 153c
000000e0: 2038 9239 ed96 afbc 3fa7 07bc b899 7b3a
000000f0: c25c 12bc fb3b bd3d c6e0 123c 6012 953a
00000100: e695 543c 098b b23b 52bb 2f3c 1377 a7bc
00000110: 89bc 3dbd 9e7b 1f3d a420 3fbc 92a5 153d
00000120: 4ab7 2b3c 9c30 8b3c 4126 a03c 327a 48bd
00000130: cc33 a2bd 425e 723d 004e b639 cf91 db3c
00000140: f4ec 80bd 6acc 303c 5115 75bd 1649 773c
00000150: a521 6bbd e891 0abd 7f9a 293d 5a4f f23c
00000160: 2b02 663d d743 adbd 2bb9 b0bc 2490 de3b
00000170: 2798 2ebd 4a5b bc3d 322f cc3c 3862 7bbb
00000180: 844d 05bb 960c 15bd b77f 9dbc 52d4 363d
00000190: 5c15 f23b 98f9 37bd 0339 adbc c962 8f3d
000001a0: 8b6d 85bc 6004 95bc 42f0 fb3c e3bb 083c
000001b0: 9c9c 74bc 6ad2 d3bc d07f 02be a281 843d
000001c0: eedb aebd c1c7 983c 9bfc 833d 46c1 b43c
000001d0: 9494 16bd 62ce 19be c62b 083d c0bd 63bd
000001e0: dd64 133d f855 3dbb d527 953d e3a1 78bd
000001f0: 4b97 8a3d bc7b 81bd 3a75 6f3d 7f0e b3bc
00000200: 4117 6a3b 3c57 e838 9688 a13d 41f2 963c
00000210: 6741 b6bd 5503 ab3b 4cef 0bbc dd4d fc3c
00000220: 4cdf 3abd 3a48 b43d 8e93 28bb 96fb 943c
00000230: aa7b fa3b 38a9 693c e1c7 183d 1166 50bd
00000240: 89ba 28bd fc29 c2bd 1f98 a83d 6208 d33c
00000250: 0c67 663d 9bac e3bc cd25 583c f791 06bd
00000260: de21 d6bc 96d2 babd 0a54 9cbd f0f6 343c
00000270: d86f 77bd 82b4 1ebc f7c8 85bd 6b05 393d
00000280: 4dac a83c 609f 1cbd 9947 b2bd c7a9 683c
00000290: 5c36 25bc f021 eebd 8975 b93d 68c1 78bd
000002a0: 01d0 e03c 04cb 8e3d 922f 7ebd 63fe f6bc
000002b0: b834 3abd 96e5 15bd 1dac 9cbd 3630 5a3d
000002c0: 41d0 8cbc 3409 3ebd eca1 d0bd 3439 8c3d
000002d0: 8a71 7abc e2d7 f73d 60ba df38 cde6 bfbc
000002e0: 3a57 7bbd a2c9 ff3b 9306 163d 0ff2 31bd
000002f0: 2e92 79bc 32aa 53bc 48b4 6abd b4b6 49bd
00000300: a897 f2bc 05d1 4c3c 13af 00bd 4c24 50bd
00000310: 0430 213d 7612 2a3d 30fb a53c b02e 5bbc
00000320: e04d 283d c2c2 1cbd cb39 6a3c 247e 543b
00000330: 1238 e23c 26f5 f5bb d2e1 183c b744 13bd
00000340: ddab 49bd 848b 03bd ba3d b33c d89b 153d
00000350: 4452 ccba 2519 9e3b 26cb 4c3c 68a1 16ba
00000360: c704 0b3c 5064 0b3a 289e 5dbd bcc8 753d
00000370: 1738 833b c234 22bc 8df6 e2bc 6062 363d
00000380: 9017 d63c 3c62 933c ddc2 773d 35bc 2dbd
00000390: b843 fe3b d01c ae3c 16c4 44bc 30c5 463b
000003a0: de42 00bd f6f0 053d b8a9 ceba 9bf0 bd3c
000003b0: 2a4c 36bc 88e7 c23c 88d4 c5bc 5841 9a3d
000003c0: df0b 223c db73 c8bc 8844 8e3c 1573 053d
000003d0: 2ca2 0f3d fa7f 2b3c bc99 48bc 3f69 35bc
000003e0: b79d 2bbd 61b2 133c 9316 183d 485d ccbd
000003f0: d10f c63c d0f4 ad3c 7c37 3e3d 2206 873c

std.constant6 f4 [128, 128]
0.035159707 0.023870166 -0.005663028 -0.109721266 0.067512736 0.07263261 0.0010001957 -0.022312563
-0.036202304 0.030769147 -0.010890443 -0.0013576616 -0.057689782 0.024923623 -0.035861716 -0.0073826835
-0.08094704 -0.021987941 0.06683697 0.092371866 0.012798812 0.031037569 -0.0156116495 -0.012286577
0.03627706 -0.06808952 -0.037973396 -0.005332331 -0.03702644 -0.0053718123 0.022418939 0.024488041
0.025528764 -0.006299218 -0.033124376 -0.05794695 -0.023195257 -0.026611438 -0.03073372 -0.021307927
0.01260031 0.021374894 -0.08957843 0.025471687 0.025070367 0.09134782 0.038008362 -0.016763851
-0.026072003 -0.025632448 -0.022302965 0.0045821993 0.0139344465 0.030396145 -0.004741842 -0.034915976
0.07477142 -0.017589374 -0.026240993 -0.0027496559 -0.016340427 -0.050694093 -0.054327298 0.004765979
0.04466225 0.04890165 0.11345448 -0.08126859 -0.026967963 0.029264968 0.045365952 -0.037081033
-0.13319889 -0.030408563 0.021763502 0.0145504605 -0.010966718 -0.0904473 0.019940367 -0.022218235
0.019157067 -0.004566389 -0.04708059 0.035163034 -0.050411064 -0.0009906795 0.08325967 -0.10151587
0.03627812 -0.045450393 -0.023075461 -0.033979286 -0.012087034 0.044734735 -0.015258583 0.02474178
0.09888817 0.025154976 -0.010513515 -0.017128259 -0.046448935 -0.06404544 0.05192808 0.009669509
-0.04662702 -0.00087744184 -0.05918793 0.041053653 0.003858157 -0.012830459 0.005199951 -0.081188925
-0.0040484793 -0.008812201 0.005893144 -0.077031106 0.020921847 0.023809612 0.032792233 -0.07243739
0.048502192 0.04131898 0.07151069 -0.040949438 0.005906422 0.009795001 0.007859502 0.060090523
0.027133089 0.06814253 0.014099867 0.11513745 0.07227087 0.06735129 0.015105028 -0.023038661
0.06383957 -0.019930681 -0.01890378 -0.024394529 0.10636918 0.0031860135 -0.006119745 0.00077783124
0.037751872 0.011771108 -0.04393409 0.046238143 -0.015440143 0.017672947 0.08148425 0.0018414756
0.045760106 -0.039389335 -0.012454348 0.050794158 -0.0128730815 -0.025936205 -0.014664535 -0.095529325
-0.01854519 -0.037461933 0.035026893 0.09027293 -0.030164326 0.05403479 -0.032038666 -0.0035130624
-0.044847745 0.029172529 0.01606194 0.056029014 -0.09989786 0.040239 -0.0033979532 -0.013462437
-0.050177377 -0.091804124 -0.014146215 0.042484388 0.009251313 0.0063270684 0.009421324 0.022416241
-0.01847036 0.0067206006 -0.08797074 -0.047607563 -0.00925949 -0.004402184 -0.043369874 -0.014788453
-0.03961126 -0.020429896 0.032842338 -0.02951959 -0.028475106 0.0010236991 0.024531445 0.01894002
-0.046689205 -0.017436778 0.079675086 -0.06429377 0.03514238 -0.012081975 -0.018101841 -0.034202922
0.03411807 0.005796644 0.01137344 0.007522193 0.0284736 -0.014738105 0.032825954 0.057671342
-0.03514895 -0.00019948755 -0.04276518 -0.013385454 0.019859277 -0.09856454 0.02765518 0.046896044
0.009902788 -0.029315596 0.01830959 -0.031926945 -0.021379968 0.058655098 0.039550398 -0.0017128453
0.054069873 -0.0012557958 -0.07485536 0.05767251 -0.017572248 -0.0054824133 -0.015352539 0.015219828
-0.020308277 0.02844585 -0.004870104 0.05088987 -0.04065515 0.033146996 0.003381684 -0.015908347
0.0044755214 -0.03378834 0.017164757 -0.009247939 0.020823328 0.03485367 0.052420862 -0.021543944
00000000: a003 103d 5e8b c33c ec90 b9bb 8bb5 e0bd
00000010: 1e44 8a3d 68c0 943d 0019 833a d6c8 b6bc
00000020: de48 14bd 940f fc3c d46d 32bc 90f3 b1ba
00000030: 1f4c 6cbd a02c cc3c bce3 12bd 70ea f1bb
00000040: 90c7 a5bd 0e20 b4bc d2e1 883d 762d bd3d
00000050: 1cb2 513c 8042 fe3c 01c8 7fbc a44d 49bc
00000060: 4197 143d 8572 8bbd fe89 1bbd d6ba aebb
00000070: 09a9 17bd 0706 b0bb eca7 b73c 259b c83c
00000080: b321 d13c ac69 cebb 6dad 07bd c859 6dbd
00000090: fb03 bebc 3b00 dabc 48c5 fbbc f68d aebc
000000a0: 8871 4e3c 671a af3c e574 b7bd 00aa d03c
000000b0: 5f60 cd3c 9114 bb3d a8ae 1b3d 5854 89bc
000000c0: f494 d5bc 24fb d1bc b5b4 b6bc 4626 963b
000000d0: 4e4d 643c 5601 f93c 7461 9bbb 0e04 0fbd
000000e0: c221 993d 9717 90bc 5af7 d6bc 9233 34bb
000000f0: 5cdc 85bc 9ca4 4fbd 4d86 5ebd ee2b 9c3b
00000100: c3ef 363d 194d 483d d35a e83d 2670 a6bd
00000110: ebeb dcbc 16bd ef3c a6d1 393d 48e2 17bd
00000120: 4a65 08be 611b f9bc 5f49 b23c 0e65 6e3c
00000130: c0ad 33bc 6f3c b9bd fb59 a33c 0403 b6bc
00000140: 48ef 9c3c a6a1 95bb 94d7 40bd 1d07 103d
00000150: d57b 4ebd b0d9 81ba 0c84 aa3d 8de7 cfbd
00000160: 5e98 143d 312a 3abd c008 bdbc dd2d 0bbd
00000170: b208 46bc c53b 373d 23ff 79bc 46af ca3c
00000180: e285 ca3d cf11 ce3c e140 2cbc 9050 8cbc
00000190: 3d41 3ebd 412a 83bd 8ab2 543d dc6c 1e3c
000001a0: f9fb 3ebd 2004 66ba 0b6f 72bd e027 283d
000001b0: 22d9 7c3b d836 52bc 5a64 aa3b 6146 a6bd
000001c0: 1ba9 84bb 0d61 10bc 461b c13b 7cc2 9dbd
000001d0: 4b64 ab3c 600c c33c 2651 063d 0e5a 94bd
000001e0: 3caa 463d 173e 293d 3274 923d 99ba 27bd
000001f0: a98a c13b 367b 203c 24c5 003c 7b21 763d
00000200: 3646 de3c 508e 8b3d 2103 673c 2fcd eb3d
00000210: c002 943d 79ef 893d 147b 773c 93bb bcbc
00000220: 52be 823d ab45 a3bc 1adc 9abc 09d7 c7bc
00000230: 16d8 d93d 70cc 503b 2488 c8bb 5fe7 4b3a
00000240: b5a1 1a3d 9bdb 403c 3bf4 33bd 3564 3d3d
00000250: a7f8 7cbc dbc6 903c 37e1 a63d ab5d f13a
00000260: f36e 3b3d b656 21bd 520d 4cbc 890d 503d
00000270: 9ee9 52bc 2a78 d4bc 8543 70bc e1a4 c3bd
00000280: 15ec 97bc af71 19bd 5c78 0f3d 04e1 b83d
00000290: 2d1b f7bc 9553 5d3d fa3a 03bd 683b 66bb
000002a0: 45b2 37bd 3afb ee3c 5494 833c ae7e 653d
000002b0: 4097 ccbd a6d1 243d 32b0 5ebb 8e91 5cbc
000002c0: cb86 4dbd cd03 bcbd 87c5 67bc 1c04 2e3d
000002d0: d292 173c 4c53 cf3b e65b 1a3c 44a2 b73c
000002e0: 274f 97bc 7c38 dc3b 012a b4bd 2600 43bd
000002f0: 1eb5 17bc 3240 90bb 9ca4 31bd 444b 72bc
00000300: 6b3f 22bd 995c a7bc b085 063d 11d3 f1bc
00000310: a044 e9bc a42d 863a 2bf6 c83c 1a28 9b3c
00000320: 2e3d 3fbd 93d7 8ebc b12c a33d 74ac 83bd
00000330: 75f1 0f3d 7af3 45bc 504a 94bc 5d18 0cbd
00000340: 64bf 0b3d c6f1 bd3b aa57 3a3c ba7c f63b
00000350: 7841 e93c 1878 71bc 8274 063d c938 6c3d
00000360: 58f8 0fbd 882d 51b9 8b2a 2fbd aa4e 5bbc
00000370: ecaf a23c 35dc c9bd 1e8d e23c 1116 403d
00000380: 4e3f 223c 4327 f0bc fefd 953c d4c5 02bd
00000390: 0b25 afbc 5440 703d 99ff 213d 8d81 e0ba
000003a0: 5f78 5d3d 8499 a4ba c44d 99bd 033a 6c3d
000003b0: adf3 8fbc d1a5 b3bb 3789 7bbc 965c 793c
000003c0: 8b5d a6bc 4507 e93c 6595 9fbb e571 503d
000003d0: 0486 26bd 25c5 073d 3e9f 5d3b 3952 82bc
000003e0: 65a7 923b a465 0abd 1b9d 8c3c ab84 17bc
000003f0: af95 aa3c b9c2 0e3d 42b7 563d ed7c b0bc

std.constant7 f4 [128]
0.005279221 0.07734139 -0.0036138585 0.025069911 0.02557347 0.037401594 0.06749499 0.009284893
0.03746076 0.027550291 0.04328854 0.0034223099 0.05754558 0.026447307 0.037671786 0.050063256
-0.0051559 0.044254113 0.023222467 0.09575857 -0.007849502 0.0048340475 0.124240816 0.049088363
0.100980215 0.08008188 0.038666725 0.10827745 -0.0047823526 0.0340187 -0.00555401 0.04992155
-0.011612941 0.0016759291 0.086277746 0.01176253 0.020993885 -0.008928027 0.08741626 0.025257982
0.0711381 0.02969754 -0.004624295 -0.0056782537 0.038963698 0.12327448 0.030936362 0.064467646
0.037895713 0.013953398 0.04344911 0.0089907395 -0.0020371247 -0.0075216605 0.026257427 0.015652383
-0.00031780428 -0.0050227917 0.09122318 0.02205674 0.07083748 0.005324033 0.019020949 0.021412557
0.022434449 0.015323079 0.018695453 0.01921156 0.028584328 -0.004700252 0.03941789 0.00951193
0.02206374 0.047837712 0.039927162 0.0068999226 -0.0020916548 0.073872454 0.030829731 0.018960875
0.04624776 0.05764338 0.04023064 0.01829208 -0.005532746 -0.00070021086 -0.015909107 0.030869212
0.009596721 0.07996507 0.07687854 0.04103427 0.057868958 0.003150856 0.007015001 0.052812684
0.021288695 0.08671189 0.027048524 0.04642724 0.049499966 -0.004384411 0.006455033 0.047964137
0.034548286 0.014842113 0.0891655 0.024532316 0.01309895 0.030389171 0.016236825 0.03308942
0.049032334 0.016601305 0.00631243 0.03744337 0.0803081 -0.0012620179 0.07009356 0.022136042
0.09534224 0.017322134 0.07791683 0.00921965 0.027724452 -0.00018809634 0.03153205 0.098541886
00000000: 51fd ac3b 2a65 9e3d 7cd6 6cbb 6a5f cd3c
00000010: 747f d13c 6a32 193d d03a 8a3d aa1f 183c
00000020: 7470 193d 26b1 e13c 534f 313d d548 603b
00000030: eab4 6b3d 06a8 d83c bb4d 1a3d 210f 4d3d
00000040: d3f2 a8bb cd43 353d 0b3d be3c 121d c43d
00000050: 339b 00bc ee66 9e3b f871 fe3d e110 493d
00000060: b7ce ce3d f801 a43d 0061 1e3d 91c0 dd3d
00000070: 48b5 9cbb 3157 0b3d 6afe b5bb 8a7a 4c3d
00000080: 3444 3ebc d9aa db3a 63b2 b03d a0b7 403c
00000090: 5efb ab3c dc46 12bc 4c07 b33d d4e9 ce3c
000000a0: dab0 913d 4148 f33c 6687 97bb a510 babb
000000b0: 6698 1f3d 5577 fc3d 416e fd3c 9d07 843d
000000c0: 8938 1b3d cb9c 643c b2f7 313d e54d 133c
000000d0: 4881 05bb 4378 f6bb d119 d73c 6d39 803c
000000e0: f89e a6b9 3b96 a4bb 38d3 ba3d 56b0 b43c
000000f0: 3e13 913d 3a75 ae3b d2d1 9b3c 6369 af3c
00000100: 73c8 b73c a70d 7b3c 3527 993c 9061 9d3c
00000110: ae29 ea3c 9204 9abb a774 213d edd7 1b3c
00000120: 04bf b43c 7af1 433d aa8a 233d bf18 e23b
00000130: 2514 09bb 714a 973d a28e fc3c d653 9b3c
00000140: 4b6e 3d3d 771b 6c3d e2c8 243d 46d9 953c
00000150: 0a4c b5bb 5b8e 37ba d153 82bc 6ee1 fc3c
00000160: 913b 1d3c bac4 a33d 7f72 9d3d 8d13 283d
00000170: 0008 6d3d 977e 4e3b 18de e53b 1d52 583d
00000180: a165 ae3c 0196 b13d de94 dd3c 7d2a 3e3d
00000190: 7ac0 4a3d 1bab 8fbb be84 d33b 0b76 443d
000001a0: 8182 0d3d 552c 733c 679c b63d fff7 c83c
000001b0: fa9c 563c b6f2 f83c 1703 853c c688 073d
000001c0: 21d6 483d 76ff 873c 80d8 ce3b 385e 193d
000001d0: 9378 a43d 4b6a a5ba 368d 8f3d a556 b53c
000001e0: cb42 c33d 26e7 8d3c dc92 9f3d 040e 173c
000001f0: 641e e33c ba3b 45b9 c027 013d 54d0 c93d

std.constant8 f4 [128]
-0.00094499084 -0.026789749 -0.021653078 0.013899505 0.019813577 7.672875e-05 -0.0020028113 0.021144725
0.0067187515 0.0021615115 0.02343696 0.0009279642 0.0015857781 0.0058423094 0.0062134615 -0.0010889738
0.0048829187 0.002365354 0.008767329 -0.007006324 -0.010420352 0.0008556263 -0.024899991 -0.00665137
0.025066106 0.015401723 0.0029363176 -0.016231332 0.024405044 -0.00996402 0.0006663706 -0.011027406
0.01845923 0.00493255 -0.026858991 0.00055597955 0.00348883 0.023750497 0.020794557 -0.01831963
-0.016064674 0.0017126943 0.0141091645 0.0028558592 0.00204294 -0.026879398 8.847929e-05 -0.006288586
0.00017753273 -0.0047987234 -0.018247994 0.0035532145 -0.00704109 0.006222842 -0.000398366 -0.0049924515
-0.003295982 -0.0006877184 0.021177085 0.002810239 -0.021097861 0.0160897 0.004720861 -0.005242355
0.002401071 -0.0038686958 -0.018456819 0.0039868415 -0.011766123 0.000554813 0.021898732 0.003899233
-0.0032297368 -0.016463928 -0.024447756 0.005790289 -0.0013283206 -0.0044704806 0.01701133 0.005732137
-0.0044295657 -0.0060592457 0.003385712 -0.002472008 -0.0052951737 -0.018558359 0.0132925855 -0.00431014
0.0032836513 -0.014778729 0.02184168 0.01992775 -0.0027472123 0.0039540296 0.0012463145 -0.024888357
-0.0063700755 -0.026162535 -0.022655414 0.0018691933 -0.0012279396 0.00391407 0.022754593 -0.000680617
0.0040736534 -0.0029594856 -0.023203533 0.01772803 -0.00094455155 0.0018777316 -0.0006760265 0.0020346106
0.0023367503 0.001037659 -0.024106923 0.0023470777 0.024465902 -0.020722864 -0.023944894 0.0010439209
0.014345234 -0.0012174122 -0.0075487113 0.001445977 -0.013596115 0.018270569 0.008395916 -0.023417765
00000000: 43b9 77ba 2d76 dbbc cc61 b1bc c0ba 633c
00000010: 1550 a23c 6fe9 a038 9941 03bb b437 ad3c
00000020: f928 dc3b 25a8 0d3b defe bf3c a042 733a
00000030: e2d9 cf3a d870 bf3b 4b9a cb3b e6bb 8eba
00000040: e400 a03b 0e04 1b3b d8a4 0f3c 4e95 e5bb
00000050: 20ba 2abc 1c4c 603a 11fb cbbc bcf3 d9bb
00000060: 6f57 cd3c 8257 7c3c 3c6f 403b 92f7 84bc
00000070: 16ed c73c 2140 23bc 60af 2e3a 4bac 34bc
00000080: d037 973c 3aa1 a13b 6307 dcbc 28bf 113a
00000090: dba4 643b 6790 c23c 5959 aa3c 0c13 96bc
000000a0: 109a 83bc 7c7c e03a 202a 673c 5e29 3b3b
000000b0: d8e2 053b 2f32 dcbc f58d b938 7c10 cebb
000000c0: 1428 3a39 9c3e 9dbb d17c 95bc 0cdd 683b
000000d0: f2b8 e6bb fbe8 cb3b c8db d0b9 b897 a3bb
000000e0: 6701 58bb 0048 34ba 917b ad3c fd2b 383b
000000f0: 6cd5 acbc 8cce 833c 74b1 9a3b 10c8 abbb
00000100: 495b 1d3b f289 7dbb c132 97bc 0da4 823b
00000110: b2c6 40bc df70 113a f864 b33c 468a 7f3b
00000120: fea9 53bb 5cdf 86bc a946 c8bc 77bc bd3b
00000130: 0b1b aeba 1c7d 92bb 585b 8b3c a6d4 bb3b
00000140: e425 91bb a38c c6bb d2e2 5d3b 6a01 22bb
00000150: 2383 adbb b307 98bc 25c9 593c 133c 8dbb
00000160: 8732 573b 7b22 72bc 53ed b23c 853f a33c
00000170: 930a 34bb ce90 813b 605b a33a abe2 cbbc
00000180: 11bc d0bb d052 d6bc d997 b9bc b8ff f43a
00000190: d1f2 a0ba 9941 803b d767 ba3c 6f6b 32ba
000001a0: 487c 853b eef3 41bb 5615 bebc 603a 913c
000001b0: c89b 77ba 381e f63a 5f37 31ba 1a57 053b
000001c0: 2a24 193b 0f02 883a e27b c5bc 6ed1 193b
000001d0: b76c c83c ffc2 a9bc 1528 c4bc 2cd4 883a
000001e0: 4608 6b3c 9391 9fba 2e5b f7bb f086 bd3a
000001f0: 3dc2 5ebc 29ac 953c 068f 093c 9dd6 bfbc

std.constant9 f4 [128]
1.0 1.0 1.0 1.0 1.0 1.0 1.0 1.0
1.0 1.0 1.0 1.0 1.0 1.0 1.0 1.0
1.0 1.0 1.0 1.0 1.0 1.0 1.0 1.0
1.0 1.0 1.0 1.0 1.0 1.0 1.0 1.0
1.0 1.0 1.0 1.0 1.0 1.0 1.0 1.0
1.0 1.0 1.0 1.0 1.0 1.0 1.0 1.0
1.0 1.0 1.0 1.0 1.0 1.0 1.0 1.0
1.0 1.0 1.0 1.0 1.0 1.0 1.0 1.0
1.0 1.0 1.0 1.0 1.0 1.0 1.0 1.0
1.0 1.0 1.0 1.0 1.0 1.0 1.0 1.0
1.0 1.0 1.0 1.0 1.0 1.0 1.0 1.0
1.0 1.0 1.0 1.0 1.0 1.0 1.0 1.0
1.0 1.0 1.0 1.0 1.0 1.0 1.0 1.0
1.0 1.0 1.0 1.0 1.0 1.0 1.0 1.0
1.0 1.0 1.0 1.0 1.0 1.0 1.0 1.0
1.0 1.0 1.0 1.0 1.0 1.0 1.0 1.0
00000000: 0000 803f 0000 803f 0000 803f 0000 803f
00000010: 0000 803f 0000 803f 0000 803f 0000 803f
00000020: 0000 803f 0000 803f 0000 803f 0000 803f
00000030: 0000 803f 0000 803f 0000 803f 0000 803f
00000040: 0000 803f 0000 803f 0000 803f 0000 803f
00000050: 0000 803f 0000 803f 0000 803f 0000 803f
00000060: 0000 803f 0000 803f 0000 803f 0000 803f
00000070: 0000 803f 0000 803f 0000 803f 0000 803f
00000080: 0000 803f 0000 803f 0000 803f 0000 803f
00000090: 0000 803f 0000 803f 0000 803f 0000 803f
000000a0: 0000 803f 0000 803f 0000 803f 0000 803f
000000b0: 0000 803f 0000 803f 0000 803f 0000 803f
000000c0: 0000 803f 0000 803f 0000 803f 0000 803f
000000d0: 0000 803f 0000 803f 0000 803f 0000 803f
000000e0: 0000 803f 0000 803f 0000 803f 0000 803f
000000f0: 0000 803f 0000 803f 0000 803f 0000 803f
00000100: 0000 803f 0000 803f 0000 803f 0000 803f
00000110: 0000 803f 0000 803f 0000 803f 0000 803f
00000120: 0000 803f 0000 803f 0000 803f 0000 803f
00000130: 0000 803f 0000 803f 0000 803f 0000 803f
00000140: 0000 803f 0000 803f 0000 803f 0000 803f
00000150: 0000 803f 0000 803f 0000 803f 0000 803f
00000160: 0000 803f 0000 803f 0000 803f 0000 803f
00000170: 0000 803f 0000 803f 0000 803f 0000 803f
00000180: 0000 803f 0000 803f 0000 803f 0000 803f
00000190: 0000 803f 0000 803f 0000 803f 0000 803f
000001a0: 0000 803f 0000 803f 0000 803f 0000 803f
000001b0: 0000 803f 0000 803f 0000 803f 0000 803f
000001c0: 0000 803f 0000 803f 0000 803f 0000 803f
000001d0: 0000 803f 0000 803f 0000 803f 0000 803f
000001e0: 0000 803f 0000 803f 0000 803f 0000 803f
000001f0: 0000 803f 0000 803f 0000 803f 0000 803f

std.constant10 f4 [128]
0.0055159763 0.07665291 -0.0037128038 0.02487421 0.025834447 0.037620224 0.06659872 0.009387976
0.037056156 0.027653811 0.04402687 0.0037421163 0.057845652 0.026104493 0.03711935 0.05022164
-0.0055042435 0.04469151 0.023845041 0.09578646 -0.00777614 0.0049204025 0.123433135 0.048870035
0.10041889 0.07965332 0.038331863 0.10801464 -0.004927906 0.034223456 -0.005476924 0.049828146
-0.011177835 0.0017709066 0.08582891 0.01246784 0.020992592 -0.008578383 0.08807332 0.02576499
0.071097754 0.02971019 -0.0045961733 -0.005746705 0.039148644 0.123308845 0.03131229 0.06369249
0.037446074 0.013745869 0.043923084 0.008634199 -0.0023837544 -0.0076040663 0.02539601 0.015743945
-0.0005939689 -0.004948344 0.090613835 0.020835826 0.07129978 0.0058396547 0.019407094 0.021421695
0.022963896 0.015005818 0.018390102 0.018720394 0.029105326 -0.00468023 0.03927542 0.009663727
0.021730104 0.047615357 0.039807014 0.006852886 -0.0017201913 0.073369965 0.030969243 0.01896539
0.04650178 0.057964455 0.039732665 0.018409636 -0.0053992914 -0.0010709255 -0.015709035 0.031296566
0.009239823 0.07990209 0.076612145 0.041155994 0.05836537 0.0028836073 0.006704082 0.052906025
0.021465173 0.08646258 0.026478035 0.04619852 0.049769253 -0.004573384 0.006534834 0.047989093
0.034616932 0.013923212 0.090086184 0.024450507 0.013320341 0.030694095 0.01659005 0.032529034
0.04970074 0.017051842 0.0059390543 0.037546813 0.080830656 -0.00096881564 0.06954817 0.021627031
0.09612132 0.016761558 0.07779124 0.009734077 0.027355 -0.00097005005 0.031411022 0.098095454
00000000: 5dbf b43b 33fc 9c3d 8352 73bb 00c5 cb3c
00000010: c3a2 d33c aa17 1a3d e964 883d 06d0 193c
00000020: 32c8 173d 3f8a e23c 8555 343d 4b3e 753b
00000030: 90ef 6c3d 17d9 d53c 760a 183d 35b5 4d3d
00000040: f15c b4bb 720e 373d ad56 c33c b12b c43d
00000050: fdce febb 543b a13b 83ca fc3d f22b 483d
00000060: 6ba8 cd3d 4821 a33d df01 1d3d c836 dd3d
00000070: 467a a1bb e52d 0c3d c577 b3bb 9918 4c3d
00000080: 3d23 37bc c41d e83a 11c7 af3d e945 4c3c
00000090: a8f8 ab3c 598c 0cbc c95f b43d 1a11 d33c
000000a0: b39b 913d c962 f33c 7f9b 96bb db4e bcbb
000000b0: 545a 203d 5989 fc3d 5141 003d 3571 823d
000000c0: 0e61 193d 5a36 613c b1e8 333d 7576 0d3c
000000d0: c338 1cbb 882b f9bb 4b0b d03c 72f9 803c
000000e0: 94b4 1bba b825 a2bb bf93 b93d e5af aa3c
000000f0: 9e05 923d 935a bf3b a0fb 9e3c 8d7c af3c
00000100: c81e bc3c f6da 753c d7a6 963c 835b 993c
00000110: 4b6e ee3c 9d5c 99bb 43df 203d 9c54 1e3c
00000120: 5503 b23c 5208 433d ae0c 233d 2d8e e03b
00000130: 0b78 e1ba fe42 963d 36b3 fd3c 4e5d 9b3c
00000140: a778 3e3d 236c 6d3d b8be 223d cecf 963c
00000150: 8aec b0bb 4c5e 8cba 3cb0 80bc d430 003d
00000160: a062 173c b5a3 a33d d4e6 9c3d 3093 283d
00000170: 8710 6f3d e7fa 3c3b eaad db3b fdb3 583d
00000180: bbd7 af3c 4b13 b13d 77e8 d83c a93a 3d3d
00000190: d8da 4b3d 53dc 95bb 2922 d63b 3690 443d
000001a0: 7cca 0d3d 2f1e 643c 1b7f b83d 6e4c c83c
000001b0: 8f3d 5a3c 2f72 fb3c dbe7 873c 2a3d 053d
000001c0: 0193 4b3d 4eb0 8b3c 669c c23b b0ca 193d
000001d0: 8b8a a53d 1ef8 7dba 456f 8e3d 2c2b b13c
000001e0: 41db c43d 894f 893c 0351 9f3d ae7b 1f3c
000001f0: 9817 e03c f54a 7eba d8a8 003d 45e6 c83d

std.constant11 f4 [128, 7]
-0.044425517 0.093673594 -0.081440456 -0.06927419 0.060171347 0.10649699 0.04220136 -0.037519045
0.047972217 0.014142026 0.09516893 0.023290277 0.007026014 0.013703733 -0.08583266 -0.08218244
0.054506194 -0.07719387 0.039423235 0.0032660256 0.07466893 -0.10100078 -0.061490227 0.07270712
0.058146782 0.07436279 -0.06773587 0.11176177 -0.024713535 -0.08976214 -0.011746233 -0.095721506
-0.012660554 -0.01896317 -0.016041415 0.031753194 0.029504254 0.102781616 -0.09885121 -0.06564057
0.07191547 0.11893481 -0.03563881 0.008724832 0.049790725 0.081439964 -0.08432873 -0.044942785
-0.034973245 -0.03778834 0.027353248 0.014020853 0.03945172 -0.08023632 -0.033166155 -0.09054874
-0.019718053 -0.06647676 0.032475986 -0.0015795878 -0.056683872 0.10581341 0.07520209 -0.010504442
-0.06122714 -0.06252942 0.0013285072 -0.0583519 0.032452133 0.029103832 0.05302514 -0.016026318
-0.037728343 0.007751854 0.08375341 -0.07518393 -0.055867426 0.016043304 -0.07389929 -0.101285465
0.04365676 -0.015703045 -0.05446579 0.120354064 0.012286074 0.0354967 0.062428422 0.019779542
-0.004231242 0.11741867 0.14194971 -0.046603423 -0.07513221 -0.009574313 0.023746 0.03802002
-0.05439166 0.020825913 0.046974976 0.082302906 0.08811166 0.02032599 -0.070444904 0.0028901442
0.06582753 0.11375449 -0.010333618 0.06049685 0.011052292 -0.03932296 -0.07312641 0.097531036
-0.039847393 0.021484917 -0.074060455 0.038661346 -0.074377276 0.03099174 -0.041569337 0.14441453
-0.002984397 -0.03672907 -0.07305117 -0.028020468 -0.04971346 -0.014367331 0.06716842 -0.0042559407
-0.10471503 -0.11527999 -0.08085381 -0.03810564 0.033846453 -0.047504447 0.123985484 0.07011869
-0.0895964 0.10957139 -0.0408346 0.056521732 0.06566863 -0.072831176 0.08341778 -0.101726666
0.031013336 0.02041852 0.061222948 -0.08710943 0.030112075 -0.0049804924 0.05030044 0.05555431
0.018354801 0.005047383 -0.010069683 0.08712705 -0.008747706 0.04269069 -0.055093586 0.05054624
-0.064976916 -0.028582027 0.028804014 -0.04269043 -0.05202701 0.06212488 0.082714066 -0.0034532584
-0.02637324 0.084250286 -0.06030302 0.01574262 0.017930878 0.018087178 0.05849353 -0.05737502
0.019817494 0.10897697 -0.064943954 -0.03747663 -0.022710605 -0.09150105 0.116033405 -0.039570503
-0.04229652 -0.013289361 -0.0608404 0.01726538 0.04627455 0.08938724 -0.00164867 0.059691947
0.048549935 -0.07109663 -0.034893744 0.009990425 -0.09649897 0.101217724 0.061101787 -0.060708527
-0.06755656 0.015599197 0.029017115 0.026893647 -0.024886563 0.0053870114 0.08407805 -0.031923555
-0.06999962 -0.06328264 0.04846225 -0.016900497 -0.0692459 -0.080426134 0.105156936 0.021562971
-0.069433294 -0.06544835 0.0013789656 -0.047879804 -0.10665686 0.059784763 -0.09936333 -0.022000523
-0.10414574 0.09099913 -0.08279276 -0.08009042 -0.027617695 -0.07759206 -0.09771447 -0.048719134
-0.02007948 0.09155083 -0.06347639 0.08380587 0.06013853 0.09154516 0.078623526 0.08703881
0.015040173 0.04867984 0.09746428 -0.016005052 -0.008286223 -0.091275424 -0.07723062 0.006048374
-0.057647362 0.029321926 -0.04591491 0.10997937 0.039601248 -0.07088078 0.052947868 0.02543861
00000000: 88f7 35bd f1d7 bf3d 41ca a6bd a0df 8dbd
00000010: 3b76 763d 181b da3d 55db 2c3d 92ad 19bd
00000020: 847e 443d f5b3 673c eee7 c23d 40cb be3c
00000030: 7a3a e63b 9f85 603c 09c9 afbd 444f a8bd
00000040: e341 5f3d d217 9ebd 427a 213d d10a 563b
00000050: 06ec 983d 7fd9 cebd 2ddd 7bbd 78e7 943d
00000060: 522b 6e3d 854b 983d 1bb9 8abd 5be3 e43d
00000070: 0a74 cabc 36d5 b7bd 4673 40bc a309 c4bd
00000080: 366e 4fbc a658 9bbc 4969 83bc a30f 023d
00000090: e8b2 f13c 2b7f d23d 8172 cabd 906e 86bd
000000a0: 6b48 933d 1894 f33d 00fa 11bd 99f2 0e3c
000000b0: 5cf1 4b3d ffc9 a63d 8bb4 acbd ed15 38bd
000000c0: 1b40 0fbd f2c7 1abd eb13 e03c b8b7 653c
000000d0: 2098 213d f152 a4bd 3cd9 07bd 9e71 b9bd
000000e0: c187 a1bc f824 88bd 8a05 053d 2c0a cfba
000000f0: 592d 68bd b3b4 d83d 8e03 9a3d d31a 2cbc
00000100: 4fc9 7abd 6d0f 80bd 4e21 ae3a 6702 6fbd
00000110: 87ec 043d 296b ee3c e430 593d a049 83bc
00000120: 0989 1abd 4403 fe3b e886 ab3d 08fa 99bd
00000130: 3ed5 64bd 3f6d 833c 8358 97bd c16e cfbd
00000140: 6ed1 323d aca3 80bc 8517 5fbd 317c f63d
00000150: 884b 493c fd64 113d f2b4 7f3d b508 a23c
00000160: 3ba6 8abb 3379 f03d 445b 113e 3be3 3ebd
00000170: ebde 99bd 94dd 1cbc f986 c23c e1ba 1b3d
00000180: cac9 5ebd 1b9b aa3c d568 403d 6d8e a83d
00000190: e373 b43d b182 a63c 6b45 90bd 9368 3d3b
000001a0: 96d0 863d 1df8 e83d 564e 29bc 8ccb 773d
000001b0: ac14 353c 1d11 21bd 4dc3 95bd 5abe c73d
000001c0: 0537 23bd 2301 b03c 02ad 97bd 5c5b 1e3d
000001d0: 1d53 98bd 64e2 fd3c 9c44 2abd 67e1 133e
000001e0: e095 43bb 3971 16bd da9b 95bd 2e8b e5bc
000001f0: 57a0 4bbd f464 6bbc 998f 893d 6b75 8bbb
00000200: d574 d6bd ea17 ecbd af96 a5bd a914 1cbd
00000210: 94a2 0a3d 0694 42bd 1aec fd3d 639a 8f3d
00000220: 517e b7bd f766 e03d 2e42 27bd 5583 673d
00000230: 467d 863d 8328 95bd f1d6 aa3d 1256 d0bd
00000240: ae0f fe3c bd44 a73c eac4 7a3d 6e66 b2bd
00000250: 99ad f63c 6633 a3bb d607 4e3d eb8c 633d
00000260: cf5c 963c 8464 a53b 50fb 24bc ab6f b23d
00000270: 8a52 0fbc 6fdc 2e3d d0a9 61bd 9309 4f3d
00000280: 9e12 85bd db24 eabc 65f6 eb3c 29dc 2ebd
00000290: 461a 55bd a876 7e3d fe65 a93d 1050 62bb
000002a0: b10c d8bc 6a8b ac3d 4d00 77bd abf6 803c
000002b0: c7e3 923c 902b 943c e996 6f3d 1202 6bbd
000002c0: 4c58 a23c 512f df3d 5601 85bd 1881 19bd
000002d0: 970b babc e764 bbbd eca2 ed3d ae14 22bd
000002e0: 1e3f 2dbd 9fbb 59bc c933 79bd 2070 8d3c
000002f0: 628a 3d3d a810 b73d 2f18 d8ba 8b7f 743d
00000300: 4cdc 463d 1c9b 91bd beec 0ebd e1ae 233c
00000310: 41a1 c5bd 3d4b cf3d de45 7a3d 81a9 78bd
00000320: 185b 8abd c693 7f3c 4db5 ed3c 1150 dc3c
00000330: e8de cbbc 8785 b03b 1d31 ac3d 46c2 02bd
00000340: f65b 8fbd 549a 81bd 5a80 463d e972 8abc
00000350: cbd0 8dbd 75b6 a4bd 855c d73d d4a4 b03c
00000360: 0b33 8ebd c909 86bd 68be b43a 9d1d 44bd
00000370: e96e dabd dee0 743d 007f cbbd 713a b4bc
00000380: 5d4a d5bd c05d ba3d 408f a9bd 7206 a4bd
00000390: 813e e2bc 96e8 9ebd 861e c8bd b78d 47bd
000003a0: b97d a4bc 007f bb3d e9ff 81bd 69a2 ab3d
000003b0: d253 763d 077c bb3d 5f05 a13d 6741 b23d
000003c0: 0f6b 763c 8364 473d 5a9b c73d 071d 83bc
000003d0: f0c2 07bc 9cee babd 162b 9ebd 7031 c63b
000003e0: a41f 6cbd 8934 f03c 4611 3cbd dd3c e13d
000003f0: eb34 223d f129 91bd dddf 583d a264 d03c

std.constant12 f4 [128, 7]
0.028806329 -0.050734885 0.09660227 0.05986393 -0.07494562 0.06763519 0.09374752 0.048221327
0.027045345 -0.060763713 -0.042692948 0.090272576 -0.026464388 0.16238248 -0.03862115 0.0782095
-0.0092748655 0.04611676 0.08152294 -0.010968535 0.07158684 0.03338566 -0.04397569 -0.085459575
0.027717972 -0.05883407 0.021930847 -0.11642787 -0.018055724 0.005143159 -0.043993194 -0.024750644
-0.050788667 -0.07400724 -0.11596863 -0.112853184 0.056876455 -0.0630494 -0.008483426 -0.0031282548
-0.08789455 -0.18917692 -0.108092874 0.093162075 0.040902045 0.041499786 0.0723079 -0.09678923
-0.17903554 -0.005909174 -0.056577634 -0.06603787 -0.04109556 -0.085210696 -0.018079998 -0.09601634
0.06803337 -0.006068584 0.06531354 -0.10591643 -0.03267384 -0.04265201 0.12499744 -0.046405602
-0.033088114 0.06392772 0.025996666 0.0923377 0.027170094 0.14671335 -0.052833542 0.008834506
0.11432283 0.07704024 -0.09090062 -0.06918515 -0.071486115 0.12347038 -0.062045116 0.093688734
-0.03850063 -0.08665529 0.088858284 0.057411466 -0.054937858 0.025399577 0.027956147 -0.069287986
0.09245666 -0.060734197 0.19845228 0.04931356 0.09464583 0.03392822 0.09836523 0.022869034
0.044645768 0.16462332 0.067526914 0.0027186167 -0.07066763 -0.02571256 -0.055375826 0.06308358
0.113648765 -0.0071634245 0.06600246 -0.062056527 -0.05766836 0.11189325 0.054842085 0.19154973
0.11484941 -0.08059766 0.048836738 0.08311959 -0.042430077 0.07568966 -0.034227572 0.028970817
0.033554517 0.03648853 -0.10181092 0.11705323 0.045140132 0.1900993 0.0051455735 0.041735712
-0.08362563 0.00091635727 -0.010801596 -0.03708501 -0.12321128 0.044883348 -0.066644765 0.046405334
0.12445071 0.035033476 0.053637344 -0.19056736 0.014068976 0.07727307 0.0818265 -0.07276523
-0.11304304 -0.0881993 0.052581925 0.06266952 -0.0973956 -0.09422101 -0.00786222 -0.113927856
0.007859683 -0.07697475 -0.008028664 -0.09169434 0.047249887 -0.10076735 0.09654555 -0.007878453
0.2025023 -0.020590777 0.08295428 -0.016108336 0.0955574 -0.0214327 -0.0567728 -0.13345398
-0.011123111 -0.061198544 0.09021525 0.075665 0.025381962 -0.018956613 -0.1808495 -0.043309912
0.03876457 0.09301996 0.08162593 -0.06732432 0.013779258 -0.13837919 -0.035663582 0.020598667
-0.07905278 0.04677903 0.11271137 0.10296579 0.16935977 0.11026134 -0.034290683 0.015555282
0.009669603 -0.09277608 -0.040223833 0.19582942 0.026483078 -0.08811861 -0.05392951 0.0031962907
-0.07275896 -0.062394716 -0.06783073 0.013899277 -0.10561455 -0.10214 0.056784626 0.005088798
0.06800686 0.11920869 0.019179676 -0.01449801 0.09152218 0.022849074 -0.03165196 0.09800825
-0.024225632 0.034547057 -0.08238152 -0.10641949 -0.03767231 0.09230011 0.03643393 0.10354182
0.039246038 -0.08704957 0.023856202 -0.04055054 -0.009803394 0.020236831 -0.021119552 0.05636175
0.0011176312 0.0739763 0.106951214 0.0897194 0.037780143 -0.0004882044 0.067755885 -0.1193914
-0.011733492 0.038650066 -0.018759634 0.014739246 0.1893518 0.033410758 0.071330115 -0.081241235
-0.02074028 -0.09283246 -0.04020916 -0.10036514 0.08960114 0.012250788 0.08409224 -0.018541317
00000000: 40fb eb3c 62cf 4fbd 69d7 c53d e133 753d
00000010: 177d 99bd 5284 8a3d b3fe bf3d ba83 453d
00000020: 338e dd3c 5fe3 78bd cdde 2ebd d4e0 b83d
00000030: d8cb d8bc 9847 263e 3631 1ebd 4d2c a03d
00000040: 9bf5 17bc ede4 3c3d 80f5 a63d 5fb5 33bc
00000050: 1f9c 923d 67bf 083d da1f 34bd 6e05 afbd
00000060: cd10 e33c fefb 70bd 52a8 b33c bc71 eebd
00000070: 99e9 93bc f287 a83b 3532 34bd ddc1 cabc
00000080: c707 50bd 1c91 97bd f680 edbd 921f e7bd
00000090: 49f7 683d 0b20 81bd 11fe 0abc 6803 4dbb
000000a0: 0f02 b4bd 98b7 41be cc5f ddbd c2cb be3d
000000b0: e788 273d aefb 293d 2a16 943d 6f39 c6bd
000000c0: 1855 37be bfa1 c1bb f3bd 67bd dd3e 87bd
000000d0: d153 28bd f282 aebd 811c 94bc 37a4 c4bd
000000e0: 1455 8b3d f9da c6bb 1bc3 853d b7ea d8bd
000000f0: 01d5 05bd e0b3 2ebd a8fe ff3d cd13 3ebd
00000100: 6787 07bd 89ec 823d f6f6 d43c 8c1b bd3d
00000110: d193 de3c 063c 163e fc67 58bd 9bbe 103c
00000120: 1722 ea3d 46c7 9d3d 1b2a babd f2b0 8dbd
00000130: 5067 92bd 0ade fc3d 0523 7ebd e1df bf3d
00000140: d6b2 1dbd 5478 b1bd 55fb b53d 4928 6b3d
00000150: 8506 61bd c612 d03c 4a04 e53c dce6 8dbd
00000160: eb59 bd3d 6cc4 78bd 1337 4b3e 04fd 493d
00000170: acd5 c13d 51f8 0a3d b673 c93d d757 bb3c
00000180: 7bde 363d 0493 283e 8d4b 8a3d d22a 323b
00000190: 31ba 90bd 26a3 d2bc c3d1 62bd f731 813d
000001a0: afc0 e83d 29bb eabb 4c2c 873d fc2e 7ebd
000001b0: a935 6cbd 4a28 e53d 18a2 603d 9d25 443e
000001c0: 2b36 eb3d 6310 a5bd 0809 483d 9b3a aa3d
000001d0: 29cb 2dbd 2e03 9b3d 3632 0cbd 3554 ed3c
000001e0: 7670 093d ff74 153d 3e82 d0bd 9bb9 ef3d
000001f0: dce4 383d 64a9 423e 339c a83b 11f3 2a3d
00000200: ea43 abbd b237 703a 2df9 30bc 74e6 17bd
00000210: 3256 fcbd 9ad7 373d 0d7d 88bd 8513 3e3d
00000220: 04e0 fe3d 437f 0f3d d5b2 5b3d 1724 43be
00000230: 9081 663c 5841 9e3d a794 a73d f005 95bd
00000240: 1c83 e7bd d6a1 b4bd 2560 573d e158 803d
00000250: 5877 c7bd f2f6 c0bd 8ad0 00bc 0253 e9bd
00000260: e6c5 003c f0a4 9dbd a88a 03bc 3eca bbbd
00000270: 1989 413d 1d5f cebd acb9 c53d a014 01bc
00000280: c35c 4f3e fdad a8bc efe3 a93d a1f5 83bc
00000290: 99b3 c33d a193 afbc 988a 68bd 29a8 08be
000002a0: b53d 36bc 53ab 7abd c6c2 b83d 40f6 9a3d
000002b0: d5ed cf3c e64a 9bbc 9c30 39be bc65 31bd
000002c0: 99c7 1e3d 4081 be3d 7f2b a73d 55e1 89bd
000002d0: 66c2 613c 46b3 0dbe fa13 12bd 89be a83c
000002e0: 6de6 a1bd 5e9b 3f3d 38d5 e63d badf d23d
000002f0: a66c 2d3e b3d0 e13d 6374 0cbd 95db 7e3c
00000300: 416d 1e3c 6301 bebd bfc1 24bd 8287 483e
00000310: 0af3 d83c 8877 b4bd 31e5 5cbd dc78 513b
00000320: a602 95bd 9a91 7fbd d6ea 8abd cbb9 633c
00000330: 714c d8bd c72e d1bd ff96 683d eebf a63b
00000340: 2e47 8b3d b023 f43d b21e 9d3c 1089 6dbc
00000350: fb6f bb3d fb2d bb3c 7ca5 01bd 8db8 c83d
00000360: d574 c6bc 3781 0d3d a4b7 a8bd 76f2 d9bd
00000370: 484e 1abd d707 bd3d bf3b 153d bc0d d43d
00000380: 74c0 203d 0c47 b2bd 156e c33c 5318 26bd
00000390: 6a9e 20bc b6c7 a53c e902 adbc 94db 663d
000003a0: 7b7d 923a e380 973d 3d09 db3d cebe b73d
000003b0: 5abf 1a3d aff5 ffb9 99c3 8a3d 7a83 f4bd
000003c0: d53d 40bc 884f 1e3d cead 99bc e17c 713c
000003d0: 70e5 413e b8d9 083d 8615 923d ce61 a6bd
000003e0: 85e7 a9bc f21e bebd 5cb2 24bd 3d8c cdbd
000003f0: cd80 b73d 87b7 483c 8d38 ac3d f6e3 97bc
