AirQualityApp/AirQualityApp.Android/Assets/ViennaShort.tflite (tflite, 814948 bytes, 24 tensors)

std.constant3 f4 [128, 128]
-0.0113243535 -0.026465314 -0.015975801 -0.053981923 -0.013679666 -0.08279001 -0.0014261253 -0.0292576
0.028807491 0.03017386 0.032556485 -0.030666955 -0.00790584 0.0013690353 -0.07670144 0.066126995
-0.019127514 -0.0021725344 0.07137653 -0.027868357 0.020109173 0.062443446 0.04211225 -0.05088197
0.0049006124 -0.02216446 0.0025081253 0.022395998 -0.07117972 0.008858411 0.07011764 0.03151552
0.018413367 -0.024509992 0.017085752 -0.0060223723 -0.05011043 -0.014430782 0.03947278 0.0477802
0.113154605 0.008927808 0.11476197 0.077332325 0.026126303 0.0011007758 0.03391758 0.038933106
0.011231602 0.0043872986 -0.039087754 -0.041633446 -0.06079299 -0.06954173 0.0463519 0.0051164464
0.023508776 -0.05234889 -0.03325571 0.1063572 -0.044157602 -0.025017213 0.043285634 -0.034876786
-0.061181415 0.022736086 0.0056579006 -0.013039409 -0.027222253 -0.006571011 0.07357233 0.03319125
-0.050573055 -0.019269543 -6.5872446e-06 0.09998631 -0.07639771 -0.05380071 0.020752514 0.09336907
0.039614778 -0.009200601 0.0772266 -0.05608759 -0.0886001 0.058819737 0.088609226 -0.06655859
-0.06813732 0.045787238 -0.030678425 0.04345343 0.057691228 -0.021937393 -0.06302909 -0.002351231
0.004088435 -0.019057395 -0.062073145 -0.015956031 -0.021140115 0.0055300095 -0.05073435 0.01793283
-0.08612149 0.065556996 0.043047715 0.019935384 0.022906862 0.00016036164 0.003691576 0.0059383977
0.023410007 0.007720922 0.07549851 0.0029433481 -0.03769865 -0.014048485 -0.052079666 0.012333138
0.023893518 -0.11244381 -0.024647342 0.04545562 0.03988712 -0.0076231686 0.057738833 0.06118522
0.06329054 0.03128769 0.0059169754 0.05568841 -0.030235304 0.022062454 0.042544216 -0.051256564
0.009447844 0.03444126 -9.560445e-05 0.028246904 -0.026013032 0.010502635 0.077045694 0.053208474
0.010028245 -0.03289511 -0.015652139 -0.028806807 -0.008599931 -0.035839017 0.00802767 0.0399995
0.103817865 -0.060850292 -0.024465589 -0.068092525 -0.021131327 -0.009862641 -0.030165542 0.06407253
-0.05280056 -0.056925803 -0.039966695 -0.017161982 0.09529467 -0.026407614 0.054650865 0.020017808
-0.00640807 0.02264735 0.024072563 0.08902193 0.020996226 -0.0071292184 0.056830026 -0.06110261
0.051722985 0.11810293 0.028015878 0.037174463 -0.06271331 0.038427554 0.084844284 0.03097412
0.011023695 0.020950722 0.051011536 0.032462433 0.0128172375 0.0761865 -0.022415616 -0.039261222
-0.031850796 -0.0005330539 -0.0167142 0.039364077 -0.02969923 -0.004893987 0.033482056 0.024854584
0.02891305 -0.022293571 -0.0038344203 -0.0037037423 -0.042456992 -0.02396353 -0.06735824 -0.014521116
-0.008509061 0.006404724 0.058136094 -0.07853098 0.058425874 0.014283748 0.009141203 -0.05079966
-0.03810489 -0.04762301 -0.014647455 -0.048588876 -0.0020326262 0.06033895 -0.032868665 -0.019979393
0.024985688 0.017057778 -0.03621968 -0.021708716 0.04032246 0.0014707837 -0.044121493 -0.073634915
0.0076498184 -0.05350097 -0.029918449 -0.04906501 -0.009774691 0.0023427214 0.0071282256 0.030881336
0.035738073 0.057534475 -0.028857883 -0.0051344046 -0.0066039097 -0.04431334 -0.03307664 -0.038297627
-0.0060773734 -0.03217924 -0.036279216 0.01878906 -0.040833045 0.053232327 -0.0010749819 -0.076345
00000000: c889 39bc c9cd d8bc afdf 82bc 261c 5dbd
00000010: ae20 60bc cf8d a9bd d3ec baba a2ad efbc
00000020: b0fd eb3c 2c2f f73c f359 053d 4439 fbbc
00000030: 7f87 01bc 3471 b33a a515 9dbd 976d 873d
00000040: 4eb1 9cbc 1461 0ebb dc2d 923d 2e4c e4bc
00000050: febb a43c b3c4 7f3d e57d 2c3d 9d69 50bd
00000060: 5195 a03b 3e92 b5bc 5c5f 243b d077 b73c
00000070: acc6 91bd de22 113c d699 8f3d 6b16 013d
00000080: a1d7 963c 2ec9 c8bc 6bf7 8b3c 5257 c5bb
00000090: 9840 4dbd 166f 6cbc 36ae 213d 2cb5 433d
000000a0: 9abd e73d f145 123c 5308 eb3d 6960 9e3d
000000b0: d406 d63c e847 903a 29ed 0a3d 5278 1f3d
000000c0: c104 383c 54c3 8f3b 7b1a 20bd d587 2abd
000000d0: 1202 79bd e56b 8ebd 7ddb 3d3d dda7 a73b
000000e0: 7a95 c03c ca6b 56bd 2437 08bd ced1 d93d
000000f0: 9ade 34bd e6f0 ccbc 474c 313d f6da 0ebd
00000100: 5d99 7abd 0741 ba3c e965 b93b 3fa3 55bc
00000110: 3401 dfbc a351 d7bb 17ad 963d 8cf3 073d
00000120: b125 4fbd 29db 9dbc 0008 ddb6 9fc5 cc3d
00000130: 6776 9cbd 225e 5cbd 2d01 aa3c 4838 bf3d
00000140: 1b43 223d 1ebe 16bc fb28 9e3d 1abc 65bd
00000150: f873 b5bd f7ec 703d c178 b53d df4f 88bd
00000160: 948b 8bbd 668b 3b3d 5251 fbbc 39fc 313d
00000170: a34d 6c3d 0cb6 b3bc 6515 81bd 1c17 1abb
00000180: 47f8 853b 411e 9cbc 6940 7ebd 39b6 82bc
00000190: 092e adbc 1535 b53b d2ce 4fbd dfe7 923c
000001a0: 7760 b0bd bf42 863d cd52 303d 884f a33c
000001b0: 2ca7 bb3c c026 2839 5eee 713b e496 c23b
000001c0: 58c6 bf3c caff fc3b f69e 9a3d 30e5 403b
000001d0: e669 1abd 9e2b 66bc 7d51 55bd ee10 4a3c
000001e0: 57bc c33c f148 e6bd 39e9 c9bc ac2f 3a3d
000001f0: ad60 233d c6cb f9bb 8e7f 6c3d 5a9d 7a3d
00000200: 789e 813d 8527 003d 30e3 c13b 8819 643d
00000210: 07b0 f7bc 52bc b43c d842 2e3d 67f2 51bd
00000220: 21cb 1a3c 4712 0d3d 407f c8b8 0d66 e73c
00000230: 4819 d5bc 3e13 2c3c 22ca 9d3d 21f1 593d
00000240: 824d 243c 06bd 06bd ea38 80bc 41fc ebbc
00000250: bae6 0cbc efcb 12bd 7d86 033c 84d6 233d
00000260: 769e d43d 283e 79bd 0f6c c8bc 1874 8bbd
00000270: 9b1b adbc ea96 21bc ba1d f7bc 7538 833d
00000280: 6645 58bd 082b 69bd 1eb4 23bd 4997 8cbc
00000290: da29 c33d c854 d8bc 96d9 5f3d 63fc a33c
000002a0: cafa d1bb ef86 b93c d333 c53c 2151 b63d
000002b0: 4700 ac3c 389c e9bb 9ac6 683d bb46 7abd
000002c0: 7bdb 533d f3df f13d 8e81 e53c 4044 183d
000002d0: d66f 80bd 3666 1d3d d7c2 ad3d 70bd fd3c
000002e0: ba9c 343c d9a0 ab3c 79f1 503d 54f7 043d
000002f0: 64ff 513c ab07 9c3d f4a0 b7bc 60d0 20bd
00000300: fb75 02bd a4bc 0bba 38ec 88bc 3a3c 213d
00000310: cd4b f3bc bd5d a0bb 7b24 093d d79b cb3c
00000320: 10db ec3c 02a1 b6bc e64a 7bbb 7cba 72bb
00000330: 62e7 2dbd 2a4f c4bc 1ef3 89bd fae9 6dbc
00000340: 9769 0bbc b8de d13b 1d20 6e3d dad4 a0bd
00000350: f84f 6f3d 6206 6a3c fcc4 153c 4e13 50bd
00000360: e013 1cbd 5810 43bd e1fb 6fbc 2105 47bd
00000370: cf35 05bb fa25 773d 4ba1 06bd d3ab a3bc
00000380: c9ae cc3c c1bc 8b3c 165b 14bd 7ad6 b1bc
00000390: 2a29 253d 50c7 c03a bdb8 34bd e7cd 96bd
000003a0: 54ab fa3b d523 5bbd 8917 f5bc 64f8 48bd
000003b0: 0726 20bc 5888 193b e493 e93b dbfa fc3c
000003c0: 1662 123d 45a9 6b3d 5e67 ecbc 823e a8bb
000003d0: 9c65 d8bb e881 35bd 5f7b 07bd f9dd 1cbd
000003e0: b424 c7bb 61ce 03bd 8499 14bd 84eb 993c
000003f0: 8d40 27bd 240a 5a3d 68e6 8cba c45a 9cbd

std.constant4 f4 [128, 128]
-0.023200348 -0.045167197 0.043269884 -0.044058997 -0.04277065 -0.013147856 -0.032876197 0.027690357
0.019023921 -0.06698998 -0.051307328 0.011942301 0.009426164 0.003347227 -0.0071275895 0.036801342
-0.020682149 0.02163215 0.03409543 0.00843017 -0.023007285 0.026344074 0.009792185 0.1115788
0.064551875 0.025175657 -0.021631513 -0.011752475 -0.07589097 0.037550956 -0.05935331 0.0036710287
-0.0886825 0.021912428 -0.017669903 -0.019588318 -0.07357166 -0.03021641 -0.012053815 0.029510561
0.034899432 -0.023444701 -0.027356287 0.01123973 -0.022918964 0.027825572 -0.0213369 -0.035230987
-0.0055965655 -0.05449442 0.004525231 0.10374454 0.034372155 0.021666512 0.009067839 -0.03273752
0.046638414 0.06231546 0.010750468 -0.042342693 0.0116636185 -0.024777107 -0.017682672 0.09667984
-0.009650194 -0.02207414 0.01758203 0.043607272 0.09882287 -0.04109803 -0.034228288 0.034770377
-0.044873595 -0.040052947 0.004524545 0.01774634 0.031926733 -0.03418585 0.047134142 -0.06535741
-0.0073585724 0.03314323 -0.01011062 0.013849966 -0.09515476 -0.06211756 0.08176804 -0.023374345
-0.097054265 0.025052445 -0.028958648 0.0071853 0.026686147 0.035128914 -0.02164877 -0.016400032
0.045403596 -0.036763754 0.007458145 -0.014489115 -0.011530636 -0.009777907 -0.044406 0.013881777
-0.05132708 0.053102203 0.025610087 0.03845891 -0.015093974 -0.045044117 -0.02600135 -0.057191942
0.038497645 -0.0071984176 -0.049725868 0.0007628063 0.033952717 0.019277783 -0.008872706 -0.056978054
-0.024203995 0.015136649 0.031472947 0.008177407 -0.017571244 0.07119759 0.008495767 0.07356322
0.013965683 -0.047869183 -0.017880479 0.03584605 -0.004949783 -0.003517447 0.011566568 -0.021225622
-0.04820576 -0.014118827 -0.04211209 -0.027990967 -0.04428803 0.09450355 0.04892608 0.011547851
0.021382622 0.0018843791 0.034305666 -0.034882396 0.041714393 -0.027369883 -0.05228464 0.018377198
-0.04345103 0.050067812 -0.02396039 0.026497917 -0.01324962 0.027824651 -0.014992753 0.07816322
0.011385698 -0.0060881446 -0.08920619 0.050541006 -0.038923673 -0.008605678 0.011861468 0.038520984
-0.077199824 -0.026552074 -0.010682374 0.042052906 0.038053237 0.044648267 -0.0151424445 0.06747149
-0.044439167 -0.024627656 -0.0050339163 0.07982767 0.0069746515 -0.039952364 -0.071562484 -0.0055019036
-0.016622454 -0.0995873 -0.028519621 -0.07199241 0.013408633 -0.025433742 -0.0065132575 0.07188117
-0.025005167 -0.058712684 0.0046506547 -0.057311956 0.034488 -0.030449053 -0.0677269 0.016380684
0.02806383 -0.03913629 -0.041098557 0.0038656646 -0.038136855 0.01841027 -0.012026518 0.044131197
-0.038181134 -0.11229548 -0.08691645 -0.031440206 0.022883074 0.06833454 0.011041257 0.0041092355
0.034388192 -0.027270239 0.025239652 -0.004086287 0.061267696 -0.057458714 0.0019515278 0.04601425
-0.06811233 0.030402806 -0.041183334 -0.0324104 -0.023861334 0.025163015 -0.027838368 -0.06920229
-0.041870005 0.062316127 0.045976236 -0.052353147 0.05145067 0.012203921 0.00480555 -0.081511885
0.028611476 -0.023955297 0.023500698 0.00022373442 -0.042180136 0.07575856 0.038257275 -0.007893412
0.042381164 -0.015658015 0.06602084 0.07280515 -0.07800917 0.024808493 -0.032132473 0.013201226
00000000: a80e bebc 3d01 39bd c33b 313d 3577 34bd
00000010: 4730 2fbd 1b6a 57bc 31a9 06bd e3d6 e23c
00000020: 0ed8 9b3c 0b32 89bd a227 52bd a4a9 433c
00000030: 3370 1a3c 265d 5b3b 8e8e e9bb 01bd 163d
00000040: 9c6d a9bc e835 b13c a6a7 0b3d b21e 0a3c
00000050: c679 bcbc 87cf d73c 676f 203c 6d83 e43d
00000060: c633 843d 2e3d ce3c 9234 b1bc 748d 40bc
00000070: ba6c 9bbd 08cf 193d 751c 73bd a495 703b
00000080: 2c9f b5bd b181 b33c 79c0 90bc ae77 a0bc
00000090: bdac 96bd 6888 f7bc 5d7d 45bc 22c0 f13c
000000a0: b5f2 0e3d 1a0f c0bc 4b1a e0bc d826 383c
000000b0: 8dc0 bbbc 74f2 e33c b9ca aebc 5e4e 10bd
000000c0: 6563 b7bb 8a35 5fbd 6448 943b 0478 d43d
000000d0: d1c9 0c3d f87d b13c 4691 143c c717 06bd
000000e0: ec07 3f3d 7f3e 7f3d bb22 303c 886f 2dbd
000000f0: c318 3f3c 5cf9 cabc 40db 90bc 1400 c63d
00000100: d91b 1ebc d4d4 b4bc 3008 903c 8a9d 323d
00000110: a563 ca3d 6856 28bd f632 0cbd 626b 0e3d
00000120: 60cd 37bd 8f0e 24bd a242 943b c660 913c
00000130: 9bc5 023d 7606 0cbd bb0f 413d 1bda 85bd
00000140: 2e20 f1bb 32c1 073d 04a7 25bc f8ea 623c
00000150: 80e0 c2bd fc6e 7ebd 0176 a73d 8e7b bfbc
00000160: 63c4 c6bd c93a cd3c b03a edbc aa72 eb3b
00000170: e89c da3c 56e3 0f3d c358 b1bc 5c59 86bc
00000180: 1ff9 393d 9795 16bd 7463 f43b c163 6dbc
00000190: feea 3cbc 8433 20bc 11e3 35bd 6570 633c
000001a0: 583c 52bd b281 593d 3fcc d13c 1787 1d3d
000001b0: b74c 77bc 2e80 38bd c800 d5bc 1942 6abd
000001c0: b5af 1d3d b4e0 ebbb 5aad 4bbd 10f7 473a
000001d0: 0112 0b3d 71ec 9d3c d45e 11bc d261 69bd
000001e0: 7547 c6bc b5ff 773c c7e9 003d 88fa 053c
000001f0: 92f1 8fbc 0bd0 913d d431 0b3c 50a8 963d
00000200: 52d0 643c 7a12 44bd 157a 92bc 4fd3 123d
00000210: ca31 a2bb f884 66bb b481 3d3c 5be1 adbc
00000220: 6773 45bd a752 67bc ba7d 2cbd 504d e5bc
00000230: 5e67 35bd 148b c13d b766 483d 3333 3d3c
00000240: 9c2a af3c 45fd f63a 1984 0c3d d8e0 0ebd
00000250: b6dc 2a3d ce36 e0bc 6b28 56bd c78b 963c
00000260: b5f9 31bd e813 4d3d 9448 c4bc 2912 d93c
00000270: ef14 59bc 86f0 e33c 2aa4 75bc 0a14 a03d
00000280: 148b 3a3c 0f7f c7bb bcb1 b6bd 1604 4f3d
00000290: 6e6e 1fbd d4fe 0cbc 9a56 423c 2ec8 1d3d
000002a0: f11a 9ebd bc83 d9bc 2005 2fbc ab3f 2c3d
000002b0: b6dd 1b3d 1ae1 363d 0418 78bc 7e2e 8a3d
000002c0: d805 36bd f0bf c9bc 8df3 a4bb b07c a33d
000002d0: 9e8b e43b 17a5 23bd 5a8f 92bd 5049 b4bb
000002e0: d02b 88bc 6df4 cbbd fba1 e9bc c270 93bd
000002f0: e2af 5b3c 6c5a d0bc 2a6d d5bb 6f36 933d
00000300: a3d7 ccbc b67c 70bd 8564 983b f1bf 6abd
00000310: 4a43 0d3d 4b70 f9bc 67b4 8abd c930 863c
00000320: 1ee6 e53c 604d 20bd f656 28bd 1757 7d3b
00000330: 6435 1cbd 22d1 963c df0a 45bc eac2 343d
00000340: d263 1cbd 2cfb e5bd 4001 b2bd 72c7 00bd
00000350: 4975 bb3c fbf2 8b3d 63e6 343c c4a6 863b
00000360: a2da 0c3d d665 dfbc 63c3 ce3c 43e6 85bb
00000370: d6f3 7a3d d459 6bbd 68ca ff3a 7079 3c3d
00000380: 7a7e 8bbd 4e0f f93c dbaf 28bd c5c0 04bd
00000390: d878 c3bc ab22 ce3c 4a0d e4bc eeb9 8dbd
000003a0: e27f 2bbd 323f 7f3d 9451 3c3d 4170 56bd
000003b0: f0bd 523d f4f2 473c e077 9d3b b4ef a6bd
000003c0: 9d62 ea3c e63d c4bc 8984 c03c 409a 6a39
000003d0: 14c5 2cbd 4e27 9b3d a9b3 1c3d 5f53 01bc
000003e0: df97 2d3d 3d45 80bc ef35 873d de1a 953d
000003f0: 46c3 9fbd 2e3b cb3c 579d 03bd f449 583c

std.constant5 f4 [128, 128]
-0.0033081975 0.049072634 -0.046157174 0.11341937 0.03748795 -0.023079183 -0.01035394 -0.08996347
-0.06935104 0.022683445 0.038547017 -0.022486065 0.018538143 0.026565177 0.08204365 -0.060731746
-0.0049106996 0.0023545995 -0.00077298563 0.080008194 0.07307913 -0.036927827 -0.027848708 -0.02556627
0.016095655 0.06421407 0.045602374 0.07318093 0.08489336 0.03104379 0.04688045 -0.03051502
-0.05864997 -0.040631022 0.017264014 -0.08750984 -0.047158718 -0.058598295 -0.019724676 0.019178893
-0.018184908 -0.038483348 -0.0036520278 0.00061726896 -0.009647512 0.036727108 -0.006356774 -0.02353542
0.004746269 -0.03795727 -0.012540313 0.012634572 -0.05034278 -0.023578225 -0.0015904815 -0.053710975
-0.03979905 -0.03440533 -0.04144015 0.047597475 -0.0036057364 -0.01830878 -0.061704665 -0.03994858
0.029330818 0.0026186253 0.00036678137 0.032634057 -0.055232737 -0.036276013 -0.005273314 -0.0077703902
0.032539904 -0.040058225 -0.07923904 -0.03082605 -0.03409371 0.0019149971 0.035520487 -0.080984704
-0.023195956 -0.116996184 0.060378533 -0.028137783 -0.015962519 0.02012457 0.06900254 0.08409037
0.036121134 0.00746342 -0.0422707 0.028219447 -0.006099665 -0.05646069 -0.0899953 0.017010504
0.00021031499 -0.09290939 0.039500173 -0.086438954 0.05279018 0.015493014 0.07255374 -0.064920284
0.09572687 0.018961847 -0.036195062 -0.012725722 0.031207975 -0.011996358 -0.0110028945 0.034847688
0.073658474 0.056071952 0.05285896 0.014327411 -0.02177043 0.001886379 -0.0005245544 -0.0044129863
-0.100642905 -0.059326984 0.011237787 -0.017798075 -0.05365031 0.04453238 0.01681941 0.021966588
-0.07008712 -0.059072975 0.08287596 -0.017634256 -0.0018340537 -0.10015533 0.056050006 -0.011810388
0.061066426 -0.07637679 -0.09134462 0.121431366 0.06970905 0.02465338 -0.040066518 -0.0354237
-0.062020816 -0.01837758 0.028589278 -0.040208243 -0.022126269 0.093583316 -0.012373159 0.020942256
0.008025152 -0.02075064 0.018986566 0.014795678 -0.025836768 0.03349354 0.0556915 -0.1559732
-0.022102417 0.018671846 -0.088535525 0.05493946 0.072993495 -0.04896092 0.008232413 0.04969453
-0.044000547 -0.053754184 0.046111286 -0.064709246 -0.021371312 -0.027713656 0.064630896 -0.014310944
-0.03678089 0.04779921 -0.05669596 0.0012716083 0.035151757 -0.0012644194 0.011263654 0.11424889
0.016573 0.032648295 -0.01940029 0.004490049 0.0042207665 0.0076136477 0.019046439 -0.04511728
0.048518166 -0.008938408 0.017423302 0.0024836678 -0.08583581 -0.0076018325 -0.037154075 -0.031552263
0.007320573 -0.035026643 0.0071901362 -0.0053592944 0.011098557 -0.040732168 -0.0018955152 0.06152724
0.054069173 0.018040434 -0.050921924 0.05571077 -0.046026938 0.044353865 -0.0002489714 0.046493173
0.015818661 -0.014386754 -0.03966577 0.055285715 -0.020949006 0.053947777 -0.007426612 0.037667662
-0.03943287 0.03371344 -0.044805117 -0.03913172 0.03312304 0.026704717 -0.0010690857 0.111348525
0.054562032 0.0475438 0.02162335 -0.05714142 -0.05793184 -0.016859781 -0.029302003 -0.022562845
-0.0027511874 -0.030844241 0.103043206 -0.056487173 -0.061117865 0.037006035 0.016751524 -0.00892348
-0.01140938 0.059539735 -0.02372375 -0.0053548627 0.06405227 0.032688588 0.047327146 -0.049835492
00000000: 58ce 58bb 6300 493d 4e0f 3dbd 6a48 e83d
00000010: f78c 193d 8e10 bdbc 92a3 29bc c53e b8bd
00000020: eb07 8ebd a2d2 b93c 7ae3 1d3d b234 b8bc
00000030: 4edd 973c 379f d93c 8006 a83d dac1 78bd
00000040: efe9 a0bb a04f 1a3b 30a2 4aba 56db a33d
00000050: 83aa 953d a241 17bd f922 e4bc 5b70 d1bc
00000060: 09db 833c ab82 833d 8ec9 3a3d e2df 953d
00000070: 92dc ad3d 8c4f fe3c b705 403d a3fa f9bc
00000080: f33a 70bd b76c 26bd 436d 8d3c 5c38 b3bd
00000090: 8029 41bd c404 70bd a595 a1bc 0e1d 9d3c
000000a0: 84f8 94bc b7a0 1dbd dc56 6fbb 38d0 213a
000000b0: 9910 1ebc 2a6f 163d 7c4c d0bb 5acd c0bc
000000c0: 9786 9b3b 1579 1bbd e375 4dbc 3c01 4f3c
000000d0: 3b34 4ebd 1f27 c1bc b477 d0ba 0a00 5cbd
000000e0: 5404 23bd 9aec 0cbd 26bd 29bd 92f5 423d
000000f0: 384e 6cbb 4bfc 95bc 08be 7cbd 1fa1 23bd
00000100: 2f47 f03c 3e9d 2b3b 904c c039 4aab 053d
00000110: b93b 62bd 2896 14bd c4cb acbb c29e febb
00000120: 9048 053d 1814 24bd 1448 a2bd ea86 fcbc
00000130: d9a5 0bbd a400 fb3a ee7d 113d 4fdb a5bd
00000140: 7205 bebc b29b efbd 7b4f 773d 3581 e6bc
00000150: d4c3 82bc 48dc a43c 3451 8d3d 9237 ac3d
00000160: c1f3 133d b48f f43b 0b24 2dbd 782c e73c
00000170: b3df c7bb 5343 67bd 754f b8bd 9d59 8b3c
00000180: 0088 5c39 4747 bebd efca 213d e806 b1bd
00000190: 843a 583d 69d6 7d3c 0e97 943d edf4 84bd
000001a0: 730c c43d e055 9b3c 4641 14bd 8c7f 50bc
000001b0: dea7 ff3c 5f8c 44bc 7c45 34bc 73bc 0e3d
000001c0: 41da 963d b4ab 653d a382 583d 84bd 6a3c
000001d0: e757 b2bc 6040 f73a 4082 09ba d09a 90bb
000001e0: de1d cebd da00 73bd b21e 383c 45cd 91bc
000001f0: 6dc0 5bbd 9667 363d dcc8 893c 46f3 b33c
00000200: d689 8fbd 81f6 71bd dfba a93d b775 90bc
00000210: a164 f0ba 3d1e cdbd b194 653d 5c80 41bc
00000220: ca20 7a3d 6f6b 9cbd e312 bbbd 02b1 f83d
00000230: 9ec3 8e3d e3f5 c93c ca1c 24bd 7118 11bd
00000240: 8a09 7ebd 948c 96bc 1034 ea3c 66b1 24bd
00000250: 2642 b5bc 9ca8 bf3d cab8 4abc 188f ab3c
00000260: ed7b 033c 3ffd a9bc b789 9b3c 9269 723c
00000270: a1a7 d3bc 8630 093d c51c 643d 70b7 1fbe
00000280: 2110 b5bc b3f5 983c 1d52 b5bd 3308 613d
00000290: 9d7d 953d 3f8b 48bd 3ee1 063c 7e8c 4b3d
000002a0: eb39 34bd 592d 5cbd 30df 3c3d 4886 84bd
000002b0: e412 afbc c007 e3bc 345d 843d 7378 6abc
000002c0: 8fa7 16bd 1bc9 433d 063a 68bd 18ac a63a
000002d0: 4afb 0f3d e0ba a5ba 308b 383c 52fb e93d
000002e0: 1ac4 873c 38ba 053d 5bed 9ebc 4321 933b
000002f0: 5b4e 8a3b e87b f93b 4707 9c3c e6cc 38bd
00000300: fcba 463d 6772 12bc 50bb 8e3c 08c5 223b
00000310: afca afbd cb18 f9bb df2e 18bd f23c 01bd
00000320: 6be1 ef3b 1978 0fbd 3c9b eb3b 059d afbb
00000330: b9d6 353c c6d6 26bd f072 f8ba fd03 7c3d
00000340: a377 5d3d 88c9 933c 8293 50bd fa30 643d
00000350: be86 3cbd 66ac 353d 6088 82b9 a06f 3e3d
00000360: 2396 813c 6bb6 6bbc 9378 22bd 4673 623d
00000370: 409d abbc 58f8 5c3d f05a f3bb 6849 1a3d
00000380: 5c84 21bd 1b17 0a3d 9285 37bd 9548 20bd
00000390: 06ac 073d dac3 da3c 9020 8cba b20a e43d
000003a0: 707c 5f3d 4abd 423d 7423 b13c 1f0d 6abd
000003b0: f049 6dbd 861d 8abc c10a f0bc b7d5 b8bc
000003c0: 444d 34bb 10ad fcbc 5108 d33d 185f 67bd
000003d0: ba56 7abd a493 173d 7e3a 893c ca33 12bc
000003e0: 68ee 3abc f0df 733d 4f58 c2bc d877 afbb
000003f0: d62d 833d 78e4 053d 1cda 413d 4d20 4cbd

std.constant6 f4 [128, 128]
0.033578396 0.044068143 0.050903626 0.04267459 -0.012443021 -0.006527938 -0.035939444 -0.040545896
-0.019029915 0.021336522 0.0028311536 0.07137501 0.048245106 -0.05740208 -0.07198106 0.040872216
-0.035567425 0.048399948 -0.004880164 0.025733879 0.046817422 -0.0192891 0.03543061 -0.08807882
-0.013610203 0.028707158 -0.03264367 -0.11553416 -0.019349553 0.018351654 -0.0006269999 0.030077767
-0.011542869 -0.002923686 0.035108715 -0.029431956 -0.050015584 -0.07251153 -0.033002634 -0.038031124
0.013249002 0.04574781 0.007875119 -0.0036143903 -0.013667898 -0.038074065 0.002480382 -0.020553764
-0.012084708 0.0024342705 -0.0006813463 -0.031544145 -0.056857403 -0.08761633 -0.014315061 0.012903811
-0.1072725 -0.014720123 0.020963497 0.018334072 -0.019755326 -0.03270653 -0.044221528 0.0486176
0.030356195 -0.095988624 -0.017220467 0.0036446964 0.050442327 -0.043264467 -0.06341413 0.0040511442
0.051339753 -0.08400352 -0.0024789572 -0.0270999 0.01813115 0.00051197363 0.09622721 -0.027045693
-0.031069633 0.007897699 0.036933243 0.008001689 0.028765054 0.05033066 -0.07320837 -0.033388175
0.07515192 0.0050863386 -0.064044565 -0.0862423 0.009148801 -0.03568918 -0.009601943 0.0692174
0.08134381 -0.019797817 -0.006846869 0.020888083 -0.035578612 -0.08991829 0.041876517 0.05257757
-0.050588228 0.04954924 -0.057636913 -0.016417002 -0.06310843 -0.009818509 0.02998276 -0.043444328
-0.009647431 0.030955838 -0.044228513 0.042815946 0.017869864 0.041802745 0.06904011 -0.016415095
0.0053272406 0.0114276465 0.032942347 0.049626034 -0.023585178 0.030472538 0.047222786 -0.0313242
0.04063297 -0.0010454655 0.030089516 -0.06921429 0.015356386 0.08603149 -0.0039001969 -0.08201744
-0.07618585 0.02284493 -0.017476242 0.049768977 -0.0077340137 -0.035824273 -0.023865782 0.055759694
-0.0029078205 -0.0012416072 -0.0029791752 0.06595067 0.013492263 -0.05577154 -0.08683999 -0.0757911
0.0016183231 0.042247154 -0.01891757 0.026629992 -0.030851433 -0.0131729925 -0.0046463786 -0.062275343
0.051533915 0.05112221 -0.046942867 0.0026821792 0.017135836 0.013795884 -0.018427934 -0.01714016
0.016176948 0.04628429 -0.0051305685 -0.012285743 -0.0335648 0.05573962 -0.058713473 0.04651263
0.0072923065 0.06860053 0.029365463 -0.03217418 -0.071386814 0.011449642 0.015733315 -0.031291664
-0.013485014 -0.05252084 0.03500173 -0.027751323 -0.118224554 0.0729507 0.047841087 -0.032268375
-0.036354333 9.134761e-05 -0.026552305 0.02906432 -0.042560276 0.010735113 0.025391411 0.02555969
0.0025549543 0.014264978 -0.028304929 -0.06266174 -0.053824708 -0.043253407 -0.0029172783 0.046198655
0.013489964 -0.003951273 -0.0020943666 -0.045235924 -0.12452254 -0.01484886 0.12438617 0.013640354
-0.013049593 -0.01216916 -0.023740988 -0.024050085 0.040667452 -0.0572086 -0.024833636 0.047426805
0.031238649 0.0036647061 0.0032348083 -0.017837668 -0.08549902 0.0150893545 -0.078742005 0.05740609
0.04622021 -0.039024554 0.034283876 -0.0033801943 -0.041137055 -0.052475188 0.023672404 -0.030365085
0.050896466 0.013547008 -0.09438838 -0.005684249 0.018200302 -0.035298817 0.038531154 -0.02456169
0.014669564 -0.033279665 0.011650693 -0.029607585 0.045747716 0.04758215 -0.0027942094 0.07147519
00000000: 8089 093d cc80 343d 5280 503d 8dcb 2e3d
00000010: d0dd 4bbc 50e8 d5bb 3d35 13bd 7413 26bd
00000020: a0e4 9bbc eec9 ae3c e08a 393b 102d 923d
00000030: a99c 453d 721e 6bbd ce6a 93bd a069 273d
00000040: 26af 11bd 063f 463d c8e9 9fbb dbcf d23c
00000050: a0c3 3f3d 2d04 9ebc b01f 113d ab62 b4bd
00000060: 54fd 5ebc 462b eb3c 5eb5 05bd 2c9d ecbd
00000070: f482 9ebc 3556 963c 405d 24ba a665 f63c
00000080: 4d1e 3dbc 509b 3fbb 28ce 0f3d 491b f1bc
00000090: 24dd 4cbd ed80 94bd c52d 07bd 86c6 1bbd
000000a0: 5812 593c 0e62 3b3d a506 013c 68df 6cbb
000000b0: 52ef 5fbc 8df3 1bbd e88d 223b 5e60 a8bc
000000c0: f0fe 45bc 4888 1f3b 609c 32ba 6f34 01bd
000000d0: 4fe3 68bd 3170 b3bd b889 6abc 826a 533c
000000e0: afb1 dbbd ac2c 71bc a4bb ab3c 5631 963c
000000f0: ecd5 a1bc 48f7 05bd a221 35bd 4023 473d
00000100: 8ead f83c af95 c4bd f011 8dbc dcdb 6e3b
00000110: 9d9c 4e3d 1536 31bd 44df 81bd 76bf 843b
00000120: a249 523d 0a0a acbd 0076 22bb 9c00 debc
00000130: c787 943c f835 063a c512 c53d ee8e ddbc
00000140: be85 febc 5a65 013c 5047 173d 8419 033c
00000150: b1a4 eb3c 8627 4e3d 45ee 95bd 0ac2 08bd
00000160: 40e9 993d 4dab a63b cc29 83bd ce9f b0bd
00000170: dae4 153c d12e 12bd 7851 1dbc dac1 8d3d
00000180: 9597 a63d 082f a2bc b35b e0bb 7c1d ab3c
00000190: e1ba 11bd 1527 b8bd b686 2b3d 945b 573d
000001a0: 9a35 4fbd 25f4 4a3d af14 6cbd f37c 86bc
000001b0: fe3e 81bd d0dd 20bc 689e f53c aef2 31bd
000001c0: 4210 1ebc 1997 fd3c f528 35bd c65f 2f3d
000001d0: d263 923c 5b39 2b3d e764 8d3d f378 86bc
000001e0: 2290 ae3b 063b 3b3c 8eee 063d ab44 4b3d
000001f0: b435 c1bc 8ba1 f93c ae6c 413d ce4d 00bd
00000200: c26e 263d 0008 89ba 4a7e f63c 39c0 8dbd
00000210: 5a99 7b3c 4731 b03d 729a 7fbb c2f8 a7bd
00000220: 5407 9cbd 4a25 bb3c 562a 8fbc 8eda 4b3d
00000230: 9c6d fdbb 79bc 12bd 2c82 c3bc 4764 643d
00000240: 2291 3ebb 6dbd a2ba 443e 43bb 2511 873d
00000250: a70e 5d3c b370 64bd 2ad9 b1bd 5d38 9bbd
00000260: ea1d d43a 5a0b 2d3d 05f9 9abc 2427 da3c
00000270: 25bc fcbc 89d3 57bc a640 98bb 6e14 7fbd
00000280: 3a15 533d 8665 513d 2a47 40bd 80c7 2f3b
00000290: 7460 8c3c 2208 623c 2ef6 96bc 8569 8cbc
000002a0: 8585 843c 9894 3d3d 541e a8bb 244a 49bc
000002b0: 3e7b 09bd 3a4f 643d 8a7d 70bd 0784 3e3d
000002c0: 4df4 ee3b 6f7e 8c3d d78f f03c 13c9 03bd
000002d0: 4033 92bd 4797 3b3c 27e3 803c b02b 00bd
000002e0: 40f0 5cbc 1820 57bd f95d 0f3d be56 e3bc
000002f0: b71f f2bd 2d67 953d 04f5 433d d82b 04bd
00000300: 48e8 14bd e091 bf38 3884 d9bc 4c18 ee3c
00000310: af53 2ebd 54e2 2f3c a601 d03c 8e62 d13c
00000320: 0571 273b a7b7 693c bddf e7bc cc54 80bd
00000330: 4c77 5cbd 7c2a 31bd cf2f 3fbb cd3a 3d3d
00000340: 0305 5d3c ae79 81bb a441 09bb 4e49 39bd
00000350: ac05 ffbd a248 73bc 2dbe fe3d cb7b 5f3c
00000360: f6cd 55bc 2861 47bc 767c c2bc af04 c5bc
00000370: ea92 263d 9153 6abd e96f cbbc 9c42 423d
00000380: 32e8 ff3c 912b 703b 14ff 533b 4d20 92bc
00000390: 1c1a afbd 5739 773c 7d43 a1bd a622 6b3d
000003a0: 6751 3d3d 36d8 1fbd 406d 0c3d 4086 5dbb
000003b0: 547f 28bd 39f0 56bd a1ec c13c 33c0 f8bc
000003c0: d078 503d 45f4 5d3c b24e c1bd f042 babb
000003d0: cd18 953c 7e95 10bd d8d2 1d3d 9935 c9bc
000003e0: 9c58 703c 4250 08bd 8ce2 3e3c 9b8b f2bc
000003f0: f561 3b3d 80e5 423d 0e1f 37bb 9661 923d

std.constant7 f4 [128]
0.05165048 0.010263187 0.009314075 0.00517144 0.102060795 -0.011612105 -0.0067694806 0.0042067626
-0.005387592 0.14558911 -0.009596333 0.01165531 -0.008864318 -0.0073638475 0.008840764 0.059661403
-0.010594309 0.014215751 0.008173326 0.08595711 0.01762725 -0.0052832183 -0.011160123 0.016330292
0.12097471 0.009857268 0.0068757557 0.012315162 -0.0017800629 0.019904016 0.0048638 0.010840082
0.037391767 -0.005618342 0.03804007 0.006247669 0.0041568815 0.028648438 0.042475425 0.08454815
-0.008739848 0.033725083 0.00093506416 -0.0044896207 0.04245092 0.0028361378 0.096382394 -0.014267946
0.014486514 0.029266877 0.02192529 -0.010427422 0.012018429 0.00043356203 -0.0045123645 -0.008857481
0.025202075 0.025030361 0.0042677177 0.058855217 0.009287081 -0.0101297535 0.03201593 0.066386245
-0.009419186 -0.009080748 0.0025881045 0.110656895 0.007175526 0.018126436 0.12315163 -0.007537081
0.00085412327 0.015148138 -0.006768047 -0.005509216 0.009229916 0.0039004094 0.0056276633 -0.012208662
0.0031468 -0.0019359512 0.06430405 -0.0063412306 0.08876013 0.010889773 -0.0005713305 -0.006880192
0.00454056 -0.009456536 -0.0058610807 0.004676127 0.06657585 0.07701212 0.12710626 0.018837368
0.0071262284 -0.00040025002 -0.013241943 -0.0074502844 -0.010613062 -0.0054062307 0.08640824 0.003890018
0.016397983 -0.009517568 0.00580851 -0.0068450933 -0.0045245034 -0.010981441 0.0009625802 0.005950079
0.0322171 0.011472231 -0.007557043 0.11537112 0.018485557 0.13886775 0.078593 0.014647042
-0.0014513787 0.018431101 -0.0041021886 -0.0057196678 0.0006812767 -0.0061818436 0.012467998 -0.010677111
00000000: 748f 533d ed26 283c 109a 183c 2f75 a93b
00000010: 4005 d13d b340 3ebc 85d2 ddbb e2d8 893b
00000020: 668a b0bb 5015 153e f039 1dbc eaf5 3e3c
00000030: a53b 11bc 6e4c f1bb dad8 103c 845f 743d
00000040: c193 2dbc 2ee9 683c 6ae9 053c 480a b03d
00000050: 0667 903c d91e adbb f3d8 36bc 1bc7 853c
00000060: 97c1 f73d 6180 213c 054e e13b 89c5 493c
00000070: 0051 e9ba bf0d a33c 8360 9f3b 999a 313c
00000080: 1c28 193d 121a b8bb e8cf 1b3d 3fb9 cc3b
00000090: 7336 883b 21b0 ea3c b6fa 2d3d 9527 ad3d
000000a0: 9431 0fbc 5023 0a3d 181f 753a ab1d 93bb
000000b0: 04e1 2d3d 7fde 393b 2264 c53d 1ac4 69bc
000000c0: d858 6d3c 17c1 ef3c aa9c b33c c7d7 2abc
000000d0: f2e8 443c b64f e339 75dc 93bb f81e 11bc
000000e0: 9574 ce3c 790c cd3c 36d8 8b3b 2b12 713d
000000f0: d728 183c 44f7 25bc 2323 033d 83f5 873d
00000100: ee52 1abc 6bc7 14bc 309d 293b 15a0 e23d
00000110: ad20 eb3b e47d 943c ec36 fc3d 9ef9 f6bb
00000120: 3ee7 5f3a e52f 783c 7ec6 ddbb a786 b4bb
00000130: 1339 173c 039e 7f3b 4368 b83b d706 48bc
00000140: 8b3a 4e3b bebf fdba d7b1 833d 19ca cfbb
00000150: dfc7 b53d 056b 323c 57c5 15ba 3c73 e1bb
00000160: fac8 943b 96ef 1abc 4f0e c0bb 323a 993b
00000170: eb58 883d 88b8 9d3d 2528 023e d350 9a3c
00000180: 2383 e93b a6d8 d1b9 bcf4 58bc 8421 f4bb
00000190: 69e2 2dbc c026 b1bb cef6 b03d acef 7e3b
000001a0: 1055 863c 93ef 1bbc 5055 be3b ce4c e0bb
000001b0: 4942 94bb 80eb 33bc aa55 7c3a e1f8 c23b
000001c0: 14f6 033d 06f6 3b3c 12a1 f7bb b247 ec3d
000001d0: 066f 973c 5933 0e3e 5ef5 a03d 26fa 6f3c
000001e0: 303c beba d2fc 963c a76b 86bb 0d6c bbbb
000001f0: b597 323a 1091 cabb 9346 4c3c 0def 2ebc

std.constant8 f4 [128]
0.014317375 0.011661932 -0.0024353385 0.002242719 0.011235232 0.014054219 0.008284163 0.00047820396
0.011831939 -0.013796682 -0.007391336 0.016541878 0.013446089 0.0040205913 9.149581e-05 -0.0013273085
0.018924354 -0.0006063101 0.0035421397 -0.014740415 0.0014914232 -0.0017714871 0.01388615 -0.0006142849
-0.00265887 -0.00013761534 0.005301801 0.0023441308 0.000816411 0.0031893747 -0.0019570563 -0.0020088989
0.001976843 -0.0016568745 0.011654727 0.0006483045 0.012953175 -0.0020094027 -0.0074078506 -0.0065036085
-0.0026330592 0.01399155 0.004897278 0.0026446446 -0.012863688 -0.015427122 0.010947792 -0.013659746
0.004556922 -0.008402249 0.00092460413 -0.010946249 -0.009115714 -0.0027360881 0.009302297 0.0014963258
-0.0042852713 -0.008572358 0.0084029175 0.010205236 0.004232381 -0.011582329 0.014766595 -0.009856532
0.01627675 -0.011964951 0.0008667853 0.01352777 0.0037364291 -0.003548429 -0.01456776 0.002882183
0.01848287 -0.0006662116 0.0032435874 -0.009657767 0.011377626 -0.018456895 0.0047238264 -0.016667347
-0.0023743804 -0.0012637189 -0.0050053364 -0.0009249035 0.0032427667 0.0017048798 -0.00785255 -0.0015425878
-0.0028354386 -0.0080083385 -0.0015016869 0.00035825477 -0.0013994628 -0.00039070903 0.0025387367 -0.014891243
-0.0038697321 -0.0012613459 0.013435707 0.0040558507 -0.017512852 -0.002943546 0.016320478 -0.0008341867
-0.0004072985 -0.00926292 -0.0020797974 0.0020667263 -7.081484e-05 0.003326069 -0.008150087 0.0042731795
0.016587362 0.0058992757 -0.008707425 0.012198178 0.0012416989 -0.00030157686 0.006867382 0.003918235
-0.0021616044 0.0017511889 -0.0147017315 0.0015560023 0.0018580337 0.0011305378 -0.0021484229 0.013877744
00000000: 6c93 6a3c b011 3f3c 339a 1fbb 95fa 123b
00000010: fb13 383c ab43 663c 4cba 073c 73b7 fa39
00000020: c0da 413c 7a0b 62bc 0533 f2bb d582 873c
00000030: fc4c 5c3c 2abf 833b 70e1 bf38 15f9 adba
00000040: 3f07 9b3c c8f0 1eba 3e23 683b c881 71bc
00000050: dc7b c33a 3e31 e8ba bc82 633c f607 21ba
00000060: 7040 2ebb d64c 10b9 bbba ad3b fd9f 193b
00000070: 6a04 563a d404 513b f541 00bb bba7 03bb
00000080: ec8d 013b 7c2b d9ba 78f3 3e3c fbf2 293a
00000090: 8e39 543c 2fb0 03bb 8ebd f2bb 391c d5bb
000000a0: 678f 2cbb d03c 653c 5879 a03b c651 2d3b
000000b0: 38c2 52bc 0ac2 7cbc 5e5e 333c 21cd 5fbc
000000c0: 3b52 953b 96a9 09bc 2261 723a e557 33bc
000000d0: 135a 15bc f14f 33bb a968 183c 5d20 c43a
000000e0: 766b 8cbb 1373 0cbc 64ac 093c dd33 273c
000000f0: c9af 8a3b cfc3 3dbc 97ef 713c 4b7d 21bc
00000100: d256 853c a408 44bc fa38 633a 94a3 5d3c
00000110: e1de 743b c38c 68bb 9dad 6ebc 02e3 3c3b
00000120: 6369 973c b4a4 2eba 5e92 543b 9c3b 1ebc
00000130: 3969 3a3c ea32 97bc 54ca 9a3b f689 88bc
00000140: 7e9b 1bbb 5fa3 a5ba ce03 a4bb 3975 72ba
00000150: 9984 543b 4676 df3a fba7 00bc a830 caba
00000160: c4d2 39bb 6835 03bc 40d4 c4ba 24d4 bb39
00000170: 2e6e b7ba 14d8 ccb9 ef60 263b 66fa 73bc
00000180: 559b 7dbb bf53 a5ba 7121 5c3c f1e6 843b
00000190: 1d77 8fbc 82e8 40bb 86b2 853c 52ad 5aba
000001a0: ae8a d5b9 81c3 17bc 364d 08bb ea71 073b
000001b0: 6d82 94b8 2efa 593b f187 05bc 0706 8c3b
000001c0: 38e2 873c b64e c13b 96a9 0ebc deda 473c
000001d0: 80c0 a23a f61c 9eb9 c707 e13b 8a64 803b
000001e0: b4a9 0dbb 2688 e53a 88df 70bc c6f2 cb3a
000001f0: 4489 f33a 8e2e 943a 8ecc 0cbb 7a5f 633c

std.constant9 f4 [128]
1.0 1.0 1.0 1.0 1.0 1.0 1.0 1.0
1.0 1.0 1.0 1.0 1.0 1.0 1.0 1.0
1.0 1.0 1.0 1.0 1.0 1.0 1.0 1.0
1.0 1.0 1.0 1.0 1.0 1.0 1.0 1.0
1.0 1.0 1.0 1.0 1.0 1.0 1.0 1.0
1.0 1.0 1.0 1.0 1.0 1.0 1.0 1.0
1.0 1.0 1.0 1.0 1.0 1.0 1.0 1.0
1.0 1.0 1.0 1.0 1.0 1.0 1.0 1.0
1.0 1.0 1.0 1.0 1.0 1.0 1.0 1.0
1.0 1.0 1.0 1.0 1.0 1.0 1.0 1.0
1.0 1.0 1.0 1.0 1.0 1.0 1.0 1.0
1.0 1.0 1.0 1.0 1.0 1.0 1.0 1.0
1.0 1.0 1.0 1.0 1.0 1.0 1.0 1.0
1.0 1.0 1.0 1.0 1.0 1.0 1.0 1.0
1.0 1.0 1.0 1.0 1.0 1.0 1.0 1.0
1.0 1.0 1.0 1.0 1.0 1.0 1.0 1.0
00000000: 0000 803f 0000 803f 0000 803f 0000 803f
00000010: 0000 803f 0000 803f 0000 803f 0000 803f
00000020: 0000 803f 0000 803f 0000 803f 0000 803f
00000030: 0000 803f 0000 803f 0000 803f 0000 803f
00000040: 0000 803f 0000 803f 0000 803f 0000 803f
00000050: 0000 803f 0000 803f 0000 803f 0000 803f
00000060: 0000 803f 0000 803f 0000 803f 0000 803f
00000070: 0000 803f 0000 803f 0000 803f 0000 803f
00000080: 0000 803f 0000 803f 0000 803f 0000 803f
00000090: 0000 803f 0000 803f 0000 803f 0000 803f
000000a0: 0000 803f 0000 803f 0000 803f 0000 803f
000000b0: 0000 803f 0000 803f 0000 803f 0000 803f
000000c0: 0000 803f 0000 803f 0000 803f 0000 803f
000000d0: 0000 803f 0000 803f 0000 803f 0000 803f
000000e0: 0000 803f 0000 803f 0000 803f 0000 803f
000000f0: 0000 803f 0000 803f 0000 803f 0000 803f
00000100: 0000 803f 0000 803f 0000 803f 0000 803f
00000110: 0000 803f 0000 803f 0000 803f 0000 803f
00000120: 0000 803f 0000 803f 0000 803f 0000 803f
00000130: 0000 803f 0000 803f 0000 803f 0000 803f
00000140: 0000 803f 0000 803f 0000 803f 0000 803f
00000150: 0000 803f 0000 803f 0000 803f 0000 803f
00000160: 0000 803f 0000 803f 0000 803f 0000 803f
00000170: 0000 803f 0000 803f 0000 803f 0000 803f
00000180: 0000 803f 0000 803f 0000 803f 0000 803f
00000190: 0000 803f 0000 803f 0000 803f 0000 803f
000001a0: 0000 803f 0000 803f 0000 803f 0000 803f
000001b0: 0000 803f 0000 803f 0000 803f 0000 803f
000001c0: 0000 803f 0000 803f 0000 803f 0000 803f
000001d0: 0000 803f 0000 803f 0000 803f 0000 803f
000001e0: 0000 803f 0000 803f 0000 803f 0000 803f
000001f0: 0000 803f 0000 803f 0000 803f 0000 803f

std.constant10 f4 [128]
0.052481145 0.011060633 0.0095847 0.0054847617 0.10057547 -0.011099696 -0.0067968694 0.00453312
-0.005717133 0.14484465 -0.008978709 0.011049979 -0.008691705 -0.007347351 0.008419733 0.06232565
-0.0110198865 0.014261413 0.0073254523 0.08580006 0.017572658 -0.0054253177 -0.010992435 0.015862254
0.12126611 0.010217384 0.009638666 0.011799319 -0.0018283491 0.020054678 0.0054205493 0.011115601
0.037381556 -0.005693976 0.03761462 0.0063160285 0.0064094253 0.027868127 0.041807763 0.084421344
-0.008949256 0.031840418 0.0011342802 -0.004185892 0.04169544 0.0030893362 0.09635461 -0.014056783
0.015486961 0.02945248 0.020465622 -0.010479112 0.013269166 0.0007126118 -0.005457264 -0.0090385005
0.024049085 0.026247442 0.003925832 0.058456693 0.00933408 -0.0101024285 0.03187145 0.06537805
-0.009431762 -0.008927406 0.0019148535 0.110446796 0.007987289 0.018276734 0.12269487 -0.008003945
0.00069076975 0.017251253 -0.0071827015 -0.0053136996 0.008837603 0.0038561977 0.0064702756 -0.012121222
0.0037132301 -0.0022952866 0.06440126 -0.006355248 0.088445395 0.0110647 -0.00062907685 -0.0064666355
0.0038088467 -0.009389032 -0.005714651 0.005111263 0.06229178 0.07730383 0.1275291 0.018475262
0.007290371 -0.00040278235 -0.013124995 -0.007858033 -0.010346166 -0.0051490036 0.08532001 0.0040169586
0.01583001 -0.009386223 0.0058103465 -0.006778404 -0.0048982636 -0.010707199 0.0013892539 0.0056702555
0.03212905 0.01017994 -0.007625337 0.11596883 0.018262573 0.1373305 0.078390546 0.013704077
-0.0015266421 0.01883368 -0.0037522686 -0.005354748 0.0011207904 -0.0062784962 0.012277873 -0.010884149
00000000: 78f6 563d a837 353c 2509 1d3c 84b9 b33b
00000010: 83fa cd3d 80db 35bc 46b8 debb 918a 943b
00000020: ca56 bbbb 2852 143e 6f1b 13bc f90a 353c
00000030: a767 0ebc 0cc2 f0bb ebf2 093c 2e49 7f3d
00000040: c18c 34bc b4a8 693c 590a f03b f1b7 af3d
00000050: 89f4 8f3c ddc6 b1bb 9d19 34bc 8ff1 813c
00000060: 5e5a f83d d166 273c 7feb 1d3c ee51 413c
00000070: 37a5 efba b549 a43c dd9e b13b 361e 363c
00000080: 671d 193d 8894 babb ca11 1a3d b0f6 ce3b
00000090: 2806 d23b b34b e43c 9e3e 2b3d 19e5 ac3d
000000a0: e69f 12bc 196b 023d 21ac 943a cf29 89bb
000000b0: d6c8 2a3d 7676 4a3b 9155 c53d 6c4e 66bc
000000c0: 06bd 7d3c 5446 f13c 85a7 a73c 95b0 2bbc
000000d0: eb66 593c 92ce 3a3a d9d2 b2bb 3816 14bc
000000e0: 9602 c53c e004 d73c 44a4 803b 4970 6f3d
000000f0: f8ed 183c a884 25bc a38b 023d ede4 853d
00000100: ad87 1abc 4144 12bc d2fb fa3a ee31 e23d
00000110: 1edd 023c 17b9 953c 7347 fb3d fb22 03bc
00000120: c614 353a 8052 8d3c de5c ebbb 8b1e aebb
00000130: 98cb 103c 43b8 7c3b 9b04 d43b 1798 46bc
00000140: aa59 733b 856c 16bb cfe4 833d af3f d0bb
00000150: dc22 b53d b748 353c a2e8 24ba 12e6 d3bb
00000160: d89d 793b 74d4 19bc f841 bbbb 627c a73b
00000170: aa25 7f3d 7851 9e3d fd96 023e 6f59 973c
00000180: 11e4 ee3b 882c d3b9 380a 57bc fbbe 00bc
00000190: f782 29bc f9b8 a8bb 42bc ae3d b1a0 833b
000001a0: f0ad 813c acc8 19bc b864 be3b 601d debb
000001b0: 9d81 a0bb 3f6d 2fbc a017 b63a 8dcd b93b
000001c0: c099 033d c3c9 263c f7dd f9bb 1181 ed3d
000001d0: 649b 953c 5ea0 0c3e 398b a03d 1187 603c
000001e0: 9c19 c8ba 1749 9a3c 9fe8 75bb e276 afbb
000001f0: 7ce7 923a d8bb cdbb 2229 493c 6e53 32bc

std.constant11 f4 [128, 9]
-0.07844918 0.061883535 0.020829488 0.06778834 0.086397566 0.15516493 0.03820788 -0.064085
-0.024512718 0.11182939 -0.058202393 0.022610663 -0.06713223 -0.012216596 -0.010081101 -0.019817358
0.006949453 -0.021283982 0.059437554 -0.08468377 -0.023700811 0.1145199 0.09238721 -0.067215316
-0.043581475 0.06036281 -0.07464061 0.023388926 -0.10482625 0.10379507 -0.05444805 0.018655367
0.08264056 -0.014595672 0.007110553 -0.10737475 0.08879171 0.06666165 0.05426754 0.0629294
0.06509116 0.09268903 0.14875998 0.104526944 0.14844547 0.074217595 -0.102463044 -0.034161933
-0.026117338 -0.082823046 0.024175657 -0.020270756 -0.018226344 -0.1057703 -0.045150712 0.097658165
0.09789557 0.087058626 -0.09992633 -0.050366767 -0.097540244 -0.07586618 0.009440712 0.1013715
-0.021142006 0.027433593 -0.051692486 0.092589125 -0.01779802 -0.09375223 0.066315 -0.004356555
-0.0948734 0.07800335 0.036150437 0.036956474 -0.018216081 0.0059890538 -0.034145337 0.08745661
0.0037647288 0.10768591 0.13234822 0.121665366 0.21039969 0.052601036 0.25199816 0.046228938
0.17298518 0.13995181 0.10229793 -0.07502996 -0.017105058 -0.09969641 0.055061985 0.089527704
-0.037246473 -0.059498545 -0.020792857 0.13050653 0.104414836 0.068983614 -0.067163415 0.028061492
0.053936083 0.11554866 0.035876736 0.0655624 0.09331693 -0.070203215 0.056085378 0.081025474
-0.10009837 0.018412817 -0.09169593 -0.0824435 0.04352618 0.01115053 0.005945673 -0.072826214
-0.10723664 0.03532275 -0.042801943 -0.06272454 0.049993627 -0.001536397 0.03136517 -0.06618147
-0.018117223 -0.03805538 -0.03768687 -0.02903702 -0.005043076 0.03830888 -0.047325816 0.19261518
0.16307104 0.06642894 0.051390637 -0.0674719 0.15643273 -0.04291381 -0.037804037 -0.0073645534
0.043640394 0.034486007 -0.11242997 -0.09215812 -0.07082019 -0.009531142 -0.015982917 0.088658296
0.044796742 0.07034785 0.009514624 -0.04911307 0.100737646 0.08058642 0.024593662 0.045934856
-0.010174133 0.044163037 0.009132609 -0.07800127 0.066859044 -0.0647435 0.034563806 -0.06292706
0.08644639 0.060464256 -0.09509094 0.06739619 0.07931365 0.15185827 0.043491576 0.07173889
0.10596386 0.010567849 0.0644399 0.010838741 0.18697914 -0.07739193 0.011857498 -0.0017960712
0.038362477 -0.003094281 0.004190131 -0.008928098 -0.14451456 -0.07005045 -0.010269437 0.09726775
0.08323262 -0.035960082 0.05670859 -0.07928036 0.037462518 -0.095690615 0.07239049 0.024214113
-0.107281655 0.056504447 -0.03324792 0.06709641 0.0137825385 -0.08877056 0.078986 0.07820504
-0.00954853 -0.015856056 0.047594443 -0.07424111 0.12900877 0.025824819 -0.058416978 -0.005553912
0.19663058 0.19374456 0.17421132 0.17327885 0.07779116 0.21638785 0.06010998 0.18223284
0.08068618 0.08486094 0.07127186 0.013236182 -0.049973585 -0.06876994 0.11850063 0.06312201
0.08704754 0.08657993 0.07129426 -0.03166336 -0.07393546 -0.10996997 -0.049845334 0.05623809
-0.03753717 -0.05332668 0.07303174 -0.02675809 -0.07779872 -0.061490104 0.10809486 0.023077244
0.015225458 0.08992383 0.055501845 0.026132688 -0.024506101 -0.09148 -0.08561846 0.04243236
00000000: f7a9 a0bd 9779 7d3d 9aa2 aa3c 9dd4 8a3d
00000010: 35f1 b03d 8ee3 1e3e de7f 1c3d ff3e 83bd
00000020: e5ce c8bc cf06 e53d a265 6ebd ff39 b93c
00000030: 9f7c 89bd 1e28 48bc 342b 25bc 0358 a2bc
00000040: 3db8 e33b bf5b aebc cb74 733d af6e adbd
00000050: 3428 c2bc 6989 ea3d 8135 bd3d 2fa8 89bd
00000060: 7d82 32bd fe3e 773d 2ddd 98bd 229a bf3c
00000070: 25af d6bd 8292 d43d eb04 5fbd 24d3 983c
00000080: 743f a93d af22 6fbc a4ff e83b 4be7 dbbd
00000090: 6ed8 b53d e785 883d a447 5e3d 21e1 803d
000000a0: 844e 853d bfd3 bd3d 8954 183e 3912 d63d
000000b0: 1702 183e 65ff 973d 25d8 d1bd 62ed 0bbd
000000c0: 07f4 d5bc 219f a9bd 070c c63c db0e a6bc
000000d0: 6a4f 95bc 199e d8bd f4ef 38bd 0101 c83d
000000e0: 797d c83d cb4b b23d 2da6 ccbd 624d 4ebd
000000f0: 2ec3 c7bd ba5f 9bbd 37ad 1a3c dc9b cf3d
00000100: 0032 adbc 6abc e03c 80bb 53bd 5e9f bd3d
00000110: 27cd 91bc 2b01 c0bd 29d0 873d 6fc1 8ebb
00000120: fc4c c2bd 38c0 9f3d 7b12 143d ac5f 173d
00000130: e439 95bc d33f c43b fbdb 0bbd 731c b33d
00000140: abb9 763b 6e8a dc3d 4b86 073e b12b f93d
00000150: 0473 573e 2f74 573d e705 813e 8e5a 3d3d
00000160: 0723 313e 874f 0f3e 9481 d13d 4fa9 99bd
00000170: e81f 8cbc a22d ccbd ad88 613d 4d5a b73d
00000180: c28f 18bd bfb4 73bd c855 aabc 81a3 053e
00000190: 72d7 d53d 4847 8d3d f98c 89bd 37e1 e53c
000001a0: 15ec 5c3d c7a4 ec3d 7cf3 123d 9445 863d
000001b0: f21c bf3d b4c6 8fbd c8b9 653d aff0 a53d
000001c0: 6000 cdbd 7ad6 963c 13cb bbbd 23d8 a8bd
000001d0: 8248 323d b6b0 363c ecd3 c23b e925 95bd
000001e0: e29e dbbd 97ae 103d 1751 2fbd b975 80bd
000001f0: 1ec6 4c3d ee60 c9ba c478 003d 278a 87bd
00000200: 926a 94bc f5df 1bbd 8c5d 1abd 0bdf edbc
00000210: 6340 a5bb c6e9 1c3d b7d8 41bd ea3c 453e
00000220: 18fc 263e e50b 883d fd7e 523d b52e 8abd
00000230: e72f 203e 64c6 2fbd 68d8 1abd 5a52 f1bb
00000240: 45c0 323d 3341 0d3d af41 e6bd 65bd bcbd
00000250: 2d0a 91bd 8228 1cbc 9bee 82bc 7b92 b53d
00000260: ca7c 373d 8912 903d 3ae3 1b3c c92a 49bd
00000270: 8a4f ce3d 7e0a a53d a678 c93c 3026 3c3d
00000280: 68b1 26bc 4de4 343d f0a0 153c 21bf 9fbd
00000290: 65ed 883d 3d98 84bd c792 0d3d e7df 80bd
000002a0: ce0a b13d 5ea9 773d 0abf c2bd 0307 8a3d
000002b0: 326f a23d bc80 1b3e 3924 323d d7eb 923d
000002c0: 9503 d93d c524 2d3c 11f9 833d fa94 313c
000002d0: 7677 3f3e a97f 9ebd f445 423c 266a ebba
000002e0: f921 1d3d 6cc9 4abb 5e4d 893b 2847 12bc
000002f0: a0fb 13be 9c76 8fbd 2441 28bc 5034 c73d
00000300: dd75 aa3d e14a 13bd 4447 683d be5d a2bd
00000310: 4c72 193d 71f9 c3bd 7741 943d ad5c c63c
00000320: 7cb6 dbbd 3571 673d f92e 08bd d869 893d
00000330: 28d0 613c 57cd b5bd 69c3 a13d f729 a03d
00000340: 7071 1cbc 8fe4 81bc 64f2 423d b90b 98bd
00000350: e01a 043e 928e d33c a446 6fbd 97fd b5bb
00000360: 8759 493e f964 463e 7464 323e 0370 313e
00000370: f950 9f3d c794 5d3e e235 763d 3f9b 3a3e
00000380: cc3e a53d 93cb ad3d fbf6 913d 92dc 583c
00000390: 1ab1 4cbd 41d7 8cbd 75b0 f23d 1d46 813d
000003a0: fb45 b23d d150 b13d ba02 923d 70b1 01bd
000003b0: 796b 97bd f037 e1bd 9f2a 4cbd e959 663d
000003c0: 93c0 19bd 146d 5abd aa91 953d c833 dbbc
000003d0: ef54 9fbd 0cdd 7bbd d760 dd3d 7d0c bd3c
000003e0: 3374 793c fc29 b83d e755 633d 3814 d63c
000003f0: 05c1 c8bc de59 bbbd bb58 afbd 8ecd 2d3d

std.constant12 f4 [128, 9]
-0.114418484 0.05068734 -0.040713843 0.074316844 -0.01912526 -0.09116666 -0.004291197 0.08163886
0.14471366 -0.22599575 -0.053948265 0.027910914 0.117543526 -0.019723715 -0.051605973 -0.08816562
-0.060933515 0.0029045236 0.18561547 -0.04810591 -0.047176898 0.045335088 0.07307899 0.036913585
0.07345438 0.08685232 -0.08357144 0.1899321 0.079204075 0.0049491357 0.07780124 0.07055608
0.020293772 0.0073860995 0.103281915 -0.025803765 -0.23186316 0.026035918 -0.07611316 0.03851543
0.022108516 -0.05162438 0.0055854525 0.10729966 0.048631582 -0.02203281 -0.034495573 -0.01982578
0.06627415 0.048463512 -0.094055936 -0.06601209 0.0015891339 0.09248447 0.04261858 -0.054396205
-0.018766234 0.036973365 0.039019622 0.005404179 0.0002845774 -0.047539692 -0.11471923 -0.05819429
0.04807414 -0.065877795 0.0048997393 0.016118236 -0.078519695 -0.010112333 -0.024879392 -0.028800385
0.025109326 -0.054981142 0.0011720774 0.08073774 -0.06865786 0.05691544 -0.08328392 -0.03961226
-0.060422506 0.23991294 -0.04921404 0.03426318 0.0032331632 -0.074170515 0.067999296 -0.02109684
-0.0530211 -0.12900765 -0.052358326 0.08971559 -0.092896484 0.06770218 0.10905523 -0.05689893
-0.00041724142 -0.0045457897 -0.032895464 -0.15734345 0.008777004 -0.06395874 -0.027831113 0.1363236
0.05839657 -0.0575842 0.020020956 0.0090965135 -0.0032797754 -0.093482904 0.10950456 0.007812225
0.08991037 0.075337246 -0.05058078 -0.080928385 -0.13299991 -0.102478385 -0.0087173255 -0.022306576
0.072427124 0.025195435 0.0012895962 -0.0007355717 0.041322894 -0.0074531934 -0.08337561 0.0090505015
-0.0886812 0.029735025 -0.004123177 -0.017901484 0.048415016 -0.08159715 0.1332976 -0.20377368
-0.07158784 0.03811817 0.078091264 0.11589547 -0.031970154 -0.06521951 0.0533588 0.12110074
-0.12758201 -0.04894485 0.005567087 -0.042832635 0.057563823 -0.0054532527 -0.029375184 0.021890862
-0.024695607 -0.17655611 -0.035923183 0.07594146 0.0027061254 0.10959443 -0.029912991 -0.059307422
-0.041363597 0.072916485 0.19380413 0.08821737 0.04145625 0.0034702867 0.013476753 -0.093485154
0.031817142 -0.072008215 -0.018206218 0.20077617 -0.09302627 0.07101209 -0.09100192 -0.1441969
0.0451754 0.06292326 0.027036278 -0.074702255 0.13662079 0.03879704 0.044626076 -0.05131803
-0.01683321 0.08705492 -0.00228239 0.014967424 -0.17815693 0.06728469 0.07892674 -0.040956456
-0.03248711 -0.025321778 -0.096544415 0.062332924 -0.10018208 0.095638484 -0.08115347 -0.07985795
-0.0896111 0.017955456 -0.04953784 -0.0881541 -0.051494192 0.06618869 0.06871598 0.22053528
0.030043177 0.023771375 0.015325516 -0.09595733 0.076239526 0.06534579 0.0035510266 -0.07435013
0.23293261 -0.08069247 0.12476285 -0.038520504 -0.1345104 0.048991762 0.051848453 -0.06263188
-0.19152908 -0.093866035 0.03701148 -0.10884439 -0.04822062 0.11952526 -0.008851711 0.101761386
-0.059599232 0.0121514145 0.048477996 -0.0529666 0.10271457 -0.08428237 0.04298637 0.03565167
0.112058446 -0.09144589 -0.10525901 -0.16635303 -0.07577109 0.014147662 0.102934584 0.04204804
0.055970963 -0.09436228 -0.032079894 0.03103663 0.06843935 0.08210833 0.03361018 0.06237512
00000000: 3d54 eabd 879d 4f3d 8fc3 26bd 6e33 983d
00000010: 94ac 9cbc 96b5 babd 2b9d 8cbb 4632 a73d
00000020: d12f 143e 6e6b 67be dbf8 5cbd 6ea5 e43c
00000030: a9ba f03d a193 a1bc c960 53bd 2d90 b4bd
00000040: 6c95 79bd d259 3e3b fb11 3e3e b40a 45bd
00000050: 903c 41bd 49b1 393d 70aa 953d b332 173d
00000060: 406f 963d a1df b13d 8127 abbd 8f7d 423e
00000070: bf35 a23d 5c2c a23b 4256 9f3d b57f 903d
00000080: 203f a63c 1807 f23b 7885 d33d 6b62 d3bc
00000090: 896d 6dbe 4749 d53c 37e1 9bbd 5bc2 1d3d
000000a0: eb1c b53c 1674 53bd 2c06 b73b edbf db3d
000000b0: e931 473d 277e b4bc 3b4b 0dbd ad69 a2bc
000000c0: beba 873d ad81 463d 66a0 c0bd 5931 87bd
000000d0: 7c4a d03a 7f68 bd3d d290 2e3d 8ece 5ebd
000000e0: a5bb 99bc 6271 173d 0ad3 1f3d 8a15 b13b
000000f0: 5533 9539 fbb8 42bd eaf1 eabd 235d 6ebd
00000100: 64e9 443d f0ea 86bd fe8d a03b 640a 843c
00000110: efce a0bd 33ae 25bc decf cbbc c9ee ebbc
00000120: 13b2 cd3c e833 61bd 64a0 993a d459 a53d
00000130: 7e9c 8cbd 2a20 693d c390 aabd 7740 22bd
00000140: 977d 77bd bdab 753e a994 49bd 8c57 0c3d
00000150: 7ae3 533b b6e6 97bd 3743 8b3d 48d3 acbc
00000160: a72c 59bd 951a 04be af75 56bd cfbc b73d
00000170: 8340 bebd 71a7 8a3d 5958 df3d da0e 69bd
00000180: 32c1 dab9 d9f4 94bb 65bd 06bd a41e 21be
00000190: 6ccd 0f3c cdfc 82bd 13fe e3bc 6a98 0b3e
000001a0: 3e31 6f3d 69dd 6bbd fd02 a43c 8b09 153c
000001b0: 80f1 56bb f773 bfbd ed43 e03d b1fd ff3b
000001c0: ee22 b83d 6a4a 9a3d cb2d 4fbd c8bd a5bd
000001d0: 2131 08be 30e0 d1bd 1dd3 0ebc 48bc b6bc
000001e0: ac54 943d a866 ce3c ab07 a93a 62d3 40ba
000001f0: 3242 293d eb39 f4bb d5c0 aabd 8e48 143c
00000200: 7d9e b5bd de96 f33c b71b 87bb 22a6 92bc
00000210: d34e 463d 681c a7bd 2b7f 083e 0caa 50be
00000220: a59c 92bd cc21 1c3d 50ee 9f3d 9b5a ed3d
00000230: 23f3 02bd ce91 85bd c28e 5a3d aa03 f83d
00000240: dca4 02be 657a 48bd 1c6c b63b 4671 2fbd
00000250: 0bc8 6b3d 33b1 b2bb 3aa4 f0bc 7754 b33c
00000260: 714e cabc 20cb 34be 3024 13bd 3287 9b3d
00000270: 4059 313b 0b73 e03d 170c f5bc 57ec 72bd
00000280: e06c 29bd 3d55 953d 9774 463e 4fab b43d
00000290: 07ce 293d c06d 633b 99cd 5c3c 2575 bfbd
000002a0: b152 023d 0b79 93bd 3525 95bc 4598 4d3e
000002b0: 8f84 bebd c96e 913d 375f babd 5aa8 13be
000002c0: d709 393d e9dd 803d 2f7b dd3c 7ffd 98bd
000002d0: 52e6 0b3e a5e9 1e3d d5c9 363d db32 52bd
000002e0: cde5 89bc da49 b23d 2694 15bb ed39 753c
000002f0: c56e 36be 8ecc 893d 58a4 a13d f5c1 27bd
00000300: 3411 05bd 9e6f cfbc 14b9 c5bd cf50 7f3d
00000310: 432c cdbd 1cde c33d ca33 a6bd 918c a3bd
00000320: 0686 b7bd 5217 933c 31e8 4abd 238a b4bd
00000330: 93eb 52bd f08d 873d f7ba 8c3d 00d4 613e
00000340: 1c1d f63c 30bc c23c e017 7b3c 4785 c4bd
00000350: 7823 9c3d 03d4 853d 57b8 683b e244 98bd
00000360: e385 6e3e 1842 a5bd aa83 ff3d adc7 1dbd
00000370: 18bd 09be 96ab 483d 0b5f 543d 2545 80bd
00000380: 3320 44be d63c c0bd 5a99 173d cfe9 debd
00000390: fc82 45bd a9c9 f43d c406 11bc 4668 d03d
000003a0: 531e 74bd ba16 473c dd90 463d 81f3 58bd
000003b0: 045c d23d 3c9c acbd 7a12 303d 7c07 123d
000003c0: e67e e53d fc47 bbbd 0992 d7bd 7358 2abe
000003d0: e02d 9bbd 98cb 673c 5ecf d23d 913a 2c3d
000003e0: cf41 653d 0341 c1bd 3566 03bd 8840 fe3c
000003f0: ee29 8c3d 6a28 a83d d4aa 093d 0e7d 7f3d
