AirQualityApp/AirQualityApp.Android/Assets/WarsawLong.tflite (tflite, 810852 bytes, 24 tensors)

std.constant3 f4 [128, 128]
0	0xbcce4649	-0.025179999
1	0x3db2ca36	0.08729975
2	0x3cf1ff72	0.029540751
3	0xbcaa5cbd	-0.020796174
4	0xbcc7b2cb	-0.024377247
5	0x3d3a3981	0.045464996
6	0x3cafa028	0.021438673
7	0xbdaf4d59	-0.08559675
8	0xbcd43154	-0.025902428
9	0xbd1caa7a	-0.038248517
10	0xbc318454	-0.010834772
11	0x3d3d3594	0.046193674
12	0xbd4c1f2a	-0.049834408
13	0x3cb94e7c	0.022620432
14	0xbce624e0	-0.028093755
15	0x3d80e2cf	0.0629326
16	0x3d352d73	0.044232797
17	0x3db934b4	0.090432554
18	0x3d0595c4	0.03261353
19	0xbc8f8e06	-0.017523777
20	0x3c71ab4a	0.014750311
21	0x3d02e357	0.03195509
22	0xbda16cf6	-0.07882111
23	0xbcff0185	-0.031128654
24	0xbd065509	-0.03279594
25	0xbc776c4b	-0.015101503
26	0x3cfc4165	0.030792901
27	0xbcc61a01	-0.024182322
28	0x3b69efa4	0.0035695815
29	0x3c10e10a	0.008842716
30	0xbca48eba	-0.020087589
31	0x3ad0d2a4	0.0015931916
32	0xbd20211c	-0.039094076
33	0x3d1a3fd6	0.037658535
34	0xbdc25b53	-0.09490075
35	0x3db7bd54	0.08971658
36	0x3cfb30f0	0.030662984
37	0x3aa25024	0.0012383503
38	0xbc40543a	-0.011738831
39	0x3cb2e114	0.021835841
40	0x3d1ada6a	0.037805952
41	0x3d7d4616	0.061834417
42	0xbc62581c	-0.013814952
43	0xbd662221	-0.05618489
44	0x3d24aaaa	0.04020182
45	0x3d378f09	0.044814143
46	0x3d9680c4	0.07348779
47	0xbcc73862	-0.024318878
48	0x3c187465	0.009305094
49	0xbd71a329	-0.058993492
50	0x3dfb632d	0.12274776
51	0xbc3618c6	-0.011114305
52	0x3c5e4679	0.013566607
53	0x3d58d566	0.052937888
54	0x3d39fc3d	0.04540657
55	0x3d7a4cba	0.06110833
56	0x3ce104e9	0.027468162
57	0x3d06a0fa	0.032868363
58	0x3c841551	0.016123446
59	0xbd2f3d79	-0.042783234
60	0xbc84a998	-0.01619415
61	0x3bf68745	0.0075234496
62	0x3d08ab09	0.033366237
63	0xbd85346e	-0.06504141
64	0x3c90ce03	0.017676359
65	0xbd0e2ca3	-0.034710538
66	0x3d0988b1	0.033577625
67	0x3d7baf3e	0.06144642
68	0x3cfba2b2	0.030717228
69	0x3c70246f	0.014657124
70	0xbcf4cd45	-0.029883036
71	0x3cfa3f54	0.030547775
72	0x3b768f54	0.0037622051
73	0x3c681d25	0.014167105
74	0x3d23dce6	0.040005587
75	0xbcc56996	-0.024098199
76	0x3d25b418	0.040454954
77	0xbd1a7b1d	-0.037715066
78	0x3d4316da	0.047629215
79	0xba90c788	-0.0011045793
80	0x3c2993e0	0.010350198
81	0x3d11ab20	0.03556359
82	0x3d5bb472	0.053638883
83	0x3d8dca68	0.069233716
84	0xbc61f6ac	-0.013791721
85	0xbd1f630c	-0.038912818
86	0x3d122f3a	0.03568957
87	0x3c98e02d	0.018661583
88	0x3c441cf9	0.011969798
89	0xbc86c95e	-0.016453441
90	0xbd1d9b51	-0.0384782
91	0x3cb5e13b	0.022202125
92	0xbd307283	-0.043077957
93	0xbd52307f	-0.05131578
94	0xbce731c0	-0.028221965
95	0xbc649526	-0.013951575
96	0x3b952d1b	0.004552496
97	0xbb794d2a	-0.0038040378
98	0x3c0bf519	0.008542323
99	0xbc6190e1	-0.013767452
100	0xbc97a4bd	-0.01851117
101	0xbd6c29fb	-0.057657223
102	0xba254d88	-0.00063058035
103	0x3c3f3666	0.011670684
104	0xbc3ff846	-0.011716908
105	0x3db57024	0.0885928
106	0xbd29006d	-0.04126017
107	0xbc9987e1	-0.01874155
108	0x3cc8d5dc	0.024516039
109	0x3cf077cd	0.029354
110	0x3d7defec	0.061996385
111	0x3d9349b9	0.07191796
112	0xbc5bed7e	-0.013423322
113	0x3d2a7192	0.041612215
114	0xbc55a287	-0.013039238
115	0x3cb1e255	0.021714369
116	0xbcd55a61	-0.026044073
117	0x3caffe2e	0.021483507
118	0x3d909390	0.07059395
119	0x3cda1146	0.026619565
120	0xbd88eedc	-0.06686184
121	0x3d80c266	0.062870786
122	0xbc59ec80	-0.013301015
123	0xbd2bd654	-0.041952446
124	0xbc1c15a2	-0.009526642
125	0x3c1621d2	0.009163337
126	0xbd7ffa9e	-0.062494867
127	0xbd91daa2	-0.07121779
128	0x3d6710c3	0.05641247
129	0x3d6fa5bf	0.058507677
130	0xbbc9e162	-0.006160901
131	0x3d457a5e	0.0482124
132	0xbd65c22e	-0.056093387
133	0xbb7235ed	-0.0036958412
134	0xbdc3fde7	-0.095699124
135	0x3c8f770c	0.01751282
136	0x3d85f717	0.06541269
137	0x3d2eab06	0.04264357
138	0x3d8581b7	0.06518882
139	0x3d8caa38	0.06868404
140	0x3c9b4f2a	0.018958647
141	0xbdbcabae	-0.09212433
142	0xbd9a3ec4	-0.07531503
143	0x3b3a05f8	0.0028384905
144	0xbc918d25	-0.017767498
145	0x3d32e0e0	0.04367149
146	0x3dc6f832	0.09715308
147	0x3c91207b	0.017715683
148	0xbc39cbb2	-0.011340069
149	0xbd8bff87	-0.06835847
150	0xbb7d3bf0	-0.0038640462
151	0xbd492315	-0.049105722
152	0xbd6753da	-0.05647645
153	0xbc13a55c	-0.009011593
154	0x3c518561	0.012788148
155	0xbc930bcc	-0.017949961
156	0x3db4d42a	0.088295296
157	0xbcbe7b70	-0.023252219
158	0x3cd4b083	0.025963074
159	0xbd8cfd1e	-0.06884216
160	0xbbb31b7f	-0.0054659243
161	0x3d78da97	0.06075534
162	0xbc2b6987	-0.010462171
163	0xbdc967d7	-0.09834259
164	0xbc256c3f	-0.010096609
165	0xbd8115ce	-0.06302987
166	0x3cd01eb8	0.025405273
167	0x3deb048b	0.11475476
168	0x3be075ac	0.006849965
169	0x3d20e3be	0.039279692
170	0xbc3abc3c	-0.011397418
171	0x3d3abdbe	0.04559111
172	0xbdafa368	-0.08576089
173	0xbd209792	-0.03920705
174	0x3cd93f47	0.02651943
175	0x3d631e43	0.05544878
176	0xbc57ea48	-0.013178416
177	0x3c9c7195	0.019097129
178	0xbd34bc0e	-0.044124655
179	0xbd911dee	-0.07085787
180	0xba343be6	-0.00068753806
181	0xbd8853de	-0.066566214
182	0xbd1aa4fb	-0.037754994
183	0xbca03538	-0.019556627
184	0x3d24cf6e	0.040236883
185	0xbd8eea3e	-0.06978272
186	0xbd0e303e	-0.034713976
187	0x3cacecb0	0.021108955
188	0xbd9dffd6	-0.077148125
189	0xbcdb8898	-0.026798531
190	0x3d1eb75f	0.038749095
191	0x3baf93f0	0.0053582117
192	0xbb284cd8	-0.0025680568
193	0x3d9355c5	0.071940936
194	0xbb80241c	-0.0039105546
195	0x3d4e865e	0.05042111
196	0x3adfee70	0.001708461
197	0x3bc1f600	0.005919218
198	0x38187b00	3.6354177e-05
199	0xbcea496f	-0.028599469
200	0xbafdb8b8	-0.0019357419
201	0xbd4b0a60	-0.04957044
202	0xbdba2b01	-0.090902336
203	0x3c86b7bc	0.016445033
204	0xbab0ae8e	-0.0013479756
205	0xbdb12901	-0.08650399
206	0x3cf73e26	0.030181002
207	0xbd1497e3	-0.036277663
208	0xbd334179	-0.04376361
209	0xbc85717a	-0.016289461
210	0x3c001ed8	0.007819854
211	0x3ba7b87a	0.005118427
212	0xbd73b5aa	-0.05949942
213	0x3c8df7fc	0.017330162
214	0xbc9a7e6c	-0.01885911
215	0x3c65bce5	0.014022087
216	0x3cf1a6eb	0.029498538
217	0x3b550c44	0.0032508532
218	0xbd95e4c8	-0.07319027
219	0xbd2c3d6a	-0.042050757
220	0xbd4de378	-0.05026576
221	0x3bc85800	0.006114006
222	0xbc0d333b	-0.008618171
223	0x3cb6a432	0.022295091
224	0xbd885357	-0.06656521
225	0x3d89afc4	0.06722978
226	0xbd3d3c9f	-0.04620039
227	0xbdaeb65a	-0.085308746
228	0x3d6990be	0.057022803
229	0xbb81d4e5	-0.0039621466
230	0x3c70c54a	0.014695475
231	0xbba72546	-0.005100879
232	0xbbf8bc03	-0.007590772
233	0xbd055cc0	-0.032559156
234	0x3d7e35b9	0.062062953
235	0x3d542a05	0.051797885
236	0xbd37abe3	-0.04484166
237	0xbd89ab1e	-0.06722091
238	0x3c8c97b4	0.017162181
239	0x3d0e8be1	0.034801368
240	0xbb919696	-0.004443
241	0xbd00d1d2	-0.0314501
242	0x3d9cc02c	0.076538414
243	0xbe0bbc60	-0.13646078
244	0xbd38aebe	-0.045088522
245	0x3b6b0988	0.0035863835
246	0x3d552fda	0.052047588
247	0x3ca7a5de	0.020464834
248	0x3d46e681	0.04855967
249	0xbd28950c	-0.041157767
250	0xbce0e19f	-0.027451335
251	0xbafa00f8	-0.0019073775
252	0xbc615a74	-0.013754476
253	0xbccd52d1	-0.025063904
254	0xbd0274c6	-0.031849645
255	0x3d32b83d	0.043632735

std.constant4 f4 [128, 128]
0	0x3d1afe47	0.037840154
1	0x3d38e208	0.045137435
2	0x3bc7d2ae	0.006098113
3	0x3cec3e9a	0.028838445
4	0xbd4d35a3	-0.05009998
5	0xbd6102d1	-0.054934327
6	0xbd9c3303	-0.07626917
7	0x3d31bff9	0.04339597
8	0x3c0abdbd	0.008468089
9	0x3d52dd6f	0.051480707
10	0x3d94976c	0.07255444
11	0x3c8f9af6	0.017529946
12	0x3cb3f0f2	0.021965478
13	0xbda35200	-0.07974625
14	0x3cf6adab	0.030112108
15	0xbd03ebb2	-0.0322072
16	0xbd17774c	-0.036979005
17	0xbc7a9349	-0.015293905
18	0x3cc11a33	0.023572063
19	0x3c9a08f1	0.018803092
20	0xbcbd4839	-0.023105728
21	0x3d9065c8	0.07050663
22	0xbc8c5c6a	-0.01713391
23	0xbbb16369	-0.005413462
24	0xbd468fae	-0.048476867
25	0xbc215286	-0.009846335
26	0x3bac50ac	0.0052586403
27	0x3b939813	0.0045042126
28	0x3dea40a8	0.114381135
29	0x3d11666f	0.03549808
30	0xbcf24a5f	-0.029576479
31	0xbc840663	-0.016116327
32	0xbaf74b70	-0.0018867087
33	0xbd83622e	-0.06415211
34	0x3d55ba62	0.0521797
35	0x3d95b709	0.07310302
36	0xbd9270dc	-0.071504325
37	0xbcd8f313	-0.026483094
38	0x3c3fb8f6	0.011701813
39	0x3c5b8c2f	0.013400122
40	0xbd1aaab5	-0.037760455
41	0x3d061bee	0.03274148
42	0xbc87a9a7	-0.016560389
43	0xbc0d8ca7	-0.008639491
44	0x3adb1848	0.001671561
45	0x3d518dfd	0.0511608
46	0x3c9050d2	0.017616663
47	0xbcfa413e	-0.030548688
48	0xbd246656	-0.040136658
49	0x3bf39375	0.0074333497
50	0x3deac28c	0.11462888
51	0xbda4b2a9	-0.08041889
52	0x3d489375	0.04896875
53	0x3d85999c	0.06523439
54	0xba723cad	-0.0009240609
55	0xbceb1f2b	-0.028701385
56	0xbd4adbea	-0.049526133
57	0x3bc06752	0.0058716917
58	0x3d020564	0.031743422
59	0xbcb57ceb	-0.022154292
60	0xbd9cc300	-0.07654381
61	0x3cb199b1	0.021679731
62	0x3d3d3d98	0.04620132
63	0x3af10186	0.0018387295
64	0xbc353fa0	-0.011062533
65	0x3d8c2a14	0.06843963
66	0xbcae65d7	-0.021288795
67	0xbd9796b3	-0.074017905
68	0xbd38f345	-0.045153875
69	0xbc8f8df4	-0.017523743
70	0x3d255c71	0.040371362
71	0xbdf63baf	-0.120231025
72	0x3b389800	0.002816677
73	0xba4a37a8	-0.0007713982
74	0x3c54cede	0.012988774
75	0xbce22e8c	-0.027610086
76	0x3e04c336	0.12965092
77	0x3d43233c	0.047641024
78	0x3d7d442a	0.061832584
79	0xbc9b9ac6	-0.0189947
80	0xbc5e1083	-0.013553741
81	0xbbe7416c	-0.0070573594
82	0x3bbabcc4	0.005698772
83	0x3cbd0cc2	0.023077372
84	0xbd53c517	-0.05170163
85	0x3a2b0920	0.0006524492
86	0xba8da4e8	-0.0010806592
87	0x3cf00ac2	0.029302005
88	0xbc52b9cb	-0.012861679
89	0x3cd4c0d7	0.02597086
90	0xbcfec5f2	-0.031100247
91	0xbb081278	-0.0020762961
92	0x3d72aef1	0.05924887
93	0xbd0cd3fa	-0.034381844
94	0x3ce12c48	0.027486935
95	0xbd379c92	-0.04482705
96	0x3b337c54	0.0027387338
97	0x3c88fae1	0.01672119
98	0xbd5e6063	-0.05429114
99	0xbdc16b0d	-0.094442464
100	0xbd6f3415	-0.05839928
101	0x3db341ec	0.08752808
102	0x3c6b98ca	0.0143796895
103	0xbc639228	-0.013889827
104	0xbd63922b	-0.05555932
105	0x3d0ca250	0.03433448
106	0xbc265b4a	-0.010153601
107	0xbc77bb6a	-0.015120367
108	0x3b735dfc	0.0037134876
109	0xbc321c38	-0.010870986
110	0x3ca07426	0.019586634
111	0xbc6e1298	-0.0145308
112	0xbd8777e7	-0.066146664
113	0x3d601314	0.054705694
114	0x3d85e4a6	0.06537752
115	0xbcb9da06	-0.02268697
116	0xbcdf3fef	-0.027252166
117	0xbd6dc210	-0.0580464
118	0x3d23b5eb	0.039968412
119	0xbd480897	-0.048836317
120	0x3d4122e9	0.047152434
121	0xbdb4be7e	-0.08825396
122	0x3d330026	0.043701313
123	0x3c76175e	0.01502022
124	0x3d6a304d	0.05717497
125	0xbd6674e4	-0.05626382
126	0xbc9ac5c7	-0.018893136
127	0xbc274000	-0.01020813
128	0xbd58627d	-0.0528283
129	0xbce8dd2a	-0.028425772
130	0x3d56b025	0.05241408
131	0x3ca60173	0.020264363
132	0x3d2972c2	0.041369207
133	0x3bf1e798	0.0073823445
134	0x3ba08dac	0.004899701
135	0x3cbd3d19	0.023100423
136	0x3d8e8c64	0.06960371
137	0xbd05f0df	-0.032700416
138	0xbd0f737c	-0.035022244
139	0x3c4fb877	0.012678257
140	0xbce8ced2	-0.028418932
141	0xbca53722	-0.020167891
142	0xbd6b989a	-0.05751858
143	0xbd090d88	-0.03346017
144	0x3c7de31b	0.015496041
145	0xbd271c31	-0.04079837
146	0xbb6ac3b0	-0.0035822205
147	0x3ce64230	0.028107733
148	0xbd153500	-0.036427498
149	0x3b3587d8	0.0027699377
150	0xbc7b0d64	-0.015323017
151	0x3c8e6e12	0.01738647
152	0xbd43de5e	-0.047819488
153	0x3d9a6bd9	0.075401016
154	0xbd1e0618	-0.03858003
155	0xbbdc8d1a	-0.006730688
156	0xbd2c0c8e	-0.04200416
157	0x3b4475f4	0.0029977532
158	0xbd00ebbf	-0.031474825
159	0x3c7f469e	0.015580801
160	0xbd706c06	-0.05869677
161	0x3d39eaab	0.045389812
162	0x3d91638e	0.07099067
163	0xbd574ceb	-0.05256359
164	0xbcae2dd0	-0.02126208
165	0xbb8ac614	-0.0042350385
166	0xbd38d088	-0.045120746
167	0xbd608528	-0.054814488
168	0x3d72a210	0.059236586
169	0xbb8f4000	-0.004371643
170	0x3dcbeaf9	0.09956927
171	0xbc3f5d2f	-0.011679932
172	0xbce52780	-0.027972937
173	0xbd55c9de	-0.05219447
174	0x3d1c3ce8	0.038144022
175	0x3c0c3c9a	0.00855937
176	0xbda092b1	-0.07840479
177	0xbd7e5032	-0.0620882
178	0x3ceda3de	0.029008802
179	0x3c9b7e99	0.018981265
180	0x3ba5f668	0.0050647743
181	0x3b774e4c	0.0037735878
182	0x3c842b8f	0.016134052
183	0xbce09fef	-0.027420012
184	0x3da34b7a	0.079733804
185	0x3c926f37	0.017875297
186	0xbd025306	-0.03181746
187	0xbd852dec	-0.065028995
188	0x3c56a1c8	0.013100095
189	0x3b248432	0.0025103209
190	0xbcaa574a	-0.020793576
191	0x3cf32b61	0.02968377
192	0x3d8736b8	0.06602234
193	0x39d36a90	0.0004032445
194	0x3c90d1e4	0.017678209
195	0xbd8b9347	-0.068152
196	0x3d7cb802	0.06169892
197	0xbb7e4310	-0.0038797297
198	0xbdb6bb5a	-0.08922453
199	0xbb09792a	-0.002097676
200	0x3c2559e0	0.010092229
201	0x3d06880b	0.032844584
202	0x3cd1c76e	0.02560779
203	0xbc9df350	-0.01928106
204	0x3d3dc038	0.046325892
205	0x3c10882e	0.00882153
206	0x3d4e18bb	0.050316554
207	0xbd833060	-0.06405711
208	0xbb5fb546	-0.0034135147
209	0x3d6ebb51	0.058284108
210	0x3d924216	0.07141511
211	0x3d695358	0.05696425
212	0x3bcc7b60	0.0062402934
213	0x3dd3fecb	0.10351332
214	0x3d206adc	0.03916441
215	0x3d03a0fb	0.032135945
216	0x3bf045fe	0.0073325625
217	0xbc355968	-0.011068679
218	0xbbcc3b9e	-0.006232693
219	0x3d002853	0.031288456
220	0x3d02a4ec	0.031895563
221	0x3dd12b5a	0.10213347
222	0x3d86fe1b	0.065914355
223	0xbdee8fc0	-0.11648512
224	0x3d68ab1e	0.056803815
225	0xbd34dd5b	-0.044156414
226	0xbca51a36	-0.0201541
227	0x3ce9ea0e	0.028553989
228	0x3c81af94	0.015830792
229	0xbd22562b	-0.039632957
230	0xbd14cdf0	-0.03632921
231	0xbc4119f6	-0.011785975
232	0x3c73bb07	0.014876134
233	0xbd0e3db5	-0.034726817
234	0xbccebac0	-0.025235534
235	0xbcd90c82	-0.026495222
236	0xbbe0c778	-0.006859716
237	0xbcc4826a	-0.023987968
238	0xbbf9170a	-0.0076016234
239	0xbce63c6b	-0.028104981
240	0xbcc844e4	-0.024446912
241	0x3d421614	0.047384337
242	0xbd1cbdc7	-0.038266923
243	0x3d5d3e04	0.05401422
244	0x3c675c0e	0.014121069
245	0x3d22d194	0.03975065
246	0xbcefb07f	-0.029258965
247	0x3da4295d	0.08015702
248	0x3d46a605	0.048498172
249	0xbd355663	-0.044271838
250	0xba5dc7eb	-0.0008460271
251	0xbbe86aa2	-0.0070927897
252	0xbc4cfaef	-0.012510999
253	0xbbe86981	-0.007092655
254	0xbd0b107c	-0.033951268
255	0xbc5c056a	-0.013429025

std.constant5 f4 [128, 128]
0	0x3d06217d	0.03274678
1	0x3b0db24d	0.0021621168
2	0x3d5846e0	0.052801967
3	0xbdc36539	-0.09540791
4	0xbd573f47	-0.05255058
5	0x3b8da92e	0.0043231463
6	0x3db9b29f	0.090672724
7	0xbbcf1a50	-0.0063202754
8	0xbb21fa23	-0.0024715743
9	0xbce0b306	-0.027429115
10	0xbb3f354f	-0.0029176062
11	0x3ce8a249	0.028397696
12	0xbcdeea7e	-0.027211424
13	0x3b76ee02	0.0037678485
14	0x3d4195bc	0.04726194
15	0xbde0cddb	-0.10976764
16	0xbd899f93	-0.067198895
17	0xbc50fd32	-0.012755679
18	0x3b837eca	0.004012917
19	0xbd227224	-0.039659634
20	0x3d332626	0.043737553
21	0xbc3fb31c	-0.011700418
22	0xbb4a4998	-0.003086662
23	0x3bfce454	0.0077176485
24	0x3d4ce586	0.050023578
25	0xbd0c6f38	-0.034285754
26	0x3c8f584a	0.017498154
27	0x3d5bda08	0.053674728
28	0xbd6b0556	-0.057378136
29	0xbcb73fee	-0.022369351
30	0xbd80d960	-0.06291461
31	0x3c633ac0	0.013868988
32	0x3d9155ee	0.07096468
33	0xbd2808c0	-0.04102397
34	0x3d07d4bb	0.03316186
35	0x3cb2ebcc	0.021840952
36	0x3ce6eb80	0.028188467
37	0xb9e67000	-0.00043952465
38	0xbd51dcbd	-0.051235903
39	0xbcf2f17a	-0.02965616
40	0xbc433148	-0.011913605
41	0x3d9626cc	0.07331619
42	0x3cc18ac4	0.023625739
43	0x3c0dc49b	0.008652831
44	0x3ccbd863	0.024883455
45	0xbd1822aa	-0.037142433
46	0x3d074665	0.033026118
47	0xbd5ae105	-0.05343725
48	0xbcd2cd98	-0.0257328
49	0xbd07234c	-0.032992646
50	0xbc04db12	-0.008108871
51	0xbd47b8d4	-0.04876025
52	0xbd54531e	-0.05183708
53	0xbd4ed8ea	-0.050499834
54	0x3d146e6a	0.03623811
55	0xbd9cafb1	-0.07650698
56	0x3d6a3d34	0.057187274
57	0x3cf7a062	0.030227844
58	0x3d561db3	0.052274417
59	0x3d9f2484	0.07770637
60	0x3d5df766	0.054191016
61	0xbc7c8419	-0.015412354
62	0xbb07a122	-0.0020695408
63	0x3c95181f	0.018199978
64	0xbcc50f3c	-0.024055116
65	0x3c85ede7	0.016348792
66	0xbc9fadd5	-0.01949207
67	0x3d971275	0.07376567
68	0xbaebe368	-0.001799685
69	0x3d1cefec	0.038314745
70	0xbcdf3704	-0.027247913
71	0xbdce011f	-0.100588076
72	0xbb2e89d4	-0.0026632445
73	0x3d1bf493	0.03807504
74	0x3d3fded8	0.04684338
75	0x3d433cb2	0.047665305
76	0x3c0554fa	0.008137936
77	0x3d4c9e0c	0.049955413
78	0xbd8484ee	-0.06470667
79	0xbd4802fc	-0.04883097
80	0xbd7fcdd0	-0.062452137
81	0x3d009d88	0.031400234
82	0x3c98a962	0.018635456
83	0x3cdfb5ee	0.02730843
84	0x3c142ff1	0.009044633
85	0x3c938f7e	0.018012758
86	0x3da07aac	0.07835898
87	0xbc7391c0	-0.0148662925
88	0xbdb49de1	-0.088191755
89	0xbd192ec6	-0.037398122
90	0xbceba734	-0.028766252
91	0xbd2c590b	-0.042077105
92	0xb9e096c0	-0.00042836927
93	0x3d2314bd	0.0398147
94	0xbd4abd5d	-0.049496997
95	0x3ce99257	0.028512163
96	0xbc33fb47	-0.010985202
97	0xbc66fc82	-0.0140982885
98	0xbb1af338	-0.0023643505
99	0xbd0b8099	-0.034058187
100	0xbd5580a7	-0.052124646
101	0x3d5e2e80	0.054243565
102	0x3ccc48b8	0.024937019
103	0x3bce89c8	0.006303046
104	0xbcececed	-0.028921569
105	0xbd39a5f0	-0.045324266
106	0x3db5a97b	0.088702165
107	0x3c29afe8	0.010356881
108	0xbc80c276	-0.015717726
109	0xbd078f15	-0.033095438
110	0xbb350f68	-0.002762759
111	0xbd317e0a	-0.04333309
112	0x3d92abfb	0.07161709
113	0xbc983d6a	-0.018583972
114	0xbcd1c83c	-0.025608175
115	0x3c7a5b87	0.015280611
116	0xbd366814	-0.04453285
117	0x3d09dcf9	0.033658
118	0xbd4961ba	-0.049165465
119	0xbc5faa3c	-0.013651427
120	0x3d222c89	0.039593253
121	0xbd986d57	-0.0744273
122	0x3b045c4e	0.002019662
123	0xbd824d6f	-0.063624255
124	0x3cf7f91d	0.030270154
125	0xbc10071c	-0.0087907575
126	0xbcb8ce1e	-0.022559222
127	0xbc41269e	-0.011788992
128	0x3ba70ab1	0.00509771
129	0xbdcca703	-0.099927925
130	0x3d84ac09	0.064781256
131	0x3c6ea534	0.014565755
132	0xbe00dcbf	-0.12584208
133	0x3d3a9fd0	0.045562565
134	0x3cf0258e	0.029314782
135	0xbd216c6f	-0.03941005
136	0x3d0dde19	0.034635637
137	0xbcd5d997	-0.026104731
138	0x38d9b280	0.000103806145
139	0x3cfb64b8	0.030687675
140	0xbccf9ec3	-0.025344258
141	0xbd68790b	-0.05675606
142	0x3cc6cafc	0.024266712
143	0xbcb691bb	-0.022286287
144	0xbcc47c04	-0.023984917
145	0xbd2b0bee	-0.041759424
146	0x3cf54dbc	0.029944293
147	0x3d683ab8	0.056696624
148	0xbcf547fe	-0.029941555
149	0x3c93c68a	0.018039007
150	0x3c848f2a	0.016181547
151	0xbd8bc0fc	-0.06823918
152	0xbd1788a4	-0.036995545
153	0x3d1e0c54	0.038585976
154	0xbdbed083	-0.09317114
155	0xbc14624e	-0.009056641
156	0x3d72aaf8	0.05924508
157	0xbd443dbd	-0.04791044
158	0xbd78321a	-0.060594656
159	0x3d72a490	0.05923897
160	0x3cc6a8b5	0.024250368
161	0x3d6789b9	0.056527827
162	0x3d66c0cc	0.05633621
163	0xbc3360b1	-0.010948346
164	0xbc068534	-0.008210469
165	0x3d3d1f12	0.04617221
166	0x3da08f14	0.0783979
167	0x3c8edc03	0.017438894
168	0xbd454202	-0.048158653
169	0xbc60ab8d	-0.013712776
170	0x3aa77b00	0.0012777746
171	0xbd2bd7c1	-0.041953806
172	0xbd9ae43b	-0.07563063
173	0xbb050d80	-0.0020302236
174	0xbdddbe53	-0.10827317
175	0xbd35ef66	-0.04441776
176	0xbcdcabb8	-0.02693735
177	0xbd5ce0c8	-0.053925306
178	0x3c8c78d7	0.017147465
179	0xbd32470b	-0.043524783
180	0x3b0f743c	0.002188935
181	0x3d10eac9	0.03538016
182	0xbd6bc0e0	-0.057556987
183	0xbba98ea8	-0.0051744767
184	0x3d5c2db8	0.05375454
185	0xbd6eeab4	-0.0583293
186	0x3c1e789c	0.00967231
187	0x3c15e08c	0.009147774
188	0x3d04d7c3	0.03243233
189	0x3d4eca3f	0.050485846
190	0x3c926385	0.01786972
191	0xbd95af58	-0.07308835
192	0x3c42f4ec	0.011899214
193	0x3df9da66	0.12199859
194	0x3c9bc41a	0.019014407
195	0xbd21b9c8	-0.039483815
196	0xbdc513a1	-0.096228845
197	0xbbaf2908	-0.0053454675
198	0xbc54a86e	-0.01297961
199	0xbc94cf6d	-0.018165315
200	0xbca29cd9	-0.019850181
201	0x3c96b20e	0.01839545
202	0xbd3a4924	-0.04547991
203	0xbd34b4a1	-0.044117574
204	0x3d5b7cd6	0.05358585
205	0x3ccef482	0.025263075
206	0xbd0debc6	-0.03464868
207	0x3bf4ae5e	0.0074670753
208	0x3bed7c1e	0.007247462
209	0x3c852908	0.016254917
210	0x3c4dbf5a	0.012557829
211	0xbcdfc95e	-0.027317699
212	0xbd8fbf30	-0.07018888
213	0x3d8f55c2	0.06998779
214	0xbca6d613	-0.02036575
215	0x3bc01b28	0.0058626123
216	0xbd156f56	-0.03648313
217	0xbb8d6124	-0.0043145586
218	0x3cf8d1d4	0.030373491
219	0x3ad68510	0.001636656
220	0x3d24bf34	0.040221408
221	0xbd07a9b6	-0.033120833
222	0xbca7c0bc	-0.020477645
223	0x3dc79311	0.097448476
224	0xbc7d203a	-0.015449578
225	0x3cbebba4	0.023282833
226	0x3d4a5847	0.049400594
227	0xba3ed5c4	-0.00072797784
228	0x3ca0b3dc	0.019617014
229	0xbdc27832	-0.09495582
230	0x3d9dba81	0.077015884
231	0x3c860289	0.01635863
232	0xbd036182	-0.032075413
233	0xbd2b9eaa	-0.04189936
234	0x3c6fcee5	0.01463673
235	0xbd32bf16	-0.043639265
236	0xbb2a2de0	-0.0025967285
237	0xbb8fb0a6	-0.004385072
238	0x3d7a2300	0.061068535
239	0xbcde3c54	-0.027128376
240	0x3d5f2521	0.05447877
241	0x3d2b93f6	0.041889153
242	0xbcb5878a	-0.022159357
243	0x3d26fbbc	0.040767416
244	0x3c0d3f11	0.008620993
245	0x3c1ea4ae	0.009682817
246	0x3d3b6c69	0.045757685
247	0x3cf54259	0.029938864
248	0x3d878712	0.066175595
249	0x3c68217e	0.014168141
250	0xbb578544	-0.003288583
251	0xbbfcf326	-0.0077194152
252	0x3da29631	0.07938803
253	0xbd54d3b3	-0.051959705
254	0x3cd5e2d7	0.026109142
255	0x3db02eed	0.086027004

std.constant6 f4 [128, 128]
0	0x3e009358	0.12556207
1	0xbc9fb2b4	-0.019494392
2	0xbc09322c	-0.008373778
3	0x3d719120	0.058976293
4	0x3d415c4b	0.047207158
5	0xbd19851b	-0.037480455
6	0x3d2d58a1	0.04232085
7	0xbda65f18	-0.081236064
8	0x3d4e0f42	0.05030752
9	0x3d23b7c6	0.039970182
10	0xbc7ee252	-0.015556889
11	0xbd5c0bb8	-0.053722113
12	0x3d3e8b0e	0.04651933
13	0xbd1a8dde	-0.03773295
14	0x3bf2dbf8	0.007411476
15	0x3bb49180	0.005510509
16	0xbd419618	-0.04726228
17	0xbd99fc8a	-0.07518871
18	0x3d50acbc	0.050945982
19	0x3d0f861c	0.035040006
20	0x3c8cfa14	0.01720909
21	0x3d78a4d2	0.06070406
22	0xbce74db8	-0.028235301
23	0xbd2d1a15	-0.042261202
24	0xbb829ce0	-0.003985986
25	0x3d9586ec	0.07301125
26	0xbc7bfde1	-0.015380354
27	0xbd3876c2	-0.04503513
28	0xbc772f60	-0.015086979
29	0xb98a7200	-0.00026406348
30	0xbc9b9ad8	-0.018994734
31	0xbcbc799e	-0.02300721
32	0xbc847f50	-0.016173989
33	0xbd0d21f6	-0.034456216
34	0x3b7e8b30	0.0038840286
35	0x3cd2011c	0.025635295
36	0xbd673c83	-0.056454193
37	0xbcd27bde	-0.02569383
38	0x3d667b58	0.056269974
39	0x3ce4b405	0.027917871
40	0x3c3f73ea	0.011685351
41	0xbd046303	-0.032320987
42	0xbd9b2f24	-0.07577351
43	0xbc9666b7	-0.018359525
44	0xbc7d5857	-0.015462956
45	0x3bc12ad2	0.005894997
46	0x3d8d68e0	0.06904769
47	0xbd42117b	-0.047379952
48	0x3cfeb7de	0.031093534
49	0xbcfdc9c2	-0.030979995
50	0xbd69b4f9	-0.057057355
51	0xbdc349d2	-0.095355645
52	0xbd275adf	-0.040858146
53	0x3d1510d3	0.036392998
54	0xbd34000e	-0.043945365
55	0xbc5c0cec	-0.013430815
56	0x3cea5974	0.028607108
57	0x3ce995aa	0.028513748
58	0x3da691e5	0.08133296
59	0x3b88ac0c	0.0041709
60	0x3cd46d05	0.02593089
61	0x3c7bfb2a	0.015379706
62	0x3be3784a	0.00694183
63	0x3acaca10	0.0015471596
64	0xbd6715ba	-0.056417204
65	0xbc0d313d	-0.008617696
66	0x3d113ebd	0.035460223
67	0xbc6a2bf0	-0.014292702
68	0x3caf1100	0.02137041
69	0x3c5680a1	0.013092191
70	0xbcb6bd55	-0.022307077
71	0xbccadf4d	-0.024764681
72	0xbc202bb4	-0.009776045
73	0xbcf387fa	-0.029727925
74	0x3d032c63	0.032024752
75	0xbbff6ea8	-0.0077951737
76	0x3d509d7c	0.05093144
77	0xbd37f911	-0.044915263
78	0x3d98c61e	0.07459663
79	0x3c06bd9e	0.008223919
80	0x3d422548	0.047398835
81	0xbbd7e11f	-0.006588116
82	0x3d70793d	0.05870937
83	0xbd55c0bf	-0.05218577
84	0x3c5b3b4c	0.013380837
85	0xbcf32c64	-0.029684253
86	0xbd7583de	-0.05994021
87	0xbdba6a78	-0.091023386
88	0x3c9ca634	0.01912222
89	0xbb35ce21	-0.002774127
90	0xbd5cabb2	-0.05387468
91	0xbd86a17b	-0.06573769
92	0x3d03a6cf	0.032141503
93	0x3d3f6a50	0.046732247
94	0x3d2e722a	0.042589344
95	0xbd80b2e0	-0.06284118
96	0x3bbbd45a	0.0057321014
97	0xbd022d59	-0.03178153
98	0xbd85911c	-0.06521818
99	0x3d7c4544	0.061589494
100	0xbc9af371	-0.01891491
101	0xbcc6e916	-0.024281066
102	0x3d1e85b6	0.038701735
103	0x3c5c8786	0.013460046
104	0x3cb689ec	0.022282563
105	0x3ceddaa7	0.029034926
106	0xbce09946	-0.027416836
107	0x3d37eba9	0.044902477
108	0x3d351bec	0.04421608
109	0xbd4fb7a0	-0.050712228
110	0xbc24cf49	-0.010059186
111	0xbc481811	-0.012212769
112	0x3dd89159	0.10574598
113	0x3d6aa296	0.05728396
114	0x3d1dddd2	0.038541622
115	0xbd1f45a6	-0.03888478
116	0xbc3d5257	-0.011555276
117	0xbbe04dc0	-0.006845206
118	0x3d357159	0.04429755
119	0xbc24578e	-0.01003064
120	0xbd53b346	-0.05168464
121	0xbd84477c	-0.06458947
122	0xbccf6116	-0.025314849
123	0x3dd0a3f4	0.101875216
124	0x3c81420a	0.01577856
125	0x3d65833b	0.056033354
126	0xbd5142c4	-0.051089063
127	0x3d0efd1d	0.034909356
128	0x3d0555ac	0.032552406
129	0x3d0d2e20	0.034467816
130	0x3c3e2a9b	0.011606838
131	0x3d100206	0.03515818
132	0x3c8abdc6	0.016936194
133	0x3db9c6bb	0.09071108
134	0x3cd51355	0.026010195
135	0xbc54c839	-0.01298719
136	0x3d26edd1	0.040754143
137	0x3c341b66	0.01099286
138	0xbd0dc1c0	-0.034608603
139	0x3cc1eda9	0.023672896
140	0x3d0ccdbf	0.034375902
141	0x3cc52028	0.024063185
142	0xbda67ca2	-0.081292406
143	0x3ce26c25	0.027639458
144	0x3d78d2b5	0.06074782
145	0x3ca3a317	0.019975228
146	0xbc10f922	-0.00884846
147	0xbbaae28c	-0.005214995
148	0x3aa295b1	0.0012404231
149	0x3b613739	0.003436519
150	0x3d7c50f9	0.06160066
151	0x3b4ae614	0.003095989
152	0xbd1c0d5f	-0.03809869
153	0x3c044fbe	0.008075653
154	0x3db38af1	0.08766735
155	0xbb1c2830	-0.0023827665
156	0xbbb8925d	-0.0056326822
157	0x3d10debe	0.035368674
158	0x3cf97888	0.030452982
159	0x392e6530	0.00016631628
160	0xbd2bb7b6	-0.041923247
161	0xbd73fcd1	-0.059567276
162	0xbd6c45ac	-0.05768363
163	0x3d0aab9f	0.033855077
164	0xbca05098	-0.01956968
165	0xbcaa0778	-0.020755515
166	0x3cf23525	0.029566357
167	0x3cdd6fcf	0.027030854
168	0x3d05a847	0.032631185
169	0xbc3d29e4	-0.011545632
170	0xbd66597e	-0.05623769
171	0xbdab5e56	-0.083676025
172	0x3c635696	0.013875624
173	0x3d125e41	0.03573442
174	0x3c8e4046	0.017364632
175	0x3ccfce36	0.025366884
176	0x3d46c5d2	0.0485285
177	0xbd1d6f19	-0.03843603
178	0xbce1bb1f	-0.027555047
179	0xbd5eb6c1	-0.054373506
180	0x3b89cb96	0.0042051775
181	0x3d5b32d3	0.053515267
182	0xbd4de5f8	-0.050268143
183	0xbd2a0659	-0.04150996
184	0x3b90ca73	0.004418665
185	0xbdcfbd61	-0.10143543
186	0x3d9a8c83	0.07546332
187	0xbd6be6d4	-0.05759318
188	0xbbd7799b	-0.006575776
189	0xbdccfa83	-0.10008719
190	0xbcd260ef	-0.025680987
191	0xbd3cab95	-0.04606207
192	0xbd47637e	-0.048678868
193	0x3c8f2a56	0.017476242
194	0xbd6051b3	-0.054765414
195	0x3c897e69	0.01678391
196	0xbd113da7	-0.035459187
197	0x3d0cbc3c	0.0343592
198	0xbc207722	-0.0097940285
199	0xbc38038d	-0.011231315
200	0xbb436c62	-0.002981924
201	0xbcdf5e51	-0.027266653
202	0x3d8733d7	0.066016845
203	0x3cb20fa8	0.021735981
204	0x3d906351	0.07050193
205	0x3d2a8c96	0.04163798
206	0xbd973b49	-0.073843546
207	0xbd2ff40a	-0.042957343
208	0xbc8bb79c	-0.017055325
209	0x3caa886d	0.020817006
210	0x3d8a91a8	0.06766063
211	0x3cce374d	0.025172854
212	0x3ce3749a	0.02776556
213	0x3c26138b	0.010136495
214	0xbc1d5f3b	-0.009605224
215	0x3c478e34	0.0121799
216	0xbce7ec99	-0.02831106
217	0x3d000832	0.031257816
218	0xbc017bd6	-0.00790306
219	0xbcc115fb	-0.023570051
220	0x3decfc84	0.11571601
221	0xbcc66fad	-0.024223173
222	0x3c8d3f36	0.017242055
223	0x3cc37617	0.02386002
224	0x3d874f59	0.06606931
225	0xbd1272aa	-0.035753883
226	0xbd92d61b	-0.071697436
227	0x3d66d138	0.05635187
228	0x3d179f66	0.03701725
229	0x3d5f0a96	0.054453455
230	0x3d5d004d	0.053955365
231	0xbcc6f10f	-0.024284868
232	0xbd8608ee	-0.06544672
233	0xbc8e3337	-0.017358406
234	0xbbd5571d	-0.006510629
235	0xbd6c8ea5	-0.057753224
236	0x3c9ac04e	0.018890526
237	0xbd88c981	-0.06679059
238	0x3d90b0d0	0.07064974
239	0xbd198054	-0.0374759
240	0x3c059d96	0.008155247
241	0x3c630eac	0.0138584785
242	0xbd815af6	-0.063161775
243	0x3c934db9	0.017981397
244	0xbd0c68b1	-0.03427953
245	0x3d1b9ca5	0.037991185
246	0xbd41fc96	-0.047360025
247	0xbc8d38a2	-0.017238919
248	0x3d2d7e07	0.042356517
249	0xbcb7fbc7	-0.022458924
250	0x3d42637b	0.047458153
251	0xbcf60f86	-0.030036699
252	0xbc3cee79	-0.011531466
253	0x3ccf416a	0.025299747
254	0xbd5b21c3	-0.053498995
255	0x3d612869	0.05497018

std.constant7 f4 [128]
0	0xbb467166	-0.0030279993
1	0x3cb4604e	0.022018578
2	0x3c02d81d	0.007986096
3	0x3e161b11	0.14658763
4	0x3ada075e	0.0016634276
5	0x3d019fea	0.031646647
6	0x3d14c6a3	0.036322247
7	0x3c4ef3e2	0.012631388
8	0x3c5f20c9	0.013618656
9	0x3d9a6d2d	0.07540355
10	0xbc69cc23	-0.014269861
11	0x3d0a571d	0.033774484
12	0x3cd22c6b	0.025655946
13	0xbc1084bf	-0.008820712
14	0x3b3b516e	0.0028582471
15	0x3bbf519f	0.0058385874
16	0xbac85787	-0.0015284874
17	0x3d944f98	0.07241744
18	0xbbdf8331	-0.006821059
19	0xbbc75249	-0.006082807
20	0x3c826cbd	0.015920991
21	0x3dd7d47a	0.105385736
22	0x3b8e1c00	0.004336834
23	0xbb8c9e05	-0.0042912983
24	0xbb778d37	-0.003777338
25	0xbcae43e3	-0.021272605
26	0xbb77827c	-0.0037766984
27	0x3c8c5435	0.017129997
28	0x3c988463	0.018617814
29	0x3bcf8e64	0.006334113
30	0x3d07599e	0.03304445
31	0x3cfc2683	0.030780083
32	0x3cff5b2b	0.031171402
33	0x3ccd2f9f	0.025047122
34	0x3d0b9053	0.034073185
35	0xbc5abd01	-0.013350726
36	0x3d18950a	0.03725151
37	0xbbfc0017	-0.0076904404
38	0x3c7c7996	0.015409848
39	0x3d43e710	0.04782778
40	0xbc5720f9	-0.01313042
41	0x3b03f9f4	0.0020137997
42	0x3cd92f36	0.02651177
43	0xb9d5639a	-0.00040700735
44	0x3a58d3b2	0.0008271291
45	0x3d364025	0.044494767
46	0x3bf76e5b	0.007550997
47	0x3d332229	0.04373375
48	0x3c56f2a0	0.01311937
49	0x3e00f80c	0.12594622
50	0x3d0ecef7	0.034865346
51	0x3d334591	0.043767516
52	0x3d29440b	0.041324656
53	0x3d7b85fb	0.06140707
54	0x3dc93e72	0.098263636
55	0x3d8037c0	0.062606335
56	0x3c81395b	0.01577442
57	0x39290cb2	0.00016121825
58	0x3bda89fa	0.00666928
59	0x3d2f34e1	0.04277504
60	0x3cd20c19	0.025640534
61	0x3d330f1d	0.043715585
62	0x3bf1a88d	0.007374829
63	0x3e564485	0.20924576
64	0x3d175558	0.036946625
65	0x3c1dceff	0.009631871
66	0x3ce70231	0.028199287
67	0x3da96a74	0.082722574
68	0xbc666f45	-0.014064615
69	0x3bab57f1	0.0052289893
70	0x3cc02f13	0.023459947
71	0x3d22cd0b	0.039746325
72	0xbc2132b6	-0.009838751
73	0x3d6ed5d3	0.058309387
74	0x3ca813b2	0.020517204
75	0x3b8df4a8	0.004332144
76	0x3d8f273c	0.06989905
77	0x3d3f9103	0.046769153
78	0x3be2d870	0.006922774
79	0x3b722c54	0.003695269
80	0x3da9c18d	0.0828887
81	0x3c2fe058	0.01073464
82	0x3ce0bd6b	0.027434072
83	0x3d331166	0.043717764
84	0x3c9201ca	0.017823119
85	0x3cb4eb45	0.022084842
86	0x3ccd2a57	0.025044603
87	0xbb0a8a4a	-0.0021139556
88	0x3b9fe11a	0.004879129
89	0xba92bc8a	-0.0011195105
90	0x3d267829	0.040641937
91	0x3c0c55ca	0.008565376
92	0x3e036e41	0.12835027
93	0x3d0b6531	0.03403205
94	0x3ce4e565	0.027941415
95	0x3d154c3c	0.036449656
96	0x3c4f50b4	0.0126535185
97	0x3d676f55	0.05650266
98	0x3ab5ce02	0.0013870599
99	0x3b93edb1	0.004514419
100	0x3ccf136b	0.025277814
101	0x3d7a769c	0.06114827
102	0x3c54f89f	0.012998729
103	0x3d05b0bf	0.03263926
104	0x3d4dabc4	0.050212637
105	0x3c97be54	0.018523373
106	0x3c15e721	0.009149344
107	0x3cd3b728	0.025844172
108	0x3be56e7b	0.0070016957
109	0x3cf5a321	0.029985012
110	0x3d1a8dcb	0.03773288
111	0xbc97ea83	-0.018544441
112	0x3c1d522d	0.009602112
113	0x3bce74fb	0.0063005663
114	0x3cc2160e	0.023692157
115	0x3cf3ca65	0.029759595
116	0x3ce6e345	0.028184542
117	0x3d374569	0.04474393
118	0x3c9e8db3	0.019354677
119	0x3d478465	0.048710246
120	0x3cd8ea2d	0.026478851
121	0x3cdf4aca	0.027257342
122	0xbb845f2f	-0.004039667
123	0x3d08c7fc	0.033393845
124	0x3e04a99d	0.12955327
125	0x3cba7353	0.022760069
126	0x3df314d9	0.11869211
127	0xbc19f803	-0.0093975095

std.constant8 f4 [128]
0	0x3c2c1b17	0.010504506
1	0x3a899267	0.0010495902
2	0xbb901e53	-0.004398146
3	0xbcdd13c6	-0.026986968
4	0xbb21ed02	-0.0024707918
5	0xbb63653e	-0.0034697796
6	0xbc90b025	-0.017662117
7	0x3bcdfb1c	0.006286038
8	0xbb84ce0b	-0.0040528825
9	0xbcd6e5f5	-0.026232699
10	0x3c61f231	0.013790653
11	0x3c0bad60	0.008525223
12	0x39603acf	0.00021384213
13	0xbcb5fe95	-0.02221612
14	0xbc450c62	-0.012026878
15	0x3ba1a2e0	0.0049327463
16	0xbbe97118	-0.0071240775
17	0xbcc5043e	-0.024049874
18	0xbcbf9c84	-0.023390062
19	0x3aa6ef00	0.0012736022
20	0xbb585c94	-0.0033014165
21	0x3c89db5f	0.016828237
22	0x3aa23fe8	0.0012378665
23	0xbbb21462	-0.0054345587
24	0xbbd3fbab	-0.00646921
25	0x3ca7697c	0.020436041
26	0xbb8b95b7	-0.0042597908
27	0xbb769943	-0.0037627972
28	0x3a88b45a	0.0010429726
29	0x3c1e37af	0.009656831
30	0xbc52682a	-0.012842217
31	0xbb7c9f8c	-0.0038547246
32	0x39bba3a7	0.0003578935
33	0x3b7d7e28	0.0038679931
34	0xbce24238	-0.027619466
35	0x3c90cd4c	0.017676018
36	0x3b1a69ce	0.00235616
37	0xba5e4e07	-0.0008480255
38	0x3bfa4d29	0.0076385927
39	0xbbeac3cb	-0.0071644536
40	0x3c8d9737	0.017284019
41	0x3bb3cb6e	0.005486897
42	0x3b4e02b8	0.0031434726
43	0x3bc86265	0.006115245
44	0x3a71270d	0.00091992394
45	0xbc5df2d6	-0.013546666
46	0x3b8fad00	0.004384637
47	0xbc14af29	-0.009074965
48	0x3b35befb	0.0027732241
49	0xbcb96ea5	-0.022635767
50	0xbceed1db	-0.029152801
51	0x3b509977	0.0031829753
52	0xba3d36e6	-0.00072179583
53	0x3afe2466	0.001938951
54	0xbcd2f8d7	-0.025753422
55	0xba857300	-0.0010181367
56	0xbbb8b366	-0.0056366203
57	0xbb8d09c5	-0.004304143
58	0x3aaaf43d	0.0013042759
59	0xbb556480	-0.0032561123
60	0xbc0807e2	-0.008302661
61	0x3cc59bc1	0.02412212
62	0x3a81245f	0.0009852758
63	0x3ce78bdb	0.02826493
64	0x3b8c62eb	0.004284253
65	0xbbd1b115	-0.0063992837
66	0xbbd9d8df	-0.0066481675
67	0xbbbd4eae	-0.0057772016
68	0x3c8abcaa	0.016935665
69	0xbb981d16	-0.004642139
70	0xbb5b6a14	-0.0033479976
71	0x3c64291c	0.013925817
72	0xbc71c105	-0.014755492
73	0xbc3f687b	-0.011682625
74	0x3b67c4a9	0.0035365021
75	0x3bd0e00b	0.0063743643
76	0x3cce8223	0.025208538
77	0x3a647d46	0.0008716177
78	0xbc3534d0	-0.011059955
79	0x3bdc302f	0.006719611
80	0x3cadfbba	0.021238197
81	0xbbc3d9b7	-0.0059768814
82	0xbb39270c	-0.0028252034
83	0xbb4a67ab	-0.0030884545
84	0xbabbc543	-0.0014325756
85	0xbb10f28e	-0.002211723
86	0xbb473383	-0.0030395694
87	0x3bb35378	0.0054725967
88	0x3ae7274e	0.0017635615
89	0xbc9b74fb	-0.01897668
90	0x3997bec5	0.000289431
91	0xbcaf9000	-0.02143097
92	0x3d0c2ca9	0.03422228
93	0xbd001afc	-0.031275734
94	0x3af6ef57	0.0018839639
95	0xbb154fd3	-0.0022783175
96	0x3ba13361	0.004919455
97	0x3c4237b4	0.011854101
98	0xbc01e292	-0.007927554
99	0x3ba58be1	0.0050520753
100	0xbb45aaef	-0.0030161699
101	0xb9b5d9ac	-0.00034685188
102	0xbca0b65f	-0.019618211
103	0xba9459a2	-0.0011318217
104	0xbc88333b	-0.016625991
105	0xbcae4bc9	-0.021276372
106	0xbb9ea704	-0.004841687
107	0xbc70225c	-0.014656629
108	0x3cf572f8	0.029962048
109	0xbbfd11e5	-0.0077230805
110	0x3cf6988b	0.030102035
111	0xbcc739bd	-0.024319524
112	0x3b579e6f	0.003290083
113	0x3b39db01	0.0028359296
114	0xbbb805b3	-0.005615914
115	0x3a0aa148	0.0005288315
116	0xbacfe274	-0.0015860335
117	0xbb43d64c	-0.002988237
118	0xbb330050	-0.0027313419
119	0x3b1ee14d	0.0024243176
120	0x3b676ca0	0.0035312548
121	0x3856003a	5.1021787e-05
122	0x39473e7e	0.00019001399
123	0xbb2f06e9	-0.0026707
124	0x3d0fff8d	0.03515582
125	0xbcd0ba90	-0.025479585
126	0x3b050c52	0.0020301533
127	0x3bc16aa0	0.0059026033

std.constant9 f4 [128]
0	0x3f800000	1.0
1	0x3f800000	1.0
2	0x3f800000	1.0
3	0x3f800000	1.0
4	0x3f800000	1.0
5	0x3f800000	1.0
6	0x3f800000	1.0
7	0x3f800000	1.0
8	0x3f800000	1.0
9	0x3f800000	1.0
10	0x3f800000	1.0
11	0x3f800000	1.0
12	0x3f800000	1.0
13	0x3f800000	1.0
14	0x3f800000	1.0
15	0x3f800000	1.0
16	0x3f800000	1.0
17	0x3f800000	1.0
18	0x3f800000	1.0
19	0x3f800000	1.0
20	0x3f800000	1.0
21	0x3f800000	1.0
22	0x3f800000	1.0
23	0x3f800000	1.0
24	0x3f800000	1.0
25	0x3f800000	1.0
26	0x3f800000	1.0
27	0x3f800000	1.0
28	0x3f800000	1.0
29	0x3f800000	1.0
30	0x3f800000	1.0
31	0x3f800000	1.0
32	0x3f800000	1.0
33	0x3f800000	1.0
34	0x3f800000	1.0
35	0x3f800000	1.0
36	0x3f800000	1.0
37	0x3f800000	1.0
38	0x3f800000	1.0
39	0x3f800000	1.0
40	0x3f800000	1.0
41	0x3f800000	1.0
42	0x3f800000	1.0
43	0x3f800000	1.0
44	0x3f800000	1.0
45	0x3f800000	1.0
46	0x3f800000	1.0
47	0x3f800000	1.0
48	0x3f800000	1.0
49	0x3f800000	1.0
50	0x3f800000	1.0
51	0x3f800000	1.0
52	0x3f800000	1.0
53	0x3f800000	1.0
54	0x3f800000	1.0
55	0x3f800000	1.0
56	0x3f800000	1.0
57	0x3f800000	1.0
58	0x3f800000	1.0
59	0x3f800000	1.0
60	0x3f800000	1.0
61	0x3f800000	1.0
62	0x3f800000	1.0
63	0x3f800000	1.0
64	0x3f800000	1.0
65	0x3f800000	1.0
66	0x3f800000	1.0
67	0x3f800000	1.0
68	0x3f800000	1.0
69	0x3f800000	1.0
70	0x3f800000	1.0
71	0x3f800000	1.0
72	0x3f800000	1.0
73	0x3f800000	1.0
74	0x3f800000	1.0
75	0x3f800000	1.0
76	0x3f800000	1.0
77	0x3f800000	1.0
78	0x3f800000	1.0
79	0x3f800000	1.0
80	0x3f800000	1.0
81	0x3f800000	1.0
82	0x3f800000	1.0
83	0x3f800000	1.0
84	0x3f800000	1.0
85	0x3f800000	1.0
86	0x3f800000	1.0
87	0x3f800000	1.0
88	0x3f800000	1.0
89	0x3f800000	1.0
90	0x3f800000	1.0
91	0x3f800000	1.0
92	0x3f800000	1.0
93	0x3f800000	1.0
94	0x3f800000	1.0
95	0x3f800000	1.0
96	0x3f800000	1.0
97	0x3f800000	1.0
98	0x3f800000	1.0
99	0x3f800000	1.0
100	0x3f800000	1.0
101	0x3f800000	1.0
102	0x3f800000	1.0
103	0x3f800000	1.0
104	0x3f800000	1.0
105	0x3f800000	1.0
106	0x3f800000	1.0
107	0x3f800000	1.0
108	0x3f800000	1.0
109	0x3f800000	1.0
110	0x3f800000	1.0
111	0x3f800000	1.0
112	0x3f800000	1.0
113	0x3f800000	1.0
114	0x3f800000	1.0
115	0x3f800000	1.0
116	0x3f800000	1.0
117	0x3f800000	1.0
118	0x3f800000	1.0
119	0x3f800000	1.0
120	0x3f800000	1.0
121	0x3f800000	1.0
122	0x3f800000	1.0
123	0x3f800000	1.0
124	0x3f800000	1.0
125	0x3f800000	1.0
126	0x3f800000	1.0
127	0x3f800000	1.0

std.constant10 f4 [128]
0	0xbb550be6	-0.0032508313
1	0x3cbb56ab	0.022868475
2	0x3c068957	0.008211455
3	0x3e15c0fb	0.14624397
4	0x3ad5e6bd	0.0016319376
5	0x3d03f29f	0.032213803
6	0x3d16063a	0.036627032
7	0x3c4aadd7	0.012370548
8	0x3c5e6c89	0.0135756815
9	0x3d9a0fc6	0.0752254
10	0xbc66870d	-0.014070285
11	0x3d068764	0.032843962
12	0x3cd1c006	0.02560426
13	0xbc12aaa0	-0.008951813
14	0x3b24539d	0.0025074251
15	0x3bd1ee98	0.0064066164
16	0xba9488c2	-0.0011332261
17	0x3d9544ef	0.07288539
18	0xbbdd49de	-0.0067531904
19	0xbbbffae1	-0.0058587645
20	0x3c7ecabe	0.015551267
21	0x3dd7b5fb	0.10532757
22	0x3bad45fe	0.0052878847
23	0xbb8d4d50	-0.004312195
24	0xbb7f3faf	-0.003894787
25	0xbcae68e0	-0.021290243
26	0xbb804c33	-0.0039153337
27	0x3c904abd	0.017613763
28	0x3c96c3f7	0.01840399
29	0x3bcd1552	0.006258645
30	0x3d064a90	0.032785952
31	0x3cfc6f9f	0.030814944
32	0x3cfe8a4b	0.031071803
33	0x3cccc83d	0.024997825
34	0x3d0c3e01	0.03423882
35	0xbc585004	-0.013202671
36	0x3d160dbe	0.0366342
37	0xbbf0e1df	-0.0073511447
38	0x3c77ed59	0.015132272
39	0x3d44405b	0.047912937
40	0xbc56e3a1	-0.013115794
41	0x3b0a2de2	0.0021084477
42	0x3cd5a051	0.026077421
43	0xb9e64770	-0.00043922244
44	0x3a1cf667	0.00059876445
45	0x3d36841a	0.044559576
46	0x3c014099	0.007888936
47	0x3d34d569	0.044148836
48	0x3c54ddfa	0.012992376
49	0x3e007bd1	0.12547232
50	0x3d0dbd8a	0.034604587
51	0x3d31c415	0.04339989
52	0x3d29e3dc	0.04147707
53	0x3d7a9bd3	0.06118376
54	0x3dc98482	0.09839727
55	0x3d7d751e	0.06187927
56	0x3c865242	0.016396645
57	0x39dcb278	0.0004209464
58	0x3bd5fa92	0.0065301144
59	0x3d2f6d96	0.04282912
60	0x3cd46b72	0.02593014
61	0x3d368569	0.044560824
62	0x3c00b0a6	0.007854616
63	0x3e562ae0	0.20914793
64	0x3d17cb9c	0.03705941
65	0x3c260b9b	0.010134603
66	0x3ce312e7	0.027718974
67	0x3da8f053	0.08248963
68	0xbc67a490	-0.014138356
69	0x3b8a42e3	0.0042193993
70	0x3cc190e9	0.023628669
71	0x3d1fbdc1	0.038999323
72	0xbc229efc	-0.0099256
73	0x3d6f3161	0.0583967
74	0x3ca74373	0.020417904
75	0x3b644c7b	0.0034835625
76	0x3d8ec179	0.06970496
77	0x3d3ff3ed	0.046863485
78	0x3bdceb38	0.0067419074
79	0x3b7ca295	0.0038549055
80	0x3da9d9d3	0.082935
81	0x3c2b6fc1	0.010463656
82	0x3ce752cb	0.028237721
83	0x3d2fc975	0.042916734
84	0x3c8bc147	0.017059935
85	0x3cb4eac4	0.022084601
86	0x3cca183b	0.024669757
87	0xbb0973ab	-0.0020973484
88	0x3babd0b0	0.0052433833
89	0xba6493af	-0.00087195163
90	0x3d252910	0.040322363
91	0x3c0a299a	0.00843277
92	0x3e03d249	0.12873186
93	0x3d0b2fe2	0.03398121
94	0x3ce2e54c	0.027697228
95	0x3d12f3ff	0.035877224
96	0x3c43bd52	0.011946993
97	0x3d673032	0.056442447
98	0x3adf240f	0.0017024296
99	0x3b91e318	0.0044521205
100	0x3ccc85ef	0.024966208
101	0x3d78d3b1	0.06074876
102	0x3c566392	0.013085263
103	0x3d035a02	0.03206826
104	0x3d4d8d45	0.050183553
105	0x3c97ce0f	0.018530874
106	0x3c111963	0.00885615
107	0x3cd579e8	0.026059106
108	0x3bf3906f	0.0074329893
109	0x3cf47e02	0.029845241
110	0x3d17913f	0.03700375
111	0xbc988c5e	-0.01862162
112	0x3c1c99c5	0.009558146
113	0x3bcda65b	0.0062759346
114	0x3cbacbb2	0.022802208
115	0x3cea0695	0.028567592
116	0x3cea56d9	0.028605865
117	0x3d375b3a	0.044764735
118	0x3c9b1b28	0.018933848
119	0x3d4cfa8f	0.05004364
120	0x3ce06ba0	0.02739507
121	0x3cdb498a	0.026768465
122	0xbb80c26e	-0.003929428
123	0x3d08db11	0.033412043
124	0x3e04a559	0.129537
125	0x3cbbd1ce	0.022927191
126	0x3df3bcab	0.1190122
127	0xbc1b18b8	-0.009466343

std.constant11 f4 [128, 7]
0	0xbd8bef91	-0.06832803
1	0x3acb0f6c	0.0015492267
2	0xbd726134	-0.05917473
3	0x3c3d137b	0.011540289
4	0xbd8c55c1	-0.06852294
5	0xbd674e6b	-0.05647127
6	0xbcbd4f32	-0.023109052
7	0x3e0a1aa7	0.1348673
8	0xbc8f6b12	-0.01750711
9	0xbdcfa725	-0.10139302
10	0x3cf6348a	0.03005435
11	0x3caf6752	0.021411572
12	0x3c075ae9	0.008261421
13	0x3e326445	0.17421062
14	0x3dd3cfe4	0.10342386
15	0x3d0be120	0.034150243
16	0x3d9f0f1b	0.07766553
17	0x3d110041	0.035400633
18	0x3d34f9a8	0.044183403
19	0xbd262255	-0.040560085
20	0x3e09b8aa	0.1344935
21	0x3d0ac7fe	0.033882134
22	0x3d0d4bfd	0.034496296
23	0x3d2f7d83	0.042844307
24	0x3da081da	0.07837267
25	0xbb0cec74	-0.0021503242
26	0xbd4296b3	-0.047507
27	0x3d9cec16	0.07662217
28	0xbdb7da44	-0.08977178
29	0xbd92685c	-0.07148811
30	0xbc9e17ba	-0.019298423
31	0x3dab4c4c	0.08364162
32	0x3c6868b6	0.014185121
33	0xbd8f1759	-0.06986875
34	0xbb84082c	-0.0040292945
35	0x3da30e0b	0.07961663
36	0x3d0a6695	0.033789236
37	0x3daa5fef	0.08319079
38	0x3dcb17ab	0.09916624
39	0x3de05963	0.10954549
40	0x3ddad205	0.10684589
41	0x3ddaacec	0.106775135
42	0x3d89438c	0.06702337
43	0xbd82335d	-0.06357453
44	0x3d374eb2	0.044752784
45	0x3c8d2e38	0.017233953
46	0x3cdd0044	0.026977666
47	0xbd3c23e1	-0.045932654
48	0x3c3e30e1	0.011608333
49	0x3d4909da	0.04908166
50	0xbdb39de6	-0.08770351
51	0x3bd6c2a2	0.0065539638
52	0x3da34868	0.07972795
53	0xbda8e9b4	-0.082477
54	0xbd6a2189	-0.057160888
55	0x3d3113a9	0.04323164
56	0xbbf6b8ac	-0.007529339
57	0x3db8e9f2	0.090289965
58	0x3c7d9239	0.015476757
59	0x3d5111ce	0.05104237
60	0xbd449a78	-0.047998875
61	0x3d43691d	0.047707666
62	0x3e27c76e	0.1638467
63	0x3dd923c8	0.10602528
64	0x3d56b9ee	0.05242341
65	0xbcf59d11	-0.029982122
66	0x3d683841	0.056694273
67	0x3dea65d4	0.114452034
68	0x3d7635b9	0.060109828
69	0x3d605a7d	0.054773796
70	0xbda3e3c5	-0.08002428
71	0x3dc9af28	0.098478615
72	0xbdeabb78	-0.11461538
73	0x3c42ac82	0.011881949
74	0xbca9fa8c	-0.020749353
75	0xbd0c7cb1	-0.034298602
76	0x3deb7845	0.11497549
77	0x3c17ae46	0.009257859
78	0x3d18f25a	0.0373405
79	0x3db7da8e	0.08977233
80	0x3dccf8ec	0.100084156
81	0x3c1ab217	0.009441874
82	0x3d8d5d1e	0.06902526
83	0x3bafa099	0.005359721
84	0x3db71cd9	0.08941049
85	0x3d329df2	0.04360766
86	0x3cddb2e1	0.027062835
87	0xbd9cff15	-0.076658405
88	0xbce971a6	-0.028496575
89	0xb92cec41	-0.0001649121
90	0x3d0c328b	0.03422789
91	0xbdb0be86	-0.086300895
92	0x3c070f73	0.0082434295
93	0xbd486d9b	-0.048932653
94	0x3d05d9d4	0.03267844
95	0x3d5b2f7a	0.053512074
96	0xbc617255	-0.013760169
97	0x3d112cb4	0.035443023
98	0xbd076227	-0.03305259
99	0xbc8af42a	-0.01696213
100	0x3d8f7b55	0.070059456
101	0x3d030879	0.031990502
102	0xbdaf47b0	-0.08558595
103	0xbd788505	-0.060673732
104	0xbbe57012	-0.007001885
105	0x3d8314fc	0.06400487
106	0x3c2a7007	0.010402686
107	0x3cbf365a	0.023341347
108	0x3d6880f5	0.056763608
109	0xbd77fbb2	-0.06054277
110	0xbb8ef2ff	-0.0043624635
111	0x3e0cc20b	0.13745897
112	0xbdc53e6a	-0.09631045
113	0x3bdfd1a2	0.00683041
114	0xbdd386df	-0.10328459
115	0x3d7be15b	0.061494213
116	0x3dc4d5c4	0.09611085
117	0xbcabbbf2	-0.020963643
118	0x3e19223d	0.14954467
119	0x3d5ad6fc	0.05342768
120	0xbd72d396	-0.059283815
121	0x3c7b0504	0.01532102
122	0x3d969280	0.073521614
123	0x3a805ddc	0.0009793597
124	0xbd9a04da	-0.075204566
125	0xbd83227f	-0.06403064
126	0xbd9998d4	-0.07499853
127	0x3d8a2740	0.067457676
128	0xbd6c1fe5	-0.057647604
129	0xbd04bced	-0.032406736
130	0xbd2d6d22	-0.042340405
131	0x3dbaac96	0.091149494
132	0xbd184f09	-0.03718475
133	0x3b3b0c67	0.0028541328
134	0x3d9b6e2d	0.07589374
135	0x3da5accb	0.08089598
136	0x3bc3b728	0.0059727617
137	0x3d2ae39b	0.041720968
138	0x3c979a93	0.018506324
139	0x3cbd2232	0.023087595
140	0x3d94c8d0	0.072648644
141	0x3d302c41	0.043010954
142	0x3d8045a3	0.06263282
143	0x3d75fbbd	0.06005453
144	0x3dc2b829	0.09507782
145	0xbdabbc47	-0.083855204
146	0x3ba68239	0.0050814417
147	0x3d68fea8	0.056883484
148	0xbbccb28a	-0.0062468695
149	0xbc7dbafc	-0.015486475
150	0x3e0e665b	0.13906233
151	0x3d72a0e1	0.059235457
152	0x3dae9f2e	0.08526455
153	0xbb88ee49	-0.0041787964
154	0x3db2dcd9	0.087335296
155	0x3d1fed9c	0.03904496
156	0x3d8b5294	0.0680286
157	0x3d9a2a05	0.07527546
158	0x3d3276a3	0.043570172
159	0x3d1eb3e6	0.038745783
160	0x3e206b09	0.1566583
161	0xbd9b2a05	-0.07576374
162	0x3dd23ca1	0.1026547
163	0xbd2b55a8	-0.041829735
164	0xbdb9d35b	-0.09073516
165	0x3c8f8413	0.017519033
166	0xbd4b75c6	-0.049672864
167	0x3da46659	0.08027334
168	0xbdb090a4	-0.08621338
169	0x3d803210	0.06259549
170	0xbc74677c	-0.014917251
171	0x3d9e279a	0.07722397
172	0x3d16e93a	0.036843516
173	0x3d0cd0d8	0.034378856
174	0x3d53553a	0.05159495
175	0xbde3405c	-0.1109626
176	0xbcc91933	-0.024548149
177	0xbda83cbe	-0.08214711
178	0xbdc0b2b6	-0.094090864
179	0x3d324b16	0.04352864
180	0xbd2b395a	-0.04180274
181	0xbd298838	-0.041389674
182	0xbd9351db	-0.07193347
183	0x3d5bdf60	0.053679824
184	0x3ba4a335	0.0050243386
185	0xbd01609a	-0.031586267
186	0xbd87b416	-0.066261455
187	0xbcc16d54	-0.023611702
188	0x3d57c569	0.0526785
189	0x3d1e3136	0.03862115
190	0x3dbde8b6	0.09272902
191	0xbcd2e0cb	-0.025741955
192	0x3ceb8dfa	0.028754223
193	0x3c27b5fc	0.01023626
194	0x3d681881	0.056663994
195	0x3e20738b	0.15669076
196	0x3d408876	0.04700514
197	0xbd29d5c0	-0.041463614
198	0xbcf24966	-0.029576015
199	0xbd42217e	-0.047395222
200	0x3dc27ac9	0.09496076
201	0x3dc1595d	0.09440873
202	0xbcaef252	-0.021355782
203	0xbdd6fbdb	-0.10497256
204	0xbd1f1098	-0.038834184
205	0x3da660a8	0.081239045
206	0xbdac2dd2	-0.08407177
207	0xbdafe7f7	-0.08589166
208	0x3d5a236c	0.053256437
209	0xbdd36019	-0.103210635
210	0x3d0176da	0.031607486
211	0xbbbeea78	-0.0058262907
212	0x3b6a97fe	0.003579616
213	0xbd34297f	-0.043984886
214	0x3dd68c8d	0.10476027
215	0xbd48aa3b	-0.04899047
216	0xbc704d8d	-0.014666927
217	0xbd08fc81	-0.03344393
218	0xbd9b9b96	-0.07598035
219	0xbd1dba28	-0.03850761
220	0xbda6b10e	-0.08139239
221	0xbd772c39	-0.06034491
222	0x3d830a24	0.063984185
223	0x3dcf0bb9	0.10109658
224	0xbd0ec734	-0.034857944
225	0x3d511513	0.05104549
226	0x3d858b60	0.06520724
227	0x3dc9a981	0.098467834
228	0xbd79890e	-0.06092172
229	0x3ddab3a3	0.10678794
230	0x3d03932e	0.032122783
231	0x3de88bbb	0.113547765
232	0x3dc82f95	0.097747006
233	0xbc1bdeaf	-0.009513541
234	0x3dc27be7	0.09496289
235	0x3d90929c	0.070592135
236	0xbd100edc	-0.03517042
237	0x3de72635	0.11286584
238	0x3d68b02b	0.056808632
239	0xbc553184	-0.013012294
240	0xbc406303	-0.011742356
241	0xbd32150a	-0.043477096
242	0xbd950c98	-0.07277793
243	0x3d473be3	0.048641097
244	0xbcdf97e2	-0.027294103
245	0x3da80bf1	0.08205403
246	0x3c845ea6	0.016158413
247	0x3dcbd203	0.09952166
248	0x3d878911	0.0661794
249	0x3c9330ca	0.0179676
250	0x3c8833a4	0.016626187
251	0xbd0d9514	-0.034566
252	0x3d4e70f0	0.050400674
253	0x3e0a61a1	0.13513805
254	0x3ddfed42	0.10933925
255	0x3d791249	0.060808454
