AirQualityApp/AirQualityApp.Android/Assets/WarsawShort.tflite (tflite, 814936 bytes, 24 tensors)

std.constant3 f4 [128, 128]
0.009195628 -0.014786555 -0.05965164 0.051770307 0.030812396 0.046000052 -0.04908128 0.052885152
0.019258482 -0.057792 0.06766392 -0.02702342 0.028122745 -0.018044053 -0.048463386 0.0096468525
-0.013089208 0.03716254 -0.08188821 -0.020712487 0.051758267 -0.033140786 0.067838 0.020471685
-2.5155023e-05 -0.019944072 -0.012525537 0.042017408 -0.0064572226 0.01633612 -0.085024394 -0.0499163
-0.026220033 -0.0050079813 0.040526867 -0.0082329605 -0.029825835 -0.03714112 -0.03662124 0.054770507
-0.08624829 -0.031192226 0.04033169 -0.01947432 0.023426877 -0.037634842 0.0037607718 0.027576292
0.010239026 -0.008954357 0.044985805 -0.03014771 -0.022810318 -0.016008388 -0.030510638 0.007917824
-0.016576182 0.008242614 0.002822897 0.0040868474 0.066814035 -0.048356254 -0.02589067 -0.07591308
0.024760224 -0.042528093 -0.00012576021 -0.07410564 -0.05469834 -0.028061677 -0.03262116 0.040399846
-0.07488921 -0.03953789 -0.010418374 0.04443426 0.04390007 0.019211916 -0.05596068 -0.046200596
0.059819713 -0.0039066793 0.043914735 0.010258021 -0.045054417 -0.012709165 -0.01755729 -0.06906443
0.091042146 0.026046056 -0.0081712855 0.057739794 0.0041091833 -0.032340854 0.036937743 -0.048629712
-0.105165854 -0.012836997 -0.022779696 -0.07659971 -0.0008012499 0.046746947 -0.018575566 0.034815643
-0.07959313 -0.009478381 0.03928705 -0.044454414 0.064553216 -0.030247338 -0.017673653 -0.03657715
0.067754805 0.06732142 0.0845865 -0.03392781 0.010937756 -0.07664106 -0.018175643 -0.044795975
-0.0035208613 -0.028336508 0.05903886 -0.024335131 -0.035871126 -0.067132264 -0.018755993 0.015711803
0.005531314 -0.02020729 0.026183689 0.008321118 0.026402412 -0.006554149 -0.005489704 0.039077338
0.025978966 -0.036799014 0.07659858 0.06492242 0.008467304 0.04355345 -0.06424836 0.07023897
-0.0019508544 -0.05421131 0.04942066 -0.008013944 0.06711518 -0.01782487 0.0034155264 0.006128148
-0.0058436855 0.014486563 0.026886186 -0.02153658 -0.048712626 -0.04348224 0.07323869 -0.028760882
0.07801492 -0.015179984 0.024136448 0.06572466 -0.028568404 -0.027192123 -0.039551318 -9.5193274e-05
0.06590408 -0.053389233 -0.018565767 0.027094968 -0.007844243 0.026133547 0.0580592 0.050822005
-0.046719432 0.011171151 -0.005630044 -0.04944463 -0.08962668 -0.016395358 0.0010228143 -0.004905954
0.064602554 0.0046501374 -0.039973963 -0.01825232 0.043096244 0.0471682 0.051010944 0.048012797
0.08483815 0.008795814 -0.051809426 0.0078099538 0.035424486 -0.05236938 0.005721471 0.051961403
-0.050640423 0.011200339 -0.04405711 -0.0503043 0.002090998 -0.040197045 -0.063428044 0.06150618
0.013647261 0.022134598 0.09559692 -0.043385655 0.022581343 0.08814876 -0.018738702 -0.04643488
-0.0064312126 -0.030761253 0.07232206 -0.07816519 0.04795958 -0.059276443 0.09850124 -0.00037026033
-0.05126365 0.05925376 -0.06382075 0.039837353 0.0028338516 0.047474362 0.007917667 -0.018878257
-0.043997586 -0.08188127 0.034675203 0.07158854 0.030655412 0.025056122 -0.025957206 0.015076016
0.020113673 -0.03339407 -0.0061519546 0.007602576 -0.0038680434 0.0135472845 -0.08933157 -0.032156713
-0.045818906 0.02215049 0.04935104 -0.013214648 -0.08980132 0.035216074 0.07088757 -0.007857351
00000000: 42a9 163c 4f43 72bc 4755 74bd 1a0d 543d
00000010: 476a fc3c 8d6a 3c3d 7409 49bd 1a9e 583d
00000020: f7c3 9d3c 4eb7 6cbd 6293 8a3d 3860 ddbc
00000030: ac61 e63c 1fd1 93bc 8b81 46bd d50d 1e3c
00000040: 1e74 56bc bf37 183d 01b5 a7bd 3cad a9bc
00000050: 7a00 543d a2be 07bd a6ee 8a3d 3cb4 a73c
00000060: 0004 d3b7 c061 a3bc e937 4dbc 721a 2c3d
00000070: 1c97 d3bb 54d3 853c 4521 aebd 0975 4cbd
00000080: 65cb d6bc fe19 a4bb 80ff 253d 8ae3 06bc
00000090: 4f55 f4bc 4921 18bd 2700 16bd 0a57 603d
000000a0: f2a2 b0bd d786 ffbc d832 253d 9c88 9fbc
000000b0: b9e9 bf3c fe26 1abd 4877 763b ade7 e13c
000000c0: 96c1 273c 4cb5 12bc 0943 383d 55f8 f6bc
000000d0: b4dc babc 0624 83bc 72f1 f9bc c3b9 013c
000000e0: c6ca 87bc 070c 073c 5a00 393b f6ea 853b
000000f0: ccd5 883d 3511 46bd ac18 d4bc 5178 9bbd
00000100: f4d5 ca3c f031 2ebd 80de 03b9 b3c4 97bd
00000110: 5e0b 60bd 9ae1 e5bc c49d 05bd 4f7a 253d
00000120: 845f 99bd 7cf2 21bd d4b1 2abc b300 363d
00000130: 8fd0 333d 4f62 9d3c 0737 65bd d63c 3dbd
00000140: 8405 753d 9a03 80bb f0df 333d 4211 283c
00000150: fb8a 38bd 1a3a 50bc 4ed4 8fbc a771 8dbd
00000160: 4e74 ba3d 8a5e d53c dbe0 05bc 9080 6c3d
00000170: 54a6 863b d877 04bd 084c 173d f32f 47bd
00000180: 3261 d7bd 4552 52bc 7c9c babc 4fe0 9cbd
00000190: f80a 52ba ba79 3f3d c92b 98bc d99a 0e3d
000001a0: b901 a3bd 364b 1bbc 75eb 203d d515 36bd
000001b0: 7a34 843d 44c9 f7bc 56c8 90bc ecd1 15bd
000001c0: 08c3 8a3d d0df 893d b03b ad3d e3f7 0abd
000001d0: 4634 333c fdf5 9cbd 16e5 94bc fc7b 37bd
000001e0: 40be 66bb f721 e8bc bbd2 713d 785a c7bc
000001f0: 9aed 12bd a47c 89bd 2ba6 99bc 0ab6 803c
00000200: 0640 b53b c289 a5bc 2d7f d63c 4c55 083c
00000210: df49 d83c 30c4 d6bb fae2 b3bb 8f0f 203d
00000220: d7d1 d43c 90ba 16bd b7df 9c3d 0cf6 843d
00000230: 72ba 0a3c 1a65 323d a594 83bd 73d9 8f3d
00000240: d0b3 ffba ae0c 5ebd 516d 4a3d eb4c 03bc
00000250: af73 893d 7605 92bc 06d7 5f3b a2ce c83b
00000260: 637c bfbb 0d59 6d3c 6b40 dc3c 7b6d b0bc
00000270: e486 47bd 6f1a 32bd 2bfe 953d f19b ebbc
00000280: 49c6 9f3d 78b5 78bc cdb9 c53c a79a 863d
00000290: 4908 eabc 04c2 debc 9000 22bd 80a2 c7b8
000002a0: b8f8 863d abae 5abd 3c17 98bc 44f6 dd3c
000002b0: 2485 00bc 0516 d63c 7ccf 6d3d bc2a 503d
000002c0: e05c 3fbd 3407 373c 3b7c b8bb 7486 4abd
000002d0: 318e b7bd 8f4f 86bc f40f 863a 20c2 a0bb
000002e0: 584e 843d 2e60 983b bdbb 23bd e485 95bc
000002f0: b085 303d 7133 413d daf0 503d 11a9 443d
00000300: a0bf ad3d 511c 103c 1f36 54bd a4ea ff3b
00000310: 4419 113d 4681 56bd 2d7b bb3b 7bd5 543d
00000320: 556c 4fbd a081 373c 3a75 34bd e20b 4ebd
00000330: 2009 093b a8a5 24bd 90e6 81bd e7ed 7b3d
00000340: c398 5f3c 9e53 b53c 51c8 c33d 28b5 31bd
00000350: 82fc b83c 5687 b43d e881 99bc 8032 3ebd
00000360: ecbc d2bb 06ff fbbc 971d 943d 1215 a0bd
00000370: 4471 443d dbcb 72bd 05bb c93d 801f c2b9
00000380: d5f9 51bd 12b4 723d 74b4 82bd 7e2c 233d
00000390: 24b8 393b 7a74 423d 1ab9 013c 93a6 9abc
000003a0: d036 34bd 5eb1 a7bd 9607 0e3d 039d 923d
000003b0: 0f21 fb3c 7f42 cd3c 35a4 d4bc 6501 773c
000003c0: 6ec5 a43c 38c8 08bd 5696 c9bb 081f f93b
000003d0: 007f 7dbb 6ef5 5d3c 78f3 b6bd c2b6 03bd
000003e0: 9bac 3bbd f274 b53c 5124 4a3d 4082 58bc
000003f0: c1e9 b7bd bb3e 103d 812d 913d 1ebc 00bc

std.constant4 f4 [128, 128]
-0.009605382 -0.07616649 0.022619467 0.06951212 -0.08966218 0.016175732 -0.07410211 -0.09016575
0.013128094 -0.0072298446 0.07643194 -0.064423844 0.070678666 0.097646475 0.053875595 0.03539364
-0.022815116 -0.02565697 0.026955768 0.008212368 0.0016494663 -0.006729206 -0.081534356 -0.030273102
-0.023601567 0.051720917 -0.005846452 -0.064963564 -0.009844308 -0.01465137 -0.09003728 0.020985125
0.012427509 0.028906215 -0.060054723 -0.017033786 0.0032529398 -0.028814048 0.084222056 0.008695515
0.0024811092 -0.006813688 0.034093827 0.001115452 -0.0017284751 -0.020914657 -0.018918123 0.024569128
-0.012979753 0.021414552 0.012210107 0.060205705 0.03393301 0.03739281 0.005337951 -0.02036146
0.057587408 -0.010044811 -0.008053707 0.048365172 -0.061940324 -0.102884755 0.03360844 -0.0064060455
-0.078642465 0.024082242 -0.034001518 -0.0039706165 -0.017117403 -0.018393703 -0.029966474 -0.031070955
-0.010843965 -0.02984956 0.0166694 0.024562683 -0.00783094 0.04741668 -0.05315377 -0.024256324
-0.027033469 -0.063495114 -0.043295823 0.048739474 0.10665203 -0.016690452 -0.073466875 -0.012540001
0.04719351 0.0033617765 0.0013306472 -0.021457773 0.06748427 -0.03937634 0.015743982 0.047310807
0.0062800664 -0.02002269 -0.043701522 -0.051181275 0.00013284758 0.03956894 -0.0063674995 -0.051909864
0.006531192 -0.0031184307 0.059406657 -0.0035470799 -0.030306201 0.07859265 0.026227009 0.026963895
0.051239207 0.0048691425 0.0175888 -0.024469173 -0.058785338 0.088433474 0.045318197 -0.040821433
0.031229693 0.016829705 0.029863272 -0.04241893 0.019587139 0.013721184 0.0363843 0.02029865
0.04028789 -0.008627265 -0.012589375 -0.034550946 0.03419025 0.013513685 0.064089574 -0.031512186
0.015204392 0.0057606166 -0.022354666 -0.029757932 0.14542522 -0.04278621 -0.0015461352 -0.0068751937
-0.0894508 -0.058891848 0.06924216 -0.018163642 -0.05754498 -0.0035830876 0.02306069 -0.007504563
-0.061455186 0.034675665 -0.011870258 -0.021338115 0.019244786 -0.09761871 0.011164231 0.06331206
0.12092344 -0.018763972 0.010562472 0.0015785256 -0.037218265 0.029068151 0.020737909 -0.058210548
0.020686053 0.008365045 -0.0076730372 -0.035038516 -0.069076255 -0.07289373 -0.019514883 -0.0098991515
0.05538276 0.050522976 -0.021200946 -0.034495283 -0.06927951 0.02165884 -0.034200817 -0.035477802
0.12689553 0.01915915 -0.09309321 0.0075390483 0.050567474 0.043181922 -0.043915927 -0.08205876
-0.0019964976 -0.07410982 0.01466829 0.0475461 -0.00842769 0.013226379 -0.00349538 0.03755055
0.038117588 -0.005279171 -0.015666576 0.011709736 0.02467513 0.0019026743 -0.008401681 -0.091246
-0.02343365 0.022920018 -0.028123371 -0.08844102 0.016220551 0.056539975 -0.045433655 0.0261726
-0.004695735 -0.07708801 -0.009943008 -0.016626373 -0.004120485 -0.019750569 0.07184555 0.010184914
0.009640586 0.008211276 0.046918068 -0.021578658 -0.053099237 0.029474866 -0.07427756 -0.025923535
-0.04643537 0.059884094 0.06499307 0.079028375 0.106339335 -0.040084142 -0.010751233 -0.0340326
-0.0072816005 -0.019913653 0.011008166 -0.068790585 -0.06167838 -0.021910606 0.016059041 -0.0847117
-0.08468737 0.048754975 -0.016621869 -0.016594458 -0.025267843 0.08398422 0.03992535 -0.046693273
00000000: e45f 1dbc 2dfd 9bbd 764c b93c 5f5c 8e3d
00000010: cea0 b7bd f882 843c d9c2 97bd d2a8 b8bd
00000020: 3817 573c 55e8 ecbb 5988 9c3d a6f0 83bd
00000030: fabf 903d e0fa c73d a8ac 5c3d ecf8 103d
00000040: c4e6 babc 912e d2bc 58d2 dc3c 2b8d 063c
00000050: e832 d83a ac80 dcbb 7cfb a6bd 4cff f7bc
00000060: 1358 c1bc 50d9 533d 9893 bfbb 9e0b 85bd
00000070: 054a 21bc 4d0c 70bc 7765 b8bd ffe8 ab3c
00000080: c09c 4b3c bacc ec3c f1fb 75bd 708a 8bbc
00000090: 462f 553b 700b ecbc 9d7c ac3d a277 0e3c
000000a0: 1b9a 223b 5c45 dfbb f8a5 0b3d 5c34 923a
000000b0: 008e e2ba 3755 abbc 2efa 9abc 3245 c93c
000000c0: 08a9 54bc 926d af3c e70c 483c 429a 763d
000000d0: 57fd 0a3d 3429 193d fae9 ae3b 14cd a6bc
000000e0: c6e0 6b3d fe92 24bc b2f3 03bc 8f1a 463d
000000f0: 23b5 7dbd 3eb5 d2bd 01a9 093d cee9 d1bb
00000100: 4d0f a1bd 1f48 c53c 2d45 0bbd f21b 82bb
00000110: cc39 8cbc 64ae 96bc 407c f5bc 8488 febc
00000120: e3aa 31bc 1087 f4bc 448e 883c ae37 c93c
00000130: 584d 00bc fe37 423d c4b7 59bd 33b5 c6bc
00000140: 4b75 ddbc ba09 82bd f656 31bd 0ba3 473d
00000150: 616c da3d 6aba 88bc cd75 96bd 9474 4dbc
00000160: fb4d 413d 4051 5c3b 1c69 ae3a 36c8 afbc
00000170: 3135 8a3d 1649 21bd 86f9 803c fac8 413d
00000180: 04c9 cd3b a006 a4bc 5e00 33bd 75a3 51bd
00000190: 004d 0b39 0a13 223d 75a6 d0bb 709f 54bd
000001a0: 9c03 d63b 965e 4cbb 6554 733d 2076 68bb
000001b0: b644 f8bc 2ff5 a03d 06da d63c 63e3 dc3c
000001c0: 34e0 513d 548d 9f3b 6316 903c 9373 c8bc
000001d0: e5c8 70bd 9c1c b53d 939f 393d 6034 27bd
000001e0: 6ad5 ff3c 73de 893c d2a3 f43c 79bf 2dbd
000001f0: 3575 a03c d1ce 603c b407 153d 5b49 a63c
00000200: ea04 253d 5f59 0dbc aa43 4ebc 4b85 0dbd
00000210: 130b 0c3d 8168 5d3c 6541 833d ec12 01bd
00000220: d81b 793c 8ec3 bc3b 2221 b7bc e8c6 f3bc
00000230: 59ea 143e 9840 2fbd b0a7 caba 4e49 e1bb
00000240: fb31 b7bd 9438 71bd d5ce 8d3d ebcb 94bc
00000250: 49b4 6bbd 3cd2 6abb c6e9 bc3c d6e8 f5bb
00000260: 6fb8 7bbd 1208 0e3d 787b 42bc 45cd aebc
00000270: 3ea7 9d3c 51ec c7bd 2eea 363c c1a9 813d
00000280: b5a6 f73d e7b6 99bc 380e 2d3c 88e6 ce3a
00000290: 2e72 18bd 5520 ee3c 8ce2 a93c 2f6e 6ebd
000002a0: cc75 a93c 8b0d 093c 1a6e fbbb 8c84 0fbd
000002b0: da77 8dbd 4f49 95bd addd 9fbc 0d30 22bc
000002c0: 08d9 623d 2ef1 4e3d 9bad adbc ed4a 0dbd
000002d0: 6ae2 8dbd e16d b13c 2816 0cbd 2c51 11bd
000002e0: e7f0 013e a6f3 9c3c a7a7 bebd 1f0a f73b
000002f0: d71f 4f3d 87df 303d 30e1 33bd 6c0e a8bd
00000300: acd7 02bb e4c6 97bd 4453 703c b3bf 423d
00000310: 4b14 0abc 74b3 583c bf12 65bb 9bce 193d
00000320: 3021 1c3d e5fc acbb 3157 80bc 31da 3f3c
00000330: 8023 ca3c 2863 f93a 34a7 09bc 2fdf babd
00000340: edf7 bfbc c3c2 bb3c fc62 e6bc 9120 b5bd
00000350: f6e0 843c 7696 673d a418 3abd ec67 d63c
00000360: aede 99bb 52e0 9dbd 00e8 22bc 0834 88bc
00000370: 2205 87bb f2cb a1bc c223 933d a0de 263c
00000380: 8cf3 1d3c 9688 063c 292d 403d bac5 b0bc
00000390: 967e 59bd 4675 f13c d51e 98bd 985d d4bc
000003a0: 0433 3ebd 0649 753d 161b 853d a1d9 a13d
000003b0: 70c8 d93d 452f 24bd f125 30bc c465 0bbd
000003c0: 7e9a eebb f521 a3bc 985b 343c 14e2 8cbd
000003d0: 78a2 7cbd df7d b3bc 408e 833c 547d adbd
000003e0: 9270 adbd 4cb3 473d 962a 88bc 1af1 87bc
000003f0: 82fe cebc ebff ab3d c488 233d 7241 3fbd

std.constant5 f4 [128, 128]
0.038126722 -0.040314987 -0.00653664 0.0872138 0.03505055 -0.028075648 0.006603229 -0.047664464
0.016852159 0.06935849 -0.018513389 0.021620834 0.08821078 -0.110108234 -0.059184134 0.033969108
-0.058869682 0.0401283 0.013291224 -0.06874262 0.031367842 0.07142496 -0.009689988 -0.03164475
0.047444884 0.034004543 0.04324565 -0.0015527736 -0.006633668 -0.10349748 0.0050324416 -0.04475025
0.030035054 -0.046571117 0.012863377 0.023682745 0.036295686 0.04814934 0.0033850614 -0.018621571
-0.02904774 0.06954658 -0.0037849075 -0.04437852 -0.069573864 0.107067384 0.011769382 -0.037484005
-0.06894067 -0.042397767 0.015154101 -0.022413922 -0.09740342 0.092890605 0.041186146 0.06664188
-0.06833485 0.0055471566 -0.05116001 -0.04504447 0.028284915 -0.022001801 0.03171976 0.006467539
0.051303573 -0.016940229 0.029030517 0.0032491088 -0.07477094 0.0015588328 0.03070238 0.040458098
0.009698169 -0.10498821 0.01800284 0.0071936203 0.03211959 -0.01570803 -0.006897939 0.109142005
0.06143332 -0.008601961 -0.0058132336 0.032098185 0.001736246 0.057672516 -0.045911852 0.013392525
0.020336945 -0.0036182832 -0.032389287 0.06673685 -0.011573665 0.006009653 0.02055042 0.04963448
0.012275203 0.034647442 0.051994823 -0.03579054 0.011943371 -0.017191306 0.06771779 0.0116287675
0.09174114 0.014061217 0.05545233 -0.025868043 0.02583694 -0.014208717 -0.022087112 0.024494149
-0.01900392 0.08564183 0.034513395 -0.014762593 -0.003092392 -0.011824399 -0.004481777 0.061560072
-0.05124051 0.015093459 -0.02735348 -0.003290195 -0.03329719 0.037104435 -0.036469348 0.05322504
0.05383558 -0.06793495 0.069423676 0.001873483 -0.060325317 -0.012958264 -0.039829694 0.015782759
0.016424088 -0.02027094 0.101549305 0.011809099 0.015683105 -0.023172071 -0.03084667 0.042651575
-0.008829377 0.03798101 0.06419486 0.005384659 -0.10192098 0.04072793 0.0151462825 0.03291928
0.039652683 0.013474134 -0.07182841 -0.03450814 -0.051933464 0.006526712 -0.009898445 -0.007165895
0.04389995 0.0055643083 0.062743396 -0.05648513 0.004386017 0.06159401 0.060854863 -0.06485883
0.018089732 -0.021257691 0.028098062 0.011045113 0.07312839 -0.06378697 0.03245292 0.03148214
-0.0070955744 -0.058266766 -0.08026684 -0.03346372 -0.03198415 -0.021053366 -0.05957684 0.015047641
-0.0071926774 0.021620274 -0.032663666 0.0064504426 0.040512364 0.037493516 0.03250755 0.019750353
0.04182396 -0.033661958 0.024069078 0.004625744 0.05240772 -0.00024378486 0.09332825 -0.022161368
0.007254796 -0.03497807 0.03659583 -0.0560247 0.010172202 -0.015588028 0.013150515 -0.033292737
-0.005737841 -0.008444021 -0.081135064 -0.0072535146 -0.034721013 -0.0147479 -0.04615953 0.0027887616
0.028779356 0.05360274 -0.06912732 0.008647779 0.039974447 -0.0037648184 0.038042143 0.018502546
-0.0007749591 0.019224826 0.002750921 0.021893216 0.03274914 0.011894999 -0.0211876 0.009569445
0.119221926 -0.0040021287 -0.027408104 0.013212409 -0.08675916 -0.025050692 0.05476083 -0.05419912
-0.03782902 0.030966774 0.078023195 -0.0132569745 0.035140842 0.058968265 0.016719177 -0.040812444
-0.017607223 0.08799961 -0.0035984954 0.015500605 -0.039418086 -0.037189145 -0.020697655 -0.062654
00000000: c42a 1c3d 5421 25bd 5031 d6bb 269d b23d
00000010: 2a91 0f3d e7fe e5bc e65f d83b d03b 43bd
00000020: 8a0d 8a3c d30b 8e3d 64a9 97bc 2d1e b13c
00000030: daa7 b43d 6d80 e1bd 106b 72bd 3123 0b3d
00000040: 5621 71bd 935d 243d 6fc3 593c eec8 8cbd
00000050: 917b 003d 4047 923d c1c2 1ebc ed9d 01bd
00000060: 9155 423d 5948 0b3d 5a22 313d 7086 cbba
00000070: 3e5f d9bb 7df6 d3bd 2ee7 a43b 0a4c 37bd
00000080: 130c f63c 5bc1 3ebd eac0 523c 5102 c23c
00000090: c9aa 143d 3e38 453d e8d7 5d3b 448c 98bc
000000a0: 87f5 edbc 706e 8e3d 360c 78bb 40c6 35bd
000000b0: be7c 8ebd 2546 db3d 5ed4 403c d488 19bd
000000c0: c430 8dbd 48a9 2dbd e848 783c 679d b7bc
000000d0: 727b c7bd 6e3d be3d ceb2 283d 8a7b 883d
000000e0: 24f3 8bbd ecc4 b53b 298d 51bd 8d80 38bd
000000f0: c4b5 e73c 1f3d b4bc 94ec 013d a6ed d33b
00000100: b223 523d 3cc6 8abc 68d1 ed3c 00ef 543b
00000110: 8221 99bd c051 cc3a 8f83 fb3c 64b7 253d
00000120: 12e5 1e3c 0f04 d7bd b17a 933c 76b8 eb3b
00000130: d58f 033d 20ae 80bc 1b08 e2bb d885 df3d
00000140: 81a1 7b3d 3def 0cbc f07c bebb 6379 033d
00000150: c092 e33a 043a 6c3d 110e 3cbd 526c 5b3c
00000160: aa99 a63c b820 6dbb a1aa 04bd 54ad 883d
00000170: 789f 3dbc a0ec c43b 5b59 a83c 864d 4b3d
00000180: ef1d 493c 7aea 0d3d 86f8 543d 1a99 12bd
00000190: 21ae 433c c8d4 8cbc a0af 8a3d 9686 3e3c
000001a0: c7e2 bb3d 0561 663c fb21 633d 38e9 d3bc
000001b0: fea7 d33c aecb 68bc 08f0 b4bc f4a7 c83c
000001c0: 1cae 9bbc fc64 af3d eb5d 0d3d cede 71bc
000001d0: bba9 4abb 20bb 41bc dfdb 92bb 6a26 7c3d
000001e0: 92e1 51bd 8e4a 773c 6814 e0bc 50a0 57bb
000001f0: a262 08bd d2fa 173d e260 15bd 8002 5a3d
00000200: b282 5c3d 7b21 8bbd 002e 8e3d a88f f53a
00000210: ae17 77bd e64e 54bc 7624 23bd d84a 813c
00000220: cf8b 863c 3e0f a6bc 15f9 cf3d f47a 413c
00000230: db79 803c 5bd3 bdbc 28b2 fcbc 6bb3 2e3d
00000240: 17a9 10bc fa91 1b3d 9878 833d cb71 b03b
00000250: f2bb d0bd 54d2 263d 1d28 783c 5ed6 063d
00000260: da6a 223d 9dc2 5c3c c61a 93bd 6858 0dbd
00000270: 2fb8 54bd 07de d53b 162d 22bc e2cf eabb
00000280: 6fd0 333d cd54 b63b 9c7f 803d f45c 67bd
00000290: 94b8 8f3b 004a 7c3d f342 793d b5d4 84bd
000002a0: eb30 943c 9c24 aebc e82d e63c 90f6 343c
000002b0: 56c4 953d bea2 82bd 5aed 043d 6bf3 003d
000002c0: fe81 e8bb 22a9 6ebd f162 a4bd 4111 09bd
000002d0: d001 03bd 1c78 acbc d806 74bd 618a 763c
000002e0: 8db0 ebbb 001d b13c 56ca 05bd 3c5e d33b
000002f0: 4bf0 253d cd92 193d a326 053d 7ecb a13c
00000300: 9a4f 2b3d 1fe1 09bd 842c c53c 8e93 973b
00000310: 7aa9 563d 80a0 7fb9 e222 bf3d c28b b5bc
00000320: a4b9 ed3b 2a45 0fbd 82e5 153d 287a 65bd
00000330: 4fa9 263c ee64 7fbc 4275 573c f75d 08bd
00000340: 8004 bcbb cb58 0abc 242a a6bd e4ae edbb
00000350: 9f37 0ebd 2da1 71bc c611 3dbd a8c3 363b
00000360: afc2 eb3c 8c8e 5b3d a092 8dbd 6aaf 0d3c
00000370: 3fbc 233d 2cbb 76bb 14d2 1b3d a792 973c
00000380: a026 4bba 627d 9d3c cc48 343b 6759 b33c
00000390: f623 063d 3ee3 423c 9e91 adbc 29c9 1c3c
000003a0: a02a f43d 4a24 83bb f686 e0bc dc78 583c
000003b0: c9ae b1bd 1c37 cdbc e44c 603d e5ff 5dbd
000003c0: 9af2 1abd 08ae fd3c a0ca 9f3d c833 59bc
000003d0: d8ef 0f3d b588 713d a8f6 883c f32a 27bd
000003e0: 063d 90bc 2439 b43d bcd4 6bbb 40f6 7d3c
000003f0: dc74 21bd a553 18bd 218e a9bc be50 80bd

std.constant6 f4 [128, 128]
-0.021116972 -0.00672552 0.033066496 0.010119308 0.009902649 0.01752244 0.01070055 -0.017740432
-0.012226321 -0.020950694 0.008501823 -0.01700738 -0.021085985 -0.06645401 -0.047271892 0.0011020522
0.004189186 -0.026275668 0.07040028 -0.06644766 -0.040435866 -0.040415153 -0.078153685 -0.030993521
0.004673698 -0.05823531 0.015774071 -0.055815704 -0.06438756 0.0016753147 -0.046151392 0.050010145
-0.061140023 -0.030235505 0.060989372 -0.02967558 -0.04727207 0.000671193 -0.003036553 0.00040861592
0.020227587 -0.010918817 -0.013502209 -0.024307057 0.048618797 0.032575063 -0.07938062 -0.046567336
0.057564415 -0.0044409446 0.0066888863 -0.013951761 -0.0071940823 -0.008355058 -0.04511424 0.03257611
0.053653188 -0.034455907 0.066633716 0.08562045 -0.07986403 -0.06283601 -0.009137945 0.022138605
0.0348686 -0.07125504 -0.058946155 -0.09571564 -0.018354408 -0.006666025 -0.030404411 -0.007982094
0.073159724 -0.006790768 -0.025819942 0.026335932 -0.06294451 0.016221128 -0.0077072755 0.050295465
0.022468112 -0.013401573 0.03861069 -0.01663139 -0.085469395 0.09653451 0.018078607 0.04012303
0.049782895 -0.023501242 0.029281368 0.034839932 -0.03914448 -0.037029687 0.01818273 0.027734542
-0.02298812 -0.012266968 0.009708788 0.03678175 0.0021410808 -0.0092809405 0.012568653 0.028150361
-0.00663257 0.05646281 0.003944547 -0.013661902 0.015479047 0.056185197 -0.035651814 0.028519858
0.060126368 0.04941781 -0.0335429 0.040491085 -0.008445046 -0.039007097 0.020273589 -0.038456082
0.077392384 -0.044662237 -0.068117306 0.063816756 0.034533404 0.0054849004 -0.008248691 0.023255203
-0.05762925 0.032601476 0.032990117 0.038947824 0.06184022 -0.028813237 0.01747428 0.029654836
0.06443034 0.007928829 0.031592455 -0.014810151 0.050017983 -0.032741047 -0.01592688 0.032002285
0.016397169 0.0651818 -0.028520005 0.0106362635 -0.00236023 -0.008984892 -0.01177544 0.053615205
0.035198547 0.043241203 0.059370186 -0.11575842 -0.036040988 -0.03990827 -0.036833607 0.008638647
-0.040549584 -0.071657166 0.08656267 0.030210258 0.0331931 0.013876051 0.012321256 0.043745317
-0.0047633704 0.0024195265 0.008044615 0.054550357 -0.012032808 -0.05945622 -0.051722396 -0.0024044265
-0.0038148158 -0.040605363 0.05893686 -0.00044599402 -0.022999413 0.014968852 -6.9323694e-05 0.016513763
-0.018657923 0.05132126 -0.019582728 0.003257025 0.008438399 0.020159958 -0.028222835 0.038948223
-0.0027956418 0.037175987 -0.0068241223 -0.015533417 0.033032857 -0.044550624 -0.0037076725 0.009925888
-0.09763274 -0.024879195 0.0825765 0.020909775 -0.08148501 -0.029413229 0.008548387 0.004975763
-0.040072642 0.056679327 0.048292916 -0.004219989 0.0030160914 -0.017874544 -0.07853373 -0.036863394
-0.037986785 -0.008357404 0.008815826 0.07598486 -0.0390848 0.018024797 -0.015505508 -0.033031557
-0.04837148 0.0308335 -0.06465423 -0.030882817 -0.046671424 0.05596379 0.03160862 0.04802993
0.0037629344 0.0033079141 0.07228985 0.037802085 -0.02520031 0.015784953 -0.04953672 -0.059145264
-0.071942545 -0.04822495 -0.07174216 0.016882759 -0.059693445 -0.06282043 0.0005546897 0.02105668
0.011954488 0.08946845 0.028670872 -0.030973457 0.06404428 0.016464585 0.11396972 -0.044753507
00000000: 80fd acbc c061 dcbb bc70 073d 74cb 253c
00000010: b83e 223c 388b 8f3c 5c51 2f3c 6254 91bc
00000020: e850 48bc caa0 abbc 3b4b 0b3c 1053 8bbc
00000030: 84bc acbc 0a19 88bd 2ca0 41bd bc72 903a
00000040: 7045 893b 1240 d7bc 062e 903d b615 88bd
00000050: 14a0 25bd 5c8a 25bd 0a0f a0bd 20e6 fdbc
00000060: d225 993b 2688 6ebd a038 813c 029f 64bd
00000070: a0dd 83bd 3c96 db3a 3e09 3dbd 70d7 4c3d
00000080: f66d 7abd 73b0 f7bc fecf 793d 341a f3bc
00000090: 5ca0 41bd 00f3 2f3a e800 47bb 803b d639
000000a0: 53b4 a53c d6e4 32bc 5f38 5dbc 981f c7bc
000000b0: 8124 473d 6e6d 053d 4e92 a2bd 64bd 3ebd
000000c0: aac8 6b3d 5885 91bb 722e db3b ed95 64bc
000000d0: 56bc ebbb a7e3 08bc b6c9 38bd 876e 053d
000000e0: 72c3 5b3d a321 0dbd 4277 883d c659 af3d
000000f0: c18f a3bd 2ab0 80bd 52b7 15bc 055c b53c
00000100: 61d2 0e3d 2aee 91bd 8671 71bd 9006 c4bd
00000110: fc5b 96bc ac6e dabb ac12 f9bc 54c7 02bc
00000120: c4d4 953d 1785 debb 5884 d3bc 74be d73c
00000130: 0de9 80bd 2ce2 843c 508d fcbb 9e02 4e3d
00000140: 0c0f b83c 4592 5bbc 3e26 1e3d 8e3e 88bc
00000150: 940a afbd e3b3 c53d 9619 943c 0c58 243d
00000160: 26e9 4b3d ad85 c0bc 7bdf ef3c 51b4 0e3d
00000170: f655 20bd 71ac 17bd f3f3 943c 8d33 e33c
00000180: 9551 bcbc 65fb 48bc 9c11 1f3c 76a8 163d
00000190: 6051 0c3b 160f 18bc c0ec 4d3c 969b e63c
000001a0: 0856 d9bb 8c45 673d 4241 813b 2cd6 5fbc
000001b0: d49b 7d3c 7322 663d a307 12bd 7aa2 e93c
000001c0: 1147 763d 546a 4a3d 4864 09bd fbd9 253d
000001d0: 175d 0abc e8c5 1fbd cc14 a63c 2084 1dbd
000001e0: e67f 9e3d c0ef 36bd 1681 8bbd 5cb2 823d
000001f0: e672 0d3d aeba b33b 8525 07bc b281 be3c
00000200: a60c 6cbd 2089 053d a520 073d c187 1f3d
00000210: 2c4c 7d3d bd09 ecbc 3926 8f3c b3ee f23c
00000220: 0ef4 833d ebe7 013c 1767 013d 47a6 72bc
00000230: a8df 4c3d 7a1b 06bd 1779 82bc d414 033d
00000240: 5b53 863c 097e 853d c9a2 e9bc b943 2e3c
00000250: 17ae 1abb 5e35 13bc c6ed 40bc 9e9b 5b3d
00000260: 5a2c 103d b01d 313d 272e 733d c012 edbd
00000270: b79f 13bd db76 23bd d6de 16bd 1d89 0d3c
00000280: 5217 26bd fec0 92bd c547 b13d 817b f73c
00000290: 7df5 073d 6058 633c 18df 493c 4a2e 333d
000002a0: 0c16 9cbb eb90 1e3b 90cd 033c 3270 5f3d
000002b0: 4125 45bc 5e88 73bd ddda 53bd 9593 1dbb
000002c0: fd01 7abb cf51 26bd c767 713d 4ed4 e9b9
000002d0: 4469 bcbc ea3f 753c e061 91b8 df47 873c
000002e0: 80d8 98bc 3e36 523d f56b a0bc d073 553b
000002f0: 3641 0a3c 7f26 a53c 9333 e7bc 2c88 1f3d
00000300: 1637 37bb d945 183d e39c dfbb e07f 7ebc
00000310: 764d 073d b77a 36bd 6cfc 72bb 31a0 223c
00000320: adf3 c7bd 74cf cbbc de1d a93d fa4a ab3c
00000330: 9de1 a6bd 03f4 f0bc 890e 0c3c ba0b a33b
00000340: 3623 24bd 9528 683d cbce 453d d547 8abb
00000350: 9ea9 453b a36d 92bc 4bd6 a0bd 12fe 16bd
00000360: 0898 1bbd 7eed 08bc 4170 103c f39d 9b3d
00000370: 6217 20bd bda8 933c d00a 7ebc 194c 07bd
00000380: 2c21 46bd 8996 fc3c 7069 84bd f6fd fcbc
00000390: 892a 3fbd 493a 653d 0a78 013d 08bb 443d
000003a0: 909b 763b 97c9 583b b30c 943d 5cd6 1a3d
000003b0: e170 cebc 724f 813c 04e7 4abd 4e42 72bd
000003c0: 9d56 93bd 8687 45bd 8eed 92bd b64d 8a3c
000003d0: 1d81 74bd ffa7 80bd 9868 113a 0f7f ac3c
000003e0: c2dc 433c 3c3b b73d 2ddf ea3c 0cbc fdbc
000003f0: a629 833d bde0 863c f568 e93d 744f 37bd

std.constant7 f4 [128]
0.016588572 -0.009381593 0.050062034 0.014345989 0.010659947 0.0085897185 0.003895478 0.004419519
0.053149108 -0.004541305 -0.005565227 -0.006666851 0.10192945 0.023337208 -0.003706356 -0.004004198
-0.013820959 0.07083097 0.0017963946 -0.014448829 -0.013633748 0.015129513 0.0038221546 -0.011967389
-0.010918948 -0.011844821 0.0013940906 -0.0066758026 0.012252767 -0.0016931955 0.00024982987 0.19580367
0.12816373 0.08875422 0.05930819 0.06688121 0.013859221 -0.014680729 0.00607345 -0.005220865
-0.0015610469 -0.011815441 0.0031893326 0.045274254 -0.017404938 0.008521428 0.12261635 -0.008303038
-0.014380753 0.06439215 0.102500975 0.04448759 0.019473894 0.035636045 -0.00853101 0.0006850901
0.06687884 -0.0052001094 -0.015629208 0.009563083 0.02928392 0.0016331462 0.008126071 0.01986785
0.004852182 -0.007369694 -0.008553728 0.0008054 -0.0044300365 -0.018613115 0.003942123 -0.0009069202
-0.0011215863 0.012997901 -0.0038378113 0.017906435 -0.0056642774 0.03061605 -0.01574003 0.0062741386
-0.00077166484 0.09788983 -0.007824893 0.013297817 0.112649195 -0.0067139743 0.15671748 -0.00787567
0.0062585794 0.005902474 0.0022741312 -0.017555077 -0.008916927 0.00718881 -0.01409887 -0.0040456667
-0.015074915 0.00396787 -0.00680921 0.113519 0.0032810695 -0.019465668 0.035871092 -0.004607961
0.001963003 0.01304717 0.00031722023 0.0012616073 -0.015067252 -0.010800449 -0.0052590556 0.0016194409
0.005868798 -0.00019633226 0.01285079 0.009351261 -0.014266915 0.14487967 -0.009342393 0.033580203
-0.015420133 0.00028209703 0.00069735775 0.0066231024 0.00027231732 -0.016419241 -0.009797935 -0.0011320328
00000000: c2e4 873c 41b5 19bc d90d 4d3d 700b 6b3c
00000010: 0fa7 2e3c e4bb 0c3c 474b 7f3b 9dd1 903b
00000020: e1b2 593d 3acf 94bb 825c b6bb 9a75 dabb
00000030: 63c0 d03d ac2d bf3c 56e6 72bb a635 83bb
00000040: 4e71 62bc d40f 913d 0075 eb3a c8ba 6cbc
00000050: 1560 5fbc c7e1 773c 1d7d 7a3b de12 44bc
00000060: 63e5 32bc c810 42bc ebb9 b63a b1c0 dabb
00000070: d4bf 483c 37ee ddba 99fb 8239 c280 483e
00000080: 5a3d 033e c6c4 b53d 25ed 723d 04f9 883d
00000090: c911 633c 7187 70bc cb03 c73b ca13 abbb
000000a0: 0b9c ccba 8d95 41bc 1f04 513b 7f71 393d
000000b0: cd94 8ebc 769d 0b3c 481e fb3d 7709 08bc
000000c0: 409d 6bbc 08e0 833d 08ec d13d 9f38 363d
000000d0: b787 9f3c 1af7 113d a6c5 0bbc 9e97 333a
000000e0: c6f7 883d ae65 aabb d308 80bc 7aae 1c3c
000000f0: d5e4 ef3c 4b0f d63a 3623 053c e7c1 a23c
00000100: 0eff 9e3b 797d f1bb f024 0cbc 7b21 533a
00000110: d729 91bb 887a 98bc ed2c 813b 62be 6dba
00000120: 3102 93ba 26f5 543c ca83 7bbb 84b0 923c
00000130: 679b b9bb 83ce fa3c 3cf1 80bc 4a97 cd3b
00000140: 8d49 4aba 777a c83d fb33 00bc 16df 593c
00000150: 9fb4 e63d e600 dcbb 8c7a 203e f408 01bc
00000160: c514 cd3b 8a69 c13b 9709 153b aacf 8fbc
00000170: 4d18 12bc 1c90 eb3b f2fe 66bc 8391 84bb
00000180: c7fc 76bc e804 823b cb1f dfbb a67c e83d
00000190: 3607 573b 7776 9fbc 91ed 123d 61fe 96bb
000001a0: baa5 003b ccc3 553c 9450 a639 845c a53a
000001b0: a3dc 76bc 5ef4 30bc 2854 acbb 6b43 d43a
000001c0: 0c4f c03b 8ade 4db9 1f8c 523c 0836 193c
000001d0: c7bf 69bc 565b 143e d610 19bc 658b 093d
000001e0: baa4 7cbc 6ce6 9339 e3ce 363a 9c06 d93b
000001f0: d0c5 8e39 a581 86bc 8587 20bc b860 94ba

std.constant8 f4 [128]
0.009075934 0.009507343 0.011142727 0.0016605632 -0.007518551 -0.0064953207 -0.008225674 -0.0019532607
-0.012301962 -0.017457912 -0.0054332796 -0.0023688967 0.019056374 0.005453339 -0.007638572 -0.001008748
-0.014110841 -0.004884203 -0.003400339 0.009999181 -0.0025219794 0.012233528 0.003583447 0.012827604
-0.015066552 -0.007480156 0.003242694 -0.01329666 0.0028890527 -0.0052871066 0.007042282 0.005651625
-0.0011842144 0.010826661 -0.005542359 -0.0055997125 0.007111049 -0.013785331 0.0122865755 -0.0011478037
0.0072139963 -0.013094279 -0.00879711 0.012021699 -0.00712246 0.009315863 -0.006526689 0.011087377
-0.011052381 0.0021246823 -0.012056351 0.0060542086 0.0072089154 -0.0067213974 0.014040746 -0.008399648
-0.012393 0.00034218605 -0.016219292 0.0016735201 0.0049680746 0.0050635445 0.006561098 0.011150253
-0.0051855184 0.010643395 0.012673797 0.008549445 0.008378357 0.007389266 -0.008933414 -0.015135246
-0.0042324844 0.0060900613 0.010089529 -0.0066491957 0.0034981107 -0.007902858 0.016213527 -0.0067110094
-0.010235371 -0.01112794 -0.014279374 -0.013643829 -0.012849489 0.0062408643 -0.007919583 -0.004135201
0.009914612 -0.0076931342 0.00812698 0.012597954 -0.013807048 0.0064010164 -0.0145930685 -0.0060614953
-0.0067123747 0.008144747 0.014152873 0.010474005 0.004022341 -0.013213318 -0.0016796042 0.004564845
-0.0074404953 0.0077356366 -0.00067377486 0.0059048436 -0.013919397 -0.014399872 0.005423485 -0.007132174
-0.008470421 0.0053680986 -0.0060942513 0.010197476 -0.009417551 -0.008826941 0.012273575 -0.0042599496
0.015756644 -0.015050284 -0.0073539107 0.007615582 -0.0076376637 0.014261795 0.0002942903 0.001211744
00000000: 3ab3 143c b0c4 1b3c fc8f 363c 41a7 d93a
00000010: 2d5e f6bb b3d6 d4bb fac4 06bc 4702 00bb
00000020: 2b8e 49bc e503 8fbc a709 b2bb 7e3f 1bbb
00000030: 1d1c 9c3c ecb1 b23b fc4c fabb f737 84ba
00000040: 2831 67bc aa0b a0bb 39d8 5ebb 9bd3 233c
00000050: cb47 25bb 236f 483c 44d8 6a3b df2a 523c
00000060: b3d9 76bc 191c f5bb 6183 543b 3cda 59bc
00000070: 4356 3d3b 773f adbb f1c2 e63b 4431 b93b
00000080: a437 9bba 4f62 313c ad9c b5bb cb7d b7bb
00000090: cd03 e93b dedb 61bc a24d 493c e771 96ba
000000a0: 6363 ec3b 6389 56bc c121 10bc a9f6 443c
000000b0: 8663 e9bb 90a1 183c d6dd d5bb d4a7 353c
000000c0: 0c15 35bc 413e 0b3b 0088 45bc 6262 c63b
000000d0: c438 ec3b 2b3f dcbb 280b 663c ad9e 09bc
000000e0: 020c 4bbc 6f67 b339 52de 84bc 045a db3a
000000f0: 3bcb a23b 17ec a53b 7bfe d63b 8daf 363c
00000100: 48eb a9bb a261 2e3c c2a5 4f3c f912 0c3c
00000110: 6045 093c a821 f23b 745d 12bc d3f9 77bc
00000120: a7b0 8abb 238f c73b 8d4e 253c 7fe1 d9bb
00000130: 8f40 653b fd7a 01bc 3bd2 843c 07e8 dbbb
00000140: 42b2 27bc f751 36bc 09f4 69bc 5e8a 5fbc
00000150: aa86 52bc 2a80 cc3b 23c1 01bc 9580 87bb
00000160: e670 223c b016 fcbb 0627 053c a667 4e3c
00000170: f536 62bc 9ebf d13b c417 6fbc 829f c6bb
00000180: 7bf3 dbbb 8b71 053c 74e1 673c 299b 2b3c
00000190: d8cd 833b ac7c 58bc 2a26 dcba b294 953b
000001a0: 66cf f3bb 397b fd3b 44a0 30ba 6b7d c13b
000001b0: 2f0e 64bc 71ed 6bbc 7db7 b13b 03b5 e9bb
000001c0: 85c7 0abc e0e6 af3b 49b2 c7bb 5013 273c
000001d0: 124c 1abc e09e 10bc 1b17 493c 0c97 8bbb
000001e0: 1414 813c 7795 76bc 13f9 f0bb 228c f93b
000001f0: 5e45 fabb 4eaa 693c fa4a 9a39 62d3 9e3a

std.constant9 f4 [128]
1.0 1.0 1.0 1.0 1.0 1.0 1.0 1.0
1.0 1.0 1.0 1.0 1.0 1.0 1.0 1.0
1.0 1.0 1.0 1.0 1.0 1.0 1.0 1.0
1.0 1.0 1.0 1.0 1.0 1.0 1.0 1.0
1.0 1.0 1.0 1.0 1.0 1.0 1.0 1.0
1.0 1.0 1.0 1.0 1.0 1.0 1.0 1.0
1.0 1.0 1.0 1.0 1.0 1.0 1.0 1.0
1.0 1.0 1.0 1.0 1.0 1.0 1.0 1.0
1.0 1.0 1.0 1.0 1.0 1.0 1.0 1.0
1.0 1.0 1.0 1.0 1.0 1.0 1.0 1.0
1.0 1.0 1.0 1.0 1.0 1.0 1.0 1.0
1.0 1.0 1.0 1.0 1.0 1.0 1.0 1.0
1.0 1.0 1.0 1.0 1.0 1.0 1.0 1.0
1.0 1.0 1.0 1.0 1.0 1.0 1.0 1.0
1.0 1.0 1.0 1.0 1.0 1.0 1.0 1.0
1.0 1.0 1.0 1.0 1.0 1.0 1.0 1.0
00000000: 0000 803f 0000 803f 0000 803f 0000 803f
00000010: 0000 803f 0000 803f 0000 803f 0000 803f
00000020: 0000 803f 0000 803f 0000 803f 0000 803f
00000030: 0000 803f 0000 803f 0000 803f 0000 803f
00000040: 0000 803f 0000 803f 0000 803f 0000 803f
00000050: 0000 803f 0000 803f 0000 803f 0000 803f
00000060: 0000 803f 0000 803f 0000 803f 0000 803f
00000070: 0000 803f 0000 803f 0000 803f 0000 803f
00000080: 0000 803f 0000 803f 0000 803f 0000 803f
00000090: 0000 803f 0000 803f 0000 803f 0000 803f
000000a0: 0000 803f 0000 803f 0000 803f 0000 803f
000000b0: 0000 803f 0000 803f 0000 803f 0000 803f
000000c0: 0000 803f 0000 803f 0000 803f 0000 803f
000000d0: 0000 803f 0000 803f 0000 803f 0000 803f
000000e0: 0000 803f 0000 803f 0000 803f 0000 803f
000000f0: 0000 803f 0000 803f 0000 803f 0000 803f
00000100: 0000 803f 0000 803f 0000 803f 0000 803f
00000110: 0000 803f 0000 803f 0000 803f 0000 803f
00000120: 0000 803f 0000 803f 0000 803f 0000 803f
00000130: 0000 803f 0000 803f 0000 803f 0000 803f
00000140: 0000 803f 0000 803f 0000 803f 0000 803f
00000150: 0000 803f 0000 803f 0000 803f 0000 803f
00000160: 0000 803f 0000 803f 0000 803f 0000 803f
00000170: 0000 803f 0000 803f 0000 803f 0000 803f
00000180: 0000 803f 0000 803f 0000 803f 0000 803f
00000190: 0000 803f 0000 803f 0000 803f 0000 803f
000001a0: 0000 803f 0000 803f 0000 803f 0000 803f
000001b0: 0000 803f 0000 803f 0000 803f 0000 803f
000001c0: 0000 803f 0000 803f 0000 803f 0000 803f
000001d0: 0000 803f 0000 803f 0000 803f 0000 803f
000001e0: 0000 803f 0000 803f 0000 803f 0000 803f
000001f0: 0000 803f 0000 803f 0000 803f 0000 803f

std.constant10 f4 [128]
0.017202867 -0.008631956 0.05046821 0.015860038 0.009988434 0.008852956 0.0035006546 0.0045430535
0.05340457 -0.0037241445 -0.0054851375 -0.006440599 0.10315757 0.022404812 -0.0033122506 -0.0039410144
-0.014012451 0.07037611 0.002304126 -0.014405847 -0.013407883 0.017821994 0.0044043 -0.011976854
-0.011094183 -0.011640717 0.0018454792 -0.0068015466 0.012107554 -0.0014072469 2.9715175e-05 0.19543335
0.12985533 0.089646295 0.06041334 0.06646035 0.01433486 -0.014375959 0.005214644 -0.00508745
-0.0010043374 -0.011851754 0.0026167636 0.04423128 -0.01783856 0.008254095 0.122595824 -0.0076386607
-0.014461733 0.0643057 0.10148496 0.044181008 0.01790871 0.03364751 -0.008715233 0.0015127745
0.06593767 -0.0054874327 -0.015799802 0.009849424 0.029150024 0.0014167245 0.008259908 0.019391742
0.007332932 -0.00674409 -0.008519972 0.001118251 -0.005557972 -0.019354194 0.0039632777 -0.0015128168
-0.0012869061 0.012909766 -0.004026 0.016502872 -0.0054267948 0.030041328 -0.015557363 0.0062935185
-0.00034357028 0.099730566 -0.008467667 0.013089259 0.113892704 -0.0070126266 0.15560763 -0.0073288656
0.006479242 0.006189968 0.0020201113 -0.0170006 -0.008962707 0.0073128715 -0.014173034 -0.0032529982
-0.015289284 0.004355784 -0.006747392 0.11983538 0.0044723526 -0.019786531 0.035929106 -0.0049669454
0.0024080654 0.013327824 0.0006561245 0.00078533456 -0.015718028 -0.010672188 -0.0047241487 0.0016969126
0.006010897 0.0008110173 0.012816658 0.010265724 -0.014080351 0.14389977 -0.009907807 0.033462882
-0.015538499 0.00034527536 0.001936272 0.0076646237 0.00019082119 -0.016229847 -0.009748667 -0.0009421458
00000000: 07ed 8c3c 0c6d 0dbc c1b7 4e3d e9ec 813c
00000010: 87a6 233c fd0b 113c 3d6b 653b e5dd 943b
00000020: c0be 5a3d c710 74bb abbc b3bb a90b d3bb
00000030: 4744 d33d 4c8a b73c 5812 59bb a023 81bb
00000040: 7b94 65bc 5a21 903d d200 173b 8006 6cbc
00000050: bdac 5bbc 6eff 913c f251 903b 913a 44bc
00000060: 60c4 35bc b5b8 3ebc 02e4 f13a 82df debb
00000070: c35e 463c 5f73 b8ba da44 f937 ae1f 483e
00000080: ccf8 043e 7a98 b73d fa73 773d 5d1c 883d
00000090: c3dc 6a3c 2489 6bbc 9bdf aa3b a0b4 a6bb
000000a0: f9a3 83ba dc2d 42bc 027e 2b3b dc2b 353d
000000b0: 2c22 92bc 2f3c 073c 8513 fb3d bb4d fabb
000000c0: e8f0 6cbc b5b2 833d 59d7 cf3d 25f7 343d
000000d0: 49b5 923c f9d1 093d 56ca 0ebc 4a48 c63a
000000e0: 540a 873d eccf b3bb 966e 81bc 7a5f 213c
000000f0: 08cc ee3c 63b1 b93a 9154 073c 6edb 9e3c
00000100: 1849 f03b 87fd dcbb 5a97 0bbc 4792 923a
00000110: a61f b6bb b08c 9ebc 62de 813b b549 c6ba
00000120: 67ad a8ba 7c83 533c 89ec 83bb 0831 873c
00000130: 41d3 b1bb 3b19 f63c 4fe4 7ebc dc39 ce3b
00000140: 3921 b4b9 8a3f cc3d f8bb 0abc 5574 563c
00000150: 9440 e93d 2dca e5bb 9b57 1f3e fb26 f0bb
00000160: d24f d43b 37d5 ca3b d863 043b d844 8bbc
00000170: 51d8 12bc d0a0 ef3b 0336 68bc 4130 55bb
00000180: e87f 7abc f7ba 8e3b 3a19 ddbb 406c f53d
00000190: d08c 923b 5d17 a2bc 662a 133d c2c1 a2bb
000001a0: a2d0 1d3b f25c 5a3c c5ff 2b3a e9de 4d3a
000001b0: 18c3 80bc 67da 2ebc 08cd 9abb f06a de3a
000001c0: 0ff7 c43b 739a 543a f6fc 513c 9131 283c
000001d0: 46b1 66bc 765a 133e 5b54 22bc 6010 093d
000001e0: 3095 7ebc 1306 b539 82ca fd3a 8627 fb3b
000001f0: 2c17 4839 75f4 84bc dfb8 1fbc 56fa 76ba

std.constant11 f4 [128, 9]
0.17187099 -0.083516955 0.002927063 0.10940547 -0.09617615 -0.04264168 0.019555185 0.06706812
-0.021953698 0.028859515 -0.013191717 0.059491366 -0.07978476 0.08705215 0.04664099 -0.08261054
-0.11466532 0.015127816 0.043041207 0.1272357 0.08382881 -0.034277834 -0.029165607 -0.08571863
0.11462013 0.08116115 0.090413705 0.14999847 0.030026972 0.003594883 -0.103521354 -0.07263143
0.08218961 -0.064410135 -0.0088288635 -0.10717577 0.10672341 -0.09126398 -0.034780066 0.086887375
-0.051448807 0.0037683807 0.060278945 -0.05661082 0.06985427 0.0130319735 0.03851412 -0.08521477
-0.0056167166 -0.093271695 0.10257742 0.027274668 0.053572748 -0.1103093 0.07516285 0.036738228
-0.052542023 -0.0038454626 -0.06248975 -0.00043111623 -0.08594209 0.0038753527 0.026854541 0.14559889
0.0079763895 0.023261027 0.09333067 -0.047739837 -0.023623638 0.09337509 -0.10168989 -0.045611992
0.05866474 0.15424167 0.08788198 0.08244024 0.091906175 0.0950585 0.036905676 0.1504202
0.037788965 0.06188193 -0.076005585 -0.08775603 -0.014304961 0.09674502 0.1007379 -0.102798715
-0.044905912 0.015874326 -0.069896944 0.08937738 0.098112255 -0.013098177 0.078851104 -0.10366892
-0.02036914 0.0052562235 0.08127613 0.073087476 -0.11351254 0.0007128098 -0.09923456 0.09627222
-0.049134273 -0.0071974327 0.0927201 0.06969268 0.2048149 0.0762024 0.11794014 -0.029169645
0.06295031 0.11808598 0.12061762 0.03987593 0.038666412 0.16764612 0.10136328 0.09576135
0.048546057 0.0043572616 -0.047486983 0.06931843 -0.056061964 -0.05611648 0.112609655 0.019706035
0.059730623 -0.042126574 0.014168406 0.028536325 0.06455916 0.050940458 -0.0803246 -0.08411163
0.10021162 -0.101723514 -0.06536606 0.04681512 0.004894292 -0.025306648 0.015041672 -0.08087227
-0.09943195 0.017341284 0.012665627 0.09121204 0.04572641 0.0038474018 -0.007746117 0.049090292
-0.076270014 0.15582655 -0.008974362 0.14246412 0.12749156 0.078252725 0.05463351 0.11716211
0.11265125 0.05376196 -0.05282521 0.097674504 0.0052786935 0.010459966 -0.07778086 0.006401376
0.011738086 0.024598574 0.050718475 0.040471267 -0.08892309 -0.018361172 -0.06396027 -0.09780879
-0.093930654 0.045191012 0.025069129 0.052474618 0.045442626 0.0103978785 0.010833314 -0.06310954
-0.05066871 -0.1109554 -0.010978193 -0.061470203 -0.0477885 -0.18574974 0.061090272 0.03770623
0.10777834 0.0647553 0.12606032 -0.022600006 -0.087642156 -0.0061856126 0.15001675 -0.08210613
0.10890805 -0.028138122 0.023777518 0.008166229 -0.040521692 -0.043183167 0.09301213 -0.10130211
-0.07513394 0.036779154 0.030373776 -0.04449047 0.06732242 -0.007711261 0.06687765 0.098733775
-0.04439686 -0.05818655 -0.10763083 0.06734656 0.08185033 -0.061642963 0.01369912 -0.058438618
0.001978757 -0.054999493 -0.085324 0.0063922205 -0.08460194 0.021351347 0.092703074 -0.04281458
-0.02455228 0.015204927 -0.052317806 0.090005316 -0.04759335 0.0043218806 0.007918416 0.045054935
-0.08403546 -0.048147023 -0.026028529 -0.11313954 -0.0733237 -0.067865096 -0.0545311 0.038983397
-0.09009869 0.08856589 0.011187653 0.048206944 0.16730818 0.10711121 -0.072769605 -0.04057986
00000000: f3fe 2f3e f00a abbd f8d3 3f3b fa0f e03d
00000010: 00f8 c4bd 0ba9 2ebd 3232 a03c 035b 893d
00000020: 3ed8 b3bc ca6a ec3c 1222 58bc 38ad 733d
00000030: 3166 a3bd 6648 b23d 9f0a 3f3d b72f a9bd
00000040: a7d5 eabd a9da 773c fa4b 303d 134a 023e
00000050: 70ae ab3d ea66 0cbd b6ec eebc 408d afbd
00000060: f5bd ea3d d137 a63d d22a b93d 3399 193e
00000070: 20fb f53c 2198 6b3b 0103 d4bd cabf 94bd
00000080: 0753 a83d 76e9 83bd f0a6 10bc f87e dbbd
00000090: ce91 da3d 9ce8 babd 8b75 0ebd 02f2 b13d
000000a0: fcbb 52bd f0f6 763b 0ee7 763d bfe0 67bd
000000b0: c10f 8f3d 0f84 553c fbc0 1d3d 1585 aebd
000000c0: 6f0c b8bb 3b05 bfbd 1c14 d23d 206f df3c
000000d0: 196f 5b3d d8e9 e1bd fbee 993d d37a 163d
000000e0: 4e36 57bd 2804 7cbb 41f5 7fbd 7107 e2b9
000000f0: 6802 b0bd a1f9 7d3b 0efe db3c e017 153e
00000100: 67af 023c e98d be3c 2624 bf3d d98a 43bd
00000110: 5c86 c1bc 703b bf3d ca42 d0bd a4d3 3abd
00000120: 704a 703d 87f1 1d3e 78fb b33d 6ed6 a83d
00000130: 4e39 bc3d 08ae c23d 682a 173d c107 1a3e
00000140: 9ac8 1a3d e877 7d3d d1a8 9bbd 6fb9 b3bd
00000150: 5b5f 6abc 4122 c63d ac4f ce3d 2288 d2bd
00000160: 43ef 37bd e00a 823c 2126 8fbd 7d0b b73d
00000170: 14ef c83d bc99 56bc b07c a13d 5f50 d4bd
00000180: 2fdd a6bc 663c ac3b 1a74 a63d e3ae 953d
00000190: 4379 e8bd dbdb 3a3a 7d3b cbbd 5f2a c53d
000001a0: 0541 49bd 71d8 ebbb 09e4 bd3d 09bb 8e3d
000001b0: ffba 513e 0110 9c3d 9a8a f13d 2ef5 eebc
000001c0: 18ec 803d 10d7 f13d 5f06 f73d f154 233d
000001d0: ac60 1e3d 6dab 2b3e 8d97 cf3d 871e c43d
000001e0: 3bd8 463d 5cc7 8e3b b681 42bd d2f6 8d3d
000001f0: 3ba1 65bd 65da 65bd e49f e63d 8d6e a13c
00000200: 19a8 743d ea8c 2cbd 9a22 683c 03c5 e93c
00000210: 9837 843d f1a6 503d 3981 a4bd b842 acbd
00000220: c03b cd3d 6b54 d0bd a4de 85bd 36c1 3f3d
00000230: 4c60 a03b e34f cfbc 5871 763c 5ca0 a5bd
00000240: faa2 cbbd 4f0f 8e3c 7d83 4f3c 61cd ba3d
00000250: 9e4b 3b3d b124 7c3b 24d3 fdbb e712 493d
00000260: 7433 9cbd ff90 1f3e 3409 13bc 1de2 113e
00000270: 268d 023e f742 a03d 63c7 5f3d b0f2 ef3d
00000280: b3b5 e63d 8035 5c3d 3f5f 58bd 9209 c83d
00000290: e4f8 ac3b 4760 2b3c 924b 9fbd a2c2 d13b
000002a0: 1a51 403c f382 c93c 2dbe 4f3d 33c5 253d
000002b0: 4f1d b6bd 2b6a 96bc 9afd 82bd fa4f c8bd
000002c0: b75e c0bd 361a 393d c65d cd3c a0ef 563d
000002d0: 0c22 3a3d dd5b 2a3c 367e 313c 933f 81bd
000002e0: fe89 4fbd 963c e3bd e1dd 33bc 2ec8 7bbd
000002f0: e0bd 43bd 2e35 3ebe cb39 7a3d d971 1a3d
00000300: e4ba dc3d 6d9e 843d f515 013e a623 b9bc
00000310: bb7d b3bd aeb0 cabb fe9d 193e 4227 a8bd
00000320: 2f0b df3d eb81 e6bc 12c9 c23c a6cb 053c
00000330: 13fa 25bd d5e0 30bd 257d be3d 7b77 cfbd
00000340: d3df 99bd bda5 163d 6dd2 f83c a43b 36bd
00000350: 56e0 893d bfae fcbb 26f7 883d ef34 ca3d
00000360: 7bd9 35bd 0555 6ebd 8d6d dcbd feec 893d
00000370: 25a1 a73d 557d 7cbd 4672 603c 555d 6fbd
00000380: 09ae 013b 2647 61bd 59be aebd d575 d13b
00000390: c843 adbd 05e9 ae3c 1cdb bd3d 575e 2fbd
000003a0: dd21 c9bc 161e 793c 324b 56bd b554 b83d
000003b0: 3ff1 42bd 909e 8d3b 3ebc 013c 868b 383d
000003c0: c91a acbd d035 45bd c839 d5bc b4b5 e7bd
000003d0: bc2a 96bd dbfc 8abd 015c 5fbd 0ead 1f3d
000003e0: a985 b8bd 0962 b53d 6b4c 373c a574 453d
000003f0: d652 2b3e 1f5d db3d 3b08 95bd 1137 26bd

std.constant12 f4 [128, 9]
0.15222366 -0.011093301 -0.08178951 -0.045545135 0.03214653 0.0050830725 0.045033157 0.10932228
-0.04694778 0.07842619 0.05898932 0.09138923 -0.026434034 -0.008997555 -0.087370865 0.05894444
-0.10816648 -0.1498499 -0.10176349 0.08490047 -0.06667217 0.021869434 0.11248102 0.024845136
-0.06576674 0.025997296 0.07514316 -0.18471038 -0.046664823 -0.089292206 0.022610612 0.06418029
-0.036046676 0.030300444 0.018096149 0.09589769 -0.17526376 -0.019758971 0.06288189 -0.084603675
0.102947734 -0.087632 0.07821753 0.04866894 0.069787666 -0.08003694 0.05385061 0.007655231
-0.011957521 -0.080211416 -0.104855604 -0.022790652 -0.039771575 0.12383296 -0.04464979 -0.06282958
-0.08407873 0.07978038 0.021668248 0.05056131 -0.06283541 -0.10644174 -0.050825994 -0.1894298
-0.049912624 0.023395676 -0.051999167 0.1281658 -0.020052275 0.07610517 -0.011470818 0.09395332
0.14154771 -0.07537985 0.08191292 -0.07177461 -0.12596111 0.03660303 -0.03034331 0.035255965
-0.061080523 -0.13998158 -0.0015051127 0.07797494 0.065874696 0.07257528 -0.07639155 -0.0996782
0.089783385 0.070031665 0.03316555 0.036123943 -0.027642503 -0.100196235 -0.07257373 0.0243966
-0.0436535 -0.043201733 0.08737116 -0.009424953 0.04102267 -0.10441102 -0.06086197 -0.041844897
0.0508619 -0.007101427 0.026574153 -0.081039816 0.27146524 0.020424923 0.122568846 -0.11119881
0.036853816 -0.060079888 0.097443506 -0.09153281 -0.08124036 0.073786534 -0.061061718 0.092004724
-0.07021027 0.032487128 0.04141624 0.09949731 0.015436157 -0.17715251 -0.033002373 -0.07548184
0.0093836645 -0.09362947 0.111806504 0.034535717 -0.05304674 0.011684348 0.054839097 0.051781606
-0.08157093 0.08673469 -0.044916295 -0.03309463 -0.03796645 -0.08804269 0.11110976 -0.058439597
-0.013171987 0.04675569 0.007022367 -0.062068537 0.0893047 0.074694976 0.0833191 0.055604424
0.07202951 0.18900809 -0.01734756 0.03138284 -0.06555142 -0.1593068 0.045366313 -0.027969241
0.034355648 -0.1791309 0.11260134 -0.04541502 -0.06239733 -0.05825637 -0.076010816 0.08624484
0.037273444 -0.048979875 -0.018187318 0.07948838 0.0248999 0.040849037 0.10874675 0.0031633053
-0.057360783 -0.028097866 -0.07139331 -0.037516423 -0.017331418 -0.012240172 -0.032192178 -0.02844448
-0.055324335 0.006806446 0.08884079 -0.010071385 -0.0156111745 -0.101660416 -0.017372638 0.08599349
0.10236238 0.08311434 -0.076507464 -0.045802332 0.05493811 0.0042050257 0.11251573 -0.10114474
-0.059286263 0.097596854 -0.05408209 0.07838376 0.073160425 -0.016611245 -0.058030974 -0.0032715516
-0.0781277 -0.0075875246 0.087396376 0.020154033 0.1202501 -0.0892988 -0.06137869 0.007500364
0.07977413 0.016144654 -0.073957585 -0.06441685 -0.079842694 0.030461665 0.045904428 0.05752794
-0.047804397 -0.0068098246 0.05292944 0.04910062 -0.083512925 -0.018920157 0.05964264 0.06750352
-0.04598713 0.027249688 -0.029196426 0.0027440735 -0.093549706 0.111889385 0.13200064 0.0033732255
-0.041437622 0.05519052 0.101381145 0.1646276 0.03904572 -0.0704586 0.019633802 0.06770671
-0.020451944 0.015275577 -0.029670153 -0.028979069 0.11214737 -0.043771397 0.009220955 -0.0034071223
00000000: 85e0 1b3e adc0 35bc 4281 a7bd 898d 3abd
00000010: 14ac 033d e78f a63b b074 383d 5ce4 df3d
00000020: 514c 40bd e99d a03d c99e 713d 472a bb3d
00000030: 308c d8bc 7b6a 13bc 7fef b2bd ba6f 713d
00000040: 6386 ddbd 4172 19be 6069 d0bd 4ce0 ad3d
00000050: 6b8b 88bd 8727 b33c 735c e63d 0788 cb3c
00000060: b6b0 86bd 48f8 d43c a8e4 993d b824 3dbe
00000070: 9d23 3fbd d5de b6bd e439 b93c f570 833d
00000080: aea5 13bd a338 f83c 603e 943c 0266 c43d
00000090: 5878 33be 91dd a1bc 38c8 803d b144 adbd
000000a0: 43d6 d23d 6878 b3bd 8330 a03d 1559 473d
000000b0: d6ec 8e3d 68ea a3bd 7592 5c3d bbd8 fa3b
000000c0: 7ae9 43bc e245 a4bd 89be d6bd 76b3 babc
000000d0: 85e7 22bd 239c fd3d b3e2 36bd cbac 80bd
000000e0: 7831 acbd e563 a33d 9c81 b13c 6019 4f3d
000000f0: daaf 80bd 21fe d9bd eb2e 50bd e3f9 41be
00000100: 2e71 4cbd 4aa8 bf3c 14fd 54bd e53d 033e
00000110: ab44 a4bc 07dd 9b3d 19f0 3bbc 996a c03d
00000120: e2f1 103e c060 9abd f6c1 a73d 91fe 92bd
00000130: f3fb 00be 0fed 153d 8992 f8bc 8f68 103d
00000140: 922f 7abd 5557 0fbe 3447 c5ba 53b1 9f3d
00000150: 50e9 863d 59a2 943d 2c73 9cbd 1624 ccbd
00000160: 5ae0 b73d c36c 8f3d 9ad8 073d b3f6 133d
00000170: 8872 e2bc af33 cdbd 89a1 94bd 61db c73c
00000180: 03ce 32bd 4df4 30bd a7ef b23d 1e6b 1abc
00000190: 6307 283d 72d5 d5bd 674a 79bd 8e65 2bbd
000001a0: 9154 503d 16b3 e8bb 0ab2 d93c 34f8 a5bd
000001b0: 7efd 8a3e 2b52 a73c 6005 fb3d 34bc e3bd
000001c0: 07f4 163d 5416 76bd 7690 c73d 8e75 bbbd
000001d0: 5961 a6bd 651d 973d da1b 7abd f96c bc3d
000001e0: 67ca 8fbd 3911 053d 13a4 293d 3fc5 cb3d
000001f0: efe7 7c3c 7867 35be 7f2d 07bd 3996 9abd
00000200: f1bd 193c cfc0 bfbd cffa e43d 5375 0d3d
00000210: 8a47 59bd b56f 3f3c f69e 603d f318 543d
00000220: a90e a7bd f5a1 b13d 26fa 37bd 3c8e 07bd
00000230: b582 1bbd ba4f b4bd 848d e33d 5c5e 6fbd
00000240: 51cf 57bc e582 3f3d e21b e63b 943b 7ebd
00000250: 62e5 b63d aef9 983d 34a3 aa3d 77c1 633d
00000260: 3584 933d 568b 413e 781c 8ebc 4b8b 003d
00000270: d33f 86bd 5221 23be 07d2 393d c01f e5bc
00000280: 82b8 0c3d 176e 37be 889b e63d 1a05 3abd
00000290: 5894 7fbd 3b9e 6ebd 8fab 9bbd 22a1 b03d
000002a0: 0aac 183d 1f9f 48bd 92fd 94bc ceca a23d
000002b0: e0fa cb3c 5251 273d 9eb6 de3d 754f 4f3b
000002c0: 24f3 6abd 7f2d e6bc a836 92bd d2aa 19bd
000002d0: 9efa 8dbc 018b 48bc f2db 03bd 6604 e9bc
000002e0: c59b 62bd 9b08 df3b 29f2 b53d 7302 25bc
000002f0: 03c6 7fbc 5633 d0bd 1051 8ebc 5b1d b03d
00000300: 5ea3 d13d da37 aa3d f2af 9cbd 3a9b 3bbd
00000310: c906 613d 50ca 893b a66e e63d f924 cfbd
00000320: 27d6 72bd dce0 c73d 2e85 5dbd aa87 a03d
00000330: 22d5 953d 4e14 88bc e3b1 6dbd 8767 56bb
00000340: 6a01 a0bd c5a0 f8bb dffc b23d 121a a53c
00000350: af45 f63d 4ae2 b6bd 3968 7bbd 9dc5 f53b
00000360: 9e60 a33d cb41 843c 1377 97bd fbec 83bd
00000370: 9184 a3bd be8a f93c 4806 3c3d 6ba2 6b3d
00000380: 8bce 43bd f324 dfbb 8acc 583d bb1d 493d
00000390: d308 abbd 72fe 9abc d74b 743d 493f 8a3d
000003a0: 005d 3cbd bd3a df3c 582d efbc ead5 333b
000003b0: fd96 bfbd 4326 e53d 2d2b 073e 5511 5d3b
000003c0: 7fba 29bd 740f 623d eba0 cf3d 2394 283e
000003d0: 68ee 1f3d 994c 90bd 11d7 a03c d1a9 8a3d
000003e0: d68a a7bc 6a46 7a3c d20e f3bc 8365 edbc
000003f0: 85ad e53d a349 33bd 7d13 173c 074a 5fbb
